results/maxAgent1/My Behavior/checkpoint.pt (torch, 477743 bytes, 57 tensors)

discrete_act_size_vector f4 [1, 2]
00000000: 0000 4040 0000 4040
3.0 3.0

network_body.observation_encoder.processors.0.normalizer.running_mean f4 [13]
00000000: 1f22 2244 566e 1544 c42b 4b44 b7b7 6244
00000010: 0000 0000 6ced bb44 8432 9043 2d97 0644
00000020: ff13 3a44 3f8a 2943 cd3b ae42 7159 2d43
00000030: 346a 6143
648.53314 597.724 812.68384 906.87054 0.0 1503.4194 288.39465 538.3621
744.31244 169.54002 87.1168 173.34938 225.41486

network_body.observation_encoder.processors.0.normalizer.running_variance f4 [13]
00000000: d260 8552 86e5 5f52 4e85 9f52 794c c453
00000010: 0000 803f 352d 9953 aa2b a552 ab4d 8e53
00000020: ce60 d853 4db9 cf51 48cf a351 67a1 c352
00000030: 51aa bd52
2.864275e+11 2.4040712e+11 3.4256814e+11 1.6861932e+12 1.0 1.3157769e+12 3.5470108e+11 1.2223768e+12
1.8586741e+12 1.1152088e+11 8.794466e+10 4.2011325e+11 4.0730313e+11

network_body.processors.0.normalizer.running_mean f4 [13]
00000000: 1f22 2244 566e 1544 c42b 4b44 b7b7 6244
00000010: 0000 0000 6ced bb44 8432 9043 2d97 0644
00000020: ff13 3a44 3f8a 2943 cd3b ae42 7159 2d43
00000030: 346a 6143
648.53314 597.724 812.68384 906.87054 0.0 1503.4194 288.39465 538.3621
744.31244 169.54002 87.1168 173.34938 225.41486

network_body.processors.0.normalizer.running_variance f4 [13]
00000000: d260 8552 86e5 5f52 4e85 9f52 794c c453
00000010: 0000 803f 352d 9953 aa2b a552 ab4d 8e53
00000020: ce60 d853 4db9 cf51 48cf a351 67a1 c352
00000030: 51aa bd52
2.864275e+11 2.4040712e+11 3.4256814e+11 1.6861932e+12 1.0 1.3157769e+12 3.5470108e+11 1.2223768e+12
1.8586741e+12 1.1152088e+11 8.794466e+10 4.2011325e+11 4.0730313e+11

network_body._body_endoder.seq_layers.0.weight f4 [128, 13]
00000000: 9a78 8d3f 294f 753f 1c9a e7be a5cd 08bd
00000010: 6e24 b5be 5a2e e4be 25e5 27be c532 41bf
00000020: 26c1 4bbf 8415 abbe 2f0c 383e de75 82bf
00000030: cb5b 18be 861b 92be f9f3 3abe 1212 7b3f
00000040: d83b 06be 436d ef3d 4f8e 443f 07e7 8c3f
00000050: 90b4 1ebf 8f65 fabe fc82 57bf 571b 5c3f
00000060: aeb8 9bbe 061f f1bd 00cb 973e f049 d9be
00000070: e13d a2be 39ae 5ebe 3836 5d3e 91e4 a73e
00000080: 15ec de3e 863e 3f3e 35f4 6cbf a41b 9cbc
00000090: 05f1 e73c 30bb 143f 20d5 173e c17f b3bb
000000a0: 1948 42bf 2cd5 a13d 2451 9fbd 05c7 00be
000000b0: e682 f33d a774 cd3e 1e92 c23e fee3 65bf
000000c0: 20c6 283f 0f80 8f3e 1d24 b53d 843c 4f3f
000000d0: a7ce e5be c112 0abf fa6c 9e3e 62fe d0bd
000000e0: f323 c03e 072f eabe fa66 da3e 9b01 403e
000000f0: f26b 29be e7a6 203f 2918 81be 5635 183f
00000100: 1703 513f b64b 9d3f d7ad 66be b332 a03e
00000110: 7d09 8ebe 8cd8 883d 2354 e43e ba95 133d
00000120: 58d9 9c3d 513d d5be da31 6d3c df93 4fbf
00000130: 1725 0ebe 6b9d 523e 54a7 af3e 220e c0be
00000140: 0589 00bf 0b0c 803d 8f10 00be c8d2 4e3e
00000150: 042a 193e fb47 08be 3b66 c5bf e0ed cc3c
00000160: 7879 46bd d038 033f 5dc3 1e3f 8de1 993e
00000170: 092b f63c dc45 3f3e 701a 74bf 525d 0bbe
00000180: fe38 553f 5836 0dbf 2034 8d3f ef6f d6bd
00000190: 489b 7bbf ecce 2bbf 31ad b33e 3990 623e
000001a0: 30f1 b63e 644b 2bbf efb4 bb3e c92a ca3d
000001b0: 0031 853d b001 5abe 88b9 863f e597 debe
000001c0: b740 8abf 882d 713f 2198 073f 7a89 f1be
000001d0: 8b9c 5f3e 621f d4bd e5ac 8dbe 9c0f 8a3f
000001e0: 7294 ef3e 4932 623e 30cb 1abd a667 993f
000001f0: 2ce8 5bbd 87e8 c6be f997 40bf 073c cd3b
00000200: 45d7 fb3d ed0e 213f e0d6 2dbf c69c b4bf
00000210: ed36 3c3f 63f4 a83f bf19 5fbd 5a0c 00bf
00000220: 987a 893f 3592 833d 75c3 03bf 3549 213f
00000230: 57c6 cb3e 4d4e 86bf a760 89be 17ee c73e
00000240: 03e8 ee3c a627 10bf ecc0 abbd 8bfe 2f3f
00000250: 67a8 5d3d 248f 0bbc af1a bdbd 27c7 95bf
00000260: fee2 203e 0586 10be 7cb4 c03e f88b b13d
00000270: ca93 65bd ee63 44bf 3e83 36bf a80d ac3e
00000280: 2e2e 3cbd fd17 a23e a433 8f3f 64c6 613e
00000290: cfe0 a13d 896b 5a3f 79df 723e 2f85 3dbf
000002a0: 3046 ed3e e280 6e3e 35d6 46be 701e 4ebf
000002b0: 374c 10bf e85e 9e3d 43e6 103f 9a1f c0be
000002c0: d3ff 063f bdd1 6ebf be72 ed3d d0ff bcbd
000002d0: 7ae3 d13e feb9 9e3e d14f 21be 00ba 52bf
000002e0: 5753 d5be 0173 1d3f 67f4 c2be a9a3 b03e
000002f0: 17a1 8dbe 146a 263e 356d 14be 70be 593f
00000300: cda3 3abe e16d 38bc 5299 153f ef0c 26bf
00000310: 57dc 5bbf b232 35bf 8bea dc3e 5a86 a93e
00000320: 0547 b43f fe4b 193f 2adc debe 3043 43bf
00000330: 24f6 9bbf b268 dcbc 621d 46bf cc36 953e
00000340: dfa9 c2bd c41e 7bbf 0aa7 73be c0b1 303e
00000350: fed5 66bf 0768 94bd 5c9d 173f 30e4 f03e
00000360: 4636 31bf 3540 963e 884a a9bd 85e7 793e
00000370: 621c 113f 2c6c 0b3e bebe cdbe e59e e13e
00000380: 71e1 0abd eae2 363e ac83 623e dfa6 ac3f
00000390: cb1d cb3e 681b 59bf 5c06 103f e52d 3c3f
000003a0: 6a23 c8be d581 ba3e 52a4 ccbe c982 053f
000003b0: 6a5f f53f a17b 14c0 540b d8bb 9aa1 353f
000003c0: 3d71 f3be 2c6f bbbe 8ad9 afbe 44bb 263e
000003d0: 7f82 9a3f 7bab e13f 6eee b6bf 904f f63d
000003e0: 4f5f 263f 88f6 02bf 1ae9 35bf fe56 a5be
000003f0: 2bc2 89bd aae7 1e3f 4088 4b3f ae46 36bf
1.105243 0.95823914 -0.45234764 -0.033399243 -0.35379356 -0.44566613 -0.16396005 -0.75468093
-0.79591596 -0.33414853 0.17973398 -1.019222 -0.14878766 -0.28536624 -0.1825713 0.9807445
-0.13108766 0.11690762 0.76779646 1.1008004 -0.61994267 -0.48905608 -0.8418424 0.8597922
-0.30414337 -0.117734954 0.29647064 -0.42439222 -0.31687835 -0.21746148 0.21602714 0.3279157
0.4353949 0.18676195 -0.9256013 -0.019056149 0.02831317 0.58098125 0.14827394 -0.005477876
-0.7589126 0.079019874 -0.07779148 -0.1257592 0.11890201 0.4012806 0.38002104 -0.89801013
0.65927315 0.28027388 0.08844779 0.80951715 -0.44884226 -0.53934866 0.30942518 -0.1020477
0.37527427 -0.45739004 0.4265669 0.18750612 -0.16545084 0.6275467 -0.25213745 0.59456384
0.8164534 1.228873 -0.22527252 0.3128868 -0.27741614 0.06681928 0.4459544 0.036031462
0.076586425 -0.41648343 0.014477218 -0.8108501 -0.13881336 0.20567863 0.3430735 -0.37510782
-0.50209075 0.06252297 -0.12506317 0.20197594 0.14957434 -0.13308708 -1.5421823 0.025015771
-0.048455685 0.51258564 0.6201685 0.30054894 0.030049818 0.18678993 -0.9535284 -0.13609818
0.8329009 -0.55161047 1.1031532 -0.104705684 -0.98283815 -0.6711261 0.35093072 0.22125329
0.35730886 -0.6691191 0.3666148 0.09871442 0.06503487 -0.21289706 1.052537 -0.4347526
-1.0800999 0.942101 0.52966505 -0.471752 0.2183706 -0.10357548 -0.2767097 1.0786014
0.46792942 0.22089495 -0.03779143 1.1984756 -0.053688213 -0.3884928 -0.7523189 0.0062632593
0.12296919 0.629134 -0.67906 -1.4110343 0.7352131 1.3199581 -0.054467913 -0.50018847
1.0740538 0.06424371 -0.5147012 0.6300233 0.3979976 -1.0492646 -0.26831552 0.39048836
0.029163366 -0.563105 -0.08386406 0.68747777 0.05411568 -0.008518014 -0.09233605 -1.1701401
0.1571159 -0.14113624 0.376377 0.08669275 -0.056049146 -0.7671498 -0.7129401 0.3360417
-0.045942478 0.31658927 1.1187634 0.22048336 0.07904207 0.85320336 0.2371806 -0.7403135
0.4634261 0.23291352 -0.19417651 -0.80515194 -0.56366295 0.07732946 0.5660135 -0.3752411
0.52734107 -0.93288785 0.11594151 -0.0922848 0.40993863 0.31001276 -0.15753104 -0.82315063
-0.41665146 0.6150361 -0.3807709 0.34499863 -0.27661964 0.16251403 -0.14494784 0.8505621
-0.18226548 -0.011256666 0.58437073 -0.64863485 -0.85883087 -0.7078048 0.43147692 0.33110315
1.4084173 0.5988158 -0.43527347 -0.76274395 -1.2184491 -0.026905391 -0.77388585 0.2914337
-0.095050566 -0.9809382 -0.23794189 0.17255306 -0.90170276 -0.07246404 0.59224486 0.47049093
-0.6922344 0.2934586 -0.08266169 0.24404724 0.56683934 0.13615483 -0.40184587 0.4406654
-0.033906404 0.17859998 0.22120541 1.3488425 0.39671168 -0.84807444 0.56259704 0.7350753
-0.3908952 0.3642718 -0.39969116 0.5215269 1.9169743 -2.3200457 -0.0065931473 0.7094971
-0.4754733 -0.36608255 -0.34345657 0.16282374 1.2071074 1.7630457 -1.4291513 0.12026894
0.6498918 -0.51157427 -0.7105881 -0.32292932 -0.06726488 0.6207224 0.79504776 -0.712016

network_body._body_endoder.seq_layers.0.bias f4 [128]
00000000: 7fa6 d3bf a813 3dc0 6cad febf cc76 14c0
00000010: 9562 17c0 3da4 02c0 3918 21c0 951b 31c0
00000020: d2aa 1dc0 d0e7 10c0 fb5e d6bf 75e3 e1bf
00000030: 6c4b 39c0 eb63 3bc0 e613 4bc0 7edb 08c0
00000040: 72c9 37c0 a61f 3ac0 7b6b e53e 9126 00c0
00000050: 0597 c5bf 70c3 17c0 002f bdbf 3000 bfbf
00000060: 0cac 72bf d62d f2bf 4b03 3bc0 c860 0dc0
00000070: 55f8 14c0 8624 37c0 85e9 a53e 303f 2ec0
00000080: c5b6 0ac0 0917 29c0 f982 4bc0 8045 d9bf
00000090: 600f 02c0 9f13 7cbf 6a32 24c0 8729 02c0
000000a0: d735 c53e 0e27 35c0 32e0 fabf 3fa5 27c0
000000b0: e5ae 36c0 d99a 24c0 cdc3 c3bf 4bc9 14c0
000000c0: c4d6 13c0 e2c2 f9bf 8d52 0ac0 0a68 45c0
000000d0: 5bfa 0cc0 d1ef 4ac0 541d edbf 9e6e c4bf
000000e0: 372e 4bc0 85c2 40c0 78a4 d1bf c5af 4bc0
000000f0: 65b2 8dbf 61a3 18c0 c49f 25c0 4a68 d3bf
00000100: 3dc0 6abf 66f0 1dc0 a06e 06c0 c146 1cc0
00000110: 53a7 cabf 7853 d9bf 8b3f 54bf 1cee 28c0
00000120: 815b e6bf d33a 02c0 20b6 0ec0 b3a8 35c0
00000130: a7ea 1dc0 9f96 2cc0 8284 2c3f cd88 14c0
00000140: cb09 0dc0 7aa5 3ec0 576d 15c0 c42c 06c0
00000150: 2a24 03c0 6046 48c0 f6df b8bf 6c3f 06c0
00000160: d425 19c0 9f8d 03c0 4b4f 02c0 f111 cfbf
00000170: 829c 47c0 f833 13bf 27bb 22c0 27e8 c0bf
00000180: 932f 11c0 3910 ccbf 99d7 eabf 5137 02c0
00000190: 430c 43c0 99e0 27c0 550c 0bc0 5f08 40c0
000001a0: f0b9 09c0 efc5 5ec0 faf2 1fc0 5514 1fc0
000001b0: 5275 f0bf c4fa bcbf 2010 06c0 d6ef 2bc0
000001c0: 409f 07c0 694b b7bf 3700 a3bf a1ab 05c0
000001d0: 54c7 e4bf d38a 18c0 fe8c 1ec0 04b9 05c0
000001e0: 8b5a 09c0 5119 1ac0 3ac6 e0bf c502 64be
000001f0: ea84 6dc0 4bff 4cc0 cb5f 20bf a51b e8bf
-1.6535186 -2.9543247 -1.9896674 -2.3197508 -2.365392 -2.0412743 -2.5171034 -2.7673085
-2.463551 -2.2641487 -1.6747736 -1.7647539 -2.8952284 -2.9279735 -3.1730895 -2.1383967
-2.8716702 -2.9081817 0.44808564 -2.002354 -1.5436713 -2.3713036 -1.4779968 -1.4921932
-0.9479377 -1.8920238 -2.922076 -2.209032 -2.327657 -2.8616042 0.32404724 -2.7226067
-2.1674054 -2.642031 -3.179869 -1.6974335 -2.0321884 -0.9846744 -2.565577 -2.0337846
0.3851764 -2.8305087 -1.9599669 -2.6194608 -2.8544247 -2.5719512 -1.5294129 -2.324786
-2.3099833 -1.9512599 -2.1612885 -3.084475 -2.2027805 -3.1708872 -1.8524575 -1.5346258
-3.1746957 -3.0118725 -1.6378317 -3.1826031 -1.1070067 -2.3849719 -2.5878763 -1.6516201
-0.9169958 -2.4677978 -2.100502 -2.4418185 -1.5832313 -1.6978598 -0.8290946 -2.639533
-1.7996675 -2.0348403 -2.229866 -2.8384216 -2.467447 -2.6966932 0.6738969 -2.3208497
-2.2037227 -2.97885 -2.3347986 -2.0964823 -2.0490823 -3.1292953 -1.4443347 -2.097621
-2.3929338 -2.0555189 -2.0360897 -1.617735 -3.1189275 -0.57501173 -2.5426729 -1.5070847
-2.2685287 -1.5942451 -1.8347045 -2.0346262 -3.0476234 -2.6230834 -2.1726277 -3.000511
-2.1519737 -3.480831 -2.499205 -2.485616 -1.8785803 -1.4764028 -2.0947342 -2.6865134
-2.1190948 -1.4319888 -1.273444 -2.0886004 -1.787333 -2.3834732 -2.4773555 -2.0894175
-2.1461513 -2.4077952 -1.7560494 -0.22266681 -3.7112374 -3.2030818 -0.6264617 -1.8133436

network_body._body_endoder.seq_layers.2.weight f4 [128, 128]
00000000: e894 223f 70e2 b1be a347 793e 9d2b e53e
00000010: a91e e43f 7612 8c3f 88e6 b8bd 47d1 3d3f
00000020: 55b9 d9be 413c 9f3e 1843 0a3f a249 db3e
00000030: d837 2f3e 413e 2e3f 9706 fa3f dec2 1e3f
00000040: c17b ad3e ef96 1f3f f7ff babf 3a9b cf3e
00000050: f117 803f 4269 413f 849d 593f e069 39bf
00000060: 4e14 1ebf 033e 843f 5bdd b13e 641d e83e
00000070: 5a89 4e3f 849e c63e 72c9 eebf 350a e53e
00000080: 7ebb 0d3f f6e7 7b3f b821 793f 0144 833f
00000090: 7323 6c3e 3ae1 8dbf c6db 843d c27a cabc
000000a0: fb69 0fbf 1f18 3a3f 0952 0240 af55 7cbf
000000b0: d07e a13e 687b b63e e82f 2f3f 8803 1a3f
000000c0: f648 d0be 6c38 bc3f de65 8a3f 86c5 a43e
000000d0: 577c e73e a986 4f3f b41b 5d3d ff7c 29bf
000000e0: b875 613f 1604 df3e 7c89 a1bd 46c6 603f
000000f0: f169 07bf 16d1 973f d490 0bbe 3799 b1be
00000100: b7f0 16bf be7a 873f b9d4 c33e d953 b03f
00000110: 2927 0a3f 6868 883f 027b 95be 3890 043d
00000120: e93f b2be 7f87 d63f 5d3e 963e 3235 403f
00000130: b7e5 023f f402 7dbd 06a1 babf 1b97 993e
00000140: a3f1 823e 974a 083e 0d56 b53e 52e5 8e3f
00000150: b83d efbe 90e5 093f 09b3 113f b000 113f
00000160: f695 193f ebe2 f53c 6496 10bf cd7b 8a3f
00000170: 0a74 993f e366 64bf 28cf 523f da05 65bf
00000180: 63b2 4d3f 511b 483f 8031 ef3e 7ed4 c93f
00000190: bf0d 843e 8f55 973e d507 383f 98e0 de3e
000001a0: f14f 463f 373e 24be 0788 19be b7c2 fa3e
000001b0: 455d 2e3e ab1b 823e 1214 503f f744 aebe
000001c0: b927 e73f 1f06 253f 36d2 1fbf d691 b93e
000001d0: 6023 073f 3c64 d43e 5ea9 d93f 8e8d 1f3f
000001e0: 9d15 9abf 2f12 94be d2b6 81be f533 373e
000001f0: 5e34 603f 3413 503f 5601 aebf 3408 8f3c
00000200: 34fa ed3f 6161 403c 24e7 48bd 932a 963f
00000210: 9fa6 0240 1c96 613f 8037 c23f ff21 bc3c
00000220: 7202 873f 3dfc 36bf c922 8dbe ac7c 893e
00000230: 4809 193f 4734 4b3f 47db df3f 0561 c33e
00000240: 44a0 b03f e970 a23f e065 d7bf 99a5 a23e
00000250: 5f63 f73f 0ef1 133f c06c 053f 333a 033f
00000260: f3f8 373d ea44 103f c1e2 653e 1a94 b33e
00000270: 441a 903f 4b3d 5d3f 1ed6 6bbf f1af 5a3f
00000280: 193f f8bd 6d4e c83e 89a0 433f b6b0 263f
00000290: a233 1e3f 5ccf 48bf b141 043f 9767 473e
000002a0: 0659 87be 3358 c23e da31 a73f 9c2a c83e
000002b0: 39af 213f ea3b ec3e 9d6c 723f dfb7 373f
000002c0: 967f de3e 63b2 873f b6f4 ff3e 6a83 e23e
000002d0: 172b 0f3f 1d1f 423f 81ec 7d3d 9181 803e
000002e0: 6a9c 9a3f b7e8 1a3f 98a3 613f 94a3 963f
000002f0: 6287 083f 7ba6 78be b2aa af3e d7a4 993f
00000300: 4d8a 0c3e 1b2d 483c 732e b6bd 104f a13f
00000310: de3e 493f 2d17 ca3e 3101 073f 97d7 293f
00000320: 6f0a 393e e1c8 a13f 8298 023e a186 c63d
00000330: 1058 f73e ee11 a73e c4ba 09c0 fd68 3c3f
00000340: 45bf 15bf 9c13 0abe c08d 533f 61e8 9f3f
00000350: 38b5 58bf fef9 6a3f 1dff 08bf 0b68 003e
00000360: 070b d6bd 13ce 01be 6796 26bf 79b9 883f
00000370: 5880 5e3f f4cc 5b3e 38ca 55bd 66d6 58bf
00000380: 56d4 663e 82d4 833f 83ad 853f 4e1a 043f
00000390: 3c4b 2d3f b115 dc3e 0184 fa3e 8222 3b3f
000003a0: 0147 053f d7d8 d3bb 14bb e83e a0ab d53e
000003b0: f278 ad3d c50e 623f 0c07 a33d 4fd7 74be
000003c0: d413 c83f 9e62 a93e d545 15bf f863 9c3e
000003d0: 8299 0f3e 7e82 323f 1042 963f aa03 29be
000003e0: a384 b33e 04b6 a63e 7dbd db3e 038d 03bf
000003f0: 9f83 253f 47f4 af3f c918 153e e05f 05be
0.6350846 -0.3474307 0.24343733 0.44759837 1.7821857 1.0943134 -0.09028345 0.74147457
-0.4252421 0.31100658 0.54008627 0.42829615 0.17111146 0.6806374 1.9533261 0.62016094
0.3388348 0.6233968 -1.4609364 0.40548116 1.0007306 0.75551236 0.85005975 -0.7242718
-0.6174973 1.0331424 0.34739193 0.45334923 0.8067833 0.38792813 -1.8655226 0.4473435
0.55364215 0.9840082 0.97317076 1.0255128 0.23060398 -1.1084359 0.06487231 -0.024716739
-0.5602109 0.72693056 2.036257 -0.9856824 0.31542063 0.35641026 0.68432474 0.6016164
-0.40680665 1.4704719 1.0812337 0.32181948 0.4521205 0.8106485 0.053981498 -0.66206354
0.8807025 0.43557805 -0.07887551 0.8780254 -0.5289603 1.1860683 -0.13629466 -0.34687206
-0.5896105 1.0584333 0.38248232 1.3775588 0.53966004 1.0656862 -0.2919541 0.0323641
-0.34814385 1.67601 0.29344454 0.7508117 0.5113177 -0.061770394 -1.458039 0.29998097
0.2557498 0.13309704 0.35417214 1.1163733 -0.46726775 0.5386591 0.5691381 0.56641674
0.5999445 0.03001543 -0.5647948 1.0819031 1.1988537 -0.8921949 0.82347345 -0.89462054
0.8035032 0.7816668 0.46717453 1.5767972 0.25791737 0.29557464 0.7188695 0.43530726
0.7746573 -0.16039358 -0.14993297 0.4897668 0.17027767 0.25411734 0.81280625 -0.3403699
1.8058997 0.64462465 -0.6243013 0.36244076 0.5278835 0.41482723 1.7004812 0.6232537
-1.2037846 -0.28920123 -0.25334793 0.17890914 0.87579906 0.812793 -1.3594158 0.017459966
1.8591981 0.011741967 -0.049048558 1.1731743 2.0414197 0.88119674 1.5173187 0.02296543
1.0547621 -0.71478635 -0.275656 0.2685293 0.5977979 0.79376644 1.7488793 0.38159958
1.3798909 1.2690707 -1.6827965 0.31766966 1.9327201 0.57789695 0.52119064 0.5126068
0.04491515 0.56355155 0.22449781 0.3507393 1.1258016 0.8642165 -0.9212359 0.85424715
-0.1212141 0.39122334 0.7641683 0.6511339 0.61797535 -0.78441405 0.5166274 0.1947311
-0.26435107 0.37957916 1.3062088 0.39095008 0.63157994 0.4613946 0.9469698 0.7176494
0.43456715 1.0601314 0.49991387 0.44240886 0.55925125 0.75828725 0.061993126 0.2509885
1.2078984 0.60511345 0.8814025 1.176867 0.5333158 -0.24282257 0.34309918 1.200343
0.13724633 0.012217785 -0.08895578 1.2602253 0.7861155 0.39470807 0.5273619 0.6634459
0.18070386 1.2639428 0.1275349 0.09693647 0.48309374 0.32630867 -2.1520243 0.735977
-0.5849498 -0.13484043 0.8263817 1.2492791 -0.8465152 0.9178771 -0.5351427 0.12539689
-0.10451322 -0.12676267 -0.65073246 1.0681602 0.8691459 0.21464902 -0.052194804 -0.84702146
0.22541937 1.0299227 1.0443577 0.5160264 0.67692924 0.429853 0.48928836 0.7309953
0.5206147 -0.0064650583 0.4545523 0.41732502 0.08470334 0.88303787 0.079603285 -0.23910259
1.5631051 0.3308305 -0.5830968 0.3054502 0.14023402 0.69730365 1.1738911 -0.16505304
0.3506213 0.32560742 0.42918006 -0.5138704 0.6465396 1.3746423 0.14560236 -0.13024855

network_body._body_endoder.seq_layers.2.bias f4 [128]
00000000: 5d26 d8bf 294f 91bf 90c2 d6bf 6450 0ec0
00000010: 7923 e7bf c60c cbbf afc4 3ebf ef05 01c0
00000020: 91c6 e8be f178 9dbf c726 c9bf 64b7 9fbe
00000030: d7dd b5bf 2739 3ec0 b8f6 ebbf 4429 05c0
00000040: 3d37 fbbf dd70 63be 4df5 f1be 7806 37c0
00000050: dc9a c7bf 915c 4dc0 fd78 aabf 5d33 f2bf
00000060: 79e1 c5bf 6b33 63bf 1302 c1bf 6cf2 78bf
00000070: 33d3 06c0 8282 62bf 30b7 adbf 4f41 bfbf
00000080: 3091 60bf 8117 7cbf c1b5 aebf 1d16 a5bf
00000090: 893c 10c0 0c30 b8bf 6aff 58bf 749d babf
000000a0: d7e7 fdbf e945 1ac0 c550 34bf fed3 91bf
000000b0: 3600 57bf 883a bebf 8b90 f8bf b121 11c0
000000c0: f380 14bf 2c5a 91bf b442 a8bf 0b61 04bf
000000d0: a1fa a9bf 645f cdbf 93ed 9cbf 9e93 bebf
000000e0: 1377 10c0 b487 94bf c594 83be f7b3 7dbf
000000f0: b342 f6bf 4b79 61bf 840f e8bf 55d7 57bf
00000100: 35ff 89be 91ce 99be c399 99bf 73c9 00c0
00000110: f13b a6bf 42db 36bf 05d1 d6bf fe06 05c0
00000120: 6169 1ac0 da49 98bf 7fce b6bf f67e d1bf
00000130: b5ce debf 2bfe edbf a41f 3cbf 8655 22c0
00000140: 1cb2 38bf 2dc6 b9be da80 19c0 2d89 67bf
00000150: 4cf7 10c0 ac04 03c0 043d 3cc0 c56a e2bf
00000160: 2baf 18c0 8a53 1cc0 89cc 93bf e0b1 dabf
00000170: 5719 98bf 7fd5 f5bf 9edd a8bf 355c 86bf
00000180: 1e50 d7bf f027 1dc0 27bc f6bf c1dd 4bbf
00000190: 1393 f7be aaa6 5fbf cc46 9bbf b4eb 96bf
000001a0: 799f 45bf a27c 16c0 8279 49bf 3b18 b6bf
000001b0: 6562 90bf df6a e5bf 3640 0fbf 33e3 60bf
000001c0: 62e1 bcbf 2c16 3bbf ee46 aabf ba6a 26be
000001d0: 0a8d abbf c46e 9dbf 31a8 8ebe efa1 1fbf
000001e0: b4b3 90bf acf2 c9bf e830 b2be fcfa 8dbf
000001f0: bd71 5abf bf1c 33bf aef7 83bf 9da8 30bf
-1.6886708 -1.1352283 -1.6778126 -2.2236567 -1.80577 -1.5863273 -0.74518865 -2.0159872
-0.45463994 -1.2302533 -1.5714959 -0.31194603 -1.4208325 -2.9722383 -1.8434668 -2.0806437
-1.9626232 -0.22211023 -0.47257462 -2.8597698 -1.5594134 -3.2087748 -1.3318173 -1.8921925
-1.5459434 -0.8875033 -1.5078758 -0.97244906 -2.1066406 -0.8848039 -1.3571529 -1.4941806
-0.8772154 -0.98473364 -1.3649217 -1.2897373 -2.2536948 -1.4389663 -0.8476473 -1.4579301
-1.9836377 -2.410517 -0.70435745 -1.139282 -0.83984697 -1.4861612 -1.9419111 -2.2676814
-0.5800926 -1.1355643 -1.3145356 -0.51710576 -1.3279611 -1.6044736 -1.2260002 -1.4888799
-2.2572677 -1.1603913 -0.2569944 -0.9910273 -1.9239105 -0.88075703 -1.8129735 -0.84312946
-0.2695252 -0.3004041 -1.2000049 -2.0122955 -1.2987043 -0.7142831 -1.6782538 -2.0785518
-2.4126818 -1.1897538 -1.4281768 -1.636687 -1.7406832 -1.8593191 -0.7348578 -2.53647
-0.72146773 -0.3628401 -2.3984895 -0.9044369 -2.2650938 -2.0471601 -2.941224 -1.7688833
-2.3856914 -2.4425988 -1.1546794 -1.7085533 -1.1882733 -1.9205779 -1.3192632 -1.0496889
-1.6821325 -2.4555626 -1.927617 -0.79635245 -0.48354396 -0.87363684 -1.213098 -1.1790681
-0.7719646 -2.351357 -0.7870103 -1.4226145 -1.1280028 -1.792324 -0.55957353 -0.8784668
-1.4756281 -0.73080707 -1.3302896 -0.1625165 -1.3402417 -1.2299428 -0.27862695 -0.62356466
-1.1304841 -1.5777183 -0.34802938 -1.1092219 -0.853298 -0.6996574 -1.0309961 -0.69007283

action_model._continuous_distribution.log_sigma f4 [1, 2]
00000000: 0cf8 f2bf 6e92 1ac0
-1.8981948 -2.4151874

action_model._continuous_distribution.mu.weight f4 [2, 128]
00000000: 1783 b2be 8beb 01bf cffd cbbd 6378 e7be
00000010: aa19 403d ee06 c3be ff65 30bc 61b5 85be
00000020: bd78 173f b289 0fbf ace8 acbe 705a 4a3e
00000030: 94b0 fcbe 83cd 60bf 84fc 77be 0a10 673d
00000040: 6ce1 9abe 7375 963e 90a3 4b3f 44b3 4cbe
00000050: 76e3 0ebe 9991 8bbe d841 3ebe 6d9e c9be
00000060: c479 dfbe 40b6 0f3f 3269 953e 660c 24be
00000070: 4d5a 4dbe 1f58 67bf 8382 b33e 4614 d9bd
00000080: 8b57 1a3e 9817 2f3f c5c4 2abd 19f0 c6be
00000090: f28f aebe db49 1cbd 09b1 35bf c3c0 dc3e
000000a0: 15b7 423e 0f4d 43bf 0bf9 c43e aed6 363e
000000b0: 2c88 49be cbd8 ddbe 335a 833e 14f3 25bd
000000c0: 18f1 33bf 0538 013f 6dfc e53e 5569 173f
000000d0: 62f9 8bbe 1b8c 56bf bdf2 adbe b80b 1dbf
000000e0: 9696 b4be 51c8 403d b695 82be 4ca6 be3e
000000f0: 89f6 88be 055c 24bf 1910 04be 7637 05bf
00000100: 1e6b 39bd 4262 013e a3b5 05bf 67f4 f7bd
00000110: 0431 11bf 89a6 3a3e 4819 06be 48ef 9ebe
00000120: 848f 84be d73b 873d e875 8dbe 9ff0 a7bd
00000130: ff20 443e 506b ec3d 2351 8c3e 8c87 4d3d
00000140: 9ee7 0d3f 3cba ff3e 953d c5be ec16 103c
00000150: 6299 3bbd b64a 86bd 1b95 21bf 8d21 8e3e
00000160: 7041 34be f90c a0be b925 e7be fbe9 8dbe
00000170: 3d47 9fbe b233 f63e d01c 803e 8443 6fbe
00000180: 9b79 2dbf df96 9ebd 64bd 2cbe 0451 f03d
00000190: 7df6 bfbd 1820 0a3f 1beb 19bf 10a0 60bf
000001a0: d09c bfbe c630 13bf cfe7 45be b9bd be3d
000001b0: 1f19 d5be 2826 01bf 3e64 c13d 8a2e 41be
000001c0: 07b9 06bf 6c70 4b3f 37f5 ae3d 7bb0 393d
000001d0: 0ade eabd 135a aebe 6358 273e 349e d4be
000001e0: 13c9 ddbe 97d1 4bbe 8a2d 383f 3132 2b3f
000001f0: 5d00 8cbe 280d 1d3b f688 c5be c482 83be
00000200: 1199 913e 254d d5be decb 79be 6068 2d3d
00000210: 5c11 0cbf de7e 9bbe 7d02 cdbc 6c41 8abe
00000220: d27b 7e3e 3dab 6ebf 71f9 73bf 95ec e73e
00000230: 285c 08be bf64 adbe 869b d13c deba 54bb
00000240: 9ab2 ec3d b425 f83e 5ed0 153f 7100 183e
00000250: 7679 bdbe b288 d5be 9aee 60bf fcc0 3fbe
00000260: c3fd 57bf 2d5d 073f 8922 a1be d295 1f3f
00000270: d62a 9fbd 37da 8ebe e87f 68be 396f f63e
00000280: d584 293f 6d7d f33d a85c 673c d1d7 663e
00000290: 36a7 a0bd baa0 3abc a58b 0ebe c149 693e
000002a0: 6bd2 273d ca69 68bf 6bbf 1cbe 3132 043f
000002b0: b8e8 b73c 2007 edbe fbc8 233d e7ee 5dbd
000002c0: f48c d7be 3ae5 42bf 1efb 673e efa6 8c3d
000002d0: d508 06bf 2a32 2cbf cc19 f8be dfe6 85bf
000002e0: 08b7 8cbf 8d2e 23be be45 2ebf 6c47 603e
000002f0: de10 debe a905 5bbe 0c50 bbbd 2a07 04bf
00000300: 1b69 c1bc ce0f 513f 57e9 1cbe b4d3 0fbf
00000310: 898e babe f455 183f f938 a5bd 12af 763e
00000320: dd7d 09be 9f92 76bf 6947 19bf 9c9b 0bbe
00000330: 5b8e 853d 64af bf3d ce49 1d3f 2e9f 093f
00000340: f4d0 213f 7ee1 3f3f c0b8 6abe e533 a5be
00000350: bd3c 3abc ed72 32be 0045 d6be 00e2 093e
00000360: a620 a33e 8a37 d43d d80c 25bf faf9 8ebe
00000370: 0c92 a8bd 6be7 c8bd eca9 413e cc16 823e
00000380: 6d83 c1be 4e8a 703e 83b9 a23e 211a 563e
00000390: 9b22 8a3e da7a e23e bf54 91be 6648 3cbe
000003a0: ca9c 0c3e 5ac2 9cbe 47d2 18be 5930 18be
000003b0: 9242 38bf f5b1 66be f54c a13e 11cb 213e
000003c0: 685c c9be aadc cb3e e851 ed3d 4ead 9cbb
000003d0: 0678 023f d573 b4be 92bd 033f 1d2f 48bf
000003e0: b2d5 28bd d229 43be 927d 953d 1cb6 ab3d
000003f0: eceb aa3e d82e 0abe d9aa adbe c648 57be
-0.3486564 -0.50750035 -0.099605195 -0.45209035 0.046899475 -0.38091224 -0.010766505 -0.26114944
0.59168607 -0.5606948 -0.33771265 0.19761062 -0.49353468 -0.87813586 -0.24217421 0.05641178
-0.30250108 0.29386482 0.7954645 -0.1999026 -0.13953957 -0.2725952 -0.18579805 -0.39378682
-0.43647587 0.56137466 0.2918182 -0.16020355 -0.20053978 -0.9036884 0.3506051 -0.1059957
0.15072457 0.68395376 -0.04169156 -0.38855055 -0.34094197 -0.03815637 -0.7097326 0.43115816
0.19015153 -0.7628946 0.38471255 0.17855331 -0.19680852 -0.43329462 0.25654754 -0.04051502
-0.70289755 0.50476104 0.44919148 0.591451 -0.273387 -0.83807534 -0.33974257 -0.61346006
-0.35271138 0.047066037 -0.25504845 0.3723625 -0.2675059 -0.6420291 -0.12896766 -0.5203775
-0.04526817 0.12635139 -0.5223028 -0.12107163 -0.56715417 0.1822759 -0.13095582 -0.31041932
-0.25890744 0.066032104 -0.27629018 -0.08200192 0.19153212 0.11543906 0.27405652 0.050178096
0.55431545 0.49946773 -0.38523546 0.0087945275 -0.045800574 -0.06557219 -0.6311814 0.27759972
-0.17603087 -0.31259897 -0.45145968 -0.27717575 -0.31109038 0.48086315 0.25021982 -0.23365599
-0.6776368 -0.0774362 -0.16869122 0.117342025 -0.09373186 0.5395522 -0.6012437 -0.87744236
-0.37424326 -0.574963 -0.19326709 0.093135305 -0.41620728 -0.50448847 0.09442948 -0.1886541
-0.5262608 0.7946842 0.08542865 0.04533432 -0.11468132 -0.34053096 0.1634231 -0.4152695
-0.4331747 -0.19904171 0.7194449 0.6687346 -0.27344027 0.002396414 -0.38581055 -0.25685704
0.28437093 -0.4166042 -0.24394175 0.042335868 -0.5471399 -0.3037023 -0.0250256 -0.27003038
0.24851921 -0.9323004 -0.9530249 0.45297685 -0.13316405 -0.33865926 0.025586855 -0.0032460014
0.11557503 0.48466265 0.5852107 0.14843918 -0.3700673 -0.41705853 -0.8786408 -0.18725961
-0.84371585 0.5287655 -0.3147166 0.6233798 -0.07771842 -0.2790086 -0.22705042 0.4813173
0.6621831 0.118891574 0.014121212 0.22543265 -0.07844393 -0.011390859 -0.13920458 0.22782041
0.040972155 -0.9078642 -0.15307395 0.51639086 0.022449836 -0.46294498 0.03998659 -0.054182913
-0.42099726 -0.7613102 0.22654387 0.068677776 -0.52357227 -0.67264044 -0.4845718 -1.0461081
-1.0993357 -0.15935726 -0.6807517 0.21902245 -0.43372244 -0.21388878 -0.09146127 -0.5157343
-0.023609689 0.8166474 -0.15323387 -0.5618241 -0.3643687 0.59506154 -0.08067507 0.24090222
-0.1342692 -0.96317476 -0.5987459 -0.13633579 0.06521293 0.09359625 0.6144074 0.53758514
0.6320946 0.7495345 -0.22922039 -0.32266155 -0.01136702 -0.17426653 -0.41849518 0.13465118
0.31860846 0.10362156 -0.64472723 -0.27925092 -0.08230981 -0.098097645 0.18912476 0.25408018
-0.37795582 0.23490259 0.3178216 0.20908405 0.26979527 0.44234353 -0.2838497 -0.18386993
0.13731685 -0.30617028 -0.14923964 -0.14862193 -0.7197658 -0.22528823 0.31504026 0.1580012
-0.39328313 0.3981679 0.11587888 -0.0047814017 0.5096439 -0.35244623 0.51461136 -0.7819689
-0.04121942 -0.19058922 0.07299341 0.08384344 0.3338312 -0.13494432 -0.3391941 -0.21023855

action_model._continuous_distribution.mu.bias f4 [2]
00000000: 9a64 32bf fd43 65bd
-0.69684756 -0.05597304

action_model._discrete_distribution.branches.0.weight f4 [3, 128]
00000000: 1ea7 8f3f e516 7c3f fe40 863f b0f1 073f
00000010: 0f47 73bf 06d6 bbbe aa92 0540 b59e 003f
00000020: 9c25 243e 8948 36bd 903c b93e 12e0 8c3f
00000030: 923e 943d 7d20 12bf 614d 4e3d 38be fa3f
00000040: 5a7c 8c3f 0620 a83f 74fb cd3e 3c1b d53f
00000050: 402e 9840 e9ca 3e3f 7692 56be e47b 613e
00000060: 7b57 8f3f b601 51bf 6065 e73a e604 b63f
00000070: fd6c 8c3f ab55 b8be 9d02 a6bf 0a6e 913f
00000080: 05a7 dfbd 0938 8ebe daf6 c93e ac23 96be
00000090: 07cb 083f 9cc2 9cbf 6bc4 353f 6e18 093f
000000a0: 1fb7 883d d4cc 013f db6b 3f3f d613 30be
000000b0: d026 063f 7dec 9c3e f007 b2bf 32ce 8bbe
000000c0: 546e c13e 5c47 2f3f 096c 50be 3363 c63e
000000d0: afce 473f 5c10 053f 372f b43f 8cf1 3b3f
000000e0: df09 d4bd 6565 9f3f 904f 4bbe 159a 3abe
000000f0: c45c 8a3f 1714 123f 0379 d83e f3ec 79be
00000100: c3cf 28be a1ff f23e a99f 08bf 5a76 6b3f
00000110: c4e5 d43e dfeb b8be 2503 093f a667 cebc
00000120: c136 033f f3e2 2fc0 f97e ba3f 2985 2b3f
00000130: 9c4c 3cbd 8bd9 1cbf fc86 1a3f 9e18 a5be
00000140: 234b 1fbf a137 3b3f 69cc e3bc f180 c4be
00000150: 42ab 4dbe daac 86bf 33bc 473c 9d7f bebe
00000160: 0920 c4be 190f c23f 838c ea3d 709a 443e
00000170: 2ccb 883f 291d 25be c829 1a40 3751 2dbe
00000180: dd56 393e 7254 f6be ec4f a53f 4a48 fb3e
00000190: 6a8f e63e b01b 393e 3eb0 fd3e 25e9 493f
000001a0: 6748 743e d4bf 1c3f 176e 383f e2e4 22c0
000001b0: 0005 593e 0f00 873f 6000 d0bf 612d 92be
000001c0: f56e 453f 4351 d8be 1c25 543d 5a86 8e3f
000001d0: 6784 cbbe 680d 903f 2952 ffbc 46d8 68be
000001e0: 9eb4 8f3e cba3 253f 9afa 9ebe 59c3 d23d
000001f0: 0df9 f6be 9090 783e bd96 263f b118 9abe
00000200: 56c9 3bbf aca0 e9bf 0336 fa3f 8e98 66bf
00000210: 2cb2 a73e ed51 c23e 89c0 7b3f d935 0f3e
00000220: dcef 73ba f196 103d f261 923d 5f5b 56bf
00000230: 775c ccbf 138e ba3c f0a2 aabd 87a5 943f
00000240: 497c 36bf 2c73 c2bf 12f3 01bd f3ef 32bf
00000250: 99d3 8240 490e 6cbf 3b62 85bf 357e 57bf
00000260: 8e12 473f 4771 7f3f cce3 bdbf 3f26 b23c
00000270: ce52 88bf 406e 60bf edde 56bf a1a4 a13f
00000280: 27b6 093f 7c5b 6ebd 97a7 c2bf 588b a3bf
00000290: ffbe 87bf 0411 62c0 da6a 15c0 b913 583d
000002a0: c5fe 4ebe bfee 07c0 78a1 a3bf e896 03bd
000002b0: f59c 323f 2fb3 b2bf 3896 aebf 5238 393d
000002c0: ed00 523f c5f4 2dbf cdcc 533f d990 e03d
000002d0: e1be 18bf 2898 2fbe 51c7 6abf d344 d4bf
000002e0: 7ca0 7bbf 9440 7ebf c7aa ce3f 2e7f 313f
000002f0: 7fcd 42bf c36b bcbf b75a 0dc0 361a a9bf
00000300: e8e9 0bbf 3267 313f 28a7 6ebe 9344 5cbf
00000310: 8a15 c9bf b973 4c3f 36e8 303f f34c 83bf
00000320: 3ed7 50bf 5944 bf3d 8def ffbf e514 acbc
00000330: 5fb4 17bf 4870 d03e f492 9dbe 7fec 9b3e
00000340: 9cef 1dbe 0eff 9cbf 9f54 21bf 2cdc 9f3e
00000350: 3e4b 643f 8841 f1be c97f 8abf f498 5ebf
00000360: 9d51 dbbe 7e82 cdbf 647b e0bd 4aca 88bf
00000370: 115e 2bbe b0ee 833d 52b8 be3f 76f6 9cbf
00000380: 450a 9ebf ea91 44bd 0ec1 2e3f cf46 8dbf
00000390: 0d4c b33e 6f8b d6be 5c06 b0bf 8a19 62bf
000003a0: 2ac5 c23d bdb1 c8bf b0ca 523f b8fb ab3e
000003b0: a8b2 f83e 48bb 35bf e89a 1a40 935b 96bf
000003c0: 2243 343f 0a11 953f e350 aabe 011b 41be
000003d0: 6394 8ebe 0e59 38c0 d406 433f 6c76 49bf
000003e0: 7e14 b1bf 5cd1 a73f 2fc1 f33e 5e3c 61be
000003f0: c99c 92be b983 dc3f 37ab 52bd e912 c4be
1.1222875 0.98472434 1.0488584 0.5310316 -0.950303 -0.36686724 2.0870767 0.5024217
0.16029972 -0.04450277 0.36179018 1.1005881 0.07238497 -0.57080823 0.050366763 1.95893
1.0975449 1.3134773 0.40230906 1.6648936 4.7556458 0.74528366 -0.20954308 0.22019917
1.1198572 -0.81643236 0.0017654113 1.4220245 1.097076 -0.3600286 -1.2969548 1.1361706
-0.10920528 -0.27777126 0.39446145 -0.2932409 0.53434795 -1.224689 0.71002835 0.535529
0.066755526 0.5070317 0.7477395 -0.17195067 0.52402973 0.30649176 -1.3908672 -0.27305752
0.37779486 0.6846826 -0.20353712 0.38747558 0.7804975 0.5197809 1.4076909 0.73415446
-0.10353445 1.2452818 -0.1985457 -0.1822284 1.080956 0.57061905 0.42279825 -0.24406795
-0.16485505 0.47460654 -0.5336862 0.91977465 0.41581547 -0.36117455 0.53520423 -0.025195908
0.5125542 -2.748227 1.4569999 0.6700006 -0.045971498 -0.61269444 0.6036222 -0.32245344
-0.62224025 0.7313176 -0.027807431 -0.38379624 -0.20084861 -1.05215 0.012190866 -0.37206736
-0.3830569 1.5160857 0.11452582 0.19199538 1.0687003 -0.16124405 2.4088001 -0.16925512
0.18099542 -0.48111302 1.2915015 0.4907859 0.4503129 0.18076968 0.49548525 0.78871375
0.23855744 0.61230206 0.72042984 -2.54522 0.21193314 1.0546893 -1.6250114 -0.28550246
0.7712243 -0.42249498 0.051793203 1.1134751 -0.39749452 1.1254091 -0.031167107 -0.22738752
0.28067487 0.64703053 -0.3105057 0.10291166 -0.48236886 0.24273896 0.6507376 -0.30096963
-0.7335409 -1.8252158 1.9547733 -0.9007653 0.32753122 0.3795313 0.9834066 0.13985385
-0.0009305456 0.0353002 0.07147588 -0.8373317 -1.5965718 0.022772824 -0.08331859 1.1613015
-0.71283394 -1.5191398 -0.03172595 -0.69897383 4.08833 -0.922093 -1.0420603 -0.8417695
0.7776269 0.9978222 -1.4835143 0.021746753 -1.065027 -0.8766823 -0.8393391 1.2628366
0.5379357 -0.058192715 -1.5207394 -1.2776899 -1.0605162 -3.5322886 -2.3346467 0.052753184
-0.20214374 -2.123947 -1.2783651 -0.032126337 0.6977075 -1.3960932 -1.3639593 0.045219727
0.8203266 -0.67951614 0.82734376 0.109651275 -0.5966626 -0.17147887 -0.9171038 -1.6583503
-0.98291755 -0.9931729 1.6145867 0.69334686 -0.7609481 -1.4720386 -2.2086618 -1.3211124
-0.5465379 0.6929809 -0.23305953 -0.86042136 -1.5709698 0.7986408 0.69104326 -1.0257858
-0.81578434 0.09339208 -1.999498 -0.021006057 -0.592596 0.40710664 -0.3077618 0.3045387
-0.15423435 -1.2265337 -0.63019747 0.31222665 0.8917731 -0.4712031 -1.0820247 -0.8695214
-0.42835703 -1.6055448 -0.10961035 -1.0686734 -0.16735102 0.064420104 1.49 -1.2262714
-1.2346884 -0.047990717 0.6826333 -1.1037234 0.3501896 -0.41903254 -1.3751941 -0.8832022
0.09510262 -1.5679241 0.82340527 0.33590484 0.48573804 -0.70988894 2.4157047 -1.1746696
0.70414937 1.1645825 -0.33264837 -0.18857957 -0.27847585 -2.8804355 0.76182294 -0.7869632
-1.3834379 1.3110766 0.47608325 -0.21995685 -0.28635243 1.7227699 -0.051432814 -0.38295677

action_model._discrete_distribution.branches.0.bias f4 [3]
00000000: 3f79 11c0 5d5d 97bf 8030 4440
-2.2730253 -1.1825367 3.0654602

action_model._discrete_distribution.branches.1.weight f4 [3, 128]
00000000: 8170 5e3f 6d56 06bf 2a4c a53f 66b4 a6be
00000010: 70be d83e c2bf bc3e 7f57 db3f 9507 623f
00000020: de73 acbf 8587 413d fa2f 75be 71bf b6be
00000030: 13ec c73d 6899 423f 37c7 6d3f 3fae 1440
00000040: 9117 0abf 2ecf bcbf e21e a6bd 1eb0 6740
00000050: 8ea7 2040 45a2 a83f 5aad 83bf 0f07 cd3e
00000060: 1666 ce3f b5ab 3dbf bed6 443f 8519 f63f
00000070: b59b 943e d5d6 023f a6ad 5abe ecc2 2c40
00000080: a292 b6bf afca 87bf edde 19c0 5155 643d
00000090: 7d0d 223e 53c0 83c0 a599 f73d 8c54 1e3f
000000a0: e7b0 ae3f 2314 42bd 582b e93e 9d80 8fbf
000000b0: 98c9 80bf 7a41 563f 00d2 843f bf65 8e3f
000000c0: 1f53 283e ec35 013f b0ad 30bf 0b55 86be
000000d0: 01cb 06bf 2142 463f 57c2 8cbf cfd4 063e
000000e0: eecc cbbf db5a 29bf bbd4 97bc 183d babd
000000f0: 5e6b ea3e 2397 19bf 750a c93e a3fa 97bd
00000100: e0f4 243e 8c9b 9cbe 6118 283f 6b7e 16bf
00000110: 3f5e 3b3f 0b99 52bf 8666 60bf ca6d 703f
00000120: 5f78 933e c8d9 383e 6242 1640 46ee 3d40
00000130: e3cf 6740 d1fb 493f 6b35 bdbe 17a8 61bf
00000140: 5a06 90bf 2db7 c0be d362 d63e d712 19bf
00000150: 40da 7b3d 2c4d 153f 6e4a 0e3e 9452 9dbe
00000160: 672d 923f 1d97 22be 2796 c2be 9768 cd3d
00000170: b050 a3be 01fc b93e 4081 0640 2a25 ffbe
00000180: 8065 6cbc d415 853f 10ad 033f 5556 aebc
00000190: 348c f4bf e8dc 86bf a512 79be 8ecd d63f
000001a0: 6c19 02be 6d04 c23e 33c6 f63f 0755 50c0
000001b0: a106 433f 4b56 0740 157a 0a3f 388d 11bf
000001c0: b4d5 1340 0a18 cd3d 3982 1f3e 21b0 6bc0
000001d0: af60 6840 9fbc 1240 37fa 72be 2cd2 37bf
000001e0: c113 cdbf da61 ed3e 2458 243e c463 11bf
000001f0: 449b 293f 1296 24bf 8b09 63bf f834 17c0
00000200: 28f1 abbe 65ba 753e 3f4b 86bd 44d9 15bd
00000210: 51e1 2e3f 2da4 b3be 0db1 c13e e1fd ee3d
00000220: 3e9d 83bf d2ef a5be f794 41bf 5319 3cbe
00000230: d871 fc3d 3692 523f 2be2 8cbf 1ba7 f53d
00000240: 4fe6 153f aac3 d63f 833e 14bf 4bea 36be
00000250: 97c9 51c0 ae77 8bbf 3393 3c3e 48bf 853e
00000260: cc59 b53f 2369 d8bc d9f3 d83f b539 60bf
00000270: 3c5b 993d a15e f5be 35f6 c33d 6c1d 62bf
00000280: 1925 813f 67df 1ebf 0db7 91be 7a95 aebe
00000290: d781 21bf c387 153f 84cb a3be 73f2 86bf
000002a0: 7062 d2be d938 aa3f 72ac 1a3d 4bc9 1e3f
000002b0: eaf8 593f 08c5 ba3d b380 17bf 69e8 cdbd
000002c0: 276b 08be 40e6 0ebf 0d5e 823c 12b5 5d3e
000002d0: f7eb c23e aa78 313e 474e 373f d570 e23e
000002e0: 51bd 813f eb0f ec3d c857 65bf 71a6 a2bc
000002f0: e3a1 503f 36cd 383f 9a02 34be ed83 43bf
00000300: aee4 4140 33f0 8fbe 190c 0cbf 4a61 1b3f
00000310: 49df 1f3f 7ae5 53be 7824 9abe b3b9 973e
00000320: fb2a ecbe d51f 56bf 54ad 99be f01d e7bd
00000330: b1ee 5dbf 4d36 163f 2fee 1f3f 3c9e bfbe
00000340: 3a6b cebe 87f5 82bf bd67 3e3e c8b5 c53f
00000350: 2576 a1be 67dc b7bf 4e7c 7cbe ded5 633f
00000360: dde0 c2bf fd80 e73e e3ec 033f 2f44 b43e
00000370: d55e 4c3f 0959 aa3e 5351 823f 9735 d7be
00000380: 7460 b3bd 2010 e2bd 7151 193c 372a 16bf
00000390: d395 8c3f 132f 873f da93 d93c acb2 6f3a
000003a0: 2637 ca3f 1e4d 4c3d a9da 9a3f 2dd6 ee3e
000003b0: d4d2 db3f 1fb6 e23c 3c65 3940 3277 373e
000003c0: 0602 893d 3f37 32bf 3cf1 92bf 0bae c63e
000003d0: b0d7 bf3f d081 be3e 9859 823f 7c84 923e
000003e0: 955c f73e e195 4dbe ccc4 193f 5c7b 553e
000003f0: 7c11 353f 99c5 a4be 1aca f03e 411c 893f
0.8689042 -0.52475625 1.2913868 -0.32559508 0.42332792 0.3686505 1.7136077 0.8829282
-1.347286 0.047248382 -0.23944083 -0.35692933 0.097618245 0.7601533 0.928821 2.3231351
-0.5394221 -1.4750726 -0.08111359 3.6201243 2.5102267 1.3174521 -1.0287278 0.40044448
1.6124904 -0.7409013 0.7689017 1.9226538 0.29025045 0.5110906 -0.21355304 2.699397
-1.4263499 -1.0608729 -2.4042313 0.055745427 0.15825458 -4.117227 0.12089852 0.6184776
1.3647736 -0.047382485 0.4554088 -1.1211125 -1.0061522 0.8369366 1.0376587 1.11248
0.16437958 0.50472903 -0.69015026 -0.26236758 -0.5265351 0.77444655 -1.0996808 0.13167118
-1.5921915 -0.6615426 -0.018534055 -0.09093684 0.4578504 -0.5999624 0.3926579 -0.07420852
0.16109037 -0.30587423 0.656622 -0.5878665 0.73190683 -0.82264775 -0.8765644 0.93917525
0.28802773 0.18051827 2.3478017 2.967668 3.6220634 0.78899866 -0.36954817 -0.8814711
-1.1251938 -0.37639752 0.41872272 -0.5979437 0.061487436 0.5832088 0.1389558 -0.30727065
1.1420106 -0.15877958 -0.38005182 0.100297146 -0.31897497 0.36325076 2.1016388 -0.4983304
-0.014428496 1.0397286 0.5143595 -0.0212814 -1.9105287 -1.0536165 -0.24323519 1.678148
-0.1270501 0.37894002 1.9279236 -3.2551897 0.7618199 2.114642 0.5409253 -0.5685611
2.3099184 0.10014351 0.1557702 -3.682625 3.630901 2.2927625 -0.23728262 -0.7180507
-1.6021653 0.46363717 0.16049248 -0.56792855 0.6625254 -0.6429149 -0.88686436 -2.362608
-0.33582425 0.23996885 -0.06557321 -0.036584154 0.68312556 -0.35086194 0.37830392 0.11669517
-1.0282362 -0.3240953 -0.7561793 -0.18369035 0.123264015 0.8225435 -1.1006521 0.119947635
0.5855455 1.6778462 -0.57907885 -0.17862813 -3.277929 -1.0895898 0.18415527 0.261225
1.4168029 -0.02641732 1.6949416 -0.87588054 0.07488105 -0.4792376 0.09568445 -0.88326144
1.0089446 -0.62059635 -0.2845997 -0.34098417 -0.63088745 0.5841028 -0.31991208 -1.054274
-0.41090727 1.3298599 0.037762113 0.620259 0.8514544 0.09119612 -0.59180754 -0.10054094
-0.13322125 -0.55820084 0.015913988 0.21651104 0.38070652 0.17331186 0.71603817 0.4422671
1.01359 0.115264736 -0.8958707 -0.019854756 0.8149702 0.7218813 -0.17579117 -0.7637318
3.0295825 -0.28112945 -0.5470596 0.60695326 0.6245008 -0.20693007 -0.30105948 0.29633865
-0.46126541 -0.8364232 -0.3001505 -0.11285007 -0.8669234 0.58676606 0.62472814 -0.3742541
-0.40316182 -1.0231179 0.1859426 1.54461 -0.3153545 -1.4364136 -0.24656793 0.8899821
-1.5224873 0.45215598 0.51533335 0.3520827 0.798322 0.33271053 1.0181068 -0.42033073
-0.08758631 -0.11038232 0.009357796 -0.58658165 1.0983223 1.0561241 0.026559759 0.00091437506
1.579808 0.049878232 1.209798 0.46647778 1.7173715 0.027674733 2.8968039 0.17916563
0.06689839 -0.6961555 -1.1479869 0.3880466 1.4987698 0.37208414 1.0183592 0.28616703
0.48312822 -0.20076706 0.60065913 0.20847839 0.70729804 -0.32182005 0.4702919 1.0711747

action_model._discrete_distribution.branches.1.bias f4 [3]
00000000: 099a 063e d3ad 1bbe 79f3 253f
0.13144697 -0.15203027 0.64824635

exp_avg f4 [128, 13]
00000000: 84c2 9eba f3a5 db39 837d 6939 8b37 a8ba
00000010: 0000 0000 2804 233a e0ec ad3a a17a b63a
00000020: 55eb 053b 63b5 c0ba 7ac8 46ba e3de 7e39
00000030: 867f 963a 09e4 d2b9 3479 6739 499f 3939
00000040: 78e4 1a38 0000 0000 f55f 5c39 33b0 0939
00000050: 7795 ebb9 899b 09b9 0324 e238 9316 54b6
00000060: 48b7 8938 b935 0aba eed2 8339 76b6 8739
00000070: aec8 9939 65f3 1338 0000 0000 bf3e 52b9
00000080: 1a80 8cb9 b9af ad37 659d 2a3a af87 88b9
00000090: 778f 8f39 6157 0bba 9fa4 9c38 240e 38b9
000000a0: 4b49 c937 61e1 9736 26c5 71b9 0000 0000
000000b0: c163 3839 fbf7 3b39 64f6 3639 fdb6 eeb9
000000c0: ed02 1fb9 a0a6 90b8 1aae 2239 39a1 ed38
000000d0: d32b 40b9 1737 7b39 373d 5739 164d 23ba
000000e0: 0000 0000 ea13 0e39 c5f8 ed39 6099 293a
000000f0: f7dc 32ba a8e1 25ba 652a 1239 fe5f db38
00000100: b616 0c3a 44db bd38 6aeb fdb8 d986 ebb8
00000110: 2d49 91b9 0000 0000 c18f 2a3a 6d49 f4b9
00000120: 1300 d2b9 e6fb 45ba 8f72 6939 6eaa fbb9
00000130: 6f2d 4b39 e240 b7b9 73dd 0839 4af1 cf39
00000140: cc93 d739 67b2 44b9 0000 0000 f92d 73b9
00000150: 3021 0e39 1b0b c039 0d1a 103a ae7d 1aba
00000160: 5b3b 043a 7105 35ba c15a c439 2cbf af39
00000170: 1c19 3038 83e1 bf38 2426 eab7 0000 0000
00000180: 339d 41b9 3426 6eb9 8501 2f38 3408 a139
00000190: 5540 bab7 638e 3239 0b23 56b8 0c2b db37
000001a0: ec16 bd39 34ba d4b9 d2d6 b7b9 4701 2c3a
000001b0: 0000 0000 167a aa39 2eae 2cb8 9d2b 86ba
000001c0: 04b1 153a 937a 4e3a a812 23ba 76e6 77b8
000001d0: 5878 57ba 1af3 6cb8 4d20 24b9 2ef2 43b9
000001e0: cae0 4239 0000 0000 0274 d938 1012 c738
000001f0: 564a 0fb9 af73 c738 db03 2d39 46cb 32b9
00000200: 216b 0e39 5a9a 03b9 6968 cb38 e837 2db9
00000210: 6e2d 32b9 8f61 e538 0000 0000 05be 1e39
00000220: ec05 c5b9 d775 ff37 bbce 1ebb ea86 ba39
00000230: 3fd6 be38 1f8b 3c39 2088 0038 84d1 f338
00000240: 67b0 bb37 d201 2c38 6724 8e39 0000 0000
00000250: 4551 60b9 f568 3cb8 1083 03b9 a946 7537
00000260: 7588 ca38 eabd c138 3d5b 00b9 ad18 aab8
00000270: 5901 013a 4cc4 e8b9 5f1a c6b9 7fc0 6c3a
00000280: 0000 0000 c28a 87b8 74e2 11ba 1e62 61ba
00000290: 5c42 9f3a ff5b 813a d487 81b9 4454 16b9
000002a0: 5ad0 31ba 4708 31b8 f3af ce38 9ace c438
000002b0: aebb 22b8 0000 0000 8fc5 59b8 4fac b138
000002c0: b0d6 c938 34fa 9a38 6677 14b9 5e59 f238
000002d0: 0665 85b8 00ad a238 1259 f738 2c4b 17b8
000002e0: 0f6f a5b7 32fa 063a 0000 0000 c0c1 f1b9
000002f0: 3d7d 0ab9 f8a8 c638 0a59 e439 02c5 8f39
00000300: 115c 8c39 d4fa 50b9 79df c938 909c 1839
00000310: 6030 81b9 0f10 63b9 3cdb 3839 0000 0000
00000320: baf7 aa39 6fb2 45ba 0658 0bba 0502 fc38
00000330: ae33 003a 7749 aeb9 de04 b8b8 bed3 efb9
00000340: 3371 1c39 c04c b5b8 12c9 8fb8 3909 7e39
00000350: 0000 0000 7593 a6b8 fc0c 3eb9 710a 62b9
00000360: 3e30 32b8 ecd2 5f39 ce3f 7e38 c7e5 76b8
00000370: dcd0 12b9 d0c1 acb9 ebb3 68b9 1521 64b9
00000380: b678 9a38 0000 0000 3827 e439 280e 6e39
00000390: 7e35 7ab9 d481 07ba 3869 6239 88c8 b3b9
000003a0: 7788 7b39 7e64 58b9 eea2 3c3a 8972 0039
000003b0: d5bd c239 cbd8 093b 0000 0000 7814 17ba
000003c0: 3be3 e0ba fd9c ddba 861f 763b 6f94 073a
000003d0: 1468 57ba 650f bbba 2f8c 82ba 5b5e 91ba
000003e0: 682c d2b9 d518 02ba 2f36 3a3a 0000 0000
000003f0: 5ecc ba39 2f67 7439 9bda 0bba e44e f8b9
-0.0012112414 0.00041894577 0.00022267368 -0.0012833936 0.0 0.0006218576 0.0013269447 0.0013922044
0.0020434458 -0.0014702495 -0.0007582974 0.0002430636 0.0011482097 -0.0004022422 0.00022075028 0.00017702313
3.692924e-05 0.0 0.00021016582 0.00013130977 -0.00044934053 -0.0001312328 0.000107832275 -3.1603602e-06
6.566808e-05 -0.00052722875 0.00025143422 0.0002588515 0.00029331952 3.527421e-05 0.0 -0.00020050535
-0.00026798324 2.0705034e-05 0.0006508439 -0.00026041034 0.00027381975 -0.00053154497 7.469323e-05 -0.00017552875
2.3995197e-05 4.5263882e-06 -0.00023056995 0.0 0.00017584769 0.0001792609 0.0001744866 -0.00045531234
-0.00015164512 -6.8974914e-05 0.00015514382 0.00011331071 -0.00018326873 0.00023957748 0.00020526802 -0.0006229443
0.0 0.00013549594 0.0004538951 0.0006469693 -0.00068230875 -0.0006327876 0.00013939438 0.00010460614
0.00053439604 9.053064e-05 -0.000121078294 -0.000112307906 -0.00027711075 0.0 0.00065064064 -0.00046594013
-0.00040054377 -0.00075524894 0.00022263288 -0.0004800143 0.00019376514 -0.0003495282 0.00013052467 0.0003966189
0.00041118113 -0.00018758477 0.0 -0.00023191412 0.00013554539 0.00036629368 0.0005497046 -0.00058933615
0.0005044245 -0.0006905413 0.0003745165 0.00033521035 4.1985055e-05 9.1495946e-05 -2.7912734e-05 0.0
-0.00018464476 -0.0002271168 4.1724667e-05 0.00030714425 -2.2202885e-05 0.00017028446 -5.1054212e-05 2.612688e-05
0.00036065967 -0.00040574523 -0.00035064534 0.00065614696 0.0 0.00032515888 -4.1170213e-05 -0.0010236386
0.00057102763 0.00078765413 -0.00062207365 -5.9104023e-05 -0.0008219532 -5.649319e-05 -0.00015652292 -0.00018686868
0.00018585022 0.0 0.000103689745 9.492424e-05 -0.00013665235 9.510607e-05 0.00016500002 -0.00017051128
0.00013582084 -0.00012550634 9.699242e-05 -0.00016519392 -0.00016992327 0.000109377426 0.0 0.00015138842
-0.0003757918 3.0453242e-05 -0.0024232108 0.00035577203 9.0998125e-05 0.00017980904 3.0644354e-05 0.00011626168
2.237428e-05 4.100969e-05 0.00027111472 0.0 -0.0002139258 -4.492044e-05 -0.00012541958 1.461959e-05
9.657528e-05 9.2383314e-05 -0.0001224102 -8.110828e-05 0.000492116 -0.0004439674 -0.0003778515 0.00090313697
0.0 -6.463147e-05 -0.0005565055 -0.00085976894 0.0012150514 0.0009869336 -0.00024705997 -0.00014336506
-0.0006783061 -4.2207797e-05 9.8556186e-05 9.384491e-05 -3.87986e-05 0.0 -5.1920822e-05 8.472113e-05
9.6244155e-05 7.389896e-05 -0.00014158859 0.00011556105 -6.360751e-05 7.756986e-05 0.000117944684 -3.6071215e-05
-1.9721248e-05 0.00051489763 0.0 -0.00046111457 -0.0001320736 9.4728486e-05 0.00043553888 0.00027421868
0.00026771476 -0.00019929867 9.626052e-05 0.00014554174 -0.0002464084 -0.0002165439 0.00017629279 0.0
0.00032609497 -0.0007541542 -0.0005315546 0.000120166726 0.00048905134 -0.00033242602 -8.77471e-05 -0.00045743393
0.0001491949 -8.6450484e-05 -6.8562236e-05 0.00024226763 0.0 -7.942963e-05 -0.00018124649 -0.0002155693
-4.2483436e-05 0.00021345512 6.0617742e-05 -5.8864967e-05 -0.00014001451 -0.00032950798 -0.00022192269 -0.00021756098
7.3657764e-05 0.0 0.0004351677 0.00022702722 -0.00023861785 -0.0005169187 0.00021592237 -0.00034290948
0.00023988062 -0.00020636801 0.0007195909 0.00012249699 0.00037144 0.002103376 0.0 -0.0005763243
-0.0017157564 -0.0016907748 0.003755541 0.00051719596 -0.0008217108 -0.0014271556 -0.0009959991 -0.0011090742
-0.00040087407 -0.00049628067 0.0007103411 0.0 0.0003562895 0.00023308092 -0.0005335004 -0.00047361024
