results/maxAgent1/My Behavior/My Behavior-2999950.pt (torch, 477743 bytes, 57 tensors)

discrete_act_size_vector f4 [1, 2]
00000000: 0000 4040 0000 4040
3.0 3.0

network_body.observation_encoder.processors.0.normalizer.running_mean f4 [13]
00000000: b9ee 2044 b895 1444 ced6 4744 b1b6 6944
00000010: 0000 0000 9b76 ba44 0ef0 9543 6c1a 0a44
00000020: 4b9e 3d44 8a99 1e43 37fe a342 0e27 2343
00000030: 7c12 6843
643.73004 594.33936 799.3563 934.85455 0.0 1491.7064 299.87543 552.41284
758.4733 158.59976 81.99651 163.15256 232.0722

network_body.observation_encoder.processors.0.normalizer.running_variance f4 [13]
00000000: 5512 3b52 3397 2152 def2 5952 03a6 8a53
00000010: 0000 803f 7f3e 5453 d56e 8152 62db 4553
00000020: 21ee 9453 5892 7351 6576 5751 cdbd 9152
00000030: 16b9 8652
2.0086661e+11 1.7350661e+11 2.3402063e+11 1.1909814e+12 1.0 9.115816e+11 2.7795512e+11 8.497892e+11
1.2793006e+12 6.538327e+10 5.783777e+10 3.129773e+11 2.8931542e+11

network_body.processors.0.normalizer.running_mean f4 [13]
00000000: b9ee 2044 b895 1444 ced6 4744 b1b6 6944
00000010: 0000 0000 9b76 ba44 0ef0 9543 6c1a 0a44
00000020: 4b9e 3d44 8a99 1e43 37fe a342 0e27 2343
00000030: 7c12 6843
643.73004 594.33936 799.3563 934.85455 0.0 1491.7064 299.87543 552.41284
758.4733 158.59976 81.99651 163.15256 232.0722

network_body.processors.0.normalizer.running_variance f4 [13]
00000000: 5512 3b52 3397 2152 def2 5952 03a6 8a53
00000010: 0000 803f 7f3e 5453 d56e 8152 62db 4553
00000020: 21ee 9453 5892 7351 6576 5751 cdbd 9152
00000030: 16b9 8652
2.0086661e+11 1.7350661e+11 2.3402063e+11 1.1909814e+12 1.0 9.115816e+11 2.7795512e+11 8.497892e+11
1.2793006e+12 6.538327e+10 5.783777e+10 3.129773e+11 2.8931542e+11

network_body._body_endoder.seq_layers.0.weight f4 [128, 13]
00000000: 032e 803f e18c 6c3f 3824 d6be 1fb3 c03d
00000010: 6e24 b5be 1a1e b1be 0de7 acbe bd50 60bf
00000020: f31d 5dbf 1acf 72be e355 8d3e 6cea 6dbf
00000030: 123c 44be 7edc 893d acc3 dabe 0855 363f
00000040: b9d4 58be 436d ef3d 57d3 373f 824c 543f
00000050: abdc debe e980 89be 29c4 18bf 0528 bf3e
00000060: e965 dfbe cbdd 663e 894c 473e 6fda d7be
00000070: ad19 a0be d5bb 63be 3836 5d3e 8bdc 573e
00000080: 7588 403e 679f 9e3e 616b 41bf e04e a1bd
00000090: c5b3 c73d 01f3 0a3f ed45 9e3e 232c 0b3e
000000a0: f785 00bf 7c8b 893e ce78 7bbe 05c7 00be
000000b0: 36a0 ce3d 5ff2 183f e1c3 ac3e b7bb 67bf
000000c0: 2b8d 023f 4b8a 823e 2e9a 193d 955b 243f
000000d0: 8dba 6dbe da11 03bf 0fe8 a03e 1bee 08be
000000e0: f323 c03e c7e0 0abf 0b36 9a3e 4e16 643e
000000f0: 9ecd 17bd 078d 243f b77b d3be 5ed8 033f
00000100: fc71 3c3f 0b23 9b3f 18fb 9bbe 9b16 a73e
00000110: 3e74 05bf 8cd8 883d 30fa a93e 06da d7bd
00000120: d584 283e 239b b5be c03e 623e adf0 59bf
00000130: f62f a1be 3785 943e e120 b83e b7e6 86be
00000140: 5b13 91be a47f edbd 8f10 00be 2a2a afbd
00000150: 8cdb 553e 0c86 0b3e af00 a5bf fd3b fbbd
00000160: 31cc feba 9c76 8f3e dfa9 663f 2183 843e
00000170: 56d8 8abe f77e a3bd ee8a 54bf 525d 0bbe
00000180: f237 663f cabb 75bf cf1c 8c3f 3839 17be
00000190: cbc9 2bbf a877 56bf a784 c13e 07be 803e
000001a0: f8c2 1c3f 80f3 05bf fe9d 093f ceb5 25be
000001b0: 0031 853d 9512 a0be 15b9 973f 6c27 b7be
000001c0: 3d56 7cbf f695 883f 6780 db3e 0911 22bf
000001d0: 7946 ad3e ee71 e8be ee35 49be 1000 993f
000001e0: 3efc 003f 4932 623e 63c9 16bd aaea a73f
000001f0: fd55 80be 6dec fcbe f9db 3bbf 96d5 65bd
00000200: 99c0 e43d c6e5 bd3e 3811 41bf df43 bdbf
00000210: 341c 273f 5fbf 9c3f bf19 5fbd 9a41 e0be
00000220: ad33 343f ca70 85bc 9e25 dfbe 2972 453f
00000230: 58fd 653e a34c 8ebf 8824 9ebe 7652 fc3e
00000240: a5e3 d53d 2bf9 d6be c3f8 7abe 8bfe 2f3f
00000250: 1e54 7c3d f663 9ebc bf10 8d3c c71b 82bf
00000260: a28d 8b3d cab0 363e cc90 ba3e de09 8f3e
00000270: 443a 593e 2e5c 12bf f5b9 00bf dd8e 3e3e
00000280: 2e2e 3cbd 8805 813e caab 983f ba7d f03d
00000290: ae01 623d 43c4 333f 489b e83e 24e6 3ebf
000002a0: aa2d 9d3e 565a 2c3e 9288 1fbe bf93 5bbf
000002b0: 0571 febe e85e 9e3d 705a f63e 7f0d 91bd
000002c0: 00e4 1f3f df4e 4abf 528c 2bbe c0a9 79be
000002d0: fd16 633e da4e b03e dd1b 233e bb69 3fbf
000002e0: 308c c2be 4834 353f 67f4 c2be 2c75 893e
000002f0: 4fd2 98be 7cae a33e d709 c9bd 600d 4d3f
00000300: 8fef 42be a99d cabd d757 1f3f c708 dabe
00000310: 3c74 3cbf 65cd 05bf acdd 473e 5a86 a93e
00000320: 8bc9 b03f 1a29 df3e 77cc b7be d74c 32bf
00000330: 2355 96bf b8bd 723e a994 48bf 3014 b73e
00000340: fcaa 263e 0c7c 2ebf 33e0 2a3c c0a1 60bd
00000350: fed5 66bf e1f3 53be 365e 353f b4fc 053f
00000360: 40f7 0dbf 7a14 83bc 0275 c33d 7233 e53d
00000370: 1959 143f 2265 713d ebeb dabe 909a 923e
00000380: 2337 1ebe eae2 363e ac44 ca3e 0484 a53f
00000390: b416 833e df9f 80bf 3f57 e23e b386 093f
000003a0: 7e63 94be a977 943e 90c5 31be bf7c 243f
000003b0: ca0c 0140 d8dd 1ec0 540b d8bb 8d34 0b3f
000003c0: d051 d4be 7227 93be d525 91be 8eda 5b3d
000003d0: 4fa9 8d3f e52f d83f 0776 b8bf ec20 1d3d
000003e0: d187 1a3f 25d0 e9be 37ca 52bf fe56 a5be
000003f0: f9ad 9ebd f20c 003f 9bf0 543f d566 1fbf
1.0014042 0.92402464 -0.41824508 0.09409165 -0.35379356 -0.34593278 -0.33770028 -0.87623197
-0.86373824 -0.23711815 0.2760459 -0.92935824 -0.1916354 0.06731509 -0.4272741 0.712235
-0.21174897 0.11690762 0.71806854 0.8292924 -0.4352773 -0.26856163 -0.59674317 0.3733522
-0.4363244 0.22545545 0.1946279 -0.4215884 -0.3126959 -0.22239621 0.21602714 0.21080224
0.18802054 0.3098099 -0.7555447 -0.07876372 0.09751085 0.54277045 0.30912724 0.13591056
-0.50204414 0.2686423 -0.24557802 -0.1257592 0.100891516 0.5974483 0.33743194 -0.90520805
0.50996655 0.25496134 0.037500553 0.64202243 -0.23215695 -0.51199114 0.31427047 -0.1337208
0.37527427 -0.54249233 0.30119357 0.22274134 -0.037061326 0.6427769 -0.41305324 0.51502025
0.73611426 1.2120069 -0.30465007 0.32634434 -0.52130497 0.06681928 0.3319869 -0.105396315
0.16456921 -0.35469922 0.2209425 -0.8513287 -0.31481904 0.29007885 0.35962585 -0.26347896
-0.2833508 -0.11596611 -0.12506317 -0.08552964 0.20884532 0.13625354 -1.2890834 -0.12267301
-0.0019439516 0.2802018 0.9010295 0.25881293 -0.27118176 -0.07983201 -0.8302449 -0.13609818
0.89929116 -0.9598967 1.0946292 -0.14767921 -0.67104787 -0.8377633 0.37796518 0.2514498
0.61235 -0.52324677 0.537567 -0.16182634 0.06503487 -0.31264177 1.1853358 -0.35772264
-0.9856909 1.0670764 0.428714 -0.63307244 0.3384283 -0.4539942 -0.19649479 1.1953144
0.5038489 0.22089495 -0.03681315 1.3118489 -0.25065604 -0.4939913 -0.73382527 -0.056111895
0.111695476 0.37089366 -0.754169 -1.4786338 0.6527741 1.2245902 -0.054467913 -0.4380005
0.7039135 -0.016289134 -0.43583387 0.7712732 0.22459924 -1.1117138 -0.30887246 0.49281663
0.104438104 -0.41986975 -0.24508958 0.68747777 0.061603658 -0.019334774 0.0172199 -1.0164727
0.06814124 0.17840877 0.36438596 0.27937216 0.21213633 -0.57171905 -0.5028375 0.18609186
-0.045942478 0.25199533 1.1927426 0.117427304 0.055177383 0.70221347 0.4543097 -0.74569917
0.306989 0.16831335 -0.15579441 -0.8577232 -0.49695602 0.07732946 0.48115873 -0.07082652
0.62457275 -0.790266 -0.16752747 -0.2438116 0.22176738 0.3443516 0.15928598 -0.74770707
-0.3799758 0.707829 -0.3807709 0.26847208 -0.29847953 0.3196906 -0.0981633 0.80098534
-0.19036697 -0.098933525 0.6224341 -0.42584822 -0.7361486 -0.5226653 0.19518155 0.33110315
1.3811506 0.43586046 -0.35898182 -0.696485 -1.1744732 0.23705184 -0.7835184 0.3575759
0.16276163 -0.6815803 0.01042943 -0.054841757 -0.90170276 -0.20698501 0.7084688 0.5233872
-0.554554 -0.016000975 0.09543802 0.11191453 0.5794845 0.05893434 -0.42758116 0.28633547
-0.1545072 0.17859998 0.39505517 1.2930913 0.2560326 -1.0048789 0.44207188 0.5372116
-0.28982157 0.28997543 -0.1736052 0.6425285 2.0164056 -2.4822903 -0.0065931473 0.5437706
-0.41468668 -0.28741032 -0.28349176 0.053675227 1.1067294 1.6889616 -1.4411019 0.038361475
0.6036349 -0.45666614 -0.82339805 -0.32292932 -0.077480264 0.5001975 0.83179635 -0.62266284

network_body._body_endoder.seq_layers.0.bias f4 [128]
00000000: 8260 e5bf 52b6 38c0 1afa fabf 4630 0fc0
00000010: 5435 0cc0 f3c3 02c0 cce9 12c0 3fad 3bc0
00000020: 8ad0 09c0 b701 13c0 4399 e4bf fd2a d4bf
00000030: 8299 31c0 2dc3 34c0 e381 43c0 4026 0fc0
00000040: d902 2cc0 fd41 3bc0 04d2 1b3f a37c febf
00000050: aa9e d0bf 5084 10c0 b803 d1bf 343c c1bf
00000060: c3bd 6fbf cf17 fabf cc98 30c0 526d 01c0
00000070: 4aa7 12c0 0192 27c0 7328 8c3d 8aa1 29c0
00000080: 7517 0ac0 bee7 1cc0 8664 3bc0 4843 c7bf
00000090: 7eca edbf 37eb 68bf ebc5 26c0 1b78 09c0
000000a0: b796 a13e a2b4 35c0 9a40 00c0 2b54 24c0
000000b0: 7136 2dc0 54a8 18c0 68a0 cebf ab78 1cc0
000000c0: 0e71 f0bf cdbb e1bf 39d0 0ac0 c7e0 40c0
000000d0: 198b 07c0 103c 41c0 1157 cabf f232 d1bf
000000e0: 8abf 3ac0 f4cd 3fc0 3d28 b7bf cd32 41c0
000000f0: fe5e 8abf deed 08c0 7ce6 1ac0 3178 cdbf
00000100: 2405 72bf 5f2f 1dc0 dd86 0ac0 3dc1 0fc0
00000110: 8300 c9bf 7695 d7bf 801f 70bf feee 18c0
00000120: 0308 f5bf 6f2e f6bf 24ed 07c0 2156 37c0
00000130: 523f 1fc0 3933 1cc0 3833 063f 6a4c 15c0
00000140: 5a4a 05c0 6c67 4bc0 e1f3 1dc0 162e 06c0
00000150: 07fd fabf 5641 3cc0 4cd2 adbf 2c38 07c0
00000160: 9ff2 04c0 04de 08c0 a25f 10c0 0ba4 c8bf
00000170: e25f 4ac0 6d0e 0cbf 9b3b 0cc0 eace d6bf
00000180: 8061 17c0 3f7d cdbf 424e f5bf 7456 00c0
00000190: a07d 37c0 0889 26c0 9f33 0fc0 7d7a 45c0
000001a0: 65fe 03c0 efb8 59c0 9eda 0fc0 28cc 12c0
000001b0: 4e98 f9bf 185e b6bf c4b0 07c0 ee61 2ac0
000001c0: 9234 0bc0 03c4 a1bf 965d a8bf 5492 07c0
000001d0: c07a dfbf 5861 0ac0 be2b 10c0 a803 0fc0
000001e0: 1a38 f7bf 3585 08c0 51b2 dabf af97 76bd
000001f0: f0f1 5dc0 e24a 43c0 d3df 12bf b521 c5bf
-1.7920077 -2.886128 -1.9607575 -2.2373214 -2.190755 -2.0432098 -2.2955198 -2.932449
-2.1533532 -2.2969797 -1.7859272 -1.6575619 -2.7749944 -2.8244126 -3.0548027 -2.2367096
-2.6876738 -2.9259026 0.60867333 -1.9881786 -1.629842 -2.2580757 -1.632926 -1.5096498
-0.9364893 -1.9538516 -2.759326 -2.0222974 -2.2914605 -2.6182864 0.068436526 -2.6504846
-2.1576817 -2.4516444 -2.9280105 -1.5567408 -1.8577421 -0.9098391 -2.60583 -2.1479557
0.315603 -2.83915 -2.003943 -2.5676372 -2.7064478 -2.385274 -1.6142702 -2.444865
-1.8784502 -1.7635437 -2.168959 -3.0137193 -2.1178648 -3.019291 -1.580782 -1.6343672
-2.9179406 -2.9969454 -1.4309155 -3.0187256 -1.0810239 -2.1395183 -2.4203176 -1.6052305
-0.94539094 -2.4560163 -2.1644814 -2.2461693 -1.5703281 -1.6842487 -0.93798065 -2.389587
-1.914307 -1.923292 -2.123849 -2.864632 -2.4882398 -2.4406264 0.52421904 -2.332789
-2.082663 -3.1781874 -2.4680102 -2.0965629 -1.9608468 -2.9414878 -1.3579803 -2.1128035
-2.0773084 -2.1385508 -2.255837 -1.5675062 -3.1621022 -0.5470951 -2.191138 -1.6781895
-2.365326 -1.6053847 -1.9164507 -2.0052767 -2.8670425 -2.6021137 -2.2375257 -3.085601
-2.062402 -3.4019125 -2.2477183 -2.2937107 -1.9499605 -1.4247465 -2.120164 -2.6622272
-2.1750836 -1.2637943 -1.315356 -2.1183062 -1.7459335 -2.1621914 -2.2526698 -2.2345982
-1.9313996 -2.1331303 -1.7085668 -0.06020325 -3.4678917 -3.0514455 -0.5737278 -1.5400912

network_body._body_endoder.seq_layers.2.weight f4 [128, 128]
00000000: 2f53 333f 3712 0fbf d52b 083e 8012 0c3f
00000010: bf5b fb3f ae3c 923f da52 2ebe fbce 713f
00000020: 19fb 43be 60f8 103e 0647 d43e 63b0 a43e
00000030: e674 143e 31ab 123f 9871 0240 dd5b 203f
00000040: 5797 6b3e 332d 263f f52c a9bf e242 dc3e
00000050: 89e0 823f 2c36 203f 723f 643f d5e0 2ebf
00000060: 3710 38bf 47fa 843f 714f 1e3e 9eae 133f
00000070: e8ad 2a3f f3c6 783e deef e9bf 9025 f43e
00000080: b368 dd3e 8d93 483f 61ab 2f3f e248 8e3f
00000090: fffa 043e 8514 86bf d938 f83b 8cd6 a0be
000000a0: 8add 0abf 25fe 143f b138 fc3f 15a6 65bf
000000b0: 7c59 383e 8d7a 9e3e c8c0 353f fdd3 143f
000000c0: 2fce e1be 60f0 b23f 31a3 803f 7c81 823e
000000d0: 691d 653e e735 313f 6dbc 82bd 069c 26bf
000000e0: fc12 373f acc0 843e 7e35 03be f0c0 463f
000000f0: 0909 21bf 428b 803f f12e 78bd e4d7 c1be
00000100: 95b6 33bf f667 693f 9155 083f 6c04 ac3f
00000110: 6f30 0a3f d700 683f d695 57be c579 773d
00000120: d6ea 4bbe ceb0 dc3f b74a 903e ffdb 223f
00000130: 31c5 ff3e 9cb1 14bd 4087 bcbf 8160 9d3e
00000140: beee 0bbc e071 9d3e 1123 de3e 8ae6 8b3f
00000150: c477 9cbe f05e 0b3f 6953 0f3f 7af5 163f
00000160: 574f 123f 4450 d23d 9898 f8be c35a 7e3f
00000170: ee21 a53f b435 45bf 82be 5e3f c95d 52bf
00000180: d0d1 423f ee91 473f 1c91 203f 2ca4 a33f
00000190: 3d5b 803e dfd1 d03d 5843 5a3f 168a 143f
000001a0: 2b65 0b3f 2858 1ebe f79d f8bd dc89 9d3e
000001b0: 2fc5 ad3e c5e2 c63e 88ce ce3e 7fa6 8cbe
000001c0: de74 e93f 7eb2 363f 4a91 4dbf ae79 2f3f
000001d0: bc99 073f 358c a73e 1408 b83f a74e 113f
000001e0: c58b 82bf 0daa a6be ddfc 73be 76c5 0a3d
000001f0: 3209 533f 73e5 313f 6dbf adbf f576 9bbb
00000200: 0cea f13f 0436 0d3e 54a6 673d 4033 a53f
00000210: 8ce5 0e40 5b85 783f 9a38 c83f 0f96 8d3c
00000220: be25 6b3f c9f0 1bbf f394 37be ec3c 8d3e
00000230: 1cb2 213f 010e 6f3f cc97 fd3f 2d4b a33e
00000240: aa0e b73f d7aa aa3f 9132 b8bf daa3 5d3e
00000250: 829e ea3f 56db 173f c761 053f 62f8 bb3e
00000260: 4b47 e6bc abcf 293f 40f8 873e 7ffa b43e
00000270: 7282 993f 2a21 6e3f 3954 74bf 7377 683f
00000280: a4f5 abbc 8808 823e 0f0a 573f dda3 2d3f
00000290: ae4e 273f 9332 52bf 51da be3e 4479 903e
000002a0: cdf6 2bbe e69b d43e f85c a23f 7bae 143f
000002b0: 250a 303f 7fdb 9f3e 18d2 7d3f 9018 423f
000002c0: aa7d c13e 320e 953f 85a2 2f3f 039c 153f
000002d0: bd00 343f d485 733f 1c69 4d3c eeba a73e
000002e0: 4e5b a23f 89bd 0c3f 8905 6a3f 4d63 9a3f
000002f0: 8d8c 023f 4b8e 06be 502b e43e 422f 983f
00000300: 8b12 163d 5f12 8f3d 5979 a0bc 2040 b83f
00000310: 5920 553f a8d6 973e db49 f23e af57 293f
00000320: 6d46 cd3e aab7 b83f 2ce6 653e 524c 723e
00000330: a2b6 123f e2dc 183f a3df d7bf a9fe 543f
00000340: 49f4 2fbf 55b1 05be 4d82 663f b81a 973f
00000350: 0698 67bf 87ff 7b3f ab76 0cbf 85bb 313e
00000360: 9a1d 8bbe dc36 e1bd d380 3fbf 894f 9c3f
00000370: aff4 2b3f 9f29 813e 60d4 2b3d 4520 8abf
00000380: e17e 483e 245d 6b3f b536 8b3f b75b 023f
00000390: 7618 4f3f fba8 e93e c27b 493f ee4e 593f
000003a0: 10f2 153f 047e 543e 6a4d ce3e 6bcc a03e
000003b0: 16d0 733d 33d1 883f cbf6 893d c510 febd
000003c0: ba02 da3f 773d 8c3e a109 11bf 15e0 d23e
000003d0: 4128 893d 8876 2f3f e3ae 673f 0b47 b8bd
000003e0: 2808 383d 0b69 963e b13e c93e 5675 4cbf
000003f0: 2b65 453f 089f b53f 2477 b3bd 6a8a e93c
0.70048803 -0.5588717 0.1329797 0.5471573 1.9637374 1.1424768 -0.17023793 0.9445645
-0.19138755 0.14157248 0.41460437 0.32165822 0.14497718 0.5729247 2.0381832 0.6264017
0.2300695 0.6491272 -1.3216845 0.43019778 1.0224773 0.6258266 0.8915931 -0.68311816
-0.7189974 1.0388879 0.15459992 0.5768832 0.6667161 0.24294643 -1.8276327 0.47684908
0.43243942 0.78350145 0.6862088 1.1115992 0.12986372 -1.0475012 0.007575136 -0.31413686
-0.5424429 0.58200294 1.9704801 -0.89706546 0.18002886 0.30952874 0.70997286 0.5813597
-0.44102618 1.3979607 1.0049802 0.25489414 0.223745 0.69222873 -0.063835956 -0.6508182
0.7151334 0.25928247 -0.12813374 0.7763815 -0.6290441 1.0042498 -0.06059164 -0.37860024
-0.70200473 0.91174257 0.53255564 1.343885 0.53980154 0.9062628 -0.21053252 0.060418863
-0.19913802 1.7241457 0.28182003 0.6361694 0.49955133 -0.036302194 -1.4728775 0.3073769
-0.008540807 0.30750942 0.4338613 1.092973 -0.30560124 0.5444174 0.5598665 0.5896832
0.57152313 0.10269216 -0.4855392 0.9935724 1.290098 -0.7703507 0.8700944 -0.82174355
0.761014 0.77957046 0.6272142 1.2784476 0.2506961 0.1019628 0.8525901 0.580232
0.54451245 -0.15463316 -0.121395044 0.3076924 0.33939502 0.38844886 0.40391946 -0.27470776
1.823879 0.7136611 -0.8029982 0.68545043 0.52968955 0.32724157 1.4377465 0.5676064
-1.0198904 -0.32551613 -0.23826928 0.03387972 0.82435906 0.69490737 -1.3574044 -0.0047444054
1.889955 0.13790137 0.056555107 1.2906265 2.2327604 0.97078484 1.5642273 0.017283468
0.91854465 -0.60914284 -0.17927913 0.27585542 0.631624 0.93380743 1.981195 0.31893292
1.430135 1.3333386 -1.4390432 0.21644536 1.8329623 0.59319055 0.5210232 0.3671294
-0.028110167 0.663325 0.26556587 0.35347363 1.1992934 0.93019354 -0.95441014 0.90807265
-0.020991154 0.25397134 0.83999723 0.6782816 0.6535443 -0.8210842 0.37275937 0.28217518
-0.16793366 0.4152519 1.2684622 0.58078736 0.6876548 0.3122215 0.991487 0.7581873
0.37791187 1.1644957 0.6860736 0.5844118 0.70313627 0.9512608 0.012537267 0.32759804
1.2684114 0.5497671 0.91414696 1.2061554 0.50995713 -0.13140218 0.44564295 1.1889422
0.036638778 0.06985926 -0.019589113 1.4394569 0.83252484 0.29655957 0.47321972 0.6614942
0.40092793 1.443105 0.22451085 0.23661926 0.57309926 0.5971204 -1.6865124 0.8320108
-0.68732125 -0.13055928 0.90042573 1.1805029 -0.90466344 0.9843678 -0.5486857 0.1735669
-0.27171022 -0.10996792 -0.74805945 1.2211772 0.6717023 0.25227067 0.041950583 -1.0791098
0.1957965 0.91938996 1.087607 0.50921196 0.808967 0.45636734 0.78704464 0.8488606
0.58572483 0.20751196 0.40293437 0.3140596 0.059524618 1.0688843 0.06736525 -0.12405542
1.7032082 0.27390644 -0.5665532 0.41186586 0.06697131 0.6854024 0.9050123 -0.08997925
0.044929653 0.29377016 0.39305642 -0.7986654 0.77107495 1.4189157 -0.08762959 0.028508384

network_body._body_endoder.seq_layers.2.bias f4 [128]
00000000: 895d d3bf 8936 9abf d435 aebf 46b0 13c0
00000010: b240 efbf 0133 cfbf 780e 55bf 1264 f8bf
00000020: f150 0cbf 3598 bebf 0873 bbbf f336 d2be
00000030: 34cc afbf c716 39c0 9cab dfbf ead8 06c0
00000040: f6cc e9bf bffe 87be 10bd 0abf 274b 23c0
00000050: 73e5 cdbf d478 53c0 f31a c3bf da4d f7bf
00000060: 2057 b6bf 71a6 6dbf c1b0 d5bf 068a 49bf
00000070: e4b4 03c0 de0a 85bf 66fd b1bf 29ef b2bf
00000080: aff9 43bf f055 7cbf 9f7f aebf 4f81 9fbf
00000090: 4bba 0ac0 8de7 abbf 20df 71bf dbc5 acbf
000000a0: 4235 01c0 8e22 0ec0 6e79 34bf 9cde 9abf
000000b0: 7ca6 05bf d2f0 abbf 507d f8bf 6864 f8bf
000000c0: 7515 ecbe 7ab0 9dbf dfb2 b6bf 386c d5be
000000d0: b1e1 afbf 34ba d2bf 3de8 94bf 0a53 c3bf
000000e0: ea7a 05c0 d6c8 95bf b256 b8be bbb7 91bf
000000f0: c25c f7bf 4aef 19bf bb1f cdbf 4e65 81bf
00000100: 5880 8cbe 6c4f bebe ba57 9abf a6f7 eabf
00000110: 9471 a3bf 5ce2 43bf 01cc ddbf 4d1e f2bf
00000120: 40bb 24c0 828a 8dbf 6500 bcbf 53b9 b5bf
00000130: fb37 e1bf 2f8d d8bf 7086 40bf c2c6 31c0
00000140: 1bc1 41bf 9d6c bdbe 89e1 2cc0 3f8a 81bf
00000150: 4391 02c0 b7a3 dbbf 7486 26c0 de67 d2bf
00000160: ce1a 17c0 9520 20c0 f8ca c3bf 8b9d cdbf
00000170: 7c67 81bf 5ef6 fcbf c05c a5bf 78c7 4dbf
00000180: d0bc debf 746d 11c0 3ebf e8bf 15f3 2abf
00000190: 8f14 54bf df89 4abf a5e3 a5bf dded 9fbf
000001a0: 9d68 edbe 0340 20c0 bd92 42bf 9679 abbf
000001b0: cc72 8dbf 35c2 dabf df9b 15bf 0762 50bf
000001c0: b26e afbf e88f 1ebf 4d48 b6bf cf7e 7dbe
000001d0: 5315 9abf ad4d aabf b78e 18be de06 79bf
000001e0: 4677 5fbf 0e67 c1bf e837 b1be 2fe8 77bf
000001f0: 8b19 1abf 00c3 66bf af85 95bf b83b 03bf
-1.651292 -1.2047893 -1.3610177 -2.3076339 -1.8691618 -1.618744 -0.832252 -1.9405539
-0.54811007 -1.48902 -1.464448 -0.41057548 -1.3734193 -2.8920152 -1.7474246 -2.1069894
-1.8265674 -0.26561543 -0.54194736 -2.551462 -1.6085647 -3.3042498 -1.5242599 -1.9320633
-1.4245338 -0.92832094 -1.6694566 -0.7872623 -2.0579157 -1.0393941 -1.3905456 -1.3979236
-0.7655286 -0.9856863 -1.3632697 -1.2461337 -2.1676204 -1.3430039 -0.94481087 -1.3497881
-2.0188756 -2.220859 -0.70497787 -1.2099185 -0.5220716 -1.3432868 -1.9413242 -1.9405642
-0.4611012 -1.2319481 -1.4273337 -0.41684127 -1.374075 -1.6463075 -1.1633373 -1.5259717
-2.085627 -1.1701915 -0.36003643 -1.1384195 -1.9325182 -0.6013075 -1.6025308 -1.0109041
-0.2744167 -0.3716997 -1.2058022 -1.8356826 -1.2769036 -0.7651727 -1.7327882 -1.8915497
-2.5739288 -1.1057894 -1.468762 -1.4197181 -1.7595209 -1.6918086 -0.75205135 -2.7777562
-0.7568528 -0.36996928 -2.7012656 -1.0120314 -2.040116 -1.7159337 -2.6019564 -1.6437948
-2.361011 -2.5019886 -1.5296316 -1.6063703 -1.0109706 -1.9762685 -1.291893 -0.8038249
-1.7401371 -2.2723055 -1.8183362 -0.66777164 -0.8284387 -0.79116625 -1.2960097 -1.2494465
-0.46368876 -2.503907 -0.76005155 -1.339648 -1.1050658 -1.7090517 -0.58440965 -0.8139958
-1.3705657 -0.61938334 -1.4240814 -0.24755405 -1.2037758 -1.3304955 -0.14898191 -0.97276103
-0.8729137 -1.5109575 -0.34612966 -0.9683866 -0.60195225 -0.90141296 -1.1681422 -0.51263

action_model._continuous_distribution.log_sigma f4 [1, 2]
00000000: f813 adbf d99b bfbf
-1.3521719 -1.4969436

action_model._continuous_distribution.mu.weight f4 [2, 128]
00000000: 16db 35be ce3f babe 5040 8bbe a6d1 a3be
00000010: 8ac6 063e 08ba 07bf 155b 57bd 71f6 3bbe
00000020: a893 203f 89a5 99be 075d eabe d4ab dc3e
00000030: c61e 17bf 8f72 4dbf 3ac3 97be 859c 14bc
00000040: 7766 aabe eae1 173e 42ae 483f e85d 8abe
00000050: 89a7 9dbe 1cc2 99be 3c77 c2bc cb7f a6be
00000060: b157 dcbe 0ba3 143f f2bb d33e c1c2 cbbd
00000070: 1436 12be fb1c 59bf bb94 b93e ede9 82bd
00000080: 3ffa 063e de40 373f 1828 42bc 22bd a7be
00000090: d69d b6be bb2e ae3d a662 0fbf e738 ed3e
000000a0: 24c1 5d3e 7118 4abf 6923 b03e 477a 3e3e
000000b0: a39c 73be 5f15 9abe cfc0 0d3e 7339 933d
000000c0: 706b 22bf d9cd 083f 3dd0 043f ca5f 333f
000000d0: 9ee9 43be c3fd 22bf f283 79be 2885 01bf
000000e0: cd62 8fbe a37c 10bd 5bbf 4fbe 86ac c93e
000000f0: 7f5c a1be 8c1e 20bf 4c88 87be 28ff aebe
00000100: 10bb 96bd 533f fa3d 1647 febe 6340 8e3d
00000110: b419 e8be 3361 7b3e 0684 d6bd 6d6a 63be
00000120: 1380 c5bd 6cf0 983e 2001 62be 0a22 0bbc
00000130: a929 483e 766b f23d ae46 ba3e 0799 dd3d
00000140: a4a2 143f d7c5 fd3e 8988 98be fc7c 25bd
00000150: 1cdf 89bc a316 52bc 5f8c 20bf f671 fc3c
00000160: 9c26 5abd 0b4f fdbd f0ae cabe 582e 47be
00000170: 5ba6 99be d1af 963e 8066 be3d c70c 28be
00000180: 5fcb 11bf a4a3 4e3d a3e4 3bbe 2cf9 833e
00000190: 564e 94be ebd3 0e3f 2abb 0cbf eba4 4abf
000001a0: 0826 d8be 90c5 edbe c164 50be d591 9e3d
000001b0: eb24 c0be 016f cdbe b169 a53d 5ed5 05be
000001c0: 7f04 f1be 2f84 3a3f 45ba ac3d 249f 2dbb
000001d0: e39c 703c e47c a4be e51a 3b3e 2650 acbe
000001e0: 4ce4 c0be 7fbd 2ebe 21d7 263f d753 303f
000001f0: 15f4 a2be f61f 4a3c 0f88 7cbe 9685 adbe
00000200: ac03 883e e904 bdbe a803 dfbe 9ee1 f33c
00000210: 1ab9 debe 257f e6be d40a d8bb b089 d0be
00000220: 61fd ce3e 13dd 71bf 5d22 80bf c79c b53e
00000230: 04e5 c0bc 9804 5dbe aff5 c0bc 38e9 0eba
00000240: abc9 143e 42dc d23e 82de 373f 4e64 4a3e
00000250: a7ae bfbe c7eb dfbe effa 79bf 311e 52be
00000260: f4f5 64bf 97c3 303f cfb2 1e3e 3fb1 223f
00000270: d733 20bd 977c 65be ceb6 28be 53ea fd3e
00000280: 8e23 4c3f 9781 233e cd71 76be d191 ca3e
00000290: b758 a5bd d8e8 35be 8c00 25be 3b12 bf3e
000002a0: ba08 353e 1974 81bf a55b 9dbd 205d 0e3f
000002b0: 6f38 753e 7202 12bf aa2a 833e 9dfd 0abc
000002c0: a1b3 1ebf 13ff 1ebf 7a45 cb3e 7960 a33e
000002d0: cab8 debe d1cc 5abf aa41 a0be 9c1f 9bbf
000002e0: 0902 99bf 90df 8a3d 558f 3ebf b5fb d23e
000002f0: 854e 01bf 7160 febd 7934 4cbd 792c a5be
00000300: 2684 1abc 9de6 4d3f e7ee a93d 3f86 0cbf
00000310: dbce a2be d31d 373f b247 efbd 526b c13e
00000320: 1a05 17be 0fa3 4dbf 694b 15bf 2af4 83bd
00000330: c0be cd3e 7286 963e 995a 1b3f e493 013f
00000340: 644a 3c3f addc 4d3f 89d9 6abe 3432 74be
00000350: 4127 7dbe 981a 8dbe 13b8 0fbf 37e6 21bc
00000360: 4b6b 673e 1f22 013e 82ba 3cbf 38c3 abbe
00000370: 1911 5c3e bac0 99be 99e1 823e 4ffe e13e
00000380: 41d4 9abe e6de 833e 2d53 953e 4f83 f83e
00000390: 5ea2 513e 0674 053f 5d06 00bd b3d9 94bd
000003a0: b841 b93e eed3 48bd 6fa7 e43c 846f 96bd
000003b0: 4f7a 15bf d3a0 83be 8189 7e3e e71e 943e
000003c0: b8d8 bdbe f250 073f c5bd 2b3e afcc e6bc
000003d0: bfdb 9e3e e16e a3be 7e7b 1e3f 4266 fdbe
000003e0: 276d 2abe f51e 3fbe 0e56 513e c9bc 743e
000003f0: ff69 033f 1cfd f7bd 736f 6cbe 75f2 a4be
-0.17759356 -0.36376804 -0.27197504 -0.31995887 0.13161674 -0.53018236 -0.052577097 -0.18355729
0.62725306 -0.30009106 -0.457741 0.43099844 -0.5903133 -0.8025293 -0.29641134 -0.00907052
-0.332813 0.14832273 0.78390896 -0.2702477 -0.30791882 -0.30030906 -0.023738496 -0.32519373
-0.43035653 0.58061284 0.41354328 -0.09949256 -0.14278442 -0.84809846 0.36246285 -0.06392274
0.13181399 0.71583354 -0.011850379 -0.32761484 -0.35667294 0.08505007 -0.560099 0.46332476
0.21655709 -0.78943545 0.34402016 0.18601333 -0.23790221 -0.3009443 0.13843082 0.07188692
-0.63445187 0.534391 0.51880246 0.7006804 -0.19132087 -0.6366846 -0.2436674 -0.50593805
-0.28005067 -0.035275113 -0.2028784 0.39389437 -0.3151588 -0.6254661 -0.26471174 -0.34179044
-0.07359898 0.122191094 -0.4966361 0.069458745 -0.4533211 0.24548797 -0.104744 -0.22208567
-0.09643569 0.29870927 -0.22070742 -0.008492002 0.19547142 0.11836903 0.3638205 0.10820203
0.5806067 0.49565002 -0.29791668 -0.040402398 -0.01683002 -0.01282278 -0.6271419 0.03081606
-0.053259477 -0.12368592 -0.39586592 -0.19451272 -0.30009732 0.29431012 0.09296894 -0.16411124
-0.56950945 0.05044903 -0.18348937 0.2577604 -0.28966016 0.5579211 -0.5497309 -0.79157895
-0.42216516 -0.4643979 -0.20350935 0.07742659 -0.37528166 -0.40123752 0.080768 -0.13069674
-0.47073743 0.72857946 0.084339656 -0.002649256 0.014685842 -0.32126534 0.18271978 -0.33654898
-0.37674177 -0.17064475 0.6517201 0.6887793 -0.31826845 0.012336722 -0.24661277 -0.3389098
0.265653 -0.3691781 -0.43557477 0.029770669 -0.43500596 -0.4501888 -0.0065930877 -0.40730047
0.40427688 -0.9447796 -1.0010487 0.35471174 -0.023546703 -0.21583784 -0.023554651 -0.00054516224
0.14530055 0.41183668 0.71823895 0.19764826 -0.37437937 -0.4373457 -0.9764852 -0.2051933
-0.89437795 0.69048446 0.15497898 0.63551706 -0.03911194 -0.22410809 -0.16475984 0.49592838
0.7974175 0.15967403 -0.24066849 0.39564374 -0.08073562 -0.17764604 -0.1611349 0.37318596
0.1767911 -1.0113555 -0.076834954 0.5561085 0.23947309 -0.5703498 0.25618488 -0.008483318
-0.6199284 -0.6210796 0.39701444 0.3190954 -0.43500358 -0.85468775 -0.31300098 -1.2119021
-1.1953746 0.067809224 -0.7443746 0.41207662 -0.50510436 -0.124207385 -0.04985473 -0.32260492
-0.009430921 0.8043001 0.0829752 -0.54892343 -0.31798443 0.71529883 -0.11683597 0.3777719
-0.1474804 -0.8032693 -0.5831819 -0.06443055 0.40184593 0.2939945 0.60685116 0.5061629
0.7355101 0.8041485 -0.22934546 -0.23847276 -0.24722005 -0.27559352 -0.5614025 -0.009881548
0.22599523 0.12610672 -0.7372209 -0.33547378 0.21490897 -0.3002985 0.25562742 0.44139335
-0.30240062 0.25755996 0.2916502 0.4853768 0.20472094 0.5213016 -0.03125607 -0.07268085
0.36182952 -0.049030237 0.02791187 -0.07345489 -0.58389753 -0.25708637 0.24857141 0.28929827
-0.37079406 0.5285789 0.1677161 -0.028173773 0.31027028 -0.3192053 0.61907184 -0.4949208
-0.16643201 -0.18664153 0.20442984 0.23900141 0.5133361 -0.12108824 -0.2308939 -0.3221623

action_model._continuous_distribution.mu.bias f4 [2]
00000000: cab1 26bf 11d8 95bd
-0.65115035 -0.07316602

action_model._discrete_distribution.branches.0.weight f4 [3, 128]
00000000: 3c60 8c3f 00a3 523f 785e a53f 9ca3 cb3e
00000010: c09e 5cbf a0b1 f0be 2131 ad3f 7f73 433e
00000020: 26a7 9d3c ae7b eb3d 8c87 233f fe41 5d3f
00000030: 642e 9b3e 01f7 b1be 8130 b4bd 635a ae3f
00000040: 4046 6c3f ffc4 c43f d1a5 933e 1614 ca3f
00000050: c523 8240 be5f 0d3e fb69 513e c325 753e
00000060: e58a 5f3f 5b24 78bf e198 06be ac9d b93f
00000070: 6a9d 943f 1fcb 5ebd 9503 afbf 6846 023f
00000080: 41e9 0cbe b933 0dbe 9d0b 0e3f c867 f0bc
00000090: 7489 073f 2272 acbf 1be9 2e3f 0abc 123f
000000a0: 3585 95bd 0fb0 2f3f 1106 333f 9077 c8be
000000b0: 4378 133f 1cf8 353f fe82 c4bf 95a1 b3be
000000c0: 1851 b03e dc12 3b3f d641 14bb b447 1e3f
000000d0: 2df9 773f 7dc9 413f 9aae db3f c8f0 6e3f
000000e0: 9de4 a23c ec70 5e3f 5d3a 30bf 4336 aabe
000000f0: 3f99 9a3f 8d7d 153f bef9 3b3f c4dd 8bbd
00000100: b453 1dbf deb4 3bbe 889f abbe 4b47 593f
00000110: ba46 4c3f aa11 d2be c2d3 103f ec3e e2bd
00000120: c7cd 8a3e 2375 24c0 be4e a93f 5f29 9c3f
00000130: a7d3 b6bc 87e6 efbe 2d20 113f 1f98 d1be
00000140: a354 2dbf 034c 383f dd9d 11be 0f08 c2bd
00000150: 74e5 3bbe 4e2c 86bf 528f d53e d261 56bf
00000160: 7079 9cbe 1270 a23f 1f1b c0be 2b5a c03e
00000170: 3983 893f daba 15be 7631 0940 42f3 fe3d
00000180: de81 1d3f a18a d5be ee46 853f 9fcd 823e
00000190: 0fde 763f 6442 e43d d5e0 1b3f dd3d 863f
000001a0: aa73 853e b7b5 863f 025c 173f 7200 1bc0
000001b0: 8a98 e53e f276 683f 8c73 bdbf 3bf8 7abe
000001c0: 0696 203f 0cee d7be 8153 023d adff 623f
000001d0: 352a cd3e 1a86 c93f 51f5 013e 1dce 16bf
000001e0: 0bec 113e e0f5 7b3f fdb1 f5be bef2 213d
000001f0: fc78 62be cf93 563e 702a 683f c5ee 16be
00000200: 8b2b 22be 0d27 99bf af86 893f 48ed cbbe
00000210: e87c c73e 1f5b 143f 9d08 0b3f 8666 973e
00000220: 018b 223d 276f 95bf ee4c febe be55 10bf
00000230: af77 c8bf e6fb 6c3e 9b6f 623e 7b21 ce3d
00000240: f060 dabe e2df 8dbf 51c5 c13d ac01 4fbf
00000250: dce7 4c40 e649 abbf a87a adbf a18c 23bf
00000260: 89b9 3b3f f994 943f 2330 5dbf c598 1fbe
00000270: cdae 58bf d547 b1bf 8e44 5ebf 18ac 2e3f
00000280: e1fc 253f 33fd 5fbe 17e6 74bf a6e0 afbf
00000290: 1f3a 67bf a663 05c0 8a3f cdbf bf71 6f3e
000002a0: 6ae1 6dbe 25f5 99bf 7506 37bf d165 843e
000002b0: 2f3d 543f b9b5 4dbf 81aa a9bf 7257 40be
000002c0: 0a65 383e 030c 40bf b0b5 363f a995 36bb
000002d0: ea50 cabe 8017 a9bf 0453 9dbe d3d6 96bf
000002e0: 3f1c 00bf bafc cfbf 4061 773f a13a 3d3f
000002f0: 60dd bebe 5c63 55bf 2830 f0bf cb42 e0bf
00000300: 18a8 5abf 408b 9f3f 4bde b8be c91f 0fbf
00000310: f0c6 f6be 1834 2e3f b8d8 303f 5fba 87bf
00000320: 437e adbe bb76 293f 9bc9 e0bf 3d36 823e
00000330: f90a 4abf 3aa9 3a3e 8871 b2be 26c9 ba3e
00000340: ae32 173d 154f 9bbf e6ec 7fbf 23db 1a3e
00000350: a79d 5a3f bf8e 5cbe 5205 9bbf df4f c6bf
00000360: 536c 10bf c7b2 a6bf 32dd 29bf cc83 9abf
00000370: 2697 023d 4e2f 1cbe 962c bf3e a2aa 7cbf
00000380: 3b86 54bf b17c 223e f284 cc3e 50f3 8dbf
00000390: 099d a7be e715 a9be 41a3 86bf 654e 613e
000003a0: a74a ac3e 2f4f a5bf 3df4 1c3e 9e28 f23e
000003b0: 8372 843e f3f0 2ebe bf63 fc3f d986 96bf
000003c0: 95cd 243f 4513 9a3f 5ad0 bdbe e0c2 5cbd
000003d0: d923 6dbe 1c5a 09c0 9d59 073f d8d0 91bf
000003e0: f989 4dbf 8d18 703f 0e44 0b3f cf42 c6bd
000003f0: 9bde f2bd 64c9 cd3f cbd8 0fbf feec 07bf
1.0966868 0.8227997 1.2919455 0.39773262 -0.86179733 -0.47010517 1.3530618 0.19087027
0.019244742 0.114981994 0.63878703 0.8642882 0.3030883 -0.34758762 -0.08798314 1.3621334
0.92294693 1.5372618 0.28837445 1.578738 4.0668664 0.13806054 0.20450585 0.23940186
0.8732131 -0.96930474 -0.13144256 1.4501243 1.1610539 -0.05439293 -1.3672968 0.5088868
-0.13760854 -0.13789262 0.5548647 -0.029346362 0.5294411 -1.347233 0.6832444 0.57318175
-0.07300798 0.6862802 0.6993113 -0.3915372 0.5760538 0.7108171 -1.5352476 -0.35084215
0.3443687 0.7307565 -0.002262225 0.6182816 0.9686459 0.7569807 1.7162659 0.93336153
0.019884402 0.86891055 -0.68839055 -0.33244523 1.2078017 0.583947 0.7342795 -0.06829408
-0.61455846 -0.18330714 -0.3352015 0.8487441 0.7979542 -0.41029102 0.56573117 -0.11047158
0.2711012 -2.5696495 1.3227155 1.2200125 -0.02231772 -0.46855566 0.5668972 -0.40936372
-0.6770727 0.71990985 -0.14220376 -0.09474193 -0.18349248 -1.0482271 0.41710907 -0.8374301
-0.305614 1.2690451 -0.37520692 0.37568793 1.0743171 -0.1462206 2.1436439 0.124487415
0.61526287 -0.41707328 1.0412271 0.255475 0.96432585 0.111454755 0.6088994 1.0487629
0.26064807 1.0524205 0.5912477 -2.4219022 0.4484294 0.90806496 -1.4800887 -0.24508755
0.6272892 -0.42173803 0.031817917 0.8867138 0.40071264 1.574405 0.12691237 -0.58908254
0.142502 0.9842205 -0.47987357 0.039538138 -0.22116464 0.20954822 0.90689754 -0.14739521
-0.15836923 -1.1965042 1.0744227 -0.3982947 0.38962483 0.5795154 0.5431002 0.29570407
0.039683346 -1.1674546 -0.49668068 -0.5638083 -1.5661525 0.23142967 0.22112887 0.1006498
-0.42652082 -1.1083949 0.09461463 -0.80861926 3.2016516 -1.3381927 -1.3553057 -0.6388646
0.7332998 1.1607963 -0.86401576 -0.1558562 -0.84641725 -1.3850046 -0.86823356 0.68231344
0.6483899 -0.21873932 -0.9566359 -1.3740432 -0.9032306 -2.084207 -1.6035016 0.23383234
-0.2323052 -1.2027937 -0.7149423 0.2585893 0.8290586 -0.8035541 -1.3255159 -0.18783358
0.18007293 -0.7501833 0.71370983 -0.00278602 -0.39514858 -1.3210297 -0.30727398 -1.1784309
-0.500431 -1.6249001 0.96632767 0.73917586 -0.3727827 -0.83354735 -1.8764696 -1.7520384
-0.8541274 1.2464371 -0.36107096 -0.55907875 -0.48198652 0.6804824 0.69080687 -1.0603751
-0.33885393 0.66196793 -1.7561525 0.25432006 -0.7892299 0.18228617 -0.34852242 0.3648159
0.036913566 -1.2133509 -0.99970853 0.15122657 0.8539681 -0.21538828 -1.2110999 -1.5493125
-0.5641529 -1.3023309 -0.6635314 -1.2071471 0.031882428 -0.1525242 0.37338704 -0.98697865
-0.8301732 0.15867878 0.3994518 -1.1089878 -0.32736996 -0.33024523 -1.0518571 0.22002561
0.33650705 -1.291479 0.15327545 0.47296613 0.25868616 -0.17084102 1.971794 -1.1759902
0.64376193 1.203713 -0.37073022 -0.053896785 -0.23158206 -2.1461248 0.52871114 -1.1391859
-0.80288655 0.9378746 0.5440072 -0.096807115 -0.11858865 1.6077085 -0.56190175 -0.53095996

action_model._discrete_distribution.branches.0.bias f4 [3]
00000000: 3239 bebf aef1 f5be d96c f33f
-1.4861205 -0.4803595 1.9017593

action_model._discrete_distribution.branches.1.weight f4 [3, 128]
00000000: 8cd9 633f ae71 e2be 1ea3 6b3f 76f6 73be
00000010: 8d23 393f 8896 003f d031 603f 5830 843f
00000020: 1715 88bf b8a6 47be 4bb8 123e 9439 08bf
00000030: ed69 603e 0292 693f 9928 853f 03ba a93f
00000040: 7500 97be 50cd 70bf cae4 edbd c431 3740
00000050: d4f6 2240 34ab 493f f9cc 55bf 8101 1b3f
00000060: a012 e83f ac53 51bf 5051 b1be dcd0 b73f
00000070: 3170 db3e c2ce 563f bce6 003d f926 bc3f
00000080: 7936 97bf 1f8d 51bf 0bd3 18c0 24ff 163e
00000090: 992d a13e 5352 48c0 26e6 a63e 5da3 233f
000000a0: 8323 8f3f f5db 9fbd e8d9 b23e 20c7 7bbf
000000b0: 0c3b 81bf e215 483f bf54 6fbe 655a 893f
000000c0: 9d64 22bc 1925 6d3f 2698 03bf f274 1bbf
000000d0: 5cce 99be 0ab0 3b3f 1fb0 86bf d12b 1f3e
000000e0: ce20 bbbf ee46 68bf 96e9 d33d af7f 55be
000000f0: 9007 f93e 119e 5abf b67a fd3e 8521 d4bc
00000100: 9357 bf3e d9fa 1a3e 8812 403f 7216 f0be
00000110: b201 243f aba8 5fbf 57c9 71bf 05fe 8e3f
00000120: ba36 ba3e 61e9 fa3e 4073 0c40 b093 1e40
00000130: 4e25 ff3f f61d 823f 24eb 8ebe 3420 12bf
00000140: 131c 96bf 778b 5dbe 3bd4 ee3e 6b12 1cbf
00000150: c52c 803e 6e4c 0b3f a3f3 62be 4dce 52bf
00000160: 3b69 9e3f 5d45 aebd 8750 07bf ae4c 333b
00000170: 0e4b d2bd d5d0 a33e acf0 fb3f dcbc b8be
00000180: 37ad f6bd 8d5e 473f cad5 0a3f 0156 243e
00000190: 36ac 08c0 5716 7bbf 5844 e8bd 3c80 f33f
000001a0: 2ff4 fdbd 212c 303f 09d4 ed3f 8d4d 44c0
000001b0: 4ac2 563f 361b 0a40 132c 2e3e 777c 30bf
000001c0: 6faf 1d40 3b5f 743c efbb 483e 020b 34c0
000001d0: 0c70 9540 73dd 4a3f dcd3 a43e 7c16 05bf
000001e0: 691f b6bf e9b3 d63e 9f71 fb3d 120d 2ebf
000001f0: df51 993e d9c0 2bbf 99c5 63bf 428c 2fc0
00000200: 0e05 bcbe a4e7 593e 8c35 3ebe 02c2 d33d
00000210: f65a 183f 3445 efbe 2c1f e13e 3f95 bf3d
00000220: 09f3 76bf 6ffc 983d 15b8 4fbf 36b5 8bbe
00000230: e984 623d bef9 823f 5a73 91bf c7a4 6e3d
00000240: 96dd ba3e 5fad ad3f 4de7 e3be 6c65 e23d
00000250: 9b99 4bc0 1b76 49bf 1778 07bd fbdc 15bd
00000260: 2363 9c3f ac79 053e dca3 be3f 9baa 2bbf
00000270: 049d 873d a79e 28be 56a6 663d f67a 5ebf
00000280: 4dee 7a3f d03b 55bf cbc6 973e 0f58 05bf
00000290: 16fd 30bf a4a2 8a3e 3885 5bbe a989 87bf
000002a0: a2be 08bf ab6c c33f d58f 5c3e a664 293f
000002b0: be07 4e3f 11a1 4a3e 2782 a7be 990c 08bd
000002c0: 3f96 273e ec33 04bf e156 823d 3eb4 953e
000002d0: 18a6 173e 9e6c ca3e c6d7 153f 5a09 0f3f
000002e0: 09dd 6b3f d886 503d fd77 73bf e89b b2bd
000002f0: b4f9 103f c2bc 623f 7b69 11bd 8161 aabe
00000300: 6353 1e40 c697 babe a4de 15bf cebf 1c3f
00000310: 36e9 4e3f 44dd 0fbc 8210 5fbe 88df 083e
00000320: a20f c2be f56c 6abf 6d5b b7be 8690 9a3d
00000330: 39fb 07bf 03d1 e43e ce84 213f ead4 06be
00000340: bb34 78be 11bc 82bf b17e 78bd 23dc d33f
00000350: 8ec3 e4be c204 87bf d85f 813e 5501 823f
00000360: 8482 c8bf 0bcd 8c3e 0c60 bf3e f706 9a3e
00000370: bfe0 1c3f 0337 533e edd5 143f e196 edbe
00000380: e1f0 0b3e ce13 0abd f9a4 ac3c df94 0cbf
00000390: cace 8a3f 449f 973f 2f77 b3bd 7dcf 6abe
000003a0: 1115 b83f 273c 9cbe 3444 023f 0281 673f
000003b0: fdb9 f33f 0ada acbd f8d2 0f40 24ef e53d
000003c0: da65 aabe 5036 f3be d7c8 92bf 145b fa3e
000003d0: 7e8f cc3f ee33 8a3f 8534 de3e 1d68 dd3e
000003e0: 8182 783e e1bd 5bbe 2f46 0e3f ebf6 743e
000003f0: cf99 813f a8d1 11bd 5c5e 5b3f b58d 913f
0.89003825 -0.44227356 0.9204577 -0.23824486 0.7231987 0.5022969 0.8757601 1.0327253
-1.0631436 -0.19497192 0.14328115 -0.5321286 0.21915407 0.91238415 1.0403014 1.3259891
-0.29492536 -0.9406328 -0.11615904 2.8624125 2.5463152 0.7877686 -0.8351589 0.6054917
1.8130684 -0.817683 -0.3463235 1.4360614 0.42859033 0.8390924 0.031470045 1.4699394
-1.1813499 -0.8185596 -2.387881 0.14745766 0.314801 -3.1300247 0.32597464 0.6392115
1.1182712 -0.07805625 0.34931874 -0.98350716 -1.0096145 0.7815839 -0.23372172 1.0730711
-0.009911683 0.9263473 -0.51404035 -0.6072532 -0.30040252 0.7331549 -1.0522498 0.15544058
-1.4619386 -0.9073323 0.10347287 -0.20849489 0.48638582 -0.8539744 0.49507684 -0.02589489
0.373715 0.15134753 0.75028276 -0.46892124 0.64065087 -0.8736674 -0.94447845 1.1171271
0.36369878 0.4900618 2.1945343 2.4777641 1.993326 1.0165393 -0.27913773 -0.5708039
-1.1727318 -0.21635233 0.46646294 -0.60965604 0.25034156 0.544135 -0.22163253 -0.8234604
1.2375864 -0.08509324 -0.5285725 0.0027358937 -0.10268222 0.31995264 1.9682822 -0.36081588
-0.12044757 0.7787865 0.54232466 0.16048433 -2.135511 -0.9808096 -0.113411605 1.9023509
-0.1240009 0.68817335 1.8580333 -3.0672333 0.8389021 2.1579108 0.17009 -0.6893992
2.4638326 0.014915283 0.19602941 -2.8131719 4.6699276 0.79244155 0.32192886 -0.51987433
-1.4228336 0.41934136 0.12277531 -0.67988694 0.29945275 -0.6709114 -0.88973385 -2.7429357
-0.36722606 0.2127977 -0.18575114 0.103397384 0.59513795 -0.46732485 0.43969095 0.09354638
-0.9646459 0.07470023 -0.8114026 -0.2728669 0.055302534 1.0232465 -1.1363328 0.058262613
0.36497182 1.3568534 -0.44512406 0.11054501 -3.1812503 -0.7869584 -0.03307351 -0.036587697
1.2217754 0.13034695 1.4893756 -0.670572 0.06621745 -0.16466771 0.056310974 -0.86906374
0.9801987 -0.8329439 0.29643854 -0.5208749 -0.6913618 0.2707721 -0.21437538 -1.0588886
-0.5341588 1.5267538 0.21539243 0.661692 0.80480564 0.19788004 -0.32716486 -0.03321514
0.16365908 -0.51641726 0.06364227 0.29239076 0.14809453 0.39535993 0.5853237 0.55873644
0.9213415 0.050909847 -0.9510496 -0.08721143 0.56631017 0.8856927 -0.035500985 -0.33277515
2.4738395 -0.3644392 -0.5854285 0.6123017 0.808246 -0.008780781 -0.21783641 0.1336652
-0.37902552 -0.91572505 -0.3581194 0.07547097 -0.5311771 0.44690713 0.6309327 -0.13167158
-0.24238865 -1.0213643 -0.060667697 1.6551555 -0.44680446 -1.0548327 0.25268435 1.0156657
-1.566483 0.27500185 0.37377965 0.3008344 0.61280435 0.20626454 0.58138925 -0.46404174
0.13666107 -0.033710293 0.021074759 -0.5491466 1.0844357 1.1845479 -0.08762967 -0.22930713
1.4381429 -0.30514643 0.5088532 0.90431225 1.9041134 -0.08440025 2.2472515 0.11227253
-0.33280832 -0.47502375 -1.1467541 0.48897612 1.598129 1.0797098 0.43399444 0.43243495
0.24268533 -0.21459152 0.5557584 0.23922317 1.0125064 -0.035600334 0.85690856 1.137137

action_model._discrete_distribution.branches.1.bias f4 [3]
00000000: 7e8d 32be 48c0 9c3d ce8e 303f
-0.17436787 0.07653862 0.689679

exp_avg f4 [128, 13]
00000000: 64f4 1639 ca0a d237 f350 2d38 45df 2eb8
00000010: 0000 0000 de6b 03b8 a187 98b8 e57c 29b9
00000020: b0dd 0539 f3bd 0e38 e711 bfb7 129a d6b8
00000030: e703 b9b8 dfbb bd38 9492 1cb9 6497 2eb9
00000040: c2e9 7838 0000 0000 50c7 c338 b404 9038
00000050: 22c5 f7b8 602c e9b7 1dad fa38 431c 17b9
00000060: dd21 4d38 08d1 fab7 7a1f 24b9 232c f4b8
00000070: 9557 f9b8 5d91 62b8 0000 0000 9cbe 1239
00000080: 9e16 48b8 c14f 4cb9 a9cc f4b7 9d94 6d39
00000090: 2b77 aab9 369d a939 d207 7cb9 0345 1ab9
000000a0: ea00 4eb8 f39e 02b9 86d6 ffb9 0000 0000
000000b0: 6352 aa39 fdae 9e39 ae2d 1dba e843 1aba
000000c0: 4174 8fb9 96c3 eab9 8e92 8e39 4bc2 07ba
000000d0: 265f e238 789e 4e39 5e2b 5739 1326 34b8
000000e0: 0000 0000 f236 e1b8 4417 1638 fc79 9239
000000f0: 2436 d9b8 0891 8bb9 db10 8039 8f22 54b9
00000100: d62a 4139 d6da c7b8 5069 9db4 328c 2eb5
00000110: 7a94 84b8 0000 0000 7d63 7437 75f6 deb7
00000120: 43da da38 10d6 81b8 eaab b838 5a57 19b7
00000130: 2167 7738 271d 11b9 e9d0 0939 e4f0 fb37
00000140: cc4f 9938 1fe8 8c39 0000 0000 ab62 78b9
00000150: 9ead 2cb9 1f34 9639 daf0 b739 ed56 2639
00000160: b786 8f39 932f 17b9 a60b b839 0943 1ab9
00000170: 27b9 62b7 6042 5cb8 aa2e 3db9 0000 0000
00000180: 891c 2839 2b52 1739 c872 cab9 c4c1 6eb9
00000190: 3bb3 1436 8677 5fb9 a717 b038 1b06 c7b9
000001a0: f372 f838 8f9b 0a39 81d0 2439 4e3c fe37
000001b0: 0000 0000 c85d 88b9 465a 22b9 06ba 04b8
000001c0: 049d f739 6af1 c936 01b6 7438 eb95 03b9
000001d0: b1aa 1e39 c25d 7bb9 d914 9f39 f125 b639
000001e0: b9a3 00b7 0000 0000 a70e 71b9 5db0 59b9
000001f0: f160 6a39 40fc 8a39 1c56 86b7 db8c e639
00000200: 53ac bfb8 30ae 3b39 5935 0abb d221 3c3a
00000210: 9f7d b339 2ef9 95bb 0000 0000 da73 093b
00000220: d64d 123b d082 33bb 34ad 75bb ab70 6dbb
00000230: 9e7f f6ba 5d40 8f3a 662f 3fbb 5667 2838
00000240: 33b3 8a38 eea3 9c38 4797 5bb8 0000 0000
00000250: eafa d8b6 7161 c0b7 2ea8 aeb7 2458 fc37
00000260: 48fb bfb8 aac5 b738 8239 85b8 3418 6438
00000270: f2fc 0bb8 8044 0339 9977 2539 2e4f 7136
00000280: 0000 0000 6d76 8ab9 e015 efb8 6816 7ab6
00000290: 0e68 bb39 0d31 0438 d1e8 2e39 8d06 02b9
000002a0: bd9f b238 16ac 26b9 b8f8 0bb7 144e 3db8
000002b0: e496 aab9 0000 0000 3990 4a39 11b1 2d39
000002c0: 20cb b2b9 1c99 a4b9 e615 1cb9 9f49 55b9
000002d0: c3e7 0b39 5a86 b5b9 a9a4 b2ba 4ca7 0338
000002e0: 9c23 74b9 7a31 27bb 0000 0000 b6d4 b93a
000002f0: a510 a73a 48c7 33bb 3a24 15bb a61a a8ba
00000300: ac64 c5ba d8a9 863a dd75 33bb e96e 9438
00000310: efdd 8736 5217 0f37 2364 0239 0000 0000
00000320: babb cbb8 fd6b b036 673f 9938 f107 df38
00000330: ffd4 0e39 b1ac 5a38 fad3 8a36 d746 2937
00000340: 4f0a 6139 d4d8 a637 12a1 ae38 9bfb e639
00000350: 0000 0000 f5fb 9bb9 8d02 97b9 2041 f439
00000360: 584b ee39 0798 ab39 bcbd a339 c078 26b9
00000370: bcfc 023a 1a81 6939 7847 1fb9 6079 5ab9
00000380: 67b4 01b9 0000 0000 24e0 4939 c467 8739
00000390: 503c a2b9 5800 9db9 617d 02b9 906d d4b9
000003a0: d095 f238 dd57 41b9 d0ca 083b 22f9 42bb
000003b0: 07a3 56bb a293 fd3a 0000 0000 c37c ef3a
000003c0: 1863 44b9 df29 09bb 8a40 b3ba 35d4 623b
000003d0: 5e48 8bbb 2323 333b 0619 c3ba 05ca 6239
000003e0: 73d9 42b9 39e4 2db9 6d43 4e3a 0000 0000
000003f0: fd12 f3b8 3835 08b9 3481 8239 1e60 8b39
0.00014396157 2.5038975e-05 4.1321804e-05 -4.169277e-05 0.0 -3.1333293e-05 -7.273188e-05 -0.00016163623
0.00012766453 3.4032342e-05 -2.277731e-05 -0.00010233013 -8.822214e-05 9.047216e-05 -0.00014931924 -0.0001665033
5.934551e-05 0.0 9.3354494e-05 6.867331e-05 -0.00011814597 -2.7796428e-05 0.00011953174 -0.0001441101
4.8907346e-05 -2.989966e-05 -0.00015651985 -0.00011643048 -0.00011889559 -5.401798e-05 0.0 0.00013994653
-4.770478e-05 -0.00019484667 -2.9182369e-05 0.00022657444 -0.00032513714 0.00032351323 -0.00024035506 -0.00014712293
-4.911508e-05 -0.0001245698 -0.00048797223 0.0 0.0003248631 0.00030266485 -0.00059958815 -0.00058847526
-0.000273617 -0.0004477768 0.00027193542 -0.0005178793 0.000107942426 0.00019704725 0.00020520153 -4.2950804e-05
0.0 -0.000107390704 3.5784455e-05 0.00027938175 -0.00010357451 -0.00026620203 0.0002442662 -0.0002023077
0.00018421872 -9.529821e-05 -2.9320154e-07 -6.502406e-07 -6.3219064e-05 0.0 1.4566697e-05 -2.6579228e-05
0.000104357045 -6.1910716e-05 8.805825e-05 -9.139849e-06 5.8985435e-05 -0.00013839138 0.00013143163 3.0033705e-05
7.310472e-05 0.00026875825 0.0 -0.0002368788 -0.00016467876 0.00028649063 0.00035083928 0.00015863376
0.00027375456 -0.00014418205 0.00035103894 -0.00014711557 -1.3513759e-05 -5.2513904e-05 -0.00018041828 0.0
0.00016032359 0.00014431092 -0.0003861396 -0.00022769632 2.2158044e-06 -0.00021311463 8.3967396e-05 -0.00037960787
0.000118469725 0.00013218656 0.00015717933 3.0307241e-05 0.0 -0.00026009814 -0.00015483153 -3.16445e-05
0.00047228497 6.018371e-06 5.8343638e-05 -0.00012548982 0.00015131642 -0.00023972153 0.00030342376 0.00034742014
-7.667514e-06 0.0 -0.0002298901 -0.00020760433 0.00022352092 0.00026509352 -1.6014143e-05 0.00043973964
-9.1396876e-05 0.000178986 -0.0021088927 0.00071766705 0.00034235136 -0.0045768237 0.0 0.0020973594
0.0022324226 -0.0027391203 -0.003748727 -0.0036230485 -0.0018806343 0.0010929216 -0.0029172539 4.015056e-05
6.613731e-05 7.469194e-05 -5.2354557e-05 0.0 -6.466512e-06 -2.2933558e-05 -2.0820731e-05 3.0081785e-05
-9.1543945e-05 8.762938e-05 -6.352646e-05 5.4381977e-05 -3.3375756e-05 0.00012518652 0.0001578018 3.5957887e-06
0.0 -0.00026409645 -0.000114004826 -3.7265945e-06 0.00035744946 3.1516935e-05 0.00016680664 -0.00012400206
8.517455e-05 -0.000158951 -8.342955e-06 -4.5133827e-05 -0.0003253735 0.0 0.00019317948 0.00016564528
-0.00034102146 -0.00031394593 -0.00014885477 -0.00020340689 0.00013342411 -0.0003462311 -0.0013629395 3.138864e-05
-0.00023282919 -0.0025511668 0.0 0.0014177773 0.0012746049 -0.0027432013 -0.0022757188 -0.0012825325
-0.001505991 0.0010274006 -0.0027383484 7.0778486e-05 4.04915e-06 8.528894e-06 0.0001243507 0.0
-9.714761e-05 5.2577802e-06 7.307418e-05 0.00010634948 0.00013621523 5.213608e-05 4.137398e-06 1.0089679e-05
0.00021461512 1.988971e-05 8.326968e-05 0.0004405648 0.0 -0.00029751626 -0.00028802865 0.0004658783
0.00045451033 0.0003272893 0.00031231146 -0.00015875977 0.0004996767 0.00022268706 -0.00015190046 -0.00020835316
-0.00012369604 0.0 0.00019252353 0.00025826518 -0.00030943984 -0.0002994563 -0.00012444473 -0.0004051742
0.00011567364 -0.00018438646 0.0020872839 -0.0029750546 -0.003275098 0.0019346366 0.0 0.0018271435
-0.00018728932 -0.0020929498 -0.001367585 0.0034611349 -0.00425057 0.0027334176 -0.0014884777 0.00021628298
-0.00018582288 -0.00016583585 0.00078683236 0.0 -0.0001159068 -0.00012989796 0.00024891796 0.0002658376
