results/maxAgent1/My Behavior/My Behavior-2499951.onnx (onnx, 81381 bytes, 14 tensors)

77 f4 [13]
0	0x4380f223	257.8917
1	0x436a424e	234.259
2	0x438ae3a9	277.7786
3	0x441e0f76	632.2416
4	0x3a25cbc8	0.0006324616
5	0x440b2ab8	556.6675
6	0x439e8875	317.06607
7	0x440719ab	540.40106
8	0x44233432	652.81555
9	0x43117ef2	145.49588
10	0x43094353	137.26299
11	0x43a591e7	331.13986
12	0x439dafcc	315.3734

action_model._continuous_distribution.log_sigma f4 [1, 2]
0	0xbf97e6f2	-1.1867354
1	0xbfa02c7e	-1.2513578

action_model._continuous_distribution.mu.bias f4 [2]
0	0xbf18af97	-0.5964293
1	0xbdc972fe	-0.09836386

action_model._continuous_distribution.mu.weight f4 [2, 128]
0	0xbd86446e	-0.06556021
1	0xbe8d5bcf	-0.27609107
2	0xbe2fee84	-0.1718083
3	0xbdc3f7ed	-0.095687725
4	0x3ee13c5c	0.43991363
5	0xbe90f3a8	-0.28310895
6	0x3dc181c3	0.09448578
7	0x3cbac5f0	0.022799462
8	0x3f3bc386	0.7334522
9	0x3df16190	0.11786187
10	0x3df12dac	0.11776289
11	0x3f00aea0	0.50266457
12	0xbef1f625	-0.47258106
13	0xbefe8684	-0.49712002
14	0xbe05ad07	-0.13054286
15	0xbd42cb1d	-0.047556985
16	0xbde2f3ad	-0.11081634
17	0x3d785bf1	0.060634557
18	0x3f643edb	0.8915841
19	0xbe12b1ef	-0.14325689
20	0xbf20e36f	-0.62847036
21	0x3cb6bc60	0.022306621
22	0x3e8e4fcf	0.27795264
23	0xbda6da45	-0.081471
24	0xbe2ed69b	-0.17074053
25	0x3f2e9e6d	0.6821049
26	0x3f165a6b	0.58731717
27	0x3d0c2756	0.0342172
28	0x3ddc6f04	0.10763362
29	0xbf38b09b	-0.7214448
30	0x3f134a71	0.57535464
31	0x3e774812	0.24148586
32	0x3e89eedb	0.26940045
33	0x3f649932	0.8929626
34	0xbe065b54	-0.13120776
35	0xbe740950	-0.23831677
36	0xbe0e94ba	-0.13923922
37	0x3ef9ca81	0.4878731
38	0xbe9368d4	-0.28790915
39	0x3f1bf97f	0.60927576
40	0x3ed1f006	0.41003436
41	0xbeb094e4	-0.34488595
42	0x3ec6e14c	0.38843763
43	0x3ea12f1c	0.31481254
44	0xbdbffb2d	-0.0937408
45	0x3d8b420c	0.06799707
46	0x3e4cbbd1	0.19993521
47	0x3de8a750	0.11360037
48	0xbf1004d8	-0.5625739
49	0x3f3423e9	0.70367295
50	0x3f286446	0.65778005
51	0x3f3c9102	0.73658764
52	0xbbf9d4c0	-0.0076242387
53	0xbe54732c	-0.2074706
54	0xbe6abc01	-0.2292328
55	0xbde947e1	-0.11390663
56	0x3cd03d5f	0.025419889
57	0x3e1d367a	0.15352812
58	0x3d398839	0.045295928
59	0x3f226cef	0.6344747
60	0xbdcbe33a	-0.099554494
61	0xbeef317b	-0.46717438
62	0xbe035b65	-0.12827833
63	0xbaa39e49	-0.0012483086
64	0xbd523478	-0.05131957
65	0x3e38a44b	0.18031423
66	0xbe9777ff	-0.29583737
67	0x3e6ec76e	0.23318264
68	0xbe159887	-0.14608966
69	0x3ee2b841	0.442812
70	0x3e0be1f4	0.13660413
71	0xbe556fda	-0.20843449
72	0x3e2ad16e	0.16681454
73	0x3f36e6dc	0.71446013
74	0xbc5504cb	-0.013001631
75	0x3e4a2ed0	0.1974442
76	0xbe006f7b	-0.12542526
77	0x3e56f375	0.20991309
78	0x3ef172ea	0.47157985
79	0x3e8d20fd	0.2756423
80	0x3f314515	0.69246036
81	0x3f1eb016	0.61987436
82	0xbd0649e3	-0.032785308
83	0x3e5fb32a	0.2184569
84	0x3e08bf5a	0.13354245
85	0x3e0b6412	0.13612393
86	0xbeb9313a	-0.3617037
87	0xbd9dfc48	-0.077141345
88	0x3c54b0e8	0.012981631
89	0x3ddb222c	0.10699877
90	0x3e0f22eb	0.13978164
91	0x3e2cb61a	0.16866341
92	0xbe00a815	-0.12564118
93	0x3f0ac16a	0.54201376
94	0x3d736b86	0.059428714
95	0xbdaffe36	-0.08593409
96	0xbe7e3e83	-0.24828534
97	0x3e8028ef	0.2503123
98	0x3c574cdc	0.013140883
99	0x3e9fc2a2	0.3120318
100	0xbe328e45	-0.17437084
101	0x3f1e6812	0.6187755
102	0xbed66cb9	-0.41879824
103	0xbf29ffc7	-0.6640591
104	0xbe3ac906	-0.18240747
105	0xbe8162d0	-0.252707
106	0xbe68bb90	-0.227278
107	0x3e46fca9	0.1943232
108	0xbe277b8d	-0.16355725
109	0xbddf8dad	-0.109156944
110	0x3d9e3b47	0.0772615
111	0xbe2bf1e6	-0.16791496
112	0xbeb4df2c	-0.35326517
113	0x3f59fa2e	0.8514737
114	0x3e82273c	0.25420558
115	0xbd1639be	-0.03667616
116	0x3cbd7612	0.02312759
117	0xbdc80595	-0.0976669
118	0x3f09347e	0.5359572
119	0xbdbdc7c3	-0.09266617
120	0xbe0b90f0	-0.13629508
121	0xbde45914	-0.11149803
122	0x3f498fcf	0.7873506
123	0x3f52c035	0.82324535
124	0xbe59411b	-0.21216242
125	0x3ced1e82	0.028945211
126	0xbcc8dc67	-0.024519159
127	0xbbe8d583	-0.0071055307
128	0x3d323cfd	0.043515194
129	0xbe428885	-0.1899739
130	0xbdd5f219	-0.10446567
131	0x3de0d53a	0.1097817
132	0xbdd1f97e	-0.10252665
133	0xbe20e382	-0.15711787
134	0x3d20aec5	0.039229173
135	0xbeb4cf18	-0.3531425
136	0x3f1e8270	0.6191778
137	0xbf26f237	-0.6521334
138	0xbf359341	-0.70927817
139	0x3ef6dbe6	0.48214644
140	0xbb3c5066	-0.0028734445
141	0x3c765476	0.0150347855
142	0xbe04f3e3	-0.1298366
143	0x3c8482f7	0.01617573
144	0x3ea880e6	0.32910842
145	0x3e954784	0.29156125
146	0x3f735dab	0.950648
147	0x3e4d54f5	0.2005194
148	0xbef3ffcd	-0.47656098
149	0xbe54e65e	-0.20791003
150	0xbf320737	-0.6954226
151	0xbe49d47d	-0.19709964
152	0xbf4b5bec	-0.79437137
153	0x3f4ba494	0.79548
154	0x3eca8691	0.3955579
155	0x3f6f9679	0.9358898
156	0x3e0cf661	0.13765861
157	0xbd63a573	-0.055577707
158	0xbd050c7e	-0.032482617
159	0x3ec38955	0.38190714
160	0x3f71f1a9	0.9450937
161	0x3ed612d9	0.41811255
162	0xbe8170aa	-0.25281268
163	0x3f04daa7	0.51896137
164	0xbddc7349	-0.107641764
165	0x3e17c212	0.14820126
166	0x3d72c3db	0.059268814
167	0x3f0dbbd1	0.5536471
168	0x3e5b5530	0.21419215
169	0xbf1e96cb	-0.6194884
170	0x3ca8df40	0.020614266
171	0x3f472064	0.777838
172	0x3f0da7a3	0.5533392
173	0xbeaa53e9	-0.33267143
174	0xbdefa747	-0.117018275
175	0xbd85b2ef	-0.065282695
176	0xbe7b7143	-0.24554925
177	0xbf01c7da	-0.50695574
178	0x3f16cd95	0.58907443
179	0x3eec1fec	0.46118104
180	0xbe84dc73	-0.2594944
181	0xbf0fd39e	-0.5618228
182	0xbe3e8edf	-0.18609188
183	0xbf6ad983	-0.91738147
184	0xbf5b611d	-0.8569506
185	0x3d6e33a0	0.058154702
186	0xbee0ea67	-0.43928835
187	0x3f20ed4f	0.62862104
188	0xbe960019	-0.2929695
189	0x3d232ce9	0.03983775
190	0x3c3c4cb8	0.011492901
191	0xbd91831b	-0.071050845
192	0xbd864467	-0.065560155
193	0x3f4d0251	0.8008166
194	0x3eccc21c	0.39991844
195	0xbea90e1a	-0.3301857
196	0xbd2b3c8c	-0.04180579
197	0x3f70fcb5	0.941356
198	0x3b66ba09	0.00352061
199	0x3f518444	0.81842446
200	0xbe19d537	-0.15022741
201	0xbef8ffc6	-0.4863264
202	0xbed013b4	-0.40640032
203	0x3e0edcd9	0.13951434
204	0x3ea16343	0.31521043
205	0x3f1bb5dd	0.60824376
206	0x3f4bb105	0.79566985
207	0x3f2669a9	0.65004975
208	0x3f72df30	0.9487181
209	0x3f78063e	0.96884525
210	0xbe5b5b5e	-0.21421573
211	0x3d8561cf	0.06512796
212	0xbe1db406	-0.15400705
213	0xbd5ecccc	-0.05439453
214	0xbe89be2b	-0.269029
215	0x3daec372	0.08533372
216	0x3e4fea14	0.20304137
217	0x3e6a5051	0.22882201
218	0xbee84493	-0.45364818
219	0xbd56890d	-0.052376796
220	0x3ed128c0	0.40851402
221	0xbe3df472	-0.1855028
222	0x3e64dd92	0.22350147
223	0x3f3a3e23	0.72751063
224	0xbd669257	-0.056291904
225	0x3eddc4de	0.4331426
226	0x3ebf5b0c	0.3737415
227	0x3f2cfea5	0.67576057
228	0x3e86ce7a	0.26329404
229	0x3f5007a7	0.81261677
230	0x3e43c1b2	0.19116858
231	0x3dff6c9c	0.124718875
232	0x3f40fbec	0.753844
233	0x3e6ae76d	0.22939844
234	0x3db782c6	0.0896049
235	0xbdfbf9fb	-0.12303539
236	0xbedc50ca	-0.43030387
237	0xbdbcee8c	-0.09225187
238	0x3e488255	0.19580968
239	0x3f012e40	0.50461197
240	0xbde8bf55	-0.11364619
241	0x3f51741d	0.818178
242	0x3ea2a0c8	0.3176329
243	0x3d2d6d23	0.04234041
244	0x3d2b7750	0.041861832
245	0xbdc291a7	-0.09500437
246	0x3f0a1ac7	0.5394711
247	0xbe765f95	-0.24059899
248	0x3d8471d9	0.06467027
249	0xbdcbc1c5	-0.09949068
250	0x3e90887c	0.2822913
251	0x3ee29721	0.44255927
252	0x3f55bb1e	0.83488643
253	0xbdf1f3e8	-0.118140996
254	0xbbe4e3b0	-0.0069851503
255	0xbe2d2ec9	-0.16912378

action_model._discrete_distribution.branches.0.bias f4 [3]
0	0xbfae4eb6	-1.3617771
1	0xbeb5e2b5	-0.35524526
2	0x3fd26cf4	1.64395

action_model._discrete_distribution.branches.0.weight f4 [3, 128]
0	0x3f5c0d80	0.859581
1	0x3ef1043f	0.47073552
2	0x3f901cd0	1.1258793
3	0x3de8fdac	0.11376509
4	0xbf901679	-1.1256858
5	0xbefa366e	-0.48869652
6	0x3f699ef7	0.91258186
7	0xbc3f43b9	-0.011673861
8	0xbe75d189	-0.24005713
9	0x3db9f5c2	0.09080078
10	0x3f4a5bfd	0.7904661
11	0x3f056a94	0.5211575
12	0xbc8b743a	-0.017023195
13	0xbf1ed5ac	-0.6204479
14	0xbe7a3fdf	-0.24438427
15	0x3f95e104	1.1709294
16	0x3f193130	0.5984068
17	0x3f1c315d	0.6101282
18	0xbd0e1566	-0.034688376
19	0x3fad6534	1.354651
20	0x406760ea	3.6152902
21	0xbe039de6	-0.12853202
22	0x3ae28872	0.0017283096
23	0x3c4dd3d5	0.012562712
24	0x3f7eb7fd	0.99499494
25	0xbf97bcb8	-1.1854467
26	0xbe16d634	-0.1473015
27	0x3f8f8c6a	1.1214726
28	0x3f646f5a	0.8923241
29	0xbece7895	-0.40326372
30	0xbfc042e4	-1.5020413
31	0x3ea198b1	0.31561807
32	0xbf0656e2	-0.5247632
33	0xbed72384	-0.42019284
34	0x3f0ad551	0.54231745
35	0xbea0ae0b	-0.31382784
36	0x3e5ea898	0.21744001
37	0xbfc41935	-1.5320193
38	0x3ecb6b88	0.39730477
39	0x3e8673d7	0.26260254
40	0xbec0dc33	-0.37668
41	0x3f0d0730	0.5508909
42	0x3ee30bc9	0.4434493
43	0xbf1f84dc	-0.623121
44	0x3e7261d3	0.2367013
45	0x3ee8feaf	0.45506808
46	0xbf51b8c9	-0.81922585
47	0xbf3a4c0d	-0.72772294
48	0x3e07d6e4	0.13265568
49	0x3ee811dc	0.45326126
50	0xbe5a088a	-0.2129232
51	0x3dac47df	0.08412146
52	0x3f57b77c	0.8426435
53	0x3ef3144b	0.4747642
54	0x3f98589d	1.1902043
55	0x3f400d85	0.7502063
56	0xbe51d80c	-0.20492572
57	0x3ee2e809	0.44317654
58	0xbf54e082	-0.8315507
59	0xbf586dc7	-0.84542507
60	0x3f42542c	0.75909686
61	0x3e83f3a5	0.25771824
62	0x3ed8e895	0.42364946
63	0xbe1d4221	-0.15357257
64	0xbf61fb3f	-0.88273996
65	0xbf29276d	-0.66075784
66	0xbf36e1a0	-0.71438026
67	0x3f270cfe	0.652542
68	0x3f069298	0.52567434
69	0xbf087bcc	-0.533139
70	0x3e504054	0.20337039
71	0xbec4b1bf	-0.3841686
72	0x3ae02444	0.0017100652
73	0xc037a3c0	-2.8693695
74	0x3f87d064	1.0610471
75	0x3f72921b	0.9475419
76	0x3f38bf9e	0.72167385
77	0xbf56b443	-0.8386881
78	0x3e97032a	0.294946
79	0xbf1d7e25	-0.61520606
80	0xbf725e74	-0.94675374
81	0x3e5bd47f	0.2146778
82	0xbec973c5	-0.39346138
83	0xbe35748a	-0.17720237
84	0xbebdfb00	-0.3710556
85	0xbf79392a	-0.9735285
86	0x3e99a39d	0.3000764
87	0xbf5375f8	-0.8260188
88	0xbf1187e2	-0.56847966
89	0x3f82f3e7	1.0230683
90	0xbf07227e	-0.52787006
91	0x3dc42067	0.09576493
92	0x3ef9324d	0.4867119
93	0xbec9e370	-0.39431334
94	0x3fbfabb5	1.4974276
95	0xbe841695	-0.2579848
96	0x3ea1e14d	0.31617203
97	0xbf24b4f6	-0.64338624
98	0x3f50b1e9	0.8152147
99	0xbe455257	-0.19269691
100	0x3eddc9a2	0.43317896
101	0xbec9fbfa	-0.39450055
102	0x3ecedceb	0.40402922
103	0x3f19de21	0.60104567
104	0xbd830199	-0.06396789
105	0x3f5fe36e	0.87456405
106	0x3eb65688	0.35612893
107	0xc01cc09d	-2.4492562
108	0x3e291d22	0.1651502
109	0x3f0459ce	0.5169953
110	0xbef15935	-0.47138372
111	0xbefb7e19	-0.49119642
112	0x3ed9463e	0.42436403
113	0xbf30dbdf	-0.69085497
114	0xbe8914dd	-0.2677373
115	0x3f51097c	0.81655097
116	0x3f03210e	0.5122231
117	0x3fb2f11b	1.397983
118	0x3e73d3a5	0.23811205
119	0xbf28eee6	-0.6598953
120	0xbe0a4056	-0.13501105
121	0x3f0bf429	0.54669434
122	0xbf668558	-0.90047216
123	0xbebcbdd9	-0.36863592
124	0xbe3cb384	-0.18427855
125	0x3eafaa2f	0.34309527
126	0x3f1ea9dd	0.6197794
127	0xbe65b950	-0.22433972
128	0xbf047614	-0.5174267
129	0xbf1a0480	-0.60163116
130	0x3fa3253d	1.2745739
131	0xbed3d24a	-0.41371375
132	0x3e651c75	0.22374137
133	0x3e753faa	0.23950067
134	0x3ec41ea3	0.38304624
135	0x3e7f6e03	0.2494431
136	0x3dfdcbb6	0.123923704
137	0xbf306e9f	-0.68918794
138	0xbf19d8e3	-0.6009657
139	0xbed27687	-0.41106054
140	0xbf6bec77	-0.9215769
141	0x3f079231	0.52957445
142	0x3bd47eef	0.006484858
143	0xbebcd42c	-0.36880624
144	0xbe426d68	-0.18987048
145	0xbfb8dc6a	-1.4442265
146	0x3daec73d	0.085340954
147	0xbf5f778d	-0.87291795
148	0x401277e9	2.2885687
149	0xbf3f327b	-0.746864
150	0xbf323e0e	-0.6962594
151	0xbf2c2c4f	-0.6725511
152	0x3f154a62	0.58316624
153	0x3f81e008	1.0146494
154	0xbe12e365	-0.14344557
155	0x3d0011f3	0.031267118
156	0xbf444958	-0.76674414
157	0xbf1501ca	-0.58205855
158	0xbe9dd7ef	-0.30828807
159	0xbeb1c71e	-0.34722227
160	0x3f39e149	0.7260938
161	0x3e075fa3	0.13220076
162	0xbf20c2a7	-0.62797016
163	0xbee7f47a	-0.45303708
164	0xbf3e01e1	-0.74221617
165	0xbfa93d26	-1.3221786
166	0xbf8d7030	-1.1049862
167	0x3e3f82dd	0.18702264
168	0x3eb7f1dd	0.35926715
169	0xbf7eda0d	-0.9955147
170	0xbf4daccc	-0.8034179
171	0x3e72f1b8	0.23725021
172	0x3f42187d	0.75818616
173	0xbe3b9729	-0.18319382
174	0xbf9ac873	-1.2092422
175	0xbe53a792	-0.20669392
176	0xbec8feb6	-0.3925683
177	0xbf3eab9d	-0.7448061
178	0x3f18a1a4	0.59621644
179	0xbe01a644	-0.12661082
180	0xbe248b55	-0.16068776
181	0xbf8ca8be	-1.0988996
182	0xbc87ebcd	-0.01659193
183	0xbf33d32d	-0.70244104
184	0xbec0b889	-0.3764079
185	0xbf6fc4ff	-0.9365997
186	0x3f8a13f7	1.0787343
187	0x3fc18285	1.5117956
188	0xbf25b8e1	-0.6473523
189	0xbf0f934b	-0.56084126
190	0xbf6556b2	-0.8958541
191	0xbf855675	-1.041701
192	0xbe471e37	-0.1944512
193	0x3f697aa1	0.9120274
194	0x3dcd26dd	0.10017178
195	0xbca7f17d	-0.020500893
196	0xbe882ba4	-0.26595795
197	0x3f60599f	0.8763675
198	0x3f0517aa	0.51989233
199	0xbf1cb0d2	-0.61207306
200	0xbe25aca5	-0.1617914
201	0x3f7a5ae0	0.97794914
202	0xbfcfa8ed	-1.6223427
203	0x3e8ed3c3	0.27895936
204	0xbf58c974	-0.84682393
205	0x3f3f15be	0.7464255
206	0xbe2fe069	-0.1717545
207	0x3f4ef786	0.8084644
208	0x3e6514dc	0.22371238
209	0xbefb67d0	-0.4910264
210	0xbf7ce39c	-0.98784804
211	0x3ed6b85d	0.41937533
212	0x3f3198d6	0.69373834
213	0xbe560c53	-0.20903139
214	0xbf3a0ff3	-0.72680587
215	0xbf6e223c	-0.9302099
216	0xbef912e4	-0.48647225
217	0xbf54c868	-0.83118296
218	0xbf0cb217	-0.54959244
219	0xbf8072ef	-1.0035075
220	0x3f18541a	0.5950333
221	0xbea99179	-0.331188
222	0xbf09a513	-0.5376751
223	0xbedb55ec	-0.4283899
224	0xbe906d43	-0.2820836
225	0x3d77b636	0.060476504
226	0x3e64e76d	0.22353907
227	0xbf13fe38	-0.5780978
228	0xbeebdf28	-0.46068692
229	0xbe224380	-0.15846062
230	0xbf35bd8f	-0.7099237
231	0x3e323652	0.17403534
232	0x3f13c68b	0.5772483
233	0xbf535bd5	-0.82562
234	0x3eaf04ac	0.34183252
235	0x3f3bff61	0.7343655
236	0xbe9c32bf	-0.30507466
237	0xbedb5ee8	-0.42845845
238	0x400632e1	2.0968554
239	0xbf3476ef	-0.7049398
240	0x3f4536b2	0.77036583
241	0x3f8884e0	1.066555
242	0xbcaf32e3	-0.02138657
243	0x39e6e5ef	0.00044040332
244	0xbf1fc1c8	-0.6240506
245	0xbffdc486	-1.9825599
246	0x3e2a84cc	0.1665222
247	0xbf03e287	-0.5151753
248	0xbf58d050	-0.8469286
249	0x3f265b64	0.649832
250	0x3f046ed9	0.5173164
251	0x3e988a18	0.29792857
252	0xbe0622a5	-0.13099153
253	0x3f98de27	1.1942796
254	0xbe29a7a2	-0.16567853
255	0xbef29f72	-0.47387272

action_model._discrete_distribution.branches.1.bias f4 [3]
0	0xbdad09e0	-0.08449149
1	0x3c7df94a	0.01550133
2	0x3f1c28cf	0.6099977

action_model._discrete_distribution.branches.1.weight f4 [3, 128]
0	0x3f938393	1.1524528
1	0xbe22bc5d	-0.15892167
2	0x3f89571a	1.0729706
3	0xbdd7c399	-0.10535354
4	0x3f4577f4	0.7713616
5	0x3f83a21e	1.0283849
6	0x3f4bccf8	0.7960963
7	0x3fb590c5	1.4184805
8	0xbf8fc0be	-1.1230695
9	0x3bbd129d	0.005770041
10	0x3e8d1af3	0.27559623
11	0xbf291026	-0.66040266
12	0x3eb8f932	0.3612762
13	0x3f8d9f7f	1.1064299
14	0x3f8cbb59	1.0994674
15	0x3f8b18aa	1.0866902
16	0x3e0096ec	0.12557572
17	0xbfb2f72c	-1.3981681
18	0x3cc775e2	0.024348203
19	0x404f74e2	3.241509
20	0x3ff61389	1.9224712
21	0x3f834a6d	1.0257088
22	0xbf38382e	-0.71960723
23	0x3f728a2c	0.94742084
24	0x3fc389cd	1.5276428
25	0xbf327568	-0.697104
26	0xbda2332a	-0.07919915
27	0x3f711d2f	0.94185156
28	0x3f244690	0.6417017
29	0x3f81a1d3	1.012751
30	0x3e982cbd	0.29721633
31	0x3fd5589b	1.6667665
32	0xbf9e255d	-1.2355152
33	0xbf42ecee	-0.76142776
34	0xc00b37c7	-2.1752794
35	0x3e1a5b1a	0.15073815
36	0x3f2cefd8	0.6755347
37	0xc032ec2b	-2.7956645
38	0x3f171c05	0.5902713
39	0x3ed005ef	0.40629527
40	0x3f817f96	1.0117061
41	0x3e9be589	0.3044856
42	0x3e8d4c1f	0.27597138
43	0xbf829203	-1.0200809
44	0xbf87c6d0	-1.0607548
45	0x3f60c17d	0.8779524
46	0x3fa548bd	1.2912823
47	0x3f88ff34	1.0702882
48	0xbd820634	-0.063488394
49	0x3f89fe34	1.0780702
50	0xbf1e9784	-0.61949944
51	0xbf8070eb	-1.003446
52	0xbca8df77	-0.020614369
53	0x3f6c450d	0.92292863
54	0xbf4cd87b	-0.80017823
55	0x3ee03764	0.4379226
56	0xbf6c4083	-0.9228594
57	0xbf914e92	-1.1352103
58	0x3e9055a1	0.2819033
59	0xbf673562	-0.9031583
60	0x3f9a759e	1.2067144
61	0xbf5ab218	-0.85428
62	0x3f562c33	0.8366119
63	0x3e773fa5	0.24145372
64	0x3f519ae1	0.8187695
65	0xbed710b6	-0.42004937
66	0x3f24b239	0.64334446
67	0xbe5d6306	-0.21619806
68	0x3f6af0f7	0.91773933
69	0xbf8d4a49	-1.1038295
70	0xbf396111	-0.72413737
71	0x3f2afa28	0.6678796
72	0x3f0a19ad	0.5394543
73	0x3f15c84e	0.58508766
74	0x401fb895	2.495641
75	0x40242909	2.5650046
76	0x40040b4f	2.0631902
77	0x3efa346f	0.4886813
78	0xbf6b65a8	-0.9195199
79	0xbf3e43ba	-0.7432209
80	0xbf9ff47b	-1.2496485
81	0xbf074157	-0.52834076
82	0x3f448190	0.76760197
83	0xbe956fcc	-0.29186857
84	0x3ef9b430	0.48770285
85	0x3f12daf1	0.5736533
86	0x3e61a7b9	0.22036637
87	0xbf402778	-0.75060225
88	0x3f96d98a	1.1785138
89	0x3e832621	0.25615028
90	0xbedc6b16	-0.4305045
91	0x3edcf260	0.43153667
92	0xbe204176	-0.15649971
93	0x3ebdc593	0.370648
94	0x3fb2ac10	1.3958759
95	0xbf047b6e	-0.5175084
96	0x3e28d585	0.16487701
97	0x3f5fcaca	0.87418807
98	0x3f492a11	0.78579813
99	0xbd9e6243	-0.07733586
100	0xbffddc3c	-1.9832835
101	0xbf780d62	-0.9689542
102	0x3e2824e7	0.16420327
103	0x400a5e66	2.1620116
104	0xbe6ab62c	-0.22921056
105	0x3f57a218	0.8423171
106	0x3fe07f7b	1.7538904
107	0xc042f7c9	-3.0463736
108	0x3fb0a30e	1.379976
109	0x4025fad8	2.5934353
110	0xbe33fe85	-0.1757756
111	0xbf211949	-0.6292921
112	0x402f2b03	2.7370002
113	0xbe4731ce	-0.19452593
114	0x3e7fdf7c	0.24987596
115	0xc03734a6	-2.8625884
116	0x408fd237	4.494411
117	0x3fa42b59	1.2825729
118	0x3eb373df	0.3504934
119	0xbe92836e	-0.28615898
120	0xbf8058a2	-1.0027049
121	0x3ee35a7e	0.44404978
122	0xbe4dc90f	-0.20096229
123	0xbecce358	-0.400172
124	0x3f49039f	0.7852115
125	0xbf9328c2	-1.1496813
126	0xbeeb605b	-0.4597195
127	0xc0313cd0	-2.7693367
128	0xbf1619ec	-0.58633304
129	0xbc173b1b	-0.0092304
130	0xbe9641fb	-0.29347214
131	0xbda12833	-0.078689955
132	0x3f070bb4	0.5275223
133	0xbf830f00	-1.0238953
134	0x3f0848b6	0.5323595
135	0xbe38b22c	-0.18036717
136	0xbea3f21d	-0.32020655
137	0x3e471ca4	0.1944452
138	0xbf758551	-0.9590655
139	0xbe915416	-0.28384465
140	0xbdcb4f11	-0.0992719
141	0x3f58b6f6	0.84654176
142	0xbfa0c29d	-1.2559391
143	0xbe901b23	-0.28145704
144	0xbdc09476	-0.09403317
145	0x3f84dcab	1.0379843
146	0xbd516299	-0.05111942
147	0x3cf13517	0.02944426
148	0xc04f920c	-3.243289
149	0xbf88475b	-1.0646776
150	0xbeb7157d	-0.35758582
151	0xbee5da73	-0.44893226
152	0x3f9ddaf5	1.2332445
153	0x3ee629aa	0.44953662
154	0x3fbcec34	1.4759583
155	0xbef11350	-0.47085047
156	0xbde57556	-0.11204021
157	0xbe085019	-0.13311805
158	0xbe1c763b	-0.15279476
159	0xbf48b5d0	-0.78402424
160	0x3fa8143c	1.3131175
161	0xbe9a9a32	-0.30195767
162	0x3f380d2a	0.71895087
163	0xbefaeef6	-0.49010438
164	0xbf8686c0	-1.0509872
165	0x3e825dbc	0.2546214
166	0xbefa1ef9	-0.48851755
167	0xbee662f3	-0.44997367
168	0xbee69b78	-0.45040488
169	0x3f8ed9a0	1.1160164
170	0x3dd5e142	0.10443355
171	0x3f812dec	1.0092139
172	0x3f126393	0.5718319
173	0xbe2aa13b	-0.16663067
174	0x3e81ec97	0.25375816
175	0xbc415bd7	-0.0118016815
176	0x3eb4fb6c	0.3534807
177	0xbf2bf629	-0.67172486
178	0x3e9a37ff	0.30120847
179	0x3f45186e	0.769904
180	0xbda1d98b	-0.07902821
181	0x3e889fe4	0.26684487
182	0x3eb6d331	0.35708
183	0x3e56bc73	0.20970325
184	0x3f50af19	0.8151718
185	0xbdda0c9a	-0.10646935
186	0xbf951473	-1.1646866
187	0x3d496b0b	0.04917435
188	0xbddc6834	-0.10762063
189	0x3f812e8e	1.0092332
190	0xbe80a03b	-0.25122246
191	0xbeee3c89	-0.4653056
192	0x3fe1481b	1.760013
193	0x3e539cd3	0.20665292
194	0xbf23d248	-0.6399274
195	0x3eacc2ae	0.3374228
196	0x3edf04a7	0.43558237
197	0x3edd6bc9	0.43246296
198	0xbec3fce7	-0.38278887
199	0x3ee0abd4	0.43881094
200	0xbf0b3fef	-0.5439443
201	0xbf9be128	-1.2178087
202	0xbf26da15	-0.65176517
203	0xbe35ea71	-0.17765214
204	0xbd2bc242	-0.041933306
205	0x3f61f1f6	0.8825983
206	0x3f858a49	1.0432826
207	0x3e86d16f	0.2633166
208	0x3e155835	0.1458443
209	0xbd2528fd	-0.040322293
210	0xbeb29451	-0.3487878
211	0x3f732438	0.9497714
212	0xbefcf73b	-0.49407372
213	0xbf838bf4	-1.0277085
214	0x3e7e6ab9	0.24845399
215	0x3f2999af	0.6625013
216	0xbfcf027c	-1.6172633
217	0x3e2f34dd	0.1711001
218	0x3f11e010	0.5698252
219	0x3e3ee607	0.18642436
220	0x3f28b023	0.65893763
221	0x3ea489f9	0.32136515
222	0x3e7c9370	0.24665618
223	0x3e63a5a1	0.22231151
224	0xbe1e7ded	-0.15477724
225	0xbd88f62c	-0.066875786
226	0xbe73699c	-0.23770756
227	0xbb25571d	-0.0025228926
228	0x3f9cd9b3	1.2253937
229	0x3fc091e6	1.5044525
230	0xbf10bd25	-0.5653861
231	0xbee703d1	-0.451201
232	0x3fb0babf	1.380699
233	0xbf200eb4	-0.62522435
234	0x3d1275b2	0.035756774
235	0x3fb02f0f	1.3764361
236	0x3fabe85d	1.3430287
237	0xbe871ac7	-0.26387617
238	0x4002a6de	2.0414348
239	0xbd47ff75	-0.048827607
240	0xbf3ffd85	-0.74996215
241	0xbe9bbc94	-0.3041731
242	0xbf1969bd	-0.5992697
243	0x3eff3e9e	0.4985246
244	0x3fccfed8	1.6015272
245	0x3f484e83	0.782448
246	0x3e99f140	0.30066872
247	0x3e8ff811	0.28118947
248	0xbd6d2bc2	-0.05790306
249	0xbe57c978	-0.21072948
250	0x3f48f6c7	0.7850155
251	0xbd345b96	-0.044032656
252	0x3f377b53	0.7167255
253	0x3e04e0bf	0.12976359
254	0x3ef23eb2	0.47313458
255	0x3fa49d64	1.2860532

discrete_action_output_shape f4 [1, 2]
0	0x40400000	3.0
1	0x40400000	3.0

network_body._body_endoder.seq_layers.0.bias f4 [128]
0	0xc00551cf	-2.0831182
1	0xc0341511	-2.8137858
2	0xbfd5fceb	-1.671781
3	0xc00987d2	-2.1489148
4	0xc0024a3d	-2.0357811
5	0xc0078ff1	-2.1181605
6	0xc00915b1	-2.141949
7	0xc040cd4b	-3.01253
8	0xc0129189	-2.2901328
9	0xc008f3b5	-2.1398747
10	0xbfb025b3	-1.3761505
11	0xbfc55eca	-1.5419552
12	0xc022cd72	-2.5437894
13	0xc046f2dd	-3.1085732
14	0xc0427b51	-3.0387766
15	0xc010d9c2	-2.263291
16	0xc027d666	-2.6224608
17	0xc02880dd	-2.6328652
18	0x3f09b7da	0.5379616
19	0xbff4f1b7	-1.9136266
20	0xbfe6950b	-1.8014234
21	0xc00fbc03	-2.2458503
22	0xbff49715	-1.9108607
23	0xbf9cb28c	-1.2241988
24	0xbf8ea06b	-1.1142706
25	0xc00a5b0b	-2.1618068
26	0xc0306df8	-2.756712
27	0xbfdfcea5	-1.7484938
28	0xc000a106	-2.009828
29	0xc022372e	-2.534618
30	0xbe5d60cc	-0.21618956
31	0xc02a2f16	-2.659124
32	0xbff12227	-1.8838547
33	0xc0234031	-2.550793
34	0xc03963d6	-2.8967185
35	0xbfe5c17b	-1.794967
36	0xbfcfd43a	-1.6236641
37	0xbf45bd1c	-0.77241683
38	0xc0097083	-2.1474922
39	0xbff2c0d7	-1.89651
40	0x3cc481c6	0.023987662
41	0xc02feda3	-2.7488792
42	0xc01b798b	-2.4292934
43	0xc014de0b	-2.3260524
44	0xc0221e0f	-2.5330846
45	0xbfffaa19	-1.9973785
46	0xbff47ba4	-1.9100232
47	0xc00c888d	-2.1958344
48	0xbfc90b8a	-1.5706646
49	0xbfcdbccc	-1.6073241
50	0xc01165c3	-2.271836
51	0xc0318a01	-2.774048
52	0xc00f0ec7	-2.235277
53	0xc0418931	-3.0239985
54	0xbfb0cf54	-1.3813272
55	0xbfbb72ee	-1.4644449
56	0xc036d589	-2.8567832
57	0xc039d4b6	-2.9036078
58	0xbf9f46cb	-1.2443479
59	0xc039ff5f	-2.9062116
60	0xbf98ed25	-1.1947371
61	0xbff2f9f3	-1.8982528
62	0xc013d432	-2.3098264
63	0xbfd41614	-1.6569238
64	0xbf37a468	-0.7173524
65	0xc01b4f19	-2.4267027
66	0xc00b02c2	-2.1720433
67	0xc005f2d7	-2.0929468
68	0xbfe2de75	-1.7724138
69	0xbfd69ab9	-1.6765968
70	0xbf54fc97	-0.8319792
71	0xc00a02a2	-2.1564107
72	0xbffdd05f	-1.9829215
73	0xbfeb7071	-1.8393689
74	0xbfde671e	-1.7375219
75	0xc02533cb	-2.5812862
76	0xc00e0e50	-2.2196236
77	0xc01b3fcf	-2.4257696
78	0x3f04f6e6	0.5193924
79	0xc0192225	-2.392709
80	0xc00b0662	-2.1722646
81	0xc05eef4c	-3.4833555
82	0xc010f43c	-2.264907
83	0xc0135301	-2.3019412
84	0xbfcc2f59	-1.5951949
85	0xc024ddb2	-2.5760312
86	0xbf9f7e36	-1.2460392
87	0xc00e66a2	-2.2250142
88	0xbffcda12	-1.975405
89	0xbfed0123	-1.8515972
90	0xc0052961	-2.0806506
91	0xbfa9da0b	-1.3269666
92	0xc042561f	-3.0365064
93	0xbf3d23a8	-0.7388253
94	0xc002637e	-2.0373225
95	0xbfd0f3be	-1.6324384
96	0xc0154a33	-2.3326538
97	0xbff60db3	-1.9222931
98	0xbfefbd2a	-1.8729603
99	0xbfeb10eb	-1.8364538
100	0xc03c6b7c	-2.9440603
101	0xc024a0d1	-2.5723155
102	0xc01c9687	-2.4466875
103	0xc044511a	-3.06745
104	0xbff9aaaf	-1.9505213
105	0xc058abe1	-3.3854907
106	0xbffa1b07	-1.9539498
107	0xc00b4e5b	-2.1766574
108	0xbff86c21	-1.9407998
109	0xbfa5279b	-1.2902712
110	0xbfe02b4d	-1.7513214
111	0xc011a98c	-2.2759733
112	0xbfe4746a	-1.7848027
113	0xbfb618f0	-1.422636
114	0xbf818ad8	-1.0120497
115	0xbffd4351	-1.9786168
116	0xbffe4e55	-1.9867655
117	0xc010e3b7	-2.2638986
118	0xbff27245	-1.8941122
119	0xc009cb1f	-2.1530225
120	0xbfe92219	-1.8213531
121	0xc0093554	-2.14388
122	0xbfe438bb	-1.7829813
123	0xbd906992	-0.07051386
124	0xc04aa104	-3.1660776
125	0xc035cb98	-2.8405514
126	0xbf38453f	-0.7198066
127	0xbfb51f23	-1.4150127

network_body._body_endoder.seq_layers.0.weight f4 [128, 13]
0	0x3f7023fa	0.93804896
1	0x3f08f57f	0.534996
2	0xbf1aaa94	-0.6041653
3	0x3bb2bf13	0.0054549067
4	0xbeb5246e	-0.35379356
5	0xbdd376d8	-0.10325402
6	0xbf17a96c	-0.5924289
7	0xbf4cef84	-0.8005297
8	0xbf2ff2d1	-0.68729883
9	0xbeaec1f4	-0.3413235
10	0x3edb452c	0.4282621
11	0xbf3963c3	-0.7241785
12	0x3d432d78	0.047650784
13	0xbe397c15	-0.1811374
14	0xbed756cb	-0.42058405
15	0x3f37fbe1	0.7186871
16	0xbe2e93a4	-0.17048508
17	0x3def6d43	0.11690762
18	0x3f135b80	0.5756149
19	0x3f5ee237	0.87063926
20	0xbe8f5c02	-0.27999884
21	0xbdf79cbe	-0.12090443
22	0xbf6136fd	-0.8797453
23	0x3e85a29f	0.26100633
24	0xbed14c48	-0.4087851
25	0x3ea1954c	0.31559217
26	0x3edd2941	0.43195537
27	0xbea5db1b	-0.32393727
28	0xbe67097c	-0.22562212
29	0xbe97943e	-0.29605287
30	0x3e5d3638	0.21602714
31	0x3e593fce	0.21215746
32	0x3e831170	0.2559924
33	0x3e8a216d	0.26978627
34	0xbf532092	-0.82471573
35	0xbe3273f3	-0.17427044
36	0xbd876314	-0.066106945
37	0x3f134428	0.57525873
38	0x3dda8cb7	0.106713705
39	0x3e49a7c5	0.19692905
40	0xbeb99579	-0.3624685
41	0x3ee7ca67	0.45271608
42	0xbeb3929c	-0.35072792
43	0xbe00c705	-0.1257592
44	0x3cdcd590	0.026957303
45	0x3f215071	0.6301337
46	0x3ec4a5a2	0.38407618
47	0xbf45003c	-0.7695348
48	0x3efb1c64	0.49045098
49	0x3eb4e2bb	0.35329232
50	0xbe08bc94	-0.13353187
51	0x3f2a9b1e	0.6664294
52	0xbe9ba3e3	-0.30398473
53	0xbee8b5e3	-0.4545127
54	0x3eb54a46	0.3540823
55	0xbdfc82c0	-0.12329626
56	0x3ec023f3	0.37527427
57	0xbef65ef3	-0.48119316
58	0x3f0687fa	0.52551234
59	0x3dfe8b3e	0.12428902
60	0xbe0534da	-0.13008443
61	0x3f2a640d	0.66558915
62	0xbe477fc8	-0.19482338
63	0x3ee4fcf6	0.44724244
64	0x3f2158ff	0.6302642
65	0x3f76868c	0.9629905
66	0xbee00c68	-0.43759465
67	0x3eaf3e2e	0.34227127
68	0xbebccbca	-0.3687423
69	0x3d88d88c	0.06681928
70	0x3eeb946b	0.4601167
71	0xbea94b1d	-0.3306512
72	0xbcf0f59d	-0.029413993
73	0xbf05b456	-0.52228296
74	0x3df9bd13	0.12194266
75	0xbf5723a5	-0.84038764
76	0xbd937ac3	-0.07201149
77	0x3e2c9f0d	0.16857548
78	0x3f13e38a	0.5776907
79	0x3e0e76e8	0.13912547
80	0x3d3de18e	0.046357684
81	0xbef81409	-0.48452786
82	0xbe00108f	-0.12506317
83	0xbe554cd4	-0.20830089
84	0x3ee39002	0.44445807
85	0x3e7159a6	0.23569354
86	0xbf9be048	-1.217782
87	0x3e662fef	0.22479223
88	0x3df13d1e	0.11779235
89	0x3de01cf7	0.109430246
90	0x3f4e3b7f	0.80559534
91	0x3efda973	0.49543342
92	0xbe0e5e0d	-0.13903065
93	0x3d978931	0.07399214
94	0xbf10ebc1	-0.5660973
95	0xbe0b5d52	-0.13609818
96	0x3f2d4221	0.6767903
97	0xbf829148	-1.0200586
98	0x3fabd010	1.3422871
99	0x3dc492f6	0.09598343
100	0xbeef3058	-0.4671657
101	0xbf527a79	-0.8221813
102	0x3e7dbe58	0.24779642
103	0x3f054f31	0.5207396
104	0x3f34d97d	0.7064436
105	0xbef05a21	-0.46943763
106	0x3f2f7052	0.6853076
107	0xbe8f7e3f	-0.28026006
108	0x3d853100	0.06503487
109	0xbebfd419	-0.37466505
110	0x3f901cdc	1.1258807
111	0xbe310051	-0.17285277
112	0xbf3da396	-0.7407774
113	0x3f63e100	0.890152
114	0x3f10fb90	0.56633854
115	0xbf3cdc0d	-0.7377327
116	0x3ef7a381	0.4836693
117	0xbeb0f165	-0.3455917
118	0xbef6729e	-0.4813432
119	0x3f505736	0.81383073
120	0x3f4798a3	0.7796728
121	0x3e623249	0.22089495
122	0x3dcdec9a	0.10054894
123	0x3f66e2de	0.9018992
124	0xbef62547	-0.48075315
125	0xbf4ab8f4	-0.79188466
126	0xbe1f2d97	-0.15544735
127	0xbdfbd90f	-0.1229726
128	0x3ee00c06	0.43759173
129	0x3e4a8015	0.19775422
130	0xbf6566b9	-0.8960987
131	0xbfd035bd	-1.62664
132	0x3eea7f60	0.45800304
133	0x3f979080	1.1840973
134	0xbd5f19bf	-0.054467913
135	0xbeccd404	-0.40005505
136	0x3f8a619b	1.0811037
137	0x3da8cff8	0.08242792
138	0xbe799d44	-0.24376398
139	0x3ed3d427	0.41372797
140	0x3e0064ce	0.12538454
141	0xbfa05d1b	-1.2528414
142	0xbd5db996	-0.054132067
143	0x3f02099b	0.50795907
144	0x3ebc47dc	0.36773574
145	0xbe6e7ce5	-0.23289831
146	0xbee499a7	-0.44648477
147	0x3f2ffe8b	0.68747777
148	0x3d5869cf	0.052835282
149	0x3e5248df	0.2053561
150	0x3d3884bd	0.045048464
151	0xbf80c3e6	-1.0059783
152	0x3d8195ff	0.063274376
153	0x3eea7603	0.4579316
154	0x3ea2206c	0.3166536
155	0x3e2a7200	0.1664505
156	0x3e3c80e4	0.18408543
157	0xbeec929f	-0.46205613
158	0xbf017e87	-0.5058369
159	0x3dce819e	0.10083316
160	0xbd3c2e2e	-0.045942478
161	0x3e1e8866	0.1548172
162	0x3fb34177	1.4004353
163	0x3dc72260	0.097233534
164	0x3e8c0a7c	0.2735175
165	0x3f08c93a	0.5343205
166	0x3f05a2bd	0.52201444
167	0xbf9ab8a9	-1.2087604
168	0x3eb5c042	0.35498244
169	0x3ecb1e23	0.3967143
170	0x3e316b9d	0.17326207
171	0xbf08bcea	-0.5341326
172	0xbf009437	-0.5022616
173	0x3d9e5ee8	0.07732946
174	0x3e6f4546	0.2336627
175	0xbc29f09e	-0.010372309
176	0x3f677339	0.9041019
177	0xbee2348c	-0.44180715
178	0xbd985f3c	-0.074400395
179	0xbe256d20	-0.16154909
180	0xbda697fd	-0.08134458
181	0x3f16d928	0.58925104
182	0xbd4bfc0f	-0.04980093
183	0xbf51b0d4	-0.81910443
184	0xbeea63c8	-0.45779252
185	0x3eafc7ee	0.34332222
186	0xbec2f467	-0.3807709
187	0x3edc7d4d	0.43064347
188	0xbe06b2fe	-0.13154218
189	0x3ea48175	0.32130018
190	0xbe5143c3	-0.20436005
191	0x3f359784	0.7093432
192	0xbe4b5a86	-0.1985875
193	0x3c4a0430	0.0123301
194	0x3ef93a2f	0.48677203
195	0xbe319349	-0.17341341
196	0xbef9b806	-0.4877321
197	0xbe9e5a05	-0.30928054
198	0x3eea5d1a	0.45774156
199	0x3ea9865a	0.33110315
200	0x3f83d40f	1.029909
201	0x3ebb6f99	0.3660858
202	0xbe3d3df4	-0.18480664
203	0xbf296471	-0.66168886
204	0xbf4b2bea	-0.7936388
205	0x3ecf790c	0.4052204
206	0xbf0f2160	-0.559103
207	0x3e2b716a	0.16742483
208	0x3d8c641d	0.068550326
209	0xbf28d996	-0.6595701
210	0xbc0f1b9c	-0.00873461
211	0xbe8ef4ab	-0.27921042
212	0xbf66d5fe	-0.90170276
213	0xbe5f6b72	-0.21818331
214	0x3f6bf376	0.92168367
215	0x3f09a946	0.53773916
216	0xbefb5e54	-0.49095404
217	0xbd74680a	-0.059669532
218	0x3e45b4d3	0.1930726
219	0xbe031f11	-0.1280482
220	0x3f315b10	0.69279575
221	0x3bf63198	0.0075132363
222	0xbe00f4e2	-0.12593415
223	0x3f154150	0.58302784
224	0xbefec80c	-0.49762
225	0x3e36e2ea	0.17859998
226	0x3e6a2ee4	0.2286945
227	0x3fcabba0	1.5838509
228	0x3eb57ec0	0.35448265
229	0xbf5ad67d	-0.85483533
230	0x3e8cd7e7	0.2750847
231	0x3f431921	0.7621022
232	0xbf324c77	-0.69647926
233	0x3e423d23	0.18968634
234	0xbeaccaa7	-0.3374836
235	0x3f5873ad	0.8455151
236	0x4003e018	2.0605526
237	0xc026a9f0	-2.6041222
238	0xbbd80b54	-0.0065931473
239	0x3ee045e8	0.43803334
240	0xbd97b695	-0.07407872
241	0xbe9db8f1	-0.30805162
242	0xbe9c15c5	-0.3048536
243	0xbd6b5a4f	-0.05745917
244	0x3f757bdf	0.9589214
245	0x3fd709d8	1.6799879
246	0xbfd00744	-1.6252217
247	0x3e244746	0.16042814
248	0x3f13b868	0.57703257
249	0xbf02433d	-0.5088385
250	0xbf4fd2c1	-0.8118096
251	0xbea556fe	-0.32292932
252	0xb8d07afb	-9.94112e-05
253	0x3f1078a8	0.56434107
254	0x3f3a3d4d	0.7274979
255	0xbf56ed56	-0.83955896

network_body._body_endoder.seq_layers.2.bias f4 [128]
0	0xbfd8f667	-1.6950196
1	0xbfa1c33c	-1.2637706
2	0xbfb350df	-1.4009055
3	0xc01d6d61	-2.459801
4	0xbfdfbf3c	-1.7480235
5	0xbffd75c3	-1.9801563
6	0xbf4533e3	-0.770323
7	0xbfeb0d5e	-1.8363454
8	0xbedd919b	-0.4327515
9	0xbfab77c2	-1.3395922
10	0xbfc95567	-1.5729188
11	0xbeaa93ca	-0.3331588
12	0xbfaf80c5	-1.3711172
13	0xc04875b6	-3.1321845
14	0xbfd728a2	-1.6809275
15	0xc0029fea	-2.0410104
16	0xbfd98da4	-1.699635
17	0xbe74be79	-0.23900785
18	0xbeb6c129	-0.35694245
19	0xc01dd40f	-2.466068
20	0xbfc879af	-1.5662135
21	0xc06024f7	-3.5022562
22	0xbfbe152a	-1.4850209
23	0xbfde401e	-1.7363317
24	0xbfa86c5a	-1.3158066
25	0xbf43ae2e	-0.7643765
26	0xbfc231d1	-1.5171453
27	0xbf04fe6b	-0.5195071
28	0xbff8b9dc	-1.943172
29	0xbfa21de3	-1.2665371
30	0xbfa12e50	-1.2592258
31	0xbfc1db3c	-1.514503
32	0xbefdaf6d	-0.49547902
33	0xbf635e14	-0.88815427
34	0xbfa813bc	-1.3131022
35	0xbf7a31aa	-0.9773203
36	0xc0039687	-2.0560625
37	0xbfacac64	-1.349011
38	0xbf7e663e	-0.9937476
39	0xbf9476f8	-1.1598806
40	0xbfe4ad57	-1.7865399
41	0xc024f00d	-2.5771515
42	0xbf1d0644	-0.61337686
43	0xbf670dcf	-0.90255445
44	0xbeae3d71	-0.3403125
45	0xbfd7bf9b	-1.6855348
46	0xbfdc7e58	-1.7226057
47	0xbfdf4c91	-1.7445241
48	0xbf4fb38d	-0.8113335
49	0xbfa8906a	-1.3169072
50	0xbf9f6e66	-1.2455566
51	0xbed32118	-0.41236186
52	0xbfd37dc2	-1.6522753
53	0xbff4a185	-1.9111792
54	0xbfa19469	-1.2623416
55	0xbfd0199a	-1.6257813
56	0xc0117b67	-2.273157
57	0xbf81286a	-1.0090458
58	0xbf3ce7f2	-0.7379142
59	0xbf77abb9	-0.967464
60	0xc00d77a0	-2.2104263
61	0xbf468945	-0.77553207
62	0xbfb9ba03	-1.4509891
63	0xbf95f783	-1.171616
64	0xbe9a1228	-0.30091977
65	0xbea95502	-0.33072668
66	0xbf8be636	-1.092963
67	0xbfe522ad	-1.7901207
68	0xbfbb1205	-1.4614874
69	0xbf123174	-0.5710671
70	0xbfe662cf	-1.7998904
71	0xbfdc5e33	-1.7216247
72	0xc01b8a0b	-2.4303005
73	0xbf921c65	-1.1414915
74	0xbfe0d093	-1.7563652
75	0xbf9e6aec	-1.237638
76	0xbfe06782	-1.7531588
77	0xbfad8604	-1.3556523
78	0xbf21cb21	-0.63200575
79	0xc0245eac	-2.5682783
80	0xbedff110	-0.43738604
81	0xbe6ab929	-0.22922195
82	0xc020fd4d	-2.5154603
83	0xbf931b9f	-1.1492804
84	0xbfff5f0a	-1.9950879
85	0xbfe72213	-1.8057274
86	0xc03d67b0	-2.9594536
87	0xbfdf8d72	-1.7465041
88	0xbff8da59	-1.9441634
89	0xc015b710	-2.3392982
90	0xbfc22450	-1.5167332
91	0xbfba841e	-1.4571569
92	0xbf81225c	-1.0088611
93	0xbfe19c95	-1.762591
94	0xbfa0e745	-1.2570578
95	0xbf323854	-0.696172
96	0xbff362ca	-1.9014523
97	0xc000f07b	-2.0146778
98	0xbfcbd0b6	-1.5923069
99	0xbeec8856	-0.46197766
100	0xbf71d2f1	-0.94462496
101	0xbf0cb026	-0.5495628
102	0xbf9d3754	-1.228251
103	0xbfa30118	-1.2734709
104	0xbeddc3e6	-0.4331352
105	0xc01abc1b	-2.417731
106	0xbf325631	-0.6966277
107	0xbfa8b935	-1.3181521
108	0xbf939441	-1.1529619
109	0xbfeef027	-1.8667039
110	0xbf2fa8e5	-0.6861709
111	0xbf2e84b6	-0.6817125
112	0xbfaf54be	-1.3697736
113	0xbeae4910	-0.34040117
114	0xbf95c708	-1.1701365
115	0xbea7a917	-0.32746193
116	0xbfa4d433	-1.2877258
117	0xbfa2d6d4	-1.272181
118	0xbc307c4e	-0.010771824
119	0xbf99d5b2	-1.201834
120	0xbf96508f	-1.1743335
121	0xbfd53d41	-1.6659318
122	0xbe1b0394	-0.15138084
123	0xbf69f63c	-0.9139135
124	0xbf08c56c	-0.5342624
125	0xbf65f7c4	-0.89831185
126	0xbfa7783e	-1.308357
127	0xbf14380b	-0.57898015

network_body._body_endoder.seq_layers.2.weight f4 [128, 128]
0	0x3f22dc86	0.6361774
1	0xbf07869d	-0.5293978
2	0x3e363695	0.17794259
3	0x3f59feb9	0.851543
4	0x400bc8fc	2.184142
5	0x3f97855d	1.1837574
6	0xbd80cc37	-0.06288951
7	0x3f622264	0.88333726
8	0x3e37b40c	0.17939776
9	0x3f097ab7	0.53702873
10	0x3f12d0e9	0.5735002
11	0x3ea8ef14	0.32994902
12	0x3ebb5fd1	0.3659654
13	0x3f360f67	0.7111725
14	0x4017ab0b	2.3698146
15	0x3f0eeb6c	0.55827975
16	0x3efb976e	0.4913897
17	0x3f458269	0.77152115
18	0xbfc0cad9	-1.5061904
19	0x3e94a49c	0.29031837
20	0x3f43fdc4	0.7655909
21	0x3f41816e	0.7558812
22	0x3f774b53	0.9659931
23	0xbf640ec5	-0.89085037
24	0xbf30595a	-0.6888634
25	0x3f88f7c1	1.0700608
26	0x3e9ec3f2	0.3100887
27	0x3f38ac16	0.7213758
28	0x3f33f039	0.70288426
29	0x3e5d3768	0.21603167
30	0xbfb28908	-1.3948069
31	0x3f322bc4	0.6959803
32	0x3ea624b1	0.32449868
33	0x3f5dccce	0.8664063
34	0x3f2da635	0.67831737
35	0x3f856127	1.0420274
36	0xbc841b60	-0.016126335
37	0xbf811411	-1.0084249
38	0xbc1e4a27	-0.009661234
39	0xbecd19f0	-0.4005885
40	0xbf1e4979	-0.6183086
41	0x3ecccef3	0.4000164
42	0x4001a16f	2.0254781
43	0xbf3c3bbe	-0.7352866
44	0x3e93505a	0.2877224
45	0x3f0229fe	0.50845325
46	0x3ec7b499	0.39004973
47	0x3f01c94a	0.5069777
48	0xbf017786	-0.50573003
49	0x3fa2e53c	1.2726207
50	0x3f94ba74	1.1619401
51	0x3ecedd14	0.40403044
52	0x3ed576d7	0.4169223
53	0x3f6739d9	0.90322644
54	0xbd21f2c1	-0.03953815
55	0xbf2e5557	-0.6809897
56	0x3f6dd944	0.92909646
57	0x3afe9ace	0.0019424798
58	0xbdf1b05c	-0.11801216
59	0x3f6e7bd7	0.93157715
60	0xbf51829d	-0.81839925
61	0x3f4cba7d	0.7997206
62	0xbd633d53	-0.055478405
63	0xbec78660	-0.38969707
64	0xbf19b67c	-0.60044074
65	0x3f7e0e5e	0.9924067
66	0x3f1db107	0.6159825
67	0x3fbac62b	1.4591726
68	0x3ed48669	0.41508797
69	0x3f61d05b	0.8820855
70	0xbe888b27	-0.26668665
71	0x3e0cecce	0.13762209
72	0xbf163302	-0.5867158
73	0x3fe9b562	1.8258479
74	0x3e96351e	0.293374
75	0x3f1726df	0.5904369
76	0x3f3224b6	0.69587266
77	0x3e9e9123	0.30970106
78	0xbf93808e	-1.1523607
79	0x3ea3358f	0.318768
80	0x3dfb783e	0.12278794
81	0x3ec673ee	0.38760322
82	0x3d7f7665	0.06236877
83	0x3f69381a	0.9110123
84	0xbe93e4a8	-0.28885388
85	0x3f3cfa1f	0.73819155
86	0x3f17b7a4	0.5926459
87	0x3f1cb4c5	0.6121333
88	0x3f2e1e8e	0.6801537
89	0x3e5510d3	0.20807199
90	0xbf221b8e	-0.63323295
91	0x3f84b0b8	1.036643
92	0x3f90a96a	1.1301701
93	0xbf765432	-0.9622222
94	0x3f9354dc	1.1510272
95	0xbe9c88ba	-0.30573064
96	0x3f519ae0	0.81876945
97	0x3f4b6f1d	0.7946642
98	0x3f185078	0.59497786
99	0x3f98b84e	1.1931245
100	0x3eadd1bf	0.33949086
101	0x3e9dba96	0.30806416
102	0x3f57d946	0.8431591
103	0x3f39199f	0.7230472
104	0x3f1d12f2	0.61357033
105	0x3dfb4cd1	0.12270511
106	0xbd0369b1	-0.032083217
107	0x3e871022	0.26379496
108	0x3db2e375	0.0873479
109	0x3efde857	0.49591324
110	0x3e9cf75d	0.30657473
111	0xbcb2f0ad	-0.021843279
112	0x3ff452c4	1.9087758
113	0x3f284f42	0.6574594
114	0xbf580ea7	-0.8439736
115	0x3f2bc206	0.6709293
116	0x3e884094	0.2661177
117	0x3eba7b14	0.36422026
118	0x3fa18dcd	1.2621399
119	0x3f203c33	0.62591857
120	0xbee707af	-0.4512305
121	0xbe9e6c66	-0.30942076
122	0xbe8639d5	-0.26215997
123	0xbd8a7f50	-0.06762564
124	0x3f7000fa	0.9375149
125	0x3f56a710	0.8384867
126	0xbfd9c432	-1.7012999
127	0x3e145b93	0.14488058
128	0x3fc977eb	1.5739721
129	0x3e14484b	0.14480703
130	0x3d9fa48f	0.07795059
131	0x3f8ac6fc	1.0841975
132	0x400a4935	2.1607182
133	0x3f87e825	1.061772
134	0x3fb0db2a	1.3816884
135	0x3ddb2fdf	0.1070249
136	0x3f5fabae	0.8737134
137	0xbf48e797	-0.7847838
138	0xbe6131be	-0.21991631
139	0x3e17ff46	0.14843473
140	0x3efb66b1	0.49101785
141	0x3f660590	0.8985224
142	0x3ff890ba	1.9419167
143	0x3eb71947	0.35761473
144	0x3fa6ec05	1.3040777
145	0x3f92ab15	1.145846
146	0xbfb894a9	-1.4420367
147	0x3dd97366	0.10617714
148	0x3fd945a4	1.6974378
149	0x3f2bb998	0.6708007
150	0x3e9da832	0.30792385
151	0x3ec4c8b2	0.38434368
152	0xbdb14658	-0.08655995
153	0x3f0070ab	0.5017192
154	0x3e808939	0.25104693
155	0x3e4e737f	0.20161246
156	0x3fa31d84	1.2743382
157	0x3f776782	0.96642315
158	0xbf815a9a	-1.0105774
159	0x3f657f12	0.8964702
160	0x3dff6bde	0.12471746
161	0x3e96ece1	0.294776
162	0x3f66d560	0.90169334
163	0x3edec7a3	0.43511686
164	0x3f2f0aae	0.6837567
165	0xbf5e5afb	-0.86857575
166	0x3e3d8811	0.18508936
167	0x3e46b31f	0.19404267
168	0xbeadb1f4	-0.3392483
169	0x3ed8fb7a	0.4237936
170	0x3f907ace	1.1287477
171	0x3f186f04	0.59544396
172	0x3ef22366	0.47292632
173	0x3e9c05af	0.30473086
174	0x3f7df864	0.9920714
175	0x3f614ff5	0.8801263
176	0x3e981d65	0.29709926
177	0x3f819650	1.0123997
178	0x3f54dfd3	0.8315403
179	0x3ef42481	0.476841
180	0x3f126dfa	0.5719906
181	0x3f8512b5	1.0396334
182	0xbd05ff36	-0.03271409
183	0x3e3b0d5b	0.18266813
184	0x3f9fbf7e	1.2480314
185	0x3f26a93e	0.65101993
186	0x3f56382c	0.8367946
187	0x3f925087	1.1430825
188	0x3ee41389	0.44546154
189	0xbe3b8c51	-0.18315245
190	0x3eec89e0	0.4619894
191	0x3f90273a	1.1261971
192	0xbe2fa924	-0.17154366
193	0x3e182a43	0.14859872
194	0xbe67be98	-0.226313
195	0x3fa884a9	1.3165485
196	0x3f39ab94	0.7252743
197	0x3eb0a768	0.3450272
198	0x3ee140c5	0.43994728
199	0x3eff85b8	0.49906707
200	0x3ebba005	0.36645523
201	0x3fbf50e7	1.4946564
202	0x3e917564	0.28409874
203	0x3e89a547	0.2688391
204	0x3ee4cefa	0.4468916
205	0x3f016525	0.5054496
206	0xbfdb4889	-1.7131511
207	0x3f6b0a24	0.9181235
208	0xbf314e06	-0.6925968
209	0xbe9bf8ad	-0.30463162
210	0x3f8cbc4c	1.0994964
211	0x3f9dc36a	1.2325261
212	0xbf86c2dc	-1.0528216
213	0x3f68c86b	0.90930814
214	0xbf0d6916	-0.55238473
215	0xbe37cc7b	-0.17949097
216	0xbe4055b1	-0.18782689
217	0x3bf9134f	0.0076011787
218	0xbf14e12d	-0.5815609
219	0x3fa10bd4	1.2581735
220	0x3f2784a1	0.6543675
221	0x3e6527c4	0.2237845
222	0xbdaa2fdf	-0.08309912
223	0xbf570769	-0.8399568
224	0x3e9e79db	0.30952343
225	0x3f3dd48b	0.7415244
226	0x3f5b408e	0.8564538
227	0x3f1928f1	0.59828097
228	0x3f2d5af0	0.67716885
229	0x3ee18cc3	0.44052705
230	0x3f2b1f27	0.6684441
231	0x3f61b11b	0.88160866
232	0x3f05fde4	0.5234053
233	0x3db648b1	0.089005835
234	0x3eb4b415	0.35293642
235	0x3e9b8e1a	0.30381852
236	0x3ddb3538	0.1070351
237	0x3f42c07d	0.76074964
238	0xbdc86be7	-0.09786206
239	0xbdf26c1a	-0.11837025
240	0x3fdc67e7	1.7219208
241	0x3e59cfa4	0.21270615
242	0xbf200889	-0.62513024
243	0x3eec7d1c	0.461892
244	0x3e2a6843	0.16641335
245	0x3f60b598	0.8777709
246	0x3f570feb	0.84008664
247	0xbd372329	-0.044711266
248	0xbd1ea1ce	-0.038728528
249	0x3e9d0706	0.3066942
250	0x3e97ee84	0.2967416
251	0xbf4b8aa6	-0.79508436
252	0x3f3d2284	0.7388079
253	0x3fa43866	1.2829711
254	0x3afe906d	0.0019421704
255	0xbcec78a1	-0.028866114

network_body.observation_encoder.processors.0.normalizer.running_mean f4 [13]
0	0x44220c45	648.1917
1	0x441375e6	589.84216
2	0x4446ab2d	794.6746
3	0x446c88f2	946.1398
4	0x00000000	0.0
5	0x44b95862	1482.762
6	0x439a7463	308.90927
7	0x440d6295	565.54034
8	0x443e23e2	760.56067
9	0x4319b56f	153.70872
10	0x429dad87	78.83892
11	0x431c1ada	156.10489
12	0x43702f95	240.18587
