results/maxAgent1/My Behavior/My Behavior-3999993.pt (torch, 477743 bytes, 57 tensors)

discrete_act_size_vector f4 [1, 2]
0	0x40400000	3.0
1	0x40400000	3.0

network_body.observation_encoder.processors.0.normalizer.running_mean f4 [13]
0	0x442276ad	649.8543
1	0x441538af	596.8857
2	0x444a3564	808.8342
3	0x44656a51	917.6612
4	0x00000000	0.0
5	0x44bae60d	1495.1891
6	0x43939106	295.133
7	0x4408b974	546.8977
8	0x443b64ce	749.5751
9	0x4325c431	165.76637
10	0x42a9119d	84.5344
11	0x4327cd8d	167.80293
12	0x4365ea2c	229.91473

network_body.observation_encoder.processors.0.normalizer.running_variance f4 [13]
0	0x52724196	2.6012061e+11
1	0x524d865d	2.2068063e+11
2	0x528f791f	3.081062e+11
3	0x53b35560	1.540463e+12
4	0x3f800000	1.0
5	0x538bb3b7	1.2000311e+12
6	0x529b363d	3.3331495e+11
7	0x5381f0f7	1.116187e+12
8	0x53c25dcb	1.6695945e+12
9	0x51b92ad8	9.941097e+10
10	0x5190f5fc	7.782528e+10
11	0x52b6023a	3.908607e+11
12	0x52aee616	3.7559226e+11

network_body.processors.0.normalizer.running_mean f4 [13]
0	0x442276ad	649.8543
1	0x441538af	596.8857
2	0x444a3564	808.8342
3	0x44656a51	917.6612
4	0x00000000	0.0
5	0x44bae60d	1495.1891
6	0x43939106	295.133
7	0x4408b974	546.8977
8	0x443b64ce	749.5751
9	0x4325c431	165.76637
10	0x42a9119d	84.5344
11	0x4327cd8d	167.80293
12	0x4365ea2c	229.91473

network_body.processors.0.normalizer.running_variance f4 [13]
0	0x52724196	2.6012061e+11
1	0x524d865d	2.2068063e+11
2	0x528f791f	3.081062e+11
3	0x53b35560	1.540463e+12
4	0x3f800000	1.0
5	0x538bb3b7	1.2000311e+12
6	0x529b363d	3.3331495e+11
7	0x5381f0f7	1.116187e+12
8	0x53c25dcb	1.6695945e+12
9	0x51b92ad8	9.941097e+10
10	0x5190f5fc	7.782528e+10
11	0x52b6023a	3.908607e+11
12	0x52aee616	3.7559226e+11

network_body._body_endoder.seq_layers.0.weight f4 [128, 13]
0	0x3f900b68	1.1253481
1	0x3f79bf6a	0.975577
2	0xbede51e6	-0.4342186
3	0xbd6a84e9	-0.05725566
4	0xbeb5246e	-0.35379356
5	0xbeebc027	-0.46045038
6	0xbe3500cd	-0.17676087
7	0xbf3b9a78	-0.73282576
8	0xbf45f92f	-0.7733335
9	0xbeb39417	-0.3507392
10	0x3e4ab3e0	0.1979518
11	0xbf843b26	-1.0330551
12	0xbe01f335	-0.12690432
13	0xbe894735	-0.2681214
14	0xbe40f652	-0.18843964
15	0x3f7a88c8	0.9786496
16	0xbe0cab40	-0.13737202
17	0x3def6d43	0.11690762
18	0x3f44e288	0.7690816
19	0x3f8ae5bc	1.0851359
20	0xbf1a7f75	-0.60350734
21	0xbef3af86	-0.4759485
22	0xbf58ec30	-0.84735394
23	0x3f5a76f6	0.8533777
24	0xbe9d68eb	-0.3074411
25	0xbdbd7865	-0.09251479
26	0x3e9837d4	0.29730093
27	0xbec8debc	-0.39232433
28	0xbe9453b7	-0.2897012
29	0xbe726d63	-0.2367454
30	0x3e5d3638	0.21602714
31	0x3e95067d	0.29106513
32	0x3edfb750	0.43694544
33	0x3e6b6d94	0.2299102
34	0xbf62d1e6	-0.8860153
35	0xbd8a04a8	-0.06739169
36	0x3d79155a	0.060811378
37	0x3f08d98b	0.53456944
38	0x3e3be875	0.18350394
39	0xbcfe17ed	-0.031017268
40	0xbf3f6a7f	-0.74771875
41	0x3daa92e4	0.083287984
42	0xbda6cb1a	-0.08144207
43	0xbe00c705	-0.1257592
44	0x3e069e46	0.13146314
45	0x3ed13ac2	0.4086514
46	0x3eb5ff69	0.35546425
47	0xbf695651	-0.91147333
48	0x3f28cd9a	0.65938723
49	0x3e910467	0.2832367
50	0x3da9ec8d	0.082970716
51	0x3f45a7c2	0.77209103
52	0xbefb2cc6	-0.49057597
53	0xbf05dbd9	-0.52288586
54	0x3ea1c12d	0.31592694
55	0xbdc5318b	-0.0962859
56	0x3ec023f3	0.37527427
57	0xbeec8624	-0.4619609
58	0x3ee28030	0.44238424
59	0x3e2d4ca2	0.16923764
60	0xbe29294f	-0.16519664
61	0x3f22e094	0.6362393
62	0xbe7fbfe1	-0.2497554
63	0x3f166050	0.5874071
64	0x3f493079	0.7858959
65	0x3f9fc26a	1.2481205
66	0xbe4c7640	-0.19966984
67	0x3eac981b	0.33709797
68	0xbe9bef8c	-0.30456197
69	0x3d88d88c	0.06681928
70	0x3edb099f	0.42780778
71	0x3d14ed44	0.036359087
72	0x3ddeecb8	0.10884994
73	0xbec7a7d3	-0.38995227
74	0xbcac335b	-0.021020582
75	0xbf4873fd	-0.78301984
76	0xbe32214b	-0.17395513
77	0x3e6fece7	0.23430215
78	0x3ec3e557	0.3826091
79	0xbea7ce34	-0.32774508
80	0xbee7c611	-0.452683
81	0x3d3bbdb1	0.0458352
82	0xbe00108f	-0.12506317
83	0x3e28b0ef	0.16473745
84	0x3dc5a00e	0.09649669
85	0xbdec841c	-0.11548635
86	0xbfc24412	-1.5177023
87	0x3d1c4cfc	0.038159356
88	0x3c1324a6	0.008980906
89	0x3f03e5db	0.51522607
90	0x3f249186	0.6428455
91	0x3ead795b	0.3388165
92	0x3d909c2a	0.07061036
93	0x3e67e1a5	0.2264467
94	0xbf7f1b0e	-0.9965066
95	0xbe0b5d52	-0.13609818
96	0x3f4a6c3c	0.790714
97	0xbf188075	-0.5957101
98	0x3f92b2c9	1.1460811
99	0xbd7ac530	-0.06122321
100	0xbf82b23f	-1.0210646
101	0xbf21a0d7	-0.6313605
102	0x3e9fcd2f	0.3121123
103	0x3e87356b	0.26407942
104	0x3eba7012	0.36413628
105	0xbf2dfd61	-0.6796475
106	0x3eb71883	0.35760888
107	0x3daf655e	0.08564256
108	0x3d853100	0.06503487
109	0xbe3a9f3d	-0.18224807
110	0x3f8d04ca	1.1017087
111	0xbeed3ee4	-0.46337044
112	0xbf8e09fb	-1.1096796
113	0x3f7256d3	0.94663733
114	0x3f0ab19a	0.5417725
115	0xbeeef8b4	-0.4667412
116	0x3e41909c	0.1890282
117	0xbdc9bd5d	-0.09850571
118	0xbe9d9867	-0.30780336
119	0x3f86374f	1.0485629
120	0x3f0088ea	0.50208914
121	0x3e623249	0.22089495
122	0xba8b2665	-0.0010616301
123	0x3f95f24e	1.171457
124	0xbdbe9c17	-0.093071155
125	0xbed975b2	-0.42472607
126	0xbf366bb5	-0.712581
127	0xbcdd9cbe	-0.02705228
128	0x3e2564c8	0.16151726
129	0x3f246120	0.642107
130	0xbf24b5b4	-0.64339757
131	0xbfb186c5	-1.3869253
132	0x3f4446c9	0.7667051
133	0x3fa9a337	1.3252934
134	0xbd5f19bf	-0.054467913
135	0xbf03745e	-0.5134944
136	0x3f83e1dd	1.0303303
137	0x3d91d980	0.07121563
138	0xbf01cc84	-0.5070269
139	0x3f2209d5	0.6329625
140	0x3ec59f25	0.3859798
141	0xbf87fc9d	-1.0623966
142	0xbe824834	-0.25445712
143	0x3edcc8fc	0.4312209
144	0x3d6ae255	0.057344753
145	0xbf083c80	-0.53217316
146	0xbde443bd	-0.111457326
147	0x3f2ffe8b	0.68747777
148	0x3d410b5f	0.047129985
149	0xbcfcc110	-0.030853778
150	0xbdb1df92	-0.08685221
151	0xbf94b915	-1.1618983
152	0x3e1d5064	0.15362698
153	0xbdf112e3	-0.117711805
154	0x3ecbbdd5	0.39793268
155	0x3db51e76	0.088437006
156	0xbd8bf853	-0.068344735
157	0xbf41f74a	-0.7576796
158	0xbf35b47b	-0.70978516
159	0x3ea19ae6	0.3156349
160	0xbd3c2e2e	-0.045942478
161	0x3eaef117	0.34168312
162	0x3f941e21	1.1571695
163	0x3e438e6d	0.190973
164	0x3d6e07b7	0.058112826
165	0x3f5264d0	0.8218508
166	0x3e49ea9b	0.19718401
167	0xbf3fc92a	-0.74916327
168	0x3eda4723	0.42632398
169	0x3e517ad8	0.20457017
170	0xbe67005c	-0.22558731
171	0xbf56488f	-0.83704466
172	0xbf08edea	-0.5348803
173	0x3d9e5ee8	0.07732946
174	0x3f16aefb	0.5886075
175	0xbebb6b06	-0.3660509
176	0x3f037d1a	0.51362765
177	0xbf72bb76	-0.9481729
178	0x3e089a25	0.13340051
179	0xbdf10d6e	-0.1177014
180	0x3ed1d6c1	0.40984157
181	0x3e96a27d	0.29420844
182	0xbdfccb1e	-0.12343429
183	0xbf5646ef	-0.83701986
184	0xbedb2937	-0.42804882
185	0x3f25d562	0.6477872
186	0xbec2f467	-0.3807709
187	0x3e9e5688	0.30925393
188	0xbe92186e	-0.28534263
189	0x3e276870	0.16348433
190	0xbe112553	-0.14174394
191	0x3f636c13	0.88836783
192	0xbe0d2f7b	-0.13787644
193	0xbc9d42ba	-0.019196857
194	0x3f17b786	0.5926441
195	0xbf282c9f	-0.65693086
196	0xbf5e146b	-0.86749905
197	0xbf378ccf	-0.7169923
198	0x3ed53c46	0.41647547
199	0x3ea9865a	0.33110315
200	0x3fb4e8d4	1.4133554
201	0x3f155459	0.5833183
202	0xbee2aecf	-0.44273993
203	0xbf44bff4	-0.768554
204	0xbf9c4e68	-1.2211428
205	0xbccde571	-0.02513382
206	0xbf478d66	-0.7795013
207	0x3e8fea56	0.28108472
208	0xbdbc702a	-0.09201081
209	0xbf733323	-0.94999903
210	0xbe597463	-0.21235804
211	0x3e2e0a30	0.16996074
212	0xbf66d5fe	-0.90170276
213	0xbddc0f9d	-0.107451655
214	0x3f1945e3	0.59872264
215	0x3ef5d71f	0.48015687
216	0xbf2aef07	-0.66770977
217	0x3e893fe7	0.26806566
218	0xbdb19160	-0.08670306
219	0x3e5bacfb	0.21452706
220	0x3f149194	0.58034635
221	0x3e251d6a	0.16124502
222	0xbebb0c8e	-0.36533016
223	0x3ef5899e	0.47956556
224	0xbdd489a7	-0.103778176
225	0x3e36e2ea	0.17859998
226	0x3e6a53c4	0.22883517
227	0x3fb3f3cb	1.4058775
228	0x3ecc52fc	0.39907062
229	0xbf5815a3	-0.84408015
230	0x3f055db6	0.52096117
231	0x3f46849f	0.77546114
232	0xbed49499	-0.4151962
233	0x3eb521ee	0.3537745
234	0xbec4235c	-0.38308227
235	0x3f08485f	0.5323543
236	0x3ff71561	1.9303399
237	0xc0174494	-2.3635607
238	0xbbd80b54	-0.0065931473
239	0x3f35e10c	0.7104652
240	0xbee68ec9	-0.4503081
241	0xbea9c829	-0.33160523
242	0xbea0c086	-0.31396884
243	0x3df42c68	0.11922532
244	0x3f9d347e	1.2281644
245	0x3fdd1447	1.7271813
246	0xbfb26c16	-1.3939235
247	0x3e0ba5e5	0.13637502
248	0x3f239c0d	0.6390999
249	0xbf0418e7	-0.516005
250	0xbf36c9f9	-0.71401936
251	0xbea556fe	-0.32292932
252	0xbd8d5771	-0.06901444
253	0x3f16674c	0.5875137
254	0x3f4d840b	0.80279607
255	0xbf33fc6e	-0.7030705

network_body._body_endoder.seq_layers.0.bias f4 [128]
0	0xbfd16206	-1.6358039
1	0xc03cb95d	-2.9488137
2	0xbffee599	-1.9913818
3	0xc013ecb4	-2.3113222
4	0xc01707a9	-2.3598425
5	0xc0017805	-2.0229504
6	0xc020aeab	-2.510661
7	0xc02e8010	-2.7265663
8	0xc01a76b1	-2.4134943
9	0xc01337bb	-2.3002765
10	0xbfd956d0	-1.6979618
11	0xbfdcfb5c	-1.7264209
12	0xc0396a20	-2.8971024
13	0xc03baef4	-2.9325533
14	0xc049a897	-3.150915
15	0xc00795db	-2.1185215
16	0xc037e136	-2.8731208
17	0xc03467da	-2.8188386
18	0x3ee57461	0.44815353
19	0xc00004a2	-2.0002828
20	0xbfc2c423	-1.5216106
21	0xc0158a13	-2.3365524
22	0xbfbac9a1	-1.4592782
23	0xbfbe505b	-1.4868273
24	0xbf6d221f	-0.9263019
25	0xbfef9939	-1.8718635
26	0xc03aba6f	-2.917629
27	0xc00c530c	-2.1925688
28	0xc0158108	-2.3360004
29	0xc0348954	-2.8208818
30	0x3eaba9a2	0.33527857
31	0xc02f9c40	-2.7439117
32	0xc0097134	-2.1475344
33	0xc029b662	-2.6517568
34	0xc0481028	-3.125986
35	0xbfd8a9d1	-1.6926824
36	0xc000a9bc	-2.0103598
37	0xbf7b8939	-0.9825626
38	0xc02690e9	-2.6025946
39	0xc0032cc9	-2.0496085
40	0x3ec6231d	0.38698664
41	0xc03483a0	-2.8205338
42	0xbff8dbd9	-1.9442092
43	0xc026629b	-2.5997684
44	0xc035873d	-2.8363793
45	0xc025e0bb	-2.5918415
46	0xbfc4e14d	-1.5381256
47	0xc012c4ab	-2.2932537
48	0xc0129905	-2.2905896
49	0xbff970ed	-1.9487587
50	0xc00a5e44	-2.1620035
51	0xc0436707	-3.0531633
52	0xc00ece65	-2.2313473
53	0xc04c2704	-3.1898813
54	0xbfeb2ed7	-1.8373669
55	0xbfca41f0	-1.5801373
56	0xc0499e6c	-3.1502943
57	0xc041c648	-3.0277271
58	0xbfcdbb03	-1.6072696
59	0xc04aea6a	-3.1705575
60	0xbf8e5558	-1.1119795
61	0xc019340e	-2.3938022
62	0xc0257923	-2.5855186
63	0xbfd92da8	-1.6967058
64	0xbf73d4d0	-0.952466
65	0xc01c7cab	-2.4451091
66	0xc004e9ce	-2.0767703
67	0xc01c2a3d	-2.440078
68	0xbfc89a60	-1.5672112
69	0xbfd899d5	-1.6921946
70	0xbf62534c	-0.8840835
71	0xc0296f79	-2.6474288
72	0xbfe6a672	-1.8019545
73	0xc001ac7e	-2.026153
74	0xc00a6cff	-2.1629026
75	0xc036dcad	-2.857219
76	0xc01f4096	-2.488317
77	0xc02cbdc7	-2.699083
78	0x3f3112cb	0.691693
79	0xc01241d2	-2.2852674
80	0xc00efda5	-2.2342312
81	0xc03cc29f	-2.9493787
82	0xc018b2ed	-2.3859208
83	0xc005d430	-2.091076
84	0xc0010e74	-2.0165071
85	0xc046d714	-3.1068773
86	0xbfba6e3f	-1.4564894
87	0xc0045d07	-2.068178
88	0xc01976ad	-2.3978684
89	0xc000ad09	-2.0105612
90	0xc002cb8c	-2.0436735
91	0xbfcc5373	-1.5962967
92	0xc045d2a1	-3.0909808
93	0xbf0c755b	-0.5486657
94	0xc0216867	-2.5219972
95	0xbfc4892e	-1.5354364
96	0xc00e7a8b	-2.2262294
97	0xbfc9b516	-1.5758388
98	0xbfecc20a	-1.8496716
99	0xc001d6ee	-2.0287433
100	0xc0404349	-3.0041068
101	0xc029b332	-2.6515622
102	0xc008e6df	-2.1390913
103	0xc041d7c2	-3.0287938
104	0xc00a58e3	-2.1616752
105	0xc05c3f71	-3.4413722
106	0xc01df76e	-2.468227
107	0xc01d70f5	-2.4600194
108	0xbfed13df	-1.8521689
109	0xbfb908d3	-1.4455818
110	0xc002b896	-2.0425162
111	0xc02ac3ca	-2.6682
112	0xc0088120	-2.1328812
113	0xbfb48205	-1.4102179
114	0xbfa9ab75	-1.325545
115	0xc00875ee	-2.1321979
116	0xbfe2765b	-1.7692369
117	0xc0183e32	-2.378796
118	0xc01e6a79	-2.4752486
119	0xc007fe21	-2.1248858
120	0xc0085edc	-2.1307898
121	0xc0168de9	-2.3524115
122	0xbfdd1122	-1.7270854
123	0xbe471d97	-0.19444881
124	0xc06a2f3e	-3.6591334
125	0xc04c62ec	-3.1935377
126	0xbf206e82	-0.6266862
127	0xbfe81e66	-1.8134277

network_body._body_endoder.seq_layers.2.weight f4 [128, 128]
0	0x3f235b32	0.6381103
1	0xbeb5a9ba	-0.35481054
2	0x3e6dbdb2	0.23216894
3	0x3ee00cf1	0.43759874
4	0x3fe2fd32	1.7733519
5	0x3f8be62c	1.0929618
6	0xbdb3c031	-0.08776892
7	0x3f388319	0.7207504
8	0xbede719c	-0.43446052
9	0x3e99f0a4	0.30066407
10	0x3f0986fb	0.5372159
11	0x3ed70cd5	0.42001978
12	0x3e2b264a	0.16713825
13	0x3f2e6917	0.68129104
14	0x3ffa7a96	1.956866
15	0x3f1fee5b	0.62473077
16	0x3eae4bf3	0.3404232
17	0x3f1cdc6c	0.6127384
18	0xbfb91cde	-1.4461935
19	0x3ed3f1a4	0.41395295
20	0x3f7f0f04	0.9963229
21	0x3f400f07	0.7502293
22	0x3f57b130	0.8425474
23	0xbf3b9d90	-0.73287296
24	0xbf1e6524	-0.6187308
25	0x3f8368c3	1.0266346
26	0x3eab7dc5	0.33494392
27	0x3ee34eee	0.44396156
28	0x3f4dde98	0.80417776
29	0x3ec5e1db	0.38648877
30	0xbfee418a	-1.8613751
31	0x3ee0ef29	0.43932465
32	0x3f0d78b8	0.5526233
33	0x3f78e0e5	0.9721816
34	0x3f78b77a	0.97154963
35	0x3f83a46b	1.0284551
36	0x3e6804ee	0.2265813
37	0xbf8ce87b	-1.1008447
38	0x3d8b8276	0.06811993
39	0xbd44ce7f	-0.048048493
40	0xbf05df3f	-0.5229377
41	0x3f37a671	0.71738344
42	0x4002065e	2.0316386
43	0xbf7fa78e	-0.99865043
44	0x3ea035de	0.31291097
45	0x3eb0c0fb	0.34522232
46	0x3f30ab11	0.69011027
47	0x3f188e02	0.59591687
48	0xbed2fbfb	-0.4120787
49	0x3fbb6da7	1.4642838
50	0x3f88d5de	1.0690267
51	0x3ea2ab5d	0.31771365
52	0x3ee32e6d	0.44371358
53	0x3f4c2a8f	0.7975244
54	0x3d4e8ca2	0.050427087
55	0xbf2acdf9	-0.6672054
56	0x3f5f34ee	0.8719014
57	0x3ed78402	0.420929
58	0xbd9eda8a	-0.07756527
59	0x3f616db5	0.88058025
60	0xbf0a8a80	-0.54117584
61	0x3f968f3e	1.1762464
62	0xbe0f9183	-0.14020352
63	0xbeb6b8ec	-0.3568796
64	0xbf16e966	-0.5894989
65	0x3f8788bb	1.0588602
66	0x3ec21174	0.3790394
67	0x3fb09c01	1.3797609
68	0x3f095a53	0.5365345
69	0x3f86e250	1.0537815
70	0xbe8d73b6	-0.27627343
71	0x3cf0c04d	0.029388571
72	0xbeb45374	-0.3521992
73	0x3fd538af	1.6657923
74	0x3e917d12	0.28415734
75	0x3f40ef0d	0.7536476
76	0x3f01abcf	0.50652784
77	0xbd72b075	-0.059250314
78	0xbfb8e03a	-1.4443429
79	0x3e9638b4	0.29340136
80	0x3e83f87f	0.25775525
81	0x3e03613f	0.12830065
82	0x3eb8209c	0.3596238
83	0x3f8d64dd	1.1046406
84	0xbef14619	-0.47123793
85	0x3f07e5ad	0.5308483
86	0x3f115e6e	0.56784713
87	0x3f0fb6fa	0.56138575
88	0x3f174c43	0.5910074
89	0x3cce38a2	0.025173489
90	0xbf117458	-0.5681815
91	0x3f8962ab	1.0733236
92	0x3f9a11b9	1.2036659
93	0xbf65b7e4	-0.8973372
94	0x3f53e42d	0.82770044
95	0xbf605737	-0.8763308
96	0x3f4b05e7	0.7930588
97	0x3f47f60e	0.78109825
98	0x3ef10cd4	0.470801
99	0x3fc8bc21	1.5682412
100	0x3e8401e9	0.25782707
101	0x3e9355bb	0.28776345
102	0x3f36c8f9	0.7140041
103	0x3ededc92	0.43527657
104	0x3f45a7a1	0.77208906
105	0xbe2dfb50	-0.169904
106	0xbe2137c4	-0.15743929
107	0x3efd39b4	0.49458086
108	0x3e3195ca	0.17342296
109	0x3e7e27e1	0.248199
110	0x3f511bfc	0.81683326
111	0xbeb2c13f	-0.3491306
112	0x3fe5e259	1.7959701
113	0x3f25458a	0.64559233
114	0xbf1c6ace	-0.6110047
115	0x3eb4d7ab	0.35320792
116	0x3f089a98	0.5336089
117	0x3ed26dff	0.41099545
118	0x3fd8a265	1.6924559
119	0x3f1e87a8	0.61925745
120	0xbf9b6f3d	-1.2143322
121	0xbe961892	-0.2931562
122	0xbe833b0f	-0.25630996
123	0x3e2b728f	0.1674292
124	0x3f5e8a51	0.86929804
125	0x3f509318	0.8147445
126	0xbfad0d92	-1.3519766
127	0x3cb26797	0.021777911
128	0x3ff222dc	1.8916888
129	0xbc9104f3	-0.017702555
130	0xbd9d0997	-0.07667845
131	0x3f93096c	1.148725
132	0x4001094d	2.0161927
133	0x3f5beab2	0.8590499
134	0x3fbf17ab	1.4929098
135	0x3cbc8f36	0.023017507
136	0x3f83ec8f	1.0306567
137	0xbf3f0964	-0.74623704
138	0xbe972dbd	-0.29527083
139	0x3e74ded5	0.23913129
140	0x3f1358d8	0.5755744
141	0x3f447111	0.76735026
142	0x3fdcb165	1.7241637
143	0x3eb9b37a	0.36269742
144	0x3fadc97c	1.3577113
145	0x3f9f58cb	1.2448972
146	0xbfd2d90b	-1.6472486
147	0x3eb0ade9	0.34507683
148	0x3ffafae7	1.9607819
149	0x3f0e5547	0.5559887
150	0x3f0a0143	0.53908175
151	0x3ef9d63b	0.48796257
152	0x3cad8d90	0.021185666
153	0x3f172f73	0.59056777
154	0x3e4bbda7	0.19896565
155	0x3ea75188	0.3267939
156	0x3f8cb42c	1.0992484
157	0x3f57ec6c	0.84345126
158	0xbf723dbd	-0.94625455
159	0x3f547958	0.82997656
160	0xbe12b97d	-0.1432857
161	0x3eba114d	0.36341324
162	0x3f3ce199	0.73781735
163	0x3f1fab16	0.6237043
164	0x3f199f08	0.6000829
165	0xbf43cf86	-0.7648853
166	0x3f095bd3	0.5365574
167	0x3e3d960a	0.18514267
168	0xbe67a68b	-0.22622125
169	0x3eb36058	0.35034442
170	0x3faaacad	1.3333946
171	0x3eb89480	0.36050797
172	0x3f1bd703	0.60874957
173	0x3edf2630	0.43583822
174	0x3f7aa4ef	0.9790792
175	0x3f3a0387	0.7266163
176	0x3ecfa983	0.40559015
177	0x3f840939	1.0315315
178	0x3ef0e7ef	0.4705195
179	0x3ed4aacf	0.41536567
180	0x3f07ada3	0.52999324
181	0x3f3aab05	0.72917205
182	0x3d1b88f4	0.037972406
183	0x3e70fb3d	0.2353334
184	0x3f979e96	1.1845272
185	0x3f1397ec	0.5765369
186	0x3f5c015f	0.8593959
187	0x3f93a9ae	1.1536157
188	0x3f051dd4	0.5199864
189	0xbe8ac13d	-0.27100554
190	0x3ea3202d	0.31860486
191	0x3f95e5e8	1.1710787
192	0x3dedf568	0.11619073
193	0xbc71e0dd	-0.014763084
194	0xbd688714	-0.056769446
195	0x3f9e61c3	1.2373585
196	0x3f50e7c3	0.8160364
197	0x3ebbf109	0.36707333
198	0x3f0c4d9b	0.54805917
199	0x3f244c9f	0.64179415
200	0x3e58b7f6	0.21163926
201	0x3f9e29b6	1.2356479
202	0x3dc88ec4	0.097928554
203	0x3d946dbc	0.07247493
204	0x3eeab9f7	0.45845005
205	0x3e994a29	0.29939392
206	0xc0077eec	-2.1171217
207	0x3f3482ac	0.7051189
208	0xbf1c0c04	-0.60955834
209	0xbdedf620	-0.1161921
210	0x3f58b4c2	0.84650815
211	0x3f9e4b9f	1.2366828
212	0xbf5dd7ee	-0.8665761
213	0x3f64ea08	0.89419603
214	0xbf0f2819	-0.5592056
215	0x3e1e80ee	0.1547887
216	0xbe036146	-0.12830076
217	0xbdd1eb43	-0.10249951
218	0xbf2340a8	-0.6377053
219	0x3f84f40e	1.038698
220	0x3f595241	0.84891135
221	0x3e7cbfc2	0.24682525
222	0xbd9b4db9	-0.07583184
223	0xbf52390e	-0.8211831
224	0x3e6da540	0.23207569
225	0x3f87abe6	1.0599334
226	0x3f88e5f8	1.0695181
227	0x3ef91f8a	0.48656875
228	0x3f26f3c4	0.65215707
229	0x3ecfb197	0.40565178
230	0x3f0519ce	0.519925
231	0x3f35242c	0.7075832
232	0x3efd541d	0.49478236
233	0xbcfbe784	-0.030750044
234	0x3edb8003	0.42871103
235	0x3ec590c0	0.38586998
236	0x3d8c0d22	0.068384424
237	0x3f67026e	0.9023808
238	0x3dd83321	0.10556627
239	0xbe898ca3	-0.2686511
240	0x3fc4958e	1.535814
241	0x3eb7f681	0.35930255
242	0xbf0dccf0	-0.55390835
243	0x3e8d46b4	0.27593005
244	0x3e2d183c	0.16903776
245	0x3f2b2242	0.6684915
246	0x3f92d4ad	1.1471153
247	0xbe454257	-0.19263588
248	0x3ea79aa9	0.32735184
249	0x3e981221	0.2970133
250	0x3ee7ecda	0.4529789
251	0xbf0e7f6d	-0.55663186
252	0x3f1e9cad	0.6195782
253	0x3fad0f91	1.3520375
254	0x3e350a0f	0.17679618
255	0xbe1ab26f	-0.1510713

network_body._body_endoder.seq_layers.2.bias f4 [128]
0	0xbfd72fd8	-1.6811476
1	0xbf8d8a6c	-1.1057868
2	0xbfcf5fc6	-1.6201103
3	0xc00dfdda	-2.2186189
4	0xbfdfe11c	-1.7490573
5	0xbfc7c127	-1.560582
6	0xbf425655	-0.7591298
7	0xc001203e	-2.017593
8	0xbee64002	-0.4497071
9	0xbf9e3bd9	-1.2362014
10	0xbfc7ea96	-1.5618465
11	0xbe8f7f7a	-0.28026944
12	0xbfb71c5d	-1.4305531
13	0xc03ee950	-2.9829903
14	0xbfe9d80a	-1.8269055
15	0xc003c108	-2.0586567
16	0xbffa9641	-1.9577104
17	0xbe5eed73	-0.21770267
18	0xbef11651	-0.4708734
19	0xc035d705	-2.8412488
20	0xbfc861be	-1.5654829
21	0xc04f9f8d	-3.2441132
22	0xbfa753ad	-1.3072411
23	0xbff79206	-1.9341438
24	0xbfc40d1e	-1.5316503
25	0xbf5fe7a8	-0.87462854
26	0xbfc014f7	-1.5006398
27	0xbf7b71b2	-0.9822036
28	0xc005f272	-2.0929227
29	0xbf6fbf9a	-0.93651736
30	0xbfae449b	-1.3614687
31	0xbfc1a72f	-1.5129145
32	0xbf5f719f	-0.8728275
33	0xbf813a5b	-1.0095934
34	0xbfb6e02e	-1.4287164
35	0xbfa1f2b7	-1.2652196
36	0xc0105294	-2.2550402
37	0xbfba5a77	-1.4558858
38	0xbf4d6b69	-0.8024202
39	0xbfb8ac93	-1.4427665
40	0xbffef1f6	-1.9917591
41	0xc019dad1	-2.4039805
42	0xbf41ab27	-0.7565178
43	0xbf93cd4a	-1.1547024
44	0xbf558c52	-0.83417237
45	0xbfbc4a18	-1.4710112
46	0xbff55138	-1.9165411
47	0xc01080ca	-2.2578607
48	0xbf12e01b	-0.5737321
49	0xbf913a09	-1.1345836
50	0xbfa74265	-1.3067137
51	0xbf100879	-0.5626293
52	0xbfab9912	-1.3406088
53	0xbfc99275	-1.574782
54	0xbf979de2	-1.1845057
55	0xbfbe40e2	-1.4863551
56	0xc00faeca	-2.2450433
57	0xbf96a99b	-1.177051
58	0xbe6292c8	-0.22126305
59	0xbf7f8476	-0.99811494
60	0xbff0e125	-1.8818709
61	0xbf5f2ec3	-0.8718073
62	0xbfe76298	-1.8076963
63	0xbf5b82b9	-0.8574634
64	0xbe8d5b5c	-0.27608764
65	0xbea1a25c	-0.31569183
66	0xbf964f91	-1.1743032
67	0xc000ba54	-2.0113726
68	0xbfa430e1	-1.2827417
69	0xbf3cf6b0	-0.73813915
70	0xbfd91d8a	-1.696214
71	0xc004c822	-2.0747151
72	0xc01cadc3	-2.4481056
73	0xbf951cee	-1.1649454
74	0xbfb5ac07	-1.4193124
75	0xbfcfac46	-1.6224449
76	0xbfe1d468	-1.7642946
77	0xbfea0d8d	-1.8285385
78	0xbf3c4df8	-0.7355647
79	0xc0204a91	-2.5045512
80	0xbf37471a	-0.7159287
81	0xbeb7b4b4	-0.35880053
82	0xc01b11e4	-2.422967
83	0xbf65cbe0	-0.89764214
84	0xc00f44d7	-2.2385767
85	0xc0022237	-2.0333383
86	0xc03ab1c6	-2.9171004
87	0xbfe12787	-1.7590188
88	0xc01799f1	-2.3687708
89	0xc01c180b	-2.4389675
90	0xbf8f8ddb	-1.1215166
91	0xbfd570e5	-1.6675078
92	0xbf8de862	-1.1086543
93	0xbff41798	-1.90697
94	0xbfa88e99	-1.3168517
95	0xbf82c622	-1.0216715
96	0xbfd80d4b	-1.6879057
97	0xc01cf266	-2.4522948
98	0xbff5aec8	-1.9193964
99	0xbf4fd2cf	-0.81181043
100	0xbf028d46	-0.50996816
101	0xbf632d3f	-0.88740915
102	0xbf9ca995	-1.2239252
103	0xbf94cbf3	-1.162474
104	0xbf3d9116	-0.7404951
105	0xc0164d2c	-2.3484602
106	0xbf4e5c35	-0.80609447
107	0xbfb4640f	-1.4093035
108	0xbf90062c	-1.1251884
109	0xbfe26038	-1.7685614
110	0xbf11c479	-0.5694042
111	0xbf616002	-0.8803712
112	0xbfbc9bf0	-1.4735088
113	0xbf384f2b	-0.719958
114	0xbfa9c544	-1.3263326
115	0xbe20fbec	-0.157211
116	0xbfaa3f64	-1.3300595
117	0xbf9eb179	-1.239791
118	0xbe9dc3a4	-0.30813324
119	0xbf20299c	-0.6256349
120	0xbf8fd726	-1.1237533
121	0xbfc95544	-1.5729146
122	0xbebb03bf	-0.36526296
123	0xbf8ba9f7	-1.0911244
124	0xbf580697	-0.84385055
125	0xbf3246f9	-0.69639546
126	0xbf86d532	-1.0533812
127	0xbf30abe0	-0.6901226

action_model._continuous_distribution.log_sigma f4 [1, 2]
0	0xbfe51e5e	-1.7899892
1	0xc0118d07	-2.2742326

action_model._continuous_distribution.mu.weight f4 [2, 128]
0	0xbeb249ca	-0.34821922
1	0xbf04bb71	-0.5184851
2	0xbe04d64e	-0.12972376
3	0xbeed85ff	-0.46391293
4	0x3dcc4e7b	0.099759065
5	0xbed53a67	-0.4164612
6	0xbd669dae	-0.05630272
7	0xbe84d5e0	-0.25944424
8	0x3f165fb9	0.5873981
9	0xbf076ad8	-0.52897406
10	0xbeb2416e	-0.34815544
11	0x3e2d40a0	0.16919184
12	0xbf0545ec	-0.5205982
13	0xbf5ed568	-0.8704438
14	0xbe8658cb	-0.2623962
15	0x3ce1ab22	0.027547423
16	0xbe9e36fe	-0.3090133
17	0x3e79943a	0.2437295
18	0x3f4a527c	0.7903211
19	0xbe4b7f26	-0.19872722
20	0xbe0fb274	-0.14032918
21	0xbe99051b	-0.29886708
22	0xbe6011e4	-0.21881825
23	0xbebd87f2	-0.3701778
24	0xbee1a32d	-0.44069806
25	0x3f0e3419	0.55548245
26	0x3e21d729	0.15804733
27	0xbe2f9602	-0.17147067
28	0xbe3e5e54	-0.18590671
29	0xbf5d5508	-0.8645787
30	0x3eb4529e	0.35219282
31	0xbe08614d	-0.13318367
32	0x3e078a83	0.13236432
33	0x3f25fc23	0.64837855
34	0xbca9e64f	-0.020739703
35	0xbed065b5	-0.40702596
36	0xbeacb84c	-0.33734357
37	0xbcf4cf13	-0.029883897
38	0xbf384e3e	-0.7199439
39	0x3eda45bc	0.42631328
40	0x3e2d2c4f	0.16911434
41	0xbf441b86	-0.766045
42	0x3e9fd791	0.31219152
43	0x3e0ef691	0.13961245
44	0xbe5413b9	-0.20710649
45	0xbee08498	-0.4385116
46	0x3e3e7b74	0.18601781
47	0xbd42409d	-0.0474249
48	0xbf2c1ea6	-0.67234266
49	0x3ef342c6	0.47511882
50	0x3edcf587	0.43156072
51	0x3f0da3a5	0.55327827
52	0xbe952106	-0.29126757
53	0xbf509c31	-0.8148833
54	0xbeb6a67a	-0.35673887
55	0xbf2008f9	-0.6251369
56	0xbeb9753d	-0.36222258
57	0x3e0cf1b4	0.13764077
58	0xbe9e9805	-0.30975357
59	0x3eb57b27	0.3544552
60	0xbe9eb047	-0.30993864
61	0xbf233443	-0.6375162
62	0xbe0e1b9c	-0.1387772
63	0xbefbdb02	-0.49190527
64	0xbd5c6d1c	-0.053814992
65	0x3dd639df	0.10460257
66	0xbf12c41c	-0.5733049
67	0xbe002ea0	-0.12517786
68	0xbf13e94f	-0.57777876
69	0x3e38caf0	0.18046165
70	0xbe2e08f4	-0.16995603
71	0xbea0a85b	-0.31378445
72	0xbe5e0666	-0.21682128
73	0x3df9888e	0.12184249
74	0xbe84b28c	-0.2591747
75	0xbda39629	-0.07987625
76	0x3e30bf06	0.1726037
77	0x3ded9473	0.1160058
78	0x3e848d6a	0.2588914
79	0x3dc272e1	0.09494568
80	0x3f093a15	0.5360425
81	0x3ef5e702	0.48027807
82	0xbebca7ad	-0.36846676
83	0xbd038c99	-0.032116506
84	0xbd85c99e	-0.06532596
85	0xbdb10b29	-0.08644707
86	0xbf217cbe	-0.63080966
87	0x3e9106c5	0.28325477
88	0xbe305bec	-0.17222565
89	0xbea19a71	-0.31563142
90	0xbee6f3dd	-0.45107928
91	0xbea5afd1	-0.323607
92	0xbeb10ba3	-0.3457919
93	0x3eeac2b3	0.4585167
94	0x3e5816d2	0.21102455
95	0xbe8101bd	-0.2519664
96	0xbf2c147a	-0.67218745
97	0xbdba5ab7	-0.09099334
98	0xbe2a4b6b	-0.16630332
99	0x3dd06fa2	0.10177542
100	0xbdc4f8f2	-0.09617795
101	0x3f06b49b	0.5261933
102	0xbf1dc2f0	-0.61625576
103	0xbf65ff1f	-0.8984241
104	0xbed5aa29	-0.41731384
105	0xbf175685	-0.59116393
106	0xbe40f360	-0.1884284
107	0x3d6d8605	0.05798914
108	0xbed51b12	-0.41622216
109	0xbf01ed13	-0.5075237
110	0x3dc8059f	0.09766697
111	0xbe55a4ed	-0.20863695
112	0xbf055433	-0.520816
113	0x3f487822	0.7830831
114	0x3d9b22c8	0.07574993
115	0x3d3ca3be	0.046054594
116	0xbd56814b	-0.052369397
117	0xbe899cbc	-0.2687739
118	0x3e593438	0.21211326
119	0xbee51e4b	-0.44749674
120	0xbedc3135	-0.43006292
121	0xbe59e1af	-0.21277498
122	0x3f35c7f4	0.7100823
123	0x3f278db5	0.654506
124	0xbe8f996c	-0.2804674
125	0x3c306a1b	0.010767485
126	0xbebd84ad	-0.37015286
127	0xbe82f684	-0.25578701
128	0x3e94794e	0.28998798
129	0xbed90324	-0.4238521
130	0xbe989333	-0.29799804
131	0x3d2aaefa	0.041670777
132	0xbf187cd6	-0.59565485
133	0xbe931f28	-0.28734708
134	0xbb0b20e1	-0.0021229314
135	0xbe8c6f9c	-0.274289
136	0x3e81cffc	0.25353992
137	0xbf6b8a51	-0.9200793
138	0xbf7721d8	-0.96536016
139	0x3efa45a3	0.48881254
140	0xbde9fb0f	-0.11424839
141	0xbeb43b6a	-0.3520158
142	0x3cf85797	0.030315204
143	0xbd42d1da	-0.04756341
144	0x3dd267f2	0.10273732
145	0x3ef32cce	0.4749512
146	0x3f175ead	0.5912884
147	0x3e3045e7	0.17214166
148	0xbec958d6	-0.3932559
149	0xbeca571e	-0.3951959
150	0xbf63dd6a	-0.89009726
151	0xbe3c4831	-0.18386914
152	0xbf5ea7f0	-0.86975
153	0x3f086279	0.5327526
154	0xbea25b7e	-0.31710428
155	0x3f1ad388	0.6047902
156	0xbdd18813	-0.10231032
157	0xbe9012e7	-0.2813942
158	0xbe5b754f	-0.21431468
159	0x3eef3439	0.4671953
160	0x3f2af3b1	0.66778094
161	0x3e047f49	0.1293918
162	0xbc30d34a	-0.010792563
163	0x3e7b5ef9	0.24547948
164	0xbd989d2a	-0.07451852
165	0x3d2f9324	0.042864934
166	0xbe0e7502	-0.13911822
167	0x3e77e499	0.24208297
168	0x3c87f541	0.016596438
169	0xbf6b7934	-0.91981816
170	0xbdf69df4	-0.12041846
171	0x3f025cc4	0.509228
172	0x3bb6d5d3	0.005579689
173	0xbee9bb66	-0.45650786
174	0x3d25b82c	0.040458843
175	0xbd7e4c6a	-0.062084593
176	0xbef6f5d9	-0.48234442
177	0xbf433eb4	-0.7626755
178	0x3e71b33c	0.23603529
179	0x3d6bf729	0.057608757
180	0xbf04cba8	-0.51873255
181	0xbf2e24da	-0.6802498
182	0xbefd7a2c	-0.49507272
183	0xbf851dae	-1.0399683
184	0xbf8e1143	-1.1099018
185	0xbe5821c1	-0.21106626
186	0xbf2cf2e1	-0.67558104
187	0x3e6abe69	0.22924198
188	0xbed92dea	-0.42417842
189	0xbe4927d2	-0.19644096
190	0xbda3f4bb	-0.08005663
191	0xbefa2fa3	-0.4886447
192	0xbcbf1351	-0.02332464
193	0x3f5115a6	0.8167366
194	0xbdcc523c	-0.099766225
195	0xbf0f9c32	-0.5609771
196	0xbebc5b96	-0.36788625
197	0x3f12e432	0.5737945
198	0xbbe62d92	-0.0070244754
199	0x3e7537af	0.23947023
200	0xbe184e06	-0.14873514
201	0xbf7bd1e5	-0.9836715
202	0xbf1c1e1b	-0.6098344
203	0xbe1272ad	-0.14301558
204	0x3d4b6110	0.049653113
205	0x3df2e2f7	0.11859696
206	0x3f1f6b23	0.6227285
207	0x3f10091a	0.5626389
208	0x3f231011	0.6369639
209	0x3f41d7bb	0.75719804
210	0xbe68b5a1	-0.22725536
211	0xbeac00ad	-0.33594266
212	0xbd1bc861	-0.038032893
213	0xbe284fc3	-0.16436677
214	0xbecf1712	-0.4044729
215	0x3e229bf7	0.15879808
216	0x3ea965a7	0.33085367
217	0x3dd04f7d	0.10171411
218	0xbf2ca8c6	-0.6744503
219	0xbe8afbdd	-0.2714528
220	0xbda3d471	-0.07999504
221	0xbdf83b89	-0.121207304
222	0x3e31261b	0.17299692
223	0x3e8585d7	0.26078674
224	0xbeb8c90a	-0.3609088
225	0x3e6ef541	0.23335744
226	0x3ea8cc7c	0.3296851
227	0x3e5a516e	0.21320125
228	0x3e90f8df	0.28314874
229	0x3ee136a3	0.43986997
230	0xbe8ae5c7	-0.2712843
231	0xbe388f98	-0.18023527
232	0x3e1f5bcd	0.15562363
233	0xbe88f524	-0.26749527
234	0xbe0cd6a7	-0.13753758
235	0xbe251fb5	-0.16125377
236	0xbf4226dc	-0.75840545
237	0xbe71afb6	-0.23602185
238	0x3ea4716d	0.32117787
239	0x3e160f09	0.14654173
240	0xbeccc607	-0.39994833
241	0x3ecc940e	0.39956707
242	0x3debb422	0.11508967
243	0xbb9054c0	-0.0044046342
244	0x3ef1fe80	0.4726448
245	0xbeb941d9	-0.3618305
246	0x3ee50a97	0.44734642
247	0xbf4200bf	-0.7578239
248	0xbd860818	-0.065445125
249	0xbe3c5fe8	-0.1839596
250	0x3da26b40	0.079306126
251	0x3df11f2b	0.11773523
252	0x3eb2258f	0.3479428
253	0xbe06f7f2	-0.13180521
254	0xbeb2f63e	-0.34953493
255	0xbe8a6403	-0.27029428

action_model._continuous_distribution.mu.bias f4 [2]
0	0xbf2e8887	-0.68177074
1	0xbd33d5b8	-0.04390499

action_model._discrete_distribution.branches.0.weight f4 [3, 128]
0	0x3f928ade	1.1448629
1	0x3f6ff3bc	0.93731284
2	0x3f82d5a8	1.0221453
3	0x3f0ca4db	0.5493905
4	0xbf7d7ec2	-0.9902154
5	0xbecc2fec	-0.3988031
6	0x40057574	2.0852938
7	0x3f00cbff	0.50311273
8	0x3e07bdf8	0.13256061
9	0xbd934e2f	-0.07192647
10	0x3ebd7fe7	0.37011644
11	0x3f87be03	1.0604862
12	0x3db55505	0.08854107
13	0xbf0f3c1a	-0.5595108
14	0x3d41f4ce	0.047352605
15	0x3ff51155	1.9145914
16	0x3f8b73da	1.089473
17	0x3f9e97fd	1.2390133
18	0x3ec0de8d	0.37669793
19	0x3fd421e8	1.6572847
20	0x4096dad7	4.714214
21	0x3f473076	0.7780832
22	0xbe088350	-0.13331342
23	0x3e8aff50	0.27147913
24	0x3f91ee58	1.1400862
25	0xbf4ed16a	-0.8078829
26	0x3d9874af	0.07444131
27	0x3fb3d9f5	1.405089
28	0x3f925236	1.1431339
29	0xbecf0e32	-0.40440518
30	0xbfa70e2d	-1.3051201
31	0x3f87ac57	1.0599469
32	0xbe056b6a	-0.13029256
33	0xbe9f0d41	-0.310648
34	0x3ed106a0	0.40825367
35	0xbe653260	-0.22382498
36	0x3f08b708	0.53404284
37	0xbf97d4a2	-1.1861765
38	0x3f281c35	0.6566804
39	0x3f14cd92	0.58126175
40	0x3d2f19c3	0.042749178
41	0x3f01431c	0.50493026
42	0x3f327411	0.69708353
43	0xbe57bd8c	-0.210684
44	0x3f0f5f2c	0.56004596
45	0x3eaf811a	0.34278184
46	0xbfa5db76	-1.2957599
47	0xbe89b1a5	-0.26893345
48	0x3ea7e885	0.32794586
49	0x3f277bb7	0.6542315
50	0xbe488a80	-0.19584084
51	0x3ecaf0bf	0.396368
52	0x3f45bd7b	0.7724225
53	0x3ef5f467	0.48038027
54	0x3fb2dc17	1.3973416
55	0x3f4095ff	0.75228876
56	0xbdceca85	-0.10097221
57	0x3faecd69	1.3656436
58	0xbe2d8dc9	-0.16948618
59	0xbe2f4ab4	-0.1711834
60	0x3f9021a4	1.1260266
61	0x3f177d93	0.59175986
62	0x3ef2c13c	0.4741305
63	0xbe7cd486	-0.24690446
64	0xbe2caf05	-0.1686364
65	0x3eba8713	0.36431178
66	0xbf067938	-0.52528715
67	0x3f675b89	0.90374047
68	0x3ede6f4f	0.43444297
69	0xbeb78363	-0.35842428
70	0x3f1641f0	0.5869436
71	0x3d10379a	0.035209276
72	0x3f038b3f	0.5138435
73	0xc02ccc4a	-2.6999688
74	0x3fbedcf2	1.4911177
75	0x3f3ccb7d	0.73748
76	0x3d366dd9	0.044538353
77	0xbf0cc312	-0.54985154
78	0x3f1822e9	0.5942827
79	0xbeb1070f	-0.34575698
80	0xbf211634	-0.62924504
81	0x3f3a34c3	0.7273676
82	0x3c2f6fb0	0.010707781
83	0xbeb215a6	-0.3478214
84	0xbe54640c	-0.2074129
85	0xbf8017ca	-1.000726
86	0x3ccf84db	0.025331905
87	0xbe9a8c45	-0.30185142
88	0xbec3efe6	-0.38268965
89	0x3fc73929	1.5564319
90	0x3d405331	0.046954338
91	0x3e811942	0.25214583
92	0x3f8c2648	1.0949183
93	0xbe0dfcae	-0.13865921
94	0x40161982	2.3453069
95	0xbe139ccd	-0.14415284
96	0x3e32ba65	0.17453916
97	0xbef704ad	-0.48245755
98	0x3fa5f238	1.2964544
99	0x3ef7f888	0.48431802
100	0x3edd9737	0.4327943
101	0x3e308b1e	0.17240569
102	0x3f0010fe	0.5002593
103	0x3f516366	0.81792295
104	0x3e901b2b	0.28145728
105	0x3f22d25e	0.63602245
106	0x3f1a6f75	0.6032632
107	0xc02389c3	-2.5552833
108	0x3e68feed	0.22753496
109	0x3f814b23	1.0101055
110	0xbfc9e2e7	-1.577237
111	0xbe5a5e8e	-0.21325132
112	0x3f3779fc	0.7167051
113	0xbee34b9d	-0.44393626
114	0x3d8eb55b	0.069681846
115	0x3f8a1b47	1.0789574
116	0xbe492d3c	-0.19646162
117	0x3fb73aef	1.431486
118	0xbcbef442	-0.02330983
119	0xbe8966d8	-0.26836276
120	0x3ea295b2	0.31754833
121	0x3f1fee72	0.62473214
122	0xbeb61f1b	-0.35570607
123	0x3db21ac4	0.086965114
124	0xbef8cce0	-0.48593807
125	0x3e8f1673	0.27946815
126	0x3f241756	0.6409811
127	0xbe8c129f	-0.27357957
128	0xbf3e31c3	-0.7429468
129	0xbfe480fa	-1.785186
130	0x3feeba1a	1.8650544
131	0xbf697767	-0.9119782
132	0x3e8d64fb	0.27616104
133	0x3ec1a7d7	0.37823364
134	0x3f6cdeea	0.9252764
135	0x3e048fab	0.1294543
136	0xbc701814	-0.014654178
137	0xbd568cc4	-0.05238034
138	0x3d5b452f	0.053532775
139	0xbf5adafa	-0.8549038
140	0xbfce5b7d	-1.612167
141	0xbd8c4fd4	-0.068511635
142	0xbdb4bceb	-0.08825096
143	0x3f72ae22	0.94796956
144	0xbf339f20	-0.7016468
145	0xbfd9deac	-1.7021079
146	0xbd2f91cc	-0.042863652
147	0xbf34bd57	-0.7060141
148	0x40807825	4.014666
149	0xbf7e1b3c	-0.99260306
150	0xbf8b3e39	-1.0878364
151	0xbf67d56e	-0.9056004
152	0x3f439d27	0.7641167
153	0x3f7c4ab9	0.9855152
154	0xbfbcea53	-1.475901
155	0xbac4d9e3	-0.0015018549
156	0xbf88e5f2	-1.0695174
157	0xbf5ccb21	-0.8624745
158	0xbf599d9e	-0.8500613
159	0x3f9524d8	1.1651869
160	0x3f0882c7	0.5332455
161	0xbd8e1de9	-0.06939299
162	0xbfba9850	-1.4577732
163	0xbfab124e	-1.3364961
164	0xbf87f26a	-1.0620854
165	0xc05b482e	-3.4262805
166	0xc0137a16	-2.3043265
167	0x3c86d393	0.016458308
168	0xbea91c15	-0.33029237
169	0xc005ff8e	-2.0937228
170	0xbfa3467f	-1.2755889
171	0xbd101ada	-0.035181858
172	0x3f3626d5	0.71153
173	0xbfb441cf	-1.4082583
174	0xbfad2b80	-1.35289
175	0x3c8afb98	0.016965672
176	0x3f5eeecd	0.8708313
177	0xbf30f55b	-0.6912438
178	0x3f50c74b	0.81554097
179	0x3d982917	0.07429712
180	0xbf0f2667	-0.5591797
181	0xbe2f8c75	-0.17143424
182	0xbf631dfc	-0.8871763
183	0xbfd2d213	-1.647036
184	0xbf828693	-1.0197319
185	0xbf7c7084	-0.98609185
186	0x3fcceaa8	1.6009111
187	0x3f29c96d	0.66322976
188	0xbf44015b	-0.7656457
189	0xbfbe6f0b	-1.4877638
190	0xc00cf83a	-2.2026505
191	0xbfc1009e	-1.5078313
192	0xbf1ab624	-0.60434175
193	0x3f16e0c8	0.5893674
194	0xbe7e3320	-0.2482419
195	0xbf5d5722	-0.8646108
196	0xbfc51ccb	-1.5399412
197	0x3f475e6f	0.7787847
198	0x3f22c7ab	0.6358592
199	0xbf931570	-1.1490917
200	0xbf52ad2e	-0.822955
201	0x3da6650d	0.08124743
202	0xc000f494	-2.0149279
203	0xbd9b8e40	-0.075954914
204	0xbf318014	-0.69336057
205	0x3ea7b0ab	0.32751974
206	0xbe9ec5bd	-0.31010237
207	0x3ea7a49e	0.3274278
208	0xbe213af4	-0.15745145
209	0xbf9fc393	-1.248156
210	0xbf3d42e4	-0.7393019
211	0x3e697e36	0.22802052
212	0x3f5ceeb8	0.86301756
213	0xbef8d469	-0.48599556
214	0xbf937417	-1.1519803
215	0xbf6b8b05	-0.92009
216	0xbee18dfb	-0.44053635
217	0xbfd02ffe	-1.6264646
218	0xbdcf4bb9	-0.10121865
219	0xbf8a2f12	-1.0795615
220	0xbe0e426d	-0.13892527
221	0x3c7cad00	0.015422106
222	0x3fa5e5d9	1.2960769
223	0xbf964548	-1.1739893
224	0xbfa425bf	-1.2824019
225	0xbd5b27f5	-0.053504903
226	0x3f2cd3a2	0.67510426
227	0xbf8cb183	-1.0991672
228	0x3e9891a9	0.2979863
229	0xbed85ab8	-0.42256713
230	0xbfade279	-1.3584739
231	0xbf56f832	-0.83972466
232	0x3d858ab8	0.06520599
233	0xbfcad330	-1.5845699
234	0x3f372080	0.71533966
235	0x3eaa0135	0.33204046
236	0x3eee70b5	0.46570364
237	0xbf2f71d8	-0.68533087
238	0x4017527a	2.364409
239	0xbf9af5d5	-1.2106272
240	0x3f20a4f3	0.6275169
241	0x3f942541	1.1573869
242	0xbeae7f16	-0.34081334
243	0xbe5b5222	-0.2141805
244	0xbea19537	-0.31559154
245	0xc03596ef	-2.8373373
246	0x3f3b172b	0.73082227
247	0xbf456f3f	-0.77122873
248	0xbfb69ba6	-1.426625
249	0x3fa656fb	1.2995294
250	0x3eead9f1	0.458694
251	0xbe6ec427	-0.23317014
252	0xbea003bd	-0.31252852
253	0x3fdc6228	1.7217455
254	0xbdce7e3b	-0.1008267
255	0xbef60f74	-0.48058665

action_model._discrete_distribution.branches.0.bias f4 [3]
0	0xc00fc11f	-2.2461622
1	0xbf83f531	-1.0309201
2	0x4039f0b2	2.9053159

action_model._discrete_distribution.branches.1.weight f4 [3, 128]
0	0x3f5d8307	0.86528057
1	0xbefd9945	-0.49530998
2	0x3fb018e7	1.37576
3	0xbe90302c	-0.28161752
4	0x3ee6cb40	0.45076942
5	0x3eceee5b	0.40416226
6	0x3fd3b49a	1.653949
7	0x3f6182a1	0.8808995
8	0xbfadf757	-1.3591107
9	0x3ca8df10	0.020614177
10	0xbe326531	-0.17421414
11	0xbe9b7b09	-0.30367306
12	0x3dbfe5c4	0.09369996
13	0x3f4a75f8	0.79086256
14	0x3f6e757e	0.9314803
15	0x401a303e	2.4091945
16	0xbf0b4bfc	-0.5441282
17	0xbfb21897	-1.3913754
18	0xbd80fd02	-0.062982574
19	0x4062909c	3.5400763
20	0x4022675e	2.537559
21	0x3f91cbaa	1.1390278
22	0xbf7e0bf5	-0.99236995
23	0x3ee20903	0.441475
24	0x3fd94e43	1.6977009
25	0xbf393883	-0.72351855
26	0x3f0fdaa6	0.56193006
27	0x3ffa6dab	1.9564718
28	0x3ea1736d	0.31533375
29	0x3f0c0e7f	0.5470962
30	0xbe5b7d88	-0.21434605
31	0x4025f71c	2.5932074
32	0xbfb6d581	-1.4283906
33	0xbf871a5a	-1.0554917
34	0xc016b05a	-2.3545136
35	0x3da4d6f9	0.08048815
36	0x3e218b02	0.15775684
37	0xc07c23c6	-3.9396834
38	0x3e1164e7	0.14198647
39	0x3f1eb46e	0.61994064
40	0x3fb54e51	1.4164525
41	0xbd63a743	-0.055579435
42	0x3ee3f8d2	0.44525772
43	0xbf8bbc7d	-1.0916897
44	0xbf7797fb	-0.9671628
45	0x3f54606d	0.82959634
46	0x3f73a4da	0.9517342
47	0x3f906e31	1.1283628
48	0x3d0216ad	0.031759907
49	0x3f0256ff	0.50913996
50	0xbf2e8cfc	-0.68183875
51	0xbebd9912	-0.37030846
52	0xbef7f493	-0.48428783
53	0x3f406670	0.7515631
54	0xbf8cfe2e	-1.101507
55	0x3e2028b6	0.1564053
56	0xbfce1b12	-1.6102011
57	0xbf2ec96f	-0.68276113
58	0x3dcab640	0.09898043
59	0xbe30ff9c	-0.17285007
60	0x3eed04d2	0.4629274
61	0xbf1a6f9a	-0.6032654
62	0x3ecebac1	0.40376857
63	0xbd369cef	-0.044583257
64	0x3e118e6f	0.1421449
65	0xbe682d12	-0.22673443
66	0x3f2b0903	0.66810626
67	0xbf0d9a45	-0.5531352
68	0x3f34869d	0.70517904
69	0xbf4f24c3	-0.8091547
70	0xbf676c8f	-0.9040002
71	0x3f71e08c	0.94483256
72	0x3ea13928	0.3148892
73	0x3e8e7cc1	0.27829555
74	0x401333eb	2.3000438
75	0x40391914	2.8921556
76	0x40631560	3.5481796
77	0x3f59d8e7	0.8509659
78	0xbe9fec25	-0.3123485
79	0xbf61552a	-0.88020575
80	0xbf8d5c44	-1.1043782
81	0xbebd65b1	-0.36991647
82	0x3ec75388	0.38930917
83	0xbf12caee	-0.57340896
84	0x3df02543	0.11725857
85	0x3f244178	0.641624
86	0x3dfc75d1	0.12327159
87	0xbe8ef10c	-0.2791828
88	0x3f943f23	1.1581768
89	0xbe20e116	-0.15710863
90	0xbec10a9a	-0.377034
91	0x3e2b907a	0.16754332
92	0xbea97a83	-0.33101282
93	0x3eda78da	0.42670327
94	0x400e6ec0	2.2255096
95	0xbebab022	-0.36462504
96	0xbca50d5d	-0.020147974
97	0x3f89786a	1.0739872
98	0x3f034ac4	0.5128596
99	0xbc7c4f44	-0.015399758
100	0xbfe3385f	-1.7751578
101	0xbf834d45	-1.0257956
102	0xbe6d641d	-0.23182721
103	0x3fd4dbb9	1.6629554
104	0xbe02dbc0	-0.1277914
105	0x3ec9edcd	0.3943924
106	0x4003c315	2.0587819
107	0xc0510b45	-3.2663128
108	0x3f4e452b	0.8057429
109	0x40072956	2.111898
110	0x3f1fb3d8	0.62383795
111	0xbf084573	-0.5323097
112	0x4019c101	2.402405
113	0x3ddedd40	0.10882044
114	0x3e28c832	0.16482618
115	0xc0645d34	-3.5681887
116	0x40731032	3.7978635
117	0x401054a1	2.2551653
118	0xbdf7ddd1	-0.12102855
119	0xbf18f38c	-0.59746623
120	0xbfc9256d	-1.5714546
121	0x3eec3d6f	0.4614062
122	0x3dcbd1d1	0.09952129
123	0xbf0bc31e	-0.545946
124	0x3f27483b	0.6534459
125	0xbf2a35f4	-0.66488576
126	0xbf6cde15	-0.9252637
127	0xc01a2d5f	-2.4090192
128	0xbeb23478	-0.34805655
129	0x3e63ad0a	0.22233978
130	0xbdcdd479	-0.100502916
131	0xbd897c53	-0.06713166
132	0x3f2339a6	0.6375984
133	0xbebf8fee	-0.37414497
134	0x3ecd24f5	0.40067258
135	0x3de99e95	0.114072
136	0xbf853a2c	-1.0408378
137	0xbe97d1aa	-0.29652148
138	0xbf46c34a	-0.7764174
139	0xbe62a18a	-0.22131935
140	0x3e02499f	0.12723397
141	0x3f566ad5	0.8375676
142	0xbf8cf913	-1.1013511
143	0x3d978a73	0.07399454
144	0x3f0f03e2	0.558653
145	0x3fda7826	1.7067916
146	0xbf1a246f	-0.60211843
147	0xbe077d6c	-0.13231438
148	0xc0507569	-3.2571661
149	0xbf8a514b	-1.0806059
150	0x3e04653e	0.12929246
151	0x3e81ee09	0.2537692
152	0x3faff08b	1.3745283
153	0xbd2f9725	-0.042868752
154	0x3fcd9a16	1.6062648
155	0xbf661837	-0.898807
156	0x3d6628cf	0.05619126
157	0xbef2228b	-0.4729198
158	0x3dab0992	0.08351435
159	0xbf6161e1	-0.88039976
160	0x3f80f0c8	1.0073481
161	0xbf212f7d	-0.62963086
162	0xbe8beef7	-0.27330753
163	0xbeba8b46	-0.36434382
164	0xbf218b25	-0.6310294
165	0x3edc7fa3	0.4306613
166	0xbeaf14b0	-0.3419547
167	0xbf89321e	-1.071842
168	0xbed43b93	-0.41451702
169	0x3fad3650	1.35322
170	0x3d56d325	0.052447457
171	0x3f17ac13	0.5924694
172	0x3f507135	0.8142274
173	0x3de07c7a	0.10961242
174	0xbee50c41	-0.4473591
175	0xbde242cf	-0.11047899
176	0xbde5692b	-0.112017
177	0xbf0fa73a	-0.5611454
178	0x3abe5e92	0.0014524034
179	0x3e69d51d	0.22835203
180	0x3ece5a59	0.40303305
181	0x3e4fbd82	0.20287135
182	0x3f331c85	0.6996539
183	0x3ef04bde	0.46932882
184	0x3f82b247	1.0210656
185	0x3d924f29	0.07144005
186	0xbf7838cf	-0.96961683
187	0xbcd26b30	-0.025685877
188	0x3f4d85ba	0.80282176
189	0x3f3d0555	0.7383626
190	0xbe28afb8	-0.16473281
191	0xbf41aa3a	-0.7565037
192	0x4041b9e7	3.0269716
193	0xbeb1f3cc	-0.34756315
194	0xbf0f6339	-0.56010777
195	0x3f153ca2	0.58295643
196	0x3f277042	0.65405667
197	0xbe6eabae	-0.23307678
198	0xbe9eb2f3	-0.30995902
199	0x3e8aaa29	0.27082947
200	0xbeed9796	-0.46404713
201	0xbf64634b	-0.8921401
202	0xbe98170b	-0.2970508
203	0xbd1922fb	-0.037386876
204	0xbf5ecbda	-0.870298
205	0x3f07b59f	0.53011507
206	0x3f13bd94	0.5771115
207	0xbec297a4	-0.38006318
208	0xbed778a2	-0.42084223
209	0xbf84b342	-1.0367205
210	0x3e14f9d1	0.14548422
211	0x3fc10cb0	1.5081997
212	0xbea3d78b	-0.32000384
213	0xbfb78ccb	-1.4339842
214	0xbe799ae0	-0.24375486
215	0x3f693c02	0.9110719
216	0xbfc58c4b	-1.5433439
217	0x3ed8fdcb	0.4238113
218	0x3f07e55c	0.5308435
219	0x3ea7d144	0.32776845
220	0x3f474c24	0.77850556
221	0x3eb7fcf0	0.35935163
222	0x3f80e558	1.006999
223	0xbf025e3f	-0.5092506
224	0xbd8d5f16	-0.06902902
225	0xbe03cb8c	-0.12870616
226	0x3c1eec5d	0.009699908
227	0xbf1a19e2	-0.60195744
228	0x3f8bc843	1.092049
229	0x3f842c0c	1.0325942
230	0x3d2c3fdb	0.042053085
231	0x3d0b5a22	0.034021504
232	0x3fc5586f	1.5417613
233	0x3d942233	0.072330855
234	0x3f8db2ef	1.1070231
235	0x3f048814	0.5177014
236	0x3fd56660	1.6671867
237	0x3b16adaa	0.0022991695
238	0x40366e78	2.8504925
239	0x3dfdeca0	0.12398648
240	0xbcc4c927	-0.024021698
241	0xbf3ba480	-0.7329788
242	0xbf948483	-1.1602939
243	0x3ed17979	0.4091299
244	0x3fce3f94	1.6113153
245	0x3edfb068	0.43689275
246	0x3f71f909	0.9452062
247	0x3e97fd9b	0.29685673
248	0x3ed7dbbe	0.42159837
249	0xbe47071e	-0.19436309
250	0x3f052e7b	0.5202405
251	0x3e0da677	0.13833033
252	0x3f312214	0.69192624
253	0xbe9eb678	-0.30998588
254	0x3ef724fe	0.4827041
255	0x3f8732ed	1.0562416

action_model._discrete_distribution.branches.1.bias f4 [3]
0	0x3d194a87	0.03742459
1	0xbe137336	-0.14399418
2	0x3f3bc238	0.7334323

exp_avg f4 [128, 13]
0	0x3aea8137	0.0017891292
1	0x3a784896	0.00094712654
2	0x3aa24ea9	0.0012383062
3	0xbae6b05f	-0.001760017
4	0x00000000	0.0
5	0xb9f9d57c	-0.0004765204
6	0xb773b979	-1.4527112e-05
7	0x3aaaa35c	0.0013018656
8	0x3a92772c	0.0011174432
9	0xbaed80d7	-0.0018120062
10	0x3ac32c1d	0.0014890466
11	0xba126294	-0.00055841473
12	0x3a707bf5	0.00091737445
13	0xba702cfd	-0.0009161977
14	0x3aa0036c	0.0012208051
15	0x3a9fcc1c	0.0012191567
16	0xba46a4e5	-0.0007577672
17	0x00000000	0.0
18	0xb9cdece4	-0.00039277144
19	0x38d448ce	0.00010122509
20	0x395e2ec7	0.00021188996
21	0x39743acc	0.00023291557
22	0xba649c3f	-0.0008720792
23	0x3a80afcf	0.000981802
24	0xb9555714	-0.00020345702
25	0xb9359aba	-0.00017319145
26	0x38aaa4fb	8.136962e-05
27	0xb8af9c34	-8.3737454e-05
28	0xb88ee1f7	-6.813177e-05
29	0xb82f56f8	-4.1804247e-05
30	0x00000000	0.0
31	0x3943e3d8	0.00018681528
32	0xb90078fe	-0.00012252104
33	0xb936ed30	-0.00017445232
34	0xb9a22cdf	-0.0003093248
35	0x39358ed8	0.00017314719
36	0xb8969218	-7.1797695e-05
37	0x39cb942e	0.0003882958
38	0xb921b7c3	-0.00015422613
39	0xb774556e	-1.4563424e-05
40	0xb89da122	-7.516357e-05
41	0xb8af80fa	-8.368674e-05
42	0xb7d380e6	-2.5213183e-05
43	0x00000000	0.0
44	0x392049e2	0.00015286313
45	0x37d05135	2.4833347e-05
46	0xb8ef7121	-0.0001141748
47	0xb8d8e77b	-0.00010342799
48	0x38c98225	9.608668e-05
49	0xb8c686c2	-9.466476e-05
50	0x38747728	5.8285106e-05
51	0xb9898514	-0.00026229827
52	0x372a394b	1.0146129e-05
53	0xb7f4b012	-2.9169056e-05
54	0xb7af40ea	-2.0891854e-05
55	0x3906324b	0.00012797971
56	0x00000000	0.0
57	0xb8530db1	-5.031907e-05
58	0xb90241a7	-0.00012422224
59	0xb8c867a9	-9.5560514e-05
60	0x398edbba	0.0002724806
61	0x39835751	0.00025051323
62	0x3871ae4c	5.7621204e-05
63	0x38a147d6	7.690459e-05
64	0xb883449c	-6.259346e-05
65	0x38c4ddbc	9.3873095e-05
66	0xb7ebd0b0	-2.811136e-05
67	0xb622a0c7	-2.4233466e-06
68	0x3910c690	0.0001380688
69	0x00000000	0.0
70	0xb8b13100	-8.449145e-05
71	0xb950e897	-0.00019923072
72	0x3954b26a	0.0002028436
73	0x388d6071	6.7413675e-05
74	0x394a1cef	0.00019275
75	0x39334015	0.00017094643
76	0xb923aea6	-0.00015609953
77	0x3880c42a	6.140054e-05
78	0xb8b9e481	-8.8640496e-05
79	0xb80a98ed	-3.3044187e-05
80	0xb8448ec9	-4.686302e-05
81	0x388c0346	6.67633e-05
82	0x00000000	0.0
83	0xb955ea31	-0.00020400506
84	0x38267ef9	3.9695737e-05
85	0x38ac0c34	8.203872e-05
86	0x3918eed0	0.00014584814
87	0x37bb19b7	2.2304112e-05
88	0xb8eaeb79	-0.0001120185
89	0xb90d64f6	-0.00013484419
90	0x38d4ec89	0.00010153006
91	0x3a6e62ee	0.0009093721
92	0x39daf0dc	0.00041759654
93	0x3a134923	0.0005618503
94	0xba28793c	-0.0006426757
95	0x00000000	0.0
96	0xb9b0122d	-0.00033582878
97	0xb8d00f8c	-9.921109e-05
98	0x39cae1f6	0.00038696796
99	0x39a9807c	0.0003232992
100	0xba1e2bd0	-0.000603375
101	0x3a494795	0.0007678208
102	0xb93cedfc	-0.00018017733
103	0x3983e4c1	0.00025156702
104	0xb904c59c	-0.00012662116
105	0xb6a6a036	-4.9658365e-06
106	0xb7585f7b	-1.2896834e-05
107	0xb9479ead	-0.0001903723
108	0x00000000	0.0
109	0x368f7f6d	4.2765664e-06
110	0xb8172c6b	-3.6042573e-05
111	0x357550bf	9.1387113e-07
112	0xb9aef0ba	-0.00033367221
113	0x37cdd602	2.453756e-05
114	0x3934c6e3	0.00017240229
115	0x39b688ff	0.00034815815
116	0xb7eba42a	-2.8090628e-05
117	0xb80d4847	-3.3684333e-05
118	0xb959fee8	-0.00020789693
119	0xb9486748	-0.00019111962
120	0x38c940b0	9.596476e-05
121	0x00000000	0.0
122	0x391f6431	0.00015200746
123	0xb87e811f	-6.0678572e-05
124	0xb908c964	-0.00013044995
125	0xb909ee5e	-0.00013154137
126	0x38839b1b	6.2754574e-05
127	0xb97fa342	-0.00024379513
128	0x3912a30e	0.00013984388
129	0xb8a88b5d	-8.036823e-05
130	0xb962e78d	-0.00021639299
131	0x39ac9ce8	0.000329233
132	0x39a907c1	0.0003223997
133	0xba31a08f	-0.0006775939
134	0x00000000	0.0
135	0x3987100f	0.0002576117
136	0x39314216	0.00016904654
137	0xba9d1027	-0.0011982963
138	0xba064751	-0.00051223213
139	0xb7bef7fd	-2.2765244e-05
140	0xb8e3f8dc	-0.00010870557
141	0xb78e5fe4	-1.6972372e-05
142	0xbab48f1c	-0.001377556
143	0xb8234f0d	-3.893585e-05
144	0x38bfbbc9	9.1425674e-05
145	0x38aa43e8	8.11888e-05
146	0x38ece76e	0.00011296464
147	0x00000000	0.0
148	0xb9da2d13	-0.00041613783
149	0x390ebc87	0.00013612407
150	0x39470c20	0.00018982636
151	0x396bae68	0.00022476318
152	0xb9176288	-0.00014437188
153	0x39130867	0.00014022143
154	0xb9ccc43f	-0.00039056127
155	0x3924b804	0.0001570881
156	0x399f6510	0.0003040214
157	0x390ccec2	0.00013428464
158	0x394fd12f	0.00019818985
159	0xb9f8c558	-0.0004744928
160	0x00000000	0.0
161	0x39014c3c	0.00012330798
162	0xb7fd6480	-3.020675e-05
163	0x3943a2f8	0.0001865736
164	0xb92de4a0	-0.00016583735
165	0xb98962ac	-0.00026204193
166	0x3993ba68	0.00028176908
167	0xb8e0f4d7	-0.00010726757
168	0x399201cf	0.00027848638
169	0xb92cc48c	-0.00016476418
170	0x37abaaf9	2.0464404e-05
171	0xb73c5d9a	-1.12274665e-05
172	0x38c95dce	9.6018994e-05
173	0x00000000	0.0
174	0xb8b72363	-8.732711e-05
175	0x39309f1b	0.0001684394
176	0x3867d98c	5.5277298e-05
177	0x382cb231	4.117395e-05
178	0xb8af6a3a	-8.3644365e-05
179	0xb81322e8	-3.508004e-05
180	0xb9358ffd	-0.00017315145
181	0xb7d943ec	-2.5900044e-05
182	0xb9055921	-0.00012717072
183	0x39b506b1	0.00034527996
184	0x39a75955	0.0003191928
185	0xba40aec3	-0.000735026
186	0x00000000	0.0
187	0x389f69c3	7.6014105e-05
188	0x39f9dc08	0.00047656917
189	0xb99c3054	-0.00029790646
190	0xba011f9d	-0.000492567
191	0xba2e0566	-0.00066383777
192	0x393c8731	0.0001797944
193	0x39788128	0.00023699237
194	0xba25de30	-0.0006327359
195	0x38ab7f8f	8.177675e-05
196	0xb9b6daee	-0.0003487686
197	0xb9aea446	-0.0003331026
198	0xb9712c31	-0.00023000014
199	0x00000000	0.0
200	0x3a635ee7	0.00086735043
201	0x38c4cb38	9.383861e-05
202	0xba0ec89a	-0.0005446762
203	0xba3359bf	-0.00068416813
204	0x378f9eb4	1.712083e-05
205	0xba267cad	-0.00063509756
206	0x38177c5c	3.6117024e-05
207	0xb9fe9e5e	-0.00048564648
208	0x3920aa04	0.00015322125
209	0x37eca082	2.8208135e-05
210	0x3880a1a6	6.133625e-05
211	0xb74c8a16	-1.2191498e-05
212	0x00000000	0.0
213	0xb8c28fa8	-9.277399e-05
214	0xb9211f6b	-0.0001536586
215	0xb85e1ff6	-5.295869e-05
216	0x38603916	5.3458927e-05
217	0x38fdaa59	0.0001209571
218	0x3937c0bc	0.00017524039
219	0x38ecd509	0.00011293038
220	0x3901fd99	0.00012396871
221	0x39f0fdf7	0.00045965586
222	0xba1fc8fd	-0.0006095318
223	0xba1d8a7b	-0.000600971
224	0x3907a3ab	0.00012935574
225	0x00000000	0.0
226	0x3a070ab6	0.00051514374
227	0x35c8d4bc	1.4963075e-06
228	0xb9c6b26c	-0.00037898438
229	0xb9a6408f	-0.00031710087
230	0x391fb880	0.00015232153
231	0xba40c2eb	-0.0007353264
232	0x38813445	6.160935e-05
233	0xb951873f	-0.00019982176
234	0x3a11a72c	0.00055562216
235	0xbb419290	-0.002953682
236	0xbb4a72ce	-0.0030891183
237	0x3acb1f35	0.0015496971
238	0x00000000	0.0
239	0x3b4cb34a	0.0031234794
240	0xba7e6a8f	-0.00097052095
241	0xbb345f9c	-0.0027522808
242	0xbb85cf78	-0.00408357
243	0x3b5ac24e	0.0033379975
244	0xbb7d3736	-0.0038637645
245	0x3af2faff	0.0018537937
246	0xbb056cf0	-0.0020359121
247	0x391635d9	0.00014325175
248	0xb9ef61ac	-0.00045658404
249	0xba028076	-0.00049782486
250	0x3a189e7c	0.0005821956
251	0x00000000	0.0
252	0x399b3549	0.00029603604
253	0x3984348b	0.0002521615
254	0xb9d0326b	-0.00039710416
255	0xb9811214	-0.00024618267
