results/maxAgent1/My Behavior/My Behavior-3499996.onnx (onnx, 81381 bytes, 14 tensors)

77 f4 [13]
000000 ab 50 80 43 93 2a 6d 43 13 b2 8a 43 0f c6 1c 44
       256.63022 237.1663 277.3912 627.09467
000010 36 1f 0c 3a af e7 09 44 92 46 94 43 01 4b 05 44
       0.0005345227 551.62006 296.55133 533.17194
000020 e2 af 21 44 fe 63 1b 43 ba e1 0a 43 c5 68 9f 43
       646.74817 155.3906 138.88174 318.8185
000030 7a a4 9b 43
       311.28497

action_model._continuous_distribution.log_sigma f4 [1, 2]
000000 6a ad c1 bf df d9 f4 bf
       -1.5131047 -1.9128989

action_model._continuous_distribution.mu.bias f4 [2]
000000 ed 94 27 bf 0e c6 1e bd
       -0.6546162 -0.0387631

action_model._continuous_distribution.mu.weight f4 [2, 128]
000000 49 b4 d4 be e4 fb 17 bf 28 1a 72 be d1 c6 0c bf
       -0.41543797 -0.5936873 -0.2364279 -0.5499087
000010 b6 98 8e 3d 95 c8 e7 be 79 f1 bf 3b 57 95 a5 be
       0.06962721 -0.4527022 0.005857643 -0.323405
000020 48 cf 09 3f eb 49 02 bf 4f f4 cf be ff d3 b0 3d
       0.5383191 -0.5089404 -0.4061608 0.08634185
000030 f6 9a 1d bf 66 68 63 bf 3d 23 be be ac c5 3a 3d
       -0.61564577 -0.88831174 -0.3713626 0.04559867
000040 26 c6 cc be ac 34 1a 3e 7f cc 31 3f 55 ce 7e be
       -0.39994925 0.15059155 0.6945266 -0.24883397
000050 33 f1 22 be d7 09 cc be 19 de 87 be 20 3f c5 be
       -0.15912323 -0.39851257 -0.26536635 -0.38524723
000060 8d 06 d8 be 16 3e ef 3e e4 d3 2c 3e 51 6d 7d be
       -0.42192498 0.46727055 0.16877705 -0.24748732
000070 cb ef 76 be 09 83 59 bf 84 54 94 3e 7a e3 3a be
       -0.24114911 -0.8496557 0.2897073 -0.18250838
000080 1b 4a 2c 3d ca 4b 1f 3f f7 b3 85 bd 45 2c 02 bf
       0.04206286 0.6222502 -0.06528466 -0.508488
000090 9c 6f d8 be 2a fc f7 bc 8f 5f 43 bf e1 71 ad 3e
       -0.4227265 -0.030271608 -0.76317686 0.33875945
0000a0 83 2e 49 3e 8d 99 46 bf 15 6b 89 3e 9d 2a a9 3d
       0.19646649 -0.7757805 0.2683951 0.08260081
0000b0 0b 4a 9c be ae 62 e7 be 90 e1 b3 3d f2 ae 9c bd
       -0.3052524 -0.45192474 0.08783257 -0.07650556
0000c0 0a 2b 29 bf 5f e8 d1 3e 5b 22 bf 3e 32 2f fd 3e
       -0.660813 0.40997598 0.373309 0.4945007
0000d0 68 29 b3 be d7 06 4b bf 01 e1 dc be e8 a0 1f bf
       -0.34992528 -0.7930731 -0.43140414 -0.623549
0000e0 6e 39 b9 be 3e f3 5f 3e 13 8c a3 be 67 f2 b9 3e
       -0.36176628 0.21870133 -0.31942806 0.3631775
0000f0 eb 3a c7 be ba 69 2d bf 19 19 57 be ef 54 00 bf
       -0.38912138 -0.6773945 -0.21005668 -0.501296
000100 01 79 52 bd fc 2d 02 3c d9 9e 28 bf aa ce 55 be
       -0.05138493 0.007945534 -0.6586738 -0.20879617
000110 cc c7 17 bf 09 b8 53 3e ca 59 71 be c0 0a c1 be
       -0.5928924 0.20675673 -0.23569408 -0.37703514
000120 24 db 88 be c8 39 df 3d 82 4f ae be 3f ea fc bd
       -0.2672969 0.10899693 -0.34045035 -0.123493664
000130 92 0c 6a 3e 03 c6 c6 3c d0 03 3d 3e fe 42 de 3c
       0.22856358 0.024264341 0.18458486 0.027131554
000140 30 2e e4 3e bf c0 c7 3e d4 3d a9 be a6 56 dc bd
       0.44566488 0.3901424 -0.33054984 -0.107587144
000150 32 db 8b bd b2 cb 41 bd ce 57 26 bf e9 d6 60 3e
       -0.068289176 -0.0473134 -0.6497773 0.21956982
000160 ea bb 34 be 8f fa ce be bd 25 f8 be a8 1c c6 be
       -0.17649809 -0.40425536 -0.48466292 -0.38693738
000170 33 1a dd be 1a 1d c5 3e b9 9e 6d 3e 7f 23 4c be
       -0.4318405 0.38498765 0.23205079 -0.19935416
000180 9c 61 31 bf 9c 61 bd bd 1f 6f 82 be c5 42 95 3c
       -0.69289565 -0.09247133 -0.25475404 0.018220315
000190 b4 20 24 bc 26 99 fa 3e cc a5 30 bf d4 a0 71 bf
       -0.010017563 0.48944968 -0.69002986 -0.9438603
0001a0 91 44 06 bf 0f cc 21 bf c2 b5 8a be 79 ea c2 bb
       -0.52448374 -0.63201994 -0.27091795 -0.0059483615
0001b0 20 7b ed be 84 ee 18 bf 3d 34 d4 3d 4a a9 8e be
       -0.46383 -0.59738946 0.10361526 -0.27863532
0001c0 aa a8 0c bf 42 1d 2e 3f ec a1 82 bc 5c bb 10 3d
       -0.5494486 0.68013394 -0.015946351 0.03533493
0001d0 e0 90 85 3d f5 65 c4 be ea 59 12 3e 71 ae f8 be
       0.06521773 -0.38359037 0.14292112 -0.48570588
0001e0 c9 ea f1 be 11 7e 94 be 66 1b 35 3f 5a 1a 15 3f
       -0.4724944 -0.2900243 0.7074493 0.58243334
0001f0 cd 5a b0 be 84 da b6 3a fd 5f c1 be 48 d5 94 be
       -0.34444275 0.0013950621 -0.37768546 -0.2906897
000200 83 a8 9e 3e bd ca c8 be 3e 49 95 be 77 b8 49 3d
       0.3098794 -0.39217177 -0.29157442 0.049248185
000210 75 72 29 bf 21 1a c7 be db 96 71 bc 47 53 aa be
       -0.6619027 -0.38887122 -0.014745439 -0.3326666
000220 f6 5c 9d 3e bb 5b 6b bf bb 52 81 bf b4 be de 3e
       0.30734986 -0.91936845 -1.0103372 0.4350487
000230 90 9a 28 be 81 93 d9 be 4f 03 54 bd 91 71 09 3d
       -0.16465211 -0.4249535 -0.051760968 0.03355557
000240 18 f7 94 3d 41 b0 ed 3e 17 26 11 3f 09 8c 00 3e
       0.07273692 0.46423534 0.56698745 0.12553419
000250 b7 b9 d2 be c3 90 ee be 4b ee 74 bf 13 f7 53 be
       -0.41157314 -0.4659482 -0.95676106 -0.2069972
000260 ff 51 72 bf d5 2f fd 3e aa f6 bb bd fc f1 1d 3f
       -0.94656366 0.49450555 -0.09177907 0.61697364
000270 6f 1f 0a be 4d d4 a8 be 85 96 8b be 1a d7 09 3f
       -0.13488553 -0.32974473 -0.27263275 0.53843844
000280 95 a2 17 3f a7 af f3 3d b4 ff 9a 3c d4 57 7c 3e
       0.59232455 0.118987374 0.018920757 0.24642879
000290 0e 01 23 be 9b 46 b5 bc 85 f8 3c be d8 10 51 3e
       -0.15918371 -0.022128394 -0.18454178 0.20416582
0002a0 f3 2a d1 b9 7c 4d 76 bf de 3a 3e be 9d 04 e2 3e
       -0.00039895586 -0.9621198 -0.18577144 0.44144145
0002b0 8c 28 85 3d 81 d7 ef be 5b 6b 38 bc cf 04 7b bd
       0.06501874 -0.46844104 -0.011256064 -0.061283883
0002c0 75 98 ce be be c4 57 bf 23 f2 50 3e 66 88 2c 3e
       -0.4035069 -0.8428458 0.20404868 0.16848907
0002d0 86 38 04 bf af 1d 2c bf f7 52 e6 be 1c a1 91 bf
       -0.5164875 -0.67232794 -0.44985172 -1.1377292
0002e0 91 db 92 bf 12 7f a2 bd ce b7 3c bf 71 6f 86 3e
       -1.1473256 -0.07934393 -0.73717964 0.26256898
0002f0 33 86 f6 be 78 52 43 be ad 4a ff bd 6d d0 0e bf
       -0.4814926 -0.19074428 -0.12465415 -0.5578678
000300 e0 1f b8 bb 7d 42 5d 3f 5f 99 54 be 70 14 17 bf
       -0.005619034 0.8642958 -0.20761631 -0.5901556
000310 e9 de d8 be eb 06 06 3f 36 09 0a bd dc d2 0f 3e
       -0.42357567 0.52354306 -0.03370019 0.1404528
000320 02 49 67 be 38 5b 8f bf 95 61 26 bf 97 07 4f be
       -0.22586444 -1.1199713 -0.6499265 -0.20217739
000330 c2 e7 3e 3e a5 04 6f 3d a2 d2 02 3f fa 2c f2 3e
       0.18643096 0.05835404 0.5110265 0.4729994
000340 f7 09 10 3f fc 78 38 3f 06 86 a6 be a9 be e2 be
       0.56265205 0.7205961 -0.32524127 -0.44286087
000350 76 de c3 bd 69 3b 76 be b9 22 01 bf 4b 42 8c bd
       -0.095639154 -0.240461 -0.5044361 -0.06848582
000360 9a 7a 9a 3e ba 8e 89 3d c7 b6 1e bf fc 9d ab be
       0.30171663 0.06716676 -0.61997646 -0.3351897
000370 d4 b3 97 bc 94 61 54 be 67 2e 80 3e 20 8f 45 3e
       -0.018518366 -0.20740348 0.25035402 0.19292879
000380 03 dc dc be ab 83 20 3e 4e 6f 9f 3e 8e df 88 3e
       -0.43136606 0.15675227 0.31139606 0.2673306
000390 7d 14 a2 3e df 3b b4 3e 13 d7 78 be 5f 68 20 be
       0.31656256 0.35201928 -0.24300794 -0.15664814
0003a0 89 64 38 3e b8 bc 8f be 44 7d 02 be 42 b9 ba bd
       0.18007101 -0.28073668 -0.12743098 -0.091173664
0003b0 14 6c 5b bf c8 d3 8c be 23 53 a0 3e 52 0e f3 3d
       -0.8571179 -0.27505326 0.31313428 0.11867966
0003c0 e3 98 f2 be 33 ff c9 3e 0f f7 98 3d f1 4b ed 3c
       -0.47382268 0.39452514 0.07468998 0.028966876
0003d0 4f 36 fa 3e 1f 13 33 be dd d8 0f 3f ae f6 47 bf
       0.4886956 -0.17487763 0.5619028 -0.7811078
0003e0 ed bb 4e bd b7 f0 79 be b3 26 cc 3c c2 fc a9 3d
       -0.05047219 -0.24408232 0.024920797 0.08300163
0003f0 e2 c0 a6 3e 33 12 e7 bd ef 89 d3 be 71 37 86 be
       0.32569033 -0.11282768 -0.41316172 -0.26214173

action_model._discrete_distribution.branches.0.bias f4 [3]
000000 46 1a 1f c0 33 45 51 bf f9 a1 39 40
       -2.4859786 -0.81746215 2.900511

action_model._discrete_distribution.branches.0.weight f4 [3, 128]
000000 f9 ea 8f 3f 0e 38 6d 3f 0a b1 9a 3f 31 60 f7 3e
       1.1243583 0.9266366 1.2085278 0.48315576
000010 b0 4b 5a bf 30 8c d9 be db 63 f8 3f b5 19 dd 3e
       -0.8527174 -0.42489767 1.9405473 0.43183675
000020 40 a8 00 3e 9d 85 cd 3d c6 f7 99 3e 4a 23 87 3f
       0.12564182 0.1003525 0.3007185 1.0557644
000030 c6 d7 3e 3e d7 11 0e bf 95 66 dd 3c b4 f3 c8 3f
       0.18636999 -0.5549597 0.027026454 1.5699372
000040 7a 20 91 3f 9e 9b 94 3f f5 56 ea 3e 79 44 f4 3f
       1.1338036 1.1609991 0.45769468 1.9083396
000050 76 b6 87 40 13 78 3a 3f 2c ab c9 3c 18 85 67 3e
       4.241023 0.7283947 0.024617754 0.22609365
000060 c0 cb 81 3f dc cc 33 bf 5c 2e 1f 3d 9e 04 b9 3f
       1.0140305 -0.70234466 0.03886257 1.4454534
000070 2f e1 a6 3f 70 ce 87 be 55 e1 91 bf d3 c2 a6 3e
       1.303747 -0.26524687 -1.1396891 0.32570514
000080 91 31 9c bd fd d2 5a be fc 17 48 3f 9a 12 71 be
       -0.076266415 -0.21369548 0.781616 -0.23542252
000090 3d 03 f5 3e 50 22 72 bf 8d aa 25 3f c4 48 2c 3f
       0.47854033 -0.94583607 0.64713365 0.6729853
0000a0 a4 c0 f6 3c 8c 74 16 3f c8 96 3c 3f c3 8e 7e be
       0.030121155 0.58771586 0.73667574 -0.24859147
0000b0 31 f9 4e 3f 69 8f ce 3e 72 68 8f bf 67 df a2 be
       0.80848986 0.40343788 -1.1203749 -0.31811067
0000c0 f9 a4 a9 3e 2b e7 24 3f 00 91 c1 3b b8 4c ec 3e
       0.33133677 0.64415234 0.005907178 0.46152282
0000d0 19 20 45 3f fd 31 31 3f 2c 4c d2 3f 3b d1 47 3f
       0.770021 0.692169 1.6429496 0.78053635
0000e0 e5 1f b8 bd cd b3 8b 3f 34 95 a3 be 73 ac 21 be
       -0.089904584 1.0914246 -0.3194977 -0.1578844
0000f0 72 eb 82 3f 6d 19 04 3f 4d 6f 21 3f e5 80 05 be
       1.0228102 0.51601297 0.63060457 -0.1303745
000100 79 5a 70 be fc c6 71 3d b2 5e ad be 7a 3f 7b 3f
       -0.23472013 0.059027657 -0.3386131 0.9814373
000110 b6 6b ea 3e 74 f8 98 be e6 03 ea 3e ac 6a e8 3d
       0.45785302 -0.29877055 0.457061 0.11348471
000120 b6 09 0c 3f 64 4c 20 c0 b9 85 ba 3f 88 1c 80 3f
       0.5470232 -2.5046625 1.4572059 1.0008707
000130 c5 69 35 3e 25 a3 ef be 49 d8 30 3f e2 1c df be
       0.17716129 -0.46804157 0.69080025 -0.43576723
000140 18 4e 06 bf d7 33 49 3f 99 29 8e 3d c1 24 ba be
       -0.5246291 0.78594726 0.06941528 -0.36356166
000150 26 d3 83 be 3e bc 64 bf d1 6e c3 3d 2d 33 cc be
       -0.2574703 -0.89349735 0.09542621 -0.39882794
000160 92 ae 90 be 9c bf c8 3f 4b e7 34 3d b7 a7 9d 3e
       -0.28258187 1.5683475 0.04416589 0.3079202
000170 03 a8 96 3f a2 22 9c bd 64 c8 01 40 12 02 63 bb
       1.1770023 -0.07623793 2.0278559 -0.0034638685
000180 f6 21 88 3e b3 3a d2 be 29 b8 99 3f 03 30 0d 3f
       0.2658841 -0.4106041 1.2009326 0.55151385
000190 66 c0 eb 3e 5f 57 5a 3e 1f bc 06 3f 38 5d 61 3f
       0.46045226 0.21322392 0.526308 0.88032866
0001a0 e1 3b b6 3e 8e ca 25 3f 59 83 07 3f 59 a3 0a c0
       0.3559256 0.647622 0.52934796 -2.16622
0001b0 34 f0 46 3e f6 16 81 3f 5e bf c9 bf 74 1d 38 be
       0.19427568 1.0085132 -1.5761526 -0.17979985
0001c0 25 8d 4d 3f 7c 87 70 be a0 de 48 3e de bc 5c 3f
       0.80293494 -0.23489183 0.19616175 0.8622569
0001d0 05 53 6f bc d4 c7 df 3f dd f5 68 3c 49 3e cc be
       -0.014607196 1.7482858 0.014218775 -0.3989127
0001e0 f9 7a c2 3e 74 5a 5c 3f 2d c3 8b be 36 67 7d 3e
       0.37984446 0.8607552 -0.27297345 0.24746403
0001f0 74 d8 aa be 9f 07 97 3e 0f ca 4a 3f c8 33 89 be
       -0.33368266 0.29498002 0.79214567 -0.26797318
000200 62 cd e2 be 0c 37 c6 bf 50 1b aa 3f 21 76 40 bf
       -0.4429732 -1.5485549 1.3289585 -0.7518025
000210 63 c5 cb 3e fc ff b3 3e fc 58 76 3f 8f 0e ef 3d
       0.39799032 0.35156238 0.9622953 0.11672699
000220 97 b8 63 3c e9 99 60 bf bb 1a 8d be 15 1e 49 bf
       0.01389899 -0.8773485 -0.27559456 -0.78561527
000230 da 39 b7 bf e4 9f 0d 3e c8 09 d5 3d df f0 01 3f
       -1.431453 0.13830525 0.10402256 0.50758165
000240 ab fb 22 bf 51 fe cb bf bd aa 7f bc d2 49 29 bf
       -0.63665265 -1.5936986 -0.015604672 -0.66128266
000250 7c 42 6b 40 a8 27 c9 bf f3 c7 65 bf 2e 69 32 bf
       3.675933 -1.5715227 -0.89758223 -0.6969174
000260 17 af 40 3f 82 2c 8f 3f cd a1 57 bf 89 62 8f bd
       0.75267166 1.1185458 -0.84231263 -0.07001216
000270 b8 08 3e bf 39 a3 bd bf 58 9a 49 bf 28 67 4e 3f
       -0.74232054 -1.4815437 -0.78751135 0.80626154
000280 a0 ae 25 3f 91 58 94 bd c4 8c ac bf 8c 68 a7 bf
       0.6471958 -0.07243455 -1.3480458 -1.307878
000290 ba 12 85 bf d8 40 26 c0 96 62 0c c0 1d 17 2c 3e
       -1.039634 -2.5977077 -2.1935172 0.16805692
0002a0 10 89 98 be 6c b0 f9 bf 40 fd 90 bf 51 4f 26 3e
       -0.2979207 -1.9506965 -1.1327286 0.16241194
0002b0 a5 ee 4d 3f aa b0 71 bf 72 e2 b5 bf 22 f2 f5 3c
       0.8044227 -0.9441019 -1.4209731 0.030022684
0002c0 d0 f4 68 3f 07 79 25 bf 33 15 46 3f 6e 69 80 3d
       0.90998554 -0.646378 0.773761 0.06270109
0002d0 54 ba 34 bf 23 76 4c bf 4e b9 2d bf 21 df d4 bf
       -0.70596814 -0.7986776 -0.6786088 -1.6630594
0002e0 ff 8b 64 bf f4 0b a7 bf e4 f7 c4 3f a0 40 24 3f
       -0.8927612 -1.3050523 1.538815 0.6416111
0002f0 4a 93 23 bf e2 48 a9 bf f9 58 cf bf 82 d2 f4 bf
       -0.6389662 -1.3225367 -1.6199027 -1.9126742
000300 f5 d2 3a bf ea 38 92 3f 66 ba 69 be 03 e4 42 bf
       -0.72978145 1.1423619 -0.22825012 -0.7612917
000310 a5 b8 ab bf 3d 8b 40 3f 2c 6d 3c 3f 13 d3 8f bf
       -1.3415724 0.7521246 0.73604083 -1.123629
000320 41 96 28 bf 0c 8a 7d bd e4 57 e7 bf 51 9b b6 3e
       -0.6585427 -0.06189923 -1.8073697 0.35665372
000330 d3 e5 ca be d3 45 a6 3e 88 a3 b7 be 14 90 f6 3e
       -0.39628467 0.32475147 -0.35866952 0.48156798
000340 84 75 33 bc 88 21 99 bf ec eb 44 bf 29 ae e6 3d
       -0.010953311 -1.1963358 -0.7692249 0.11263687
000350 eb a4 4a 3f 75 91 d9 be ac e3 8f bf 2a c5 a8 bf
       0.79157895 -0.42493787 -1.1241355 -1.318517
000360 ed c4 f6 be bb fe c0 bf d4 78 b7 bb 26 cc 83 bf
       -0.48197117 -1.5077738 -0.0055991206 -1.0296676
000370 12 a6 60 3e 18 1b ad 3d 61 11 63 3f 4c 30 51 bf
       0.21938351 0.08452433 0.88698393 -0.8171432
000380 f7 d1 63 bf 29 96 06 3e 93 4d 1b 3f 76 57 89 bf
       -0.88992256 0.13143219 0.60665244 -1.0729816
000390 ef 45 5a 3e b8 e1 a7 be 1c 17 51 bf 78 98 04 bf
       0.2131574 -0.32789397 -0.8167589 -0.5179515
0003a0 11 bc 19 3e 8c 8a ab bf de 5f 16 3e d5 98 da 3e
       0.15013148 -1.3401656 0.14685008 0.42694727
0003b0 1b 20 88 3e df b5 30 bf e6 d5 16 40 91 b0 8a bf
       0.26586995 -0.69027513 2.3568053 -1.0835134
0003c0 b5 cb ef 3e fc a9 92 3f 9f a8 75 be 96 12 33 be
       0.46835104 1.1458125 -0.23990105 -0.17487559
0003d0 a9 b1 61 bc 8d 7c 13 c0 3b c6 f8 3e 70 71 6a bf
       -0.013775268 -2.304477 0.48588738 -0.9157934
0003e0 41 ce a2 bf 22 2c a7 3f c0 6f bb 3e 28 27 4f be
       -1.2719194 1.3060343 0.36608696 -0.2022978
0003f0 cd 4d ce be ea ce e9 3f c0 3f 10 bf b9 4b 15 bf
       -0.40293732 1.826627 -0.56347275 -0.5831867

action_model._discrete_distribution.branches.1.bias f4 [3]
000000 d0 2f 75 be 67 35 15 bd 70 5b 65 3f
       -0.2394402 -0.03642788 0.8959265

action_model._discrete_distribution.branches.1.weight f4 [3, 128]
000000 d4 42 47 3f 62 6a 1d bf 31 24 bb 3f 4e 3f 82 be
       0.77836347 -0.6149045 1.462042 -0.25438923
000010 db cf 11 3f e5 99 ee 3e a7 bb bd 3f 29 13 68 3f
       0.5695779 0.46601787 1.4822892 0.90654236
000020 69 f5 a0 bf 2e 2e dc 3b fd fd 4e bd 4d 9b b6 be
       -1.2574893 0.0067193722 -0.05053519 -0.3566536
000030 bc f0 26 3c e7 cf 4b 3f 09 88 5f 3f 3a bd 07 40
       0.0101892315 0.7961411 0.8731695 2.1209245
000040 9b 16 f4 be 0b 8c a4 bf 08 22 38 be 23 93 3b 40
       -0.47673497 -1.2855238 -0.17981732 2.9308555
000050 ab 66 27 40 29 ef 7b 3f f4 d8 8a bf ee a6 d9 3e
       2.6156414 0.98411804 -1.0847459 0.4251017
000060 44 45 da 3f 67 7a 53 bf 7b 53 0d be ad 91 c9 3f
       1.7052388 -0.82608646 -0.13801377 1.5747582
000070 90 2d 80 3e 10 d2 41 3f 7e 5f 14 be de 95 b9 3f
       0.2503476 0.75711155 -0.14489552 1.4498861
000080 06 11 bf bf 94 19 7c bf 65 3f 1b c0 ef e5 bd 3c
       -1.492707 -0.9847653 -2.4257443 0.02318093
000090 5c 8e 01 3e 21 12 62 c0 4e 11 75 3e 31 70 fe 3e
       0.12651962 -3.5323565 0.23932382 0.4969497
0000a0 01 76 7b 3f 6f b4 83 be d4 35 c1 3e 0e 60 90 bf
       0.98226935 -0.25723597 0.3773638 -1.1279314
0000b0 0c 3a 7a bf d6 be 36 3f fb d8 99 3e f0 9e 7e 3f
       -0.9774482 0.7138494 0.30048355 0.9946127
0000c0 b9 8c 42 bc 38 6c d9 3e de a8 37 bf 67 a2 f2 be
       -0.011874371 0.42465377 -0.71742046 -0.47389528
0000d0 25 e7 d9 be 23 52 3d 3f 5a b3 95 bf 34 f9 a1 3d
       -0.42559162 0.73953456 -1.1695359 0.0790886
0000e0 e2 a3 de bf 4b e6 82 bf 54 08 00 3e 84 98 7b be
       -1.7393763 -1.022653 0.12503177 -0.24569899
0000f0 2e b1 d4 3e 42 e2 4e bf 2c 2b a5 3e a5 58 64 bd
       0.41541427 -0.8081399 0.322595 -0.0557486
000100 4b b6 73 3e 5c 8a 4e bd 72 1f 2f 3f e3 ba 0f bf
       0.23800008 -0.05042492 0.68407357 -0.5614454
000110 dc ae 07 3f 9e 9b 6a bf 1d 17 71 bf d9 74 56 3f
       0.5300119 -0.91643703 -0.94175893 0.83772045
000120 ac 52 a0 3e 1a e9 82 3e 1a 10 07 40 53 9d 13 40
       0.31313074 0.25568467 2.1103578 2.3064773
000130 91 22 21 40 70 2d 4f 3f e9 bf b6 be 6c 6c 5f bf
       2.5177348 0.8092871 -0.3569329 -0.87274814
000140 86 6f 9d bf d6 4d 9c be 46 7b 8c 3e d5 1f 48 bf
       -1.2299659 -0.30528134 0.274378 -0.7817357
000150 bb 66 f5 3d 50 58 4f 3e fd 7d c1 bd c0 cb 0c bf
       0.11982485 0.20248532 -0.094478585 -0.549984
000160 ef cc 96 3f c8 3a 29 be a8 1d b9 be 9d 74 e8 bc
       1.1781291 -0.1652633 -0.36155438 -0.028375918
000170 84 91 af be f4 5f 23 3e c0 ff 0e 40 40 19 cb be
       -0.34290707 0.15954572 2.2343597 -0.39667702
000180 85 35 61 be e6 43 73 3f c8 90 02 3f 84 65 74 bd
       -0.21993072 0.9502548 0.5100217 -0.059667125
000190 7f e9 0a c0 6d 44 8a bf cf 7b c6 be 65 a1 d0 3f
       -2.1705015 -1.0802132 -0.38766333 1.6299254
0001a0 5c 46 21 be ee 52 ba 3e 7c a3 ee 3f 5c a0 4e c0
       -0.15749496 0.36391395 1.8643641 -3.2285376
0001b0 68 4d 33 3f 11 10 02 40 ce a6 85 3e 39 4e 49 bf
       0.7003999 2.0322306 0.26103824 -0.78634983
0001c0 be 45 15 40 fd 1c 57 bd 10 2a 19 3e e1 6f 51 c0
       2.3323817 -0.05251788 0.14957452 -3.2724535
0001d0 79 05 75 40 9c 8c 8d 3f ed cd 23 3e 76 f3 e6 be
       3.828459 1.1058536 0.15996523 -0.4510762
0001e0 82 3e cf bf 1a 93 ea 3e 60 91 9d bd 0d b8 42 bf
       -1.6190951 0.45815355 -0.07693744 -0.7606209
0001f0 e7 91 00 3f e3 59 0c bf 17 6d 76 bf 02 75 2e c0
       0.5022263 -0.54824656 -0.9626021 -2.7258916
000200 99 74 ad be fd f1 48 3e 27 e9 d0 be 3f 06 0f be
       -0.3387802 0.19623561 -0.4080288 -0.13967226
000210 cc d7 24 3f cd 9e 09 bf d3 ce be 3e 67 07 b0 3d
       0.6439178 -0.53757936 0.3726717 0.08595162
000220 87 91 97 bf 46 51 22 be cf fb 54 bf e7 2c 3b be
       -1.1841286 -0.15851316 -0.8319673 -0.18278848
000230 df 1f 2c 3e 2f 7f 76 3f 9e 09 89 bf 92 0c 8c 3d
       0.16809033 0.96287817 -1.070606 0.06838335
000240 a7 e8 ec 3e 25 f4 d3 3f 49 4c 13 bf c4 db 2d 3d
       0.4627125 1.6558882 -0.57538277 0.042445913
000250 7e 08 5d c0 ea 0e 69 bf b6 be 23 3e 2c c1 df 3d
       -3.4536433 -0.9103838 0.15990719 0.109255165
000260 e5 a5 aa 3f ac c2 c8 bb 07 f4 b2 3f f0 78 58 bf
       1.3331877 -0.0061267223 1.3980721 -0.84559536
000270 dd 68 da 3d ba f0 b4 be 49 28 a4 bc 9b fa 58 bf
       0.10664532 -0.3533991 -0.02003874 -0.84757394
000280 5d 3f 88 3f b8 cc 4b bf 26 70 2b be 2c 84 d1 be
       1.0644337 -0.7960925 -0.16742 -0.40921152
000290 ba 31 1f bf 10 54 cb 3d 21 c4 ad be a0 70 91 bf
       -0.6218525 0.09928143 -0.33938697 -1.1362495
0002a0 2a e6 04 bf bf 97 c7 3f 3b 9b 15 3e d5 26 23 3f
       -0.519137 1.5593184 0.14609997 0.6373113
0002b0 a2 e7 35 3f 93 11 7c 3e c5 54 92 be b6 60 ae bd
       0.7105657 0.24616079 -0.285803 -0.0851454
0002c0 e0 f0 3c 3d fa fe f2 be c6 10 a9 3c 73 86 3d 3e
       0.046128154 -0.47460157 0.020637881 0.1850832
0002d0 d0 c4 93 3e f0 c6 b3 3e f9 bc 19 3f 85 5e 20 3f
       0.28861094 0.35112715 0.60053974 0.62644225
0002e0 7b 40 85 3f 84 00 e2 3c 07 e7 81 bf 25 44 c8 bd
       1.0410303 0.027588136 -1.0148629 -0.097786225
0002f0 f2 7c 26 3f b5 36 18 3f e3 3d 7e 3c ea c1 02 bf
       0.650344 0.59458476 0.015517685 -0.5107714
000300 89 3e 32 40 9c a6 04 bf b8 24 20 bf c3 de 17 3f
       2.7850668 -0.51816726 -0.6255603 0.5932428
000310 00 23 61 3f 6a a2 4c be 51 bd ec be 2d b2 98 3e
       0.8794403 -0.19983831 -0.46238187 0.29823437
000320 54 df e6 be d1 4e 52 bf 98 5d 85 be e1 4b 26 3e
       -0.4509226 -0.82151514 -0.2604797 0.16239883
000330 08 8c 85 bf ed f8 ce 3e 79 85 10 3f 75 4f b5 be
       -1.0433359 0.4042429 0.56453663 -0.35412183
000340 21 17 a8 be 8c f4 89 bf a5 a9 ed 3d 33 50 c1 3f
       -0.32830146 -1.0777755 0.11604623 1.51026
000350 3d 13 aa be 9f 0f 94 bf 37 4d f5 3d 41 42 8f 3f
       -0.33217803 -1.1567267 0.11977618 1.1192094
000360 37 1a cc bf 2a 4f 7c 3e 55 61 e9 3e 20 1e b7 3e
       -1.59455 0.24639574 0.4558207 0.3576517
000370 83 9c 25 3f 74 e3 db 3e 40 aa 7a 3f ca 4d 1b bf
       0.6469194 0.4294697 0.9791603 -0.6066557
000380 97 af 18 3e 54 bf c9 bd de c3 36 3c fa e0 18 bf
       0.14910732 -0.09850946 0.011155097 -0.59718287
000390 ed e8 a4 3f c3 e4 86 3f 33 05 49 bd b6 15 93 3c
       1.2883583 1.0538563 -0.049077224 0.017954689
0003a0 e6 f9 af 3f 77 33 11 be 36 24 1e 3f 25 7b 11 3f
       1.3748138 -0.14179789 0.61774004 0.5682853
0003b0 c9 2a f5 3f f2 a7 be 3c f8 46 22 40 21 93 11 3e
       1.9153682 0.023273442 2.5355816 0.14216281
0003c0 99 2f 76 be 00 65 33 bf 22 8e 9d bf 08 6f 15 3f
       -0.24041595 -0.7007599 -1.2309 0.58372545
0003d0 39 47 ff 3f 1b 1e 7c 3f 48 c0 42 3f ab 60 44 3e
       1.994361 0.9848344 0.7607465 0.19177501
0003e0 32 35 e8 3e 58 e8 38 be 5f 7c 0d 3f 7a 9c 0d 3e
       0.45353085 -0.18057382 0.552679 0.13829222
0003f0 83 88 47 3f e7 2f f5 be b8 dd 29 3f ff 8c 8b 3f
       0.77942675 -0.4788811 0.6635394 1.0902404

discrete_action_output_shape f4 [1, 2]
000000 00 00 40 40 00 00 40 40
       3.0 3.0

network_body._body_endoder.seq_layers.0.bias f4 [128]
000000 76 3c d7 bf 55 d1 3a c0 1e 31 fe bf 48 b7 0e c0
       -1.6815326 -2.9190266 -1.9858739 -2.2299366
000010 36 21 14 c0 7a 98 08 c0 1c 65 21 c0 ee ab 38 c0
       -2.314527 -2.1343064 -2.5217962 -2.8854938
000020 f4 a4 14 c0 1a b6 10 c0 87 3b e3 bf 47 17 de bf
       -2.322568 -2.2611146 -1.7752541 -1.7350854
000030 79 1a 33 c0 c1 81 36 c0 4c eb 4a c0 92 75 0c c0
       -2.7984908 -2.8516695 -3.1706114 -2.194676
000040 a0 08 31 c0 6f ba 32 c0 d1 43 e4 3e 7e 8e 02 c0
       -2.7661514 -2.792629 0.4458299 -2.039947
000050 2f b3 c6 bf f6 18 12 c0 c1 e2 c8 bf e1 2b c8 bf
       -1.5523432 -2.2827735 -1.56942 -1.5638391
000060 7c cc 5c bf d8 ef ff bf 79 d5 35 c0 20 1b 08 c0
       -0.8624952 -1.999507 -2.8411543 -2.1266556
000070 1a 2f 0e c0 59 bc 2b c0 1d dc a0 3e b2 5b 2d c0
       -2.2216249 -2.6833708 0.31417933 -2.7087216
000080 54 5b 0e c0 e2 c5 21 c0 c7 44 4a c0 17 e3 d0 bf
       -2.2243242 -2.5277028 -3.1604478 -1.6319302
000090 22 95 f7 bf 9e 38 84 bf 96 ca 30 c0 b0 5d 05 c0
       -1.9342387 -1.0329778 -2.7623649 -2.0838432
0000a0 98 e7 a5 3e 1b c1 35 c0 37 b4 01 c0 38 36 24 c0
       0.32403255 -2.8399112 -2.0266244 -2.5658092
0000b0 17 5c 31 c0 b6 cb 1c c0 3c 51 ce bf bb c1 1b c0
       -2.7712457 -2.4499335 -1.6118541 -2.4336994
0000c0 03 53 0c c0 69 0d ee bf 6d 43 0f c0 75 56 46 c0
       -2.1925666 -1.8597842 -2.2384903 -3.099027
0000d0 7f 34 0d c0 50 c8 42 c0 f7 64 e4 bf 56 ce ce bf
       -2.206329 -3.043476 -1.7843312 -1.6156719
0000e0 3c a1 41 c0 e6 c3 3d c0 91 63 d0 bf 51 23 43 c0
       -3.025466 -2.9650817 -1.6280385 -3.0490305
0000f0 f7 93 9f bf 7a e5 19 c0 0e 3b 1c c0 d0 45 d7 bf
       -1.246703 -2.4046311 -2.4411044 -1.681818
000100 16 18 78 bf cd 83 21 c0 38 ed 0e c0 ca 55 1a c0
       -0.9691175 -2.5236695 -2.2332287 -2.4114861
000110 d6 52 d1 bf 12 f8 d1 bf 39 eb 71 bf ba ea 21 c0
       -1.6353405 -1.640383 -0.94499546 -2.5299516
000120 f7 06 e6 bf d9 aa ff bf b5 31 0d c0 61 9f 32 c0
       -1.7970876 -1.9974014 -2.2061589 -2.7909777
000130 94 cb 17 c0 b9 c1 20 c0 b3 8d 2f 3f 8b 89 15 c0
       -2.3718004 -2.511824 0.6857559 -2.33652
000140 ea ff 0d c0 5d 1e 44 c0 2a 35 22 c0 c8 3a 0e c0
       -2.2187448 -3.0643532 -2.5344949 -2.2223377
000150 bb f9 fe bf dc 02 3f c0 f2 87 a7 bf 2e 67 0c c0
       -1.9919962 -2.9845495 -1.3088362 -2.1937976
000160 a7 06 13 c0 bf 84 04 c0 3b b4 08 c0 e7 4a ca bf
       -2.297281 -2.0706022 -2.1360004 -1.5804108
000170 dd 81 45 c0 a3 10 1a bf 21 96 12 c0 7a 12 be bf
       -3.0860512 -0.60181636 -2.2904131 -1.4849389
000180 a2 d7 17 c0 6d 4b d0 bf 6e 43 f6 bf 97 2a 00 c0
       -2.3725362 -1.6273018 -1.9239328 -2.0025995
000190 29 22 3e c0 3a fd 22 c0 3a c5 10 c0 db 43 3c c0
       -2.970835 -2.5467057 -2.2620378 -2.9416416
0001a0 c6 5e 04 c0 d5 0c 57 c0 d6 2f 1a c0 17 fa 1f c0
       -2.0682845 -3.3601582 -2.4091697 -2.4996393
0001b0 51 d8 ed bf f1 a8 b9 bf 85 76 03 c0 22 65 26 c0
       -1.858164 -1.4504682 -2.0541089 -2.5999227
0001c0 b4 a3 04 c0 99 5e b9 bf ea 42 a9 bf a5 bf 08 c0
       -2.0724916 -1.4481994 -1.3223546 -2.136697
0001d0 4c 5f ea bf 08 d7 11 c0 45 fa 16 c0 49 07 08 c0
       -1.8310332 -2.2787495 -2.3590252 -2.1254447
0001e0 07 b5 0c c0 1e e5 15 c0 14 1d e9 bf 31 5d 42 be
       -2.198549 -2.3421092 -1.8211999 -0.18980862
0001f0 83 bb 66 c0 51 79 44 c0 65 4c 3d bf 7d 6b cc bf
       -3.6051948 -3.0699046 -0.73944694 -1.5970303

network_body._body_endoder.seq_layers.0.weight f4 [128, 13]
000000 43 a2 82 3f b7 14 6a 3f 34 de dd be 93 c4 1e 3d
       1.0205768 0.9143786 -0.4333359 0.038761687
000010 6e 24 b5 be 37 54 e7 be 37 5e 51 be 9e dc 43 bf
       -0.35379356 -0.45181438 -0.20446096 -0.7650851
000020 dc e8 51 bf 34 94 9c be 35 50 28 3e cf 77 83 bf
       -0.8199594 -0.3058182 0.16436847 -1.0270938
000030 ed df 00 be ad 72 0f be fa 54 09 be 27 9d 82 3f
       -0.12585421 -0.14008589 -0.13411322 1.0204209
000040 51 48 8d be 43 6d ef 3d 9e 81 27 3f 4d 03 7f 3f
       -0.27594236 0.11690762 0.65432155 0.9961441
000050 73 a0 e5 be aa 68 a8 be e1 05 58 bf e9 7c 78 3f
       -0.44848976 -0.32892352 -0.8438397 0.970656
000060 ed ca e3 be d5 f4 69 3d cf e7 96 3e 04 f6 d8 be
       -0.44490758 0.057118256 0.2947373 -0.42375195
000070 8e e9 9b be 88 56 aa be 38 36 5d 3e 2c 63 6c 3e
       -0.30451626 -0.33269143 0.21602714 0.23084706
000080 10 c0 f5 3e 78 c4 8d 3e f5 89 5a bf 5c 45 4d bd
       0.47998095 0.27688956 -0.85366756 -0.050114974
000090 d1 a4 31 3e 8e 4e e6 3e 76 e7 53 3e 2b 26 80 3d
       0.17348029 0.44981807 0.20693764 0.0625728
0000a0 f6 77 23 bf b1 5c 06 3e 78 98 04 be 05 c7 00 be
       -0.6385492 0.13121296 -0.12948787 -0.1257592
0000b0 0d 83 d5 3d 02 5d e0 3e 4b 29 b2 3e c2 cb 67 bf
       0.104253866 0.4382096 0.3479713 -0.90545285
0000c0 92 13 0d 3f 30 42 8a 3e 90 a9 80 3d 09 ed 3d 3f
       0.55107987 0.27003622 0.062823415 0.7418981
0000d0 3e 6a cc be 18 61 ff be 25 63 a2 3e 29 f2 25 be
       -0.39924806 -0.49878764 0.31716266 -0.16205658
0000e0 f3 23 c0 3e e3 69 eb be 16 5d dc 3e 0c a3 1d 3e
       0.37527427 -0.45979223 0.4303977 0.15394229
0000f0 df ff 31 be 27 57 18 3f 04 67 83 be 50 22 18 3f
       -0.17382763 0.59507984 -0.25664532 0.59427357
000100 9c b6 3b 3f 49 cc 90 3f 2a 59 aa be bd 3e 82 3e
       0.73325515 1.1312343 -0.33271152 0.2543849
000110 fa 20 8d be 8c d8 88 3d 38 64 c8 3e 4d b7 34 bd
       -0.27564222 0.06681928 0.3913896 -0.04412012
000120 30 35 0d 3e 37 18 bb be ba 4e d6 3d e5 06 46 bf
       0.1378982 -0.36541912 0.10464235 -0.7735427
000130 2e a1 79 be 06 d8 90 3e 01 00 cd 3e d6 96 89 be
       -0.24377891 0.28289813 0.40039065 -0.2687289
000140 94 f1 a9 be ab 72 06 be 8f 10 00 be d3 db 6a 3d
       -0.33192122 -0.1312968 -0.12506317 0.057338547
000150 8e c1 e7 3d c2 0c b4 3b 93 c5 b0 bf ac b5 04 3c
       0.113162145 0.005494685 -1.3810295 0.008099955
000160 c8 9e 56 3d b6 73 d4 3e 19 39 42 3f 3d 64 48 3e
       0.05239752 0.4149453 0.75868374 0.19569488
000170 4b f1 fd bd f1 13 a3 3d d9 ec 69 bf 52 5d 0b be
       -0.123995386 0.07962788 -0.91377026 -0.13609818
000180 35 af 4f 3f ce fe 42 bf b8 32 90 3f c3 78 b5 bd
       0.8112672 -0.7617005 1.1265478 -0.08860924
000190 43 17 52 bf e5 9f 2a bf 84 0f 9c 3e dd 5f 92 3e
       -0.82066745 -0.6665023 0.30480587 0.28588763
0001a0 16 e4 f9 3e 15 0a 17 bf 61 fd d7 3e f2 18 97 3c
       0.48806828 -0.5899976 0.421855 0.018444512
0001b0 00 31 85 3d 12 ec 6a be 30 9a 92 3f e4 76 f7 be
       0.06503487 -0.22941616 1.1453304 -0.48332894
0001c0 05 bc 8c bf f8 7c 55 3f 4b c5 10 3f c6 25 08 bf
       -1.0994879 0.8339381 0.56551045 -0.5318264
0001d0 44 00 27 3e fb be 9a be c4 b2 77 be ee 41 91 3f
       0.16308695 -0.30223832 -0.24189287 1.1348245
0001e0 8e 3f 1a 3f 49 32 62 3e 21 e7 a4 bd 88 15 a0 3f
       0.60253227 0.22089495 -0.08051897 1.2506571
0001f0 43 d6 01 be 3d 53 ec be fc 69 3e bf 3e 41 16 bd
       -0.1267939 -0.46157256 -0.7438047 -0.036683314
000200 ac 40 81 3d ca 6f 12 3f 21 fc 1f bf 16 dd ae bf
       0.06311163 0.57201827 -0.62494093 -1.366122
000210 4b 0b 45 3f 98 90 a4 3f bf 19 5f bd 2b e3 01 bf
       0.76970357 1.2856627 -0.054467913 -0.50737256
000220 c1 00 65 3f 09 ab a7 3d d4 2e f7 be cf 0e 20 3f
       0.89454275 0.08186919 -0.48277915 0.62522596
000230 b6 73 98 3e 42 c4 8e bf 1d c0 60 be 05 be ee 3e
       0.2977578 -1.1153643 -0.21948285 0.46629348
000240 2e 7b 97 3d cc b1 ef be c1 f7 7e be 8b fe 2f 3f
       0.073965415 -0.46815336 -0.24899198 0.68747777
000250 36 12 4b 3d 56 8c ab bc fe c2 4a bd a9 67 8e bf
       0.049577914 -0.02094094 -0.049502365 -1.1125385
000260 2c 52 13 3e fd 75 35 bd f9 c0 c2 3e 73 d3 11 3e
       0.14386815 -0.044301976 0.3803785 0.14240818
000270 8d 5a 9d bd ba cf 40 bf 25 19 3c bf dc 4f b0 3e
       -0.07683287 -0.75316966 -0.7347587 0.34435928
000280 2e 2e 3c bd 9a cd 8b 3e 39 a0 90 3f 33 c4 06 3e
       -0.045942478 0.273053 1.1298896 0.13160782
000290 ac af 99 3d 02 91 5c 3f d3 2b 3a 3e 91 b2 2e bf
       0.0750421 0.86158764 0.1818078 -0.6824122
0002a0 bd ad af 3e 0e 0f 89 3e 9b cd 15 be 71 a6 4b bf
       0.3431224 0.26769298 -0.14629214 -0.79550844
0002b0 3f 40 16 bf e8 5e 9e 3d 36 7c 23 3f 70 80 a0 be
       -0.5869178 0.07732946 0.63861406 -0.3134799
0002c0 7b e6 f0 3e d6 c9 7e bf 0f 62 8e 3d 92 c2 1d be
       0.47050843 -0.9952673 0.06952297 -0.15406254
0002d0 c4 9c e9 3e 01 da 6e 3e bc 0e ca bc 3c b3 30 bf
       0.45627415 0.2332535 -0.024665229 -0.6902349
0002e0 b5 af a8 be 18 7c 14 3f 67 f4 c2 be 13 2b be 3e
       -0.32946554 0.5800185 -0.3807709 0.37142238
0002f0 ea 20 2c be 8d cb 3e 3e 3e b8 80 be d2 86 49 3f
       -0.1680943 0.18632336 -0.25140566 0.78721344
000300 63 b4 fb bd d9 40 0c 3d 77 89 fb 3e fe 90 1d bf
       -0.122902654 0.03424153 0.49128315 -0.61549366
000310 d5 ae 61 bf 99 91 27 bf c3 24 9c 3e 5a 86 a9 3e
       -0.881574 -0.6545654 0.30496797 0.33110315
000320 f4 33 af 3f 46 24 13 3f ed ea ab be d3 c1 25 bf
       1.368773 0.57477224 -0.33577672 -0.6474888
000330 d8 40 99 bf f0 3c ba 3d 48 28 4b bf 1c a4 c6 3e
       -1.1972914 0.09093654 -0.7935834 0.3879708
000340 8c cf 46 3d fe 31 4f bf 0e 43 05 be 45 f3 83 3d
       0.048537776 -0.8093566 -0.1301386 0.06442884
000350 fe d5 66 bf f7 53 10 be d7 43 27 3f 24 88 f0 3e
       -0.90170276 -0.1409453 0.6533789 0.46978867
000360 89 1a 25 bf 21 53 1e 3e bf eb 62 bd 04 3d 42 3e
       -0.64493614 0.15461399 -0.055400606 0.18968588
000370 b9 a7 13 3f 95 73 7a 3e b2 4a be be 7f 69 cf 3e
       0.576778 0.24458154 -0.37166363 0.40510175
000380 36 e6 d8 bd ea e2 36 3e 13 8b 4e 3e ac e9 aa 3f
       -0.10590784 0.17859998 0.2017024 1.3352561
000390 e1 4e c9 3e d5 96 59 bf 3d 02 02 3f 0a aa 3e 3f
       0.39317992 -0.84995776 0.50784665 0.7447821
0003a0 47 12 cc be 0e 58 cd 3e b3 ad b6 be dd f7 07 3f
       -0.39857695 0.40106243 -0.35679397 0.53112584
0003b0 3f 3e f0 3f 78 2a 18 c0 54 0b d8 bb be 73 45 3f
       1.8768996 -2.377592 -0.0065931473 0.77129734
0003c0 1b be cf be 73 f8 d2 be 59 bd c5 be 59 ca 0f 3e
       -0.40574726 -0.41205177 -0.38621023 0.14042033
0003d0 22 6d 98 3f 7b e7 e9 3f 62 68 bf bf e9 a1 6d 3d
       1.1908305 1.8273767 -1.495373 0.058015738
0003e0 a7 dd 10 3f 92 49 06 bf 26 c0 27 bf fe 56 a5 be
       0.56588215 -0.5245601 -0.6552757 -0.32292932
0003f0 8f fd 9e bd 92 bd 15 3f 9a d2 4f 3f f8 04 34 bf
       -0.07763206 0.58492386 0.8118073 -0.7032008

network_body._body_endoder.seq_layers.2.bias f4 [128]
000000 ab e6 ce bf 36 fc 88 bf 9e db ca bf 3a cc 09 c0
       -1.6164144 -1.0701969 -1.5848272 -2.15309
000010 f4 ed e0 bf fe c4 c9 bf b3 f1 3f bf 2c a9 f6 bf
       -1.7572618 -1.5763242 -0.7497818 -1.9270377
000020 2b 44 e2 be 4d 81 a9 bf c3 49 ca bf a8 20 b4 be
       -0.44192633 -1.3242584 -1.580376 -0.35181165
000030 1c bd b3 bf bc 70 3e c0 08 9a dc bf c8 2c 00 c0
       -1.4042087 -2.9756308 -1.7234507 -2.0027332
000040 e9 a2 ef bf b4 1f 6e be 5a bb 17 bf fe f5 30 c0
       -1.8721591 -0.23254281 -0.5927025 -2.7650142
000050 a2 a2 c8 bf e6 7e 51 c0 46 17 a3 bf f3 20 f0 bf
       -1.5674632 -3.2733703 -1.2741477 -1.8760055
000060 15 78 bf bf 84 7b 6d bf af 24 d9 bf 8a db 6b bf
       -1.4958521 -0.92766595 -1.696432 -0.92131865
000070 1b 5f 02 c0 9c 8c 77 bf a7 10 b2 bf 51 20 ba bf
       -2.0370548 -0.9669893 -1.3911332 -1.4541112
000080 0e 0c 62 bf 58 74 83 bf 7e 86 b3 bf 9c 17 98 bf
       -0.88299644 -1.026988 -1.4025419 -1.1882205
000090 81 cc 09 c0 f2 75 c1 bf f8 65 36 bf 31 aa c1 bf
       -2.153107 -1.5114119 -0.7124934 -1.5130063
0000a0 71 a1 04 c0 9c eb 16 c0 5e 3b 3b bf 30 71 9b bf
       -2.0723536 -2.3581305 -0.7313746 -1.2143917
0000b0 06 65 39 bf ff 48 ba bf 2a c1 fb bf 45 eb 0f c0
       -0.72419775 -1.4553527 -1.9668324 -2.2487347
0000c0 43 4d 1f bf 9a ca 92 bf 7f 8c ae bf 2e 4e 09 bf
       -0.6222727 -1.1468079 -1.3636626 -0.5363492
0000d0 f5 ba ad bf 04 81 d0 bf 81 17 95 bf 69 f2 bb bf
       -1.357268 -1.6289372 -1.1647798 -1.4683353
0000e0 69 53 10 c0 5c 5c 9b bf 50 29 65 be 53 f4 77 bf
       -2.255091 -1.2137561 -0.2237904 -0.96857184
0000f0 08 ca fe bf 71 f7 62 bf cd 48 dc bf 87 00 5b bf
       -1.9905405 -0.88658816 -1.7209717 -0.8554768
000100 52 2d 96 be b3 9b 94 be c6 3d 8b bf a4 5a fa bf
       -0.29331452 -0.2902504 -1.0878227 -1.9558911
000110 c9 cf 9d bf 3a 4a 48 bf 16 ad e1 bf 90 85 06 c0
       -1.2329036 -0.7823826 -1.7630947 -2.101902
000120 79 e8 17 c0 46 90 8e bf 29 68 bf bf 05 a2 d1 bf
       -2.373564 -1.1137779 -1.4953662 -1.637757
000130 19 c8 f8 bf 3c 20 f4 bf 00 9b 59 bf 7c 82 1f c0
       -1.9436065 -1.9072337 -0.85002136 -2.4923391
000140 96 b2 49 bf 90 99 f4 be 84 e2 1c c0 9f d7 51 bf
       -0.78788126 -0.4777341 -2.4513254 -0.81969637
000150 6a 5a 09 c0 0d 87 fc bf a4 60 39 c0 50 42 d7 bf
       -2.1461434 -1.9728714 -2.8965235 -1.6817112
000160 ef 0b 17 c0 dd 7f 17 c0 35 6e 9c bf 4a d3 d2 bf
       -2.3601034 -2.3671792 -1.2221133 -1.647073
000170 96 dd 8b bf 80 8e fa bf 9b d5 9c bf bd d1 8e bf
       -1.0926998 -1.9574738 -1.2252687 -1.1157757
000180 ac 06 d4 bf 86 d2 1f c0 fc 8a eb bf ee 46 40 bf
       -1.6564536 -2.4972243 -1.840179 -0.7510823
000190 0a eb fd be 20 9e 72 bf 9d 6a a9 bf 40 ce 9f bf
       -0.49593383 -0.9477253 -1.3235661 -1.2484818
0001a0 0b 6e 36 bf 73 94 1a c0 82 19 55 bf 76 1c b8 bf
       -0.7126166 -2.4153106 -0.83242047 -1.4383686
0001b0 0a 8d 85 bf c3 2d da bf 8b da 12 bf dd 1a 5e bf
       -1.0433667 -1.7045215 -0.5736472 -0.8675974
0001c0 af fd b0 bf 4d 1a 46 bf ef 9a af bf df cd 2f be
       -1.3827418 -0.7738388 -1.3719157 -0.17168377
0001d0 19 9c a4 bf 20 a9 af bf ed c4 8b be 9d 12 38 bf
       -1.2860137 -1.3723488 -0.2729868 -0.719034
0001e0 b9 90 82 bf a9 40 bf bf b5 0f c0 be 12 d8 92 bf
       -1.0200416 -1.4941608 -0.37511984 -1.147219
0001f0 52 33 49 bf 15 c9 3d bf fd 50 91 bf 87 dc 31 bf
       -0.78593934 -0.7413495 -1.1352841 -0.69477123

network_body._body_endoder.seq_layers.2.weight f4 [128, 128]
000000 39 01 3b 3f 89 0d f4 be 2d 83 bb 3d e6 c6 ca 3e
       0.7304874 -0.47666577 0.09155879 0.39604872
000010 e0 0b e1 3f 43 92 8a 3f 91 f6 51 be fc 76 2c 3f
       1.7581749 1.0825886 -0.20504214 0.67369056
000020 76 3b f8 be d4 7d 89 3e 71 5c ec 3e 8e 2f 9b 3e
       -0.48482865 0.26853812 0.46164277 0.3030972
000030 9b 5e ba 3d 24 58 11 3f ed d1 e9 3f af a3 21 3f
       0.09100076 0.56775117 1.8267189 0.63140386
000040 c6 dc 72 3e 50 52 13 3f f3 d5 bd bf e5 ea f5 3e
       0.23717031 0.57547474 -1.4830917 0.48030773
000050 5b 52 8d 3f c6 ff 32 3f d5 9d 69 3f ee 0f 2c bf
       1.1040758 0.6992153 0.9125646 -0.67211807
000060 9f cf 38 bf f1 40 8d 3f 14 06 8c 3e df fe cd 3e
       -0.72191805 1.1035444 0.27348387 0.40233514
000070 6f ed 2f 3f ef 14 ba 3e 10 92 f6 bf 88 2c bf 3e
       0.6872167 0.36344096 -1.9263325 0.37338662
000080 78 f9 0f 3f 81 8e 6d 3f 9e ee 64 3f ed 51 79 3f
       0.56240034 0.9279557 0.894266 0.97390634
000090 2f 15 41 3e 8a f2 90 bf c0 ac 22 bc fb a2 1f bd
       0.18855737 -1.1324017 -0.009928882 -0.03897379
0000a0 d5 41 1d bf d8 f1 32 3f db 46 06 40 4b 25 88 bf
       -0.61428577 0.69900274 2.0980747 -1.0636381
0000b0 c7 7d 86 3e 17 4a a0 3e f6 e9 41 3f 27 59 15 3f
       0.26267835 0.31306526 0.7574762 0.5833916
0000c0 5a 2d 05 bf 62 c3 b3 3f 6d c7 83 3f d2 83 59 3e
       -0.52022326 1.4044001 1.0295235 0.21241692
0000d0 b3 5a c9 3e 7a c7 3f 3f 58 3a 78 3d 6a c3 3b bf
       0.3932701 0.7491375 0.060602516 -0.73345053
0000e0 77 4d 55 3f f1 1b bb 3e 26 a8 07 bd 1a 2d 4f 3f
       0.83321327 0.36544755 -0.033119343 0.80928195
0000f0 58 6c f8 be f2 b8 90 3f 2c 64 55 be 57 52 fb be
       -0.4852016 1.1306441 -0.20838994 -0.49086258
000100 34 81 1f bf da ce 69 3f 69 0b e2 3e 5e 92 a1 3f
       -0.62306523 0.91331255 0.4414933 1.2622793
000110 09 ed 1a 3f a8 42 82 3f 07 00 66 be c5 ad 31 bd
       0.60517937 1.0176592 -0.22460948 -0.04337861
000120 48 41 73 be 30 1f cd 3f 2c 7b 60 3e 3c eb 1f 3f
       -0.23755372 1.6025143 0.21921986 0.62468314
000130 de 77 ce 3e 13 b2 e8 bd 41 e8 bd bf 9d a6 7c 3e
       0.40325826 -0.1136209 -1.4836503 0.24672933
000140 27 c3 38 3e 99 a7 38 3e 41 1f cb 3e f8 89 8d 3f
       0.18043195 0.18032683 0.39672282 1.105773
000150 17 c0 dc be f6 1f 02 3f 42 de 0f 3f 43 b0 23 3f
       -0.43115303 0.5083002 0.56198514 0.6394083
000160 01 ad 16 3f ac 7a 22 3d e7 14 07 bf b6 a3 81 3f
       0.58857733 0.03966777 -0.5276627 1.0128086
000170 19 13 96 3f 74 ba 47 bf e4 9f 43 3f 80 48 74 bf
       1.1724578 -0.7801888 0.7641585 -0.95423126
000180 0f 20 2f 3f cb 88 5a 3f 5d 0b 06 3f c7 3a c4 3f
       0.6840829 0.8536498 0.5236109 1.5330437
000190 3e ae 2f 3e a9 fb 77 3e cb 82 4a 3f 37 2d c1 3e
       0.17156312 0.24217094 0.79105824 0.3772981
0001a0 6f c7 28 3f eb 0c 5d be bd a7 57 be 93 b0 a0 3e
       0.6592931 -0.21586959 -0.21060081 0.31384715
0001b0 05 2b 35 3e 9e 04 8a 3e ca aa 3c 3f 44 b7 da be
       0.17692192 0.26956648 0.73698103 -0.42717946
0001c0 02 a2 dd 3f c4 d0 3b 3f 54 18 28 bf 80 29 a3 3e
       1.7315066 0.73365426 -0.6566212 0.318676
0001d0 8a b6 17 3f 33 96 ad 3e 67 4c d2 3f b2 0a 18 3f
       0.5926291 0.33903655 1.6429566 0.5939132
0001e0 64 7d 9e bf fe 99 da be 41 10 35 be 90 40 73 3e
       -1.2382016 -0.42695612 -0.17681982 0.23755097
0001f0 4a 37 49 3f 9e c2 31 3f a6 d6 a0 bf 18 6e 47 bd
       0.7859999 0.6943759 -1.2565506 -0.048688978
000200 c1 24 f3 3f 0a 5b 3e 3d 37 13 09 be d6 e6 93 3f
       1.8995591 0.04647354 -0.13386236 1.155482
000210 16 69 fd 3f 12 16 59 3f c9 75 be 3f a7 d7 12 bc
       1.9797695 0.847993 1.4879695 -0.008962548
000220 55 56 88 3f b8 b2 21 bf a7 36 ad be 44 27 1f 3e
       1.0651346 -0.6316333 -0.3383076 0.15542322
000230 1a 48 19 3f b5 c7 49 3f 0b df dc 3f 4c e2 aa 3e
       0.59875643 0.78820354 1.7255567 0.33375776
000240 1f a3 ac 3f 28 40 a1 3f 4f b6 d7 bf 88 52 b1 3e
       1.3487281 1.2597704 -1.6852511 0.3463328
000250 70 55 f1 3f 4e 14 07 3f bc c3 0b 3f f7 05 03 3f
       1.8854198 0.5276536 0.5459554 0.51180977
000260 52 fc 64 bd ea e8 24 3f cf aa 33 3e 61 77 a7 3e
       -0.055904694 0.644179 0.17545627 0.32708266
000270 34 5a 8a 3f ec 31 4d 3f 74 c4 6c bf c6 b0 50 3f
       1.0808778 0.801543 -0.92487264 0.81519735
000280 00 7f cb bb aa ac b4 3e 08 53 31 3f fb e7 2b 3f
       -0.006210208 0.35287982 0.6926732 0.6715085
000290 23 cc 1b 3f cc fd 53 bf 70 89 fa 3e 96 00 4e 3e
       0.6085836 -0.8280914 0.48932981 0.20117411
0002a0 15 16 37 be 61 6d f4 3e 08 ae ab 3f 4d 49 a0 3e
       -0.17879517 0.477397 1.3412485 0.31305924
0002b0 96 d8 24 3f 7c 77 ce 3e 6a f2 7b 3f a0 a7 32 3f
       0.64392984 0.40325534 0.9841677 0.69787025
0002c0 50 a8 9c 3e 73 ba 84 3f 28 16 fe 3e 87 dd d4 3e
       0.30597162 1.03694 0.4962628 0.41575262
0002d0 0c 43 22 3f 1f 9e 49 3f b7 7f b6 3d 95 2d 64 3e
       0.63383555 0.787569 0.089110784 0.22283013
0002e0 48 65 96 3f 41 88 01 3f 9a 9c 7d 3f d5 b8 8d 3f
       1.1749659 0.5059853 0.9906708 1.1072031
0002f0 ad 6b f3 3e f5 48 32 be 3b 59 9e 3e d5 d1 8f 3f
       0.47543088 -0.17410643 0.30927452 1.1235911
000300 a1 96 16 3e 46 90 d2 bd 61 05 99 bb 9e 00 9c 3f
       0.14705898 -0.10281424 -0.0046698307 1.2187688
000310 5f 9f 57 3f c4 55 af 3e 24 ca 0d 3f 49 d2 27 3f
       0.84227556 0.3424512 0.5538657 0.65555245
000320 24 e5 87 3e 21 cc 9c 3f aa 1d 75 3d 2f 3f 16 3d
       0.26542008 1.2249795 0.059842743 0.03668135
000330 a1 68 e4 3e 7a ff c6 3e 4a 5a fa bf 20 45 37 3f
       0.44611076 0.38866788 -1.9558804 0.7158985
000340 62 ce 0c bf 47 c5 49 bd 7e 48 51 3f f4 9f 99 3f
       -0.55002415 -0.049260404 0.8175124 1.2001939
000350 a4 a3 5e bf 0e 3e 68 3f ab ae ff be 54 f7 3f 3e
       -0.86968446 0.9071969 -0.4993795 0.18746692
000360 a2 4c 5e be 32 5e f6 bd 17 38 2c bf 7e 0a 7e 3f
       -0.2170892 -0.12029685 -0.67273086 0.9923476
000370 38 4a 52 3f 73 d3 4b 3e 80 b8 c7 3c 80 95 4b bf
       0.821445 0.1990488 0.024379969 -0.79524994
000380 11 e0 0f 3e e4 55 8a 3f 3a 0d 7c 3f 11 ee f2 3e
       0.14050318 1.0807462 0.9845768 0.47447255
000390 99 99 29 3f d2 ea bf 3e 48 d3 11 3f 8f 46 30 3f
       0.66249996 0.3748384 0.56963015 0.68857664
0003a0 80 03 ed 3e 5a a4 37 bc 9d 6b dd 3e 6e fd 90 3e
       0.46291733 -0.011208618 0.43246165 0.28318352
0003b0 32 0c 5b 3d 08 51 7f 3f 30 d6 df 3d 8e f0 8f be
       0.053478427 0.9973302 0.10929525 -0.28113216
0003c0 aa a0 c3 3f b0 0d c7 3e b2 58 0e bf d5 58 6d 3e
       1.5283406 0.3887763 -0.5560409 0.23178418
0003d0 1d 6b 34 3e 25 7c 25 3f 3e 70 91 3f 72 b6 29 be
       0.17618985 0.64642555 1.1362379 -0.16573504
0003e0 ae d9 8b 3e c4 c0 5b 3e f5 78 f9 3e 74 e3 0a bf
       0.27314514 0.21460253 0.48725095 -0.54253316
0003f0 f0 46 23 3f 88 6f ad 3f 15 f0 1a 3e 6e a8 32 bd
       0.6378012 1.3549662 0.15130647 -0.04361766

network_body.observation_encoder.processors.0.normalizer.running_mean f4 [13]
000000 84 4b 22 44 58 91 14 44 c3 8f 48 44 9d 09 69 44
       649.17993 594.271 802.2463 932.1502
000010 00 00 00 00 ee d6 b9 44 2b 33 97 43 bd 4f 0b 44
       0.0 1486.7166 302.39975 557.2459
000020 9b 57 3d 44 c5 02 21 43 48 85 a2 42 36 70 21 43
       757.36884 161.01082 81.260315 161.43832
000030 1e ee 6b 43
       235.93015
