results/CellEating/My Behavior/My Behavior-341.pt (torch, 157791 bytes, 25 tensors)

discrete_act_size_vector f4 [1, 2]
000000 00 00 40 40 00 00 40 40
       3.0 3.0

network_body.observation_encoder.processors.0.normalizer.running_mean f4 [6]
000000 17 67 28 42 55 df be c2 ae a4 7c 43 85 f5 5f 43
       42.100674 -95.436195 252.64328 223.95906
000010 e2 bb 33 43 0c e8 c2 42
       179.73392 97.45322

network_body.observation_encoder.processors.0.normalizer.running_variance f4 [6]
000000 db 83 b0 49 6e cd 59 49 10 4f 36 49 1c f6 32 49
       1.4460114e+06 892118.9 746737.0 733025.75
000010 dd db 3e 49 3e 46 39 49
       781757.8 758883.9

network_body.processors.0.normalizer.running_mean f4 [6]
000000 17 67 28 42 55 df be c2 ae a4 7c 43 85 f5 5f 43
       42.100674 -95.436195 252.64328 223.95906
000010 e2 bb 33 43 0c e8 c2 42
       179.73392 97.45322

network_body.processors.0.normalizer.running_variance f4 [6]
000000 db 83 b0 49 6e cd 59 49 10 4f 36 49 1c f6 32 49
       1.4460114e+06 892118.9 746737.0 733025.75
000010 dd db 3e 49 3e 46 39 49
       781757.8 758883.9

network_body._body_endoder.seq_layers.0.weight f4 [128, 6]
000000 91 83 02 3e 2f ae cf be 8f b3 94 be 0d 1c 0e 3f
       0.12745501 -0.4056258 -0.29043242 0.5551155
000010 19 75 d4 be cb 66 09 3c 55 fa c6 3d c4 da 8b 3d
       -0.41495588 0.008386324 0.09715716 0.068288356
000020 c4 08 85 be f7 35 8d 3f b1 ae 7f 3e cc c0 78 3d
       -0.2598325 1.1032094 0.24968983 0.06073074
000030 5c 86 6a 3e ef 5d ab be 41 9d e6 be c0 79 2b bf
       0.22902817 -0.33470103 -0.4504185 -0.6698265
000040 68 56 17 3f 0c 3a a9 be 62 29 b6 3c fe 3d ec 3d
       0.5911622 -0.330521 0.02223653 0.115352616
000050 3d df 31 be 1b e5 2b be 5e 1a da 3e db 25 44 be
       -0.17370315 -0.16786616 0.42598242 -0.19155066
000060 c6 85 09 3e 7c c7 0f 3e 78 cd 47 bf 0a 09 11 bf
       0.13429937 0.14040941 -0.78047895 -0.5665442
000070 09 4d 2a 3e 0a 54 18 3f 93 7a 05 3f fb 92 1f 3e
       0.16630949 0.59503233 0.5214016 0.15583412
000080 d7 94 21 bf 67 6a 49 3d cc 16 90 bc 29 cb 59 be
       -0.63117737 0.04917374 -0.017588995 -0.21268906
000090 70 a3 4a 3e e0 97 78 be 71 74 76 be cf 61 9b 3e
       0.19788909 -0.24276686 -0.24067856 0.3034806
0000a0 03 c7 ea be d2 1a e0 3d cd 05 ab 3e 5f a1 19 bf
       -0.4585496 0.109426156 0.33402863 -0.6001186
0000b0 69 b5 10 3e 0b e0 ae bc 11 25 f7 3e 00 52 b2 be
       0.14131702 -0.021347066 0.48270467 -0.34828186
0000c0 f3 91 17 3e 95 97 84 be 4d f3 55 bc 81 c8 2e 3e
       0.14801769 -0.25896898 -0.013058496 0.17068674
0000d0 10 dd 5d 3e 79 1e 99 be c0 50 b5 3e c5 60 73 3e
       0.2166636 -0.2990606 0.3541317 0.23767383
0000e0 c4 3e 81 3e fa 79 c2 be bb ad 0c 3f 34 1f a1 3e
       0.252432 -0.37983686 0.5495259 0.3146912
0000f0 01 8e 35 3d 8b bb 7e 3d 39 94 05 be 64 be 84 be
       0.04432488 0.062190574 -0.13044824 -0.25926507
000100 90 a3 dc 3e dd 29 62 bf 2f 60 21 3c 01 88 82 3e
       0.43093538 -0.8834513 0.009849592 0.25494388
000110 49 8c 26 3f b9 0f 0b 3d 43 bb 46 3f 66 8b fa 3d
       0.6505781 0.03395054 0.7762949 0.122336194
000120 05 00 4c 3d 2b 51 37 be d9 d6 07 3f 11 7d 8b 3c
       0.049804706 -0.17902057 0.53062207 0.01702741
000130 20 9d 9f be 9c 62 55 3e 70 09 85 bd ca 16 f0 3e
       -0.31174564 0.20838398 -0.06495941 0.46892387
000140 8e 6e 71 3e 12 cd b2 3e cf dd 3f 3e 73 0b 7d bf
       0.2357733 0.3492208 0.18736957 -0.98845595
000150 28 fc 12 3e 56 6d ff 3e a2 b3 86 3d 33 aa c8 bd
       0.14354002 0.49888104 0.06577231 -0.09798088
000160 c0 78 2a 3e 36 d3 4e bf 76 b0 08 3f e9 3b 3f 3d
       0.16647625 -0.8079103 0.5339426 0.046687994
000170 d9 08 f1 be e1 f9 cf 3e ed d5 8a be 20 00 30 bf
       -0.47077063 0.4062033 -0.27116337 -0.6875019
000180 a5 be 70 be c9 cf de 3e c1 06 0b bf 9a ac 11 be
       -0.23510225 0.43517902 -0.5430718 -0.14225999
000190 bf 78 f4 3d ad b0 d9 3e 20 b4 13 3e db 1d 3b 3f
       0.11937093 0.42517605 0.14424181 0.7309243
0001a0 5f 11 74 bf 27 dc 9e be 0d 47 4f 3f b2 a3 cf 3d
       -0.95339006 -0.31027338 0.8096779 0.10138644
0001b0 77 67 eb 3d 28 a7 6a 3e 68 68 cf be 99 4d 89 be
       0.11494344 0.22915328 -0.40509343 -0.26817015
0001c0 45 b5 90 3e 95 28 c3 be e1 a7 8d 3e be ac 94 3b
       0.28263298 -0.381169 0.27667144 0.004537194
0001d0 c7 b2 a6 be f1 81 cf 3e a7 70 ef be d8 db 23 3e
       -0.3255827 0.40528825 -0.46765634 0.16001832
0001e0 f3 5d a9 be 4e 0b 0e bf a6 9f b9 3e 89 f8 76 bd
       -0.3307949 -0.55486 0.36254615 -0.060295615
0001f0 bc 38 7a 3e a3 12 91 3e fc f6 1f 3f f6 00 97 be
       0.24435705 0.2833453 0.62486243 -0.2949292
000200 d1 87 12 bf 5d dc 12 bf bb 5c d8 3d e5 89 b5 be
       -0.5723849 -0.573675 0.10564562 -0.35456768
000210 a1 fe 68 be 56 c9 81 3e 19 3d 31 be 3b 92 dd 3c
       -0.22753383 0.2534892 -0.17308463 0.027047267
000220 19 0f 44 3f 1e 1e 32 bd f9 46 82 be 61 f6 1a 3f
       0.7658554 -0.043485753 -0.25444773 0.60532194
000230 d3 bd 07 3e e2 ca 65 bd 40 8b 84 be 88 f7 a3 3e
       0.13256006 -0.056101687 -0.2588749 0.3202479
000240 68 c7 ef 3e d0 90 60 bf 33 75 87 3f 83 3f 28 be
       0.46831822 -0.87720966 1.0582641 -0.16430478
000250 79 10 07 be 2d aa df 3d 8e 66 06 3f fd 98 a5 be
       -0.13189878 0.1092113 0.52500236 -0.32343283
000260 04 8e fe 3e ae f7 0f 3f 0e c4 1a bf 4d 1f db 3e
       0.49717724 0.56237304 -0.60455406 0.42797318
000270 bf e5 50 3e ca 4a 55 3e 49 50 14 3f de 3b 1e 3e
       0.20400141 0.20829311 0.57935005 0.15452525
000280 55 49 e9 3c 0e 00 e0 be e5 cb 76 bf 7c 7a 85 3d
       0.02847735 -0.43750042 -0.9640487 0.06517503
000290 46 af 34 3f 57 59 98 be 46 b4 8b bd 4e a9 a0 3e
       0.70579946 -0.2975566 -0.06821494 0.3137917
0002a0 2d 6e c5 3d 06 02 27 3f a6 0a 24 be 00 9e 42 bf
       0.09640155 0.6523746 -0.16019687 -0.7602234
0002b0 90 72 09 3f e8 ed 1c be 6a e2 68 bd b2 92 6b bf
       0.53690434 -0.15325129 -0.05685655 -0.92020714
0002c0 35 92 7e 3e a4 ea be 3d 8c ca b0 bd be b6 a6 be
       0.24860461 0.09322098 -0.08632383 -0.32561296
0002d0 5d 88 3f 3e 3b 60 33 be 78 a1 41 3f 35 99 9e be
       0.18704362 -0.17517178 0.75637007 -0.30976263
0002e0 88 22 a2 bc e5 71 2c 3e 06 ee 05 bf f2 2f 1d 3f
       -0.019791856 0.16840322 -0.5231632 0.61401284
0002f0 1b a4 18 bf 20 67 e0 3d 84 1e 8d bd 29 86 f0 3e
       -0.59625405 0.109571695 -0.06890586 0.46977356
000300 65 85 a0 bd 48 f4 c4 be b2 84 e8 bd a4 b5 24 be
       -0.07837943 -0.38467622 -0.113534346 -0.16084915
000310 42 13 38 3d 9b 35 97 bd 3f 06 d6 be 5c 16 52 be
       0.04494024 -0.07383271 -0.4180164 -0.20516342
000320 eb e2 9b 3d cf a8 00 bd ae b3 e9 bd 1c cd 4f be
       0.076116405 -0.03141099 -0.11411224 -0.20293087
000330 12 6a 2e 3e 06 78 16 3b 51 93 5c bf 51 33 36 bf
       0.1703265 0.0022959723 -0.86162287 -0.7117205
000340 99 7b cb be d5 5f 6f bf 7b 1c 9c be ce 5b 08 bf
       -0.39742735 -0.93505603 -0.3049048 -0.5326508
000350 b5 0d 74 3e 65 7c 9a bd 65 7e 06 3e 46 81 91 be
       0.23833354 -0.075432576 0.13134153 -0.2841894
000360 2b f4 9d 3e c9 1e 94 be 3e f0 0e 3e c4 5a 28 bf
       0.30850348 -0.28929737 0.13958833 -0.657635
000370 44 4b 94 bd cf 1d f9 3e 3e 11 56 bf 67 94 ea 3e
       -0.07240918 0.48655555 -0.8362006 0.45816347
000380 23 22 05 be 66 93 12 bf 7e ba 55 be e3 94 83 be
       -0.13001303 -0.5725616 -0.20871922 -0.2569953
000390 00 ac 86 3e 8d 9b d4 3e a0 9b 11 bf 88 4a 5f be
       0.263031 0.41524926 -0.5687809 -0.21805775
0003a0 ea 7e 1f bf 33 6a 05 3f ca 23 21 3d 10 62 34 bf
       -0.6230303 0.5211517 0.03934077 -0.7046213
0003b0 94 a6 07 bd fb aa 6d bf 7e c0 88 3e 6d 13 85 bd
       -0.033117846 -0.9283902 0.2670936 -0.06497846
0003c0 e5 cf 5f 3e aa 64 02 bf 4e 69 5c 3f 2a aa 15 3f
       0.21856649 -0.5093485 0.8609818 0.58462775
0003d0 97 be f1 bd cb 39 dd bd 29 ee f2 3d 2b e2 1f 3f
       -0.1180393 -0.10802039 0.11861832 0.6245448
0003e0 12 d7 57 3b 93 62 b8 bb d6 d7 03 3f c5 54 68 be
       0.0032934588 -0.0056269853 0.51501215 -0.22688587
0003f0 1b 42 31 be 5d 66 2c bf af b1 ae 3e 32 f9 73 3e
       -0.17310373 -0.67343694 0.34119937 0.23825529

network_body._body_endoder.seq_layers.0.bias f4 [128]
000000 00 00 00 00 00 00 00 00 00 00 00 00 00 00 00 00
       0.0 0.0 0.0 0.0
000010 00 00 00 00 00 00 00 00 00 00 00 00 00 00 00 00
       0.0 0.0 0.0 0.0
000020 00 00 00 00 00 00 00 00 00 00 00 00 00 00 00 00
       0.0 0.0 0.0 0.0
000030 00 00 00 00 00 00 00 00 00 00 00 00 00 00 00 00
       0.0 0.0 0.0 0.0
000040 00 00 00 00 00 00 00 00 00 00 00 00 00 00 00 00
       0.0 0.0 0.0 0.0
000050 00 00 00 00 00 00 00 00 00 00 00 00 00 00 00 00
       0.0 0.0 0.0 0.0
000060 00 00 00 00 00 00 00 00 00 00 00 00 00 00 00 00
       0.0 0.0 0.0 0.0
000070 00 00 00 00 00 00 00 00 00 00 00 00 00 00 00 00
       0.0 0.0 0.0 0.0
000080 00 00 00 00 00 00 00 00 00 00 00 00 00 00 00 00
       0.0 0.0 0.0 0.0
000090 00 00 00 00 00 00 00 00 00 00 00 00 00 00 00 00
       0.0 0.0 0.0 0.0
0000a0 00 00 00 00 00 00 00 00 00 00 00 00 00 00 00 00
       0.0 0.0 0.0 0.0
0000b0 00 00 00 00 00 00 00 00 00 00 00 00 00 00 00 00
       0.0 0.0 0.0 0.0
0000c0 00 00 00 00 00 00 00 00 00 00 00 00 00 00 00 00
       0.0 0.0 0.0 0.0
0000d0 00 00 00 00 00 00 00 00 00 00 00 00 00 00 00 00
       0.0 0.0 0.0 0.0
0000e0 00 00 00 00 00 00 00 00 00 00 00 00 00 00 00 00
       0.0 0.0 0.0 0.0
0000f0 00 00 00 00 00 00 00 00 00 00 00 00 00 00 00 00
       0.0 0.0 0.0 0.0
000100 00 00 00 00 00 00 00 00 00 00 00 00 00 00 00 00
       0.0 0.0 0.0 0.0
000110 00 00 00 00 00 00 00 00 00 00 00 00 00 00 00 00
       0.0 0.0 0.0 0.0
000120 00 00 00 00 00 00 00 00 00 00 00 00 00 00 00 00
       0.0 0.0 0.0 0.0
000130 00 00 00 00 00 00 00 00 00 00 00 00 00 00 00 00
       0.0 0.0 0.0 0.0
000140 00 00 00 00 00 00 00 00 00 00 00 00 00 00 00 00
       0.0 0.0 0.0 0.0
000150 00 00 00 00 00 00 00 00 00 00 00 00 00 00 00 00
       0.0 0.0 0.0 0.0
000160 00 00 00 00 00 00 00 00 00 00 00 00 00 00 00 00
       0.0 0.0 0.0 0.0
000170 00 00 00 00 00 00 00 00 00 00 00 00 00 00 00 00
       0.0 0.0 0.0 0.0
000180 00 00 00 00 00 00 00 00 00 00 00 00 00 00 00 00
       0.0 0.0 0.0 0.0
000190 00 00 00 00 00 00 00 00 00 00 00 00 00 00 00 00
       0.0 0.0 0.0 0.0
0001a0 00 00 00 00 00 00 00 00 00 00 00 00 00 00 00 00
       0.0 0.0 0.0 0.0
0001b0 00 00 00 00 00 00 00 00 00 00 00 00 00 00 00 00
       0.0 0.0 0.0 0.0
0001c0 00 00 00 00 00 00 00 00 00 00 00 00 00 00 00 00
       0.0 0.0 0.0 0.0
0001d0 00 00 00 00 00 00 00 00 00 00 00 00 00 00 00 00
       0.0 0.0 0.0 0.0
0001e0 00 00 00 00 00 00 00 00 00 00 00 00 00 00 00 00
       0.0 0.0 0.0 0.0
0001f0 00 00 00 00 00 00 00 00 00 00 00 00 00 00 00 00
       0.0 0.0 0.0 0.0

network_body._body_endoder.seq_layers.2.weight f4 [128, 128]
000000 d9 cb 53 3d d7 60 25 3d 38 03 2b 3e 82 3f 70 3c
       0.051708076 0.040375557 0.16700447 0.014663579
000010 ee cb 37 bd cc 5d 2f be 1d 3d 16 be 99 9d 55 3c
       -0.044872217 -0.17125624 -0.1467175 0.0130380625
000020 44 14 d2 bc 68 77 df 3c 10 e8 70 bd 65 0a b4 3d
       -0.025644429 0.027278617 -0.058815062 0.08791045
000030 1b ba c6 3d 11 c5 c1 3d e0 9f 83 3d 2d 2b a7 3c
       0.097034656 0.094614156 0.06426978 0.02040633
000040 0d e7 0b be d7 a0 1e bd 84 40 7c 3d 4c bf 42 bd
       -0.13662358 -0.038727608 0.061584964 -0.047545716
000050 d8 12 39 3b d8 b0 4a 3d 59 c3 48 3e c4 df 00 be
       0.0028239992 0.049485058 0.19605769 -0.1258536
000060 2f 0a 06 be 79 4b 81 bd e1 de 08 3d 48 00 73 3d
       -0.13089822 -0.063132234 0.03341568 0.05932644
000070 65 00 bb bb 18 85 f0 3d 81 18 9e 3c dc 85 79 3e
       -0.005706834 0.117441356 0.019298794 0.2436747
000080 c5 3a 8c bc 97 ea 60 bb 31 db 20 3d a0 9c b7 3c
       -0.017117867 -0.0034319514 0.039271537 0.022413552
000090 09 ed 9b bd 5b e5 a5 3c 21 5a 8a bd 21 1a ed 3d
       -0.0761357 0.020250967 -0.06755472 0.11577249
0000a0 3b 90 ff bd 14 69 b5 bd 24 fc a8 bc 0a 47 d9 3c
       -0.12478682 -0.08857933 -0.020628043 0.026523132
0000b0 96 21 c9 3d 89 6c fa 3c 65 d3 fa bc ef c0 31 ba
       0.09820859 0.030569332 -0.030618379 -0.00067807635
0000c0 b7 11 c7 bd 41 a3 f8 3c ae 06 d4 bd 8d 92 14 3e
       -0.09720176 0.030351283 -0.103528365 0.1450903
0000d0 8b 67 0f 3d 53 13 2d 3e 01 32 c1 bd 57 52 a0 3c
       0.035010856 0.16901903 -0.094333656 0.019570513
0000e0 69 6b 0f 3d a5 b6 f4 bc 36 af f2 3d bf b1 13 3d
       0.035014544 -0.029872248 0.11849825 0.036058184
0000f0 47 ec 18 3d 7a 98 c2 3d e7 5c 8d bd 50 58 22 3d
       0.037334707 0.09501739 -0.06902485 0.039635003
000100 c4 71 62 3d f6 0f 97 bc 71 96 59 bd 9e d4 2c 3e
       0.055284277 -0.018440228 -0.053121988 0.16877982
000110 7a 1e f2 bd 44 ba 8e 3d f4 d6 88 bc 1d 67 bd bc
       -0.11822219 0.06969121 -0.01670406 -0.023120457
000120 5f 08 a2 3d 0f 71 5b bd fb 38 89 3d 70 1b 4b be
       0.07911753 -0.053574618 0.06700321 -0.19834685
000130 90 a6 39 3d 08 a7 b1 bb f2 84 9f 3d 4a 15 38 bc
       0.045324862 -0.005421523 0.07789029 -0.011235544
000140 8f 8c 99 3d aa fe c0 bd 82 a3 90 3d 13 a1 69 bd
       0.074975125 -0.09423573 0.07062437 -0.057038378
000150 c0 81 9c 3d 88 76 58 3d ec ed 8f 3d 52 29 55 bc
       0.07641935 0.052847415 0.07027802 -0.01301034
000160 aa 33 c1 3c 7a 42 8c ba 54 47 4b bc c3 55 01 3d
       0.023584206 -0.0010700964 -0.012407143 0.03157593
000170 90 58 18 3e d5 da eb 3c 75 33 e1 3d f4 7e f0 3d
       0.14877534 0.02879087 0.10996143 0.117429644
000180 48 c5 8d bd 3e 75 90 bd 33 87 7d be ac 42 c5 bc
       -0.06922394 -0.07053612 -0.24758606 -0.024079643
000190 21 1c a9 3c fc f5 88 3d 27 ca 1b bd be 08 44 bd
       0.020643296 0.06687543 -0.038034584 -0.0478599
0001a0 a1 29 ef 3c d0 6d e2 3d e1 5c c6 bc 4c 92 ab 3b
       0.029194655 0.11056101 -0.02421421 0.005235946
0001b0 41 17 ec 3d 44 bc 31 bd 52 e1 9d bd 1c 1a d2 bd
       0.11527873 -0.043392435 -0.07708992 -0.10258886
0001c0 1a 9e d9 bd 88 15 c8 bd a0 03 38 be 0e c1 a6 3d
       -0.106258586 -0.09769732 -0.17970133 0.08142291
0001d0 d8 2a d8 bd c7 59 d1 bd c4 4b 99 bd 38 fa b1 3d
       -0.10555047 -0.10222202 -0.07485154 0.086903036
0001e0 d1 34 db 3c 24 34 09 3e 94 d6 8e 3c a7 c0 08 3e
       0.026758583 0.13398796 0.017436303 0.13354741
0001f0 92 77 6b bb ed 53 fa bc 03 d8 07 be 72 83 d5 3d
       -0.0035929424 -0.030557597 -0.13265996 0.10425462
000200 9d b5 03 be fa d2 8a 3a 93 34 93 3b 29 59 c3 3c
       -0.12862249 0.001059144 0.0044923513 0.023846226
000210 4c 17 f1 bc c3 5e a4 bd 97 67 44 3e 28 7b 86 bd
       -0.029430054 -0.08025887 0.19180141 -0.06566459
000220 04 e4 41 3d 27 ff d9 bc 45 18 d7 3d d9 d8 16 be
       0.047336593 -0.026610924 0.10502676 -0.14731158
000230 9f 55 12 bc 60 c1 15 be 70 46 e6 3c 1a 4a c4 bd
       -0.0089315465 -0.14624548 0.02810976 -0.09584446
000240 12 e0 e5 bd 37 f7 7c bd d1 f9 c7 bc be d4 b2 3c
       -0.11224379 -0.0617592 -0.024411114 0.021829959
000250 19 77 39 3c 6a ef 70 bd 87 a8 95 bd e5 94 2c bd
       0.011319899 -0.058822073 -0.07307535 -0.042134184
000260 e9 85 c2 bb a7 6d 3a 3d 39 49 dc 3c 89 f8 84 bd
       -0.0059363735 0.04551473 0.026890384 -0.06492717
000270 25 55 ca bc 5a 67 0a 3e 40 35 81 bc a3 b2 ee 3d
       -0.024698803 0.13515988 -0.015772462 0.11655166
000280 ae 29 37 3d 7e 1d 7c bd af a8 06 be a8 10 62 bd
       0.044717483 -0.061551563 -0.13150285 -0.055191666
000290 4f 3b a7 bb 15 98 99 bb f5 95 79 3c 7b 14 9c bc
       -0.0051035057 -0.004687319 0.015233506 -0.019052735
0002a0 81 4d a4 bc e4 ac db bd f8 4a 9d bd bf d0 65 3d
       -0.020056488 -0.10726336 -0.07680315 0.05610728
0002b0 47 0a fe bc 0c b0 ce bd 7f 3b dd bb 67 47 3d bd
       -0.03101076 -0.10092172 -0.0067514773 -0.046210673
0002c0 85 60 57 bd f4 fb 1b 3e 74 c9 1a bb 22 d1 96 bc
       -0.052582283 0.15232831 -0.002361861 -0.01841027
0002d0 2d 7b 0b bd 28 05 31 bc 8a 6d 11 be 59 6f 89 bd
       -0.034053016 -0.010804452 -0.14201942 -0.06710691
0002e0 e8 b9 49 bd 9e 09 ca bd d3 81 d4 3d c0 af f1 bb
       -0.04924956 -0.098651156 0.103763245 -0.0073756874
0002f0 65 2c 0d be 62 47 47 3d 4d dc c7 bd 34 af fa bd
       -0.13786466 0.04865206 -0.09758816 -0.122404486
000300 a3 cd f3 ba 83 ef 20 bd 06 e0 32 be f5 9c 4a 3d
       -0.0018600713 -0.039290916 -0.1746827 0.049466092
000310 26 46 0c 3d 30 09 11 be 54 11 a2 bc 8d 78 70 bd
       0.034246586 -0.14163661 -0.019783653 -0.058708716
000320 d6 33 84 bd 76 51 09 3c dd 2c 22 bd c7 d4 b7 bd
       -0.064551994 0.008381238 -0.039593566 -0.08976131
000330 37 10 25 be a7 00 01 3e da 1c 85 3d a9 ee 52 3e
       -0.16119467 0.12597905 0.064996436 0.20598854
000340 42 86 8b 3d 7f ed ff bc c3 7c 22 be 72 f3 51 bd
       0.06812717 -0.031241177 -0.15867905 -0.05125756
000350 d5 4a 05 3d 18 cf b3 3c c7 ee 76 3d da 6b 4e bc
       0.03254207 0.021949336 0.06028631 -0.012598956
000360 6d b4 5a bd 34 71 db bc 62 91 31 be ee da 57 3d
       -0.053394724 -0.026787378 -0.17340615 0.052699022
000370 5a 9b df 3d 88 45 d1 bd 13 b7 e2 3c d4 3d 89 3d
       0.10918303 -0.1021834 0.027675187 0.06701246
000380 f7 45 15 3d b2 80 a8 bd 4e be ad 3c 63 88 94 bd
       0.036443677 -0.08227672 0.021208908 -0.07252576
000390 ef c6 9c bd ed 00 c4 bd 2c cb 38 3d 57 2f ea 3d
       -0.07655131 -0.09570489 0.045115635 0.114348106
0003a0 7c 61 a9 3c b0 f2 60 bd 1b f1 38 bd ee de 7a bd
       0.020676367 -0.054918945 -0.04515181 -0.06124776
0003b0 11 18 65 bd c1 fa 12 bd 34 1f eb 3d 89 90 f1 bd
       -0.055931155 -0.03588367 0.11480561 -0.11795146
0003c0 a9 c1 b6 3d 62 e7 a3 bb 7f 3e 8d bd fe 63 17 be
       0.089236565 -0.005001948 -0.06896686 -0.14784238
0003d0 ae a6 22 bd dd 9f d0 3d d6 2f a1 bd d2 4d 80 3d
       -0.03970974 0.101867415 -0.07870452 0.06264843
0003e0 1a 1d 3d be 53 1c cd 3d f5 35 17 3d 53 dc 87 bd
       -0.18468133 0.10015168 0.03691669 -0.066338204
0003f0 4c 2c 8a bd c0 88 91 bd d5 d6 b8 bd 1c a2 8c bd
       -0.0674673 -0.07106161 -0.09025351 -0.068668574

network_body._body_endoder.seq_layers.2.bias f4 [128]
000000 00 00 00 00 00 00 00 00 00 00 00 00 00 00 00 00
       0.0 0.0 0.0 0.0
000010 00 00 00 00 00 00 00 00 00 00 00 00 00 00 00 00
       0.0 0.0 0.0 0.0
000020 00 00 00 00 00 00 00 00 00 00 00 00 00 00 00 00
       0.0 0.0 0.0 0.0
000030 00 00 00 00 00 00 00 00 00 00 00 00 00 00 00 00
       0.0 0.0 0.0 0.0
000040 00 00 00 00 00 00 00 00 00 00 00 00 00 00 00 00
       0.0 0.0 0.0 0.0
000050 00 00 00 00 00 00 00 00 00 00 00 00 00 00 00 00
       0.0 0.0 0.0 0.0
000060 00 00 00 00 00 00 00 00 00 00 00 00 00 00 00 00
       0.0 0.0 0.0 0.0
000070 00 00 00 00 00 00 00 00 00 00 00 00 00 00 00 00
       0.0 0.0 0.0 0.0
000080 00 00 00 00 00 00 00 00 00 00 00 00 00 00 00 00
       0.0 0.0 0.0 0.0
000090 00 00 00 00 00 00 00 00 00 00 00 00 00 00 00 00
       0.0 0.0 0.0 0.0
0000a0 00 00 00 00 00 00 00 00 00 00 00 00 00 00 00 00
       0.0 0.0 0.0 0.0
0000b0 00 00 00 00 00 00 00 00 00 00 00 00 00 00 00 00
       0.0 0.0 0.0 0.0
0000c0 00 00 00 00 00 00 00 00 00 00 00 00 00 00 00 00
       0.0 0.0 0.0 0.0
0000d0 00 00 00 00 00 00 00 00 00 00 00 00 00 00 00 00
       0.0 0.0 0.0 0.0
0000e0 00 00 00 00 00 00 00 00 00 00 00 00 00 00 00 00
       0.0 0.0 0.0 0.0
0000f0 00 00 00 00 00 00 00 00 00 00 00 00 00 00 00 00
       0.0 0.0 0.0 0.0
000100 00 00 00 00 00 00 00 00 00 00 00 00 00 00 00 00
       0.0 0.0 0.0 0.0
000110 00 00 00 00 00 00 00 00 00 00 00 00 00 00 00 00
       0.0 0.0 0.0 0.0
000120 00 00 00 00 00 00 00 00 00 00 00 00 00 00 00 00
       0.0 0.0 0.0 0.0
000130 00 00 00 00 00 00 00 00 00 00 00 00 00 00 00 00
       0.0 0.0 0.0 0.0
000140 00 00 00 00 00 00 00 00 00 00 00 00 00 00 00 00
       0.0 0.0 0.0 0.0
000150 00 00 00 00 00 00 00 00 00 00 00 00 00 00 00 00
       0.0 0.0 0.0 0.0
000160 00 00 00 00 00 00 00 00 00 00 00 00 00 00 00 00
       0.0 0.0 0.0 0.0
000170 00 00 00 00 00 00 00 00 00 00 00 00 00 00 00 00
       0.0 0.0 0.0 0.0
000180 00 00 00 00 00 00 00 00 00 00 00 00 00 00 00 00
       0.0 0.0 0.0 0.0
000190 00 00 00 00 00 00 00 00 00 00 00 00 00 00 00 00
       0.0 0.0 0.0 0.0
0001a0 00 00 00 00 00 00 00 00 00 00 00 00 00 00 00 00
       0.0 0.0 0.0 0.0
0001b0 00 00 00 00 00 00 00 00 00 00 00 00 00 00 00 00
       0.0 0.0 0.0 0.0
0001c0 00 00 00 00 00 00 00 00 00 00 00 00 00 00 00 00
       0.0 0.0 0.0 0.0
0001d0 00 00 00 00 00 00 00 00 00 00 00 00 00 00 00 00
       0.0 0.0 0.0 0.0
0001e0 00 00 00 00 00 00 00 00 00 00 00 00 00 00 00 00
       0.0 0.0 0.0 0.0
0001f0 00 00 00 00 00 00 00 00 00 00 00 00 00 00 00 00
       0.0 0.0 0.0 0.0

action_model._continuous_distribution.log_sigma f4 [1, 2]
000000 00 00 00 00 00 00 00 00
       0.0 0.0

action_model._continuous_distribution.mu.weight f4 [2, 128]
000000 a8 38 f8 3c 87 b6 0c 3b d3 22 e8 bc 0a ff 85 3c
       0.030300453 0.00214711 -0.028336918 0.016356964
000010 de 3a c1 3b 07 9b b9 bc 3b 07 94 bc 3b 97 76 3a
       0.00589691 -0.02265693 -0.018069854 0.00094066904
000020 c3 ff 11 bc cc 8e c7 3b e9 18 89 3c e8 c2 9a 3c
       -0.008911076 0.0060900208 0.01673551 0.018891767
000030 53 8c 5d bc ba 16 c8 3c 3a 45 c5 3c d6 a5 c3 ba
       -0.013522225 0.0244249 0.024080861 -0.0014926742
000040 47 d1 0e bb 6d 11 08 3b d5 5a 69 3b 50 b9 ab 3c
       -0.002179222 0.002076234 0.0035607119 0.020962387
000050 a8 ac cd 3b 14 68 95 bc 1b d0 e0 bb 77 eb b1 b9
       0.0062766857 -0.018238105 -0.0068607456 -0.00033935506
000060 1a f1 64 3c 9b 33 da 3b f0 b7 7e bc ac 3f ac bc
       0.013973499 0.006658984 -0.015546784 -0.021026455
000070 53 81 99 bc d0 af e2 3c 37 eb 69 bc 27 82 f4 3c
       -0.018738424 0.027671725 -0.014277271 0.029847218
000080 83 19 da 3c 12 1b 58 bb 9d 94 57 3c ad a3 69 3b
       0.026623493 -0.003297512 0.013157991 0.0035650537
000090 7e 68 05 bd 64 3f 08 bc 8f 12 b0 bb 6c f7 1f bb
       -0.032570355 -0.008315895 -0.005373306 -0.002440895
0000a0 8c df 89 bc 2d 57 b3 bc 3d 0f df 3b 53 c4 29 3c
       -0.016830228 -0.021892155 0.0068072365 0.010361749
0000b0 14 fa 12 bd 50 d5 ab bb 9b ac cc 3c 9a 21 d1 bb
       -0.035883024 -0.0052439347 0.024984648 -0.0063821794
0000c0 f7 3b 6d 3c 20 4a 0b bc df 78 1f 3b 47 a0 a9 3c
       0.014479629 -0.0085015595 0.002433352 0.020706309
0000d0 82 5c e2 bb e0 8c 84 3c 7c a0 b9 3a 15 35 69 3c
       -0.0069080004 0.016180456 0.0014162208 0.014233847
0000e0 69 28 ab bc ca 01 37 3c 6e 7d 2d bc c4 b0 c8 bc
       -0.020893293 0.01116986 -0.010588987 -0.02449835
0000f0 b6 96 a5 bb 3b 6f ba bb 20 2e 01 3a b7 07 8b 3c
       -0.0050533665 -0.0056895292 0.00049278326 0.016971452
000100 cd 1a 64 3c db 9e b3 bb 75 6c ec bc 12 c4 d4 bb
       0.013922405 -0.0054815835 -0.02886031 -0.0064931
000110 83 68 65 3c eb 07 e2 bb 7d f7 50 3c 47 f7 3a bc
       0.014001968 -0.0068979166 0.012754318 -0.011411495
000120 34 af 8a 3c fb ab a8 3b 67 61 0d bd bf 3e 77 3b
       0.016929246 0.005147455 -0.03451672 0.0037726609
000130 3c 42 94 3c 4b 3c 4f 3c 2a a3 27 3d e2 98 d8 ba
       0.01809799 0.012648652 0.04092709 -0.0016525055
000140 a0 1f c0 bb 07 63 ac 3b c5 37 bb 3b ac fc 8d bc
       -0.005863145 0.0052608284 0.0057134354 -0.017332397
000150 c0 0a ab 3c 2d 87 c5 3c 73 ed 4e bc f8 b1 a2 bb
       0.02087915 0.024112308 -0.0126298545 -0.004965063
000160 a6 b1 af 3a ba 92 8b 3b 53 4e e1 bb 3f 4e 4f 3b
       0.0013404384 0.0042594345 -0.006875792 0.0031632332
000170 c0 fe 02 3c 31 ed 0d 3c 8d 9e 96 bc 4e 54 a0 bc
       0.007995307 0.008662508 -0.01838615 -0.01957145
000180 d3 f6 a8 b9 78 33 ab 3c 52 43 fc 3b 24 41 48 3c
       -0.00032227355 0.020898566 0.007698455 0.012222562
000190 65 1f 89 bc 9b e5 b9 3b a3 fc a9 bb 3c b9 11 3c
       -0.016738603 0.005673123 -0.0051875873 0.008894261
0001a0 f2 c8 f7 38 ff 98 6f bc 4b cf 48 3c fa a2 ce ba
       0.00011815307 -0.014623879 0.012256454 -0.0015765124
0001b0 63 13 88 3c 78 a1 12 bb 8c c4 84 3b b6 a4 a9 39
       0.016610807 -0.0022374075 0.0040517505 0.0003235691
0001c0 6d be f3 3b a5 af 59 3c 0a c6 b2 bc e8 e0 7f bc
       0.007438472 0.013286506 -0.021822948 -0.015617587
0001d0 92 1c b9 3a 63 37 3f 3c 01 bf 80 ba ba 53 12 bc
       0.0014122894 0.01167092 -0.0009822549 -0.008931095
0001e0 90 9c d0 3c cb 90 9e 3b 6b ea e2 3c ab c8 38 bb
       0.02546528 0.004839038 0.02769967 -0.002819578
0001f0 fd e5 02 3d 0b 23 a4 3c 12 4f bf 3c 58 a5 9b 3c
       0.031957615 0.020036241 0.023353133 0.01899974
000200 8b c5 2d bc d8 df 51 bc 7d 2a 8c bb bb 3e 79 39
       -0.01060618 -0.012809716 -0.004277526 0.0002376986
000210 20 a6 e8 3c 66 5c 03 bd 4c df 14 3c a4 5b a0 bc
       0.028399527 -0.03207054 0.009086441 -0.019574948
000220 97 81 ba 3c fb 9c c0 3c 3f ba e6 bb 63 ec 8a 3c
       0.022766871 0.023512354 -0.0070412452 0.016958421
000230 53 9c 7a 3c 06 d2 22 bc a8 26 b3 bb b7 32 95 bc
       0.01529606 -0.009937769 -0.0054672547 -0.01821266
000240 7f ef 5a 3c 5f 6a 1d 3d c9 5f cb 3c ad b4 da ba
       0.013362764 0.03843152 0.024825947 -0.0016685926
000250 a3 07 d2 3c c7 43 d0 bc 67 a6 0f ba 42 f8 63 3c
       0.025638407 -0.025422944 -0.0005479813 0.01391417
000260 1f 9f d4 bc 73 58 7c 3c 34 cb 93 39 d6 93 0a 3c
       -0.025954781 0.015401947 0.00028189423 0.008458098
000270 57 cf 88 3b 2f b8 82 bb 2a 55 94 3b 0f 77 15 3b
       0.0041751075 -0.0039892416 0.004526754 0.002280656
000280 13 38 98 bc 0a 6b 99 3c 45 7a 4d bd 00 52 a3 bc
       -0.018581426 0.018727798 -0.050165433 -0.019936562
000290 93 1d fc bc f9 e6 96 3b 1d eb f3 3a 18 5b 2e bc
       -0.03077582 0.004605171 0.0018609498 -0.010641836
0002a0 b8 44 19 ba 9b d2 0a bb f0 44 a2 38 1f 5d 01 3d
       -0.00058467267 -0.002118266 7.7376026e-05 0.031582948
0002b0 2f 47 c3 bb 45 f8 6e 3a 34 00 c4 bc 2e c0 84 3c
       -0.0059594135 0.00091159745 -0.023925878 0.01620492
0002c0 9d 34 dc bc 68 0d cf 36 75 ef d8 3c 5b 93 aa bc
       -0.026880557 6.1706414e-06 0.02648137 -0.020822218
0002d0 1a 8c 7f 3c b0 a3 23 bd 2a 8d b2 bc b5 77 66 bb
       0.015597368 -0.039951026 -0.021795828 -0.0035166566
0002e0 78 da b0 bc bd 62 78 3a 23 0d 15 bc 43 e8 26 3c
       -0.021588549 0.00094751624 -0.00909737 0.010187211
0002f0 43 0d 0d bc da ff 25 bc 88 f2 47 bb ff 37 bc 3b
       -0.008609119 -0.010131801 -0.003050955 0.00574398
000300 0b 4b 7c bc 84 a0 c8 3b af 7d 69 bc 71 f5 15 bd
       -0.015398751 0.0061226506 -0.014251157 -0.036611024
000310 36 c6 4a 3c a9 54 2c bc d2 14 57 3c 7d 89 4b 3c
       0.012376359 -0.010518231 0.013127523 0.0124229165
000320 82 e6 89 bc 8f 82 4c bc a2 33 7f bb 73 0a c0 bc
       -0.016833548 -0.0124822995 -0.0038940688 -0.023442483
000330 ed 55 ef 3c 8c 96 9b 3c 22 e0 52 3c 12 e1 03 3c
       0.029215777 0.018992685 0.01287082 0.008049266
000340 53 52 7a bc dd 5a 74 3c a2 c8 2b bc 00 7b 88 bc
       -0.015278417 0.014914242 -0.010484846 -0.016660213
000350 e8 f4 d1 3c 88 54 9e 3c cf 22 5e 3c 69 20 9e 3b
       0.025629476 0.019327417 0.013558104 0.004825641
000360 41 15 8f bc 6d 23 e2 bb 0a 30 a8 bb 7c 47 34 3c
       -0.01746619 -0.0069011957 -0.00513268 0.011003371
000370 e7 20 3a bc 9b 41 46 bc d4 3d ca ba 2b 08 0e bd
       -0.011360384 -0.0121006025 -0.0015429803 -0.03467576
000380 99 40 b1 3c 03 20 b0 bc c7 5c d0 bc 06 15 0c bc
       0.021637248 -0.02149964 -0.025434865 -0.008549934
000390 57 ee 53 3c ea a9 dc 3c a7 00 20 bc 98 43 6d 3c
       0.012935243 0.02693649 -0.0097657805 0.014481448
0003a0 94 57 0d bd 45 5a a8 3c bd 7a bf bb 78 2a ab 3c
       -0.03450735 0.020550856 -0.005843489 0.020894274
0003b0 58 f7 9c 3c ab fc 60 bb a7 57 10 bd 0f 4f 13 bb
       0.019160911 -0.003433029 -0.03523984 -0.0022477543
0003c0 69 2e a7 bb 97 bd b5 3c cb 01 80 bc 1b fe 9a 3c
       -0.005101968 0.02218513 -0.015625855 0.018919995
0003d0 5e 70 bb bc 4d 08 52 bb d2 dc 1b 3a f7 22 b1 3c
       -0.02288073 -0.0032048405 0.00059456856 0.021623118
0003e0 67 52 b0 3c 34 7d 24 bc 07 4f 2f 3c cb a9 65 bc
       0.021523667 -0.010039616 0.010699994 -0.014017533
0003f0 d0 ae 41 3c 0b 7b 45 3b d2 77 d2 bc e3 91 ab 3c
       0.011821464 0.0030133154 -0.0256919 0.020943588

action_model._continuous_distribution.mu.bias f4 [2]
000000 00 00 00 00 00 00 00 00
       0.0 0.0

action_model._discrete_distribution.branches.0.weight f4 [3, 128]
000000 b8 92 eb bb e0 fb 4a 3c 92 30 20 3c 17 4c 07 bc
       -0.007189121 0.012389153 0.009777205 -0.008257887
000010 4f d2 b1 ba 1f b7 b5 bc 3a ba 58 3b 70 1b 54 3a
       -0.0013566705 -0.022182046 0.0033069984 0.0008091247
000020 7d ef f3 b9 eb e2 e3 3b 99 b8 91 3b 2a c4 54 bc
       -0.00046527004 0.006954541 0.0044470546 -0.012986222
000030 23 4a 47 3c d3 de 0d 3c 1b 23 26 bc 42 bd 57 bc
       0.012163672 0.008659082 -0.010140206 -0.013167681
000040 9a 19 50 bc 8d 49 b1 bb 72 f8 41 bc 62 0f e6 bb
       -0.012701416 -0.0054103793 -0.011839019 -0.0070208767
000050 c3 62 8b bc f8 2a 62 3c b5 66 fe bb f0 00 d4 bb
       -0.017014867 0.01380419 -0.0077637085 -0.0064698383
000060 08 39 55 bb f3 e8 49 ba bf f5 8e bb ba fe 05 bc
       -0.0032535214 -0.00077022536 -0.0043627913 -0.008178407
000070 6b 6c 56 bc 2f 86 17 3c d9 67 45 bc d7 57 10 3b
       -0.013087372 0.0092483 -0.012048685 0.0022025013
000080 6b 62 7c bc c5 2b 82 3a c8 67 61 b9 4f f7 fc 3b
       -0.015404324 0.0009931257 -0.00021496334 0.007719911
000090 a8 78 41 3b 6f 1d a7 3b d6 d5 3a 3a cd 59 d7 ba
       0.002952138 0.0050999443 0.0007127201 -0.0016429961
0000a0 2d ba 0b 3c 12 10 a4 3b 01 89 02 ba ab 44 94 3c
       0.0085282745 0.0050067985 -0.00049795216 0.01809915
0000b0 42 7d d4 3b 5f d9 2b bc cf 51 46 3c b7 45 4c 3c
       0.0064846585 -0.010488837 0.012104466 0.012467793
0000c0 5f a2 6c 3c d3 4e 1f 3c bd e1 e3 3b ef 24 aa 3b
       0.014443009 0.009723383 0.0069544003 0.005192391
0000d0 23 7d 4a bb 75 22 02 3c 93 04 42 3b 5b f3 f2 bb
       -0.0030897341 0.0079427855 0.0029604777 -0.007414264
0000e0 f3 76 dd bb 28 59 d0 bb 85 e0 d3 ba 92 38 0e 3c
       -0.0067585646 -0.0063582845 -0.0016164934 0.00868048
0000f0 c5 36 8b b9 ca 38 2e 3b 7e 27 aa 3b 3b 58 37 3c
       -0.00026552952 0.0026584142 0.005192696 0.011190469
000100 ea b7 00 3c 97 c3 6a 3b 1a ca 01 3c 1c ed 37 ba
       0.0078563485 0.0035822147 0.00792172 -0.0007016228
000110 a8 ac aa bb 44 4a c3 b9 d7 2f c0 3a 00 51 78 3c
       -0.0052085705 -0.0003724863 0.0014662695 0.015156031
000120 9c fa 0f 3c 0d 10 aa b9 7d 22 e8 ba c1 5b c3 bb
       0.008787777 -0.00032436886 -0.0017710474 -0.0059618657
000130 07 84 77 bc 0d 07 66 3b 5e 3c 8f bc 42 01 05 bc
       -0.015107161 0.0035099417 -0.01748484 -0.008117976
000140 48 86 70 3a 01 57 46 3b 23 6b 3a 3c 97 c6 9a bb
       0.0009175283 0.003026426 0.011378082 -0.004723381
000150 5f 89 49 3b 8e d2 c5 bb 33 16 6d 3c 00 03 2b bb
       0.0030752046 -0.006037063 0.014470625 -0.0026094317
000160 4a e7 13 3c 75 a2 35 bb 8c cd b1 3b 1f 9c 27 3b
       0.009027312 -0.002771524 0.0054261144 0.0025575233
000170 62 cb 45 3c 9f fc e8 bb cb b1 c3 bb b2 99 a9 bb
       0.012072416 -0.007110193 -0.0059721223 -0.0051757926
000180 63 5f 57 bc 7b 92 85 bc e7 af 0b 3b 52 d2 c7 ba
       -0.013145301 -0.016305199 0.0021314563 -0.0015245175
000190 13 0d 12 3c 5a 54 a9 bb 7a 67 72 3b 0d 50 07 bb
       0.00891425 -0.005167526 0.0036987946 -0.002064708
0001a0 52 cd 89 bc 6d 4f 11 3c e2 e2 0a b8 d5 23 9f bc
       -0.016821537 0.008869034 -3.3113065e-05 -0.019426266
0001b0 13 e9 1d bc 13 ab 24 bc b7 f5 07 3c 68 d1 bc bb
       -0.009638089 -0.010050553 0.008298329 -0.005762268
0001c0 bd 21 f6 bb d2 dc 95 bb 7e 66 29 bc 0f 0a 13 bc
       -0.007511346 -0.004573443 -0.010339377 -0.008974566
0001d0 98 0f 78 3b cb 2e 5c 3c 3c 82 bc 3a 18 85 08 bc
       0.0037851091 0.013438891 0.0014382075 -0.008332513
0001e0 4b 2e e1 bb ea e1 42 3a a5 4e ad 3a 69 60 1f 3c
       -0.0068719736 0.00074341765 0.001322229 0.009727576
0001f0 c9 11 28 bb ff c4 6b 3c 33 2f 84 3b a7 7f 57 bb
       -0.0025645366 0.014390229 0.004033947 -0.0032882483
000200 13 25 34 3c 7c db 83 bb dc bd a9 ba ba 61 ab 3a
       0.010995167 -0.0040239673 -0.0012950259 0.001307539
000210 c7 54 2d 3c 1b f1 bd 3b 6b b7 53 3b bd ec fe 3b
       0.0105792945 0.0057965643 0.003230537 0.0077796862
000220 c2 a3 ee 3b ab 6d 85 3c 33 b9 c5 ba 03 8a 9b 3a
       0.007282705 0.016287645 -0.0015085101 0.0011866692
000230 73 df ff ba 22 17 bf ba 57 05 87 3b 57 3a b3 bb
       -0.0019521549 -0.0014579038 0.0041205096 -0.005469601
000240 47 ef 1f bc 45 01 c3 bb 89 e7 c8 bb f0 43 f9 bb
       -0.009761638 -0.005951079 -0.0061311168 -0.0076069757
000250 34 44 37 3b 73 d5 3d 3c cd 28 7b 3c 2f 0e 8e 3c
       0.0027964236 0.011586535 0.015329552 0.017340748
000260 4a f4 bf bc eb 09 c6 ba 84 f2 87 3c ae 5d 3f bc
       -0.023431916 -0.0015109157 0.016595133 -0.01168005
000270 63 e2 26 3b be 8d c4 3b f4 e4 0d bc 05 6e 0c 3c
       0.0025464527 0.0059983423 -0.008660544 0.008571153
000280 f8 f7 91 3b 95 a7 55 3b 3a b6 52 bc be ac 9a 3b
       0.004454609 0.0032601107 -0.012860829 0.0047202995
000290 10 3a 88 bc 98 91 99 bb 2e 92 c1 3b c8 d9 22 3b
       -0.016629249 -0.0046865456 0.0059073186 0.0024849046
0002a0 dd d6 04 bc 07 30 82 bc a6 9c b5 3b 9e df 11 bc
       -0.008107868 -0.015892042 0.0055423556 -0.008903412
0002b0 7b 26 b8 3b 31 c8 15 bc 13 2b 29 3c 64 62 07 bc
       0.0056198216 -0.009141968 0.010325211 -0.008263204
0002c0 35 41 d7 bb 38 a1 88 bb 43 06 9b 3a 33 e2 97 3b
       -0.0065690526 -0.0041696094 0.0011827428 0.0046351193
0002d0 ff 5b 0a 3c 6a 2e 5c bc 98 a2 4c bb f6 d2 cb 39
       0.008444785 -0.0134388 -0.0031224843 0.00038876355
0002e0 e2 f7 2e bb 16 99 01 38 e2 8b 72 bb 40 0d 02 3b
       -0.0026698043 3.089857e-05 -0.0037009646 0.0019844323
0002f0 d7 c1 38 3c 4c 1d 98 3c f6 6c a5 bb fc 12 25 3c
       0.011276684 0.018568657 -0.0050483895 0.010075327
000300 eb 49 cd bb e9 0f 94 bb 54 ad 05 3b 0e 81 4c 3b
       -0.006264915 -0.004518498 0.00203975 0.0031204852
000310 ea 93 75 3b be 1c c2 3b 0f 2a f6 ba be 0e 36 3b
       0.0037472197 0.0059238365 -0.0018780845 0.0027779783
000320 c6 b7 27 3b 51 51 ac bb 60 96 c3 bb 7c f1 8c 3b
       0.0025591715 -0.005258717 -0.005968854 0.004301248
000330 ea 6c e1 39 82 e9 bd b6 df 01 f4 3b db 79 29 bc
       0.00042996492 -5.659823e-06 0.007446512 -0.010343994
000340 7e 99 a6 bc 59 ec 42 bc 6f d5 7a bb 8e e5 19 3c
       -0.020336863 -0.01189717 -0.003827419 0.009393109
000350 9f b2 11 b9 8b 7e 46 3c 20 d8 12 3c c3 78 42 bc
       -0.00013894819 0.012115131 0.008962661 -0.011869612
000360 3d 07 a8 ba fb 3e d7 3b 73 25 a0 ba 5d 37 eb 3b
       -0.001281954 0.006568787 -0.0012218192 0.0071782307
000370 e5 58 a7 ba 7f 03 98 3b e0 26 34 bb dc 04 90 bb
       -0.0012767582 0.0046390886 -0.0027488992 -0.0043951105
000380 cd 0d 15 bc 15 10 53 bc 78 33 02 3c c2 6a 61 3b
       -0.009097529 -0.012882252 0.007946841 0.0034395908
000390 9c b2 8f 3b ef 12 f8 ba b5 3d 83 bc 0f ec d7 ba
       0.0043853056 -0.0018926541 -0.016020635 -0.0016473549
0003a0 db 1f 1c 3c 23 2c 2a 3c e5 c6 ef 3b aa 2a 28 3c
       0.009529079 0.0103865 0.0073174112 0.010264078
0003b0 c8 3b 76 bb 91 f1 25 ba 84 25 3f bc 58 6a 4d bc
       -0.0037572253 -0.00063302467 -0.011666659 -0.012537561
0003c0 08 3b 80 3b b7 c3 22 3c f3 0e c5 bb 12 8d 33 bb
       0.003913287 0.009934357 -0.006013745 -0.0027397317
0003d0 9d 7c b7 3b 47 71 e9 bb b2 ec 08 bc f4 4e 45 3c
       0.005599572 -0.0071240994 -0.008357214 0.01204275
0003e0 28 8d 67 bc 08 e7 d3 3b 8f 51 97 3b fa c4 9c bb
       -0.014132775 0.00646675 0.004617877 -0.0047842236
0003f0 7b 85 86 bb e8 78 c8 bb b7 c0 75 bc 2b d3 76 3c
       -0.0041052676 -0.006117929 -0.01499956 0.015064995

action_model._discrete_distribution.branches.0.bias f4 [3]
000000 00 00 00 00 00 00 00 00 00 00 00 00
       0.0 0.0 0.0

action_model._discrete_distribution.branches.1.weight f4 [3, 128]
000000 e0 fe 4b ba ab 9c fe ba 9c ea 8f bb 55 f5 4c ba
       -0.0007781815 -0.0019425353 -0.0043919813 -0.000781854
000010 c8 d7 77 3b d8 4a 88 3b 3b 2a 95 39 45 d7 a4 3b
       0.0037817825 0.0041593127 0.0002845096 0.005030545
000020 00 17 d6 3b b7 32 b0 b8 22 b6 e9 3b a9 e3 3e 3b
       0.0065335035 -8.40178e-05 0.0071323076 0.0029127395
000030 1b 75 5b 3b 5b 8d aa bb 21 04 bd bb bf bf cf 3b
       0.0033486548 -0.005204839 -0.0057683145 0.0063399966
000040 f7 c8 6e bc b2 24 69 bb d9 b7 3f bb ef 08 9b 3b
       -0.014574281 -0.003557485 -0.002925387 0.0047312896
000050 fe e5 b5 bc a4 0e 85 bc da f4 23 3c ef 01 59 ba
       -0.022204395 -0.016242333 0.010007108 -0.0008278181
000060 73 ec f9 bb b5 6f 4c 3b cb 08 c7 3b ac 64 a8 3a
       -0.007627064 0.0031194512 0.0060740463 0.0012847385
000070 e6 44 b8 bc 8a 69 8b bb 24 60 29 bc 12 3f 50 ba
       -0.02249379 -0.0042545246 -0.010337863 -0.00079439685
000080 cd fd a9 3a 7c 08 c6 3a c3 77 2e 3b f7 16 a0 3a
       0.0012969315 0.001510873 0.0026621677 0.0012213875
000090 21 de 39 3c 58 58 e5 3b cf 2c 05 bb 28 a8 85 bb
       0.011344464 0.006999057 -0.0020320897 -0.0040788837
0000a0 66 42 9f 3b 6d c5 5c 3b 6d 74 54 bc 80 54 8d bc
       0.00486021 0.003368701 -0.012967211 -0.017252207
0000b0 53 fd 1f bc ab 35 db 3a 5f b7 bc bb f3 a0 24 3c
       -0.009764987 0.0016724368 -0.005759164 0.010048139
0000c0 83 fe ab bb 5f 75 24 bc 2a 81 13 3a cf 46 42 3b
       -0.005248846 -0.010037749 0.0005626852 0.0029644256
0000d0 d7 66 05 bc a4 b4 8e bc 00 b2 c7 bb 75 c9 d5 ba
       -0.008142195 -0.01742012 -0.0060942173 -0.0016310649
0000e0 65 d7 3f 3c 76 86 9c b8 8a 0f 34 3c 98 a8 bb 3b
       0.011709069 -7.463705e-05 0.010990033 0.005726885
0000f0 2d 68 02 bb 1f bf 18 bc f9 e4 0a 3b 7b d6 02 bc
       -0.001989852 -0.009322911 0.0021193607 -0.007985706
000100 ba ec 2a bb 37 ed 9e 39 d8 ca f6 3b 6b eb d0 bb
       -0.0026081041 0.00030312847 0.007531505 -0.0063757203
000110 7b 2a 0e 3b 41 67 bd ba 12 90 b4 bc ee 59 24 3b
       0.00216928 -0.0014450328 -0.022041354 0.0025078016
000120 e0 fb 26 bb cb 22 0b 3c 03 9c 7b 3a c2 44 da ba
       -0.002547972 0.008492182 0.00095981377 -0.0016652572
000130 23 f2 05 3c 60 fb d2 bb 32 18 4e ba b9 84 2b bc
       0.008175406 -0.0064386576 -0.0007861882 -0.010468655
000140 b0 00 6e 3c 67 87 6a 3b 13 33 cf bb 8f 47 e6 3b
       0.014526531 0.0035786272 -0.006323227 0.0070275734
000150 04 91 1c 3b eb 2e ae 3c 9a a5 4a 3c b8 04 da bb
       0.0023890147 0.021262607 0.012368584 -0.0066533946
000160 d2 b7 04 bc ef 71 b1 3a 35 c2 a5 3b ba c3 17 bc
       -0.008100467 0.0013537983 0.0050585517 -0.009262973
000170 f0 44 73 bc 08 63 4c bc f2 e6 b7 bb c8 4a ad bb
       -0.014847979 -0.012474783 -0.0056122476 -0.0052884556
000180 7a 36 d0 bc 0b e0 ca bb 8d 9a 79 3a 02 66 55 3b
       -0.025416601 -0.006191259 0.0009521626 0.0032562022
000190 9b e6 cf bb 13 7c 9a bb 87 fb 17 3c ff fe de bb
       -0.006344629 -0.004714498 0.009276277 -0.0068053002
0001a0 63 53 79 bc 05 ef 8c 3c 3f 4a 2d 3c e5 26 ee 3a
       -0.015217635 0.017203817 0.010576784 0.001816955
0001b0 a6 95 3a 3c e7 48 52 bc e5 ba e3 bb 72 4e a4 3b
       0.011388218 -0.012834764 -0.00694977 0.005014234
0001c0 bf 39 83 bb 13 e4 4c 3c 1d 60 4a 3b 0a 5d 99 3b
       -0.0040046866 0.012505549 0.0030880042 0.0046802806
0001d0 67 3c 61 bc 82 84 a1 3a fe db 32 3b cb a8 f7 3a
       -0.013747311 0.0012322816 0.002729177 0.0018894909
0001e0 a8 06 56 3c a5 48 65 3c 23 9c 2c bc 40 6b 6c bc
       0.01306311 0.013994371 -0.010535273 -0.014429867
0001f0 ff d3 8c bb 1b bd ac 3c 2d 21 88 3c 2f a8 8d bb
       -0.004297733 0.021086266 0.016617382 -0.0043230276
000200 fb 51 19 3c 94 33 21 bc 47 44 02 3c ff 02 6e 3c
       0.009357925 -0.009838957 0.007950849 0.0145270815
000210 77 9f 08 bb c6 e7 40 bb f3 b8 9f 3b c0 6a cc ba
       -0.0020847002 -0.0029435023 0.0048743426 -0.0015595779
000220 44 f9 94 3b df b6 8b b9 ed 31 4f 3b 47 7d 50 3b
       0.0045463163 -0.00026648396 0.0031615451 0.0031812952
000230 c3 58 4e 3c 68 7a 5f bc 1f f7 51 bc df 87 8c bb
       0.012594405 -0.013640024 -0.012815266 -0.004288658
000240 ab a0 49 bc 9b e4 bf 3b ce c1 bb 3b 6f b4 0c bc
       -0.012306373 0.0058561093 0.0057298904 -0.008587941
000250 f3 9a c7 3b 82 15 2e 3c 47 8b 13 bb 78 46 aa bb
       0.0060914694 0.010625245 -0.0022513436 -0.005196389
000260 29 41 3e bc f0 e3 c7 3b e2 f3 4c bc 24 11 43 3c
       -0.011612215 0.0061001703 -0.012509318 0.011905942
000270 57 72 0c 3c 47 54 0a 3c 41 a4 13 3c 73 48 cf bc
       0.008572183 0.008442945 0.009011329 -0.025303101
000280 59 58 0b bb a4 54 2e bb 68 76 39 3b a7 25 61 bb
       -0.0021262376 -0.0026600743 0.0028299335 -0.0034354718
000290 25 4e 83 3c c0 d1 61 3c b6 1e 04 bb 76 e0 8e bc
       0.016028473 0.013782918 -0.0020159907 -0.017441016
0002a0 a2 b3 53 3c a3 e4 a3 ba 16 6c a1 bc 96 8f 21 bc
       0.012921246 -0.0012504052 -0.01970486 -0.009860894
0002b0 b7 6e ff bb 79 7f b0 3b 36 74 09 3c c7 ab c9 3b
       -0.0077951807 0.0053862897 0.008389523 0.0061545107
0002c0 80 a4 df 3a cf ac 0e 3c f8 91 5c 3c 50 ba e2 3b
       0.0017062575 0.008708193 0.013462536 0.006919183
0002d0 b2 da 85 bb 99 00 2d 3c 9b e0 3c 3c 70 94 7f 3b
       -0.0040849084 0.0105592245 0.0115281595 0.0038998388
0002e0 7d 99 34 bb e0 dc 6a bb 55 eb 93 3a ba 58 cd 3b
       -0.0027557306 -0.0035837218 0.0011285344 0.0062666805
0002f0 dc 13 ad 3c d0 d3 8f bb 46 06 af 38 ad 21 e4 3b
       0.021127634 -0.0043892637 8.345819e-05 0.0069620223
000300 c6 5d 05 3a 20 9c 49 bc bc 8d 44 bc cd 6e 18 bd
       0.00050875207 -0.0123052895 -0.011996683 -0.037215043
000310 a7 8e 90 3b d1 2e b7 bb 6c 57 2f bb 5d b8 83 bb
       0.0044115367 -0.0055902977 -0.0026754988 -0.0040197806
000320 dd eb f4 3b 03 2f 89 bc 8c a7 9c 3a bf 27 af bb
       0.007474406 -0.01674605 0.0011951788 -0.0053453143
000330 c3 4a 08 b7 bb 50 a6 3c bf 18 92 3c d4 8d 23 bc
       -8.1236385e-06 0.020302167 0.017834065 -0.009982545
000340 60 ea ae bc 5d f0 63 3b 1d 19 5d bc 85 66 73 3b
       -0.021351993 0.003478072 -0.013494757 0.0037139964
000350 62 cf 6b 3c 57 f2 bd ba 23 37 2e bc de 5e 04 bc
       0.014392706 -0.0014491779 -0.010633263 -0.008079259
000360 87 46 93 bb 5f 46 9d 3a 83 36 18 bc bd 0e 27 3c
       -0.0044944915 0.0011999122 -0.00929034 0.010196385
000370 0b 1c 97 ba ef 39 2e bc 46 f7 13 3c 6f 77 b3 3c
       -0.0011528743 -0.01063393 0.009031123 0.021907536
000380 fd 37 85 b9 9b 8a 2e ba 5f 2f bb b9 75 b6 6b 3c
       -0.0002540945 -0.0006658227 -0.00035702714 0.014386763
000390 d2 97 f9 3b 1b ba dc 3b db 13 24 bc e5 12 60 3c
       0.0076169753 0.0067360527 -0.0100145 0.01367638
0003a0 5a 16 65 bc 7b ab 7f bb 43 30 3b bc 35 dd c4 bb
       -0.01398238 -0.0039012122 -0.011425081 -0.0060078152
0003b0 12 12 23 bc 95 e8 38 3c 03 7d 07 3c bc fa 2c bb
       -0.009953039 0.011285921 0.008269551 -0.0026394567
0003c0 34 40 38 3c 98 1c ce 3b 7d e4 67 bb f6 43 48 3b
       0.011245776 0.0062900297 -0.0035383992 0.0030558086
0003d0 b5 c0 f5 3a ef fc c1 ba ad 64 aa 3b ef 5f 44 bc
       0.0018749448 -0.0014800112 0.00519999 -0.011985763
0003e0 3d 37 e1 bb b7 8a 4d bc 4d 4a b4 3b 38 87 a2 3a
       -0.00687304 -0.012545279 0.0055020214 0.0012399917
0003f0 6c 81 30 bc 77 e3 3c b7 4f cb ab 3c f5 17 dd 3a
       -0.010773044 -1.1258634e-05 0.020970969 0.0016868102

action_model._discrete_distribution.branches.1.bias f4 [3]
000000 00 00 00 00 00 00 00 00 00 00 00 00
       0.0 0.0 0.0

network_body.observation_encoder.processors.0.normalizer.running_mean f4 [6]
000000 00 00 00 00 00 00 00 00 00 00 00 00 00 00 00 00
       0.0 0.0 0.0 0.0
000010 00 00 00 00 00 00 00 00
       0.0 0.0

network_body.observation_encoder.processors.0.normalizer.running_variance f4 [6]
000000 00 00 80 3f 00 00 80 3f 00 00 80 3f 00 00 80 3f
       1.0 1.0 1.0 1.0
000010 00 00 80 3f 00 00 80 3f
       1.0 1.0

network_body.processors.0.normalizer.running_mean f4 [6]
000000 00 00 00 00 00 00 00 00 00 00 00 00 00 00 00 00
       0.0 0.0 0.0 0.0
000010 00 00 00 00 00 00 00 00
       0.0 0.0

network_body.processors.0.normalizer.running_variance f4 [6]
000000 00 00 80 3f 00 00 80 3f 00 00 80 3f 00 00 80 3f
       1.0 1.0 1.0 1.0
000010 00 00 80 3f 00 00 80 3f
       1.0 1.0

network_body._body_endoder.seq_layers.0.weight f4 [128, 6]
000000 16 e6 e2 3d c2 f6 d5 be 1f 35 b1 be 35 5c fb 3c
       0.11079042 -0.41789824 -0.3461084 0.030683616
000010 e5 6a e7 3d 6d 71 12 3f 63 78 f7 3c af d9 2a bf
       0.112996854 0.57204324 0.030208772 -0.6673841
000020 8a ad b5 3e 1c 85 da be f2 54 77 3e e4 f9 d7 be
       0.35483962 -0.4267968 0.24153498 -0.4218284
000030 72 fb de 3e 3d c6 fa 3e 62 9f 5b be ac e6 d2 be
       0.43551213 0.4897937 -0.21447518 -0.41191614
000040 f7 8c ba be dc e8 00 3e cd f9 ce be 2d 82 c9 bc
       -0.36435673 0.12588829 -0.40424958 -0.024598205
000050 b1 86 fd 3d 1a c5 b6 3e 46 3e 65 bc d5 6d 39 bd
       0.12379206 0.35697252 -0.013991898 -0.04527076
000060 80 e6 b7 be db 81 ef bd eb d4 02 3f c3 82 19 bf
       -0.35918045 -0.1169469 0.5110614 -0.5996515
000070 36 17 7c 3f 3c cb e8 3e 68 0a 8c be c4 25 c8 3d
       0.9847292 0.45467556 -0.2735169 0.09772828
000080 ec dc 97 3e 55 fe 72 be f1 63 26 bf 4a ca d3 3e
       0.29660738 -0.23729832 -0.6499625 0.41365272
000090 91 a0 e1 be 71 d3 00 bd 09 6b 07 3f 87 06 1b 3e
       -0.44067815 -0.031451646 0.528977 0.15139209
0000a0 3f 64 b4 3d f8 c4 1d 3d f7 50 8b 3e 90 64 64 3f
       0.08808183 0.038517922 0.2721021 0.89215946
0000b0 a2 b7 ee bd 26 9a 26 be 74 e1 40 bf 78 fb 1d bd
       -0.11656119 -0.1626974 -0.75344014 -0.038569897
0000c0 5e 3c 93 bd 30 d9 fe 3d ed dd 01 3e 91 d2 a7 bd
       -0.071892485 0.12443769 0.12682314 -0.08194459
0000d0 8f 2a 85 be dc 78 99 3e 67 c9 10 bf bc 24 93 be
       -0.26009032 0.2997502 -0.56557316 -0.28738964
0000e0 47 d0 b8 3e a8 ea 8d 3e 0a d3 01 bf 5a 0f 35 bf
       0.36096403 0.2771809 -0.50712645 -0.7072655
0000f0 b0 00 1a 3e 70 73 09 3f e6 77 3d be c9 ff 0a be
       0.15039325 0.5369177 -0.18502769 -0.13574137
000100 8e ec 23 3f ee fe 98 3c 1d fa b0 be 30 44 12 3e
       0.6403283 0.018676247 -0.3456582 0.14283824
000110 cb 0c f8 bd 23 77 e0 be e5 17 00 bf 2c 1a aa 3e
       -0.12111815 -0.43840894 -0.5003646 0.33223093
000120 bc 19 11 3d a5 03 ec 3e 3e 51 96 3e a2 95 9e 3e
       0.035424933 0.4609653 0.29358858 0.30973536
000130 7a de b0 3e 51 f0 57 3f 9a 3e 76 bd 85 91 01 bf
       0.34544736 0.8435107 -0.060118295 -0.5061267
000140 d7 49 4a be 25 ce 8c be 56 70 60 3f 51 52 51 be
       -0.1975473 -0.27501026 0.8767141 -0.20441557
000150 80 42 8c 3e 5e 73 88 3e d9 19 f8 bd f9 b3 5c bd
       0.27394485 0.26650518 -0.12114305 -0.053882573
000160 ca 93 13 3e a4 87 d6 3c 55 0b cf 3e df 81 b8 be
       0.14411846 0.026187725 0.40438333 -0.36036584
000170 5e 49 80 3e 90 8b 9e 3e f6 f6 1f be 89 ce 15 3d
       0.25055975 0.30965853 -0.15621552 0.03657392
000180 fa 73 5d 3d bd 90 aa 3e 33 94 00 bd ff 3b cb be
       0.054065682 0.33313552 -0.031391334 -0.3969421
000190 07 69 0b bf fa 78 49 be 60 70 36 be a6 fa 51 3f
       -0.54457134 -0.19675055 -0.17816305 0.82023084
0001a0 d6 72 ca be c3 a8 90 3e 4a eb 37 3f bc 8f 40 3f
       -0.39540738 0.28253755 0.718434 0.7521932
0001b0 d8 20 13 bd 06 89 d9 be 47 03 cb bd f4 f4 0a bf
       -0.035919994 -0.42487353 -0.099127345 -0.5428002
0001c0 ce 6d 45 bf 32 67 88 3d 00 a7 1a be 9b ca 8f bd
       -0.77120674 0.06660308 -0.15102768 -0.07021066
0001d0 35 26 f7 3e 02 3d 87 be d3 70 01 3e 07 88 4b be
       0.48271337 -0.26413733 0.12640695 -0.19876109
0001e0 bf 6e 25 3e 16 09 cc 3e c1 85 36 3f 84 c6 01 be
       0.16155528 0.39850682 0.7129784 -0.12673384
0001f0 5b 0d 5b 3f b8 d4 84 3e e7 7f 84 be 88 d2 9b 3e
       0.85567254 0.25943542 -0.25878832 0.3043406
000200 9d 4a 8a bf 49 7a 09 3e 6a 46 02 bf 0f b1 07 bf
       -1.080402 0.13425554 -0.50888693 -0.53004545
000210 33 d1 09 3f ed af e3 be 16 17 b1 be 9f ae 00 3f
       0.5383484 -0.44470158 -0.34587926 0.5026645
000220 df 04 31 3f 90 6a 35 3e f3 f7 0c bd c9 e3 ed bd
       0.6914806 0.17716432 -0.03441615 -0.11615712
000230 14 df d0 be 0e 9d 60 be 70 df bb bb f5 c8 1d bc
       -0.40795195 -0.21934912 -0.005733423 -0.009630431
000240 3a 9f 57 be de db 3f bf 1f a1 79 3e e7 05 b4 3e
       -0.21056834 -0.74944866 0.24377869 0.35160753
000250 09 f2 61 3e 1b 17 98 bd 54 09 b5 3b 14 b9 52 bf
       0.22064985 -0.07426282 0.0055247936 -0.82313657
000260 72 8b a6 be f4 8c 2d 3d af 69 81 3e 20 5f 4c be
       -0.32528263 0.04237075 0.25275943 -0.19958162
000270 11 7c ce 3e b3 0a 0f 3d 62 47 2f 3e 7e d6 d8 bc
       0.4032903 0.034922313 0.17117074 -0.026469465
000280 c8 6c 3d bf 81 77 ed 3d 2e 19 9c be 8f 8d 1f bf
       -0.7399411 0.11595059 -0.3048796 -0.62325376
000290 0c 4c aa be 24 c9 1e 3d 0b 0b e3 3e f2 8f 05 3e
       -0.33261144 0.03876604 0.44344363 0.13043192
0002a0 17 1a 12 3f 63 8f d5 be f9 a4 c4 3e e7 23 18 3e
       0.5707106 -0.41710958 0.38407114 0.14857446
0002b0 04 44 7a 3e e6 75 f0 be de 26 30 bf d7 97 b8 3c
       0.24440008 -0.4696495 -0.68809307 0.02253334
0002c0 76 db 61 3f 8a 4d 98 3e 81 47 8e be 89 13 26 be
       0.88225496 0.29746658 -0.27788928 -0.1621839
0002d0 85 79 af 3e 7c 77 ec bd 72 80 f6 3e e9 25 f8 3e
       0.342724 -0.11546227 0.4814487 0.48466423
0002e0 96 84 5a 3e c4 bd 60 bc b3 62 22 bf 69 94 d4 3e
       0.2133964 -0.013717119 -0.63431853 0.41519478
0002f0 b5 83 00 bf ea 40 56 bf 41 92 a5 be 9e 28 25 bf
       -0.5020097 -0.836928 -0.32338145 -0.645151
000300 67 8d 5d 3f 54 af 1a bd 6b 52 da be 06 da 11 bf
       0.8654389 -0.037764862 -0.42641005 -0.569733
000310 5c f6 cd 3e 1c 7d 15 bf 55 47 d1 3e 41 40 b7 3d
       0.4022702 -0.58394027 0.40874735 0.08947802
000320 e9 f1 57 3f d1 a0 c5 be e2 c7 54 3e 94 36 5b bf
       0.843535 -0.38599256 0.20779374 -0.85630155
000330 a4 5c 60 3f 48 5b 6d 3e ab 68 e3 be 48 13 62 3f
       0.8764136 0.23179352 -0.44415793 0.8831067
000340 07 7a 56 bd ab fd 27 3e dd 3d 9c 3e 91 22 62 3e
       -0.052362468 0.1640536 0.30515948 0.22083499
000350 fc 7f eb be 84 f9 67 bf d1 43 c5 bd 10 0a 16 bf
       -0.45996082 -0.90615106 -0.096320756 -0.58609104
000360 3d e3 2c bf 15 1e e2 be a9 55 c4 be 69 76 62 be
       -0.6753424 -0.44163576 -0.38346604 -0.22115482
000370 f3 93 48 3f 3d b2 37 3e 3d 7a d2 3c de 6d 6e be
       0.7835075 0.17939086 0.025693053 -0.23284099
000380 1d f5 dc be ae 28 0a 3f 35 7b 5b 3e 32 7a 15 be
       -0.43155757 0.5396832 0.21433719 -0.14597395
000390 ea 70 8e 3e 92 cf 05 3e a8 e1 c8 3c 2e 6f 47 3d
       0.27820522 0.13067463 0.024521664 0.048690014
0003a0 5f 56 4a be 60 42 3e be aa d2 ba 3d 94 ec d7 3e
       -0.1975951 -0.18580008 0.09122212 0.42172682
0003b0 b8 13 04 bf 22 aa 54 be eb df 58 3e 57 24 04 3f
       -0.5159259 -0.20768026 0.21179168 0.5161795
0003c0 64 17 e5 3e 67 07 ad 3e 80 8d 18 3e 46 09 17 bf
       0.44744408 0.3379471 0.14897728 -0.58998525
0003d0 e8 c4 d3 be 21 b4 16 bf 8d 9d 24 bf ab c4 56 be
       -0.41361165 -0.58868605 -0.64302903 -0.2097346
0003e0 47 25 a4 be f6 de 0f 3f c9 89 2a 3d 58 0a 90 3e
       -0.3205969 0.56199586 0.04163531 0.28132892
0003f0 fe 9e ec bb f5 b4 19 be a4 ee e6 3d 59 9e 89 3e
       -0.007221102 -0.15010436 0.11275986 0.26878622
