Assets/Scripts/My Behavior.onnx (onnx, 73296 bytes, 9 tensors)

46 f4 [7]
143.21948 58.544907 0.00046885025 85.35958 82.88233 4.8868 7294.3965
00000000: 3038 0f43 fc2d 6a42 04d0 f539 1bb8 aa42
00000010: c1c3 a542 aa60 9c40 2cf3 e345

action_model._continuous_distribution.log_sigma f4 [1, 2]
0.74609905 0.95029116
00000000: 5900 3f3f 4846 733f

action_model._continuous_distribution.mu.bias f4 [2]
-0.0146881165 -0.16238326
00000000: 6da6 70bc cc47 26be

action_model._continuous_distribution.mu.weight f4 [2, 128]
0.002588695 -0.058912106 0.0031862932 -0.06904218 0.013309365 0.078868926 0.016171899 0.004332165
0.07667145 0.0031424146 0.0018717779 -0.015243459 0.0044620805 -0.07636515 0.00020972903 -0.0009164596
-0.0015170883 0.007562487 -0.009254828 -0.0051796893 -0.005506046 -0.012893901 0.019422099 0.005456332
-0.11441304 -0.014830436 -0.10778224 0.0055485056 0.019411147 0.0023640904 -0.004001612 0.016531568
-0.0071425405 -0.0015977887 0.009364742 0.018320901 0.010999727 -0.0285384 0.033472367 -0.019990847
-0.041794952 -0.03743815 0.00591954 0.008182664 0.0016663696 -0.0012008799 -0.024945928 -0.0064312373
0.00053767953 -0.02791785 0.0016161671 0.014137933 -0.0016733392 -0.00878129 -0.026254963 -0.005115923
0.010180055 -0.0059154937 0.0017637286 -0.030559983 -0.0110907275 0.007929978 0.013773846 -0.018935386
0.0033450883 0.0027000625 0.016136773 -0.12739138 -0.012712355 -0.08236331 -0.004122081 -0.24747778
0.029028645 0.0007633801 0.098739706 0.017904475 0.015409051 -0.014836562 0.008743143 0.022538556
-0.084158726 0.0026589273 0.009827369 0.10261881 0.0130041875 0.007441012 -0.03378016 0.011532416
0.04060902 0.07049782 0.015088491 -0.017201291 0.051078416 0.057717614 -0.036502067 0.0017014173
-0.0036045783 -0.13559495 -0.098341435 0.005089687 0.05505205 -0.0018745372 -0.15512568 -0.057755202
-0.0011007511 0.0031539823 0.05642011 -0.023890411 0.07031235 -0.0076517225 0.0009471314 0.027185116
-0.0063889464 -0.0016949995 -0.008336887 -0.005722197 0.040582974 -0.027228044 -0.029100848 0.02290704
0.0039372155 0.013656165 -0.00061587774 0.060674503 0.014589262 0.010770507 -0.09667083 0.028251654
0.013451826 0.034457058 0.12663163 0.059317585 0.05815317 -0.08654816 0.008881154 -0.031074086
0.044618227 0.0032392105 0.017304827 0.032860752 0.0015902274 -0.03602963 0.03906922 0.014270352
-0.000130853 0.011044419 0.030034577 0.011703621 0.022008682 0.04010932 0.0037672818 -0.0037504616
-0.028083056 0.042503655 -0.0020071734 0.023875823 0.05144607 -0.012778374 0.011552226 0.009160958
0.028048372 -0.014457347 0.020232629 -0.043190144 -0.016297795 0.06507709 0.17563841 0.020743812
0.046249263 0.03251372 0.00916194 0.031783752 0.01766543 0.03416462 0.24776572 -6.09926e-05
0.0017444546 0.066259265 0.043669652 -0.0038176707 0.004370874 0.0025847803 0.04456488 0.03136471
-0.010930306 -0.0012634718 -0.009218082 0.032259006 0.057796024 0.013180854 0.052584793 0.015525398
0.0101031475 0.001707726 -0.008704266 -0.016214898 0.029092921 0.043700114 -0.0084600905 0.024237124
-0.041769214 0.0015966883 -0.09492582 0.0027149545 0.0050734435 0.0073341597 0.008101556 0.031385258
-0.03248674 0.0018100988 -0.0012135652 -0.047538865 0.002536468 0.10353038 0.049861483 0.032590363
0.024738027 -0.059230417 0.031424135 -0.03413475 -0.062139142 -0.17669918 0.09935989 0.008612329
0.032074872 -0.03654875 0.027452987 -0.0050080786 -0.0703511 0.015179874 0.13256307 0.026690897
-0.006646165 0.0016082998 -0.0853531 -0.10949691 -0.03248543 0.0073827924 0.016987633 -0.032985624
-0.0024225467 -1.6885399e-05 0.0009851686 -0.003707784 0.10641946 -0.0020946525 0.07336538 -0.20757598
0.016053142 0.008854558 0.0020565293 0.1362376 0.025413644 0.022010844 -0.0765783 -0.027810767
00000000: 18a7 293b d24d 71bd 21d1 503b fd65 8dbd
00000010: 860f 5a3c 0886 a13d ee7a 843c d5f4 8d3b
00000020: ec05 9d3d f8f0 4d3b 7256 f53a b3bf 79bc
00000030: a536 923b 5565 9cbd b5ea 5b39 903e 70ba
00000040: 09d9 c6ba bdce f73b 90a1 17bc 62ba a9bb
00000050: 106c b4bb f140 53bc 181b 9f3c 08cb b23b
00000060: 6251 eabd 5bfb 72bc efbc dcbd 3dd0 b53b
00000070: 2004 9f3c dbee 1a3b f41f 83bb 366d 873c
00000080: f90b eabb e46c d1ba 936e 193c b715 963c
00000090: 3338 343c 5dc9 e9bc 521a 093d d8c3 a3bc
000000a0: 2f31 2bbd bf58 19bd b3f8 c13b 9510 063c
000000b0: 166a da3a d866 9dba 675b ccbc 21bd d2bb
000000c0: 10f3 0c3a fab3 e4bc 92d5 d33a caa2 673c
000000d0: f253 dbba 66df 0fbc a614 d7bc 79a3 a7bb
000000e0: 3fca 263c c2d6 c1bb e92c e73a ee58 fabc
000000f0: e2b5 35bc bdec 013c b3ab 613c 621e 9bbc
00000100: 4539 5b3b 88f3 303b 4431 843c e372 02be
00000110: 7b47 50bc 18ae a8bd 8612 87bb d16a 7dbe
00000120: 7bcd ed3c 921d 483a 0b38 ca3d 68ac 923c
00000130: 3f76 7c3c 0d15 73bc 663f 0f3c c7a2 b83c
00000140: 695b acbd 6641 2e3b f902 213c d029 d23d
00000150: 840f 553c bcd3 f33b 115d 0abd 75f2 3c3c
00000160: a555 263d 2961 903d b835 773c b9e9 8cbc
00000170: 9a37 513d 4e69 6c3d 3183 15bd 1702 df3a
00000180: ca3a 6cbb 67d9 0abe 3c67 c9bd 64c7 a63b
00000190: 427e 613d 08b3 f5ba 44d9 1ebe b890 6cbd
000001a0: 1447 90ba 0bb3 4e3b c618 673d d3b5 c3bc
000001b0: ecff 8f3d 4dbb fabb ea48 783a 52b3 de3c
000001c0: 5e5a d1bb bf2a deba 7097 08bc 4481 bbbb
000001d0: 553a 263d 590d dfbc e764 eebc 8ba7 bb3c
000001e0: c203 813b 1cbe 5f3c db72 21ba d485 783d
000001f0: cd07 6f3c c876 303c 5bfb c5bd 0370 e73c
00000200: 0c65 5c3c d822 0d3d b9ab 013e fff6 723d
00000210: 0532 6e3d 2940 b1bd 4282 113c 158f febc
00000220: 9ac1 363d ef48 543b dac2 8d3c ff98 063d
00000230: 2d6f d03a ce93 13bd 0c07 203d 32ce 693c
00000240: 9635 09b9 a7f3 343c 130b f63c 8bc0 3f3c
00000250: 8d4b b43c ac49 243d 80e4 763b 4eca 75bb
00000260: 700e e6bc 5018 2e3d c88a 03bb 3b97 c33c
00000270: 1db9 523d 635c 51bc 8c45 3d3c d817 163c
00000280: b3c5 e53c 82de 6cbc e6be a53c 26e8 30bd
00000290: f482 85bc 2347 853d 8eda 333e edee a93c
000002a0: de6f 3d3d 1b2d 053d f61b 163c ae2f 023d
000002b0: 18b7 903c 33f0 0b3d 4cb6 7d3e 4ed2 7fb8
000002c0: 2fa6 e43a f0b2 873d f3de 323d e331 7abb
000002d0: 8c39 8f3b 6b65 293b aa89 363d 4878 003d
000002e0: 0715 33bc 149b a5ba 7007 17bc 0522 043d
000002f0: 86bb 6c3d 82f4 573c 2763 573d 3d5e 7e3c
00000300: ac87 253c c7d5 df3a 569c 0ebc 1bd5 84bc
00000310: 4754 ee3c e4fe 323d 319c 0abc ef8c c63c
00000320: 3216 2bbd f847 d13a 7868 c2bd 61ed 313b
00000330: 213f a63b 6453 f03b 64bc 043c d48d 003d
00000340: d110 05bd d640 ed3a 7e10 9fba 1db8 42bd
00000350: df3a 263b bc07 d43d 8e3b 4c3d 797d 053d
00000360: 67a7 ca3c 989b 72bd 98b6 003d e1d0 0bbd
00000370: 9d85 7ebd a1f0 34be 337d cb3d ba1a 0d3c
00000380: f160 033d 24b4 15bd 16e5 e03c cf1a a4bb
00000390: 3d14 90bd 02b5 783c 9dbe 073e dea6 da3c
000003a0: 13c8 d9bb 96cd d23a 9bcd aebd ea3f e0bd
000003b0: 710f 05bd 5aeb f13b a629 8b3c ef1b 07bd
000003c0: 97c3 1ebb 1ea5 8db7 c620 813a 4bfe 72bb
000003d0: 72f2 d93d 7046 09bb 9740 963d cc8e 54be
000003e0: e181 833c b512 113c d6c6 063b df81 0b3e
000003f0: 4630 d03c 1650 b43c 15d5 9cbd 68d3 e3bc

network_body._body_endoder.seq_layers.0.bias f4 [128]
-0.22718947 0.07227937 -0.14860241 -0.052801564 0.05687475 0.016380744 0.07529316 -0.16535789
-0.04972091 -0.04009364 -0.24456033 -0.057365917 -0.3115377 -0.10071353 0.08902201 -0.13893051
-0.17041573 -0.29480413 -0.07490995 -0.016660597 -0.07201004 -0.37249884 -0.12789671 -0.20459047
-0.04630739 -0.115907505 0.15822558 0.049260832 -0.018404024 -0.03156136 0.06328318 0.06325066
-0.18368645 -0.19758628 0.1253151 -0.12694871 -0.29255283 -0.23819488 -0.25215152 -0.1625171
-0.15949605 0.11043783 -0.16948822 -0.15468305 -0.26992336 -0.13629065 0.18237257 -0.02647231
-0.103006385 -0.06545207 -0.09610274 -0.15396872 -0.28626022 -0.26312077 -0.12586609 0.063641526
0.08545465 -0.026480528 -0.18454784 -0.1691295 -0.12128945 -0.3006237 -0.21245885 -0.014023761
0.0163849 0.1308583 -0.24447057 0.07556059 -0.19236887 -0.21992156 -0.11020957 -0.14396012
-0.047385547 -0.18944904 -0.084263876 -0.18675405 -0.14382221 -0.21938209 -0.2016065 -0.1362909
-0.16414732 -0.13933672 -0.19871816 -0.17487662 -0.01155326 -0.21467361 -0.24155632 -0.088791914
0.009056079 -0.1799199 -0.25872076 -0.28384766 -0.109384306 -0.14387177 -0.09482035 -0.29894665
-0.04507739 -0.18513796 -0.11256429 -0.24288361 -0.18992086 -0.055920955 -0.26952815 -0.24518715
-0.22910495 -0.2202021 -0.24172571 -0.18370655 -0.057793308 -0.1586662 -0.1993897 -0.24938071
-0.12384345 0.14726055 0.18079911 0.020677935 -0.25920656 0.09349483 -0.15407051 -0.22326744
-0.16465971 -0.10726663 -0.052454047 -0.17277685 -0.2748464 -0.31426284 -0.0056628888 -0.30145866
00000000: 5ba4 68be 3507 943d 3b2b 18be 7446 58bd
00000010: 7ff5 683d e930 863c 4d33 9a3d 9453 29be
00000020: 27a8 4bbd 3b39 24bd 066e 7abe 86f8 6abd
00000030: df81 9fbe e542 cebd 2c51 b63d cd43 0ebe
00000040: 7681 2ebe 91f0 96be 636a 99bd ce7b 88bc
00000050: 007a 93bd 2bb8 bebe 5bf7 02be 2a80 51be
00000060: d1ac 3dbd ea60 edbd e305 223e bac5 493d
00000070: 09c4 96bc 7c46 01bd 9d9a 813d 9089 813d
00000080: 4d18 3cbe 0f54 4abe 9a52 003e d8fe 01be
00000090: 7cc9 95be 5ce9 73be 011a 81be e26a 26be
000000a0: ef52 23be 3b2d e23d 528e 2dbe 3c65 1ebe
000000b0: 6533 8abe c78f 0bbe e0bf 3a3e 75dc d8bc
000000c0: 03f5 d2bd bc0b 86bd 83d1 c4bd faa9 1dbe
000000d0: b390 92be c4b7 86be 0ae3 00be 7d56 823d
000000e0: d902 af3d b1ed d8bc 1cfa 3cbe 4930 2dbe
000000f0: 9a66 f8bd 59eb 99be d08e 59be ebc3 65bc
00000100: a039 863c b8ff 053e 7e56 7abe 83bf 9a3d
00000110: 58fc 44be 1e33 61be 8eb5 e1bd 486a 13be
00000120: 5917 42bd eefe 41be 8a92 acbd 743c 3fbe
00000130: 2146 13be b3a5 60be ef71 4ebe d78f 0bbe
00000140: 3c16 28be 49ae 0ebe c67c 4bbe db12 33be
00000150: e249 3dbc 66d3 5bbe 8a5a 77be 89d8 b5bd
00000160: f35f 143c ec3c 38be 0c77 84be 7b54 91be
00000170: e104 e0bd 1f53 13be 2c31 c2bd 890f 99be
00000180: 12a3 38bd ce94 3dbe 1b88 e6bd 7bb6 78be
00000190: 9d7a 42be 5f0d 65bd 98ff 89be 5712 7bbe
000001a0: 7d9a 6abe a97c 61be f286 77be 921d 3cbe
000001b0: adb8 6cbd 6479 22be d02c 4cbe a85d 7fbe
000001c0: a2a1 fdbd 78cb 163e 6723 393e c664 a93c
000001d0: b9b6 84be 387a bf3d a9c4 1dbe 38a0 64be
000001e0: 8e9c 28be 9bae dbbd 0eda 56bd 6aec 30be
000001f0: abb8 8cbe 0fe7 a0be c18f b9bb ca58 9abe

network_body._body_endoder.seq_layers.0.weight f4 [128, 7]
0.39619502 -0.07478718 0.18688218 -0.12910374 0.6775899 -0.2509592 0.245503 -0.13470282
-0.63784325 -0.09768823 -0.33877885 -0.1323166 -0.027110564 0.28947833 0.5353456 0.008731291
0.2003905 -0.39613318 0.34117335 -0.50935495 0.26757747 0.053371433 -0.70902693 0.09685425
0.03032738 0.8173551 -0.3858914 -0.7515818 -0.28178033 -0.26438278 -0.9732708 0.529156
0.14356123 -0.06766654 0.75151646 0.16468771 -0.24494328 -0.38592944 -0.16290767 -0.45902565
0.2207671 0.4512804 0.740668 -0.16505696 -0.17877918 0.10948643 -0.6760723 0.36270404
0.035058487 0.37297314 -0.23939925 0.16429232 -0.4369683 0.2694316 0.25310424 0.15105118
-0.13649166 0.029692791 -1.4098594 0.3407162 0.6310057 0.3386986 0.22074623 -0.037313692
-0.02704872 0.6698871 0.027807707 -0.07944129 -0.3213514 -0.033373922 0.24850656 0.42086557
0.08830121 -0.36646336 -0.16668732 -0.050728146 0.12756823 0.11289693 0.16272093 -0.08008698
-0.43109196 -0.85350335 0.12662317 -0.16077766 0.031077377 0.16416161 -1.1422127 0.053283166
0.3696182 -0.532002 0.0880574 -0.07504051 0.13347717 0.16360283 -0.042639676 0.10437162
-0.46045503 -0.018804705 -0.51188654 -0.18401048 0.7819046 0.22362255 0.54271734 0.3148615
-0.27343923 -0.2762563 0.20504151 -0.43294427 0.7256836 0.28183416 -0.2874762 0.41435802
0.1850972 1.018056 -0.1990066 0.24711233 -0.287197 -0.09994804 0.33909157 0.0725013
0.49047214 -0.32221693 -0.062129218 -0.15655735 -0.87884104 -0.17282374 -0.5551019 0.02928209
-0.17182206 0.54708797 -0.28048837 -0.32592332 -0.21517342 0.28030977 -0.0970665 0.07504071
-0.10187727 1.4199069 -0.012124507 -0.075757176 0.736165 -0.48973602 0.420697 -0.1891908
0.4533188 -0.27278528 -0.19671915 -0.33439255 -0.0088941315 0.14839654 -0.32663992 0.07304563
-0.057443902 -0.5228075 -0.2309759 0.049571764 -0.9484176 -0.70251715 -0.0149583565 0.13694009
-0.18936622 -0.7407778 0.3785845 -0.83776486 -0.06040259 -0.24278367 -0.17132404 -0.3103509
-0.099224694 -0.052075062 0.01722132 0.05637015 -0.121833205 -0.20312141 -0.053179123 -0.33813062
0.18731649 0.8481344 0.2936739 0.17255127 -0.4843048 -0.17791994 -0.07268256 -0.3073949
-0.31218463 -0.16379611 0.037021525 -0.42907232 -0.14375514 0.44219577 -0.3795654 -0.6654132
-0.1918474 -0.35767934 -0.8891738 0.4084065 -0.049985375 -0.2928089 -0.32063368 0.2979771
1.240079 -0.030837977 0.18105938 0.3029271 -0.20107962 0.39041218 0.28476664 -0.5362247
-0.30961135 -0.76975447 -0.05921218 0.031325124 -0.61277443 -0.025618555 0.0076417313 0.7803073
-0.034370746 -0.1730172 0.11355944 -0.66271335 0.22610766 1.4937177 0.12415911 0.30990782
0.06223511 0.31387943 0.077846326 -0.36179838 -0.22594266 0.22911836 0.1399789 -0.39354777
0.4621636 -0.1930405 0.30520606 -0.48102465 -0.20414336 0.3428796 0.5627814 -0.4477793
-0.21219188 0.0575063 0.53390193 0.6869232 -0.0821366 0.42781526 -0.08264939 -0.1358988
0.43523043 -0.08349979 0.10783392 -0.28267476 0.22876881 0.26176685 -0.6208318 0.18262345
00000000: 13da ca3e 052a 99bd 0b5e 3f3e c533 04be
00000010: 8876 2d3f b97d 80be 2365 7b3e 89ef 09be
00000020: b249 23bf c410 c8bd 6c74 adbe 017e 07be
00000030: f916 debc 8136 943e 690c 093f b00d 0f3c
00000040: 2b33 4d3e f8d1 cabe 46ae ae3e 1665 02bf
00000050: eaff 883e 019c 5a3d ca82 35bf 855b c63d
00000060: 2071 f83c 2f3e 513f 8f93 c5be aa67 40bf
00000070: 8345 90be 2e5d 87be 4628 79bf c576 073f
00000080: b701 133e c194 8abd 6263 403f e5a3 283e
00000090: 69d2 7abe 8b98 c5be 45d1 26be 6905 ebbe
000000a0: c510 623e 390e e73e 6b9c 3d3f b104 29be
000000b0: e411 37be 6c3a e03d 1313 2dbf 58b4 b93e
000000c0: 7d99 0f3d 56f6 be3e 1425 75be 3f3c 283e
000000d0: 4fba dfbe f0f2 893e e196 813e 29ad 1a3e
000000e0: 78c4 0bbe 4c3e f33c 4676 b4bf 5b72 ae3e
000000f0: 9789 213f e769 ad3e 4d0b 623e 3ed6 18bd
00000100: 4795 ddbc b97d 2b3f fdcc e33c 1db2 a2bd
00000110: 2c88 a4be 18b3 08bd 8178 7e3e b17b d73e
00000120: 44d7 b43d 16a1 bbbe 15b0 2abe 51c8 4fbd
00000130: 3fa1 023e 8136 e73d 51a0 263e a404 a4bd
00000140: 16b8 dcbe 327f 5abf 81a9 013e e6a2 24be
00000150: fc95 fe3c fb19 283e 0734 92bf 733f 5a3d
00000160: 993e bd3e 4831 08bf 7057 b43d d7ae 99bd
00000170: 3dae 083e 8087 273e f1a6 2ebd cac0 d53d
00000180: c3c0 ebbe 530c 9abc ff0a 03bf 3e6d 3cbe
00000190: e62a 483f 4ffd 643e 86ef 0a3f 8735 a13e
000001a0: 3a00 8cbe 7771 8dbe 67f6 513e dfaa ddbe
000001b0: 67c6 393f 914c 903e 1530 93be bc26 d43e
000001c0: 1f8a 3d3e a94f 823f 63c8 4bbe 040b 7d3e
000001d0: 7c0b 93be 8fb1 ccbd 699d ad3e 907b 943d
000001e0: 2a1f fb3e 9ef9 a4be 357b 7ebd 9250 20be
000001f0: bafb 60bf b5f8 30be 281b 0ebf fee0 ef3c
00000200: 1ff2 2fbe f50d 0c3f 2c9c 8fbe 6cdf a6be
00000210: 6c56 5cbe c384 8f3e cdca c6bd f2ae 993d
00000220: 08a5 d0bd 82bf b53f dea5 46bc 9426 9bbd
00000230: 4f75 3c3f aebe fabe 9965 d73e 3cbb 41be
00000240: 6719 e83e 83aa 8bbe bf70 49be 8035 abbe
00000250: b1b8 11bc 43f5 173e 593d a7be f298 953d
00000260: 4c4a 6bbd b6d6 05bf f284 6cbe c30b 4b3d
00000270: 7fcb 72bf 2ad8 33bf e513 75bc 063a 0c3e
00000280: 38e9 41be 9da3 3dbf d4d5 c13e c277 56bf
00000290: b568 77bd 489c 78be 926f 2fbe 50e6 9ebe
000002a0: 5136 cbbd a94c 55bd ba13 8d3c 63e4 663d
000002b0: b083 f9bd 0fff 4fbe 5ad2 59bd 751f adbe
000002c0: e5cf 3f3e 561f 593f 6d5c 963e 48b1 303e
000002d0: ccf6 f7be a530 36be 98da 94bd dd62 9dbe
000002e0: aad6 9fbe 2bba 27be e2a3 173d 5eaf dbbe
000002f0: 8c34 13be 7c67 e23e 6556 c2be 8558 2abf
00000300: a573 44be bf21 b7be e5a0 63bf a81a d13e
00000310: 77bd 4cbd 0ceb 95be 192a a4be 7490 983e
00000320: e9ba 9e3f ed9f fcbc a167 393e 4319 9b3e
00000330: d1e7 4dbe 1be4 c73e efcc 913e 0646 09bf
00000340: 6185 9ebe a10e 45bf 7988 72bd c64e 003d
00000350: c9de 1cbf 01de d1bc 7d67 fa3b 38c2 473f
00000360: 57c8 0cbd 6c2b 31be da91 e83d 95a7 29bf
00000370: c488 673e 2432 bf3f 2247 fe3d 3dac 9e3e
00000380: 3eea 7e3d ceb4 a03e e56d 9f3d a33d b9be
00000390: 835d 67be 019e 6a3e a156 0f3e 187f c9be
000003a0: b5a0 ec3e 69ac 45be f843 9c3e dd48 f6be
000003b0: f50a 51be ea8d af3e 7112 103f 5443 e5be
000003c0: d448 59be ba8b 6b3d ccad 083f 33da 2f3f
000003d0: 3c37 a8bd 9a0a db3e 1544 a9bd 0e29 0bbe
000003e0: 86d6 de3e f001 abbd 08d8 dc3d bfba 90be
000003f0: 5f42 6a3e 4e06 863e d5ee 1ebf a401 3b3e

network_body._body_endoder.seq_layers.2.bias f4 [128]
-0.05602802 -0.098348655 -0.228467 -0.12913176 -0.27933273 0.109669544 -0.34797448 -0.032841444
-0.23077522 -0.03202965 -0.06034078 -0.047237307 -0.03969721 0.051496793 -0.16090219 0.016191252
-0.048819568 -0.12809348 -0.11563245 -0.058334146 -0.007969406 -0.1425705 -0.10271644 0.03898773
0.13251981 -0.29810426 0.053643316 -0.08321907 -0.20747848 -0.23485045 -0.15612163 -0.08656956
-0.036962956 0.0069909217 -0.13073456 -0.04293095 0.019285467 -0.20436858 -0.17470269 -0.07813122
0.00017850063 -0.010868523 -0.18527806 -0.022706797 -0.15893789 -0.13067427 -0.10976953 -0.06431674
0.02431233 -0.1973197 -0.019274851 -0.01414187 -0.14028731 -0.027256584 -0.04276915 -0.18980186
-0.1952626 -0.037754316 -0.10723847 -0.008737333 -0.21083145 0.0015301193 -0.24368626 -0.28040907
-0.13043608 -0.09102966 -0.2236157 0.073493525 -0.2030266 -0.11473236 -0.13636488 -0.14330344
-0.21962631 -0.20923592 0.054623425 -0.1772243 -0.07808584 -0.09160392 -0.09342056 -0.23665486
0.07672852 -0.08529686 -0.1508561 0.058494203 -0.24823047 -0.30640897 -0.15897447 -0.37903684
-0.16022407 0.05235853 -0.084237285 0.14125043 0.003418207 0.19157289 -0.21053155 0.09059389
-0.27103522 0.10860092 -0.11131661 -0.20408557 0.031375 0.032468066 -0.114653595 0.021245012
-0.01775739 0.015390072 0.03444731 0.09068651 0.027113546 -0.061877184 -0.052871123 0.027530106
-0.14842497 -0.08019195 0.028618367 -0.09305015 -0.21964848 0.21212347 -0.20673369 0.20343138
-0.27905285 -0.083358996 -0.15021402 -0.14582565 -0.16445883 -0.05529007 0.10362067 -0.069136456
00000000: a37d 65bd 056b c9bd 41f3 69be 1e3b 04be
00000010: b304 8fbe 6d9a e03d b629 b2be c084 06bd
00000020: 5750 6cbe 8631 03bd e527 77bd e87b 41bd
00000030: 8b99 22bd 4dee 523d 8bc3 24be 84a3 843c
00000040: 07f7 47bd f02a 03be b5d0 ecbd c9ef 6ebd
00000050: 1d92 02bc 00fe 11be ff5c d2bd 99b1 1f3d
00000060: 46b3 073e 1fa1 98be 18b9 5b3d c36e aabd
00000070: 3d75 54be a37c 70be 59de 1fbe 624b b1bd
00000080: 7866 17bd 1a14 e53b 48df 05be 5dd8 2fbd
00000090: 8efc 9d3c ff45 51be 43e5 32be 4303 a0bd
000000a0: e62b 3b39 e411 32bc 88b9 3dbe 9b03 babc
000000b0: 9dc0 22be 7acf 05be d9ce e0bd 7fb8 83bd
000000c0: a72a c73c 2d0e 4abe 4be6 9dbc 4db3 67bc
000000d0: 7aa7 0fbe 3349 dfbc b42e 2fbd 6b5b 42be
000000e0: ebf2 47be 45a4 1abd d89f dbbd 0827 0fbc
000000f0: 33e4 57be 498e c83a e488 79be c791 8fbe
00000100: 0991 05be c26d babd 84fb 64be c683 963d
00000110: 34e6 4fbe cdf8 eabd 3ca3 0bbe 23be 12be
00000120: b8e5 60be f141 56be d0bc 5f3d 497a 35be
00000130: 78eb 9fbd d69a bbbd 4753 bfbd a755 72be
00000140: d823 9d3d 1fb0 aebd 057a 1abe 9e97 6f3d
00000150: 2130 7ebe a3e1 9cbe 34ca 22be 1e11 c2be
00000160: c711 24be e675 563d 9984 acbd f4a3 103e
00000170: ff03 603b af2b 443e 9595 57be 4a89 b93d
00000180: 21c5 8abe 296a de3d f6f9 e3bd cffb 50be
00000190: 1283 003d 3cfd 043d 81cf eabd 050a ae3c
000001a0: f277 91bc a426 7c3c 9f18 0d3d d9b9 b93d
000001b0: 3a1d de3c ee72 7dbd 648f 58bd d186 e13c
000001c0: b7fc 17be ad3b a4bd 1171 ea3c 1491 bebd
000001d0: 88eb 60be e536 593e ffb1 53be 5150 503e
000001e0: 04e0 8ebe 1fb8 aabd b4d1 19be 5253 15be
000001f0: e567 28be d777 62bd 1337 d43d 6a97 8dbd

network_body._body_endoder.seq_layers.2.weight f4 [128, 128]
-0.014466103 -0.32994738 -0.21522266 -0.11769895 0.014743887 -0.13586755 0.18931785 -0.056673203
0.092866264 0.01862507 -0.19569768 -0.102270804 -0.050401036 -0.013773031 0.14985698 -0.08836209
-0.23442744 -0.0034418276 -0.17009264 0.0071012317 0.016728956 -0.14939106 -0.021454928 -0.05083916
-0.10174164 -0.30058554 -0.03558216 -0.017837228 0.13638432 -0.14566796 0.102116674 -0.02693615
-0.12116514 0.0037863338 0.077344395 -0.07912987 -0.03800523 0.013435393 0.048495468 -0.071193784
-0.21067673 -0.06773307 -0.073574156 -0.02296321 -0.051643968 -0.17530434 -0.07046441 0.13558841
0.121559314 -0.12023463 -0.07500715 -0.05648829 -0.045396175 0.06015398 0.039376993 -0.15578867
-0.018889284 -0.010038556 -0.14228173 -0.043299194 0.05282001 0.0010594503 0.0019420929 -0.017653733
-0.02091695 -0.01362359 -0.10432714 -0.21120885 -0.1382485 -0.029488204 -0.16394691 -0.044431724
0.01785783 -0.137537 -0.035822283 -0.24263449 -0.069745444 0.06413021 0.13848777 0.020331103
-0.042129092 -0.10652377 -0.14862336 -0.014262068 -0.035644233 -0.02528126 0.0976 0.057427697
0.01877414 -0.11298556 0.12115846 -0.024929665 -0.19941542 -0.03714767 0.003213488 -0.0414742
0.10340297 -0.114435695 0.029416187 -0.13927226 0.14808123 0.0033011662 -0.2009721 -0.06343751
-0.34555718 -0.16455264 -0.08505759 -0.1474164 -0.08330041 -0.1096176 -0.11905157 -0.10177696
0.014091291 -0.05091328 0.14709532 -0.023723936 -0.07049006 -0.10913589 0.058871448 -0.060343757
-0.1419978 -0.09420132 -0.042622764 -0.2876657 -0.014103875 -0.07164329 -0.048351433 -0.09653016
-0.004318055 -0.15844846 -0.12556493 -0.11239484 -0.010585431 -0.017273068 -0.07874491 0.020998744
0.0095515195 0.16956231 -0.13420597 -0.019075852 0.13720837 -0.022366207 0.021075899 -0.04373243
0.10244496 -0.039176296 0.17521967 -0.24521464 -0.22660933 -0.07336343 0.0096726725 0.08578017
0.0036305105 0.025807278 -0.2916296 -0.18270306 -0.11678417 -0.089681365 0.04515901 -0.05064021
-0.13183641 0.09696278 -0.12591773 -0.00800088 -0.12636821 -0.027652498 -0.06887329 0.07173725
0.11693869 -0.17138752 0.0040401304 0.057316337 0.17552556 -0.0861023 -0.05081557 0.008746567
-0.101480946 0.0871105 0.0059429063 0.091355085 0.026358357 -0.084354915 -0.15029006 0.025323972
-0.1438939 -0.2912001 0.0733311 0.114431426 -0.084702134 -0.1250876 0.16920596 -0.2571672
-0.044593975 -0.08190164 0.012739662 -0.1836763 -0.004270567 0.095971875 0.19089665 0.025782185
0.024475196 0.019635169 -0.14608899 -0.11215554 0.10913252 0.01433077 -0.14092799 0.16967672
0.174847 0.12176447 0.030514834 -0.011546046 -0.006228346 -0.05139268 -0.13733377 0.02399634
-0.11799673 0.1680203 0.014395224 0.116293825 -0.14175445 0.029189242 0.098606296 0.03185192
-0.07916431 0.013267512 -0.033225756 -0.18063934 0.02672543 -0.076110445 0.17084415 0.03664797
0.012901543 0.03185857 -0.0054856087 -0.013072732 -0.09525794 0.030056847 0.04859091 -0.10617518
0.11547708 -0.14792293 -0.26484054 -0.042901255 -0.102674164 -0.10371592 -0.18330747 0.17691024
-0.012387191 -0.07266526 0.01325138 0.06919923 0.043715633 0.01912627 -0.02210062 -0.027779067
00000000: 3c03 6dbc ddee a8be 5463 5cbe 260c f1bd
00000010: 5890 713c dd20 0bbe 8adc 413e 2922 68bd
00000020: ab30 be3d 9a93 983c f964 48be 5b73 d1bd
00000030: 5171 4ebd 47a8 61bc 1c74 193e 2ff7 b4bd
00000040: bf0d 70be 4990 61bb c42c 2ebe 73b1 e83b
00000050: 2a0b 893c f8f9 18be 3fc2 afbc b93c 50bd
00000060: ec5d d0bd 59e6 99be 99be 11bd 611f 92bc
00000070: 55a8 0b3e fb29 15be 8c22 d13d 33a9 dcbc
00000080: 6e25 f8bd 2424 783b bd66 9e3d d70e a2bd
00000090: 5fab 1bbd 1f20 5c3c 2fa3 463d 0cce 91bd
000000a0: a4bb 57be a3b7 8abd 0cae 96bd 571d bcbc
000000b0: a088 53bd fb82 33be a54f 90bd b0d7 0a3e
000000c0: 17f4 f83d 933d f6bd 599d 99bd 4460 67bd
000000d0: 57f1 39bd 0564 763d c549 213d 1187 1fbe
000000e0: b3bd 9abc c178 24bc 4db2 11be 7f5a 31bd
000000f0: cb59 583d 41dd 8a3a d38d fe3a 909e 90bc
00000100: 065a abbc 7a35 5fbc 78a9 d5bd 2247 58be
00000110: 0491 0dbe 3f91 f1bc b3e1 27be 0afe 35bd
00000120: 954a 923c 80d6 0cbe 63ba 12bd 2d75 78be
00000130: b3d6 8ebd b356 833d bdcf 0d3e 6a8d a63c
00000140: 8e8f 2cbd 2229 dabd b930 18be 73ab 69bc
00000150: b0ff 11bd a51a cfbc 82e2 c73d 4e39 6b3d
00000160: 3acc 993c f964 e7bd ed21 f83d 4c39 ccbc
00000170: 8e33 4cbe 2828 18bd 6299 523b dae0 29bd
00000180: f0c4 d33d 435d eabd 37fa f03c 639d 0ebe
00000190: 9ba2 173e 6158 583b a1cb 4dbe 86eb 81bd
000001a0: dfec b0be 7d80 28be ac32 aebd 53f4 16be
000001b0: 6899 aabd 317f e0bd 4fd1 f3bd 7070 d0bd
000001c0: 29df 663c 728a 50bd 28a0 163e b358 c2bc
000001d0: 185d 90bd a382 dfbd 3023 713d 042b 77bd
000001e0: df67 11be 9fec c0bd 3595 2ebd eb48 93be
000001f0: f013 67bc b8b9 92bd 270c 46bd 9bb1 c5bd
00000200: 797e 8dbb 5040 22be 1894 00be 442f e6bd
00000210: 846e 2dbc 4080 8dbc 0345 a1bd 8f05 ac3c
00000220: fa7d 1c3c bea1 2d3e 4a6d 09be f644 9cbc
00000230: 5a80 0c3e 5639 b7bc 5da7 ac3c c720 33bd
00000240: aace d13d 5377 20bd c96c 333e 8c19 7bbe
00000250: 470c 68be 913f 96bd 217a 1e3c 84ad af3d
00000260: dced 6d3b c969 d33c 7a50 95be 8316 3bbe
00000270: 8a2c efbd ddaa b7bd a7f8 383d 1c6c 4fbd
00000280: 2000 07be 6c94 c63d 94f0 00be 1f16 03bc
00000290: ab66 01be 7e87 e2bc 710d 8dbd fbea 923d
000002a0: 8d7d ef3d 3680 2fbe 1263 843b 89c4 6a3d
000002b0: f9bc 333e 6756 b0bd fd23 50bd c34d 0f3c
000002c0: 3ed5 cfbd fd66 b23d b6bc c23b 6018 bb3d
000002d0: 7bed d73c 45c2 acbd a3e5 19be 3874 cf3c
000002e0: ec58 13be 2e18 95be 9e2e 963d 065b ea3d
000002f0: 5078 adbd f716 00be 5444 2d3e 6bab 83be
00000300: 2ca8 36bd 0cbc a7bd 04ba 503c a415 3cbe
00000310: 1df0 8bbb e78c c43d 697a 433e 2935 d33c
00000320: 3580 c83c efd9 a03c 5a98 15be ceb1 e5bd
00000330: df80 df3d 9bcb 6a3c 6d4f 10be bcbf 2d3e
00000340: 180b 333e a75f f93d 3ffa f93c a02b 3dbc
00000350: 2717 ccbb 2181 52bd 39a1 0cbe f993 c43c
00000360: 45a8 f1bd 830d 2c3e f2d9 6b3c 752b ee3d
00000370: 1428 11be 471e ef3c 19f2 c93d 2977 023d
00000380: e620 a2bd fb5f 593c bb17 08bd 85f9 38be
00000390: 4aef da3c cbdf 9bbd c5f1 2e3e 2f1c 163d
000003a0: fe60 533c 227e 023d 9fc0 b3bb 032f 56bc
000003b0: 9816 c3bd c739 f63c 4307 473d 5f72 d9bd
000003c0: 3f7f ec3d 1c79 17be 2e99 87be 3ab9 2fbd
000003d0: d546 d2bd 0369 d4bd f4b4 3bbe f527 353e
000003e0: a5f3 4abc 86d1 94bd 511c 593c 53b8 8d3d
000003f0: 2a0f 333d b2ae 9c3c 5c0c b5bc ed90 e3bc

network_body.observation_encoder.processors.0.normalizer.running_mean f4 [7]
25.247784 -25.138565 0.0 -5.9468365 16.629492 10421.257 16342.504
00000000: 76fb c941 c81b c9c1 0000 0000 7c4c bec0
00000010: 3309 8541 07d5 2246 045a 7f46
