results/EasyZigZagAgent2/My Behavior.onnx (onnx, 81381 bytes, 14 tensors)

77 f4 [13]
520.05164 230.31586 158.96042 303.93277 0.0014141896 292.79968 164.78287 193.09471
543.88245 102.29368 89.12662 440.42178 326.79605
00000000: 4e03 0244 dc50 6643 def5 1e43 65f7 9743
00000010: 545c b93a 5c66 9243 6ac8 2443 3f18 4143
00000020: 7af8 0744 5d96 cc42 d440 b242 fd35 dc43
00000030: e565 a343

action_model._continuous_distribution.log_sigma f4 [1, 2]
-0.063213244 -0.05442212
00000000: f275 81bd bbe9 5ebd

action_model._continuous_distribution.mu.bias f4 [2]
-0.029734263 0.11216576
00000000: 4595 f3bc 29b7 e53d

action_model._continuous_distribution.mu.weight f4 [2, 128]
0.00023897887 -0.007626993 -0.018868176 -0.010276783 0.01740332 0.017473433 -0.01284197 -0.0077499687
0.08745981 0.0024692405 -0.010839791 -0.007014726 -0.022908695 -0.0014863503 -0.0036725744 0.0093682045
0.016536808 0.0051877294 -0.0007868388 0.0120251225 0.038886458 -0.008846544 0.008330806 0.01922442
0.035912994 -0.078488775 0.0043540383 -0.0057824403 -0.049189392 0.043360405 -0.07660156 0.0036095865
0.004594433 -0.015812479 -0.020731172 -0.01149151 -0.0011473837 -0.019335883 -0.021073716 0.009356206
-0.012711729 -0.0055844155 -0.0028088044 -0.011904384 6.329321e-05 -0.027807726 0.03813513 -0.0005438402
0.00036484963 -0.00493329 0.011527264 -0.0037185864 -0.010960509 -0.09106808 -0.045867063 -0.10089496
0.00423958 0.022964606 -0.053182315 -0.0022842542 0.020794397 -0.02451721 -0.012460235 0.054401927
-0.01573997 -0.002765492 0.0011059113 -0.012318055 -0.08015989 0.03715123 0.0016950143 -0.0030344508
-0.0063237376 -0.002250435 -0.0024437923 -0.004959377 -0.0021221354 -0.013784083 -0.035690945 0.026323346
0.08849751 -0.0041704923 -0.0045089065 -0.010298426 0.025709826 -0.0193614 -0.0062482595 -0.015492468
-0.006365389 -0.062499873 0.005228616 -0.006993873 -0.0031147199 0.004621352 -0.010630102 -0.026422761
-0.028153976 -0.002380812 -0.012873408 -0.006932828 0.03698616 0.019387862 -0.0034613789 -0.015849618
-0.008365574 -0.014972825 0.015428832 -0.04712259 0.037275914 0.024818005 0.09568534 0.01573734
-0.006215094 0.009635878 0.015169661 0.034870926 0.04609603 -0.022428194 -0.009607648 -0.007646337
0.004470761 -0.01443521 0.007134822 -0.0034398963 0.003555767 -0.0021896588 -0.0113815395 0.0044559212
0.0022559818 0.0007374196 -0.003944139 -0.015618211 0.016841264 -0.0012152639 -0.019991595 -0.008941972
0.03724459 0.019864857 0.0035972302 0.010788279 0.029223878 -0.013534392 -0.01850551 0.024568148
-0.023647012 0.0052971244 -0.0075590285 -0.0053341077 -0.033291474 0.015741592 0.009511356 0.023283333
0.22693002 0.00035194476 0.02763849 0.01667929 0.0698303 -0.0012584795 0.011886914 0.012706092
-0.01772761 -0.07018451 0.0132546965 0.004274379 0.0035711438 0.003939323 0.010918545 -0.020235496
-0.019917967 0.005497574 -0.007466191 -0.002508261 -0.012904526 -0.012050869 -0.012901904 0.017027846
0.009794878 0.04935273 -0.006354651 -0.023121743 -0.014408308 0.046344426 -0.0988597 0.06402492
-0.0017567363 0.013566059 0.0084629785 -0.002645863 0.012709882 0.009423795 -0.0016454789 -0.028649522
0.0077001713 -0.0021292786 0.0038482603 0.009964221 0.01815179 0.009983258 -0.012540307 -0.016854443
0.0028846285 -0.000899238 -0.012140179 -0.013512801 0.017371023 -0.0072157052 0.025250835 -0.0028142487
-0.011680427 -0.01292449 -0.011149311 0.009145059 0.008263674 0.004059642 -0.0022127985 0.022796081
-0.012520805 0.09328998 0.019992955 0.033183567 0.02056232 -0.016049681 -0.014402612 0.009846017
-0.07058685 2.3996658e-05 -0.003733152 -0.007481381 0.03512805 0.024906607 0.00924708 -0.019284166
0.003626997 -0.013669595 -0.010569771 0.014773761 0.031210054 -0.019331016 -0.0020162833 -0.012105616
0.017453443 -0.0025949064 0.012017819 -0.011187774 0.017416416 -0.010771817 0.00036944007 0.0038299444
0.012118926 -0.02154582 -0.019584497 0.008387019 -0.06515606 0.010579151 -0.010751135 -0.013088423
00000000: 6796 7a39 dbeb f9bb 6f91 9abc f45f 28bc
00000010: 6891 8e3c 7224 8f3c 2067 52bc 73f3 fdbb
00000020: 211e b33d fbd2 213b 6199 31bc c9db e5bb
00000030: 04ab bbbc a4d1 c2ba 93af 70bb 197d 193c
00000040: 3378 873c d4fd a93b dc43 4eba 0505 453c
00000050: 6847 1f3d 18f1 10bc ef7d 083c 887c 9d3c
00000060: 8119 133d b9be a0bd 52ac 8e3b a07a bdbb
00000070: d17a 49bd ae9a 313d 47e1 9cbd d08e 6c3b
00000080: e68c 963b 2c89 81bc 6bd4 a9bc e346 3cbc
00000090: cf63 96ba 4966 9ebc c9a2 acbc c64a 193c
000000a0: db44 50bc 79fd b6bb eb13 38bb 9b0a 43bc
000000b0: 49bc 8438 07cd e3bc 9533 1c3d 7f90 0eba
000000c0: 4a49 bf39 70a7 a1bb d9dc 3c3c 87b3 73bb
000000d0: b593 33bc e781 babd 1adf 3bbd 04a2 cebd
000000e0: 2dec 8a3b 4520 bc3c b3d5 59bd 6db3 15bb
000000f0: 0359 aa3c 51d8 c8bc 0326 4cbc 8ed4 5e3d
00000100: 1cf1 80bc 423d 35bb 3af4 903a abd1 49bc
00000110: de2a a4bd e32b 183d 3e2b de3a a3dd 46bb
00000120: 5b37 cfbb 097c 13bb 0828 20bb 4582 a2bb
00000130: 8613 0bbb a2d6 61bc ab30 12bd 0fa4 d73c
00000140: 2f3e b53d a0a8 88bb 73bf 93bb bbba 28bc
00000150: 6a9d d23c cc9b 9ebc 33be ccbb 1fd4 7dbc
00000160: c194 d0bb deff 7fbd cf54 ab3b dc2c e5bb
00000170: 5420 4cbb b66e 973b e129 2ebc 8c74 d8bc
00000180: 2ba3 e6bc 6607 1cbb fdea 52bc c72c e3bb
00000190: cd7e 173d 4bd3 9e3c 4dd8 62bb 0fd7 81bc
000001a0: c30f 09bc 9450 75bc 36c9 7c3c 9e03 41bd
000001b0: a1ae 183d 214f cb3c adf6 c33d 98eb 803c
000001c0: fda7 cbbb cddf 1d3c 2b8a 783c d1d4 0e3d
000001d0: 31cf 3c3d 55bb b7bc 6569 1dbc 208e fabb
000001e0: 767f 923b a981 6cbc 3acb e93b e26f 61bb
000001f0: df07 693b 6180 0fbb a379 3abc fa02 923b
00000200: 18d9 133b 644f 413a d63d 81bb 86e3 7fbc
00000210: b1f6 893c 7d49 9fba 6ac5 a3bc 5981 12bc
00000220: c98d 183d a0bb a23c 82bf 6b3b 52c1 303c
00000230: ea66 ef3c 5bbf 5dbc de98 97bc 2443 c93c
00000240: 61b7 c1bc 8093 ad3b bab1 f7bb bdc9 aebb
00000250: a45c 08bd 83f4 803c 85d5 1b3c b0bc be3c
00000260: 5860 683e 3a85 b839 1d6a e23c 02a3 883c
00000270: 3003 8f3d 91f3 a4ba 55c1 423c 362d 503c
00000280: 7e39 91bc e5bc 8fbd 3a2a 593c 1710 8c3b
00000290: da09 6a3b 7015 813b b2e3 323c e9c4 a5bc
000002a0: 012b a3bc fe24 b43b f3a6 f4bb a361 24bb
000002b0: 816d 53bc 0271 45bc 8262 53bc fb7d 8b3c
000002c0: b27a 203c 1726 4a3d ad3a d0bb cf69 bdbc
000002d0: d310 6cbc a7d3 3d3d f476 cabd 7f1f 833d
000002e0: 4a42 e6ba 2d44 5e3c 4ea8 0a3c 3766 2dbb
000002f0: 1c3d 503c 4366 1a3c 1cad d7ba 67b2 eabc
00000300: b851 fc3b 5e8b 0bbb 1833 7c3b f940 233c
00000310: 10b3 943c d290 233c dc75 4dbc 5412 8abc
00000320: 090c 3d3b d7ba 6bba 9ae7 46bc cc64 5dbc
00000330: ad4d 8e3c b971 ecbb d7da ce3c 426f 38bb
00000340: 435f 3fbc 3dc1 53bc 9aab 36bc 28d5 153c
00000350: 5c64 073c bf06 853b 9904 11bb d9be ba3c
00000360: 1024 4dbc d10e bf3d 44c8 a33c 7eeb 073d
00000370: 4f72 a83c 9f7a 83bc eff8 6bbc 3051 213c
00000380: d78f 90bd 6e4c c937 e6a7 74bb 5f26 f5bb
00000390: 6ee2 0f3d f108 cc3c 1181 173c d4f9 9dbc
000003a0: e9b2 6d3b 70f6 5fbc d52c 2dbc a50d 723c
000003b0: 3aac ff3c 145c 9ebc 9f23 04bb a256 46bc
000003c0: 86fa 8e3c 4e0f 2abb 63e6 443c ed4c 37bc
000003d0: dfac 8e3c 467c 30bc 68b1 c139 ceff 7a3b
000003e0: 768e 463c dc80 b0bc ab6f a0bc b569 093c
000003f0: 8a70 85bd 2d54 2d3c 8725 30bc d370 56bc

action_model._discrete_distribution.branches.0.bias f4 [3]
-0.22928745 -0.2917718 0.46383023
00000000: 54ca 6abe 1d63 95be 287b ed3e

action_model._discrete_distribution.branches.0.weight f4 [3, 128]
0.022496374 -0.0040477156 0.0021292355 -0.0012114136 0.038674064 -0.016941028 0.007059556 0.14369361
-0.07661692 0.021872044 0.028768323 0.011111291 0.009690275 0.0025862553 -0.018778179 0.03104966
0.036050357 0.0007891873 -0.00084471516 0.02231284 0.2891822 0.015043669 0.020325411 -0.0027561025
0.10232023 -0.581058 0.062395424 0.013209159 0.24820144 -0.22935589 -0.13921596 0.010076831
-0.009945302 -0.36439335 0.16660118 -0.0043313294 0.005278773 -0.016348707 0.1626364 -0.1143281
0.0067212223 0.018936442 -0.03245058 0.024788748 0.016664602 -0.0073473724 0.03790532 0.011176598
0.031973097 0.014437826 0.050391693 0.0025314686 0.008170871 -0.01559928 -0.1220277 -0.25514442
0.0037866987 -0.012084382 0.08965756 0.015440909 -0.0037299148 -0.010221451 0.01414349 0.15118404
0.03129706 0.0074821967 0.047029864 0.015508921 -0.2931061 -0.15511069 -0.026190752 0.010945318
0.033384796 -0.010577909 -0.014941329 -0.020155186 0.026468629 0.020167189 -0.24891685 0.00109218
-0.20405166 0.08642613 0.0014269508 -0.12161521 -0.014837831 0.005771261 0.02043386 0.0058030114
0.0021896274 -0.31251508 0.018059367 0.14435032 -0.012541205 -0.0039395047 -0.024116559 0.040467568
-0.3252425 0.018853331 0.0069788764 0.00041400487 -0.047310963 0.024896715 0.004005503 0.0174985
0.030176925 -0.011417657 0.0042128274 0.20204216 -0.024199149 -0.04073402 -0.07102486 0.03285007
0.018201321 0.0276528 0.010873988 -0.1588845 -0.015287779 0.015581524 0.032552555 0.002146673
0.0084830765 -0.01239915 -0.03801297 -0.0023118495 -0.0737697 0.053343862 0.031888187 -0.012030163
0.004265417 0.005902784 0.008762188 0.021382788 -0.030575324 -0.017507525 -0.049304016 -0.15475684
0.06603439 -0.00047463377 -0.012201635 0.036949713 0.03422112 0.013714184 0.0012333858 -0.008283634
0.006606786 -0.0074986955 -0.001478649 0.007934864 -0.046725098 -0.03233725 -0.0047818297 -0.010836877
0.003982628 0.19190116 0.022033239 -0.0284186 0.041433685 -0.027261399 -0.14234456 0.00027543854
0.015748762 -0.3009084 -0.026506267 0.0006389821 0.0018706083 0.009772812 -0.0784255 0.006032123
0.011508033 -0.017179783 0.019983284 -0.0019707463 -0.009076651 0.002978748 -0.12811072 -0.020368163
-0.041926034 0.06025494 -0.021612765 0.017822502 -0.006724337 0.07810926 0.3075113 0.1577884
-0.00072322227 0.01838386 0.031246742 0.013688356 -0.0010250664 -0.008892979 -0.018658265 -0.033791255
-0.010117423 0.0006987352 0.004452911 -0.03939601 -0.071454585 0.026121384 0.012942803 -0.02621941
-0.00075157284 -0.00664956 -0.026817113 0.02056233 0.025132984 -0.019492518 -0.10084276 -0.02649357
-0.29174396 0.103482 -0.0017810749 0.042294744 0.045933146 -0.027758624 -0.026174625 0.03004676
0.01810631 0.0060464568 -0.03302182 0.0026905397 0.015825523 0.026016094 0.030650236 -0.018217666
0.080300145 0.007369764 0.003377015 0.0046472987 -0.04740662 -0.01751107 -0.0012139541 0.015345696
-0.005571958 0.029878726 0.021438811 -0.030898733 0.020494303 -0.019330593 0.033639815 -0.0110904435
0.033564333 -0.018065404 -0.014469115 -0.04580186 -0.03136216 -0.009496464 0.020957427 -0.006971791
-0.005634967 0.017358871 0.017456375 -0.0043724994 -0.027728513 -0.032279894 0.007261743 0.020607831
00000000: 514a b83c b3a2 84bb a58a 0b3b 4cc8 9eba
00000010: b268 1e3d e9c7 8abc d953 e73b 6b24 133e
00000020: 55e9 9cbd 002d b33c 8cab eb3c 220c 363c
00000030: f6c3 1e3c 2a7e 293b b2d4 99bc db5b fe3c
00000040: 8aa9 133d 77e1 4e3a e06f 5dba 6bc9 b63c
00000050: b00f 943e b979 763c 7a81 a63c ba9f 34bb
00000060: 458d d13d 38c0 14bf 5892 7f3d 3a6b 583c
00000070: 8528 7e3e 45dc 6abe a18e 0ebe 4b19 253c
00000080: 9ff1 22bc c491 babe 8099 2a3e d3ed 8dbb
00000090: 8ff9 ac3b b9ed 85bc 288a 263e da24 eabd
000000a0: b33d dc3b 9920 9b3c e6ea 04bd c611 cb3c
000000b0: 3484 883c 3ac2 f0bb 9c42 1b3d 0d1e 373c
000000c0: 39f6 023d a28c 6c3c 8567 4e3d ffe6 253b
000000d0: 1edf 053c 1f94 7fbc a9e9 f9bd 4aa2 82be
000000e0: 432a 783b 92fd 45bc 629e b73d defb 7c3c
000000f0: 9671 74bb df77 27bc 19ba 673c fdcf 1a3e
00000100: 5931 003d 372d f53b 63a2 403d 2119 7e3c
00000110: 0112 96be 56d5 1ebe fd8d d6bc fe53 333c
00000120: 7fbe 083d f74e 2dbc 7acc 74bc 7d1c a5bc
00000130: bdd4 d83c a935 a53c 0fe4 7ebe 7b27 8f3a
00000140: ebf2 50be 2f00 b13d 8608 bb3a 6511 f9bd
00000150: 601a 73bc d91c bd3b e964 a73c 3027 be3b
00000160: da7f 0f3b fa01 a0be 3df1 933c 92d0 133e
00000170: a079 4dbc f616 81bb 1790 c5bc 52c1 253d
00000180: 2f86 a6be 4d72 9a3c 0faf e43b cb0e d939
00000190: 24c9 41bd 32f4 cb3c 9840 833b 0459 8f3c
000001a0: 9935 f73c 2011 3bbc c20b 8a3b 24e4 4e3e
000001b0: 4b3d c6bc b7d8 26bd 7b75 91bd cc8d 063d
000001c0: f01a 953c 2088 e23c d028 323c 9eb2 22be
000001d0: 9879 7abc a649 7f3c d455 053d 32af 0c3b
000001e0: 9afc 0a3c ce25 4bbc 7db3 1bbd 6682 17bb
000001f0: 9214 97bd 187f 5a3d 309d 023d 291a 45bc
00000200: e9c4 8b3b 246c c13b 488f 0f3c f52a af3c
00000210: 1a79 fabc f16b 8fbc 02f3 49bd 9478 1ebe
00000220: 0a3d 873d 44d8 f8b9 5ee9 47bc 9558 173d
00000230: 722b 0c3d 75b1 603c 8fa9 a13a 14b8 07bc
00000240: bd7d d83b 9eb7 f5bb 3acf c1ba 3b01 023c
00000250: d162 3fbd 1074 04bd e5b0 9cbb 288d 31bc
00000260: b580 823b bd81 443e 0d7f b43c 20ce e8bc
00000270: 5eb6 293d 4c53 dfbc c6c2 11be bc68 9039
00000280: 8c03 813c aa10 9abe ac23 d9bc 5d81 273a
00000290: 332f f53a 251e 203c 8c9d a0bd 1ea9 c53b
000002a0: 308c 3c3c 9ebc 8cbc fcb3 a33c a327 01bb
000002b0: 3cb6 14bc 1937 433b 752f 03be 22db a6bc
000002c0: a2ba 2bbd e2cd 763d 410d b1bc 7f00 923c
000002d0: d457 dcbb bff7 9f3d 1f72 9d3e 4893 213e
000002e0: a096 3dba c099 963c 2bf9 ff3c 2045 603c
000002f0: 855b 86ba dbb3 11bc 38d9 98bc b368 0abd
00000300: 8cc3 25bc 532b 373a bae9 913b b65d 21bd
00000310: c856 92bd 83fc d53c 0d0e 543c 17ca d6bc
00000320: 3305 45ba 8de4 d9bb 90af dbbc 5572 a83c
00000330: b0e3 cd3c c6ae 9fbc a686 cebd 0b09 d9bc
00000340: 775f 95be 5fee d33d f572 e9ba 413d 2d3d
00000350: 6524 3c3d 0e66 e3bc 2b6c d6bc 9f24 f63c
00000360: af53 943c 5b21 c63b e341 07bd c453 303b
00000370: 87a4 813c b41f d53c 3416 fb3c 373d 95bc
00000380: 6774 a43d 107e f13b e950 5d3b 5e48 983b
00000390: 722d 42bd 6073 8fbc 8a1d 9fba 846c 7b3c
000003a0: f994 b6bb 3bc4 f43c 72a0 af3c 571f fdbc
000003b0: abe3 a73c 315b 9ebc e7c9 093d b1b4 35bc
000003c0: c17a 093d e6fd 93bc de0f 6dbc bb9a 3bbd
000003d0: 9c75 00bd 0f97 1bbc e9ae ab3c 9f73 e4bb
000003e0: 87a5 b8bb 3134 8e3c ac00 8f3c 2f47 8fbb
000003f0: e826 e3bc ec37 04bd eaf3 ed3b c1d1 a83c

action_model._discrete_distribution.branches.1.bias f4 [3]
-0.26363325 -0.120229445 0.36790568
00000000: f0fa 86be db3a f6bd 225e bc3e

action_model._discrete_distribution.branches.1.weight f4 [3, 128]
0.01028872 -0.014767936 0.018910289 0.005660459 0.008034967 0.010171417 -0.021130333 -0.43689805
-0.013767163 0.0022542193 -0.00037662135 -0.031640872 0.0107404 0.0031511786 -0.009405891 0.01367914
-0.04806316 0.042983875 -0.022652728 0.0060725054 -0.2993744 -0.0038665503 0.0005393071 -0.016882708
0.15654144 -0.057275556 -0.0047197505 -0.0073535102 -0.40508577 0.025756326 -0.22123034 0.02917191
-0.0029169284 -0.13676187 -0.07200399 -0.0011568703 0.019793868 0.003113237 -0.0770385 0.07767207
0.004468316 0.0047337976 -0.012795789 0.001108854 0.015176692 -0.0052072755 -0.19992897 0.016763508
0.0019113875 -0.16175173 0.011495893 -0.019955888 0.018574663 0.035408925 -0.22312036 0.15165015
-0.008316961 0.03701307 -0.03478473 -0.010545973 0.058752622 0.021642134 0.026312934 0.05079484
0.020729521 0.015523646 0.008931805 0.005399688 -0.33058694 -0.024216661 -0.019890597 0.008460305
-0.0073381704 -0.005311541 0.059796713 -0.0073520406 -0.018191937 0.0011713087 0.20302996 -0.04279502
0.005379866 -0.2748144 -0.023803566 0.06334166 0.06753399 0.008280007 0.0023332497 -0.01962209
0.01580434 -0.2471248 0.015845886 0.025466522 0.013988908 -0.0065259207 -0.008389651 0.006727015
-0.20701814 -0.02678082 0.0019280476 -0.017316522 -0.18390384 0.016124673 0.009541922 0.013938167
0.0037883935 -0.002046762 -0.009465236 0.26795763 0.012195147 0.0025267252 0.30986288 -0.019154131
0.022144021 0.0046379818 0.013362203 0.10491338 -0.1235769 0.015725467 0.021089073 0.004203402
0.0065761684 -0.015238983 -0.009886386 0.003262611 0.11492126 0.032160822 -0.0052367416 0.019655244
-0.010926234 0.030091828 0.010362503 0.018730247 0.0035247048 -0.043687433 -0.013835755 -0.012451804
-0.060673006 0.020847023 0.002686251 0.061831463 0.052744105 -0.015517201 -0.008971503 0.0056154137
-0.15969384 -0.025486013 0.0047671786 -0.014748473 -0.0057096756 0.01732248 -0.00945662 -0.00825823
0.052993156 0.20896518 -0.035350826 0.006680239 -0.12721826 -0.022288939 0.05372815 0.0035142077
-0.031917963 0.13057065 -0.044328198 0.033080466 0.01702183 0.018091077 -0.04052606 -0.02258645
0.00587659 -0.0068966816 0.013309168 0.013097928 -0.0030594084 0.01587155 -0.19768734 0.01941847
0.017498767 0.13898773 -0.007801174 0.003164457 -0.0037265779 -0.16442098 0.3283675 0.036765676
-0.00017419532 -0.021356635 0.08746 0.01189969 -0.019837422 0.04677012 0.023151163 0.012991949
0.036072075 0.0034507369 0.0024981843 0.012257515 0.1794753 0.07958653 -0.016866563 -0.026117496
0.037317894 -0.004229297 -0.027454333 -0.005735313 0.050116792 0.012336129 0.13688937 -0.07107752
0.1074863 -0.18792954 0.025136044 -0.07465825 -0.05493086 -0.0129904775 -0.0026968087 0.03744364
-0.0004791124 0.08893761 0.0038845313 -0.06605796 0.027327426 -0.010584985 -0.028014963 0.0057322537
0.20154712 0.0168453 0.016959317 -0.017791184 -0.05812646 -0.009049091 0.015267007 -0.012772138
0.027179033 -0.006404772 -0.0034114185 0.016903296 -0.06872394 -0.06563351 0.3655604 -0.0009619945
0.046393372 -0.011194091 0.0072537805 -0.032954603 -0.082295865 0.003157916 -0.02070892 0.002077815
-0.00018636971 -0.012496953 -0.0027138793 0.012876719 -0.0387316 -0.021875862 0.020793725 -0.006875436
00000000: 0592 283c 37f5 71bc c0e9 9a3c 5f7b b93b
00000010: 18a5 033c 04a6 263c 8519 adbc 1ab1 dfbe
00000020: ab8f 61bc 86bb 133b 4375 c5b9 dc99 01bd
00000030: 81f8 2f3c 0184 4e3b 2b1b 1abc 791e 603c
00000040: e0dd 44bd dc0f 303d 3792 b9bc defb c63b
00000050: 9a47 99be f365 7dbb 4960 0d3a 9b4d 8abc
00000060: 664c 203e c699 6abd 23a8 9abb b7f5 f0bb
00000070: 6767 cfbe eefe d23c 358a 62be eef9 ee3c
00000080: f029 3fbb 4e0b 0cbe d476 93bd 20a2 97ba
00000090: c026 a23c 7307 4c3b 5cc6 9dbd 8912 9f3d
000000a0: f46a 923b f91d 9b3b 6ea5 51bc f756 913a
000000b0: a9a7 783c cba1 aabb 2eba 4cbe a053 893c
000000c0: 8687 fa3a 3fa2 25be 4559 3c3c 887a a3bc
000000d0: e429 983c f308 113d aa79 64be 2d4a 1b3e
000000e0: dd43 08bc 049b 173d 6f7a 0ebd 04c9 2cbc
000000f0: 97a6 703d d84a b13c 398e d73c 400e 503d
00000100: f5d0 a93c e456 7e3c b556 123c deef b03b
00000110: b142 a9be 0562 c6bc 9bf1 a2bc 179d 0a3c
00000120: 0975 f0bb 6f0c aebb 66ed 743d 63e9 f0bb
00000130: 4207 95bc 9986 993a 16e7 4f3e d549 2fbd
00000140: 9649 b03b 79b4 8cbe b2ff c2bc 46b9 813d
00000150: 434f 8a3d dea8 073c 6fe9 183b 81be a0bc
00000160: 1a78 813c 490e 7dbe 3bcf 813c 2b9f d03c
00000170: bc31 653c 64d7 d5bb bf74 09bc 4b6e dc3b
00000180: 90fc 53be 7363 dbbc 8bb6 fc3a 61db 8dbc
00000190: 4a51 3cbe e417 843c b955 1c3c e95c 643c
000001a0: b246 783b f822 06bb 1414 1bbc be31 893e
000001b0: 27ce 473c 6a97 253b 59a6 9e3e 20e9 9cbc
000001c0: 6167 b53c 36fa 973b 24ed 5a3c d4dc d63d
000001d0: e315 fdbd b2d2 803c fec2 ac3c b1bc 893b
000001e0: e67c d73b edac 79bc 82fa 21bc 88d1 553b
000001f0: d65b eb3d 11bb 033d f998 abbb 0904 a13c
00000200: f203 33bc 2383 f63c 7dc7 293c 2d70 993c
00000210: bcfe 663b 98f1 32bd 5daf 62bc a702 4cbc
00000220: 4284 78bd 60c7 aa3c d00b 303b fd42 7d3d
00000230: 340a 583d dc3b 7ebc 36fd 12bc 8101 b83b
00000240: c886 23be 0bc8 d0bc fe35 9c3b 94a3 71bc
00000250: 3b18 bbbb e0e7 8d3c f0ef 1abc 874d 07bc
00000260: 5a0f 593d f8fa 553e 07cc 10bd e8e5 da3b
00000270: 8145 02be 4b97 b6bc 0c12 5c3d 9f4e 663b
00000280: 69bc 02bd 50b4 053e 7c91 35bd 627f 073d
00000290: 5d71 8b3c bd33 943c a7fe 25bd 3807 b9bc
000002a0: 6990 c03b 8ffd e1bb b20e 5a3c b198 563c
000002b0: 5b80 48bb 0e05 823c 8d6e 4abe 7c13 9f3c
000002c0: 9359 8f3c cd52 0e3e fea0 ffbb c762 4f3b
000002d0: 9a39 74bb f95d 28be c91f a83e 9b97 163d
000002e0: 33a8 36b9 1cf4 aebc 3a1e b33d ebf6 423c
000002f0: 1782 a2bc 0692 3f3d 82a7 bd3c 2fdc 543c
00000300: 50c0 133d c225 623b 94b8 233b bfd3 483c
00000310: 5fc8 373e 43fe a23d bf2b 8abc 5cf4 d5bc
00000320: a6da 183d ea95 8abb e9e7 e0bc 4bef bbbb
00000330: 4447 4d3d 7a1d 4a3c ba2c 0c3e 1791 91bd
00000340: c721 dc3d 9a70 40be 1bea cd3c 6de6 98bd
00000350: 2eff 60bd 03d6 54bc f1bc 30bb 815e 193d
00000360: 6131 fbb9 ec24 b63d 9f93 7e3b 6549 87bd
00000370: c4dd df3c a56c 2dbc a37f e5bc a1d5 bb3b
00000380: 5e62 4e3e 28ff 893c 44ee 8a3c d1be 91bc
00000390: 0316 6ebd a342 14bc 7822 7a3c 3b42 51bc
000003a0: 90a6 de3c 1fdf d1bb 1b92 5fbb c878 8a3c
000003b0: 23bf 8cbd dd6a 86bd bc2a bb3e 5c2e 7cba
000003c0: fa06 3e3d 6c67 37bc 1fb1 ed3b 68fb 06bd
000003d0: bc8a a8bd 0af5 4e3b c1a5 a9bc f32b 083b
000003e0: 3d6c 43b9 05c0 4cbc 57db 31bb e0f8 523c
000003f0: 07a5 1ebd 0235 b3bc 9a57 aa3c 564b e1bb

discrete_action_output_shape f4 [1, 2]
3.0 3.0
00000000: 0000 4040 0000 4040

network_body._body_endoder.seq_layers.0.bias f4 [128]
-0.34411722 -0.16541268 -0.6302661 -0.61216193 -0.40521047 -0.07222927 -0.16913123 -0.43923098
-0.38515145 -0.00045766754 -0.025319826 -0.22375022 -0.21077783 -0.3040779 -0.008618789 -0.33852658
-0.47241175 -0.5716945 -0.18758404 -0.3812648 -0.14841895 -0.775187 -0.7989897 -0.19983496
-0.039217416 -0.14447941 -0.31831494 -0.23131841 -0.24543834 -0.3127898 -0.2991431 -0.47287545
-0.55686563 -0.43767008 -0.5276036 -0.005074753 0.008424437 -0.044490892 -0.3359657 -0.4799179
-0.15538405 -0.33212775 -0.53494704 -0.17083932 -0.25821617 -0.6294761 -0.12502068 -0.33815682
-0.36801806 -0.0032182878 0.019864125 -0.16820775 -0.45704478 -0.14654897 -0.31053597 -0.4511098
-0.20648329 -0.40486127 -0.3837362 -0.3976956 -0.27222514 -0.3990671 -0.29681316 -0.3291849
-0.021591831 -0.13217938 -0.5485533 -0.57470953 -0.028870344 0.088940054 -0.20270397 0.0072049904
-0.21431115 -0.26409522 -0.047101818 0.020138988 -0.25024337 -0.12914862 -0.070166804 -0.31336358
-0.5109719 -0.03137282 -0.44721127 -0.0041766632 -0.6708544 -0.038410716 -0.28951186 -0.1430839
-0.26171127 -0.36202666 -0.014465915 -0.18824269 -0.27197182 -0.2364608 -0.19514813 -0.29641005
-0.5391662 -0.024677828 -0.6564322 -0.49280807 -0.17134136 -0.1140084 -0.284802 -0.18485636
-0.32001817 -0.2685147 -0.024955036 -0.60504854 -0.5477497 -0.61502516 -0.72241354 -0.38746247
-0.7324676 -0.50620234 -0.34332433 -0.15929106 -0.10705038 -0.12813255 -0.01555313 -0.20537098
-0.41877073 -0.21396284 -0.23412931 -0.021277199 -0.13101678 -0.17387436 -0.4101179 -0.28176314
00000000: 2230 b0be f161 29be 1e59 21bf a5b6 1cbf
00000010: bf77 cfbe f1ec 93bd bd30 2dbe e2e2 e0be
00000020: 9232 c5be 19f3 efb9 866b cfbc c71e 65be
00000030: 25d6 57be 19b0 9bbe d235 0dbc 5b53 adbe
00000040: f4df f1be 925a 12bf 0816 40be 2435 c3be
00000050: 23fb 17be a872 46bf 978a 4cbf 89a1 4cbe
00000060: 71a2 20bd 69f2 13be 2dfa a2be bcde 6cbe
00000070: 3054 7bbe fc25 a0be 4929 99be bb1c f2be
00000080: bf8e 0ebf 4b16 e0be 0811 07bf 1d4a a6bb
00000090: a606 0a3c 153c 36bd b203 acbe cdb7 f5be
000000a0: ff1c 1fbe a60c aabe 4af2 08bf 81f0 2ebe
000000b0: e934 84be 5825 21bf 6c05 00be e422 adbe
000000c0: dd6c bcbe e9e9 52bb 17ba a23c a73e 2cbe
000000d0: c601 eabe ef10 16be 92fe 9ebe ddf7 e6be
000000e0: 5b70 53be fa49 cfbe 1279 c4be c29e cbbe
000000f0: 1861 8bbe 8652 ccbe e5f7 97be ec8a a8be
00000100: 5ae1 b0bc 085a 07be fd6d 0cbf 2a20 13bf
00000110: 8081 ecbc 3426 b63d a191 4fbe d717 ec3b
00000120: 6274 5bbe 7d37 87be d6ed 40bd 85fa a43c
00000130: e61f 80be 893f 04be 9db3 8fbd 3171 a0be
00000140: 0ecf 02bf c980 00bd e0f8 e4be 64dc 88bb
00000150: 1dbd 2bbf 8e54 1dbd e63a 94be 9684 12be
00000160: 05ff 85be 8f5b b9be 7202 6dbc b1c2 40be
00000170: e43f 8bbe c822 72be e9d4 47be 0fc3 97be
00000180: cc06 0abf 2829 cabc f10b 28bf 5751 fcbe
00000190: 1c74 2fbe 3c7d e9bd 91d1 91be fc4a 3dbe
000001a0: 6cd9 a3be c27a 89be 816e ccbc 76e4 1abf
000001b0: 5339 0cbf 4a72 1dbf 18f0 38bf 7b61 c6be
000001c0: ff82 3bbf 7a96 01bf 35c8 afbe 321d 23be
000001d0: 3b3d dbbd 2e35 03be 8ed2 7ebc c54c 52be
000001e0: 1e69 d6be 1319 5bbe 98bf 6fbe 854d aebc
000001f0: 4329 06be 1f0c 32be f9fa d1be 4243 90be

network_body._body_endoder.seq_layers.0.weight f4 [128, 13]
0.006287449 -0.038752597 0.01260894 0.4924164 0.1028641 -0.10081448 0.11442507 -0.36452866
-0.11274262 0.036208026 -0.15587115 0.20980461 0.61634475 0.31152362 0.100026205 -0.034797866
0.2491595 -0.39480594 0.008518614 0.118037835 0.36740595 -0.18653098 -0.13688503 0.019536357
0.13419521 0.45213953 -0.32275864 0.041447844 -0.0034858773 0.3407508 -0.27733743 0.36593428
-0.08242667 -0.2935906 0.34661612 0.3956972 0.32611805 0.08629306 -0.4607995 -0.17585465
0.012941196 0.3439547 0.22349502 -0.27201205 0.23276176 -0.22509396 0.5229595 -0.074510194
0.57355475 0.1870167 -0.09376524 0.064995505 0.17120177 0.03087069 -0.06886629 0.39385375
-0.44177985 0.3613703 0.17070489 -0.22803864 0.17442246 0.18796532 -0.15953264 -0.20381506
0.56540585 0.19562449 0.07295644 -0.027144084 -0.18571027 0.05634791 0.0013984629 0.10078976
0.12107678 -0.095347315 -0.07763666 0.053350404 0.078932166 0.15543564 0.13830878 0.4576628
0.22846256 0.065229245 0.051747296 -0.012511838 0.5306528 -0.04635232 0.24357335 -0.1881462
-0.078802586 -0.01644444 -0.8979387 -0.31218055 -0.11976704 0.18820983 -0.07280619 -0.3343141
0.2045794 0.15471178 -0.1541577 -0.51067024 0.112615734 0.266323 -0.047315553 -0.11325679
0.3349835 0.11091893 -0.12054769 0.22427186 0.14011315 0.1879943 -0.2641376 0.041461434
0.052670386 -0.60760576 0.3804869 0.49498218 0.40238973 -0.08522903 -0.01722127 -0.07555185
-0.06523966 -0.6393102 -0.03532682 0.20266843 -0.35806432 0.18264222 0.005108254 -0.024812108
0.062874876 -0.11142851 0.053252988 -0.037848692 0.066764936 -0.008213536 -0.22337575 0.019954087
-0.003947466 -0.0032943701 -0.07575531 -0.04160526 -0.0064058886 -0.035253465 0.1602566 0.051410276
-0.059456795 0.12568857 0.12903102 -0.12807713 0.20354855 0.31546482 -0.007619037 -0.068115614
0.15516737 0.039490074 -0.0028092698 0.11980135 -0.45087987 -0.3917272 0.24225293 -0.21026236
0.20307247 0.5288717 -0.09108139 0.4013081 0.1852447 0.29056966 0.090532504 0.6953586
-0.36598074 -0.111791745 0.17644493 0.19117989 0.10635741 -0.009248493 -0.12522663 -0.20506646
0.26841226 -0.0679003 -0.2703943 0.3119482 0.2386343 0.4131455 0.048469435 0.00893886
-0.030368825 0.03834525 0.047925685 -0.0032608176 -0.0036923764 0.012964955 0.07511754 0.01285874
0.0056921197 0.06608386 -0.060818333 0.34066132 0.13844858 -0.21308716 0.549298 -0.28950655
0.12320636 0.13972798 -0.11822931 0.68624663 0.20350486 -0.019813064 -0.69837207 0.62305254
-0.10680681 0.18411613 0.80167586 0.2762086 0.15575473 0.40128633 -0.25981832 -0.011531308
0.502119 0.17741878 -0.1870822 -0.61577344 0.3523003 0.024068939 -0.19480191 -0.21609241
-0.13100591 0.19024502 0.103963 0.051540762 -0.17667429 -0.03381213 0.11245053 0.1847645
-0.21933559 -0.19979544 0.041084897 -0.19907717 0.04402608 -0.044440143 0.6584509 -0.07354811
-0.14328201 0.09206066 0.0124919955 0.06344189 0.051917143 0.22067234 -0.10213705 0.3119013
-0.57003564 0.2305112 -0.10047506 0.036629707 0.04559279 -0.11122432 0.017049141 -0.008896117
00000000: f206 ce3b 0bbb 1ebd ba95 4e3c 011e fc3e
00000010: 6aaa d23d d277 cebd b157 ea3d 80a3 babe
00000020: 9ae5 e6bd de4e 143d b09c 1fbe 05d7 563e
00000030: c5c8 1d3f 0680 9f3e 8ada cc3d 3588 0ebd
00000040: ab23 7f3e 0124 cabe a891 0b3c d2bd f13d
00000050: a21c bc3e fa01 3fbe 972b 0cbe b60a a03c
00000060: 786a 093e d57e e73e 9f40 a5be 37c5 293d
00000070: 5173 64bb e476 ae3e 2cff 8dbe bd5b bb3e
00000080: 50cf a8bd 8251 96be ab77 b13e d398 ca3e
00000090: f2f8 a63e 6aba b03d e9ed ebbe 3e13 34be
000000a0: 4f07 543c d51a b03e e1db 643e 2a45 8bbe
000000b0: 1959 6e3e 087f 66be ace0 053f cd98 98bd
000000c0: 7cd4 123f 4e81 3f3e fd07 c0bd 5d1c 853d
000000d0: 844f 2f3e 87e4 fc3c c509 8dbd 33a7 c93e
000000e0: f830 e2be 8705 b93e 43cd 2e3e f682 69be
000000f0: cd9b 323e fb79 403e 865c 23be e5b4 50be
00000100: 70be 103f c951 483e 306a 953d 455d debc
00000110: d52a 3ebe 11cd 663d a14c b73a dd6a ce3d
00000120: 1af7 f73d 7445 c3bd f8ff 9ebd f485 5a3d
00000130: 30a7 a13d 852a 1f3e d1a0 0d3e c752 ea3e
00000140: 17f2 693e e996 853d f9f4 533d 74fe 4cbc
00000150: ddd8 073f eedb 3dbd 4b6b 793e 66a9 40be
00000160: 4063 a1bd 7eb6 86bc 50df 65bf 21d6 9fbe
00000170: 6c48 f5bd 14ba 403e 691b 95bd 382b abbe
00000180: 437d 513e c46c 1e3e 84db 1dbe 49bb 02bf
00000190: 14a3 e63d 7d5b 883e f4cd 41bd 2df3 e7bd
000001a0: f582 ab3e 7729 e33d b5e1 f6bd 86a7 653e
000001b0: d279 0f3e 9481 403e 0b3d 87be 77d3 293d
000001c0: e7bc 573d 0d8c 1bbf 2ecf c23e 4e6e fd3e
000001d0: 0706 ce3e 8f8c aebd 9f13 8dbc eeba 9abd
000001e0: 5f9c 85bd d5a9 23bf dbb2 10bd 5088 4f3e
000001f0: 3554 b7be 9006 3b3e 2463 a73b c342 cbbc
00000200: 8bc4 803d a134 e4bd ce1f 5a3d 3b07 1bbd
00000210: 0ebc 883d 1192 06bc 9dbc 64be c176 a33c
00000220: bf59 81bb 5ce6 57bb 9a25 9bbd 476a 2abd
00000230: 7de8 d1bb f065 10bd 4e1a 243e 9593 523d
00000240: f888 73bd 81b4 003e b520 043e a726 03be
00000250: 086f 503e 9b84 a13e 1da9 f9bb 3380 8bbd
00000260: 32e4 1e3e 58c0 213d ba1b 38bb 695a f53d
00000270: bad9 e6be 7890 c8be 2711 783e 044f 57be
00000280: 3bf2 4f3e 2364 073f e188 babd 4178 cd3e
00000290: c9b0 3d3e 8cc5 943e 1b69 b93d 0503 323f
000002a0: d461 bbbe 12f3 e4bd fbad 343e a9c4 433e
000002b0: ead1 d93d fe86 17bc 693b 00be f1fc 51be
000002c0: 556d 893e 500f 8bbd 1f71 8abe adb7 9f3e
000002d0: 8d5c 743e cf87 d33e e387 463d 4c74 123c
000002e0: 0bc8 f8bc e90f 1d3d b94d 443d 71b3 55bb
000002f0: ccfb 71bb f66a 543c 3ad7 993d 77ad 523c
00000300: f684 ba3b fa56 873d a51c 79bd 296b ae3e
00000310: 77c5 0d3e 8533 5abe cb9e 0c3f 343a 94be
00000320: 9e53 fc3d da14 0f3e 3522 f2bd dcad 2f3f
00000330: 9463 503e 024f a2bc 83c8 32bf 5f80 1f3f
00000340: 87bd dabd f088 3c3e a13a 4d3f 376b 8d3e
00000350: 2b7e 1f3e 6775 cd3e e806 85be d0ed 3cbc
00000360: df8a 003f 45ad 353e 7a92 3fbe 54a3 1dbf
00000370: b460 b43e 392c c53c 277a 47be 5447 5dbe
00000380: 6a26 06be 97cf 423e 8eea d43d 681c 533d
00000390: 1bea 34be 977e 0abd 774c e63d e832 3d3e
000003a0: 8299 60be 2d97 4cbe a348 283d e3da 4bbe
000003b0: b154 343d de06 36bd 3d90 283f 64a0 96bd
000003c0: 85b8 12be 4d8a bc3d 3aab 4c3c d2ed 813d
000003d0: 12a7 543d eef7 613e 3b2d d1bd 87b1 9f3e
000003e0: dbed 11bf 210b 6c3e dec5 cdbd 0809 163d
000003f0: 81bf 3a3d 94c9 e3bd a4aa 8b3c 05c1 11bc

network_body._body_endoder.seq_layers.2.bias f4 [128]
-0.111989506 -0.028999181 -0.06319918 -0.057803843 -0.1183314 -0.011652292 -0.18053721 -0.09021027
-0.17253721 -0.11729995 -0.09482332 -0.03129864 -0.109986804 -0.05955631 0.016699977 -0.06606619
-0.3365398 -0.06234116 0.010330499 -0.09230722 -0.50336224 -0.08229443 -0.051985614 -0.06712388
-0.32220396 -0.23507442 -0.2626702 -0.042558078 -0.40744358 -0.23535201 -0.010514662 -0.18611763
-0.05452934 -0.13656387 -0.2186262 -0.10377977 -0.12373048 -0.060972895 -0.19792368 -0.20869285
0.04758258 -0.05252352 -0.067781284 -0.07205887 -0.03493391 -0.0821843 -0.15512517 -0.09402936
-0.082292706 -0.18216158 -0.11638154 -0.03210498 -0.09229018 -0.3001838 -0.49381548 -0.17233022
-0.048221223 -0.18553412 -0.21092269 -0.14086553 -0.05485158 -0.20814964 -0.060433723 -0.50453883
-0.13571355 -0.05579719 -0.07518945 -0.040172588 -0.00797308 -0.2118328 -0.04035248 -0.04597516
-0.14989536 -0.024966788 -0.13446891 -0.062182404 -0.11700552 -0.078129135 -0.3010344 -0.07458275
-0.27892435 -0.20457795 -0.07469818 -0.21267977 -0.15153277 -0.021471137 -0.1270031 -0.10583624
-0.028002642 -0.103485934 -0.100786485 -0.31161147 -0.12096047 -0.101718284 -0.00074533315 -0.072834216
-0.29235733 -0.10258106 -0.06389397 -0.054108284 -0.05414998 -0.089777365 -0.08152916 -0.057607297
0.008067865 -0.059085842 -0.1127944 -0.52782536 -0.20092654 -0.014253046 -0.49349287 -0.11465199
-0.10653903 -0.10917159 -0.051731974 -0.0045059263 -0.10005112 -0.076344006 -0.066059776 -0.05522568
-0.03518196 -0.021797251 -0.037332423 -0.05511166 -0.12995589 -0.079650365 -0.06323215 -0.018801583
00000000: c15a e5bd b18f edbc 926e 81bd b9c3 6cbd
00000010: bc57 f2bd 41e9 3ebc bfde 38be 29c0 b8bd
00000020: 98ad 30be f53a f0bd bb32 c2bd 0133 00bd
00000030: c340 e1bd 51f1 73bd 64ce 883c b64d 87bd
00000040: f24e acbe 7259 7fbd 4141 293c 910b bdbd
00000050: 59dc 00bf fb89 a8bd deee 54bd 3f78 89bd
00000060: ebf7 a4be 59b7 70be b57c 86be 6151 2ebd
00000070: 729c d0be 1e00 71be b045 2cbc 9f95 3ebe
00000080: 285a 5fbd 66d7 0bbe 8cdf 5fbe 7d8a d4bd
00000090: 6866 fdbd b7be 79bd 81ac 4abe 94b3 55be
000000a0: f4e5 423d e722 57bd ead0 8abd 9a93 93bd
000000b0: dc16 0fbd 3e50 a8bd 22d9 1ebe 7792 c0bd
000000c0: 1489 a8bd 9188 3abe 7259 eebd 8380 03bd
000000d0: a202 bdbd b1b1 99be 62d5 fcbe 5577 30be
000000e0: 9e83 45bd a8fc 3dbe 1efc 57be 0e3f 10be
000000f0: 0dac 60bd 2e25 55be 5a89 77bd 7529 01bf
00000100: 7ef8 0abe 988b 64bd edfc 99bd 038c 24bd
00000110: 85a1 02bc b3ea 58be a448 25bd 7350 3cbd
00000120: 2b7e 19be 2687 ccbc 38b2 09be fab2 7ebd
00000130: 97a0 efbd 2b02 a0bd 2e21 9abe d7be 98bd
00000140: 2ccf 8ebe e27c 51be 5cfb 98bd bac8 59be
00000150: 682b 1bbe 3de4 afbc 1a0d 02be acc0 d8bd
00000160: cc65 e5bc 6ff0 d3bd 2569 cebd 8a8b 9fbe
00000170: 1fba f7bd ad51 d0bd 7662 43ba 1b2a 95bd
00000180: dcaf 95be 0516 d2bd d7da 82bd a6a0 5dbd
00000190: 5fcc 5dbd 32dd b7bd c3f8 a6bd a1f5 6bbd
000001a0: 142f 043c ff03 72bd c000 e7bd 901f 07bf
000001b0: b0bf 4dbe 9c85 69bc 19ab fcbe aace eabd
000001c0: 2331 dabd 5b95 dfbd e8e4 53bd 73a6 93bb
000001d0: 9ae7 ccbd 3f5a 9cbd 594a 87bd 5334 62bd
000001e0: f51a 10bd 2690 b2bc e2e9 18bd c4bc 61bd
000001f0: 2813 05be bb1f a3bd dc7f 81bd c705 9abc

network_body._body_endoder.seq_layers.2.weight f4 [128, 128]
-0.061064746 0.121888496 0.21830702 0.085615 -0.0186084 0.010045343 0.040040802 -0.17740685
0.026223974 -0.15550643 -0.008043815 -0.05130528 0.03165629 -0.07266069 -0.042022943 0.06488017
0.038093563 -0.19884858 -0.02785715 -0.03995074 0.03743087 0.025314104 0.118955 -0.020344822
-0.015800983 -0.027013864 -0.0012201922 0.06015562 -0.008408239 0.067496166 -0.16545936 -0.10506768
-0.011172581 -0.20900169 -0.0830387 0.11155287 -0.080799475 -0.072547466 -0.07417814 0.04496625
0.1020404 -0.042274453 -0.06607804 -0.041472293 -0.10977331 0.032219622 -0.10738619 0.087541826
-0.108527936 0.0027900261 0.05996109 -0.026068363 -0.046248745 0.15478717 -0.07124782 -0.0171523
-0.1570499 -0.089550525 0.096848026 0.0156775 -0.13221653 0.009560517 0.14593895 -0.027033353
-0.013449498 0.08500521 0.16994727 -0.0029005646 -0.037316184 0.057438444 0.045792084 0.052790232
0.075697266 0.038674284 0.14488842 0.103900574 0.03402228 -0.08683214 -0.019454017 0.12486548
-0.072269455 0.0786276 -0.060510144 -0.05029542 0.122274704 -0.034643423 -0.027133042 -0.084689066
0.0018586798 -0.13264908 -0.04682393 -0.17436098 -0.10547861 -0.030975828 -0.007300865 0.044126317
-0.25944102 0.03163638 -0.084364 -0.00015852944 0.03628431 -0.039510425 0.0015759917 0.08706818
-0.065821685 0.10826432 -0.09085264 -0.030874217 -0.04104502 0.017992653 0.08325456 0.28521195
0.1551359 -0.18380196 -0.010652952 0.058881912 0.06739158 -0.08470314 0.031912036 0.038203117
-0.10088736 -0.052373532 -0.0055922894 0.065264136 0.047623727 -0.083340704 -0.038445417 -0.019662786
-0.07471977 -0.0832557 -0.046845466 -0.04735346 0.06563267 0.09153143 -0.12198984 0.020758448
0.015628127 -0.021624947 0.008737919 0.0032646542 -0.107631356 0.07603286 0.006272989 -0.049899638
0.036655206 0.23421992 0.011788555 -0.1495192 0.05431816 -0.041843623 -0.020703962 -0.14244962
-0.021422489 0.0792738 0.040255357 0.03478049 0.12173224 -0.13586289 -0.10306358 0.09922185
-0.10600267 -0.09943088 0.028718758 -0.08911109 -0.03113798 0.031719852 0.06368023 0.0165717
0.09024517 0.19464415 0.041529246 0.072679564 -0.121550135 0.05006263 0.021789543 0.008924991
0.04718145 -0.047400165 -0.10214473 0.10770776 -0.06940259 0.040057637 0.017325623 0.061915636
0.08119965 0.14272133 -0.1225916 -0.016562063 -0.04035536 0.059296306 0.10454242 0.0014352837
-0.0747852 0.10578537 0.006315064 -0.08981586 0.13014193 -0.1426176 0.022483908 -0.0062704245
0.039927665 0.06663053 -0.1768528 -0.059633818 0.09156662 -0.16333753 0.011371215 0.05406136
0.01502769 -0.23569566 -0.030799204 -0.015064112 0.092455804 -0.020796048 0.07732368 -0.23244736
-0.026616285 -0.042940248 -0.088538624 -0.115121774 0.026891187 -0.17344736 0.083156645 -0.1025012
-0.05277369 -0.034212634 0.017276675 -0.26652795 -0.011031173 -0.06409222 0.14779004 0.09883852
-0.06578652 0.08205157 -0.0646166 -0.16055577 0.24657747 -0.06789875 -0.10467424 0.013066886
0.23260553 0.051845785 -0.004059783 0.009363234 -0.11665332 0.015004541 0.13323185 -0.05070545
0.04580108 0.029334389 0.12409364 0.047081918 -0.04204682 -0.077394605 -0.048711322 -0.07112845
00000000: 071f 7abd ada0 f93d e08b 5f3e eb56 af3d
00000010: a570 98bc 3995 243c d301 243d 24aa 35be
00000020: a9d3 d63c 143d 1fbe 35ca 03bc 7c25 52bd
00000030: 07aa 013d 21cf 94bd 4020 2cbd e5df 843d
00000040: ff07 1c3d f69e 4bbe ae34 e4bc 63a3 23bd
00000050: 1d51 193d 865f cf3c ae9e f33d 2faa a6bc
00000060: 1071 81bc 2e4c ddbc dbee 9fba bd65 763d
00000070: b6c2 09bc 6e3b 8a3d 2e6e 29be b92d d7bd
00000080: 340d 37bc 8a04 56be 3210 aabd d575 e43d
00000090: 327a a5bd c493 94bd b5ea 97bd 882e 383d
000000a0: 8ffa d03d fa27 2dbd ec53 87bd dade 29bd
000000b0: d4d0 e0bd b9f8 033d 4aed dbbd 2149 b33d
000000c0: e543 debd dfd8 363b c399 753d 528d d5bc
000000d0: 536f 3dbd 8780 1e3e 61ea 91bd fb82 8cbc
000000e0: b0d1 20be 4466 b7bd 4258 c63d 1a6e 803c
000000f0: c563 07be b7a3 1c3c 0571 153e 0d75 ddbc
00000100: 495b 5cbc 3617 ae3d a806 2e3e 6617 3ebb
00000110: dbd8 18bd 9344 6b3d 7b90 3b3d 923a 583d
00000120: 2b07 9b3d ed68 1e3d a15d 143e d3c9 d43d
00000130: f25a 0b3d 0dd5 b1bd 085e 9fbc 79b9 ff3d
00000140: 0202 94bd 8207 a13d 7cd9 77bd 9202 4ebd
00000150: 296b fa3d 43e6 0dbd 1d46 debc 7671 adbd
00000160: f29e f33a 29d5 07be 73ca 3fbd af8b 32be
00000170: 2b05 d8bd 05c1 fdbc 183c efbb ccbd 343d
00000180: 74d5 84be 2695 013d 08c7 acbd ec3a 26b9
00000190: db9e 143d afd5 21bd 8291 ce3a cd50 b23d
000001a0: 85cd 86bd afb9 dd3d f310 babd edeb fcbc
000001b0: d31e 28bd 5465 933c 5e81 aa3d 4d07 923e
000001c0: f2db 1e3e 9536 3cbe b889 2ebc 292e 713d
000001d0: 9904 8a3d d778 adbd 32b6 023d df7a 1c3d
000001e0: 089e cebd a185 56bd 863f b7bb 34a9 853d
000001f0: 1911 433d 88ae aabd f178 1dbd da13 a1bc
00000200: ae06 99bd f781 aabd 08e1 3fbd b4f5 41bd
00000210: 6c6a 863d d574 bb3d cfd5 f9bd 9f0d aa3c
00000220: 8f06 803c cd26 b1bc 7d29 0f3c cff3 553b
00000230: d46d dcbd 1eb7 9b3d a58d cd3b 9063 4cbd
00000240: c523 163d 59d7 6f3e c924 413c 901b 19be
00000250: b87c 5e3d 3864 2bbd 5b9b a9bc 50de 11be
00000260: 377e afbc 4d5a a23d cde2 243d fd75 0e3d
00000270: c14e f93d a41f 0bbe 0013 d3bd d334 cb3d
00000280: ee17 d9bd 6ba2 cbbd 9a43 eb3c e07f b6bd
00000290: 1415 ffbc adec 013d c86a 823d 60c1 873c
000002a0: 76d2 b83d cc50 473e 921a 2a3d 06d9 943d
000002b0: 47ef f8bd 790e 4d3d fc7f b23c 203a 123c
000002c0: 5641 413d ad26 42bd 4231 d1bd e395 dc3d
000002d0: f222 8ebd 7a13 243d 77ee 8d3c 409b 7d3d
000002e0: 014c a63d 8a25 123e 4e11 fbbd 2aad 87bc
000002f0: a94b 25bd afe0 723d 561a d63d 2120 bc3a
00000300: fc28 99bd 00a6 d83d 99ee ce3b 61f1 b7bd
00000310: ed43 053e 590a 12be 2c30 b83c 2278 cdbb
00000320: 318b 233d 9675 883d e718 35be 9742 74bd
00000330: 4887 bb3d f441 27be 554e 3a3c 726f 5d3d
00000340: b336 763c 345a 71be 9d4e fcbc 77cf 76bc
00000350: 7859 bd3d 795c aabc e15b 9e3d ae06 6ebe
00000360: 650a dabc 1de2 2fbd bd53 b5bd f7c4 ebbd
00000370: e84a dc3c 2f9c 31be 084e aa3d 26ec d1bd
00000380: 3a29 58bd 8c22 0cbd d087 8d3c 5a76 88be
00000390: 18bc 34bc c842 83bd 4656 173e da6b ca3d
000003a0: 15bb 86bd a70a a83d b555 84bd bb68 24be
000003b0: ce7e 7c3e 800e 8bbd 735f d6bd 7e16 563c
000003c0: 2530 6e3e 3f5c 543d ee07 85bb 4068 193c
000003d0: f0e7 eebd 9bd5 753c ee6d 083e 85b0 4fbd
000003e0: ea99 3b3d ac4e f03c ce24 fe3d f8d8 403d
000003f0: 4939 2cbd 1081 9ebd 8685 47bd cbab 91bd

network_body.observation_encoder.processors.0.normalizer.running_mean f4 [13]
1208.6622 572.61804 464.37137 811.6818 0.0 855.2514 482.1979 577.64264
1258.9459 75.15043 55.249775 56.864136 47.782726
00000000: 3115 9744 8e27 0f44 892f e843 a3eb 4a44
00000010: 0000 0000 17d0 5544 5519 f143 2169 1044
00000020: 455e 9d44 054d 9642 c5ff 5c42 e074 6342
00000030: 8321 3f42
