results/FunnelAgent/My Behavior/checkpoint.pt (torch, 477743 bytes, 57 tensors)

discrete_act_size_vector f4 [1, 2]
0	0x40400000	3.0
1	0x40400000	3.0

network_body.observation_encoder.processors.0.normalizer.running_mean f4 [13]
0	0x440c5486	561.3207
1	0x439e7706	316.92987
2	0x43394e55	185.30598
3	0x442e5904	697.39087
4	0x00000000	0.0
5	0x43f57399	490.9031
6	0x43523e14	210.2425
7	0x43a3cdec	327.60876
8	0x43afedfa	351.8592
9	0x4363f7f0	227.9685
10	0x430c6c54	140.42316
11	0x4312ac8a	146.67398
12	0x42d08f8e	104.28038

network_body.observation_encoder.processors.0.normalizer.running_variance f4 [13]
0	0x53dfd756	1.9227809e+12
1	0x53193e71	6.581776e+11
2	0x5200369e	1.3766803e+11
3	0x53d75754	1.8497662e+12
4	0x3f800000	1.0
5	0x53483718	8.599178e+11
6	0x5258294e	2.3210148e+11
7	0x536d1847	1.01831456e+12
8	0x535e8092	9.556398e+11
9	0x51fd2813	1.3591238e+11
10	0x52150edf	1.600499e+11
11	0x523795c8	1.9712298e+11
12	0x522a7632	1.8303186e+11

network_body.processors.0.normalizer.running_mean f4 [13]
0	0x440c5486	561.3207
1	0x439e7706	316.92987
2	0x43394e55	185.30598
3	0x442e5904	697.39087
4	0x00000000	0.0
5	0x43f57399	490.9031
6	0x43523e14	210.2425
7	0x43a3cdec	327.60876
8	0x43afedfa	351.8592
9	0x4363f7f0	227.9685
10	0x430c6c54	140.42316
11	0x4312ac8a	146.67398
12	0x42d08f8e	104.28038

network_body.processors.0.normalizer.running_variance f4 [13]
0	0x53dfd756	1.9227809e+12
1	0x53193e71	6.581776e+11
2	0x5200369e	1.3766803e+11
3	0x53d75754	1.8497662e+12
4	0x3f800000	1.0
5	0x53483718	8.599178e+11
6	0x5258294e	2.3210148e+11
7	0x536d1847	1.01831456e+12
8	0x535e8092	9.556398e+11
9	0x51fd2813	1.3591238e+11
10	0x52150edf	1.600499e+11
11	0x523795c8	1.9712298e+11
12	0x522a7632	1.8303186e+11

network_body._body_endoder.seq_layers.0.weight f4 [128, 13]
0	0x3b516770	0.0031952523
1	0xbe11cde3	-0.14238696
2	0x3db6b229	0.089207
3	0x3df1e109	0.118105
4	0x3ea11486	0.3146097
5	0xbeacd7b6	-0.33758324
6	0x3e0901f5	0.13379653
7	0x3e9036ed	0.28166905
8	0x3e2e460d	0.1701891
9	0xbf0cd03a	-0.5500523
10	0x3e74dca2	0.2391229
11	0x3e2a197c	0.16611284
12	0x3df3f015	0.119110264
13	0xbe8a097c	-0.2696036
14	0xbec4f3c6	-0.38467234
15	0x3eef8a98	0.46785426
16	0x3d7d6752	0.061866112
17	0xbde3bb12	-0.11119665
18	0x3daa6b41	0.08321238
19	0x3d846c4d	0.06465969
20	0xbeebf434	-0.4608475
21	0xbea9df10	-0.33177996
22	0xbc6feaee	-0.014643414
23	0x3ea94671	0.33061555
24	0xbdc96958	-0.09834546
25	0x3ee95148	0.45569825
26	0xbebf6bea	-0.3738702
27	0x3e241342	0.16022971
28	0xbd8453b7	-0.0646128
29	0x3e49c55f	0.19704197
30	0x3813b908	3.5219855e-05
31	0xbf027441	-0.5095864
32	0x3d48fc6d	0.049068857
33	0xbe044522	-0.12916997
34	0x3d6f2d1f	0.05839264
35	0xbf574976	-0.8409647
36	0x3e666f1e	0.22503325
37	0x3d0735b3	0.033010196
38	0x3e0b2dc2	0.13591674
39	0xbf3f5dcd	-0.74752504
40	0xbf60eff7	-0.8786616
41	0xbf7d78ea	-0.99012625
42	0xbf88ecdc	-1.0697284
43	0x3e1f52b0	0.15558887
44	0x3fea0969	1.8284122
45	0x3d5b1c7a	0.053493954
46	0xc003d699	-2.059973
47	0xbfad2a06	-1.352845
48	0x3f807f81	1.0038911
49	0x3bbe38d8	0.005805116
50	0xbf691487	-0.9104695
51	0xbfb75c07	-1.432496
52	0xbeae4dce	-0.34043735
53	0x3e015165	0.12628706
54	0xbcd61447	-0.026132716
55	0x3e0841a1	0.13306285
56	0xbd79cb67	-0.060984995
57	0xbdb96fdd	-0.09054539
58	0xbe304620	-0.1721425
59	0x3ee7e8e6	0.45294875
60	0x3e433a9d	0.19065328
61	0xbe814b74	-0.2525288
62	0x3f0179f6	0.5057672
63	0xbd5733d3	-0.052539658
64	0x3e9b7c01	0.30368045
65	0xbdd4f11c	-0.103975505
66	0x3eeec255	0.4663264
67	0xbf7f4858	-0.9971976
68	0xbe91dcae	-0.28488678
69	0x3e3508e5	0.17679174
70	0x3e1a5e1a	0.1507496
71	0x3f2787b0	0.6544142
72	0xbeab2a8d	-0.334309
73	0x3fa17b13	1.2615684
74	0x3d41870b	0.047247928
75	0xbe2f1906	-0.1709939
76	0x3dc850a9	0.0978101
77	0xbf313dd6	-0.6923498
78	0x3cc7b53b	0.02437841
79	0xbe3d410f	-0.18481849
80	0x3e9f0648	0.3105948
81	0x3e6f5012	0.23370388
82	0x3ec83d9e	0.3910951
83	0x3e4893bc	0.19587606
84	0xbbeaded3	-0.007167676
85	0x3ea1baf8	0.31587958
86	0x3e902705	0.2815477
87	0x3ba9611d	0.0051690475
88	0xbe9c5676	-0.30534714
89	0x3d52dffd	0.051483143
90	0xbe829d84	-0.255108
91	0xbbd242ac	-0.0064166393
92	0x3c77102b	0.015079538
93	0xbeeea89f	-0.46613023
94	0x3d08dd4b	0.033414166
95	0x3ef2b836	0.47406167
96	0x3d2881f2	0.04113955
97	0x3e0dfe48	0.13866532
98	0xbe296762	-0.16543344
99	0xbeaeb8aa	-0.34125262
100	0x3f2faa2b	0.6861903
101	0xbece0e30	-0.402452
102	0xbebff4e3	-0.3749152
103	0xbf3015b0	-0.6878309
104	0xbe85b628	-0.26115537
105	0x3e1f25c9	0.15541758
106	0xbe3c51c6	-0.18390569
107	0x3c848b89	0.016179817
108	0xbede630d	-0.43434945
109	0x3e0175ea	0.12642637
110	0xbe6a6723	-0.22890906
111	0x3da04ab8	0.078267515
112	0x3e10d5a0	0.14143991
113	0x3dd35b21	0.10320116
114	0x3e003165	0.12518843
115	0x3cebfe91	0.02880791
116	0xbb1f394d	-0.0024295629
117	0xbf10027a	-0.5625378
118	0x3bebf644	0.007200988
119	0x3e160955	0.14651997
120	0x3e98d757	0.2985179
121	0x3e743540	0.23848438
122	0x3ea94daf	0.3306708
123	0x3ecac85e	0.39605993
124	0xbe9c0a63	-0.30476674
125	0xbda5297c	-0.08064553
126	0xbf4cabf7	-0.799499
127	0x3f33af17	0.7018904
128	0xbe0b3d80	-0.13597679
129	0xbe87bc33	-0.26510772
130	0xbe779a19	-0.24179877
131	0x3dcf3338	0.10117191
132	0x3f46e8dd	0.7769907
133	0x3f226e64	0.6344969
134	0x3e844f04	0.25841534
135	0xbf2b76d4	-0.6697819
136	0xbfc8045f	-1.5626334
137	0xbfc3bd35	-1.5292116
138	0xbf653b3c	-0.8954351
139	0xbfb4a9b9	-1.4114295
140	0x40109e4d	2.259662
141	0x3fa63cbe	1.2987287
142	0xbeac6854	-0.33673346
143	0x3f69371c	0.91099715
144	0xbe5fba11	-0.21848322
145	0xbf45ad48	-0.7721753
146	0x3f39e668	0.726172
147	0x3ef289bc	0.47370708
148	0xbf1ddadd	-0.61662084
149	0xbf082bb4	-0.53191686
150	0x3e2d8fa9	0.16949333
151	0x3e21deaa	0.15807596
152	0xbf7fc8dd	-0.9991587
153	0xbec4f950	-0.3847146
154	0xbf2bc065	-0.67090446
155	0xbed73642	-0.42033583
156	0xbe82dafe	-0.25557703
157	0xbeb35f0d	-0.35033455
158	0xbe92a8bf	-0.28644368
159	0x3d0304ad	0.03198688
160	0xbe58e49e	-0.2118096
161	0x3eae7889	0.34076336
162	0x3eb2da28	0.34932065
163	0xbe1860fa	-0.14880744
164	0xbe7efd80	-0.2490139
165	0xbf53484d	-0.825322
166	0x3e725f66	0.23669204
167	0x3d99fa53	0.07518449
168	0xbcc73359	-0.024316477
169	0xbe898d9d	-0.26865855
170	0xbdb80fc7	-0.08987384
171	0xbe731565	-0.2373863
172	0xbd0190b2	-0.031632133
173	0xbd59e9e9	-0.05320159
174	0x3bc3f2eb	0.005979886
175	0xbe0ba125	-0.1363569
176	0xbe94c064	-0.29053032
177	0xbed3ed1f	-0.41391847
178	0xbfa91370	-1.3209057
179	0x3f1bdaa6	0.60880506
180	0xbe2dc881	-0.16971017
181	0x3db451a2	0.08804633
182	0xbeafc1c4	-0.3432752
183	0xbea454a3	-0.32095823
184	0x3e51a9ba	0.20474902
185	0x3e831b43	0.25606737
186	0x3e4172eb	0.18891494
187	0xbf2b7ccc	-0.669873
188	0x3da66ba3	0.08125999
189	0x3d8a5038	0.06753582
190	0x3be6cd1b	0.0070434934
191	0x3f2b809a	0.66993105
192	0x3e648b20	0.22318697
193	0xbf138d28	-0.5763726
194	0x3e11b36c	0.142286
195	0x3e8850ba	0.2662409
196	0x3f202d64	0.6256926
197	0xbed293ec	-0.4112848
198	0x3f5aec41	0.85516745
199	0x3e4cc486	0.19996843
200	0x3dc05066	0.09390335
201	0x3f71c5b9	0.94442326
202	0xbee4ee81	-0.44713214
203	0x3f1a7909	0.60340935
204	0xbe536fc3	-0.20648102
205	0xbf08f0bd	-0.5349234
206	0xbeae518f	-0.340466
207	0xbe8b9eb8	-0.2726953
208	0xbe86012f	-0.26172778
209	0xbe0c8812	-0.13723782
210	0x3da56586	0.08076005
211	0xbf5aa613	-0.8540966
212	0xbe54f9fe	-0.2079849
213	0x3e9bfbcf	0.30465552
214	0x3cb7ceb8	0.022437438
215	0x3ec816e7	0.39079973
216	0xbf32bf33	-0.69822997
217	0xbf84f1c2	-1.0386279
218	0xbf009bb4	-0.50237584
219	0x3c7e04b7	0.015504054
220	0xbf69d9bc	-0.9134786
221	0xbf13aad4	-0.5768254
222	0xbeef5e3b	-0.4675158
223	0x3e8358b9	0.25653628
224	0xbdb44587	-0.08802324
225	0xbe3afa7c	-0.18259615
226	0x3ea44a65	0.3208801
227	0x3e17fb33	0.14841919
228	0x3eae2cd2	0.3401857
229	0x3e1b6d25	0.15178354
230	0xbf2d0eb8	-0.67600584
231	0x3dd94f41	0.106108196
232	0x3e1cc6cc	0.1531021
233	0xbfaac7a7	-1.3342179
234	0x3eb6f234	0.3573166
235	0xbeb6a633	-0.35673675
236	0x3da9fa31	0.08299673
237	0xbf44372a	-0.76646674
238	0xbcc44b30	-0.023961633
239	0x3edacded	0.42735234
240	0x3dee6411	0.1164018
241	0xbdfde8c8	-0.12397915
242	0xbe8f5853	-0.27997074
243	0xbf6b2d02	-0.9186555
244	0xbf58a9ac	-0.846339
245	0x3edc7b0e	0.43062633
246	0xbf1d5c78	-0.6146922
247	0xbe3eee61	-0.18645622
248	0xbe8234de	-0.2543096
249	0xbd0978b3	-0.033562373
250	0x3db74fa7	0.08950739
251	0x3ecc24d4	0.39871848
252	0xbee06fdf	-0.4383535
253	0xbd204865	-0.03913154
254	0x3e6ef180	0.23334312
255	0x3d97874b	0.07398852

network_body._body_endoder.seq_layers.0.bias f4 [128]
0	0xbfa2b1f5	-1.2710558
1	0xbfd97ac6	-1.6990592
2	0xbf6f0b4b	-0.93376607
3	0x3fb7a656	1.4347637
4	0xbf5ceec5	-0.86301833
5	0xc007880e	-2.117679
6	0xbf0e5e83	-0.55612963
7	0x3f394d11	0.7238322
8	0xbee70159	-0.45118216
9	0xbff2f49d	-1.89809
10	0xbf560115	-0.835954
11	0xc00aa829	-2.1665137
12	0xbf9e5af0	-1.2371502
13	0xbf8efd00	-1.117096
14	0xbfab2989	-1.337205
15	0xbe8a8cf2	-0.27060658
16	0xc029ef9f	-2.6552503
17	0xc01b26de	-2.4242473
18	0xc0235d30	-2.5525627
19	0xbf8ce783	-1.1008152
20	0xc0200ca0	-2.5007706
21	0xbec9740f	-0.39346358
22	0xbff2d16c	-1.897016
23	0xbda75dd4	-0.08172193
24	0xc015371a	-2.3314881
25	0xbf9a9b82	-1.2078707
26	0xc0025864	-2.036645
27	0xbfe569f5	-1.792296
28	0x3ed23cb0	0.41061926
29	0xc04b9b9f	-3.1813734
30	0xbfc2007f	-1.5156401
31	0xbfa10dca	-1.2582333
32	0xbe2a8895	-0.16653664
33	0xc0224dac	-2.5359907
34	0xbfe0fa7b	-1.757644
35	0xbef177f0	-0.47161818
36	0xbf89bb0d	-1.0760208
37	0xc02ee427	-2.7326753
38	0xbf6c2f1e	-0.92259395
39	0xc002fbec	-2.046626
40	0xbfa094e0	-1.2545433
41	0xc0401482	-3.0012517
42	0xbef320a1	-0.4748583
43	0xbf86fa9c	-1.054523
44	0xc0004bd3	-2.004628
45	0xbfb62143	-1.4228901
46	0xc0032539	-2.049147
47	0xbf4a9288	-0.7912984
48	0xbfd680ef	-1.6758097
49	0xbf6714e0	-0.9026623
50	0xbf91a4ad	-1.137838
51	0xbe67f5c3	-0.22652344
52	0xbf9bbe2b	-1.216741
53	0xc06fa630	-3.7445183
54	0xbf991930	-1.1960812
55	0x3ea97f0b	0.3310474
56	0xc0144bdc	-2.31713
57	0xbf1996b8	-0.59995604
58	0xbe5b2fde	-0.21404979
59	0xbfc1d28a	-1.5142376
60	0xbcf3e1f7	-0.029770834
61	0xc0071f08	-2.111269
62	0x3f7c28ce	0.98499763
63	0xbf298530	-0.66218853
64	0xc03e29d9	-2.9713042
65	0xc008edab	-2.139506
66	0xbf01a3d8	-0.5064063
67	0xbf0fab92	-0.5612117
68	0xbef353a3	-0.47524747
69	0xc01b7c1a	-2.4294496
70	0xbf64c0f9	-0.8935695
71	0xbfe78bd2	-1.8089545
72	0xbf5b5500	-0.85676575
73	0x3b77c9d0	0.0037809499
74	0xbfbcda80	-1.4754181
75	0xbf93c062	-1.1543086
76	0xbfe30170	-1.7734814
77	0x3b6fd3ed	0.0036594823
78	0xc00ef0d9	-2.2334502
79	0xc00a3f6a	-2.1601205
80	0x3e041b0b	0.12900941
81	0xbfc95b9b	-1.5731081
82	0xbecca927	-0.39972803
83	0xbf412fdb	-0.75463647
84	0xbfa77cf2	-1.3085005
85	0xbf554129	-0.8330255
86	0xbfde63dc	-1.7374225
87	0xbf2458e9	-0.64198166
88	0xbfe478a1	-1.7849313
89	0xbfcfe6b5	-1.6242281
90	0xbd475410	-0.048664153
91	0xbf002a32	-0.50064385
92	0xbfdbb1f1	-1.7163678
93	0xbf94d80a	-1.162843
94	0xbf042ec1	-0.5163384
95	0xbf43396f	-0.7625951
96	0xbf70549f	-0.9387912
97	0xbf00ff75	-0.50389796
98	0xc055ac51	-3.3386424
99	0xc02c6ced	-2.6941483
100	0xbf9a35ca	-1.2047665
101	0xbfd7b6dc	-1.6852679
102	0xbe54e805	-0.20791633
103	0xbec58546	-0.38578242
104	0xbfa3c944	-1.2795796
105	0xbfbbd684	-1.467484
106	0xc05eebea	-3.483149
107	0xbf2b0a4d	-0.6681259
108	0xbfd35b58	-1.6512251
109	0xbfd4b9a6	-1.6619155
110	0x3df17635	0.11790124
111	0xbf3f05aa	-0.7461802
112	0xc0186b63	-2.3815544
113	0xc00fdbbb	-2.2477863
114	0xbffbd9ca	-1.9675839
115	0xc020dabe	-2.513351
116	0xbfbe5bc3	-1.4871753
117	0xbf018a21	-0.50601393
118	0xbed0af23	-0.4075862
119	0xc0299eff	-2.6503294
120	0x3ebb0ebe	0.36534685
121	0xc014d8bb	-2.3257282
122	0xbf53846f	-0.8262395
123	0xc0157a4a	-2.335589
124	0xbe906e45	-0.2820913
125	0xc01140f8	-2.2695904
126	0xc03aaa39	-2.9166396
127	0xbfafba9c	-1.3728824

network_body._body_endoder.seq_layers.2.weight f4 [128, 128]
0	0x3e8fb386	0.28066653
1	0xbe08a15e	-0.13342807
2	0xbdc9563c	-0.09830901
3	0x3f8439cd	1.0330139
4	0xbd14647e	-0.03622865
5	0x3eb93d3d	0.36179534
6	0x3f279290	0.6545801
7	0x3e2d7fc5	0.16943271
8	0x3e73c739	0.23806466
9	0xbf479427	-0.7796044
10	0xc03ad967	-2.9195192
11	0xbf7219d2	-0.9457065
12	0x3d4d2b44	0.05009009
13	0xbe85b494	-0.26114333
14	0xbe6042af	-0.21900438
15	0x3e983cde	0.29733938
16	0x3ddaf2a3	0.106908105
17	0x3f3b8aa3	0.7325842
18	0x3f18d186	0.5969471
19	0x3ef8c2bd	0.48586074
20	0x3ea85d4b	0.32883677
21	0xbe16d22b	-0.1472861
22	0xbf5d9eff	-0.86570734
23	0xbf3086f8	-0.68955946
24	0xbd8666a5	-0.06562547
25	0xbe3af572	-0.18257692
26	0x3f197c3c	0.5995519
27	0xbd3c918c	-0.04603724
28	0x3f0827b0	0.5318556
29	0xbfb4e3aa	-1.4131978
30	0x3f93b145	1.1538473
31	0xbf61c465	-0.881903
32	0xbc77783f	-0.0151043525
33	0x3ea4b893	0.3217207
34	0x3e7d41fe	0.24732205
35	0x3d455c8d	0.048183966
36	0xbe73b3df	-0.23799084
37	0xbf1e9798	-0.61950064
38	0x3f07ff06	0.5312351
39	0x3f2f46b7	0.6846728
40	0xbe17a494	-0.14808875
41	0xbe680263	-0.2265716
42	0x3eee5b42	0.46554
43	0x3c7cf0cc	0.01543827
44	0xbf5d0107	-0.8632969
45	0xbfb0b678	-1.3805685
46	0x3f7009c0	0.9376488
47	0xbe9e2b7e	-0.30892557
48	0xbf105940	-0.56386185
49	0xbee96202	-0.45582587
50	0xbd05aa4b	-0.032633107
51	0x3eb91deb	0.36155638
52	0x3eabb51f	0.33536622
53	0x3ba229ad	0.004948816
54	0x3a3ecc27	0.0007278346
55	0x3ea4bb86	0.3217432
56	0x3e69bb39	0.22825326
57	0xbe7b0072	-0.24511889
58	0xbf1478ac	-0.5799663
59	0x3e954e79	0.29161432
60	0x3d976133	0.07391586
61	0x3f25fee9	0.6484209
62	0xc00e80f7	-2.2266214
63	0xbe903e18	-0.28172374
64	0xbdd4b9dd	-0.10387013
65	0xbe2b2464	-0.167131
66	0xbedd4416	-0.43216008
67	0x3e9dc1fc	0.3081206
68	0xbe018799	-0.12649383
69	0xbf40fac9	-0.7538267
70	0x3f02e818	0.51135397
71	0x3d0d30b8	0.03447029
72	0x3ef63bd9	0.48092535
73	0xbeaed6a1	-0.34148124
74	0x3e24a2ec	0.16077775
75	0xbf781da5	-0.96920234
76	0x3d85b573	0.06528749
77	0x3e68d152	0.227361
78	0xbdb20763	-0.08692815
79	0xbd537d57	-0.051633205
80	0x3eab6397	0.3347442
81	0xbf271d3f	-0.65279
82	0x3f171179	0.59011036
83	0x3e0283b8	0.12745559
84	0x3e238d18	0.15971792
85	0x3e082712	0.13296154
86	0xbf889209	-1.0669566
87	0x3ed8d9cf	0.42353675
88	0x3dc56ed6	0.09640281
89	0x3f2d8d98	0.6779418
90	0x3e59d4d0	0.21272588
91	0xbe99245c	-0.29910553
92	0x3ecfc4f6	0.40579957
93	0xbe52cd9b	-0.20586245
94	0x3d0a9041	0.033828977
95	0xbf1b15d0	-0.6058016
96	0xbe9bdc9b	-0.30441746
97	0xbd03843a	-0.032108523
98	0x3ed05f41	0.40697673
99	0x3f5998d5	0.8499883
100	0x3ee519e5	0.44746318
101	0x3f23cb2c	0.6398189
102	0x3f31bcc7	0.69428676
103	0xbef77891	-0.48334172
104	0x3ead4e8a	0.33848983
105	0xbf88ee41	-1.0697709
106	0xbf556a4f	-0.8336534
107	0xbf29f718	-0.6639266
108	0x3e0d7c03	0.13816838
109	0x3e7bebb5	0.24601634
110	0xbe850369	-0.25979164
111	0xbf209e46	-0.62741506
112	0x3f5b5aed	0.85685617
113	0x3eb069d0	0.3445573
114	0xbee610ff	-0.44934842
115	0xbf70b520	-0.94026375
116	0xbf0d28ff	-0.5514068
117	0xbe7d5778	-0.24740398
118	0x3f761875	0.9613107
119	0xbf093268	-0.5359254
120	0x3e20eef0	0.15716147
121	0x3ed784de	0.42093557
122	0xbeae5f93	-0.34057292
123	0x3e605784	0.21908385
124	0xbe3a8791	-0.18215777
125	0x3f523fd7	0.8212866
126	0xbe4695b1	-0.1939304
127	0xbf43f803	-0.7655031
128	0xbe9263d9	-0.28591803
129	0x3e84189e	0.2580003
130	0xbeb337f9	-0.3500364
131	0xbd2584cd	-0.04040985
132	0xbcd56fa7	-0.026054217
133	0x3f7c73b6	0.9861406
134	0xbefb1f3c	-0.49047267
135	0x3c003bca	0.007826755
136	0xbe52b143	-0.20575432
137	0xbf88648f	-1.0655688
138	0xbfba7dce	-1.4569643
139	0xbf27fa29	-0.6561609
140	0x3e0a0d9d	0.13481756
141	0xbeeb3746	-0.45940608
142	0x3ef5912a	0.47962314
143	0x3f0b5b22	0.5443593
144	0x3fd17325	1.6363264
145	0x3f293430	0.66095257
146	0x3fa14275	1.2598406
147	0xbd4114b2	-0.047138877
148	0x398a8168	0.00026417826
149	0xbedf3398	-0.4359405
150	0x3fa01dd5	1.2509104
151	0xbfb4d7a6	-1.4128311
152	0x3f2e929f	0.68192476
153	0xbeac6263	-0.33668813
154	0x3f6c1f2f	0.9223508
155	0x3ecd3228	0.4007733
156	0xbfe3e414	-1.7803979
157	0x3f49e00f	0.7885751
158	0x3fb3cfd0	1.4047794
159	0x3f2e1078	0.6799388
160	0xbe8a3cf4	-0.2699963
161	0x3fb71a1d	1.4304844
162	0x3e11a251	0.14222075
163	0x3ebd6ac6	0.36995524
164	0xbf24391c	-0.6414964
165	0x3ec3088d	0.3809246
166	0xbf47cce4	-0.78047013
167	0x3f5c5e33	0.86081237
168	0xbeec5c39	-0.4616411
169	0x3fd4ef14	1.6635461
170	0xbf01c7f4	-0.5069573
171	0x3dade688	0.08491236
172	0xbfa50dfb	-1.2894892
173	0xbf719bb2	-0.943782
174	0x3fb9d1e6	1.4517181
175	0xbf1edaa6	-0.6205238
176	0xbf085293	-0.53251
177	0xbf3bcd75	-0.7336038
178	0xbfb93332	-1.4468749
179	0xbe370f84	-0.17877012
180	0xbea45361	-0.32094863
181	0xbf6ba97a	-0.92055476
182	0x3d81cedd	0.06338284
183	0x3f3fb39f	0.74883455
184	0x3fc5935b	1.5435594
185	0xbe6abe8c	-0.2292425
186	0x3d6fabc9	0.058513436
187	0x3f1abdeb	0.6044604
188	0xbf490a66	-0.7853149
189	0x3d01c45b	0.0316814
190	0xc014073f	-2.3129423
191	0xbe4a44bc	-0.19752783
192	0x3f49da1d	0.7884844
193	0x3f06a20f	0.5259103
194	0x3f6ddf37	0.92918724
195	0xbeb59453	-0.35464725
196	0x3ca2cf8d	0.019874359
197	0xbeb83680	-0.3597908
198	0xbf0891a4	-0.5334723
199	0x3ef95a0d	0.48701516
200	0xbdb5cdd4	-0.08877149
201	0xbd430c92	-0.04761941
202	0xbe6c24de	-0.23060939
203	0xbe59ce59	-0.21270122
204	0x3e7d6406	0.24745187
205	0xbf149221	-0.58035475
206	0x3fea9f7e	1.8329923
207	0x3f98f428	1.194951
208	0x3f6bf0bd	0.9216421
209	0xbe94a66f	-0.2903323
210	0x3e107ebc	0.14110845
211	0x3dc40fa0	0.09573293
212	0xbdfca4cc	-0.1233612
213	0x3e8875f9	0.26652506
214	0x3f704aa3	0.93863887
215	0x3e8fa6dd	0.28056994
216	0x3f1beaf7	0.609054
217	0x3ff04c03	1.8773197
218	0x3cae6493	0.021288192
219	0x3e358479	0.17726316
220	0x3f0ab198	0.54177237
221	0xbfedfc64	-1.8592649
222	0xbec6c6bd	-0.388235
223	0xbf4fd39e	-0.8118228
224	0xbfae5f74	-1.362288
225	0xbf023f27	-0.5087761
226	0x3f3b01c8	0.7304959
227	0x3f77cfd9	0.96801525
228	0x3e34066e	0.17580578
229	0x3f6ebffb	0.9326169
230	0x3dc50d06	0.09621625
231	0x3ec7e224	0.3903972
232	0xbe058b24	-0.13041359
233	0x3f746209	0.9546209
234	0x3f908658	1.1290998
235	0xbf474d50	-0.77852345
236	0x3f9dbfce	1.2324159
237	0x3d3f2b2b	0.046672028
238	0xbe499131	-0.19684292
239	0xbe8ca41d	-0.27468958
240	0x3f11726f	0.56815237
241	0x3f63608c	0.88819194
242	0xbe76c2c2	-0.24097732
243	0xbe1e5aea	-0.15464368
244	0x3f4e04eb	0.80476254
245	0x3e03779b	0.12838595
246	0x3ed8f441	0.4237385
247	0x3ff35263	1.9009517
248	0x3f236496	0.63825357
249	0x3fc3564d	1.5260712
250	0xbecda695	-0.40166155
251	0x3f4f6dc9	0.81026894
252	0x3f1015fc	0.56283545
253	0x3f24c79c	0.6436708
254	0xbe557565	-0.20845564
255	0xbf54895c	-0.83022094

network_body._body_endoder.seq_layers.2.bias f4 [128]
0	0xbfddd302	-1.733002
1	0xbf964f56	-1.1742961
2	0xc00685c2	-2.101914
3	0xbf0da44b	-0.55328816
4	0xbf6de86d	-0.9293278
5	0x3ea56abf	0.32308003
6	0xbf57800c	-0.8417976
7	0xbfea71e3	-1.8316005
8	0xbf5dbab2	-0.86613
9	0xbf86a78d	-1.0519882
10	0xbfba07f4	-1.4533677
11	0xbf2ec595	-0.68270236
12	0xbfb5ac94	-1.4193292
13	0xbf91fc5f	-1.1405143
14	0xbfc4814a	-1.5351956
15	0xc0205ee5	-2.505792
16	0xbf790411	-0.9727183
17	0xbf88d86a	-1.0691044
18	0xbfb2b460	-1.3961296
19	0xbfe77888	-1.8083658
20	0xbf7b2a61	-0.9811154
21	0xc00d9638	-2.2122936
22	0xbfe27079	-1.7690574
23	0xbf04447f	-0.51667017
24	0xbfd3b2f5	-1.6538988
25	0xbff4da32	-1.9129088
26	0xbfdae23e	-1.7100294
27	0xbfad307d	-1.3530422
28	0xc007bbc5	-2.1208355
29	0xc0328521	-2.7893755
30	0xbf2cf584	-0.6756213
31	0xbfb72edf	-1.4311179
32	0xbfb4007e	-1.406265
33	0xc017e319	-2.373236
34	0xbe6c9b46	-0.23106107
35	0xbfc5727a	-1.542556
36	0xbfefff8e	-1.8749864
37	0xbf49f97c	-0.7889631
38	0xbf781705	-0.96910125
39	0xbfa06221	-1.2529947
40	0xbfa87a41	-1.3162309
41	0xbf66e1ca	-0.90188277
42	0xc033bd73	-2.808438
43	0xbf8f4033	-1.1191467
44	0xbea74a98	-0.32674098
45	0xbf18e35e	-0.59721935
46	0xbfabe457	-1.3429059
47	0xbfa20359	-1.2657272
48	0xc01f82c6	-2.4923568
49	0xbfa29bc3	-1.2703785
50	0xbf5d4885	-0.8643878
51	0xc010caeb	-2.2623851
52	0xbf568a30	-0.8380461
53	0xbf707e83	-0.9394304
54	0xbff9d2ef	-1.9517497
55	0xbf731b77	-0.94963783
56	0xbf2b9145	-0.6701854
57	0xbf7d5914	-0.9896405
58	0xbfb0eba6	-1.3821914
59	0xbf2fe98e	-0.6871575
60	0xbfdca6c7	-1.7238396
61	0xbfc2ec3c	-1.5228343
62	0xbfa9c538	-1.3263311
63	0xbfd3c0cd	-1.6543213
64	0xbffcc42e	-1.9747369
65	0xc015a0b6	-2.337934
66	0xbf184729	-0.5948358
67	0xbfc2b9b6	-1.5212924
68	0xbf48fb3b	-0.7850835
69	0xbfc8592f	-1.5652217
70	0xbf315479	-0.6926952
71	0xbfb80ad3	-1.4378303
72	0xbf95cb22	-1.1702616
73	0xbfde560d	-1.7370011
74	0xbf797703	-0.9744722
75	0xbf8a2c08	-1.0794687
76	0xbee1f520	-0.44132328
77	0xbedaf9f5	-0.42768827
78	0xc00463ee	-2.0685992
79	0xbfb9b5d1	-1.4508611
80	0xbfdbac65	-1.7161986
81	0xbfe8d1f2	-1.818907
82	0xbfb01020	-1.3754921
83	0xbfdde750	-1.7336216
84	0xc01fb109	-2.4951804
85	0xbf93f602	-1.1559451
86	0xbf46936d	-0.77568704
87	0xbfbeb0f2	-1.489775
88	0xbefbe890	-0.4920087
89	0xbfb624a5	-1.4229933
90	0xc0456608	-3.0843525
91	0xc021e2ab	-2.5294597
92	0xbf2c64c3	-0.6734125
93	0xc00eb6e2	-2.2299123
94	0xbee7c85c	-0.4527005
95	0xbf371ba7	-0.7152657
96	0xbf484ece	-0.78245246
97	0xc08c68f4	-4.3878117
98	0xc0240453	-2.562764
99	0xbf86ccc4	-1.053124
100	0xbf9f190e	-1.2429521
101	0xc0129288	-2.2901936
102	0xbffd8cc3	-1.9808582
103	0xbf679a92	-0.9047023
104	0xbfa6e938	-1.3039923
105	0xbf99bb2c	-1.2010245
106	0xbfc33a34	-1.5252137
107	0xbffc4844	-1.9709554
108	0xbf9e0083	-1.2343906
109	0xbfb51539	-1.4147102
110	0xbfac659d	-1.346851
111	0xc0399f2d	-2.9003403
112	0xc00441c2	-2.0665135
113	0xbf858d8f	-1.0433825
114	0xc00be9de	-2.1861491
115	0xbfda8c4a	-1.7074063
116	0xbfcb4e7e	-1.5883329
117	0xbf9eac7a	-1.2396386
118	0xbf31cec7	-0.6945614
119	0xbf8004f0	-1.0001507
120	0xbf76ce34	-0.9640839
121	0xbec0f93c	-0.3769015
122	0xbf9133cc	-1.1343932
123	0xc01d9a8e	-2.4625583
124	0xbf32a053	-0.69775885
125	0xc01cebfa	-2.4519029
126	0xbf188064	-0.5957091
127	0xbf9b21ba	-1.2119668

action_model._continuous_distribution.log_sigma f4 [1, 2]
0	0xbfcb7e07	-1.5897835
1	0xbfae43a9	-1.3614398

action_model._continuous_distribution.mu.weight f4 [2, 128]
0	0x3ddf80f5	0.109132685
1	0x3e75d870	0.24008346
2	0xbf1eeb6f	-0.62077993
3	0xbd89794e	-0.0671259
4	0xbeecd437	-0.46255657
5	0x3cdd3ebc	0.027007453
6	0xbe4441f1	-0.1916578
7	0x3fa733d8	1.3062696
8	0xbef15bcb	-0.47140345
9	0xbe5be0af	-0.21472429
10	0x3db1adaa	0.08675702
11	0x3daf0341	0.085455425
12	0xbe99a308	-0.30007195
13	0xbe08265b	-0.13295881
14	0xbcb42f12	-0.021995101
15	0x3eb597ab	0.35467276
16	0xbe17c599	-0.14821471
17	0x3eafe16d	0.34351674
18	0xbc0a6071	-0.008445845
19	0xbcca7837	-0.024715526
20	0x3de7bc95	0.11315266
21	0x3ee44497	0.4458358
22	0x3b5a640d	0.0033323795
23	0xbf153bdc	-0.58294463
24	0x3f18a9cf	0.5963411
25	0x3f0c0d2e	0.5470761
26	0xbf260f3c	-0.64866996
27	0x3ea9e6b6	0.3318383
28	0x3fd1a871	1.6379529
29	0x3d93488d	0.07191572
30	0x3d929a94	0.0715839
31	0x3dcd5e82	0.100277916
32	0xbf3ed78b	-0.7454764
33	0x3e96152b	0.29313025
34	0x3eca7359	0.39541128
35	0x3f349c4e	0.70551
36	0xbd427a59	-0.04747996
37	0x3e7b5755	0.24545033
38	0xbe5fde13	-0.21862058
39	0xbeabeb3f	-0.33577916
40	0x3d5ba34a	0.05362252
41	0x3e8e51fb	0.2779692
42	0x3f2c2d3c	0.6725652
43	0xbd8934f9	-0.06699557
44	0x3e583d7d	0.21117206
45	0x3df86f36	0.12130587
46	0x3e848f6a	0.25890666
47	0xbdcc1260	-0.09964442
48	0x3f14bde3	0.58102244
49	0xbd2c4b38	-0.04206392
50	0x3c15dc8b	0.00914682
51	0xbe5f7665	-0.21822508
52	0x3e27dc0e	0.16392538
53	0x3d37eea9	0.04490534
54	0x3e82f50a	0.25577575
55	0xbe8ab9cc	-0.27094877
56	0xbea3200e	-0.31860393
57	0x3e4299fd	0.19004054
58	0x3ed66513	0.41873989
59	0xbc764386	-0.015030747
60	0x3e8fc9f7	0.28083774
61	0x3e858aae	0.26082367
62	0x3db0df81	0.0863638
63	0x3f6f8348	0.93559694
64	0x3e46f5eb	0.19429748
65	0x3e206eb1	0.15667225
66	0x3db1e1e0	0.0868566
67	0x3dfe97ca	0.12431295
68	0xbe29fc18	-0.16600072
69	0x3d84ad62	0.06478383
70	0x3dafb18e	0.08578788
71	0x3dc697db	0.09696933
72	0x3f1c4666	0.6104492
73	0x3f61957c	0.8811872
74	0x3f20a413	0.6275036
75	0x3e768821	0.24075367
76	0x3eff1844	0.498232
77	0xbf0ae7a1	-0.5425969
78	0xbe24341d	-0.16035505
79	0x3d75a1a9	0.059968624
80	0xbe6e15e3	-0.23250537
81	0xbd649522	-0.055806287
82	0xbd39b067	-0.045334246
83	0x3efb8449	0.49124363
84	0x3dde92b4	0.10867825
85	0x3e7d5e86	0.24743089
86	0xbe7dacc3	-0.24772935
87	0xbec368a7	-0.3816578
88	0x3e1b5124	0.15167671
89	0x3f569d8e	0.8383416
90	0x3e7958ed	0.24350329
91	0x3ed776ed	0.4208292
92	0x3ede6625	0.43437305
93	0x3f767a80	0.9628067
94	0xbe8c4603	-0.27397165
95	0x3e364ffa	0.17803946
96	0x3ea67681	0.32512286
97	0x3dd1640a	0.10224159
98	0x3dec58ff	0.11540412
99	0xbe53bdc6	-0.20677862
100	0xbd492548	-0.04910782
101	0xbe81e49c	-0.25369728
102	0x3de6dda4	0.11272743
103	0xbe37d8c2	-0.1795378
104	0xbe5cf74d	-0.21578713
105	0x3e24f93b	0.16110699
106	0x3e9fa2df	0.31178948
107	0x3db7e349	0.08978898
108	0x3cc17d89	0.02361943
109	0xbe95393b	-0.29145226
110	0xbabf1458	-0.0014578206
111	0xbd0f110d	-0.03492837
112	0xbe25dcce	-0.16197512
113	0x3f6b4d5d	0.9191492
114	0xbe8c24fb	-0.27371964
115	0xbe781f92	-0.24230793
116	0x3e315c96	0.17320475
117	0xbdaa844f	-0.08326017
118	0xbce8774c	-0.028377198
119	0x3ed4dad1	0.41573194
120	0x3f0f9cdb	0.5609872
121	0x3d040f5b	0.032241207
122	0x3d98b687	0.07456689
123	0x3d18abb7	0.037273135
124	0x3f04fc36	0.51947343
125	0x3f157950	0.58388233
126	0x3d1c83f5	0.03821178
127	0x3e7641f1	0.24048592
128	0x3e886f1f	0.2664728
129	0xbf73542f	-0.9505033
130	0xbedcea83	-0.43147668
131	0x3e3ce21e	0.18445632
132	0xbe64339e	-0.22285315
133	0xbdbd5e95	-0.09246556
134	0xbe7f9a9a	-0.2496132
135	0xbf1bd054	-0.6086476
136	0xbea1a84f	-0.31573722
137	0x3db36adc	0.08760616
138	0x3ef60aa2	0.48054987
139	0xbf10266b	-0.5630862
140	0xbe0cbcde	-0.13743922
141	0x3dfdfbf2	0.124015704
142	0xbd51d6da	-0.05123029
143	0xbf12130d	-0.5706032
144	0xbcf79837	-0.030223949
145	0xbe189140	-0.14899158
146	0xbe39d369	-0.18147053
147	0x3e1cefab	0.15325801
148	0xbda11cd4	-0.07866827
149	0xbea44181	-0.32081226
150	0xbe1d75c2	-0.15376952
151	0x3e9df89b	0.30853733
152	0xbe4c6e96	-0.1996406
153	0xbf3d6bf6	-0.7399286
154	0xbe821b30	-0.25411367
155	0x3d097000	0.033554077
156	0xbfb9c5d1	-1.4513494
157	0x3d8ac029	0.06774933
158	0xbe793a82	-0.24338725
159	0x3fb306ec	1.3986487
160	0xbe076fb6	-0.13226208
161	0x3de3a785	0.11115936
162	0xbec7399c	-0.3891114
163	0xbf12e3da	-0.57378924
164	0x3ecbd5c6	0.39811534
165	0xbea6d70f	-0.32585952
166	0xbeb777ec	-0.3583368
167	0xbe9f2127	-0.3107998
168	0xbec776e4	-0.38957894
169	0xbe41dc4f	-0.18931697
170	0xbe24d265	-0.16095884
171	0xbbd769d7	-0.0065738964
172	0xbe983b0e	-0.29732555
173	0xbea449f4	-0.32087672
174	0xbe207e67	-0.15673219
175	0x3d43dbd1	0.047817055
176	0xbe947028	-0.28991818
177	0xbe6a1667	-0.22860108
178	0xbe5c6a33	-0.21524887
179	0xbd7b707a	-0.061386563
180	0xbdc8ded0	-0.09808123
181	0xbdbf000d	-0.093261816
182	0x3f2625c3	0.6490137
183	0xbebdb658	-0.3705318
184	0xbf21cf44	-0.6320689
185	0x3e208711	0.15676524
186	0xbe5b5f40	-0.21423054
187	0xbdf9dbb1	-0.12200106
188	0xbf0d1c0b	-0.55120915
189	0xbe754773	-0.23953037
190	0x3e52d2fe	0.205883
191	0xbf33c287	-0.702187
192	0xbe6c22c1	-0.23060133
193	0xbe67f652	-0.22652557
194	0xbd6c162a	-0.057638325
195	0x3f55d8e1	0.83534056
196	0xbdedddb4	-0.11614552
197	0xbe732a3b	-0.23746578
198	0xbececdef	-0.4039149
199	0x3e6c2d6e	0.23064205
200	0x3e8fe9e4	0.28108132
201	0x3d993e40	0.07482576
202	0xbf1bf6b7	-0.6092333
203	0xbedf82b6	-0.43654412
204	0xbe3360df	-0.17517422
205	0xbe89a9b2	-0.2688728
206	0xbc67e96e	-0.014154775
207	0xbe59e7f7	-0.21279894
208	0x3eabcdfd	0.33555594
209	0xbeda005e	-0.42578405
210	0x3ed3c59d	0.41361704
211	0x3d0eba71	0.034845773
212	0xbe49eab1	-0.19718434
213	0x3f328c6f	0.69745535
214	0xbeee4657	-0.4653804
215	0xbf1d8259	-0.6152702
216	0xbe64853e	-0.22316453
217	0x3e3d5ce8	0.18492472
218	0xbf134406	-0.5752567
219	0x3d2b817b	0.04187153
220	0xbe544be6	-0.20732078
221	0x3cc2cfab	0.023780664
222	0xbe1e3229	-0.15448822
223	0xbefba7d7	-0.4915149
224	0xbf1100f8	-0.56642103
225	0xbd5f10bb	-0.054459315
226	0xbe70644f	-0.23475765
227	0xbe74c3c0	-0.23902798
228	0xbe0cbbe8	-0.13743556
229	0xbf5192b9	-0.81864506
230	0x3b7882be	0.0037919725
231	0xbec269e5	-0.37971416
232	0xbe9179b0	-0.28413153
233	0xbdfd2aa9	-0.123616524
234	0xbdd53416	-0.10410325
235	0x3e1577e1	0.14596511
236	0xbf575d4e	-0.84126747
237	0xbd9addc0	-0.07561827
238	0xbd2c9896	-0.042137705
239	0xbec91840	-0.39276314
240	0xbe572f9a	-0.21014252
241	0xbe93457b	-0.28763947
242	0xbe238a72	-0.15970781
243	0xbf1475eb	-0.5799243
244	0xbea61782	-0.3243981
245	0xbecb5e3f	-0.39720342
246	0x3d567fd3	0.052367996
247	0x3ecdecac	0.4021963
248	0xbed8f517	-0.4237449
249	0x3dd9583b	0.10612532
250	0xbe6e5433	-0.23274307
251	0x3f3c305a	0.7351128
252	0xbef25f2c	-0.47338235
253	0xbeff8c0e	-0.4991154
254	0xbe1068e5	-0.14102514
255	0xbe940e0d	-0.2891697

action_model._continuous_distribution.mu.bias f4 [2]
0	0xbe991720	-0.29900455
1	0xbec32eef	-0.38121745

action_model._discrete_distribution.branches.0.weight f4 [3, 128]
0	0xbfba0a1d	-1.4534336
1	0xbe8e813b	-0.2783297
2	0xbf01d295	-0.5071195
3	0x3f16b5cc	0.5887115
4	0xbfbaad56	-1.4584148
5	0xbf59b48f	-0.85041136
6	0x3fbabdb8	1.4589148
7	0x4053508b	3.301791
8	0xc00b8c75	-2.1804478
9	0x3e98bacd	0.29830018
10	0x4005adc9	2.088732
11	0x3d9442f3	0.07239332
12	0xbf41b79a	-0.7567078
13	0xbf864fd4	-1.0493112
14	0xbe9f9b46	-0.31173152
15	0xbed04e08	-0.40684533
16	0x3f429991	0.76015574
17	0x3f5713ce	0.84014595
18	0xbf7dba8c	-0.9911277
19	0x3f3c4cb7	0.7355456
20	0xbf86164f	-1.0475558
21	0x3eadb01a	0.33923417
22	0xbfaa9ef7	-1.3329762
23	0x3f520931	0.82045275
24	0xbdd37c01	-0.10326386
25	0xbffb9b31	-1.9656736
26	0x3e2054bc	0.15657324
27	0xbdd590b6	-0.10427992
28	0x4045587c	3.0835257
29	0xbeb0b4ce	-0.34512943
30	0x3e9b1f7a	0.30297452
31	0xc001af13	-2.0263107
32	0x3f74b097	0.95581955
33	0xbf6f89df	-0.9356975
34	0x3f78423b	0.9697606
35	0xc01068bc	-2.2563925
36	0xc03cb6b7	-2.948652
37	0xbf042f78	-0.5163493
38	0xc073c666	-3.8089843
39	0xbf36c6a2	-0.7139684
40	0x3fb27449	1.3941737
41	0xbed63c29	-0.41842774
42	0x3f098c66	0.53729856
43	0xbfd14d7c	-1.6351771
44	0xbc8d3826	-0.017238688
45	0xbe035730	-0.12826228
46	0x4072a342	3.7912145
47	0xbf3b9d2d	-0.73286706
48	0xbf7ff696	-0.99985635
49	0xbfadc9e1	-1.3577234
50	0xc04f0f61	-3.2353137
51	0xbe290f11	-0.16509654
52	0xbeafffe2	-0.3437491
53	0xbfe119f9	-1.7586051
54	0xbff222a1	-1.8916818
55	0x3f7528d8	0.9576545
56	0xbf7611c4	-0.9612086
57	0x3cf5d43f	0.030008433
58	0xbfab3a34	-1.3377137
59	0xbee0dcd0	-0.43918467
60	0x3f5c8d24	0.86152864
61	0x3e599faa	0.21252313
62	0xbf4ca0ae	-0.7993268
63	0x401af478	2.4211712
64	0xc04d0f2b	-3.2040508
65	0x3e6206df	0.22072934
66	0x40068152	2.101643
67	0xc05ec2a5	-3.4806302
68	0x3f48fddd	0.78512365
69	0x3f0a9ccf	0.5414552
70	0x3f4a1551	0.78938776
71	0xbe6d1531	-0.23152615
72	0xbf44ed55	-0.7692464
73	0xbe4a3a9e	-0.19748923
74	0x3f106777	0.56407875
75	0xbb243a2b	-0.0025059085
76	0x3e0bfca9	0.13670601
77	0xbdab67e0	-0.08369422
78	0xc01d17d1	-2.4545786
79	0xbfc9249b	-1.5714296
80	0x3f2a0efd	0.6642912
81	0xbf2c51b5	-0.67312175
82	0xbf426365	-0.75932914
83	0xbea19358	-0.31557727
84	0xbff4b09b	-1.9116396
85	0xbf2485a0	-0.64266396
86	0xc0317884	-2.7729807
87	0x3f79ff0b	0.9765479
88	0x3ebecee4	0.3726722
89	0x4043329e	3.0499644
90	0xbf718752	-0.9434711
91	0x3de43cc3	0.11144402
92	0x3e963ee8	0.2934487
93	0xbf05e1b6	-0.5229753
94	0xbfb0e08c	-1.3818526
95	0x3e6e849b	0.23292772
96	0x3dd147a5	0.10218743
97	0x3f60ff26	0.87889326
98	0x3ee128b2	0.4397636
99	0xbf789c93	-0.97113913
100	0xbf86e716	-1.0539272
101	0xbf21f30c	-0.63261485
102	0xbe9cfcc0	-0.30661583
103	0xbff6b9ce	-1.9275453
104	0xbfbeea9a	-1.4915345
105	0xbe9ddb3f	-0.30831334
106	0xc01287f9	-2.289549
107	0x3e09dcb6	0.13463101
108	0x3d6705c3	0.05640198
109	0x3d99fa2b	0.07518419
110	0xc0380487	-2.8752763
111	0x3cea9099	0.028633403
112	0xbf091238	-0.53543425
113	0xbe9546b2	-0.291555
114	0xc059b705	-3.4017956
115	0x3f2ca68b	0.67441624
116	0xc072328a	-3.7843347
117	0xc008274a	-2.127398
118	0xbf846f35	-1.0346438
119	0xbf8ab66f	-1.0836924
120	0x3e485e58	0.1956724
121	0xc0036c1b	-2.0534732
122	0xbf69bd98	-0.9130492
123	0xbfe20c09	-1.7659923
124	0x3daf933f	0.08573007
125	0x3e9d6d13	0.3074728
126	0xc05ebfd2	-3.4804578
127	0x3ebd588b	0.36981615
128	0xbf159212	-0.5842601
129	0xbf7acd26	-0.9796928
130	0xbeaabf2b	-0.33348975
131	0x3ee6af02	0.45055395
132	0x3db88a66	0.090107724
133	0xbf7542cc	-0.9580505
134	0x3f961960	1.1726494
135	0xbf342316	-0.70366037
136	0x3f04bc88	0.51850176
137	0x3f1cf1cc	0.6130645
138	0xbf662315	-0.8989728
139	0x3fae4f58	1.3617964
140	0xbf81e5cd	-1.0148255
141	0x3f51b7f7	0.81921333
142	0x3dba2b58	0.090902984
143	0x3f77dcb0	0.9682112
144	0x3f791dc3	0.9731104
145	0xbd1cab0c	-0.03824906
146	0x3e93b14a	0.28846198
147	0xbe9f5dd7	-0.31126282
148	0xbfeed0e9	-1.8657504
149	0x3e225dbb	0.15856068
150	0x3e4c17c5	0.19930942
151	0x3f464b40	0.7745857
152	0x3d80cbd0	0.06288874
153	0xc033214e	-2.7989078
154	0xbf669c1e	-0.90081966
155	0xbf9640fb	-1.173858
156	0xbe579850	-0.21054196
157	0xbedcaa32	-0.430986
158	0x3ff951f2	1.9478133
159	0xbfdcf6d6	-1.7262828
160	0x3f5e0ac1	0.8673516
161	0xbfc658a5	-1.5495802
162	0x3f197bbb	0.5995442
163	0xbf59e468	-0.85114145
164	0xbf50e863	-0.81604594
165	0xbf1ce979	-0.6129375
166	0x3e3f892f	0.18704675
167	0xbea8fabc	-0.33003795
168	0x3f64dcdc	0.89399505
169	0x3eb43008	0.35192895
170	0x3ebfe783	0.37481317
171	0x3eb51ffa	0.3537596
172	0xbe2f09d6	-0.17093596
173	0xbf5047ce	-0.81359565
174	0x3f11ce8c	0.5695579
175	0x3d032afe	0.032023422
176	0x3ca8bae7	0.020596934
177	0x3c4cfd4e	0.012511564
178	0xbfa4dba0	-1.2879524
179	0xc06fa36c	-3.7443495
180	0x3d4cb7e9	0.049980078
181	0x3efd3f87	0.4946253
182	0xc0006223	-2.0059898
183	0x3f864e72	1.049269
184	0xbe5e6f80	-0.21722221
185	0x3f4fe152	0.81203187
186	0xbf1804a9	-0.5938211
187	0xbda9afad	-0.082854606
188	0xbd2d903f	-0.042373892
189	0x3dd05c15	0.10173813
190	0xbea6b067	-0.3255646
191	0x3fa591f4	1.2935166
192	0xbe93ee99	-0.28892973
193	0xbe8145ca	-0.25248557
194	0x3f8933df	1.0718955
195	0x3f99c1f5	1.2012316
196	0x3e1db66e	0.15401623
197	0xbdd84f3d	-0.105619885
198	0x3f5bea05	0.8590396
199	0xbf6df63d	-0.92953855
200	0xbf2b8394	-0.6699765
201	0xbd93b33d	-0.07211921
202	0xbf59d390	-0.85088444
203	0x3ec53e3c	0.38524044
204	0x3eb28fb8	0.34875274
205	0xbd95c442	-0.07312824
206	0xbf76624b	-0.96243733
207	0xbde46c83	-0.111535095
208	0x3e1f4e0e	0.15557119
209	0x3f1d568d	0.6146019
210	0x3e3ab302	0.18232349
211	0xbd53ea77	-0.051737275
212	0x3ecfa92f	0.40558764
213	0xbf0f0789	-0.5587087
214	0x3f823973	1.0173782
215	0x3f7e843e	0.99420536
216	0x3eacf1f4	0.33778346
217	0x3f80ae42	1.0053179
218	0x3ed6c631	0.41948083
219	0xbfb821a6	-1.4385269
220	0x3e8738d9	0.2641056
221	0xbeaaa497	-0.33328697
222	0xbe599ff8	-0.2125243
223	0x3d90eecd	0.07076798
224	0x3f09738a	0.53691924
225	0xbe903530	-0.2816558
226	0xbeba33f3	-0.3636776
227	0xbe32bb8d	-0.17454357
228	0x3e1036f9	0.1408347
229	0xbe299060	-0.16558981
230	0xbf90edae	-1.1322534
231	0xbec1d329	-0.37856415
232	0xbda21ae4	-0.07915285
233	0xbdbe5ac4	-0.09294656
234	0xbf626ac0	-0.8844414
235	0xbe7a22c0	-0.24427319
236	0x3ee2b4df	0.4427862
237	0xbca6032e	-0.020265188
238	0x40f6ad7d	7.708678
239	0xbf134399	-0.5752502
240	0xbea87f3f	-0.3290958
241	0x3b014cbe	0.001972958
242	0xbee5d225	-0.4488689
243	0x3e839e57	0.2570674
244	0x3ee8adbd	0.45445052
245	0xbf5590e0	-0.83424187
246	0xbf9fb258	-1.2476301
247	0xbde4d443	-0.11173298
248	0xbd6e7b5c	-0.058223113
249	0xbe1abc7b	-0.15110962
250	0xbf4fdbc5	-0.81194717
251	0xbfa83faa	-1.3144429
252	0xbf004cbc	-0.5011709
253	0x3e6c1813	0.23056059
254	0xbf53cce9	-0.82734543
255	0xbe8ad977	-0.27119038

action_model._discrete_distribution.branches.0.bias f4 [3]
0	0xbfebdee3	-1.8427395
1	0xbf807ac5	-1.0037466
2	0x402c534f	2.6925848

action_model._discrete_distribution.branches.1.weight f4 [3, 128]
0	0x4009abac	2.151103
1	0xbf85c50d	-1.045076
2	0xbfc0e452	-1.5069678
3	0xc1075c98	-8.460106
4	0xbf67dda5	-0.9057258
5	0xc03b9248	-2.9308033
6	0x3e680f9a	0.22662202
7	0x40c67397	6.20161
8	0x3fd83ed2	1.6894171
9	0xbf859b13	-1.043795
10	0x3f910031	1.1328183
11	0x404fd470	3.2473412
12	0x3f016b8e	0.5055474
13	0xbf4fc4de	-0.8115977
14	0x3f36c654	0.71396375
15	0x3de09421	0.10965753
16	0xbf7e6c93	-0.9938442
17	0xc08941f0	-4.289299
18	0x3df4262d	0.11921344
19	0xbedac8e2	-0.42731386
20	0x3f5a8391	0.85357004
21	0xbf119ba5	-0.5687812
22	0xbebd8aac	-0.3701986
23	0x3f39e27d	0.7261122
24	0xbe0f1385	-0.1397229
25	0x40a2ba0e	5.0852118
26	0x3fc5b3dd	1.5445515
27	0x3fa51c9e	1.2899358
28	0x3f943778	1.1579428
29	0x3ef54067	0.47900698
30	0x3eb792dd	0.35854235
31	0xbf66d1c6	-0.9016384
32	0x3f814b46	1.0101097
33	0x3fa67849	1.3005458
34	0x3f4d648b	0.8023154
35	0x3fd5d0e7	1.6704377
36	0xbe85d045	-0.2613546
37	0xbedf2064	-0.435794
38	0x3f0f5d2d	0.5600155
39	0xbbc5dae8	-0.0060380585
40	0x3f70267e	0.93808734
41	0xbf387196	-0.7204832
42	0xbedf9e4f	-0.43675467
43	0xbe0b779b	-0.13619845
44	0xbef3d57c	-0.47623813
45	0x3ed7d014	0.4215094
46	0x40882c71	4.255425
47	0xbbd54aa2	-0.006509141
48	0x3e9694ee	0.294105
49	0x3db807de	0.089858755
50	0xbf5b68cb	-0.85706776
51	0xbe802445	-0.2502767
52	0x3fffb437	1.9976872
53	0x40218ab2	2.5240903
54	0x3f9d29a2	1.227833
55	0xbe75a4df	-0.23988675
56	0xbf7d78ba	-0.9901234
57	0x405736c0	3.3627167
58	0x3edd6494	0.43240798
59	0x3f2c6d02	0.6735383
60	0xbeb50267	-0.35353395
61	0xbefd4daf	-0.4947333
62	0x4115e5ca	9.368601
63	0x40e0e51d	7.027968
64	0x3e2347a3	0.15945296
65	0xbf20d5b7	-0.628261
66	0x409c1cd8	4.878521
67	0x4031ef91	2.780247
68	0x3f8e6587	1.1124734
69	0x3ee1c05b	0.44092068
70	0x3f3865f9	0.720306
71	0x3f8e1736	1.1100833
72	0x3f4bc9cf	0.7960481
73	0x3eaa9584	0.33317196
74	0xbe935b28	-0.28780484
75	0xbf32e0c9	-0.69874245
76	0x3e9342fb	0.2876204
77	0xbfa1f481	-1.2652742
78	0x3fdc51f6	1.7212512
79	0x40674892	3.6138043
80	0xbda5031a	-0.08057232
81	0x3f97ce88	1.1859903
82	0xbfef597c	-1.8699183
83	0xbef89849	-0.48553684
84	0x3f01f3b7	0.50762504
85	0x3f59ff6e	0.8515538
86	0x400ae5e1	2.1702807
87	0xbf82ea94	-1.0227838
88	0x3f027d4e	0.5097245
89	0x3fda7560	1.706707
90	0x3dcc2fb8	0.09970039
91	0xbeb795a7	-0.35856363
92	0x3e028fe6	0.12750205
93	0x3e3c5e1a	0.18395272
94	0x3f6c4e6c	0.9230716
95	0xbe866812	-0.26251274
96	0x3f8dc567	1.1075867
97	0x3e4b3e77	0.19848047
98	0xbec2a9f8	-0.380203
99	0xbf77edd2	-0.9684726
100	0x3f7b47ad	0.98156244
101	0x3f2bf9f9	0.67178303
102	0x401b368d	2.4252045
103	0xbfdc1365	-1.7193419
104	0x3fdcdc7d	1.7254788
105	0x3e8340eb	0.25635466
106	0x3df7c202	0.12097551
107	0x3f2a6941	0.66566855
108	0x3e5bf886	0.21481523
109	0x3d9582c0	0.07300329
110	0xbff6019f	-1.9219245
111	0xbd4fd023	-0.050735604
112	0x3dc18c50	0.094505906
113	0xbf48338e	-0.78203666
114	0xbf30d3d0	-0.690732
115	0xbf630cc1	-0.88691336
116	0xbe7458ff	-0.23862074
117	0x3dca2d88	0.09871966
118	0xbfa9a6f7	-1.3254079
119	0xbf2c398c	-0.6727531
120	0xbe65aef0	-0.22430015
121	0x4074d265	3.8253415
122	0x3fc31be8	1.5242891
123	0xbdbdf15e	-0.09274553
124	0xbb77fb6b	-0.0037839066
125	0xbd808636	-0.06275599
126	0x40114b32	2.2702146
127	0x3e463351	0.19355513
128	0x3f9e216d	1.2353951
129	0xbff40672	-1.9064467
130	0xbd4ea3c7	-0.05044916
131	0x3f3fc779	0.74913746
132	0x3f373709	0.7156835
133	0x408ab334	4.3343754
134	0x3e8dcb3f	0.27694127
135	0x409f9afd	4.9876695
136	0x3f27b994	0.65517545
137	0x3d8b7bc4	0.06810716
138	0x3d10e774	0.03537698
139	0xc07bb10d	-3.9326813
140	0xbfdc8047	-1.7226647
141	0xbee0e9de	-0.43928427
142	0x3e096516	0.13417467
143	0xbe862e03	-0.2620698
144	0xbff6003a	-1.9218819
145	0x3f64fbf3	0.89446944
146	0x3e824a60	0.2544737
147	0x3cfc68bf	0.030811666
148	0xc0067894	-2.1011095
149	0x3f3381e0	0.7012005
150	0x3f1ebe0f	0.62008756
151	0x3f430228	0.76175165
152	0x3eae281d	0.3401498
153	0x40002f2e	2.0028796
154	0xbf6c89f6	-0.9239801
155	0x3ed1d681	0.40983966
156	0x4002fc85	2.0466626
157	0xbee6c3ec	-0.45071352
158	0xbecb89a3	-0.39753446
159	0x3eb50346	0.3535406
160	0x3f923c16	1.1424587
161	0xbf56fcde	-0.83979595
162	0x3f5bfd7a	0.8593365
163	0xbf9a93cf	-1.2076358
164	0xbf3d2d9e	-0.7389773
165	0x3f53f4ff	0.8279571
166	0xbfd26592	-1.6437247
167	0xbf8e2941	-1.110634
168	0xbf6dfb1c	-0.9296129
169	0xbeea2c72	-0.45737034
170	0xbedd3785	-0.4320642
171	0xbd0573bb	-0.032581072
172	0x3cef87dc	0.029239587
173	0x3f5e1ce7	0.8676285
174	0x3e87cb01	0.26522067
175	0x3d58fedc	0.052977428
176	0x3e4b4b38	0.19852912
177	0xbf3c55da	-0.735685
178	0xbf9e7e95	-1.238238
179	0xbf91594f	-1.135538
180	0xbf0a691a	-0.5406662
181	0xbe6f7260	-0.23383474
182	0xbf64f2c7	-0.8943295
183	0xbe5d2c5d	-0.21598954
184	0xbfab6a5d	-1.3391834
185	0x4051f578	3.2806072
186	0xbe16aa9f	-0.14713524
187	0x3fa8cfe3	1.3188442
188	0x3e6591a5	0.2241884
189	0x3ef46f4a	0.47741157
190	0x3ccc77e2	0.024959508
191	0x3f6b02bb	0.9180104
192	0xbe051043	-0.12994485
193	0x3f60d869	0.87830216
194	0x3fbbcc7e	1.4671781
195	0xbeecc0ec	-0.46240938
196	0xc0263be4	-2.5974054
197	0xbedd44f6	-0.43216676
198	0x3fe8000b	1.8125013
199	0xbfd7af9e	-1.6850469
200	0x3e3f6899	0.18692245
201	0x3d301c98	0.04299602
202	0xbf2bc1e0	-0.67092705
203	0x3e324fea	0.17413297
204	0x3e92961f	0.28630158
205	0x3d5732bc	0.05253862
206	0xc041e179	-3.0293868
207	0xbfc7ea18	-1.5618315
208	0xbd9e5a31	-0.077320464
209	0xbfce3929	-1.6111194
210	0xbf7711c4	-0.96511483
211	0xbf540f61	-0.82835966
212	0xbfc7b01a	-1.5600617
213	0xbf0c31f1	-0.54763705
214	0xbd1cbecd	-0.0382679
215	0x3ed0b03b	0.40759453
216	0x3ee9cc90	0.4566388
217	0x3f34d0be	0.70631015
218	0x3ed0e0b2	0.4079643
219	0xbf07efab	-0.5310008
220	0xbf266a6d	-0.6500614
221	0xbf292b3d	-0.660816
222	0x3e1c5fd3	0.15270929
223	0xbf113964	-0.56728196
224	0xbf1ab0c2	-0.6042596
225	0x3f56212c	0.83644366
226	0x3e84c121	0.25928596
227	0x3e919cdf	0.28439996
228	0xbf2c1353	-0.67216986
229	0xbfce8340	-1.6133804
230	0x3dfff9ab	0.12498792
231	0x3ef08738	0.46978164
232	0xbf9b1ed2	-1.2118781
233	0xc016e218	-2.3575497
234	0xbff493ba	-1.9107583
235	0x3f1b70d8	0.6071906
236	0x3ed55518	0.41666484
237	0x3eddc019	0.4331062
238	0xc021d2b9	-2.5284865
239	0xbe8c6dec	-0.27427614
240	0x3f28efb0	0.65990734
241	0x3e97d1c8	0.29652238
242	0xbcf9a58b	-0.030474445
243	0x3d311b47	0.043238904
244	0xbfbe1028	-1.484868
245	0xbeee1e7c	-0.46507633
246	0xbd0d9bc5	-0.03457238
247	0xbf0ff1e4	-0.5622847
248	0xbd434cda	-0.047680713
249	0x3f9e59f6	1.2371204
250	0xc004f1be	-2.0772548
251	0xbf5f8084	-0.87305474
252	0x3d95540a	0.0729142
253	0xbd9f1a72	-0.07768716
254	0x3f2f1aef	0.6840047
255	0xbe8791c3	-0.26478395

action_model._discrete_distribution.branches.1.bias f4 [3]
0	0x3f073ce7	0.52827305
1	0xbe16ba05	-0.14719398
2	0x3de891b6	0.11355917

exp_avg f4 [128, 13]
0	0x39bb3a0e	0.00035710674
1	0x39e02a25	0.0004275601
2	0x39b16a85	0.00033839434
3	0xba1c3cd0	-0.00059599895
4	0x00000000	0.0
5	0xb98359bc	-0.00025053124
6	0x3a200551	0.0006104308
7	0x39f634aa	0.00046960014
8	0x39fb55fe	0.0004793852
9	0xba1c3201	-0.0005958379
10	0x3a090ccb	0.00052280416
11	0xb9944294	-0.00028278364
12	0x39a54991	0.00031526064
13	0x396c9b9e	0.00022564686
14	0x3810a9df	3.449048e-05
15	0xb7d8c651	-2.5841555e-05
16	0xb8056da6	-3.181179e-05
17	0x00000000	0.0
18	0xb85eb95a	-5.3101547e-05
19	0x36dc5595	6.566474e-06
20	0xb864aa8e	-5.4518277e-05
21	0xb7f96a14	-2.973251e-05
22	0x37f5c9e3	2.9300287e-05
23	0x38f24bba	0.000115535644
24	0x38a29b27	7.753661e-05
25	0xb72912ce	-1.0077563e-05
26	0xb93d615e	-0.00018060717
27	0xb9889f51	-0.0002605864
28	0xba11284d	-0.00055373163
29	0x39ed590c	0.00045270508
30	0x00000000	0.0
31	0xb9c8a5af	-0.00038270417
32	0xb840badf	-4.5950404e-05
33	0xb888db15	-6.5257926e-05
34	0xb911c8dd	-0.00013903105
35	0xb9113f69	-0.000138519
36	0xb91bc797	-0.00014856305
37	0xb93b5430	-0.00017865072
38	0x392de57a	0.00016584052
39	0x3a71ce65	0.00092241756
40	0xb6645263	-3.4022603e-06
41	0xbb1501da	-0.00227367
42	0x3a99e84b	0.0011742202
43	0x00000000	0.0
44	0xba9488c2	-0.0011332261
45	0xba239bc7	-0.0006241169
46	0xbaa52b7e	-0.0012601463
47	0xba95b0db	-0.0011420505
48	0x3ad64a5c	0.0016349065
49	0x3724ae5f	9.815761e-06
50	0x3a18566a	0.00058112165
51	0xbac64a09	-0.0015128265
52	0x360d7abd	2.108208e-06
53	0x38a25806	7.7411576e-05
54	0x39f29bec	0.00046274008
55	0xb9395008	-0.00017672789
56	0x00000000	0.0
57	0xb98941eb	-0.0002617979
58	0xb9837d9d	-0.00025079856
59	0x38721caa	5.772399e-05
60	0x3987406a	0.000257972
61	0xb7a6772e	-1.984424e-05
62	0xb88d2a5a	-6.7312925e-05
63	0xb722e080	-9.708223e-06
64	0xb973a304	-0.00023235014
65	0xba8b96ea	-0.0010649834
66	0xbaa42d35	-0.001252568
67	0x3a49edf0	0.0007702997
68	0x3a0a63f3	0.0005279176
69	0x00000000	0.0
70	0x3a69bc4d	0.00089163036
71	0xb9dcf57d	-0.00042144573
72	0x3a282807	0.0006414656
73	0x398492e2	0.00025286438
74	0x3895eee1	7.149368e-05
75	0xba43e6a4	-0.0007473028
76	0xb8dcf802	-0.000105366125
77	0x3a74b1bd	0.00093343464
78	0x399e08b4	0.00030142593
79	0x38f9f5f2	0.00011919056
80	0x39923bf8	0.0002789197
81	0xb9b878f1	-0.00035185323
82	0x00000000	0.0
83	0x3962b26d	0.00021619508
84	0x390f2529	0.00013651386
85	0x395a34b0	0.00020809728
86	0x393f9192	0.00018269409
87	0xb90e6b58	-0.00013582164
88	0x3965dfc7	0.00021922505
89	0xb961172d	-0.00021466306
90	0x38e1e170	0.00010770827
91	0x3b29bcde	0.0025899927
92	0x3af5d271	0.0018754733
93	0x3b0abf73	0.0021171242
94	0xbb77c734	-0.0037807943
95	0x00000000	0.0
96	0x3a9186f3	0.001110284
97	0x3b2f0440	0.0026705414
98	0x3b1872e9	0.0023261851
99	0x3b26b644	0.0025438229
100	0xbb31d002	-0.002713204
101	0x3b18d7d0	0.0023321994
102	0xbad1129a	-0.0015950978
103	0x3b05e0d8	0.0020428207
104	0x3a39ec6b	0.0007092419
105	0x3a2b8809	0.0006543403
106	0xb8306624	-4.2056796e-05
107	0xba117dfd	-0.0005550085
108	0x00000000	0.0
109	0xb9b95ebb	-0.0003535653
110	0x3a2eef29	0.0006673211
111	0x399c5fe9	0.00029826097
112	0x3997719e	0.00028885616
113	0xb92c2609	-0.00016417367
114	0x3a2c8c83	0.0006582217
115	0xb82fcbdb	-4.1913107e-05
116	0x39792c38	0.00023762963
117	0x37f3ee43	2.9078807e-05
118	0xb85ffcd9	-5.3402826e-05
119	0x392f09d2	0.00016692959
120	0xb8bedbe9	-9.1008675e-05
121	0x00000000	0.0
122	0x39661c8f	0.00021945148
123	0x38457cc4	4.7084657e-05
124	0x38d56e5d	0.00010177188
125	0x386618c1	5.4859327e-05
126	0xb87e77e6	-6.0669983e-05
127	0x37f0dd96	2.8713413e-05
128	0xb7f69765	-2.9395984e-05
129	0xb82e45f6	-4.154999e-05
130	0xbbed5cf1	-0.0072437455
131	0xbba4bf96	-0.0050277216
132	0xbc191b60	-0.009344906
133	0x3c4f8294	0.01266541
134	0x00000000	0.0
135	0xbbcedad2	-0.0063127065
136	0xbc0cee1d	-0.0086016925
137	0xbbf4aadb	-0.0074666566
138	0xbbfd6dcb	-0.0077340356
139	0x3c1c3c31	0.009535835
140	0xbbc37c20	-0.0059657246
141	0x3b9e8bb2	0.0048384303
142	0xbbdb032c	-0.0066837277
143	0xb9b463dd	-0.0003440668
144	0xba427d07	-0.0007419143
145	0xba198f06	-0.0005857799
146	0x3a888fa7	0.0010418788
147	0x00000000	0.0
148	0x391c06ad	0.00014879806
149	0xba57f9c5	-0.00082388177
150	0xba24c981	-0.000628613
151	0xba363e7e	-0.0006952061
152	0x3a30cd22	0.00067444344
153	0xba2edf58	-0.0006670854
154	0x39385d6e	0.00017582413
155	0xba00e4ef	-0.0004916926
156	0x3803cc36	3.142302e-05
157	0x38c199c4	9.231598e-05
158	0xb8adafc1	-8.2820196e-05
159	0xb8ad44c1	-8.262089e-05
160	0x00000000	0.0
161	0xb8b84ebd	-8.78847e-05
162	0x39454c70	0.00018815859
163	0x38d70ce8	0.00010254403
164	0x3860eefc	5.3628333e-05
165	0xb94eb70b	-0.0001971388
166	0x391846ec	0.0001452227
167	0xb9110a68	-0.00013832154
168	0x394b90ed	0.00019413578
169	0x3a01e77d	0.0004955454
170	0x3a3a8e2d	0.0007116523
171	0xb9d1e5a3	-0.0004003468
172	0xb9f13157	-0.00046003863
173	0x00000000	0.0
174	0xb9beafb7	-0.00036370542
175	0x3a86522d	0.0010247879
176	0x3a360449	0.00069433876
177	0x39b6b4d7	0.0003484848
178	0xba34dada	-0.00068990665
179	0x3a907fce	0.0011024417
180	0xba33649f	-0.0006843302
181	0x3aabd54f	0.0013109836
182	0x39aa811a	0.00032521115
183	0x39a154b2	0.00030771416
184	0x39c60af4	0.00037773664
185	0xba31ab0e	-0.00067775033
186	0x00000000	0.0
187	0x3a0165b7	0.0004936116
188	0x39ad7540	0.0003308449
189	0x39bbe84b	0.0003584049
190	0x39b8ee5d	0.0003527281
191	0xb8fc0cef	-0.000120187055
192	0x39846ab1	0.00025256493
193	0xb89623eb	-7.1592476e-05
194	0x39963659	0.00028650722
195	0x3a494235	0.0007677407
196	0x3a06370b	0.00051198964
197	0xb9f0c375	-0.00045921994
198	0xb9b9d4cb	-0.00035444493
199	0x00000000	0.0
200	0x3a0020a9	0.0004887679
201	0xb9ed36d4	-0.00045245013
202	0xba335acd	-0.00068418385
203	0xb9c3b0e1	-0.00037325083
204	0x3aaf0dfb	0.0013355607
205	0x380a0a79	3.2911517e-05
206	0x3a103bc3	0.0005502069
207	0xbac3e437	-0.0014945333
208	0x38b70414	8.7268796e-05
209	0x37c383fb	2.330727e-05
210	0xba1641fa	-0.0005731877
211	0x398f4b52	0.00027331203
212	0x00000000	0.0
213	0xb99bcc67	-0.00029716195
214	0xb95e3876	-0.00021192603
215	0xb9b9b511	-0.00035420855
216	0xb9cd18b2	-0.00039119046
217	0x39c491dd	0.0003749271
218	0xb896aad5	-7.184377e-05
219	0x38c80ff3	9.539714e-05
220	0xb9a9ca61	-0.00032384976
221	0x391738e5	0.00014421677
222	0xb931a5f6	-0.0001694186
223	0xb9c6c2bf	-0.000379106
224	0x39781950	0.00023660553
225	0x00000000	0.0
226	0x390274a6	0.00012441221
227	0xb9b9561d	-0.0003535011
228	0xb9ab5823	-0.0003268133
229	0xb9b66f69	-0.00034796752
230	0x39c59bef	0.00037690948
231	0xb9526b49	-0.00020067127
232	0x389b8232	7.415227e-05
233	0xb9b8e2cc	-0.00035264192
234	0x3aca098b	0.0015414221
235	0xb9039863	-0.00012549902
236	0xb91cf685	-0.00014969155
237	0xb97fe602	-0.0002440438
238	0x00000000	0.0
239	0x3a5030e5	0.0007941856
240	0xb961786c	-0.00021502533
241	0xb9b86b8f	-0.00035175352
242	0xb9aaf078	-0.0003260409
243	0x39eb3cfe	0.00044868136
244	0x38963541	7.162477e-05
245	0x39d9e3e3	0.00041559254
246	0xb9b7e91e	-0.00035078166
247	0x39a10a1f	0.00030715854
248	0x3a111505	0.0005534443
249	0x392ebbfc	0.00016663963
250	0xba11ded7	-0.0005564517
251	0x00000000	0.0
252	0xba083fab	-0.00051974755
253	0x3a47a387	0.0007615615
254	0x3a32452d	0.0006800469
255	0x3a15e04f	0.00057173235
