results/FunnelAgent/My Behavior/My Behavior-8499941.onnx (onnx, 81381 bytes, 14 tensors)

77 f4 [13]
0	0x43db1d15	438.2272
1	0x43817095	258.87955
2	0x42ec702b	118.21908
3	0x43d636ba	428.42755
4	0x39b3d475	0.00034299833
5	0x43929ae2	293.21002
6	0x43175c89	151.36147
7	0x439ec657	317.54953
8	0x4399e1ad	307.7631
9	0x42e8b365	116.35038
10	0x42f9721f	124.72289
11	0x430cd73e	140.84079
12	0x43074bf5	135.2967

action_model._continuous_distribution.log_sigma f4 [1, 2]
0	0xbfe9c1ed	-1.8262306
1	0xbfb65a80	-1.4246368

action_model._continuous_distribution.mu.bias f4 [2]
0	0xbe87aef7	-0.26500675
1	0xbec49768	-0.38396764

action_model._continuous_distribution.mu.weight f4 [2, 128]
0	0x3e4900a3	0.19629149
1	0x3e1b3d59	0.15160121
2	0xbf1d35fb	-0.6141049
3	0xbdbd1497	-0.09232443
4	0xbedda631	-0.43290856
5	0x3c994f41	0.018714549
6	0xbe9b0669	-0.30278328
7	0x3fa8bec3	1.3183216
8	0xbef12cc7	-0.47104475
9	0xbe2e2251	-0.17005278
10	0xbd0bd392	-0.034137316
11	0x3ded8992	0.11598505
12	0xbea88ebd	-0.329214
13	0xbde19310	-0.11014378
14	0x39132d50	0.00014035893
15	0x3eccc2b4	0.39992297
16	0xbe1b9538	-0.15193641
17	0x3e99aa5e	0.30012792
18	0x3c6566f3	0.014001596
19	0xbc067ebf	-0.00820893
20	0x3e42d436	0.19026265
21	0x3edcc133	0.4311615
22	0x3cd635bc	0.02614867
23	0xbf1cbe35	-0.6122773
24	0x3f29c1ca	0.66311324
25	0x3f19386a	0.59851706
26	0xbf265021	-0.64966017
27	0x3ea09ea7	0.31371042
28	0x3fd9e2de	1.7022359
29	0x3dbfa497	0.09357565
30	0x3cc6aeb8	0.024253234
31	0x3e175199	0.14777221
32	0xbf3239b7	-0.69619316
33	0x3e928848	0.286196
34	0x3ed8c71b	0.42339405
35	0x3f46168d	0.7737816
36	0xbcf12387	-0.029435886
37	0x3e52a0b7	0.2056912
38	0xbe8abe04	-0.27098095
39	0xbeb64fb7	-0.35607693
40	0x3d52f65b	0.051504474
41	0x3e785911	0.24252726
42	0x3f3461ee	0.7046193
43	0xbd2da73d	-0.04239582
44	0x3e315d7f	0.17320822
45	0x3adc5aed	0.0016811766
46	0x3e4ab31f	0.19794892
47	0xbd820126	-0.06347875
48	0x3f194515	0.59871036
49	0x3d0860f6	0.033295594
50	0x3a799826	0.0009521268
51	0xbe3c9d44	-0.18419367
52	0x3de494f3	0.11161222
53	0x3da7bd69	0.08190424
54	0x3e440891	0.19143893
55	0xbe73810d	-0.23779698
56	0xbec3fb64	-0.38277733
57	0x3e922417	0.2854316
58	0x3ebe7f24	0.37206376
59	0xbd0fe57b	-0.03513096
60	0x3ea3df61	0.32006362
61	0x3e908f8f	0.28234527
62	0x3d386f29	0.045027886
63	0x3f7ef087	0.99585766
64	0x3e809727	0.2511532
65	0x3e41019f	0.18848275
66	0x3dc50654	0.096203476
67	0x3e3c73ec	0.18403596
68	0xbe31f05b	-0.17376845
69	0x3db66ae1	0.08907104
70	0x3db58cf0	0.08864772
71	0x3d05dc0c	0.032680556
72	0x3f219713	0.63121146
73	0x3f5c30cd	0.86011964
74	0x3f229f04	0.6352389
75	0x3e62d34d	0.22150917
76	0x3f040f89	0.51586205
77	0xbef3fc70	-0.47653532
78	0xbe1decaa	-0.15422311
79	0x3dddfe1c	0.10839483
80	0xbea27c1f	-0.31735322
81	0xbddcfa97	-0.10789984
82	0xbc972fb3	-0.018455362
83	0x3ef75ec0	0.48314476
84	0x3e0a278a	0.13491645
85	0x3e806c1c	0.2508248
86	0xbe8abab5	-0.2709557
87	0xbebcc943	-0.368723
88	0x3e1d72d7	0.15375839
89	0x3f4703bd	0.7774008
90	0x3e8786b1	0.2646995
91	0x3ee0d20b	0.4391025
92	0x3ed4ad2c	0.4153837
93	0x3f840fe0	1.0317345
94	0xbe6c16b4	-0.23055536
95	0x3e4d2930	0.20035243
96	0x3ebf461d	0.3735818
97	0x3dcc59cb	0.09978064
98	0x3df4318f	0.11923515
99	0xbe79efa7	-0.24407826
100	0xbd1e4d41	-0.038647894
101	0xbe76ceef	-0.24102376
102	0x3dd40279	0.10352034
103	0xbe2fa4ac	-0.17152661
104	0xbe77beaf	-0.24193834
105	0x3e1e309d	0.15448232
106	0x3eb1b0fd	0.34705344
107	0x3d946a5e	0.072468504
108	0x3d372dda	0.04472146
109	0xbea64a30	-0.32478476
110	0x3cb6bc44	0.022306569
111	0xbdca1007	-0.09866338
112	0xbdcfc99d	-0.101458766
113	0x3f7ea117	0.99464554
114	0xbe4d47ce	-0.20046923
115	0xbe560eb3	-0.20904045
116	0x3e1b470a	0.15163818
117	0xbd99a11c	-0.07501432
118	0xbc8fc686	-0.017550718
119	0x3ee65ad7	0.4499118
120	0x3f147863	0.57996196
121	0xbcf05cfb	-0.029341212
122	0x3db75fb1	0.089537986
123	0xbd8342a3	-0.06409194
124	0x3efcd611	0.4938207
125	0x3f1c513c	0.61061454
126	0x3cc866f1	0.024463149
127	0x3e841812	0.25799614
128	0x3daf7d29	0.08568794
129	0xbf81c811	-1.013918
130	0xbeccabaa	-0.3997472
131	0x3de50eff	0.11184501
132	0xbdbd0412	-0.09229292
133	0xbd9be1b5	-0.076114096
134	0xbe9fb653	-0.3119379
135	0xbf147358	-0.579885
136	0xbe4b93bf	-0.1988058
137	0xbc009d12	-0.0078499485
138	0x3ef3cfcc	0.47619474
139	0xbf09eb87	-0.5387501
140	0xbd846ac3	-0.06465676
141	0x3e404534	0.18776399
142	0xbcb65753	-0.022258436
143	0xbf100dd9	-0.5627113
144	0xbda81583	-0.08207228
145	0xbe71a654	-0.23598605
146	0xbe746225	-0.23865564
147	0x3e082328	0.13294661
148	0xbe27fdf9	-0.16405477
149	0xbea23452	-0.31680542
150	0xbdcdb249	-0.10043771
151	0x3ec4052a	0.3828519
152	0xbe757b20	-0.2397275
153	0xbf385c59	-0.7201591
154	0xbe14ff79	-0.1455058
155	0x3cd17bbb	0.025571695
156	0xbfaea87f	-1.3645171
157	0x3d67509a	0.056473352
158	0xbe8c4276	-0.27394456
159	0x3fa26b3e	1.2688978
160	0xbd89e3f5	-0.067329325
161	0x3de372d8	0.11105889
162	0xbf000222	-0.50003254
163	0xbf244eeb	-0.6418292
164	0x3edea802	0.43487555
165	0xbecead4f	-0.403666
166	0xbedb13d8	-0.42788577
167	0xbe48ac4e	-0.19596979
168	0xbee64bf7	-0.44979832
169	0xbea1632a	-0.3152097
170	0xbe49ee04	-0.19719702
171	0x3cdb9091	0.026802333
172	0xbec9ecdc	-0.39438522
173	0xbe72fc34	-0.2372902
174	0xbe59b60e	-0.21260855
175	0x3c3f10a3	0.011661681
176	0xbe91c99e	-0.28474134
177	0xbdf411fa	-0.11917491
178	0xbe344e72	-0.1760805
179	0xbd501546	-0.050801538
180	0xbd0b8198	-0.034059137
181	0xbbc2f650	-0.005949773
182	0x3f2d072d	0.67589074
183	0xbec4b833	-0.38421783
184	0xbf0d5f35	-0.552234
185	0x3d565b42	0.052333124
186	0xbe87b6f5	-0.26506773
187	0xbe053e29	-0.13011993
188	0xbf1e446a	-0.6182314
189	0xbead554a	-0.33854133
190	0x3e4e1eac	0.20128888
191	0xbf1ff46f	-0.6248235
192	0xbe83b971	-0.25727418
193	0xbe81b21f	-0.25331208
194	0xbccd2a73	-0.025044655
195	0x3f47fb8c	0.78118205
196	0xbd95758c	-0.07297811
197	0xbe1aac26	-0.15104732
198	0xbee477b4	-0.44622576
199	0x3e29835d	0.16554017
200	0x3e7e7119	0.24847831
201	0x3d848c1c	0.06472036
202	0xbf2905a3	-0.66024226
203	0xbec9f6e2	-0.3944617
204	0xbdca76f7	-0.09885972
205	0xbe9e5aac	-0.30928552
206	0x3c1fdc91	0.009757177
207	0xbe242b06	-0.16032037
208	0x3ed3e32d	0.4138426
209	0xbeb77424	-0.35830796
210	0x3eb5ef7c	0.35534275
211	0xbcec250f	-0.028826265
212	0xbe407263	-0.18793635
213	0x3f329058	0.697515
214	0xbebc5144	-0.3678075
215	0xbf18dcd7	-0.59711975
216	0xbe68876f	-0.22707914
217	0x3e2e22a8	0.17005408
218	0xbf0d4108	-0.55177355
219	0x3d8ec4fe	0.06971167
220	0xbe1a4c30	-0.15068126
221	0xbb8945c2	-0.004189224
222	0xbd65737a	-0.05601833
223	0xbec212f7	-0.37905094
224	0xbf1f43b8	-0.62212706
225	0xbd4fd9a9	-0.050744686
226	0xbe7740b4	-0.24145776
227	0xbe31c7b2	-0.17361334
228	0xbe205003	-0.15655522
229	0xbf4e6b17	-0.80632156
230	0x3d7b4e33	0.061353873
231	0xbea5a9eb	-0.323562
232	0xbe2b2c3d	-0.16716094
233	0xbdad74df	-0.08469557
234	0xbd33898f	-0.043832358
235	0x3e17acec	0.14812058
236	0xbf51a66b	-0.8189456
237	0x3c61e527	0.013787544
238	0xbce8a87e	-0.028400656
239	0xbecd0cf2	-0.4004894
240	0xbe5a2467	-0.21302949
241	0xbec07b97	-0.37594292
242	0xbe194496	-0.1496757
243	0xbf22b0e0	-0.6355114
244	0xbe82842d	-0.25491467
245	0xbeecfc82	-0.46286398
246	0x3cba340b	0.022729894
247	0x3e5e45f5	0.21706374
248	0xbf1885d1	-0.5957919
249	0x3d7dc326	0.061953686
250	0xbdfdb2c7	-0.12387615
251	0x3f32298d	0.6959465
252	0xbf0a54d0	-0.54035664
253	0xbf2aed4f	-0.66768354
254	0xbe12ce6a	-0.14336553
255	0xbec8a3e4	-0.3918754

action_model._discrete_distribution.branches.0.bias f4 [3]
0	0xbfd53cfd	-1.6659237
1	0xbf405747	-0.75133175
2	0x40167472	2.3508573

action_model._discrete_distribution.branches.0.weight f4 [3, 128]
0	0xbfb14d02	-1.3851626
1	0xbe006e3d	-0.12542053
2	0xbedee163	-0.4353133
3	0x3f01cf8f	0.50707334
4	0xbfb6077b	-1.4221033
5	0xbf6efabc	-0.9335134
6	0x3fa29645	1.2702109
7	0x404b3fcd	3.175769
8	0xc0094407	-2.144777
9	0x3eb473a8	0.3524449
10	0x4002d883	2.0444648
11	0x3e6380a2	0.22217038
12	0xbf0bad55	-0.5456136
13	0xbf6c6605	-0.9234317
14	0xbe9b3250	-0.30311823
15	0xbec3f77d	-0.38274756
16	0x3f37506a	0.7160708
17	0x3f1b1a6a	0.6058718
18	0xbf7d0d33	-0.98848265
19	0x3f45fc28	0.77337885
20	0xbf75acb7	-0.95966667
21	0x3ed73995	0.4203612
22	0xbfa9186c	-1.3210578
23	0x3f34af06	0.70579565
24	0xbde417b2	-0.11137332
25	0xc0031f91	-2.0488017
26	0x3e86e4c5	0.26346412
27	0xbded3059	-0.11581487
28	0x403f5dee	2.990108
29	0xbeaebfa8	-0.34130597
30	0x3e9506a9	0.29106644
31	0xc0032411	-2.0490763
32	0x3f723c09	0.94622856
33	0xbf6f6902	-0.93519604
34	0x3f7f9b99	0.998468
35	0xc00e5699	-2.2240355
36	0xc037c42e	-2.8713489
37	0xbef0cfe1	-0.470336
38	0xc0665806	-3.5991225
39	0xbf125359	-0.5715843
40	0x3fb47529	1.4098254
41	0xbedbeb76	-0.4295308
42	0x3f16d184	0.58913445
43	0xbfcf1f6a	-1.6181462
44	0x3ccba7b5	0.024860242
45	0x3c94dd3b	0.018171897
46	0x4068cd0e	3.6375155
47	0xbf3a40a1	-0.72754866
48	0xbf7742cb	-0.96586293
49	0xbf8e859c	-1.1134524
50	0xc04b0445	-3.1721356
51	0xbe28860f	-0.1645739
52	0xbe568802	-0.2095032
53	0xbfdaaeee	-1.7084634
54	0xbfea8693	-1.8322319
55	0x3f036ce8	0.5133805
56	0xbf5a49bd	-0.85268766
57	0xbcb6f9ee	-0.022335973
58	0xbf9b13bf	-1.2115401
59	0xbf0da16e	-0.5532445
60	0x3f5c6e91	0.8610621
61	0x3e5f00d1	0.21777655
62	0xbf64d7eb	-0.89391965
63	0x4014cbde	2.324943
64	0xc04d08ba	-3.2036576
65	0x3e62e800	0.22158813
66	0x400b6105	2.1777966
67	0xc0628d3c	-3.5398703
68	0x3f5dd16e	0.8664769
69	0x3f28c886	0.65930974
70	0x3f671235	0.90262157
71	0xbe79ed78	-0.24406993
72	0xbf3342e5	-0.7002395
73	0xbe7bc475	-0.24586661
74	0x3f19fc0a	0.60150206
75	0xbcfcad29	-0.030844288
76	0x3d199916	0.03749951
77	0xbdd23e45	-0.10265783
78	0xc01a3a56	-2.4098105
79	0xbfc1178d	-1.5085312
80	0x3f47bdda	0.78024065
81	0xbf22325a	-0.6335808
82	0xbf497b66	-0.78703916
83	0xbe994fe5	-0.29943767
84	0xbfedb614	-1.8571191
85	0xbf12cbb1	-0.5734206
86	0xc029cc0f	-2.6530797
87	0x3f722bfb	0.9459836
88	0x3ecae5ad	0.39628354
89	0x40334ebb	2.8016803
90	0xbf72d83b	-0.9486119
91	0x3e0ea57e	0.13930318
92	0x3e67289f	0.2257409
93	0xbec45d27	-0.3835232
94	0xbfa2e6e5	-1.2726713
95	0x3e802417	0.25027534
96	0x3e57e2b4	0.21082574
97	0x3f61026a	0.8789431
98	0x3ee0ee9a	0.4393204
99	0xbf6cfaa9	-0.9256998
100	0xbf7d065a	-0.98837817
101	0xbf15cbc2	-0.58514035
102	0xbeea360d	-0.45744362
103	0xbfe39b8d	-1.7781845
104	0xbfbbaab5	-1.4661471
105	0xbe1bca39	-0.1521386
106	0xc0113539	-2.2688735
107	0x3e1da14f	0.15393566
108	0x3947201c	0.0001899008
109	0x3e11d3d7	0.14240967
110	0xc039d373	-2.9035308
111	0x3d4c9db0	0.04995507
112	0xbef11076	-0.4708287
113	0xbdd8043b	-0.10547682
114	0xc057a948	-3.369707
115	0x3f59519b	0.84890145
116	0xc06ad5dc	-3.669303
117	0xbff29cc3	-1.895409
118	0xbf8fc878	-1.1233053
119	0xbf694958	-0.9112754
120	0x3e867607	0.26261923
121	0xbff88564	-1.9415708
122	0xbf45ced9	-0.7726875
123	0xbfdb15fd	-1.7116085
124	0x3e1a3290	0.1505835
125	0x3ecfcba3	0.4058505
126	0xc050ed6f	-3.2644918
127	0x3ed1b850	0.40960932
128	0xbeced109	-0.40393856
129	0xbf31d6db	-0.6946847
130	0xbe9ac84f	-0.30230948
131	0x3efd21c6	0.4943983
132	0xbd7e3325	-0.062060494
133	0xbf76e729	-0.9644647
134	0x3f86d911	1.0534993
135	0xbf0afc30	-0.5429106
136	0x3ed58dea	0.41709834
137	0x3f133758	0.5750632
138	0xbf3fa375	-0.7485879
139	0x3fb29d22	1.3954203
140	0xbf881d3b	-1.063392
141	0x3f547ae6	0.8300003
142	0x3db1b9c4	0.0867801
143	0x3f7b1ad1	0.98087794
144	0x3f760e50	0.9611559
145	0xbe70a758	-0.23501337
146	0x3e95fe46	0.29295558
147	0xbe9bda15	-0.3043982
148	0xbfe7c73b	-1.8107675
149	0x3e667b39	0.22507943
150	0x3e471fdd	0.19445749
151	0x3f384857	0.7198538
152	0x3da0b524	0.0784705
153	0xc025c777	-2.5902994
154	0xbf39a9b9	-0.725246
155	0xbf9543cf	-1.1661319
156	0x3daac13e	0.08337639
157	0xbedb1e51	-0.42796567
158	0x3ff856e7	1.940152
159	0xbfe47ef3	-1.7851242
160	0x3f58c301	0.8467255
161	0xbfc65a89	-1.5496379
162	0x3f27c96b	0.65541714
163	0xbf5657fc	-0.83728004
164	0xbf3f1fc3	-0.7465784
165	0xbf12cdc5	-0.5734523
166	0x3e6ea7f7	0.23306261
167	0xbe64d9e3	-0.22348742
168	0x3f67c667	0.9053711
169	0x3eb820c7	0.35962507
170	0x3eaf14ac	0.3419546
171	0x3eb42fab	0.35192618
172	0x3d4e3ec3	0.050352823
173	0xbf3db94b	-0.7411086
174	0x3efc2e5c	0.4925412
175	0x3d37afe0	0.04484546
176	0x3ca6b11a	0.02034812
177	0x3e0a798f	0.13522933
178	0xbf9b60b9	-1.2138892
179	0xc0677914	-3.616765
180	0x3e8c3727	0.27385828
181	0x3f1ff55e	0.62483776
182	0xbfcc81fb	-1.5977167
183	0x3f86de3b	1.0536569
184	0xbdd14fcc	-0.10220298
185	0x3f2fde12	0.6869823
186	0xbeffb8e8	-0.4994576
187	0xbe662da5	-0.2247835
188	0xbd27d69a	-0.040976144
189	0x3dd3530e	0.10318576
190	0xbea67f7d	-0.3251914
191	0x3fcc3f57	1.595683
192	0xbe7d7af9	-0.24753942
193	0xbe81c524	-0.2534572
194	0x3f9e4fca	1.23681
195	0x3f59da6a	0.850989
196	0x3e8f61e4	0.28004372
197	0xbcfc79bd	-0.030819768
198	0x3f7d46de	0.9893626
199	0xbf4d2e40	-0.80148697
200	0xbf0eb8bf	-0.5575065
201	0xbe3c78a9	-0.18405403
202	0xbf55675b	-0.8336083
203	0x3e871d87	0.26389715
204	0x3ec4ebfc	0.38461292
205	0x3ce638aa	0.028103191
206	0xbf75aab9	-0.9596363
207	0xbdf406bb	-0.11915346
208	0xbd2bea51	-0.04197151
209	0x3f1cdc26	0.6127342
210	0x3e368030	0.17822337
211	0xbd6920fb	-0.05691622
212	0x3ec7c995	0.39020982
213	0xbf0d1826	-0.5511497
214	0x3f59da9c	0.85099196
215	0x3f82e2c1	1.022545
216	0x3ec3a54a	0.38212043
217	0x3f65454e	0.89558876
218	0x3ed86cc4	0.42270482
219	0xbfb7c536	-1.4357059
220	0x3e2a6996	0.1664184
221	0xbebf91a7	-0.3741581
222	0xbe6af603	-0.22945409
223	0x3de97e56	0.1140105
224	0x3f0f1a9a	0.55899966
225	0xbe9061c5	-0.28199592
226	0xbeba31a9	-0.36366013
227	0xbdf10a82	-0.11769582
228	0x3e08f7c0	0.13375759
229	0xbe819c1e	-0.2531442
230	0xbf6f5d6e	-0.9350194
231	0xbe9d2e28	-0.30699277
232	0xbde7977e	-0.11308192
233	0xbe97ecdb	-0.29672894
234	0xbf754538	-0.95808744
235	0xbe816241	-0.25270274
236	0x3edefc05	0.4355165
237	0x3bf9a8d5	0.0076190033
238	0x40f1ddbc	7.558317
239	0xbf106b1d	-0.5641344
240	0xbeb367f7	-0.35040256
241	0x3e020444	0.1269694
242	0xbec199ed	-0.3781275
243	0x3eaedf25	0.3415462
244	0x3ec8eb8f	0.39242217
245	0xbf195f58	-0.5991111
246	0xbf99151b	-1.1959566
247	0x3e0ae2da	0.135631
248	0xbd117f3a	-0.035521723
249	0x3dae7418	0.08518237
250	0xbf23b556	-0.6394857
251	0xbf868ac2	-1.0511096
252	0xbef22b56	-0.47298688
253	0x3e881235	0.2657639
254	0xbf4122e5	-0.7544387
255	0xbe7635ec	-0.24044007

action_model._discrete_distribution.branches.1.bias f4 [3]
0	0x3f08af05	0.5339206
1	0xbd0b6710	-0.034033835
2	0x3b13ddbf	0.002256259

action_model._discrete_distribution.branches.1.weight f4 [3, 128]
0	0x400d9a83	2.2125556
1	0xbf75485a	-0.95813525
2	0xbfae7ea0	-1.3632393
3	0xc1007270	-8.027939
4	0xbf4a5d4c	-0.7904861
5	0xc047a0b1	-3.1191828
6	0x3eb6b5ac	0.3568548
7	0x40c52bcd	6.161597
8	0x3fcaee41	1.5853959
9	0xbf80ca96	-1.0061824
10	0x3f93ebf0	1.1556377
11	0x405a5c4e	3.4118838
12	0x3f142d5f	0.5788173
13	0xbf554ef2	-0.83323586
14	0x3f363727	0.71177906
15	0x3de1edef	0.1103171
16	0xbf4a7cf4	-0.79096913
17	0xc081e042	-4.058625
18	0x3df2cb91	0.118552335
19	0xbedaada6	-0.42710608
20	0x3f42ced5	0.7609685
21	0xbf09bc13	-0.53802603
22	0xbebee932	-0.3728729
23	0x3f26db74	0.6517861
24	0xbe0f93fe	-0.14021298
25	0x40a16610	5.043709
26	0x3fc616f3	1.5475754
27	0x3fa4f291	1.2886525
28	0x3f915273	1.1353287
29	0x3ef60f37	0.48058483
30	0x3ec0bf19	0.37645796
31	0xbf6a0f54	-0.9142964
32	0x3f8433e8	1.032834
33	0x3fa676ba	1.3004982
34	0x3f4a9dff	0.7914733
35	0x3fd4d96b	1.6628851
36	0xbe6a07cd	-0.22854538
37	0xbee50432	-0.44729763
38	0x3ebc1ff2	0.36743122
39	0x3e3ba59d	0.18324895
40	0x3f76a5d0	0.9634676
41	0xbf39bc8f	-0.7255334
42	0xbe966133	-0.29371032
43	0xbe173f09	-0.1477014
44	0xbeaf3bdb	-0.34225354
45	0x3f0bd039	0.546146
46	0x408f19b5	4.471888
47	0xbc1d9e53	-0.009620267
48	0x3e994f01	0.29943088
49	0x3e96f704	0.29485333
50	0xbf67cb65	-0.9054473
51	0xbe6cf031	-0.23138501
52	0x40017268	2.0226078
53	0x401d14a4	2.4543848
54	0x3f9efb9a	1.2420533
55	0xbdea8fb0	-0.114531875
56	0xbf47e408	-0.78082323
57	0x40600967	3.5005739
58	0x3ed9ed27	0.42563745
59	0x3ee2bc9c	0.44284523
60	0xbeb356d7	-0.3502719
61	0xbefea8b5	-0.49738088
62	0x4114e04a	9.304758
63	0x40e0c3ae	7.0238867
64	0x3e11c368	0.14234698
65	0xbf20fd9a	-0.62886965
66	0x409af5ac	4.8424892
67	0x402b1dbc	2.6736898
68	0x3fa29ee7	1.2704743
69	0x3f1e4dcc	0.6183746
70	0x3f5d2101	0.86378485
71	0x3f8d9727	1.1061753
72	0x3f568e12	0.8381053
73	0x3e8230da	0.25427896
74	0xbe9cc28a	-0.30617172
75	0xbef85018	-0.48498607
76	0x3e9281ab	0.28614554
77	0xbf8c25a2	-1.0948985
78	0x3fdbec55	1.7181498
79	0x40693431	3.6438105
80	0xbdeec78a	-0.11659153
81	0x3f97df16	1.1864955
82	0xbfc4c62a	-1.5372975
83	0xbef2082a	-0.47271854
84	0x3f01e37f	0.50737756
85	0x3f581711	0.84410197
86	0x40032e70	2.0497093
87	0xbf585784	-0.8450854
88	0x3f0225cd	0.5083893
89	0x3fef33b0	1.8687649
90	0x3dcc2a06	0.09968953
91	0xbeb64cb1	-0.35605386
92	0x3dea6472	0.1144494
93	0x3e701c5f	0.23448323
94	0x3f69afe5	0.9128402
95	0xbeaa5ab1	-0.33272317
96	0x3f9702bc	1.179771
97	0x3e4b3eab	0.19848125
98	0xbec2aadc	-0.3802098
99	0xbf486553	-0.7827961
100	0x3f713673	0.9422371
101	0x3f2e6a8e	0.6813134
102	0x400f3b22	2.2379842
103	0xbfe9cbf7	-1.826537
104	0x3fdf9bc1	1.7469407
105	0x3f034fd8	0.51293707
106	0x3e0f0428	0.13966429
107	0x3f29eb21	0.66374403
108	0x3eb5e8a8	0.35529065
109	0x3e22d743	0.15902428
110	0xbfeeeba1	-1.8665658
111	0xbd648bc6	-0.05579736
112	0x3dbc1593	0.091838025
113	0xbf388c48	-0.7208905
114	0xbf2a5706	-0.6653904
115	0xbf5acef3	-0.8547203
116	0xbe8d9fc4	-0.27660954
117	0xbd977d34	-0.073969275
118	0xbf9d187e	-1.22731
119	0xbf2e60a2	-0.681162
120	0xbe9c2dcf	-0.305037
121	0x4075ca41	3.8404696
122	0x3fe1a13e	1.7627332
123	0xbd386ad2	-0.045023747
124	0x3c982e0c	0.018576644
125	0xbd9a3cad	-0.07531104
126	0x400fd439	2.247328
127	0x3e2e26a5	0.17006929
128	0x3fa11f4a	1.2587674
129	0xbfe275c5	-1.769219
130	0xbc221e71	-0.009894953
131	0x3f0d532c	0.55205035
132	0x3f5b7b92	0.8573543
133	0x4087bc38	4.241726
134	0x3e1bc7f0	0.15212989
135	0x40978330	4.734764
136	0x3ee6eeca	0.45104057
137	0x3e4eec78	0.20207393
138	0xbc35348d	-0.011059892
139	0xc07a655d	-3.9124367
140	0xbfb957a5	-1.4479872
141	0xbeee1947	-0.4650366
142	0x3e08860c	0.13332385
143	0xbe84f7de	-0.25970358
144	0xc0098157	-2.1485193
145	0x3f46339a	0.7742249
146	0x3e809bad	0.2511877
147	0x3d42619b	0.047456365
148	0xc001b68e	-2.0267673
149	0x3f47f5fd	0.78109723
150	0x3f1eea86	0.62076604
151	0x3f37ce93	0.7179958
152	0x3eae270a	0.3401416
153	0x40019b9b	2.0251224
154	0xbf58012a	-0.84376776
155	0x3ed2e209	0.41188076
156	0x3fd7c0bf	1.6855696
157	0xbeee6ff9	-0.46569803
158	0xbebfbeb7	-0.3745019
159	0x3ec6363d	0.38713256
160	0x3f831c5b	1.0243028
161	0xbf570522	-0.8399221
162	0x3f50cb8a	0.81560576
163	0xbfa35f97	-1.2763547
164	0xbf36efc3	-0.714596
165	0x3f488302	0.783249
166	0xbfd5aab8	-1.6692724
167	0xbf84b54b	-1.0367826
168	0xbf4ef687	-0.8084492
169	0xbedaa32b	-0.42702612
170	0xbed5e37a	-0.41775113
171	0xbd4ee1a1	-0.050508145
172	0x3c601df9	0.013679021
173	0x3f40f320	0.7537098
174	0x3e16953f	0.1470537
175	0x3d446605	0.047948856
176	0x3e533374	0.20625097
177	0xbf3cb8b2	-0.7371932
178	0xbf9a2cb3	-1.2044891
179	0xbf862744	-1.0480733
180	0xbf1e180a	-0.6175543
181	0xbe181c4a	-0.14854541
182	0xbf4e954d	-0.80696565
183	0xbdbc8b22	-0.09206225
184	0xbfa123a4	-1.2589002
185	0x404ea68e	3.2289157
186	0xbe3b4849	-0.18289293
187	0x3f9f0a7a	1.2425072
188	0x3e696666	0.22792968
189	0x3ef19436	0.47183388
190	0xbd292510	-0.04129511
191	0x3f328b0d	0.69743425
192	0xbd681ba4	-0.056666985
193	0x3f60b759	0.87779766
194	0x3fd19b01	1.6375428
195	0xbeef85ea	-0.46781856
196	0xc01ff3db	-2.4992588
197	0xbee68ab5	-0.450277
198	0x3fe9f88e	1.8278978
199	0xbfd0e0a5	-1.6318556
200	0x3e8fc295	0.28078142
201	0x3c249961	0.010046334
202	0xbf088d83	-0.5334093
203	0x3ea85ad5	0.328818
204	0x3e81bca4	0.25339234
205	0xbc91e977	-0.01781152
206	0xc04304ef	-3.0471761
207	0xbfc46f7b	-1.5346521
208	0xbeccbaea	-0.39986354
209	0xbfce7076	-1.612807
210	0xbf89e864	-1.0774045
211	0xbf5d0c54	-0.86346936
212	0xbfc675ea	-1.5504735
213	0xbf08bd27	-0.53413624
214	0xbe612b00	-0.2198906
215	0x3efee03b	0.4978045
216	0x3ed92c81	0.42416766
217	0x3f1ab79b	0.6043641
218	0x3ed0d47c	0.40787113
219	0xbf0da30a	-0.553269
220	0xbec6509f	-0.38733384
221	0xbf1b5704	-0.6067965
222	0x3dfecba2	0.124411836
223	0xbecbcabf	-0.3980312
224	0xbf13fb54	-0.5780537
225	0x3f5620eb	0.8364398
226	0x3e84be43	0.25926408
227	0x3e9aaa1a	0.30207902
228	0xbf319fc9	-0.6938444
229	0xbfc6bb8c	-1.5525985
230	0x3eae587e	0.3405189
231	0x3ed3dfd3	0.41381702
232	0xbf999203	-1.1997684
233	0xc00d8491	-2.2112162
234	0xbff24551	-1.8927404
235	0x3f1af57d	0.60530835
236	0x3ee04a1a	0.43806535
237	0x3ee882b9	0.45412233
238	0xc0264b60	-2.5983505
239	0xbe9605cd	-0.293013
240	0x3f27f64a	0.6561018
241	0x3ead0a0c	0.33796728
242	0xbda68e7a	-0.08132644
243	0x3e1c9494	0.15291053
244	0xbfc859e1	-1.5652429
245	0xbef271e5	-0.4735252
246	0xbe9e71a8	-0.30946088
247	0xbf14e08c	-0.5815513
248	0xbd84c318	-0.06482524
249	0x3fa3715a	1.2768967
250	0xc003ad32	-2.057446
251	0xbf790b6f	-0.9728307
252	0x3c82d660	0.015971363
253	0xbd2ac1e2	-0.041688807
254	0x3f238e12	0.6388866
255	0xbe8f6e65	-0.28013912

discrete_action_output_shape f4 [1, 2]
0	0x40400000	3.0
1	0x40400000	3.0

network_body._body_endoder.seq_layers.0.bias f4 [128]
0	0xbfa408e1	-1.281521
1	0xbfdcc831	-1.7248594
2	0xbf6bb3aa	-0.9207102
3	0x3fbc915d	1.4731861
4	0xbf599003	-0.8498537
5	0xc006f544	-2.1087198
6	0xbf1500a4	-0.582041
7	0x3f3a57bb	0.72790116
8	0xbede22e4	-0.43385994
9	0xbfeff3f5	-1.8746325
10	0xbf4cebf3	-0.8004753
11	0xc00a346c	-2.1594496
12	0xbf9bcf14	-1.217257
13	0xbf919286	-1.137284
14	0xbfa74331	-1.306738
15	0xbe81a341	-0.25319865
16	0xc02cacfa	-2.6980577
17	0xc01d1e3d	-2.4549706
18	0xc0241a46	-2.5641036
19	0xbf8c0246	-1.0938194
20	0xc01feb95	-2.4987538
21	0xbec7cc75	-0.39023176
22	0xbffb641f	-1.963993
23	0xbdbe2399	-0.092841335
24	0xc016231c	-2.345893
25	0xbf9b68d7	-1.214137
26	0xbffd9e0d	-1.9813858
27	0xbfe3c11f	-1.7793311
28	0x3ed882cf	0.422873
29	0xc04b4153	-3.175862
30	0xbfc01004	-1.5004888
31	0xbfa5edfe	-1.2963254
32	0xbe2e0092	-0.16992405
33	0xc02407c1	-2.5629733
34	0xbfdba66b	-1.7160162
35	0xbef09aef	-0.46993205
36	0xbf8501f3	-1.039122
37	0xc0302ccf	-2.752735
38	0xbf64c350	-0.89360523
39	0xc004d697	-2.0755975
40	0xbf99acd5	-1.2005869
41	0xc03e75f5	-2.9759495
42	0xbee94cf9	-0.45566538
43	0xbf7e9d25	-0.99458534
44	0xc000b759	-2.0111907
45	0xbfac681c	-1.3469272
46	0xc0030a5f	-2.047508
47	0xbf4f2d41	-0.80928427
48	0xbfd133e0	-1.6343956
49	0xbf5fbda0	-0.8739872
50	0xbf9060ae	-1.1279504
51	0xbe76610d	-0.2406046
52	0xbf9aff6f	-1.2109202
53	0xc06df908	-3.7183247
54	0xbf922119	-1.1416351
55	0x3eba56ad	0.36394253
56	0xc016649d	-2.349891
57	0xbf1ee8ef	-0.6207418
58	0xbe504e89	-0.20342459
59	0xbfccb601	-1.5993043
60	0xbc802e96	-0.015647214
61	0xc00362d0	-2.052906
62	0x3f848fd6	1.0356395
63	0xbf30cea2	-0.69065297
64	0xc03ab7f6	-2.917478
65	0xc002cd3a	-2.043776
66	0xbf085381	-0.53252417
67	0xbf11637b	-0.5679242
68	0xbeeee023	-0.46655378
69	0xc01d1faa	-2.4550576
70	0xbf6993b9	-0.9124103
71	0xbfe5220f	-1.7901019
72	0xbf5fd23c	-0.8743017
73	0x3d006de1	0.03135479
74	0xbfbaf17d	-1.4604946
75	0xbf93c95c	-1.1545825
76	0xbfe57ec6	-1.7929313
77	0x3cbc5d89	0.02299382
78	0xc00d4f04	-2.2079477
79	0xc00a058a	-2.156588
80	0x3e36e43a	0.17860499
81	0xbfc2a1e0	-1.520565
82	0xbecb969b	-0.3976334
83	0xbf39d999	-0.7259765
84	0xbfa97e2d	-1.3241631
85	0xbf5953a4	-0.8489325
86	0xbfdc0601	-1.7189332
87	0xbf16202d	-0.58642846
88	0xbfe206db	-1.7658342
89	0xbfceb654	-1.6149392
90	0xbc784818	-0.015153907
91	0xbf015e8e	-0.50534904
92	0xbfd93fd8	-1.6972609
93	0xbf91f9d7	-1.140437
94	0xbf01ad4e	-0.50655067
95	0xbf45beb7	-0.7724413
96	0xbf72aba1	-0.94793135
97	0xbed47c28	-0.41500974
98	0xc052fd82	-3.296723
99	0xc02e3b69	-2.722376
100	0xbf9a8893	-1.2072929
101	0xbfd98c96	-1.6996028
102	0xbe516ae0	-0.20450926
103	0xbeb70a82	-0.35750204
104	0xbfa51625	-1.2897383
105	0xbfbb2310	-1.4620075
106	0xc05cdf20	-3.4511185
107	0xbf28d237	-0.6594576
108	0xbfd6c134	-1.6777711
109	0xbfd95c33	-1.6981262
110	0x3e043204	0.12909704
111	0xbf3f5348	-0.7473645
112	0xc01abaf4	-2.4176607
113	0xc00f69fe	-2.2408442
114	0xc000406b	-2.0039318
115	0xc020bf93	-2.5116928
116	0xbfbf4e57	-1.4945782
117	0xbf00009d	-0.50000936
118	0xbed14176	-0.40870255
119	0xc029855c	-2.6487646
120	0x3ebc0ada	0.3672703
121	0xc012fd0e	-2.2966952
122	0xbf4e85b4	-0.80672765
123	0xc016134c	-2.3449278
124	0xbe829412	-0.25503594
125	0xc0125552	-2.2864575
126	0xc03b19ed	-2.9234574
127	0xbfb72804	-1.4309087

network_body._body_endoder.seq_layers.0.weight f4 [128, 13]
0	0xbc998d43	-0.018744117
1	0xbe228c1b	-0.15873758
2	0x3d5288f6	0.051400147
3	0x3e0e4ece	0.13897249
4	0x3ea11486	0.3146097
5	0xbea0883d	-0.31353942
6	0x3dd99885	0.10624794
7	0x3e877282	0.2645455
8	0x3e33cd91	0.17558886
9	0xbf050f2b	-0.5197627
10	0x3e7bfecc	0.24608916
11	0x3e5189bf	0.20462702
12	0x3dcec079	0.10095305
13	0xbe8205f9	-0.25395182
14	0xbecf750c	-0.40518987
15	0x3ef36c48	0.4754355
16	0x3da347b8	0.07972664
17	0xbde3bb12	-0.11119665
18	0x3d01de99	0.031706426
19	0x3d83b80f	0.06431591
20	0xbeeddf7c	-0.46459568
21	0xbebe389b	-0.37152562
22	0xbd2edcfe	-0.042691223
23	0x3e8708f2	0.26374012
24	0xbde77bba	-0.11302896
25	0x3ee3a4d3	0.44461688
26	0xbebf0e58	-0.3731563
27	0x3e27acf3	0.16374569
28	0xbd269a1c	-0.040674314
29	0x3e22edc9	0.1591102
30	0x3813b908	3.5219855e-05
31	0xbef784c9	-0.48343495
32	0x3da09be4	0.07842234
33	0xbdc5dc61	-0.096611746
34	0x3d3b0310	0.045657218
35	0xbf5c5925	-0.86073524
36	0x3e6cab19	0.23112144
37	0x3d4ce59a	0.050023653
38	0x3e1b46c6	0.15163717
39	0xbf43da98	-0.7650542
40	0xbf692990	-0.91079044
41	0xbf875300	-1.0572205
42	0xbf842064	-1.0322385
43	0x3e1f52b0	0.15558887
44	0x3fe1f576	1.7653034
45	0x3ce064f7	0.027391894
46	0xc0064a3e	-2.0982814
47	0xbfb0f100	-1.3823547
48	0x3f7d2811	0.9888926
49	0xbc44f340	-0.012020886
50	0xbf6ead0c	-0.932328
51	0xbfbf0ed7	-1.4926404
52	0xbec2e0f1	-0.38062242
53	0x3df9cdb9	0.121974416
54	0x3cc821a6	0.024430107
55	0x3dd8c14b	0.10583743
56	0xbd79cb67	-0.060984995
57	0xbd9a24ae	-0.07526527
58	0xbe34ce74	-0.1765688
59	0x3eebbe03	0.46043405
60	0x3e3d3838	0.18478477
61	0xbe85b0fe	-0.26111597
62	0x3f019665	0.5062011
63	0xbc20bd1f	-0.009810715
64	0x3ea1ef3a	0.31627828
65	0xbdb31fb8	-0.08746284
66	0x3efcfd87	0.49412176
67	0xbf80e752	-1.0070593
68	0xbe92f37b	-0.28701386
69	0x3e3508e5	0.17679174
70	0x3e352b55	0.17692311
71	0x3f2b0899	0.66809994
72	0xbeaa5014	-0.3326422
73	0x3fa74bcc	1.3070006
74	0xbc561672	-0.013066875
75	0xbe57b8e9	-0.21066631
76	0x3deeddf1	0.11663426
77	0xbf294318	-0.66118
78	0x3d51f8e3	0.051262747
79	0xbe32c221	-0.17456867
80	0x3ebad98f	0.3649411
81	0x3e5fb1c5	0.21845157
82	0x3ec83d9e	0.3910951
83	0x3e5acb22	0.21366552
84	0x3c6733ba	0.014111454
85	0x3eb2c18a	0.34913284
86	0x3ea95b1e	0.3307733
87	0xbbf56d81	-0.0074898605
88	0xbe9751a6	-0.2955448
89	0x3d372fd8	0.04472336
90	0xbe61c812	-0.22048977
91	0xbc62aa51	-0.013834552
92	0xbd157707	-0.036490466
93	0xbef386f0	-0.47563887
94	0x3d7ecf2a	0.062209286
95	0x3ef2b836	0.47406167
96	0x3d14ab4b	0.03629617
97	0x3de2a693	0.11066928
98	0xbe2d7b8a	-0.16941658
99	0xbeb419c5	-0.3517591
100	0x3f37e577	0.7183451
101	0xbed78d28	-0.4209988
102	0xbeb750d1	-0.35803846
103	0xbf303080	-0.68824005
104	0xbe90f4fd	-0.2831191
105	0x3dfc769e	0.12327312
106	0xbe62688f	-0.22110198
107	0x3d516ddf	0.051130172
108	0xbede630d	-0.43434945
109	0x3e0c5311	0.13703562
110	0xbe85a2d8	-0.26100802
111	0x3ce92ae6	0.028462838
112	0x3df5e152	0.12005867
113	0x3e3686bf	0.17824839
114	0x3e0483fd	0.12940975
115	0x3e1fcbda	0.15605107
116	0xbd979595	-0.074015774
117	0xbf096b8e	-0.5367974
118	0x3d02bff2	0.031921335
119	0x3e017c24	0.12645012
120	0x3e9b711e	0.3035974
121	0x3e743540	0.23848438
122	0x3ec3198e	0.38105434
123	0x3ec49dd0	0.3840165
124	0xbea8c6d5	-0.32964197
125	0xbdbbcd63	-0.09170034
126	0xbf575ceb	-0.84126157
127	0x3f2b8010	0.6699228
128	0xbdff0491	-0.12452043
129	0xbe8e0950	-0.2774148
130	0xbe5e8b04	-0.21732718
131	0x3df5ab62	0.11995579
132	0x3f43aacd	0.76432496
133	0x3f22afc9	0.63549477
134	0x3e844f04	0.25841534
135	0xbf333a75	-0.70011073
136	0xbfc4124d	-1.5318085
137	0xbfc3f1ba	-1.5308144
138	0xbf680e9b	-0.90647286
139	0xbfb0ca2f	-1.3811702
140	0x4011eabd	2.2799523
141	0x3fa42fef	1.2827128
142	0xbeaeb89f	-0.3412523
143	0x3f6588c1	0.89661795
144	0xbe65cc3f	-0.22441195
145	0xbf425345	-0.7590831
146	0x3f38db15	0.7220929
147	0x3ef289bc	0.47370708
148	0xbf1c0cac	-0.60956836
149	0xbf09503f	-0.5363807
150	0x3e27552c	0.16341084
151	0x3e3f184d	0.18661614
152	0xbf853b6f	-1.0408763
153	0xbee24606	-0.4419405
154	0xbf0adbf4	-0.5424187
155	0xbee2637b	-0.44216523
156	0xbe69a3d5	-0.22816403
157	0xbeb86e13	-0.3602148
158	0xbe8b9882	-0.27264792
159	0x3da6a73b	0.081373654
160	0xbe58e49e	-0.2118096
161	0x3eb72fb0	0.3577857
162	0x3eae8c9d	0.34091654
163	0xbe4180db	-0.1889681
164	0xbe9c8d49	-0.30576542
165	0xbf47c31a	-0.78032076
166	0x3e5d8366	0.21632156
167	0x3db18f12	0.086698666
168	0xbd3757fd	-0.044761647
169	0xbe90e1ec	-0.28297365
170	0xbe00362e	-0.12520668
171	0xbe8248a0	-0.25446033
172	0xbc17bc8d	-0.009261263
173	0xbd59e9e9	-0.05320159
174	0x3d99465c	0.07484123
175	0xbe292d03	-0.16521077
176	0xbea10f6e	-0.31457084
177	0xbee21293	-0.44154796
178	0xbfa3459b	-1.2755617
179	0x3f0ffabf	0.56241983
180	0xbe06a75c	-0.1314978
181	0x3daaaaaa	0.08333333
182	0xbea36f98	-0.31921077
183	0xbe947068	-0.2899201
184	0x3e84aa8b	0.25911364
185	0x3e5e54c9	0.2171203
186	0x3e4172eb	0.18891494
187	0xbf23531a	-0.6379868
188	0x3dc2f667	0.09519654
189	0x3dad3de1	0.08459068
190	0x3d4bfc16	0.049800955
191	0x3f20709a	0.62671816
192	0x3e8f8b8a	0.28036147
193	0xbf096678	-0.5367198
194	0x3e45d67d	0.19320102
195	0x3e82e0ac	0.25562036
196	0x3f1dd04d	0.61645967
197	0xbecb1e6f	-0.39671656
198	0x3f5df082	0.8669511
199	0x3e4cc486	0.19996843
200	0x3da1b2e1	0.078954466
201	0x3f76b0d1	0.9636355
202	0xbed9a1b1	-0.42506173
203	0x3f23014a	0.6367384
204	0xbe4f74a1	-0.20259334
205	0xbee73592	-0.45158058
206	0xbecad6ad	-0.3961691
207	0xbe90364c	-0.28166425
208	0xbea291c9	-0.3175185
209	0xbe309237	-0.17243277
210	0x3daae98b	0.08345326
211	0xbf538413	-0.82623404
212	0xbe54f9fe	-0.2079849
213	0x3e93af34	0.28844607
214	0x3ceb1b52	0.02869955
215	0x3eca94d9	0.39566687
216	0xbf2c940d	-0.6741341
217	0xbf845437	-1.03382
218	0xbf0401c0	-0.5156517
219	0xbc9ea3f6	-0.019365292
220	0xbf65bb01	-0.8973847
221	0xbf1cf880	-0.6131668
222	0xbefa9e70	-0.48949003
223	0x3e747356	0.23872122
224	0xbd839ee7	-0.064267926
225	0xbe3afa7c	-0.18259615
226	0x3e9c9afa	0.30586988
227	0x3e08d972	0.13364199
228	0x3ead1ac5	0.33809486
229	0x3e0e3058	0.13885629
230	0xbf359436	-0.70929277
231	0x3d795c6a	0.06087915
232	0x3e049d8b	0.12950723
233	0xbfa942a0	-1.3223457
234	0x3eb6eece	0.3572907
235	0xbeac4abe	-0.33650774
236	0x3d3efa2f	0.046625312
237	0xbf4a07ae	-0.7891797
238	0xbcc44b30	-0.023961633
239	0x3ed7d2ca	0.42153007
240	0x3e0696b9	0.13143434
241	0xbde932ee	-0.11386667
242	0xbe7ffad4	-0.24998027
243	0xbf6b9ea9	-0.9203897
244	0xbf4272da	-0.759565
245	0x3edd75cc	0.43253934
246	0xbf1d2339	-0.6138187
247	0xbe5afca3	-0.21385436
248	0xbe91c70b	-0.2847217
249	0xbdd1a4e6	-0.1023653
250	0x3dfe3967	0.124132924
251	0x3ecc24d4	0.39871848
252	0xbee095aa	-0.43864185
253	0xbd416f2b	-0.04722516
254	0x3e5d26e6	0.2159687
255	0x3d3e338b	0.046435874

network_body._body_endoder.seq_layers.2.bias f4 [128]
0	0xbfe1ea03	-1.764954
1	0xbf960a13	-1.1721824
2	0xc007486e	-2.1137958
3	0xbf0dc60b	-0.55380315
4	0xbf6ae215	-0.91751224
5	0x3ea0a1c0	0.31373405
6	0xbf62a951	-0.88539606
7	0xbfe8428e	-1.8145311
8	0xbf563e1f	-0.8368854
9	0xbf93d0cd	-1.1548096
10	0xbfbc568a	-1.471391
11	0xbf2a5708	-0.6653905
12	0xbfb1592e	-1.385534
13	0xbf8c2e27	-1.0951585
14	0xbfc52e8a	-1.5404828
15	0xc01e6a59	-2.475241
16	0xbf786a39	-0.9703708
17	0xbf8f2998	-1.1184568
18	0xbfada7ea	-1.3566868
19	0xbfebf68d	-1.8434616
20	0xbf66a717	-0.9009871
21	0xc0100a4b	-2.2506282
22	0xbfe446dc	-1.7834125
23	0xbf00d6a9	-0.50327545
24	0xbfc99702	-1.5749209
25	0xbff41e24	-1.9071698
26	0xbfda9584	-1.7076879
27	0xbfafc826	-1.3732955
28	0xc007eaa6	-2.1236968
29	0xc03188b6	-2.7739692
30	0xbf26ce71	-0.65158755
31	0xbfc519ab	-1.5398458
32	0xbfb86f82	-1.440903
33	0xc0180e7a	-2.3758836
34	0xbe10db71	-0.1414621
35	0xbfb8d441	-1.4439775
36	0xbff344b9	-1.9005347
37	0xbf3dc155	-0.74123126
38	0xbf7771e0	-0.96658134
39	0xbfa6f1c6	-1.3042533
40	0xbfa09185	-1.2544409
41	0xbf550dd8	-0.8322425
42	0xc0302b95	-2.75266
43	0xbf92889d	-1.1447941
44	0xbea2ae75	-0.31773725
45	0xbf34c33a	-0.7061039
46	0xbfabeb65	-1.3431212
47	0xbfa371a9	-1.2769061
48	0xc01f5b9e	-2.4899669
49	0xbfb3defe	-1.4052427
50	0xbf6a3d97	-0.9150023
51	0xc00e0af7	-2.2194192
52	0xbf5468e8	-0.82972574
53	0xbf73db89	-0.9525686
54	0xc001e442	-2.0295568
55	0xbf757ec0	-0.9589653
56	0xbf37feba	-0.71873057
57	0xbf7418e4	-0.9535048
58	0xbfb31b2f	-1.3992671
59	0xbf36da57	-0.7142691
60	0xbfd34150	-1.6504307
61	0xbfb99d24	-1.450108
62	0xbfacb51c	-1.349277
63	0xbfd5dd65	-1.6708189
64	0xbff513f2	-1.9146712
65	0xc013f5c9	-2.3118765
66	0xbf149ac6	-0.58048666
67	0xbfc7c06c	-1.5605597
68	0xbf4e54da	-0.80598223
69	0xbfc53b05	-1.5408636
70	0xbf1377ea	-0.5760485
71	0xbfc1bd22	-1.5135844
72	0xbf904beb	-1.1273168
73	0xbfe03a0d	-1.7517716
74	0xbf75a9d0	-0.9596224
75	0xbf8cb2c7	-1.0992059
76	0xbede335d	-0.43398562
77	0xbefd337d	-0.49453345
78	0xc00550ad	-2.083049
79	0xbfbae93e	-1.460243
80	0xbfe2701a	-1.7690461
81	0xbfed2a64	-1.8528562
82	0xbfb036f1	-1.3766767
83	0xbfda2a4d	-1.7044159
84	0xc01f30a3	-2.4873435
85	0xbf92c444	-1.1466146
86	0xbf4135ef	-0.7547292
87	0xbfb67a9b	-1.4256166
88	0xbf01401e	-0.5048846
89	0xbfb680cf	-1.4258059
90	0xc0452b24	-3.080758
91	0xc0200157	-2.5000818
92	0xbf3cceca	-0.73753035
93	0xc00a64c6	-2.1624007
94	0xbef72195	-0.4826781
95	0xbf4778f7	-0.7791895
96	0xbf3dcc36	-0.74139726
97	0xc08c48d4	-4.38389
98	0xc023adf9	-2.5574934
99	0xbf8caa34	-1.0989442
100	0xbfaa0fb4	-1.3286042
101	0xc012b213	-2.2921188
102	0xbffc3492	-1.9703543
103	0xbf613e27	-0.8798546
104	0xbfad05d4	-1.3517404
105	0xbf9b1756	-1.2116497
106	0xbfbddcac	-1.4832969
107	0xbffae8f0	-1.9602337
108	0xbfa19952	-1.2624915
109	0xbfb1ca7d	-1.388992
110	0xbfaacab1	-1.3343107
111	0xc037cac2	-2.8717504
112	0xc007a3c5	-2.1193707
113	0xbf72ad67	-0.9479584
114	0xc00c8818	-2.1958065
115	0xbfd430ab	-1.6577352
116	0xbfcfe8c4	-1.624291
117	0xbf9c33a0	-1.2203255
118	0xbf38aaed	-0.7213581
119	0xbf86b88a	-1.0525067
120	0xbf5dab15	-0.86589175
121	0xbedbbdd7	-0.42918274
122	0xbf91f0d6	-1.1401622
123	0xc01ecec1	-2.4813693
124	0xbf2b7aae	-0.6698407
125	0xc015a45f	-2.3381574
126	0xbf144ed3	-0.57932776
127	0xbf8dd518	-1.1080656

network_body._body_endoder.seq_layers.2.weight f4 [128, 128]
0	0x3e9b5ba0	0.30343342
1	0xbddeba95	-0.108754314
2	0xbda53bee	-0.08068071
3	0x3f808dea	1.0043309
4	0xbd6b2171	-0.05740494
5	0x3ec20575	0.37894788
6	0x3f2f693b	0.68519944
7	0x3e293165	0.16522749
8	0x3e8bd6ed	0.27312413
9	0xbf3e4a06	-0.743317
10	0xc039a718	-2.9008236
11	0xbf691904	-0.91053796
12	0x3da71a3e	0.08159302
13	0xbe706219	-0.23474921
14	0xbe83087b	-0.25592408
15	0x3e9bbcac	0.30417383
16	0x3e1689eb	0.14701049
17	0x3f4a4033	0.7900421
18	0x3f217ab8	0.6307788
19	0x3eff2a3b	0.49836907
20	0x3eb749fa	0.35798627
21	0xbdddb894	-0.10826221
22	0xbf4bded3	-0.7963688
23	0xbf2a3d37	-0.66499656
24	0xbc3fe057	-0.011711202
25	0xbe1d0e15	-0.15337403
26	0x3f20253c	0.62556815
27	0xbd98331d	-0.07431624
28	0x3edcfb2b	0.43160376
29	0xbfadc0a0	-1.357441
30	0x3f9a611e	1.2060888
31	0xbf4ff8eb	-0.81239194
32	0x3d1de8ac	0.03855197
33	0x3ebc8bf2	0.3682552
34	0x3e909554	0.28238928
35	0x3dfda9ee	0.12385927
36	0xbe447e33	-0.19188766
37	0xbf1284af	-0.5723371
38	0x3f1319de	0.57461345
39	0x3f35b51a	0.70979464
40	0xbe07c6b2	-0.1325939
41	0xbe2c1f7c	-0.16808885
42	0x3f010d96	0.50411355
43	0x3d06e0b4	0.032929137
44	0xbf70e611	-0.94101053
45	0xbfa9384d	-1.3220307
46	0x3f7da598	0.990808
47	0xbe8db857	-0.27679703
48	0xbf0eb98d	-0.5575188
49	0xbedfd70a	-0.4371875
50	0xbb1205ee	-0.0022281366
51	0x3edb561d	0.42839137
52	0x3ec5171f	0.38494202
53	0xbc6e09a1	-0.014528663
54	0xbc859a6f	-0.016308991
55	0x3e90fe33	0.2831894
56	0x3e7e43c6	0.24830541
57	0xbe8713ef	-0.26382396
58	0xbf1a6d47	-0.60322994
59	0x3ebc8dc4	0.3682691
60	0x3db6e998	0.08931273
61	0x3f2b65c1	0.6695214
62	0xc00fed58	-2.2488613
63	0xbe7763df	-0.24159192
64	0xbcf56929	-0.02995737
65	0xbe0ae438	-0.13563621
66	0xbee84406	-0.45364398
67	0x3eb048d8	0.34430575
68	0xbdda2a6b	-0.10652622
69	0xbf33da24	-0.7025473
70	0x3ee41350	0.44545984
71	0x3e0d76d6	0.13814864
72	0x3efdff13	0.4960867
73	0xbebbe053	-0.36694583
74	0x3e4fb6bc	0.20284551
75	0xbf653ed5	-0.89549
76	0x3d55a6b0	0.05216092
77	0x3e504518	0.20338857
78	0xbd02a21a	-0.031892873
79	0xbbbb8fef	-0.0057239453
80	0x3e9cdac1	0.30635646
81	0xbf218fc1	-0.63109976
82	0x3f216f7b	0.6306073
83	0x3e210f8f	0.15728591
84	0x3e43ae08	0.19109356
85	0x3e28e5ad	0.16493864
86	0xbf81e9a4	-1.0149426
87	0x3f03ced0	0.51487446
88	0x3e2711eb	0.16315429
89	0x3f37a53c	0.717365
90	0x3e711675	0.23543723
91	0xbe858483	-0.2607766
92	0x3ee6be55	0.45067087
93	0xbe1ce569	-0.15321888
94	0x3d60f503	0.05492116
95	0xbf203f9c	-0.6259706
96	0xbe90a7c5	-0.28252998
97	0xbc7916fe	-0.015203236
98	0x3ee30e03	0.44346628
99	0x3f6ded55	0.92940265
100	0x3ef34882	0.47516257
101	0x3f2bc50f	0.6709756
102	0x3f2d8594	0.6778195
103	0xbef0131e	-0.46889585
104	0x3eb3e3bf	0.35134694
105	0xbf76129c	-0.96122146
106	0xbf40f700	-0.7537689
107	0xbf25269b	-0.6451203
108	0x3e330569	0.17482533
109	0x3e8f2efa	0.27965528
110	0xbe759b5e	-0.23985049
111	0xbf34ac6e	-0.70575607
112	0x3f6663bc	0.8999593
113	0x3ec1e725	0.37871662
114	0xbec9a45d	-0.39383212
115	0xbf658d33	-0.8966858
116	0xbef5d348	-0.48012757
117	0xbe6bd744	-0.23031336
118	0x3f813b13	1.0096153
119	0xbef3430d	-0.47512093
120	0x3e3a8af6	0.18217072
121	0x3eed4886	0.46344393
122	0xbead23ea	-0.33816463
123	0x3e93428b	0.28761706
124	0xbdaeb1cd	-0.085300066
125	0x3f5aaca9	0.8541971
126	0xbe3900f0	-0.18066764
127	0xbf3f1d42	-0.7465402
128	0xbe94e323	-0.29079542
129	0x3e883e0e	0.26609844
130	0xbebd4db8	-0.36973357
131	0x3d8ad97f	0.06779765
132	0x3d5bfb21	0.053706292
133	0x3f86765b	1.0504869
134	0xbef753f9	-0.48306254
135	0xbd090907	-0.033455875
136	0xbe45b1a8	-0.19306052
137	0xbf88f983	-1.0701145
138	0xbfb6a34e	-1.4268587
139	0xbf157ed5	-0.58396655
140	0x3e1c5c05	0.15269478
141	0xbeed86d1	-0.4639192
142	0x3f069a72	0.52579415
143	0x3ede192e	0.43378586
144	0x3fd40f49	1.6567165
145	0x3f275e58	0.6537833
146	0x3fa399c0	1.2781296
147	0xbd7df452	-0.06200058
148	0xbd339bb1	-0.04384965
149	0xbeedac2e	-0.46420425
150	0x3f9dce69	1.2328616
151	0xbfb7c84f	-1.4358004
152	0x3f28d557	0.6595053
153	0xbea3dc43	-0.32003984
154	0x3f59d10c	0.85084605
155	0x3f0be78a	0.54650176
156	0xbfc6931b	-1.5513643
157	0x3f444996	0.76674783
158	0x3faecdb0	1.3656521
159	0x3f2578dc	0.6463754
160	0xbec2a413	-0.38015804
161	0x3fb912d8	1.4458876
162	0x3e0653ab	0.13117854
163	0x3e94771c	0.28997123
164	0xbf278dfb	-0.6545102
165	0x3eae5c16	0.3405463
166	0xbf4bd369	-0.7961946
167	0x3f66dcb2	0.90180504
168	0xbee368f1	-0.44416
169	0x3fc42671	1.5324231
170	0xbf20652a	-0.62654364
171	0x3db5ac01	0.08870698
172	0xbfa1e4c0	-1.2647934
173	0xbf7ac104	-0.9795077
174	0x3fb268be	1.3938215
175	0xbf24fb6d	-0.64446145
176	0xbf1417ad	-0.57848626
177	0xbf3e7023	-0.7438986
178	0xbfbbe3aa	-1.4678853
179	0xbe895f4e	-0.26830524
180	0xbeacb9bb	-0.3373545
181	0xbf5b0009	-0.8554693
182	0x3e4c06cb	0.19924466
183	0x3f4d9642	0.803074
184	0x3fc94662	1.5724604
185	0xbdbbe5f0	-0.091747165
186	0x3dce1669	0.10062868
187	0x3f122032	0.57080376
188	0xbf60df53	-0.87840766
189	0x3d49c24b	0.049257558
190	0xc00d4352	-2.207234
191	0xbe4071b3	-0.18793373
192	0x3f36d6a4	0.71421266
193	0x3f09a005	0.53759795
194	0x3f8180fe	1.011749
195	0xbee93221	-0.45546058
196	0x3c87a1a1	0.016556563
197	0xbecdae1e	-0.40171903
198	0xbed9d374	-0.42544138
199	0x3ed5fec4	0.41795933
200	0xbe52ab64	-0.20573193
201	0x3db201f3	0.08691778
202	0xbe871473	-0.2638279
203	0xbe65c427	-0.22438107
204	0x3e984111	0.29737142
205	0xbefac867	-0.4898102
206	0x3fe4a061	1.7861444
207	0x3f96b654	1.1774392
208	0x3f664889	0.8995443
209	0xbe9c1158	-0.30481982
210	0x3e0cb018	0.1373905
211	0x3deb6a9c	0.114949435
212	0xbde4b7f2	-0.11167897
213	0x3e8bafea	0.2728265
214	0x3f66c607	0.90145916
215	0x3e4b68a5	0.19864137
216	0x3f05e7db	0.5230691
217	0x3fee0fc2	1.8598559
218	0xbd0f3f08	-0.03497222
219	0x3e47e76a	0.19521871
220	0x3f01c464	0.50690293
221	0xbff29656	-1.8952129
222	0xbf08cfce	-0.53442085
223	0xbf29db2b	-0.6635005
224	0xbfb0d4ec	-1.3814979
225	0xbf00a6aa	-0.5025431
226	0x3f42c37a	0.76079524
227	0x3f66fa39	0.9022556
228	0xbd3faeee	-0.046797685
229	0x3f6e3e5b	0.93063897
230	0x3d8171f7	0.06320565
231	0x3f03bf7b	0.5146405
232	0xbe1baf7b	-0.15203659
233	0x3f6bfa69	0.9217897
234	0x3f90e153	1.1318763
235	0xbf511dd4	-0.8168614
236	0x3f9ae881	1.2102205
237	0x3d2f888b	0.042854827
238	0xbe397d48	-0.18114197
239	0xbe9d0df7	-0.30674717
240	0x3f0caf35	0.54954845
241	0x3f667fbe	0.9003867
242	0xbeb134de	-0.34610647
243	0xbe3c0c6e	-0.18364117
244	0x3f55951e	0.8343066
245	0x3d9cd80d	0.07658396
246	0x3eaf5889	0.34247234
247	0x3ff065a4	1.8781018
248	0x3f137a05	0.5760806
249	0x3fc2a14b	1.5205473
250	0xbee3724f	-0.44423148
251	0x3f30c2ef	0.69047445
252	0x3ef145bb	0.47123513
253	0x3f25096e	0.64467514
254	0xbe291f33	-0.16515808
255	0xbf4aa880	-0.7916336

network_body.observation_encoder.processors.0.normalizer.running_mean f4 [13]
0	0x440cab0d	562.67267
1	0x439ff16a	319.88605
2	0x4339ce27	185.80528
3	0x442d7808	693.8755
4	0x00000000	0.0
5	0x43f61490	492.16064
6	0x435348a5	211.28377
7	0x43a3cbe3	327.59286
8	0x43b02f79	352.37088
9	0x435eaf83	222.6856
10	0x430a5556	138.33334
11	0x43139a1e	147.60202
12	0x42d08c94	104.27457
