results/FunnelAgent/My Behavior/My Behavior-9499976.pt (torch, 477743 bytes, 57 tensors)

discrete_act_size_vector f4 [1, 2]
0	0x40400000	3.0
1	0x40400000	3.0

network_body.observation_encoder.processors.0.normalizer.running_mean f4 [13]
0	0x440c6a31	561.65924
1	0x439ef343	317.90048
2	0x43397615	185.46126
3	0x442e18e8	696.38916
4	0x00000000	0.0
5	0x43f5a921	491.32132
6	0x435281b2	210.50662
7	0x43a3bb70	327.46436
8	0x43aff92e	351.94672
9	0x4362344d	226.2043
10	0x430bb23a	139.6962
11	0x4312ffa0	146.99854
12	0x42d0745f	104.22729

network_body.observation_encoder.processors.0.normalizer.running_variance f4 [13]
0	0x53d48aca	1.8257231e+12
1	0x53128242	6.292506e+11
2	0x51f4e893	1.3148425e+11
3	0x53cc3b58	1.7543379e+12
4	0x3f800000	1.0
5	0x533e26ef	8.16697e+11
6	0x524c6b4f	2.1949342e+11
7	0x53607084	9.639604e+11
8	0x5352cade	9.053467e+11
9	0x51efe6ae	1.2879592e+11
10	0x520c3549	1.5054735e+11
11	0x522eb5c7	1.875935e+11
12	0x5221e609	1.7383727e+11

network_body.processors.0.normalizer.running_mean f4 [13]
0	0x440c6a31	561.65924
1	0x439ef343	317.90048
2	0x43397615	185.46126
3	0x442e18e8	696.38916
4	0x00000000	0.0
5	0x43f5a921	491.32132
6	0x435281b2	210.50662
7	0x43a3bb70	327.46436
8	0x43aff92e	351.94672
9	0x4362344d	226.2043
10	0x430bb23a	139.6962
11	0x4312ffa0	146.99854
12	0x42d0745f	104.22729

network_body.processors.0.normalizer.running_variance f4 [13]
0	0x53d48aca	1.8257231e+12
1	0x53128242	6.292506e+11
2	0x51f4e893	1.3148425e+11
3	0x53cc3b58	1.7543379e+12
4	0x3f800000	1.0
5	0x533e26ef	8.16697e+11
6	0x524c6b4f	2.1949342e+11
7	0x53607084	9.639604e+11
8	0x5352cade	9.053467e+11
9	0x51efe6ae	1.2879592e+11
10	0x520c3549	1.5054735e+11
11	0x522eb5c7	1.875935e+11
12	0x5221e609	1.7383727e+11

network_body._body_endoder.seq_layers.0.weight f4 [128, 13]
0	0x3bc60c29	0.00604393
1	0xbe154772	-0.14578035
2	0x3dab6a57	0.08369892
3	0x3df9d94b	0.121996485
4	0x3ea11486	0.3146097
5	0xbeacdeb7	-0.33763668
6	0x3e0ab86b	0.13546912
7	0x3e8d634a	0.27614814
8	0x3e25278e	0.1612837
9	0xbf0b5ec7	-0.54441494
10	0x3e759fc5	0.23986728
11	0x3e2e8c10	0.17045617
12	0x3de8a8a7	0.11360293
13	0xbe86feec	-0.26366365
14	0xbec03422	-0.37539774
15	0x3ef009c7	0.4688246
16	0x3d7dfcd0	0.06200868
17	0xbde3bb12	-0.11119665
18	0x3da80036	0.08203165
19	0x3d7ea0ba	0.062165
20	0xbef2f182	-0.4744988
21	0xbeb396be	-0.35075945
22	0xbc5245d8	-0.012834035
23	0x3ea8bb7c	0.3295554
24	0xbdbc9d6a	-0.09209712
25	0x3ee32d24	0.44370377
26	0xbec58be6	-0.38583297
27	0x3e1e5945	0.15463741
28	0xbd4ff2f2	-0.0507688
29	0x3e445e4b	0.19176595
30	0x3813b908	3.5219855e-05
31	0xbf0101fd	-0.5039366
32	0x3d300ba0	0.042979836
33	0xbdfd6b8e	-0.1237403
34	0x3d85dfe7	0.065368466
35	0xbf587aa8	-0.8456216
36	0x3e66eda9	0.22551598
37	0x3ceca410	0.028886825
38	0x3e0f61ff	0.14002226
39	0xbf417b9f	-0.75579256
40	0xbf6378a3	-0.8885595
41	0xbf7f6add	-0.99772435
42	0xbf8761d1	-1.0576726
43	0x3e1f52b0	0.15558887
44	0x3fe8a95a	1.8176682
45	0x3d414494	0.04718454
46	0xc0045442	-2.0676427
47	0xbfae1d27	-1.3602647
48	0x3f8172bb	1.0113138
49	0x3bfcd39b	0.007715655
50	0xbf669cd4	-0.9008305
51	0xbfb84350	-1.4395542
52	0xbeb77466	-0.35830992
53	0x3de5b51e	0.11216186
54	0xbcaf423f	-0.021393893
55	0x3e053a62	0.13010553
56	0xbd79cb67	-0.060984995
57	0xbdc3d5f8	-0.09562296
58	0xbe3917ea	-0.18075529
59	0x3ee91260	0.45521832
60	0x3e45ced3	0.19317178
61	0xbe8338d7	-0.25629303
62	0x3efc76ff	0.49309537
63	0xbd5ca321	-0.05386651
64	0x3e9a440f	0.3013005
65	0xbdce2731	-0.10066069
66	0x3ef2a416	0.47390813
67	0xbf7fa3d7	-0.99859375
68	0xbe933728	-0.28753018
69	0x3e3508e5	0.17679174
70	0x3e1ad8ea	0.15121809
71	0x3f293dd4	0.6610997
72	0xbea60aa5	-0.32429996
73	0x3fa2e8c9	1.272729
74	0x3d0d6d64	0.03452815
75	0xbe353c2a	-0.17698732
76	0x3d9a23bf	0.07526349
77	0xbf2e879c	-0.68175673
78	0x3cad8340	0.021180749
79	0xbe4096b8	-0.18807495
80	0x3ea93cfd	0.33054343
81	0x3e63478d	0.22195263
82	0x3ec83d9e	0.3910951
83	0x3e4400db	0.19140951
84	0xba841db7	-0.0010079656
85	0x3eab377b	0.33440766
86	0x3e994e3c	0.299425
87	0xbc43318f	-0.011913671
88	0xbe9c7382	-0.30556875
89	0x3d348341	0.044070486
90	0xbe6f6ca3	-0.23381285
91	0xbbfa2d53	-0.0076347976
92	0x3c8b8fa8	0.017036274
93	0xbeed6e02	-0.46372992
94	0x3d06efb5	0.032943446
95	0x3ef2b836	0.47406167
96	0x3d454745	0.04816367
97	0x3e0b178f	0.13583206
98	0xbe2a49f6	-0.16629776
99	0xbeada320	-0.33913517
100	0x3f2f589b	0.68494576
101	0xbecffb07	-0.40621206
102	0xbeb7179c	-0.357602
103	0xbf2ffc73	-0.6874458
104	0xbe883c4e	-0.2660851
105	0x3e1985f0	0.149925
106	0xbe3bed78	-0.18352306
107	0x3ca062c9	0.019578354
108	0xbede630d	-0.43434945
109	0x3df42470	0.119210124
110	0xbe69505e	-0.22784564
111	0x3da060ca	0.07830961
112	0x3e13a7a3	0.14419417
113	0x3ddeaf52	0.108732834
114	0x3e062fc0	0.13104153
115	0x3d3e4d8c	0.046460673
116	0xbb871bec	-0.0041232016
117	0xbf0edeb3	-0.5580856
118	0x3bf63c6b	0.0075145266
119	0x3e0b38bf	0.13595866
120	0x3e9a9196	0.30189198
121	0x3e743540	0.23848438
122	0x3eac3630	0.33635092
123	0x3ecc2004	0.39868176
124	0xbe9e5030	-0.30920553
125	0xbdbd9bdc	-0.092582434
126	0xbf4d3924	-0.80165315
127	0x3f317fc6	0.6933559
128	0xbe07b739	-0.13253488
129	0xbe8cd7df	-0.27508447
130	0xbe6c594c	-0.23080939
131	0x3ddd8931	0.10817183
132	0x3f457645	0.7713359
133	0x3f2183e1	0.63091856
134	0x3e844f04	0.25841534
135	0xbf2c77f8	-0.6737056
136	0xbfc7961a	-1.5592682
137	0xbfc3e271	-1.530348
138	0xbf64706c	-0.8923404
139	0xbfb31cdb	-1.3993181
140	0x40116f6c	2.2724257
141	0x3fa53687	1.2907265
142	0xbeaf2b97	-0.34212944
143	0x3f68dfa5	0.90966254
144	0xbe598d1c	-0.21245235
145	0xbf479e3e	-0.77975833
146	0x3f3a6bc4	0.7282069
147	0x3ef289bc	0.47370708
148	0xbf1f177e	-0.6214522
149	0xbf097f52	-0.537099
150	0x3e2712f0	0.16315818
151	0x3e211b92	0.15733173
152	0xbf7c7dbc	-0.98629355
153	0xbec6e861	-0.38849166
154	0xbf2c52d6	-0.673139
155	0xbed9384a	-0.42425758
156	0xbe80aabf	-0.2513027
157	0xbebc5260	-0.36781597
158	0xbe944831	-0.28961328
159	0x3d081fb5	0.033233363
160	0xbe58e49e	-0.2118096
161	0x3eb3b86a	0.35101634
162	0x3eafd890	0.34344912
163	0xbe22c2eb	-0.15894668
164	0xbe85ca64	-0.26130974
165	0xbf542a23	-0.82876796
166	0x3e633692	0.22188786
167	0x3daafe93	0.083493374
168	0xbd14a00e	-0.036285453
169	0xbe8d1a94	-0.2755934
170	0xbdcb4eff	-0.09927177
171	0xbe7ac1fb	-0.2448806
172	0xbcdc3ac0	-0.026883483
173	0xbd59e9e9	-0.05320159
174	0x3be684bf	0.0070348675
175	0xbe0d5d2d	-0.13805075
176	0xbe96a628	-0.29423642
177	0xbed7d8c0	-0.42157555
178	0xbfa98201	-1.3242799
179	0x3f1ac06d	0.6044987
180	0xbe285e39	-0.16442193
181	0x3db5fd6a	0.088862255
182	0xbeabcd07	-0.3355486
183	0xbe9e704c	-0.3094505
184	0x3e5857db	0.21127264
185	0x3e7df32c	0.24799794
186	0x3e4172eb	0.18891494
187	0xbf2bbdd6	-0.6708654
188	0x3dbba1f3	0.09161749
189	0x3da3aebb	0.079923116
190	0x3c946c70	0.018118113
191	0x3f29ceec	0.6633136
192	0x3e6f1835	0.23349078
193	0xbf109dd9	-0.56490856
194	0x3e1e3709	0.15450682
195	0x3e86f486	0.26358432
196	0x3f1fecd9	0.62470776
197	0xbecdaf52	-0.4017282
198	0x3f59ecb5	0.8512681
199	0x3e4cc486	0.19996843
200	0x3dbbfe19	0.09179325
201	0x3f73d8ca	0.9525267
202	0xbee13537	-0.43985912
203	0x3f1f4ad7	0.6222357
204	0xbe54271e	-0.20718047
205	0xbf042688	-0.51621294
206	0xbea0d022	-0.31408793
207	0xbe8cf283	-0.27528772
208	0xbe86b7f4	-0.2631222
209	0xbe0d8ec4	-0.13823992
210	0x3da53d09	0.08068282
211	0xbf5b0ed2	-0.8556949
212	0xbe54f9fe	-0.2079849
213	0x3e9b86f7	0.30376408
214	0x3ca0445c	0.019563846
215	0x3ec55133	0.38538513
216	0xbf34ad35	-0.7057679
217	0xbf858462	-1.0431025
218	0xbf007460	-0.50177574
219	0x3c4e54c3	0.012593451
220	0xbf6ae63d	-0.91757566
221	0xbf14edd6	-0.5817541
222	0xbef06711	-0.46953633
223	0x3e83e67a	0.25761777
224	0xbdb965f3	-0.090526484
225	0xbe3afa7c	-0.18259615
226	0x3ea4cba7	0.32186624
227	0x3e1495a3	0.14510207
228	0x3eadd11a	0.33948594
229	0x3e155422	0.14582875
230	0xbf2f2ce4	-0.6842787
231	0x3dd7911c	0.10525724
232	0x3e19a0c7	0.15002738
233	0xbfab50dc	-1.3384051
234	0x3eb71197	0.35755607
235	0xbeb78913	-0.35846767
236	0x3da7b749	0.08189256
237	0xbf4696bd	-0.7757376
238	0xbcc44b30	-0.023961633
239	0x3ede4c71	0.43417695
240	0x3ddfe1a7	0.10931712
241	0xbe05d427	-0.13069211
242	0xbe9055db	-0.28190503
243	0xbf6c01fe	-0.9219054
244	0xbf55b724	-0.83482575
245	0x3ee43158	0.44568896
246	0xbf1f7e02	-0.6230165
247	0xbe405351	-0.18781783
248	0xbe85ac2a	-0.26107913
249	0xbd11f85a	-0.035637237
250	0x3dc1da07	0.094654135
251	0x3ecc24d4	0.39871848
252	0xbee18787	-0.44048712
253	0xbd3d2c07	-0.046184566
254	0x3e698ccb	0.22807615
255	0x3d845db1	0.06463183

network_body._body_endoder.seq_layers.0.bias f4 [128]
0	0xbfa30c3e	-1.2738111
1	0xbfd962d9	-1.6983291
2	0xbf709ea2	-0.93992054
3	0x3fb8a6d8	1.4425917
4	0xbf5cad6b	-0.86202115
5	0xc0071886	-2.1108718
6	0xbf0bddf9	-0.5463558
7	0x3f388aab	0.7208659
8	0xbee8b444	-0.45450032
9	0xbff22357	-1.8917035
10	0xbf55715a	-0.83376086
11	0xc00a750a	-2.1633935
12	0xbf9d8ead	-1.2309166
13	0xbf8fc79a	-1.1232789
14	0xbfaa5708	-1.330781
15	0xbe8bb810	-0.27288866
16	0xc0298338	-2.648634
17	0xc01acb2a	-2.4186502
18	0xc022df6b	-2.5448864
19	0xbf8d9aac	-1.1062827
20	0xc02028df	-2.5024946
21	0xbec9f4de	-0.3944463
22	0xbff2f9e9	-1.8982517
23	0xbdb2b012	-0.08724989
24	0xc0155f25	-2.3339322
25	0xbf9a90a6	-1.2075393
26	0xc002726d	-2.038234
27	0xbfe3ed81	-1.7806855
28	0x3ed13397	0.40859672
29	0xc04a8c11	-3.164799
30	0xbfc32e47	-1.5248498
31	0xbfa15346	-1.2603538
32	0xbe2aadfe	-0.16667935
33	0xc022297a	-2.5337815
34	0xbfde3348	-1.73594
35	0xbef2e06a	-0.4743684
36	0xbf88cb31	-1.0687009
37	0xc02f0157	-2.7344568
38	0xbf6eec17	-0.93328995
39	0xc003e2a7	-2.0607088
40	0xbfa0d889	-1.2566081
41	0xc0400d1e	-3.0008006
42	0xbef5a5b6	-0.4797799
43	0xbf872307	-1.0557564
44	0xc0008162	-2.007897
45	0xbfb594da	-1.4186051
46	0xc002dc86	-2.0447097
47	0xbf49325f	-0.78592485
48	0xbfd4ef0c	-1.6635451
49	0xbf6835d9	-0.90707165
50	0xbf91e935	-1.1399294
51	0xbe6a50fa	-0.22882453
52	0xbf9cbb25	-1.2244612
53	0xc06e6c49	-3.7253592
54	0xbf962de8	-1.173276
55	0x3ea8ad1e	0.32944578
56	0xc014f8f8	-2.3276958
57	0xbf17bdd7	-0.5927405
58	0xbe599a8f	-0.21250366
59	0xbfc3f39a	-1.5308716
60	0xbd08bee9	-0.03338519
61	0xc0065fe1	-2.099602
62	0x3f7d25d3	0.9888584
63	0xbf293b4a	-0.6610609
64	0xc03e19e8	-2.9703312
65	0xc00803b6	-2.1252265
66	0xbf046dc0	-0.51729965
67	0xbf11de18	-0.56979513
68	0xbef0ff3e	-0.47069734
69	0xc01c315a	-2.4405122
70	0xbf633c56	-0.8876394
71	0xbfe7a457	-1.8097028
72	0xbf5cb1ef	-0.86209005
73	0x3c55739d	0.013028053
74	0xbfbd1d68	-1.4774599
75	0xbf94a52d	-1.1612908
76	0xbfe46b11	-1.7845174
77	0x3b9e4383	0.0048298254
78	0xc00e863e	-2.2269435
79	0xc00a6fc7	-2.1630723
80	0x3e0c9fdb	0.13732855
81	0xbfc770fb	-1.5581354
82	0xbec648ef	-0.3872752
83	0xbf40b70e	-0.7527932
84	0xbfa981ea	-1.3242772
85	0xbf559070	-0.8342352
86	0xbfddf0fd	-1.7339169
87	0xbf250962	-0.6446744
88	0xbfe4aebc	-1.7865825
89	0xbfcf3f2b	-1.6191152
90	0xbd522f12	-0.05131442
91	0xbf00a793	-0.502557
92	0xbfdce97c	-1.7258754
93	0xbf94012b	-1.1562856
94	0xbf056e86	-0.5212177
95	0xbf42d04c	-0.76099086
96	0xbf7468ab	-0.9547221
97	0xbf00b0d4	-0.5026982
98	0xc0547d81	-3.3201602
99	0xc02c9efc	-2.6972036
100	0xbf9b4d87	-1.2133034
101	0xbfd8154f	-1.6881503
102	0xbe558c7c	-0.20854372
103	0xbec3b334	-0.3822266
104	0xbfa358b7	-1.2761449
105	0xbfbb2cfd	-1.4623104
106	0xc05f8693	-3.4925888
107	0xbf2e1c06	-0.6801151
108	0xbfd3262a	-1.6496022
109	0xbfd466ef	-1.6593913
110	0x3df47327	0.11936026
111	0xbf3de5d6	-0.74178827
112	0xc0188cb5	-2.383588
113	0xc00eea72	-2.2330594
114	0xbffc5c07	-1.9715585
115	0xc02158b0	-2.521038
116	0xbfbc8f40	-1.4731216
117	0xbf01be0a	-0.506806
118	0xbed1dbfa	-0.4098814
119	0xc0296dbc	-2.6473227
120	0x3ebbbaec	0.36666048
121	0xc0147205	-2.3194592
122	0xbf54f1ac	-0.8318126
123	0xc01565da	-2.3343415
124	0xbe890fdb	-0.2676991
125	0xc0102bf8	-2.2526836
126	0xc03a5591	-2.9114726
127	0xbfb088ac	-1.3791709

network_body._body_endoder.seq_layers.2.weight f4 [128, 128]
0	0x3e8c9fa4	0.27465546
1	0xbe077963	-0.13229899
2	0xbdd8a221	-0.10577799
3	0x3f85cc5e	1.0452993
4	0xbd2e3080	-0.042526722
5	0x3ebca0e0	0.36841488
6	0x3f26a6c3	0.6509821
7	0x3e385bf0	0.18003821
8	0x3e77416d	0.24146052
9	0xbf478e94	-0.7795193
10	0xc03bb893	-2.9331405
11	0xbf73c9d5	-0.95229846
12	0x3d3ae9cf	0.045633134
13	0xbe89f846	-0.2694723
14	0xbe642139	-0.22278298
15	0x3e99a853	0.30011234
16	0x3dddcbe8	0.10829908
17	0x3f3b9eee	0.7328938
18	0x3f17f556	0.5935873
19	0x3ef52e3c	0.47886837
20	0x3ea48346	0.32131404
21	0xbe125dc2	-0.14293578
22	0xbf5bbbca	-0.8583342
23	0xbf2e58c1	-0.6810418
24	0xbd8d175b	-0.0688922
25	0xbe3c527a	-0.18390837
26	0x3f16da27	0.58926624
27	0xbd1f1c5a	-0.038845398
28	0x3f04e0a9	0.51905304
29	0xbfb4aee1	-1.4115869
30	0x3f91ed1c	1.1400485
31	0xbf60480d	-0.8760994
32	0xbbf4a2c3	-0.007465692
33	0x3ea9ba5a	0.33149987
34	0x3e75ea1a	0.24015084
35	0x3d2a702c	0.04161088
36	0xbe7967eb	-0.24356048
37	0xbf20654c	-0.62654567
38	0x3f058536	0.5215639
39	0x3f2ddffb	0.6791989
40	0xbe1d3ea5	-0.15355928
41	0xbe70e813	-0.2352603
42	0x3ee6cb19	0.45076826
43	0x3bdc8dc3	0.0067307665
44	0xbf5cef4f	-0.86302656
45	0xbfb1708b	-1.386247
46	0x3f6e8a8e	0.9318017
47	0xbea0e6f5	-0.31426206
48	0xbf15551f	-0.5833301
49	0xbeedeb9a	-0.46468812
50	0xbd223895	-0.039604742
51	0x3eb01ca9	0.34396866
52	0x3ea9ecbf	0.33188435
53	0x3cbf2f71	0.023338052
54	0xbb6f82d1	-0.0036546479
55	0x3eab5283	0.3346139
56	0x3e6beff2	0.2304075
57	0xbe73d054	-0.2380994
58	0xbf108b1b	-0.5646226
59	0x3e963f95	0.29345384
60	0x3d9f546d	0.07779775
61	0x3f2500ac	0.6445415
62	0xc00dc438	-2.2151012
63	0xbe906d28	-0.2820828
64	0xbde2d577	-0.110758714
65	0xbe30bcdd	-0.17259546
66	0xbed71c46	-0.42013758
67	0x3e957920	0.29193974
68	0xbdfab777	-0.122420244
69	0xbf437372	-0.7634803
70	0x3f00cb8d	0.50310594
71	0x3d225571	0.039632265
72	0x3eef47f1	0.46734574
73	0xbead9c6b	-0.339084
74	0x3e221837	0.1582955
75	0xbf6d6bcd	-0.92742616
76	0x3d559641	0.052145246
77	0x3e778f8f	0.24175857
78	0xbdbd29f4	-0.092365175
79	0xbd73e591	-0.059545103
80	0x3eaffe9a	0.34373933
81	0xbf2907e1	-0.6602765
82	0x3f1582e7	0.58402866
83	0x3e020731	0.12698056
84	0x3e1eb47d	0.15498538
85	0x3e055207	0.13019572
86	0xbf891e54	-1.071238
87	0x3ed4b06d	0.41540852
88	0x3dba1ba5	0.09087304
89	0x3f2c44c0	0.67292404
90	0x3e61bb29	0.22044052
91	0xbe9c0621	-0.30473426
92	0x3eccc10a	0.39991027
93	0xbe4ea7a8	-0.20181143
94	0x3c53b26b	0.012920956
95	0xbf118459	-0.5684257
96	0xbea0ce36	-0.31407326
97	0xbd116c89	-0.035503898
98	0x3ed456a7	0.4147236
99	0x3f5a6be9	0.8532091
100	0x3edc446e	0.43020958
101	0x3f238e17	0.63888687
102	0x3f33b583	0.7019884
103	0xbeec7d5f	-0.461894
104	0x3eaaf4db	0.33389935
105	0xbf8bb171	-1.0913526
106	0xbf5325d3	-0.8247959
107	0xbf2d3220	-0.6765461
108	0x3e0feb2f	0.14054559
109	0x3e76f851	0.24118163
110	0xbe89499e	-0.26813978
111	0xbf28f5dd	-0.6600016
112	0x3f59f1b3	0.8513443
113	0x3eae04a1	0.33987907
114	0xbeea016c	-0.4570421
115	0xbf72c907	-0.94837993
116	0xbf08b100	-0.5339508
117	0xbe6f1598	-0.23348081
118	0x3f75e72c	0.96055865
119	0xbf08cafc	-0.5343473
120	0x3e2a8f6e	0.16656277
121	0x3ed6cd1d	0.41953364
122	0xbeb4b4b0	-0.35294104
123	0x3e57f4e6	0.21089515
124	0xbe3e4d89	-0.18584265
125	0x3f521189	0.82058007
126	0xbe4742c6	-0.19459066
127	0xbf43ef78	-0.76537275
128	0xbe99b397	-0.3001983
129	0x3e74876c	0.23879784
130	0xbebb2e4a	-0.36558753
131	0xbd02aae0	-0.03190124
132	0xbd16e3a6	-0.036838196
133	0x3f79d939	0.9759708
134	0xbf02c0df	-0.5107555
135	0x3c34327b	0.010998364
136	0xbe64fa52	-0.22361115
137	0xbf8ab6ef	-1.0837077
138	0xbfbbb6a9	-1.4665118
139	0xbf2d2497	-0.67633957
140	0x3dea6364	0.114447385
141	0xbef3f064	-0.4764434
142	0x3f00571d	0.50132924
143	0x3f0d444b	0.5518233
144	0x3fceed1e	1.6166112
145	0x3f24ba15	0.6434644
146	0x3f9ecde3	1.2406582
147	0xbd6866d2	-0.056738682
148	0xbcb7de58	-0.022444889
149	0xbedeb2de	-0.4349584
150	0x3f9d7e6f	1.230421
151	0xbfb72e96	-1.4311092
152	0x3f273c2a	0.6532618
153	0xbeb55fba	-0.35424596
154	0x3f68ddec	0.90963626
155	0x3ec64b49	0.38729313
156	0xbfe36ca4	-1.776753
157	0x3f452cff	0.77021784
158	0x3fb3a775	1.4035479
159	0x3f29430c	0.6611793
160	0xbe82e430	-0.25564718
161	0x3fb46992	1.4094718
162	0x3dfc0fb9	0.12307686
163	0x3ec2dcb5	0.3805901
164	0xbf291dc3	-0.6606104
165	0x3eb98343	0.36232957
166	0xbf4d29ea	-0.8014208
167	0x3f56a46d	0.83844644
168	0xbef53eac	-0.47899377
169	0x3fd41b24	1.6570783
170	0xbefca133	-0.49341735
171	0x3d886b97	0.06661146
172	0xbfa2ef25	-1.2729231
173	0xbf7a18db	-0.97694176
174	0x3fb7df30	1.4364986
175	0xbf236e14	-0.6383984
176	0xbf05782d	-0.521365
177	0xbf402286	-0.7505268
178	0xbfbb44bd	-1.4630352
179	0xbe415821	-0.18881275
180	0xbeaf54a5	-0.34244266
181	0xbf7076ad	-0.93931085
182	0x3d4d0e2c	0.050062343
183	0x3f4235a2	0.7586309
184	0x3fc3173f	1.5241469
185	0xbe7cd2ef	-0.2468984
186	0x3d36ad03	0.04459859
187	0x3f141672	0.5784675
188	0xbf44efae	-0.7692822
189	0x3c6bb8d0	0.014387324
190	0xc012e77d	-2.295379
191	0xbe5db61e	-0.21651503
192	0x3f451813	0.7698986
193	0x3f013da7	0.504847
194	0x3f71cd88	0.9445424
195	0xbeb87bfe	-0.360321
196	0xbaa43f88	-0.0012531141
197	0xbec08ab7	-0.3760583
198	0xbf054123	-0.52052516
199	0x3ef21f81	0.4728966
200	0xbdc48279	-0.09595198
201	0xbd1a37fb	-0.037651043
202	0xbe822d25	-0.25425068
203	0xbe74823c	-0.23877805
204	0x3e814429	0.25247315
205	0xbf15fa88	-0.58585405
206	0x3fe92b0f	1.8216265
207	0x3f967622	1.1754801
208	0x3f70b692	0.9402858
209	0xbe9f4f14	-0.3111502
210	0x3df9aaae	0.12190758
211	0x3da18fbf	0.078887455
212	0xbe14e218	-0.14539373
213	0x3e7d3360	0.2472663
214	0x3f6cb301	0.9246064
215	0x3e88c243	0.2671071
216	0x3f17872c	0.5919063
217	0x3fedef32	1.8588622
218	0x3d08c519	0.033391092
219	0x3e21673a	0.15762034
220	0x3f052b19	0.52018887
221	0xbff146d8	-1.8849745
222	0xbebc75cd	-0.36808625
223	0xbf4bd034	-0.7961457
224	0xbfb0d525	-1.3815047
225	0xbf074fb1	-0.52855974
226	0x3f370a5a	0.7150017
227	0x3f73e754	0.95274854
228	0x3e3137f2	0.17306498
229	0x3f6a2c31	0.9147368
230	0x3de975c4	0.11399415
231	0x3ecdfc91	0.40231755
232	0xbe12bc70	-0.14329696
233	0x3f6f5d13	0.93501395
234	0x3f8e9c5e	1.114147
235	0xbf4b9ef7	-0.79539436
236	0x3f9b98bf	1.215599
237	0x3ce775c7	0.028254403
238	0xbe5c8da0	-0.215384
239	0xbe866199	-0.26246336
240	0x3f0cc235	0.54983836
241	0x3f5f10ba	0.871349
242	0xbe85691f	-0.26056764
243	0xbe2ed3a1	-0.17072918
244	0x3f52a159	0.82277447
245	0x3e0c0469	0.13673557
246	0x3ed798e5	0.42108837
247	0x3ff122fb	1.88388
248	0x3f225bad	0.63421136
249	0x3fc08ae9	1.5042392
250	0xbed48152	-0.41504914
251	0x3f4a7ff5	0.79101497
252	0x3f102d2a	0.56318915
253	0x3f1fba2f	0.6239347
254	0xbe6cd9e6	-0.23129997
255	0xbf58b5da	-0.84652483

network_body._body_endoder.seq_layers.2.bias f4 [128]
0	0xbfdd6faf	-1.7299708
1	0xbf93dcc8	-1.1551752
2	0xc006aebe	-2.1044154
3	0xbf0f232e	-0.55913055
4	0xbf73996a	-0.95155966
5	0x3ea5a5f3	0.32353172
6	0xbf5bb826	-0.85827863
7	0xbfeb12a6	-1.8365066
8	0xbf5cb781	-0.86217505
9	0xbf8799e3	-1.0593837
10	0xbfb665af	-1.4249781
11	0xbf2e92a1	-0.6819249
12	0xbfb62c08	-1.4232187
13	0xbf95106d	-1.1645638
14	0xbfc3e88d	-1.5305344
15	0xc01f539c	-2.489478
16	0xbf78368f	-0.9695825
17	0xbf8a1707	-1.0788277
18	0xbfb1b883	-1.3884434
19	0xbfe77bb6	-1.8084629
20	0xbf762ab4	-0.9615891
21	0xc00d1811	-2.204594
22	0xbfe0cf9e	-1.756336
23	0xbf07eb7e	-0.5309371
24	0xbfd1aa8a	-1.6380169
25	0xbff61820	-1.9226112
26	0xbfda67e3	-1.7062954
27	0xbfab532a	-1.3384755
28	0xc007b64b	-2.1205013
29	0xc0328559	-2.789389
30	0xbf289ee9	-0.6586748
31	0xbfb94ee7	-1.4477204
32	0xbfb6011d	-1.421909
33	0xc017e1f0	-2.3731651
34	0xbe658730	-0.22414851
35	0xbfc3d137	-1.5298222
36	0xbff3b2a1	-1.9038888
37	0xbf45d2b5	-0.7727464
38	0xbf757df3	-0.9589531
39	0xbfa32452	-1.2745459
40	0xbfa8eec4	-1.3197865
41	0xbf65a816	-0.89709604
42	0xc031c0a0	-2.777382
43	0xbf8e9062	-1.1137812
44	0xbea78d45	-0.32724968
45	0xbf1d3520	-0.6140919
46	0xbfac51e7	-1.3462495
47	0xbfa3b9bb	-1.2791055
48	0xc01ea26e	-2.478664
49	0xbfa210a7	-1.2661332
50	0xbf5b21e2	-0.85598576
51	0xc0117e45	-2.2733319
52	0xbf5a28c5	-0.8521846
53	0xbf6f533b	-0.93486375
54	0xbffc397d	-1.9705044
55	0xbf7837c5	-0.969601
56	0xbf2c496f	-0.6729955
57	0xbf7b17f0	-0.980834
58	0xbfb031f3	-1.3765243
59	0xbf31ee5e	-0.69504344
60	0xbfdd54bf	-1.7291487
61	0xbfc12ea9	-1.5092365
62	0xbfaaae40	-1.3334427
63	0xbfd419cf	-1.6570376
64	0xbffaf7fa	-1.9606926
65	0xc0151cf8	-2.329893
66	0xbf1a93c7	-0.6038174
67	0xbfc2319a	-1.5171387
68	0xbf5319a2	-0.8246099
69	0xbfca5570	-1.5807323
70	0xbf2ef57e	-0.6834334
71	0xbfb91405	-1.4459234
72	0xbf9296aa	-1.1452229
73	0xbfdfcc5a	-1.7484238
74	0xbf78063a	-0.968845
75	0xbf8945a4	-1.0724378
76	0xbed6afb3	-0.41930923
77	0xbedb5b55	-0.42843118
78	0xc00475db	-2.0696933
79	0xbfba3f8b	-1.4550642
80	0xbfdb6c94	-1.714251
81	0xbfe84001	-1.8144532
82	0xbfb05549	-1.3776027
83	0xbfdcf6ad	-1.726278
84	0xc01f43f9	-2.4885237
85	0xbf8feed6	-1.1244762
86	0xbf47f51c	-0.7810838
87	0xbfbebc7a	-1.4901268
88	0xbefae5a5	-0.4900333
89	0xbfb69639	-1.4264594
90	0xc044d3d7	-3.0754297
91	0xc020f4d3	-2.514943
92	0xbf2c79d0	-0.6737337
93	0xc00d1920	-2.2046585
94	0xbee1f5d7	-0.44132873
95	0xbf32b29e	-0.698038
96	0xbf4a71d4	-0.7907994
97	0xc08c48a2	-4.3838663
98	0xc023c356	-2.5587974
99	0xbf86852d	-1.0509392
100	0xbf9fa55a	-1.2472336
101	0xc011b31d	-2.2765572
102	0xbffecb80	-1.9905853
103	0xbf686be6	-0.9078964
104	0xbfa8e377	-1.3194417
105	0xbf97062e	-1.1798761
106	0xbfc0a17b	-1.504928
107	0xbffa0848	-1.9533777
108	0xbf9da188	-1.231492
109	0xbfb85e53	-1.4403785
110	0xbfab5801	-1.3386232
111	0xc0391e46	-2.8924727
112	0xc004824a	-2.0704522
113	0xbf8321a4	-1.0244641
114	0xc00c4910	-2.1919594
115	0xbfdcba09	-1.7244273
116	0xbfcb18ea	-1.5866978
117	0xbf9e5880	-1.2370758
118	0xbf31ed0e	-0.6950234
119	0xbf819dd2	-1.0126288
120	0xbf736892	-0.95081437
121	0xbecb04bc	-0.3965205
122	0xbf9063a1	-1.1280404
123	0xc01e03e7	-2.4689882
124	0xbf2f65be	-0.6851462
125	0xc01b2704	-2.4242563
126	0xbf18496a	-0.5948702
127	0xbf995832	-1.198004

action_model._continuous_distribution.log_sigma f4 [1, 2]
0	0xbfcff6da	-1.6247208
1	0xbfad10bb	-1.3520731

action_model._continuous_distribution.mu.weight f4 [2, 128]
0	0x3e0bdcc6	0.13658437
1	0x3e879409	0.2648013
2	0xbf1b0db0	-0.6056776
3	0xbd8ae384	-0.067816764
4	0xbedad441	-0.42740062
5	0x3cd5bdc8	0.026091471
6	0xbe68433b	-0.22681896
7	0x3fa86843	1.3156818
8	0xbeedee30	-0.46470785
9	0xbe50ec3e	-0.20402619
10	0x3dcbe436	0.09955637
11	0x3ddb1db2	0.10699023
12	0xbe8e580c	-0.2780155
13	0xbdff7533	-0.12473526
14	0xbc03c7f1	-0.008043275
15	0x3ebf3a3e	0.37349123
16	0xbe164b73	-0.14677219
17	0x3ea1afc6	0.31579417
18	0x397a08e1	0.00023845166
19	0x3a6e6f17	0.0009095533
20	0x3e0801c4	0.13281924
21	0x3eea5e2a	0.45774966
22	0x3cb81864	0.022472568
23	0xbf10d9d9	-0.5658241
24	0x3f1d4d91	0.6144648
25	0x3f0de75d	0.5543116
26	0xbf280bb5	-0.65642864
27	0x3eb0cc3e	0.34530824
28	0x3fd290fe	1.6450498
29	0x3db1273f	0.08650064
30	0x3d93c6e9	0.072156735
31	0x3dde7815	0.108627476
32	0xbf3c3608	-0.73519945
33	0x3e964382	0.2934838
34	0x3ecd9e04	0.4015962
35	0x3f392939	0.72328526
36	0xbd07e39e	-0.033176057
37	0x3e83f244	0.25770772
38	0xbe486240	-0.1956873
39	0xbe9c946d	-0.3058199
40	0x3d891d2e	0.06695019
41	0x3e8fb554	0.2806803
42	0x3f33168f	0.69956297
43	0xbd28bde5	-0.041196723
44	0x3e6dc5fa	0.23220053
45	0x3e021554	0.12703449
46	0x3e82d685	0.2555429
47	0xbd84401a	-0.06457539
48	0x3f191264	0.59793687
49	0xbd5e733c	-0.054309115
50	0x3c398dd3	0.011325317
51	0xbe545964	-0.20737225
52	0x3e2215ce	0.1582863
53	0x3d318409	0.04333881
54	0x3e88bbac	0.26705682
55	0xbe8183e8	-0.2529595
56	0xbe968926	-0.2940151
57	0x3e4b45e9	0.19850887
58	0x3ed8a8c8	0.4231627
59	0xbcf1aa2e	-0.029500093
60	0x3e8d10f9	0.27552012
61	0x3e8e539f	0.27798173
62	0x3d900421	0.070320375
63	0x3f7164c8	0.94294405
64	0x3e5529d6	0.2081674
65	0x3e3123d3	0.17298822
66	0x3d8c6eb2	0.06857051
67	0x3dfca4ba	0.123361066
68	0xbdf4b326	-0.11948232
69	0x3d63773d	0.055533636
70	0x3d97a373	0.07404222
71	0x3dd5862f	0.10425984
72	0x3f23ca08	0.6398015
73	0x3f5e5497	0.86847824
74	0x3f2220a2	0.63331044
75	0x3e8ccb28	0.27498746
76	0x3f060640	0.52353287
77	0xbf09bb20	-0.53801155
78	0xbe07da3a	-0.1326684
79	0x3dbc3b08	0.09190947
80	0xbe66b343	-0.2252932
81	0xbd1c7517	-0.038197603
82	0xbd762a80	-0.060099125
83	0x3efed840	0.4977436
84	0x3de72f53	0.11288323
85	0x3e8ef0e7	0.2791817
86	0xbe7b27c8	-0.24526894
87	0xbeb835e4	-0.35978615
88	0x3e1cdc9f	0.15318535
89	0x3f555b8e	0.83342826
90	0x3e851ccd	0.25998536
91	0x3edf81b6	0.4365365
92	0x3edc9002	0.4307862
93	0x3f7c2349	0.9849134
94	0xbe8a866d	-0.27055684
95	0x3e37534f	0.17902873
96	0x3ea10b5e	0.31453985
97	0x3dcbecca	0.09957273
98	0x3dfa5ccc	0.12224731
99	0xbe41c6f8	-0.18923557
100	0xbd2c1eab	-0.042021435
101	0xbe8f6021	-0.28003028
102	0x3dc54c56	0.096337005
103	0xbe325202	-0.17414096
104	0xbe495d1b	-0.19664423
105	0x3e5113e5	0.20417745
106	0x3eaa16e7	0.33220598
107	0x3dee6468	0.11640245
108	0x3cc2527c	0.023720972
109	0xbe84a402	-0.25906378
110	0xbc14416a	-0.009048799
111	0xbcb01341	-0.021493556
112	0xbe0eed05	-0.13957603
113	0x3f6f2ba2	0.93425953
114	0xbe838508	-0.25687432
115	0xbe568f90	-0.20953202
116	0x3e242bd7	0.16032349
117	0xbdb72757	-0.0894305
118	0xbd0c7c40	-0.03429818
119	0x3ed9f1c2	0.4256726
120	0x3f11faf6	0.5702356
121	0x3d1c60ee	0.038178377
122	0x3d9b281b	0.07576009
123	0x3d0df820	0.03466046
124	0x3f05dc48	0.5228925
125	0x3f1be303	0.6089327
126	0x3d639af6	0.055567704
127	0x3e76bed5	0.24096234
128	0x3e836e4d	0.2567009
129	0xbf7490ca	-0.9553343
130	0xbeeaf855	-0.45892587
131	0x3e41192b	0.18857257
132	0xbe48d056	-0.19610724
133	0xbdb37a09	-0.08763511
134	0xbe76ce47	-0.24102126
135	0xbf1898aa	-0.59607947
136	0xbe9dcdff	-0.30821225
137	0x3da99360	0.08280063
138	0x3f00cc50	0.50311756
139	0xbf1045c7	-0.5635647
140	0xbe0e6f9d	-0.13909765
141	0x3db7ef98	0.08981246
142	0xbd82eafa	-0.063924745
143	0xbf11e0f2	-0.56983864
144	0xbcfb332c	-0.03066405
145	0xbe30c422	-0.17262319
146	0xbe4e5dbb	-0.20152943
147	0x3e28a47a	0.16468993
148	0xbdc88c39	-0.0979237
149	0xbea28b93	-0.31747112
150	0xbe23db12	-0.16001537
151	0x3ea536ef	0.32268474
152	0xbe4f4179	-0.2023982
153	0xbf386d85	-0.72042114
154	0xbe673be9	-0.22581448
155	0x3ca7415a	0.020416904
156	0xbfb5f4df	-1.4215354
157	0x3d817203	0.06320574
158	0xbe876d78	-0.26450706
159	0x3fb0d421	1.3814737
160	0xbddc52f0	-0.107580066
161	0x3de3ae8f	0.11117279
162	0xbec9add5	-0.39390436
163	0xbf1423b2	-0.57866967
164	0x3ebebaa0	0.3725176
165	0xbeaa438a	-0.33254653
166	0xbeca7fc9	-0.39550617
167	0xbe9f90a7	-0.31165048
168	0xbecf23b3	-0.40456924
169	0xbe586fb6	-0.21136364
170	0xbe1f5ede	-0.15563533
171	0xbc9c5b3a	-0.019086469
172	0xbe92d3a6	-0.286771
173	0xbe9bc2f8	-0.30422187
174	0xbe2d5277	-0.16925989
175	0x3d6cd0f6	0.05781647
176	0xbe94e412	-0.29080254
177	0xbe5ef46d	-0.21772929
178	0xbe564063	-0.20922999
179	0xbd5c21bc	-0.05374311
180	0xbdb0c7f3	-0.08631887
181	0xbdc23561	-0.094828375
182	0x3f259ebc	0.64695334
183	0xbeb8192d	-0.35956708
184	0xbf251f83	-0.6450121
185	0x3e1bc8cb	0.15213315
186	0xbe73b421	-0.23799182
187	0xbddfc854	-0.109268814
188	0xbf0bbf8f	-0.5458917
189	0xbe7c0eb7	-0.24614988
190	0x3e46ebbe	0.19425866
191	0xbf2c56fc	-0.6732023
192	0xbe72476f	-0.23660062
193	0xbe69f8bb	-0.2284879
194	0xbd81a3be	-0.063300595
195	0x3f561f0a	0.8364111
196	0xbdedb115	-0.11606041
197	0xbe6be1ea	-0.23035398
198	0xbed8e37a	-0.4236105
199	0x3e5e0b73	0.21684055
200	0x3e87abe2	0.26498324
201	0x3d97d65a	0.07413931
202	0xbf1f5d8f	-0.62252134
203	0xbed27d4e	-0.41111225
204	0xbe20a4a2	-0.15687802
205	0xbe917d74	-0.28416026
206	0xbcba756e	-0.022761073
207	0xbe414f78	-0.18877971
208	0x3eaf627d	0.34254828
209	0xbedf9caa	-0.43674213
210	0x3ed16fad	0.40905514
211	0x3cd2cd0a	0.025732536
212	0xbe46fd38	-0.19432533
213	0x3f366abc	0.71256614
214	0xbef0460c	-0.46928442
215	0xbf1e7ea1	-0.6191197
216	0xbe640f6a	-0.22271505
217	0x3e34e97f	0.17667197
218	0xbf11fcca	-0.5702635
219	0x3d1e3ac3	0.03863026
220	0xbe4b71a4	-0.19867569
221	0x3bd08a50	0.0063641444
222	0xbe1c921f	-0.15290116
223	0xbeff7894	-0.4989668
224	0xbf0dc87e	-0.5538405
225	0xbd5d6922	-0.05405534
226	0xbe6fb9cb	-0.23410718
227	0xbe84cd50	-0.2593789
228	0xbe22f5f0	-0.1591413
229	0xbf52635b	-0.82182854
230	0x3cd66cf4	0.026175
231	0xbebb2556	-0.36551923
232	0xbe9508e3	-0.29108343
233	0xbdce631c	-0.10077497
234	0xbdc9136d	-0.09818158
235	0x3e210f16	0.15728411
236	0xbf5754ca	-0.8411375
237	0xbda5e017	-0.08099382
238	0xbd23cedf	-0.03999221
239	0xbecf7e11	-0.4052587
240	0xbe705920	-0.23471498
241	0xbe9b4a88	-0.303303
242	0xbe2b7d6e	-0.16747066
243	0xbf117d43	-0.5683176
244	0xbea060c0	-0.31323814
245	0xbed65ed7	-0.41869232
246	0x3d4776d4	0.048697308
247	0x3eba0fcc	0.36340177
248	0xbee2dda4	-0.44309723
249	0x3dc02d61	0.09383655
250	0xbe5bcff4	-0.21466047
251	0x3f3a6a9c	0.72818923
252	0xbefb768c	-0.49113882
253	0xbf044a11	-0.51675516
254	0xbe14825b	-0.14502852
255	0xbe97ffac	-0.2968725

action_model._continuous_distribution.mu.bias f4 [2]
0	0xbe92ce84	-0.28673184
1	0xbec0021d	-0.37501612

action_model._discrete_distribution.branches.0.weight f4 [3, 128]
0	0xbfbd6faa	-1.4799702
1	0xbe846a0b	-0.25862154
2	0xbf002347	-0.5005383
3	0x3f134883	0.5753252
4	0xbfbdc2fc	-1.482513
5	0xbf5b881c	-0.8575456
6	0x3fb389d2	1.4026434
7	0x40537100	3.303772
8	0xc00d69a9	-2.209574
9	0x3e957794	0.29192793
10	0x400518c5	2.0796368
11	0x3d4ded9f	0.05027544
12	0xbf41f902	-0.7577058
13	0xbf8723c5	-1.0557791
14	0xbe9f6d28	-0.31137967
15	0xbed05c13	-0.40695247
16	0x3f3f640d	0.7476204
17	0x3f4f24c4	0.80915475
18	0xbf7db29d	-0.9910067
19	0x3f3888ab	0.7208354
20	0xbf858dcd	-1.0433899
21	0x3eb16005	0.3464357
22	0xbfab8f74	-1.3403153
23	0x3f4e4c52	0.80585206
24	0xbdd37c3d	-0.10326431
25	0xbffde153	-1.9834388
26	0x3e0f5e35	0.14000781
27	0xbdc51568	-0.096232235
28	0x40457f72	3.0859036
29	0xbeb0d28f	-0.34535643
30	0x3e9b2980	0.303051
31	0xc0023f51	-2.0351145
32	0x3f6cea11	0.92544657
33	0xbf6f87e8	-0.9356675
34	0x3f79c7cb	0.97570485
35	0xc010575c	-2.255332
36	0xc03baceb	-2.932429
37	0xbf052cb7	-0.52021354
38	0xc07269a9	-3.787699
39	0xbf3c2ebd	-0.73508817
40	0x3fb27e2f	1.3944758
41	0xbed6642d	-0.41873303
42	0x3f0d8a79	0.5528942
43	0xbfd11799	-1.6335326
44	0xbd2f330d	-0.042773295
45	0xbe0df08b	-0.13861291
46	0x40714f42	3.7704625
47	0xbf3ae25e	-0.7300166
48	0xbf7fee6a	-0.99973166
49	0xbfb0412c	-1.3769889
50	0xc04f21d9	-3.236441
51	0xbe419f2d	-0.18908377
52	0xbeaf395c	-0.3422345
53	0xbfe16683	-1.7609409
54	0xbff498f8	-1.9109182
55	0x3f72ea3b	0.9488866
56	0xbf7c3dc6	-0.9853176
57	0x3c0343d0	0.008011773
58	0xbfad1b05	-1.3523871
59	0xbef32477	-0.47488758
60	0x3f5c9470	0.86164
61	0x3e58fc0b	0.21189897
62	0xbf56edab	-0.839564
63	0x401b0e8a	2.4227624
64	0xc04d1e3d	-3.2049706
65	0x3e61c086	0.22046098
66	0x4006ae71	2.104397
67	0xc060035f	-3.5002058
68	0x3f4231d9	0.7585731
69	0x3f04d002	0.51879895
70	0x3f452a8f	0.77018064
71	0xbe72957f	-0.2368984
72	0xbf3e5f3e	-0.7436408
73	0xbe3807bb	-0.17971699
74	0x3f0da71f	0.5533313
75	0xbc813a01	-0.015774729
76	0x3df984e7	0.12183552
77	0xbda7e6fc	-0.08198354
78	0xc01d0c5a	-2.4538789
79	0xbfccb804	-1.5993657
80	0x3f25614c	0.6460159
81	0xbf2bb0bb	-0.67066544
82	0xbf40a882	-0.7525712
83	0xbea0d36c	-0.31411302
84	0xbff4902c	-1.9106498
85	0xbf27298e	-0.6529778
86	0xc032891a	-2.789618
87	0x3f77e839	0.9683872
88	0x3ec0018d	0.37501183
89	0x40414aeb	3.0201976
90	0xbf72443f	-0.94635385
91	0x3de2f4e4	0.110818654
92	0x3e7caf48	0.2467624
93	0xbf0cab41	-0.5494881
94	0xbfb343d4	-1.4005075
95	0x3e6195a5	0.22029741
96	0x3dd5f96d	0.10447965
97	0x3f60ff21	0.87889296
98	0x3ee12c4c	0.43979108
99	0xbf79e35c	-0.9761255
100	0xbf871eae	-1.0556238
101	0xbf2321f7	-0.637237
102	0xbeb06f15	-0.3445975
103	0xbff9632f	-1.9483393
104	0xbfbf025e	-1.4922597
105	0xbea669b4	-0.3250252
106	0xc013247a	-2.2991014
107	0x3e08e816	0.13369784
108	0x3d23bafb	0.03997324
109	0x3d88149a	0.066445544
110	0xc037854f	-2.8675115
111	0x3cf228a5	0.029560396
112	0xbf07109c	-0.5275972
113	0xbea0270f	-0.312798
114	0xc058d9ec	-3.388301
115	0x3f2903fa	0.6602169
116	0xc07320b8	-3.798872
117	0xc0060362	-2.0939565
118	0xbf8a3655	-1.0797831
119	0xbf89c4da	-1.0763199
120	0x3e49c56a	0.19704214
121	0xc0026a92	-2.0377545
122	0xbf6ed172	-0.9328834
123	0xbfe016d8	-1.7506971
124	0x3d92eac6	0.07173686
125	0x3e9e6976	0.30939835
126	0xc05e5762	-3.4740834
127	0x3ebce925	0.36896625
128	0xbf0f8582	-0.5606309
129	0xbf70dd85	-0.9408801
130	0xbe9fa681	-0.3118172
131	0x3ee5ade9	0.44859245
132	0x3de635aa	0.11240704
133	0xbf79d244	-0.97586465
134	0x3f932961	1.1497003
135	0xbf2a2960	-0.66469383
136	0x3f0cf5cd	0.5506256
137	0x3f1d61cf	0.6147737
138	0xbf5bd371	-0.8586951
139	0x3fafbd26	1.3729599
140	0xbf812a4a	-1.0091031
141	0x3f5db8e8	0.8661027
142	0x3db67c49	0.08910424
143	0x3f77cb88	0.9679494
144	0x3f75d21b	0.9602372
145	0xbd9c8261	-0.07642055
146	0x3e959ea9	0.2922261
147	0xbe9d096e	-0.30671257
148	0xbfec53ad	-1.8463036
149	0x3e29a1c7	0.1656562
150	0x3e51d6fb	0.20492165
151	0x3f433ce6	0.762648
152	0x3d87e69b	0.066357814
153	0xc02f2bdc	-2.737052
154	0xbf607ba8	-0.87688684
155	0xbf9793ec	-1.1842017
156	0xbe19f550	-0.15034986
157	0xbedbf344	-0.42959034
158	0x3ff9515a	1.9477952
159	0xbfdeb245	-1.7398154
160	0x3f592b44	0.84831643
161	0xbfc65811	-1.5495626
162	0x3f1aab92	0.60418046
163	0xbf59a816	-0.85022104
164	0xbf4aef75	-0.7927163
165	0xbf1c1843	-0.6097452
166	0x3e5480fd	0.2075233
167	0xbe9f0b78	-0.31063437
168	0x3f611ab8	0.87931395
169	0x3eb0ccf7	0.34531376
170	0x3eb931f2	0.36170918
171	0x3eb86241	0.36012462
172	0xbe169762	-0.14706185
173	0xbf4e1996	-0.8050779
174	0x3f09d550	0.53841114
175	0x3d14d8fa	0.036339737
176	0x3ca7ef99	0.020499991
177	0x3cdd1ce1	0.02699131
178	0xbfa449da	-1.2835038
179	0xc06d57d0	-3.7084846
180	0x3d604467	0.054752734
181	0x3ef3df81	0.47631457
182	0xbfff0706	-1.9924018
183	0x3f85a98b	1.0442365
184	0xbe211e1d	-0.15734144
185	0x3f4be4e6	0.79646146
186	0xbf15b5bf	-0.5848045
187	0xbd648a9a	-0.055796243
188	0xbd2d4766	-0.04230442
189	0x3dd0465f	0.10169672
190	0xbea443ba	-0.3208292
191	0x3fad23ee	1.352659
192	0xbe93b1ea	-0.28846675
193	0xbe816ebb	-0.25279793
194	0x3f88156b	1.0631536
195	0x3f94334e	1.1578157
196	0x3e5f3d5f	0.21800755
197	0xbdcb192b	-0.0991691
198	0x3f5fac7c	0.87372565
199	0xbf700fc5	-0.9377406
200	0xbf289c29	-0.6586328
201	0xbd9d7d6f	-0.0768994
202	0xbf599790	-0.8499689
203	0x3ecb6daf	0.3973212
204	0x3ebad8ce	0.36493534
205	0xbd8b73a4	-0.06809166
206	0xbf7573ab	-0.9587962
207	0xbdcd5161	-0.100252874
208	0x3e0dcad1	0.138469
209	0x3f1db78f	0.61608213
210	0x3e1d94f4	0.15388852
211	0xbd5196f7	-0.051169362
212	0x3ecdfe55	0.40233102
213	0xbf0c9e82	-0.54929364
214	0x3f8649ce	1.0491273
215	0x3f7e1861	0.9925595
216	0x3eb75e84	0.35814297
217	0x3f80471d	1.0021702
218	0x3ed832b3	0.4222618
219	0xbfb854e6	-1.4400909
220	0x3e863ceb	0.26218352
221	0xbea99374	-0.3312031
222	0xbe3b5f9a	-0.18298188
223	0x3db09f33	0.08624115
224	0x3f0bec3c	0.5465734
225	0xbe9061ed	-0.2819971
226	0xbebaa532	-0.3645416
227	0xbe11a55d	-0.14223237
228	0x3e176146	0.147832
229	0xbe35850a	-0.17726532
230	0xbf8f086b	-1.1174444
231	0xbeb886f1	-0.36040452
232	0xbd8e7c30	-0.06957281
233	0xbd866729	-0.06562645
234	0xbf6128d9	-0.87952954
235	0xbe79474c	-0.24343604
236	0x3ee0a962	0.4387923
237	0xbb502154	-0.0031758146
238	0x40f76292	7.7307825
239	0xbf1336fb	-0.5750577
240	0xbea74b27	-0.32674524
241	0x3be28281	0.00691253
242	0xbed53085	-0.4163858
243	0x3e87388e	0.26410335
244	0x3ef80c77	0.4844701
245	0xbf4f7611	-0.8103953
246	0xbf9d2eae	-1.227987
247	0xbda7707d	-0.08175752
248	0xbd83219b	-0.06402894
249	0xbe05832f	-0.13038324
250	0xbf4cf21b	-0.80056924
251	0xbfa83b54	-1.3143106
252	0xbf01647d	-0.5054396
253	0x3e6bb7ad	0.23019286
254	0xbf523e88	-0.82126665
255	0xbe8addce	-0.2712235

action_model._discrete_distribution.branches.0.bias f4 [3]
0	0xbfe63785	-1.7985693
1	0xbf7b89ed	-0.98257333
2	0x4028fd35	2.6404545

action_model._discrete_distribution.branches.1.weight f4 [3, 128]
0	0x4008cde2	2.137566
1	0xbf88226a	-1.0635502
2	0xbfb9312a	-1.4468129
3	0xc106a9b9	-8.416436
4	0xbf6e1452	-0.92999756
5	0xc03d680b	-2.9594753
6	0x3e8363d4	0.256621
7	0x40c6abf3	6.20849
8	0x3fd67672	1.6754897
9	0xbf87b526	-1.0602157
10	0x3f91e651	1.1398412
11	0x4051171e	3.267036
12	0x3f01b2fa	0.5066372
13	0xbf4c6502	-0.79841626
14	0x3f36c7bc	0.7139852
15	0x3de17923	0.11009433
16	0xbf78dce0	-0.9721203
17	0xc08864d7	-4.2623096
18	0x3df46594	0.11933437
19	0xbede2fee	-0.43395942
20	0x3f55da95	0.83536655
21	0xbf0f6c60	-0.5602474
22	0xbebcef40	-0.36901283
23	0x3f36b785	0.7137378
24	0xbe0f0be4	-0.1396938
25	0x40a27ecb	5.0779777
26	0x3fc7ed9a	1.5619385
27	0x3fa5727a	1.292556
28	0x3f981035	1.1879946
29	0x3ef4d03c	0.4781512
30	0x3eb830b3	0.35974655
31	0xbf6700cd	-0.90235597
32	0x3f851075	1.0395647
33	0x3fa6783c	1.3005443
34	0x3f4e2b25	0.80534583
35	0x3fd5c961	1.6702081
36	0xbe5adfa9	-0.21374382
37	0xbeddc0c9	-0.43311146
38	0x3f097b6a	0.5370394
39	0x3cbb7e4e	0.022887375
40	0x3f72e120	0.94874763
41	0xbf3711b9	-0.7151142
42	0xbee1690f	-0.44025466
43	0xbe0ba1b9	-0.13635911
44	0xbef12c56	-0.47104138
45	0x3ed57c50	0.41696405
46	0x4088ebca	4.278783
47	0xbbbcd3a0	-0.0057625324
48	0x3e968a7b	0.29402527
49	0x3df2487d	0.11830232
50	0xbf626754	-0.88438916
51	0xbe8323e1	-0.2561331
52	0x3ffe51cb	1.9868711
53	0x40213c54	2.5193071
54	0x3f9a9590	1.2076893
55	0xbe472cb7	-0.19450651
56	0xbf69e20f	-0.91360563
57	0x40596960	3.3970566
58	0x3ecf6022	0.4050303
59	0x3f2a987f	0.6663894
60	0xbeb4ec4f	-0.3533654
61	0xbefd48dd	-0.49469653
62	0x4115ad89	9.354867
63	0x40e1c9d1	7.055886
64	0x3e255f6a	0.16149679
65	0xbf20e56a	-0.6285006
66	0x409c4691	4.883614
67	0x4030b73a	2.7611833
68	0x3f9499e1	1.160946
69	0x3ef4a194	0.47779524
70	0x3f408dc1	0.752163
71	0x3f8cc831	1.0998594
72	0x3f4d9eb1	0.8032027
73	0x3eaa7a0d	0.33296242
74	0xbe9443b3	-0.289579
75	0xbf311350	-0.69170094
76	0x3e8c5fdf	0.27416894
77	0xbf9c62d9	-1.2217666
78	0x3fdc3867	1.7204713
79	0x4066d3c3	3.606675
80	0xbdb05b20	-0.08611131
81	0x3f980307	1.1875924
82	0xbfe9970e	-1.8249223
83	0xbefb9552	-0.4913736
84	0x3f005a83	0.5013811
85	0x3f59b80a	0.85046446
86	0x400938a0	2.144081
87	0xbf80e63e	-1.0070264
88	0x3f005821	0.50134474
89	0x3fdb64f5	1.7140185
90	0x3dcc2d98	0.09969634
91	0xbeb80098	-0.35937953
92	0x3e12a025	0.14318903
93	0x3e322151	0.17395522
94	0x3f69db33	0.91350096
95	0xbe731b56	-0.23740897
96	0x3f8d3e1e	1.1034582
97	0x3e4b3eb0	0.19848132
98	0xbec2aa47	-0.38020536
99	0xbf64901f	-0.8928241
100	0x3f776cd2	0.9665042
101	0x3f305d15	0.6889203
102	0x4018700f	2.3818395
103	0xbfda67ed	-1.7062966
104	0x3fdd5939	1.7292854
105	0x3e799fed	0.24377413
106	0x3df83520	0.12119508
107	0x3f2a7329	0.6658197
108	0x3e4b17a1	0.19833232
109	0x3db267c8	0.08711201
110	0xbff3a0bd	-1.9033428
111	0xbd4879a0	-0.048944116
112	0x3dc99f2f	0.09844815
113	0xbf486c63	-0.78290385
114	0xbf2a716b	-0.6657931
115	0xbf61218f	-0.8794183
116	0xbe7ecee1	-0.24883606
117	0x3d8eb5a1	0.06968237
118	0xbfaa389f	-1.3298529
119	0xbf339211	-0.70144755
120	0xbe6ea535	-0.23305209
121	0x40739ff6	3.8066382
122	0x3fc4c4d2	1.5372565
123	0xbde0cbaf	-0.109763496
124	0x3c44ecc6	0.012019342
125	0xbd82d43f	-0.06388139
126	0x400fd335	2.247266
127	0x3e464d96	0.19365534
128	0x3f9e75a9	1.2379657
129	0xbff44900	-1.9084778
130	0xbc49c6fa	-0.012315506
131	0x3f3c3a71	0.73526675
132	0x3f38d031	0.72192675
133	0x408aafed	4.3339753
134	0x3e88761e	0.26652616
135	0x409dd663	4.9324203
136	0x3f1ff26d	0.6247929
137	0x3db75b72	0.08952989
138	0x3cc8593e	0.024456616
139	0xc07b8d33	-3.930493
140	0xbfd7a054	-1.6845803
141	0xbed9d48c	-0.42544973
142	0x3e0a09e0	0.1348033
143	0xbe8606e5	-0.26177135
144	0xbff83fef	-1.9394511
145	0x3f61ff40	0.88280106
146	0x3e8284af	0.25491855
147	0x3d1745ec	0.036931917
148	0xc007573e	-2.1146998
149	0x3f34021d	0.70315725
150	0x3f207fc9	0.62694985
151	0x3f4491a3	0.76784724
152	0x3eae1849	0.34002903
153	0x3ffde417	1.9835232
154	0xbf6c74a7	-0.923655
155	0x3ed2f39d	0.41201487
156	0x4001796f	2.0230367
157	0xbee6914d	-0.4503273
158	0xbecb047f	-0.39651868
159	0x3ec5ff09	0.3867114
160	0x3f8ea8ea	1.1145298
161	0xbf56ff0a	-0.8398291
162	0x3f59d1e2	0.8508588
163	0xbf9aa3df	-1.208126
164	0xbf34bcca	-0.7060057
165	0x3f54dfac	0.83153796
166	0xbfd38745	-1.6525656
167	0xbf8e47e5	-1.111569
168	0xbf6d9e83	-0.92819995
169	0xbeeb06a3	-0.459035
170	0xbecb7de1	-0.39744475
171	0xbcac7030	-0.021049589
172	0x3ca8c5f7	0.02060221
173	0x3f5af477	0.85529274
174	0x3e80757b	0.2508963
175	0x3d63bbb6	0.055598937
176	0x3e4b95eb	0.19881408
177	0xbf3cda78	-0.73770857
178	0xbfa166d6	-1.2609508
179	0xbf9185b1	-1.1368924
180	0xbf093596	-0.5359739
181	0xbe6dad77	-0.23210703
182	0xbf61e3ff	-0.8823852
183	0xbe6e87bd	-0.23293968
184	0xbfa9ba47	-1.3259972
185	0x4052371b	3.2846134
186	0xbe2227a7	-0.15835439
187	0x3fa4930b	1.2857374
188	0x3e6afc74	0.22947866
189	0x3ef49b38	0.47774673
190	0x3ab237ea	0.0013596986
191	0x3f66a556	0.9009603
192	0xbe08d941	-0.13364126
193	0x3f60d605	0.8782657
194	0x3fbcb378	1.474227
195	0xbedcc0d6	-0.43115872
196	0xc0257182	-2.585053
197	0xbed88cba	-0.42294866
198	0x3fe6aaf0	1.8020916
199	0xbfd7f5a2	-1.6871836
200	0x3e573ed8	0.21020067
201	0x3d641d6f	0.055692133
202	0xbf2bc4bc	-0.6709707
203	0x3e2f1163	0.17096476
204	0x3e96e978	0.29474998
205	0x3d107fa5	0.03527798
206	0xc042285d	-3.0337136
207	0xbfc77d3a	-1.5585091
208	0xbde7db2e	-0.11321102
209	0xbfce46f2	-1.6115401
210	0xbf71551f	-0.9427051
211	0xbf53eed4	-0.827863
212	0xbfc7bb89	-1.5604106
213	0xbf0c0f0f	-0.5471048
214	0xbd8e0c15	-0.06935898
215	0x3ed4bccc	0.4155029
216	0x3eeae9f0	0.45881605
217	0x3f2f20b6	0.6840929
218	0x3ed0df07	0.40795156
219	0xbf07f828	-0.5311303
220	0xbf28c17d	-0.6592024
221	0xbf29a60a	-0.6626898
222	0x3e0e5af7	0.13901888
223	0xbf15fcfe	-0.5858916
224	0xbf1cce18	-0.61251974
225	0x3f56211a	0.8364426
226	0x3e84bedb	0.2592686
227	0x3e9cbed2	0.30614334
228	0xbf2ad62f	-0.6673307
229	0xbfcb700d	-1.589357
230	0x3e1f8135	0.15576632
231	0x3ee3c3ab	0.4448522
232	0xbf97a2c7	-1.1846551
233	0xc0155eff	-2.333923
234	0xbff390ff	-1.9028624
235	0x3f1be854	0.6090138
236	0x3ed406d0	0.41411448
237	0x3ee78cca	0.452246
238	0xc0238a13	-2.5553024
239	0xbe8b5e40	-0.27220345
240	0x3f2b71aa	0.6697031
241	0x3e9625a5	0.29325595
242	0x3aa2f98a	0.0012433988
243	0x3d2765f0	0.0408687
244	0xbfc0cbff	-1.5062255
245	0xbee56fcf	-0.44811866
246	0xbd48bffe	-0.049011223
247	0xbf11a2d4	-0.5688908
248	0xbd7210a6	-0.05909791
249	0x3f9eb924	1.240025
250	0xc004b173	-2.0733306
251	0xbf60d0c8	-0.87818575
252	0x3d8467dc	0.06465122
253	0xbda5a860	-0.080887556
254	0x3f2d89f3	0.6778862
255	0xbe8650d7	-0.2623355

action_model._discrete_distribution.branches.1.bias f4 [3]
0	0x3f0553b2	0.52080834
1	0xbe069d01	-0.1314583
2	0x3dd94dfe	0.10610579

exp_avg f4 [128, 13]
0	0x34b0173b	3.2799457e-07
1	0x38289a91	4.0198272e-05
2	0xb8c5a5c4	-9.424568e-05
3	0x39591b4a	0.00020704899
4	0x00000000	0.0
5	0xb8cdcf17	-9.813735e-05
6	0xb90c2fd6	-0.0001336926
7	0xb6fcefa1	-7.5380817e-06
8	0x381d54d3	3.7510716e-05
9	0xb88159a7	-6.1678984e-05
10	0xb53f5d38	-7.1288696e-07
11	0xb98e6f85	-0.0002716744
12	0x36ab76b4	5.110016e-06
13	0x37d67122	2.556347e-05
14	0xb8de782f	-0.00010608171
15	0xb883575c	-6.262839e-05
16	0xb6d91700	-6.4697815e-06
17	0x00000000	0.0
18	0x384b6e50	4.8501708e-05
19	0xb8137f38	-3.5166013e-05
20	0x36b44041	5.371898e-06
21	0xb68c22d3	-4.176379e-06
22	0x368792ad	4.040389e-06
23	0xb80950a5	-3.273845e-05
24	0x3862fd5a	5.411855e-05
25	0x37c0fbc7	2.3005427e-05
26	0x3a078f49	0.00051711925
27	0x39c6d773	0.00037926025
28	0xb8a0fa88	-7.6760596e-05
29	0xba04a907	-0.00050605874
30	0x00000000	0.0
31	0x39bc541b	0.00035920818
32	0x399295a3	0.00027958778
33	0x3924bf2f	0.0001571148
34	0x38bf0697	9.108817e-05
35	0xb86f46f6	-5.7048128e-05
36	0x3907c38d	0.00012947452
37	0xb683e4d3	-3.930743e-06
38	0x39322b7f	0.00016991606
39	0xb9e6bb0e	-0.00044008385
40	0xba98e01c	-0.001166347
41	0x3b165c60	0.0022943243
42	0xba11e297	-0.00055650756
43	0x00000000	0.0
44	0xb9c0b573	-0.00036756284
45	0x3a3b22b0	0.0007138653
46	0x3ac9d410	0.0015398283
47	0x3ab8bd19	0.0014094441
48	0xbb2cf29c	-0.0026389724
49	0x395e55b7	0.00021203501
50	0xba76ee48	-0.0009419662
51	0x3ae4a44c	0.0017443984
52	0x388b76da	6.650174e-05
53	0x383ff974	4.577027e-05
54	0xb9a53927	-0.00031513834
55	0x38a7cbdb	8.0011516e-05
56	0x00000000	0.0
57	0x3848423a	4.7745394e-05
58	0xb78b3e2e	-1.6599046e-05
59	0xb9101415	-0.00013740391
60	0xb92e2250	-0.00016606716
61	0xb6f05a1f	-7.163049e-06
62	0xb88cc3f8	-6.712222e-05
63	0xb8120556	-3.4814082e-05
64	0xb799a0bf	-1.8313875e-05
65	0x3a9d71cd	0.0012012065
66	0x3a656d10	0.00087519083
67	0xb90f9e64	-0.00013696548
68	0xba2fd2fb	-0.0006707159
69	0x00000000	0.0
70	0x3916d021	0.00014382649
71	0x3a0ad60f	0.00052961794
72	0x38a068b5	7.648898e-05
73	0x387e20a0	6.0588703e-05
74	0x39878cf1	0.00025854216
75	0x3a7ceb6e	0.0009648119
76	0xb9c2c7ed	-0.0003715152
77	0x38b75f86	8.7439126e-05
78	0xb921c289	-0.00015426626
79	0xb90f635c	-0.00013674557
80	0xb9005916	-0.00012240218
81	0x394077d1	0.00018355182
82	0x00000000	0.0
83	0xb8556ee6	-5.088644e-05
84	0xb90bf760	-0.00013348227
85	0xb92ea839	-0.00016656601
86	0xb90c2547	-0.00013365327
87	0x3904c2fd	0.0001266114
88	0xb93a462d	-0.00017764485
89	0x390b8b77	0.00013308028
90	0xb914eeb9	-0.00014203311
91	0x39b6bb8f	0.00034853487
92	0xbad8f11e	-0.0016551351
93	0xba0b6cde	-0.00053186517
94	0x3ad99890	0.0016601253
95	0x00000000	0.0
96	0x3998d721	0.00029151983
97	0xbac2610d	-0.0014829949
98	0xba8c2cd4	-0.0010694512
99	0xba944f83	-0.00113152
100	0x3aab7601	0.0013081433
101	0xba6b4afa	-0.0008975711
102	0x3a441c18	0.0007480993
103	0xba58fea0	-0.0008277688
104	0xba1a161e	-0.00058779295
105	0xba10c120	-0.0005521942
106	0x3a265bdf	0.00063460873
107	0x399c2b71	0.00029787005
108	0x00000000	0.0
109	0xb9f3d33f	-0.00046505962
110	0xb7938139	-1.758394e-05
111	0x39bd5974	0.00036115537
112	0x39b80102	0.00035095966
113	0xba395d20	-0.00070710666
114	0xb98c256c	-0.00026730762
115	0xb849fe74	-4.8159112e-05
116	0x39e43dfc	0.0004353373
117	0x38dbaaf8	0.00010474579
118	0xb6a5abc0	-4.9373775e-06
119	0xb993b4a6	-0.00028172618
120	0x38b51920	8.6354325e-05
121	0x00000000	0.0
122	0x38b6d1b9	8.7175e-05
123	0xb8f6317f	-0.000117394135
124	0xb9262614	-0.00015845179
125	0xb92aed39	-0.00016300836
126	0x398a2498	0.00026348676
127	0xb77989a2	-1.4873602e-05
128	0x3883496a	6.260241e-05
129	0xb9253db8	-0.00015758618
130	0x3ba62382	0.005070151
131	0x3bcbd096	0.0062199337
132	0x3becc76a	0.0072259204
133	0xbc29ecd1	-0.010371403
134	0x00000000	0.0
135	0x3a9a4a7e	0.0011771468
136	0x3bf97ff5	0.0076141306
137	0x3bb4d7ec	0.005518904
138	0x3bd0d6ad	0.0063732476
139	0xbbfc62cf	-0.0077022086
140	0x3bc89c3e	0.006122141
141	0xbab39b5f	-0.001370292
142	0x3ba267b5	0.0049562105
143	0x39b405c6	0.00034336577
144	0xb7ef9a3f	-2.8562847e-05
145	0x397c7f42	0.0002408
146	0xb9e999a7	-0.00044555703
147	0x00000000	0.0
148	0x39d92445	0.00041416488
149	0x3991d17a	0.00027812627
150	0x39b850dc	0.0003515546
151	0x397c9dc2	0.00024091362
152	0xb9979cc0	-0.00028917752
153	0x38d027a4	9.9255965e-05
154	0xb9737e92	-0.00023221437
155	0x39e190d5	0.00043023253
156	0x39478cab	0.00019030522
157	0xb7cfb662	-2.4761252e-05
158	0xb7be820c	-2.2710323e-05
159	0xb874c717	-5.835955e-05
160	0x00000000	0.0
161	0x3916067b	0.00014307529
162	0x37333904	1.0682506e-05
163	0xb78e4212	-1.6958486e-05
164	0xb83858ea	-4.3951826e-05
165	0x384fe82e	4.956888e-05
166	0x383f5375	4.5615674e-05
167	0x380a9436	3.3039796e-05
168	0x37705552	1.432498e-05
169	0x3a0ae66e	0.0005298619
170	0x3a1753c6	0.0005772676
171	0xb88c9cc5	-6.704921e-05
172	0xba14622d	-0.0005660381
173	0x00000000	0.0
174	0xb981f201	-0.00024785104
175	0x3a5a53bf	0.0008328519
176	0x3a1d06d8	0.00059900945
177	0x39afc66d	0.0003352644
178	0xb9ab719d	-0.0003270031
179	0x3a54f6ba	0.00081239233
180	0xba079e69	-0.0005173446
181	0x3a878b2e	0.0010341161
182	0xb93dcd8f	-0.00018101021
183	0xb91cfc9b	-0.00014971422
184	0xba0b43c5	-0.00053125276
185	0x3a0cfb91	0.00053780625
186	0x00000000	0.0
187	0xb9e2e089	-0.0004327337
188	0xb90b0011	-0.00013256098
189	0xb960cab9	-0.00021437825
190	0xb983fc33	-0.0002517417
191	0x38a9bb59	8.093444e-05
192	0x38b05edb	8.410002e-05
193	0xb871864b	-5.7583948e-05
194	0xb8b2fbf9	-8.534635e-05
195	0xbacc4248	-0.0015583718
196	0xbaf66e30	-0.0018801149
197	0x3a4a7bfc	0.00077241636
198	0x3b0cca14	0.0021482753
199	0x00000000	0.0
200	0xbaa7fee9	-0.0012817058
201	0xbaa0020c	-0.0012207641
202	0xb9c70564	-0.00037960254
203	0xb9a20f6d	-0.0003091054
204	0xba0dc7c4	-0.00054084905
205	0xbabeebcf	-0.0014566126
206	0x38fd0bab	0.000120661534
207	0xb9008460	-0.00012256345
208	0xb9ea399d	-0.00044674883
209	0xb9ae50a9	-0.00033247963
210	0x399eb1b9	0.00030268522
211	0xb8d93549	-0.000103572915
212	0x00000000	0.0
213	0x3780de7b	1.536239e-05
214	0x39367544	0.00017400557
215	0x39d2b778	0.00040191016
216	0x399b2b43	0.00029596136
217	0xb9f92cd4	-0.0004752638
218	0xb9170465	-0.00014402119
219	0xb90e197b	-0.00013551668
220	0x3a18ad5c	0.00058241724
221	0xb96d5884	-0.00022635056
222	0xb999bf9b	-0.0002932519
223	0x38d2f203	0.000100586585
224	0xb90b72b1	-0.00013298799
225	0x00000000	0.0
226	0x396fa3d4	0.00022853847
227	0x3889cfc7	6.5713706e-05
228	0x392a4298	0.00016237271
229	0x38c3f640	9.344192e-05
230	0xb918ad91	-0.00014560508
231	0xb90e7de1	-0.00013589069
232	0x38fbb3ea	0.00012002124
233	0x397ae95d	0.00023928793
234	0xba2489bf	-0.0006276629
235	0xb918d40f	-0.00014574848
236	0x38312acb	4.2239943e-05
237	0xb9513fba	-0.00019955533
238	0x00000000	0.0
239	0xb9c430ce	-0.00037420396
240	0x3a0535d4	0.00050815684
241	0x39e8b910	0.0004438837
242	0x39e4f0ac	0.00043666863
243	0xba1dbb78	-0.000601701
244	0x398c7754	0.00026791787
245	0x3985a120	0.00025487784
246	0x39dd998a	0.000422668
247	0x39d1129c	0.00039877451
248	0x3a0aa9db	0.00052895927
249	0x382f9b7e	4.1868065e-05
250	0xb9f099ad	-0.00045890865
251	0x00000000	0.0
252	0xb88db68d	-6.757407e-05
253	0x3a0a7dbb	0.00052830175
254	0x39d6c403	0.000409633
255	0x39b3c1b4	0.0003428586
