results/FunnelAgent/My Behavior/My Behavior-8999999.pt (torch, 477743 bytes, 57 tensors)

discrete_act_size_vector f4 [1, 2]
000000 00 00 40 40 00 00 40 40
       3.0 3.0

network_body.observation_encoder.processors.0.normalizer.running_mean f4 [13]
000000 65 85 0c 44 88 72 9f 43 07 9c 39 43 74 ce 2d 44
       562.0843 318.89478 185.60948 695.2258
000010 00 00 00 00 27 db f5 43 06 e2 52 43 35 bc a3 43
       0.0 491.71213 210.8829 327.47037
000020 90 0e b0 43 71 66 60 43 13 fa 0a 43 50 50 13 43
       352.11377 224.40016 138.97685 147.31372
000030 9c 70 d0 42
       104.21994

network_body.observation_encoder.processors.0.normalizer.running_variance f4 [13]
000000 6f 49 c9 53 4b ae 0b 53 33 44 e9 51 62 00 c1 53
       1.7290409e+12 5.999246e+11 1.2523395e+11 1.6578702e+12
000010 00 00 80 3f 7e 1f 34 53 5b c2 40 52 cc e8 53 53
       1.0 7.7362246e+11 2.0697362e+11 9.101438e+11
000020 aa 0a 47 53 56 ee e2 51 d5 7c 03 52 97 dd 25 52
       8.548774e+11 1.2183265e+11 1.4118376e+11 1.7809682e+11
000030 13 5f 19 52
       1.6468127e+11

network_body.processors.0.normalizer.running_mean f4 [13]
000000 65 85 0c 44 88 72 9f 43 07 9c 39 43 74 ce 2d 44
       562.0843 318.89478 185.60948 695.2258
000010 00 00 00 00 27 db f5 43 06 e2 52 43 35 bc a3 43
       0.0 491.71213 210.8829 327.47037
000020 90 0e b0 43 71 66 60 43 13 fa 0a 43 50 50 13 43
       352.11377 224.40016 138.97685 147.31372
000030 9c 70 d0 42
       104.21994

network_body.processors.0.normalizer.running_variance f4 [13]
000000 6f 49 c9 53 4b ae 0b 53 33 44 e9 51 62 00 c1 53
       1.7290409e+12 5.999246e+11 1.2523395e+11 1.6578702e+12
000010 00 00 80 3f 7e 1f 34 53 5b c2 40 52 cc e8 53 53
       1.0 7.7362246e+11 2.0697362e+11 9.101438e+11
000020 aa 0a 47 53 56 ee e2 51 d5 7c 03 52 97 dd 25 52
       8.548774e+11 1.2183265e+11 1.4118376e+11 1.7809682e+11
000030 13 5f 19 52
       1.6468127e+11

network_body._body_endoder.seq_layers.0.weight f4 [128, 13]
000000 ba e3 8a bc fa a4 31 be 38 23 b6 3d 6d 2d 12 3e
       -0.016954292 -0.1734809 0.08893436 0.14275141
000010 86 14 a1 3e e4 b8 ab be f1 d0 f9 3d 14 e6 86 3e
       0.3146097 -0.33539498 0.121980555 0.2634741
000020 83 b7 36 3e 48 a5 07 bf fd e2 6d 3e 8a 32 54 3e
       0.17843442 -0.52986574 0.2323112 0.20722404
000030 27 02 d1 3d 14 8b 65 be c8 6c b9 be 01 7f ec 3e
       0.10205489 -0.22416335 -0.36215806 0.46190646
000040 fa 33 5c 3d 12 bb e3 bd 65 44 36 3d 74 d3 c1 3d
       0.053760506 -0.11119665 0.04449882 0.094641596
000050 73 a8 eb be 77 27 c2 be 20 17 ee bc 93 1d a1 3e
       -0.46026954 -0.37920734 -0.029063761 0.31467876
000060 d9 5a e3 bd 03 e2 e9 3e 32 d4 c4 be 14 7b 0f 3e
       -0.11101312 0.45680246 -0.38443142 0.14011794
000070 b7 6e 78 bd a4 88 6e 3e 08 b9 13 38 b7 37 06 bf
       -0.06065246 0.23294312 3.5219855e-05 -0.52428764
000080 cc 19 4e 3d 45 1d 0e be 89 b0 1e 3d 1f ea 59 bf
       0.05031757 -0.13878353 0.038742576 -0.85122865
000090 6f fe 4a 3e 69 7f fe 3b 1f da 0e 3e 64 86 3d bf
       0.19823621 0.0077666533 0.13950394 -0.7403319
0000a0 c5 c2 63 bf a6 83 80 bf 91 10 8a bf b0 52 1f 3e
       -0.8896907 -1.0040176 -1.0786306 0.15558887
0000b0 39 ca e5 3f 10 5c 9c 3d 75 dc 02 c0 b5 92 ae bf
       1.7952338 0.07634747 -2.0447056 -1.3638521
0000c0 17 54 83 3f 11 10 27 3b 79 c2 66 bf a3 55 b9 bf
       1.0260037 0.0025491754 -0.9014049 -1.4479259
0000d0 ed 04 c7 be 5c a4 d6 3d a2 9a 34 bb d7 08 10 3e
       -0.38870946 0.10480568 -0.0027557989 0.14065872
0000e0 67 cb 79 bd bc bd 8d bd 47 bd 4e be 2a 34 e4 3e
       -0.060984995 -0.069209546 -0.20189391 0.44571048
0000f0 8a 69 5d 3e 67 77 8c be b3 3a f0 3e b9 08 1d bd
       0.21622291 -0.27434847 0.46919784 -0.038338397
000100 36 e5 99 3e 55 4a ae bd 5e 93 fa 3e 6c fc 80 bf
       0.30057687 -0.085102715 0.48940557 -1.0077033
000110 60 d0 9b be e5 08 35 3e f7 3c 2c 3e d8 56 29 3f
       -0.30432415 0.17679174 0.16820131 0.6614814
000120 c2 2a 9e be 29 82 a3 3f 44 e6 a1 3c 3d 3b 49 be
       -0.30891997 1.2774097 0.01976312 -0.19651504
000130 dd 2c ac 3d 9b 4f 27 bf 67 80 30 3c ba 24 58 be
       0.084069945 -0.65355843 0.010772801 -0.2110776
000140 67 59 af 3e 3c c5 80 3e 9e 3d c8 3e 3b 6c 5f 3e
       0.34247896 0.25150478 0.3910951 0.2181863
000150 25 be 01 bd ca d2 9f 3e 40 fc 9c 3e 9d 34 53 bb
       -0.031675477 0.31215507 0.306612 -0.0032227405
000160 3c da a6 be 2f 1b 6f 3d a1 f5 7e be f8 21 ce bc
       -0.32588375 0.058375534 -0.24898387 -0.025162682
000170 24 84 08 bc 37 51 db be 78 e2 e4 3c 36 b8 f2 3e
       -0.008332286 -0.428354 0.02794002 0.47406167
000180 30 f3 97 3d 44 ba e1 3d 93 e3 25 be 3c dd 9b be
       0.07419431 0.110218555 -0.16200094 -0.30442226
000190 2e c7 34 3f 8f 29 cf be 8f ae a9 be c2 80 2d bf
       0.70616424 -0.40461394 -0.3314099 -0.67774594
0001a0 b4 37 90 be 74 e6 01 3e 3d 96 3d be 2e f8 00 3d
       -0.28167498 0.12685567 -0.18514343 0.031486683
0001b0 0d 63 de be aa bc 04 3e 5e 29 7d be 4d cc 70 3d
       -0.43434945 0.12962595 -0.24722812 0.058788586
0001c0 45 c3 16 3e fa b0 07 3e da e4 0e 3e c7 f7 e1 3d
       0.14722927 0.13251105 0.13954487 0.11033588
0001d0 4a 52 14 bd 72 91 10 bf 22 9a f0 bc 11 1d f4 3d
       -0.03621129 -0.5647193 -0.029370371 0.119196065
0001e0 2c f0 ad 3e 40 35 74 3e e9 93 b1 3e a4 1a c3 3e
       0.339723 0.23848438 0.3468316 0.38106263
0001f0 30 aa a8 be cc a2 f5 bd 31 61 4c bf e8 7c 29 3f
       -0.32942343 -0.11993942 -0.798358 0.66206217
000200 89 16 02 be 96 18 94 be 77 b4 68 be e1 db e2 3d
       -0.12703909 -0.28925008 -0.22725092 0.11077095
000210 31 f5 44 3f 2b 0a 23 3f 04 4f 84 3e 80 11 2d bf
       0.7693663 0.6368739 0.25841534 -0.6760483
000220 e6 b4 c7 bf a2 8b c4 bf a5 57 68 bf 36 60 b4 bf
       -1.5602081 -1.5355113 -0.90758735 -1.4091861
000230 fb c1 10 40 6a 98 a4 3f ef af ae be 61 cd 64 3f
       2.2618396 1.2859013 -0.34118602 0.89375883
000240 94 f1 64 be cf 57 43 bf 3a ca 3a 3f bc 89 f2 3e
       -0.2235778 -0.7630586 0.72964823 0.47370708
000250 c6 df 19 bf 12 7e 0d bf 4b 1f 22 3e 4b 39 2e 3e
       -0.60107076 -0.55270493 0.1583225 0.17014043
000260 f0 3c 79 bf fa d1 be be 0d dd 15 bf 70 8c de be
       -0.9735861 -0.37269574 -0.5854042 -0.4346652
000270 3b d6 93 be 42 ad ca be 0c 42 9d be 67 09 f9 3d
       -0.28874382 -0.3958531 -0.30714452 0.121599965
000280 9e e4 58 be c8 f7 9d 3e f5 46 ad 3e de af 51 be
       -0.2118096 0.30853105 0.33843198 -0.20477244
000290 50 43 92 be 68 48 54 bf af 52 3f 3e 3e d0 a0 3d
       -0.2856698 -0.82922983 0.18683885 0.07852219
0002a0 a3 13 97 bd 5c 5b 9e be d3 9f 12 be 72 bc 84 be
       -0.07376792 -0.30929077 -0.1431878 -0.25925022
0002b0 84 e8 3e 3d e9 e9 59 bd 8e 6e 82 3b bd 35 29 be
       0.046608463 -0.05320159 0.0039804643 -0.16524406
0002c0 a1 71 b3 be 88 ca e0 be b8 d6 a5 bf f4 44 10 3f
       -0.3504763 -0.4390452 -1.2956152 0.56355214
0002d0 b5 83 08 be ae cf 4c 3d 63 ba 94 be 1f e1 8a be
       -0.13331492 0.050002746 -0.29048452 -0.2712488
0002e0 4f b1 5b 3e 32 95 5d 3e eb 72 41 3e bb 0a 2f bf
       0.21454357 0.21638945 0.18891494 -0.6837575
0002f0 e0 ac 0e 3e 9d e8 d5 3d e6 05 96 3c 3c 60 24 3f
       0.13933134 0.10444758 0.01831336 0.6420934
000300 88 a8 82 3e 85 e4 11 bf 58 94 3c 3e 8a 97 69 3e
       0.25519204 -0.5698932 0.18415964 0.22811714
000310 32 c5 1a 3f 7e 91 be be 4b 7f 59 3f 86 c4 4c 3e
       0.60457146 -0.37220377 0.8495986 0.19996843
000320 cc 2c e5 3d 20 b8 6c 3f 0f e6 df be cb 28 29 3f
       0.11190185 0.9246845 -0.43730208 0.6607787
000330 e0 81 47 be c5 e2 fb be 06 62 a8 be 42 15 91 be
       -0.19483137 -0.4919645 -0.32887286 -0.2833653
000340 91 41 8c be 24 95 17 be 56 cd 81 3d 60 77 53 bf
       -0.27393773 -0.14802986 0.06337993 -0.82604027
000350 fe f9 54 be b1 aa 9b 3e ff 0f 5c 3c 4b 50 ba 3e
       -0.2079849 0.30403665 0.013431548 0.36389384
000360 d9 f0 37 bf af 4e 82 bf ab a3 03 bf 8f 71 41 3c
       -0.7185188 -1.0180262 -0.5142161 0.01180686
000370 f3 e1 6f bf f5 d7 10 bf 9e 91 e8 be e3 b4 76 3e
       -0.93704146 -0.56579524 -0.45423597 0.2409244
000380 e4 a7 b4 bd 7c fa 3a be 58 d8 9b 3e 3b 4e 2e 3e
       -0.08821085 -0.18259615 0.30438495 0.1702203
000390 28 d5 b6 3e 4a 9b 0e 3e db f8 35 bf 13 4b b0 3d
       0.357095 0.13926426 -0.7108285 0.08608069
0003a0 6d 4c d1 3d 87 2f aa bf 07 6d b5 3e 83 5d b6 be
       0.10219655 -1.3295754 0.35434744 -0.3561822
0003b0 3d c2 8a 3d 04 a1 44 bf 30 4b c4 bc e8 33 e0 3e
       0.06775329 -0.7680819 -0.023961633 0.437896
0003c0 3f 48 e0 3d 2a 47 07 be 34 f1 8d be db 42 68 bf
       0.1095128 -0.1321074 -0.27723086 -0.90727013
0003d0 81 15 4c bf 93 db e2 3e 6c cd 21 bf 73 07 39 be
       -0.7972031 0.44308147 -0.63204074 -0.18069248
0003e0 4e aa 86 be ce 88 7c bd fa 29 09 3e d4 24 cc 3e
       -0.26301807 -0.061653905 0.13394919 0.39871848
0003f0 2b 07 eb be 1b b8 05 bd 24 fd 5d 3e 58 96 55 3d
       -0.45903906 -0.03264628 0.21678597 0.052145332

network_body._body_endoder.seq_layers.0.bias f4 [128]
000000 96 4a a4 bf 1d df d7 bf bd bd 69 bf 47 36 ba 3f
       -1.2835262 -1.6864964 -0.9130514 1.4547814
000010 1d a9 60 bf d4 84 06 c0 8e 01 12 bf 82 2d 2f 3f
       -0.87758046 -2.1018572 -0.5703362 0.68428814
000020 db ff ee be 14 e2 f1 bf 4e 50 50 bf bc fb 0a c0
       -0.46679577 -1.8897119 -0.81372535 -2.1716146
000030 76 b7 9b bf 55 e8 8f bf 9c 9f a7 bf 68 18 99 be
       -1.2165363 -1.1242777 -1.3095584 -0.29901433
000040 4b 8a 29 c0 0b 5c 1a c0 b7 71 23 c0 8b ec 8b bf
       -2.6490657 -2.4118679 -2.5538156 -1.0931562
000050 f2 d5 1e c0 b4 60 db be c6 4a f3 bf 75 11 7c bd
       -2.4818082 -0.42847216 -1.9007194 -0.061540086
000060 79 b6 13 c0 e2 75 99 bf ba 9d 01 c0 70 21 e3 bf
       -2.3080122 -1.19891 -2.0252519 -1.7744579
000070 67 f2 d1 3e bb d4 4a c0 32 f2 c6 bf 9c a3 a0 bf
       0.4100525 -3.169234 -1.5542662 -1.254993
000080 69 cc 4a be 2b 94 21 c0 70 1c d9 bf 77 e5 00 bf
       -0.19804539 -2.5246685 -1.6961803 -0.50350136
000090 00 e3 87 bf 26 76 2e c0 b1 6f 70 bf 1e 4c 04 c0
       -1.061615 -2.7259612 -0.9392043 -2.0671458
0000a0 93 ba a0 bf f2 a4 3f c0 79 b2 f8 be b9 08 82 bf
       -1.2556938 -2.9944425 -0.48573664 -1.0158912
0000b0 b2 33 fe bf 18 c8 b7 bf 1c 65 02 c0 68 51 4e bf
       -1.9859526 -1.4357939 -2.0374212 -0.80592966
0000c0 44 a3 d2 bf af fa 60 bf dd d4 8f bf 21 b9 80 be
       -1.6456075 -0.8788251 -1.1236836 -0.25141242
0000d0 d2 a9 9d bf b2 a8 6d c0 29 51 94 bf a5 32 ab 3e
       -1.231745 -3.7134213 -1.1587268 0.33437076
0000e0 5f db 15 c0 fc 92 15 bf 5c d4 5d be cb 44 c4 bf
       -2.3415143 -0.58427405 -0.2166304 -1.5333494
0000f0 f8 ea 7a bd c0 68 04 c0 25 23 7e 3f fb d5 26 bf
       -0.06125924 -2.0688934 0.99272376 -0.6517026
000100 a9 6e 3d c0 7a 6c 06 c0 80 4e 0d bf 19 67 15 bf
       -2.9598792 -2.100371 -0.55197906 -0.5836044
000110 cc 5d e4 be 8c 99 1e c0 b8 67 61 bf c3 c3 ea bf
       -0.4460281 -2.4781218 -0.8804889 -1.8340992
000120 a6 14 60 bf 55 0f 90 3c cb 6d bb bf b4 91 91 bf
       -0.87531507 0.017585436 -1.4642881 -1.137259
000130 63 bb e5 bf bc 6c 50 bb 4d 64 0d c0 ef 0a 09 c0
       -1.7947811 -0.0031803092 -2.2092469 -2.1412923
000140 33 09 08 3e 2f 19 c4 bf 21 91 c8 be 96 fa 3c bf
       0.13284759 -1.5320185 -0.39173225 -0.73819864
000150 a2 57 a8 bf d0 85 5b bf 68 c8 db bf 01 53 29 bf
       -1.3151743 -0.85751057 -1.7170534 -0.6614228
000160 03 ff e3 bf 7c 44 cb bf 14 49 66 bd 5f 4b 03 bf
       -1.7812198 -1.5880275 -0.056222036 -0.5128688
000170 ca 11 db bf 6a 65 91 bf 08 2d 09 bf ee e9 42 bf
       -1.7114804 -1.1359074 -0.5358434 -0.761382
000180 84 d0 75 bf 4f 4d e8 be 39 63 51 c0 00 84 2d c0
       -0.96021295 -0.45371482 -3.271681 -2.7111816
000190 d9 27 9f bf fb 75 d4 bf 66 ad 74 be f7 31 c2 be
       -1.2434036 -1.6598505 -0.23894271 -0.37928745
0001a0 de 6b a2 bf a3 fa bc bf f6 e1 5f c0 92 bd 2f bf
       -1.2689168 -1.4763988 -3.4981666 -0.68648636
0001b0 f8 41 d5 bf f9 62 d1 bf 44 f1 fe 3d 48 a8 3e bf
       -1.6660757 -1.6358329 0.124483615 -0.74475527
0001c0 f4 55 17 c0 68 dc 0d c0 65 b7 fc bf 75 7e 1f c0
       -2.3646212 -2.2165775 -1.9743468 -2.4920933
0001d0 29 0d bf bf 05 a4 04 bf 78 79 e0 be 45 ec 28 c0
       -1.4925891 -0.51812774 -0.43842673 -2.6394207
0001e0 42 52 ab 3e 3c 84 12 c0 38 78 53 bf d0 5e 15 c0
       0.33461195 -2.289321 -0.82605314 -2.333912
0001f0 9e 45 97 be 3a 75 0f c0 c2 d1 39 c0 e7 a0 b2 bf
       -0.295453 -2.24153 -2.9034276 -1.3955353

network_body._body_endoder.seq_layers.2.weight f4 [128, 128]
000000 7b 16 a9 3e d6 fe 9f bd e1 14 82 bd 71 dc 7e 3f
       0.33024964 -0.07812278 -0.063516386 0.99555117
000010 06 c2 ca bc a9 52 bb 3e 21 8c 35 3f d9 f0 14 3e
       -0.02475072 0.36586502 0.70916945 0.14545001
000020 98 e6 94 3e e5 61 37 bf d0 ba 36 c0 58 e0 6b bf
       0.2908218 -0.7163375 -2.8551521 -0.92139196
000030 de d1 dd 3d 6e 24 5b be a4 35 80 be 13 ae 8d 3e
       0.108310446 -0.21400616 -0.25040925 0.2767187
000040 31 a8 1d 3e e8 a7 4b 3f e8 99 23 3f a1 8e 06 3f
       0.15396191 0.7955308 0.6390672 0.52561384
000050 6a 36 c7 3e 47 2a 1e be ee d9 4d bf c3 bc 25 bf
       0.38908702 -0.15445815 -0.8041066 -0.6474115
000060 f1 f0 8c 3c 33 99 04 be ae 86 24 3f 53 e9 0e bd
       0.017204734 -0.12949066 0.64268005 -0.034890484
000070 0c 73 df 3e 10 72 af bf d6 ec 97 3f 23 f4 50 bf
       0.4364246 -1.3706684 1.1869152 -0.81622523
000080 86 9d d9 bc 15 ad c6 3e 77 17 98 3e f6 fc 79 3d
       -0.02656437 0.38803926 0.29705402 0.061032258
000090 99 89 2e be 8b 52 0e bf 58 c9 14 3f fd d8 3b 3f
       -0.17044677 -0.555947 0.58119726 0.7337797
0000a0 78 1a d1 bd fa f5 33 be a4 a1 f9 3e 32 25 78 3d
       -0.10210127 -0.17574301 0.48756135 0.060582347
0000b0 c8 47 60 bf 24 01 a8 bf e0 1d 7d 3f 4e b7 82 be
       -0.8760953 -1.3125348 0.9887371 -0.25530475
0000c0 2e ee 15 bf b0 7d d3 be fd fa c6 3c ad 2d da 3e
       -0.5856656 -0.4130683 0.024289602 0.42612973
0000d0 20 78 ce 3e 22 c6 ea 3c 79 b0 76 3c b5 fd 89 3e
       0.40326023 0.02865893 0.015056723 0.26951376
0000e0 42 c3 8a 3e 25 a0 70 be 58 e8 17 bf 2f 2a c0 3e
       0.27102095 -0.2349859 -0.59338903 0.37532184
0000f0 b4 f9 5e 3d 9e 11 32 3f 12 e4 10 c0 ec 54 69 be
       0.054437354 0.6955813 -2.2639203 -0.22786301
000100 40 c6 fc bc 18 af fd bd 5b a2 f4 be 45 24 ad 3e
       -0.030856252 -0.12386912 -0.47780117 0.33816734
000110 88 08 b4 bd 28 ea 36 bf fb 86 f4 3e 4b 94 fc 3d
       -0.0879069 -0.71451044 0.47759232 0.12332972
000120 2f 10 03 3f c6 86 aa be bc ff 5e 3e 7b 86 5e bf
       0.5119657 -0.3330595 0.21777242 -0.8692395
000130 89 35 a9 3d aa 62 48 3e 77 71 1f bd f3 5f bf 3b
       0.08262164 0.19568887 -0.038926568 0.0058402955
000140 f7 b7 94 3e 57 09 17 bf 62 fa 27 3f d4 73 38 3e
       0.29046604 -0.58998626 0.6561643 0.18012935
000150 ee 3e 5c 3e 90 89 3e 3e ec 46 82 bf ee cf fc 3e
       0.21508381 0.18607163 -1.0177894 0.49377388
000160 02 2f 2f 3e 7b e8 3c 3f 9d 52 4a 3e e4 53 7b be
       0.17107776 0.7379224 0.19758077 -0.2454372
000170 79 75 ea 3e 6e cb 41 be e9 c2 55 3d 6f a2 26 bf
       0.4579275 -0.18925259 0.052187834 -0.65091604
000180 15 5b 86 be b7 4f e6 3c 8b 7b ea 3e 50 a9 6d 3f
       -0.26241365 0.028114183 0.4579738 0.92836475
000190 2e d7 f8 3e 54 05 32 3f 6b a5 26 3f 59 7d ff be
       0.4860167 0.6953938 0.6509616 -0.4990032
0001a0 e8 b2 c4 3e 00 e3 7f bf 39 b1 43 bf ab c7 21 bf
       0.38417745 -0.9995575 -0.76442295 -0.63195294
0001b0 48 89 49 3e dd ca 99 3e 04 e6 56 be a0 ca 31 bf
       0.19681275 0.30037585 -0.20986181 -0.69449806
0001c0 db e1 6c 3f 2e 9b c8 3e 35 d6 c0 be d8 8a 62 bf
       0.9253213 0.39180893 -0.37663427 -0.8849311
0001d0 33 36 06 bf 32 07 90 be 2f 89 76 3f 04 c5 f8 be
       -0.5242645 -0.2813049 0.96303076 -0.4858781
0001e0 f9 d1 20 3e 33 9b ef 3e 61 d6 9b be 8e 92 9b 3e
       0.15705098 0.46798095 -0.30436996 0.3038525
0001f0 09 cd 1c be 87 06 61 3f 8b 11 29 be 1e 48 37 bf
       -0.1531259 0.87900585 -0.16510598 -0.7159442
000200 08 ca a9 be a1 b7 5a 3e 6a 4a cd be 85 f8 65 bb
       -0.3316195 0.21359111 -0.40095836 -0.0035090756
000210 ac 9a 13 bd 12 e5 77 3f b5 44 08 bf 95 6f 01 3d
       -0.03603618 0.9683391 -0.5322984 0.031600554
000220 31 34 7d be 01 18 8e bf 10 67 c1 bf 43 38 2d bf
       -0.2472694 -1.1101075 -1.5109577 -0.67663974
000230 05 54 c1 3d fc 08 01 bf 26 13 0f 3f 61 cc 0a 3f
       0.094398536 -0.50404334 0.55888593 0.5421811
000240 65 8a cc 3f 3e 86 20 3f 2c ef 9c 3f 4b 0b c4 bd
       1.5979735 0.6270484 1.226049 -0.095724665
000250 91 c3 8a bd 5d 3a ce be 13 24 9b 3f d3 38 bd bf
       -0.067755826 -0.40278903 1.2120384 -1.4782966
000260 88 ab 21 3f e0 94 c1 be 19 1a 5d 3f 45 0a e3 3e
       0.6315236 -0.37808895 0.86367947 0.44343773
000270 d7 b0 df bf 37 68 42 3f 62 4e b5 3f f6 91 24 3f
       -1.7475842 0.7594027 1.4164546 0.6428522
000280 ad 7c 86 be 26 13 b1 3f c1 f3 cf 3d 5a e6 ca 3e
       -0.26266995 1.3833969 0.10153914 0.3962887
000290 02 2a 30 bf 2c 48 a7 3e 76 e1 54 bf 52 b2 58 3f
       -0.688141 0.3267225 -0.83156526 0.84647095
0002a0 3f 71 01 bf 8c d2 cd 3f f3 c1 11 bf 54 6c 3a 3d
       -0.50563425 1.6079879 -0.5693657 0.045513466
0002b0 34 cd a5 bf f7 f1 82 bf 4f 37 b3 3f b2 fd 2b bf
       -1.2953248 -1.0230092 1.4001254 -0.67183983
0002c0 5d d2 fd be ea 11 48 bf 84 13 c0 bf 1c 06 4a be
       -0.49574557 -0.78152335 -1.5005956 -0.19728893
0002d0 a2 b7 bc be 80 9e 73 bf 37 ee 5f 3d 59 9e 47 3f
       -0.3685885 -0.95163727 0.05467054 0.77975994
0002e0 87 8d c0 3f b1 58 66 be 38 21 c8 3c c5 19 0f 3f
       1.5043191 -0.2249477 0.024429902 0.55898696
0002f0 a3 74 43 bf 77 3a 36 ba f5 90 0f c0 41 37 77 be
       -0.7634985 -0.0006951461 -2.2432225 -0.24142171
000300 9d d0 39 3f d6 48 00 3f f9 35 79 3f d3 1d dc be
       0.72583944 0.5011114 0.9734798 -0.42991504
000310 4b 1f a0 3b 7b 00 cf be c6 a2 04 bf 98 0c f4 3e
       0.004886543 -0.40430054 -0.5181087 0.47665858
000320 d2 7c 35 be a0 8c 38 bd 55 f0 93 be a1 bf 95 be
       -0.17723396 -0.045055985 -0.28894296 -0.29247764
000330 78 36 84 3e 02 a2 1a bf 4f 51 e3 3f 85 9e 93 3f
       0.25822806 -0.60403454 1.7759188 1.1532751
000340 9b ff 76 3f 9d d5 ae be b9 e5 c3 3d 67 4c 71 3d
       0.96483773 -0.3414735 0.095653005 0.058910754
000350 6a 36 2a be d3 d9 63 3e ea e4 5f 3f 3e 5d 7f 3e
       -0.1662232 0.22251062 0.8745867 0.24937913
000360 48 e4 09 3f dc d6 e9 3f ce 45 66 3d bc ed 0e 3e
       0.53863955 1.8268695 0.056218915 0.13957876
000370 43 86 fc 3e 80 68 ef bf 6d 98 e5 be 8c 54 46 bf
       0.49321184 -1.8703766 -0.44842854 -0.7747276
000380 a4 60 b5 bf 0f 54 0e bf 54 e4 32 3f d5 45 69 3f
       -1.4170117 -0.55597013 0.6987965 0.9112218
000390 c8 29 e0 3d 51 e0 62 3f ad 85 0b 3e 36 cc c3 3e
       0.10945469 0.8862353 0.13625212 0.38241738
0003a0 18 1a 3e be 6b 82 73 3f a3 ba 8e 3f 19 61 56 bf
       -0.18564641 0.9512088 1.1150707 -0.8374191
0003b0 9e bf 96 3f fc aa 9c 3b 3e 00 71 be d4 f7 76 be
       1.1777227 0.004781125 -0.23535249 -0.24117976
0003c0 8c 04 05 3f a2 9b 5a 3f d0 4e a1 be 97 f7 44 be
       0.51960063 0.85393727 -0.31505442 -0.19235073
0003d0 76 0a 4e 3f 49 30 0f 3e fd 52 da 3e a1 8f ec 3f
       0.8048471 0.13983263 0.4264144 1.8481332
0003e0 7b 40 23 3f ee 6a bd 3f a3 4f f6 be 69 17 3b 3f
       0.63770264 1.4798257 -0.48107633 0.73082596
0003f0 fc 8c 0f 3f 4f 32 19 3f 69 73 74 be af 4e 5c bf
       0.560745 0.5984239 -0.2387215 -0.8605756

network_body._body_endoder.seq_layers.2.bias f4 [128]
000000 a6 08 e5 bf c3 50 90 bf 3d 02 08 c0 e8 c7 0d bf
       -1.7893264 -1.1274647 -2.1251366 -0.5538316
000010 c4 3a 71 bf 98 8b 9f 3e 1e de 5e bf 9a 14 ea bf
       -0.94230294 0.3116119 -0.87057674 -1.8287537
000020 99 8e 5c bf e3 f8 8e bf 65 a8 b4 bf 92 51 2b bf
       -0.86155087 -1.1169704 -1.411389 -0.6692134
000030 fc 7a b7 bf c5 10 97 bf 40 b5 c4 bf 71 e9 1d c0
       -1.4334407 -1.1801993 -1.5367813 -2.4673731
000040 0e 04 7a bf ad a4 8c bf db da af bf 0d da e7 bf
       -0.97662437 -1.0987755 -1.3738664 -1.8113419
000050 29 ab 7d bf 65 3a 0e c0 9c 61 e6 bf cc b5 fc be
       -0.99089295 -2.2223141 -1.7998538 -0.4935745
000060 fc c6 d0 bf 70 61 f4 bf a2 87 db bf 2a 9f aa bf
       -1.6310725 -1.9092236 -1.7150767 -1.3329823
000070 7a c8 07 c0 01 f8 31 c0 7a cf 22 bf 55 58 c0 bf
       -2.121611 -2.780762 -0.63597834 -1.5026957
000080 2d a3 b9 bf c2 08 18 c0 72 0e 46 be 84 a2 bf bf
       -1.4502922 -2.3755345 -0.19341448 -1.4971471
000090 38 3b f2 bf 08 70 40 bf fc d5 75 bf b2 e3 aa bf
       -1.8924322 -0.75170946 -0.9602964 -1.3350737
0000a0 0b d6 a6 bf df 61 5a bf 7b 2d 32 c0 2e 86 94 bf
       -1.3034071 -0.8530559 -2.784026 -1.1603448
0000b0 3c 24 a7 be fa 09 21 bf b6 b5 aa bf 03 bf a4 bf
       -0.32644832 -0.6290585 -1.3336704 -1.2870792
0000c0 d4 f5 1c c0 e9 b9 9f bf 73 04 5d bf 9c 62 11 c0
       -2.4525042 -1.247861 -0.86334914 -2.2716436
0000d0 96 97 55 bf 97 f2 70 bf 48 49 f9 bf 66 a9 7c bf
       -0.83434427 -0.9412016 -1.9475489 -0.9869598
0000e0 f3 d3 45 bf 7c 9d 74 bf a1 f3 b0 bf 8d 73 2e bf
       -0.77276534 -0.955528 -1.382435 -0.68145066
0000f0 1b 6b da bf b8 b9 bd bf a6 cb ab bf 7c 03 d4 bf
       -1.7063936 -1.4822302 -1.3421524 -1.6563563
000100 f3 2b f9 bf f7 4f 14 c0 3f 85 15 bf ab 8f c9 bf
       -1.9466537 -2.3173807 -0.5840644 -1.5746969
000110 84 12 4d bf 86 cf c6 bf 6f 7c 22 bf 24 7b b9 bf
       -0.8010638 -1.5532081 -0.6347112 -1.4490705
000120 e8 6d 98 bf 39 bd e4 bf a6 f3 6b bf cd 37 8b bf
       -1.1908541 -1.7870246 -0.92168653 -1.0876404
000130 67 15 e5 be e0 64 e8 be 94 0d 04 c0 57 ae ba bf
       -0.4474289 -0.45389462 -2.0633287 -1.4584454
000140 12 c6 db bf af ba ef bf 72 37 af bf 0a dc d6 bf
       -1.7169821 -1.8728846 -1.3688796 -1.67859
000150 59 3d 1f c0 71 df 8e bf 4a 5e 46 bf 10 50 bd bf
       -2.4881194 -1.1161939 -0.77487624 -1.4790058
000160 ea 1e fe be d6 d7 b5 bf 9a e9 44 c0 db 50 1f c0
       -0.4963296 -1.4206493 -3.076758 -2.48931
000170 57 52 2b bf a4 c7 09 c0 db 75 f6 be 8d a4 3a bf
       -0.66922516 -2.15281 -0.48136792 -0.72907335
000180 cb 3d 49 bf 48 47 8c c0 16 b8 23 c0 71 72 90 bf
       -0.78609914 -4.3837013 -2.5581107 -1.1284925
000190 5e 35 a7 bf 6d cc 11 c0 f7 88 ff bf b8 86 70 bf
       -1.3063161 -2.2781022 -1.9963673 -0.93955564
0001a0 86 f6 ab bf 6c b5 93 bf 29 86 c0 bf 7f ce f8 bf
       -1.3434608 -1.153974 -1.5040942 -1.9438018
0001b0 39 e8 9b bf 3f 45 b1 bf ad 1d ad bf 97 c7 3a c0
       -1.2180244 -1.3849257 -1.3524681 -2.918432
0001c0 15 a2 06 c0 21 a1 7e bf 03 c7 0c c0 bc cb d7 bf
       -2.1036427 -0.99464613 -2.1996467 -1.685905
0001d0 0a cc cc bf 92 95 a3 bf 1e f0 34 bf 9a 0f 88 bf
       -1.5999768 -1.278002 -0.7067889 -1.0629761
0001e0 83 50 66 bf 38 dc df be 53 5f 91 bf 76 f7 1c c0
       -0.899666 -0.437227 -1.1357216 -2.4526038
0001f0 37 a4 23 bf c8 df 18 c0 32 4d 14 bf 6b bf 91 bf
       -0.63922447 -2.3886585 -0.5793029 -1.1386541

action_model._continuous_distribution.log_sigma f4 [1, 2]
000000 b2 84 d5 bf d8 8a ae bf
       -1.668112 -1.3636122

action_model._continuous_distribution.mu.weight f4 [2, 128]
000000 4e 83 16 3e fb 30 84 3e 84 5f 23 bf c7 c3 e9 bd
       0.14698526 0.2581862 -0.6381762 -0.11414295
000010 20 64 d3 be 3b b8 ea 3c ad a4 97 be e7 e6 a9 3f
       -0.41287327 0.028652301 -0.29617825 1.3273591
000020 cb f7 f3 be 88 2a 2c be 52 b5 9e 3d 81 90 38 3e
       -0.4764999 -0.168131 0.07749428 0.18023874
000030 ea ef 8b be d5 6e 1e be d4 7e cd bc 6e 3c d0 3e
       -0.27331477 -0.15471967 -0.02508489 0.40671104
000040 0f 58 33 be 82 83 83 3e 05 d0 62 3c 95 59 3b 3d
       -0.1751406 0.2568627 0.013843541 0.04573973
000050 63 b3 22 3e 4a eb e1 3e b9 7b ad 3c f1 34 14 bf
       0.15888743 0.44124824 0.02117716 -0.5789328
000060 eb 3c 1f 3f aa ec 0e 3f 14 44 21 bf c0 62 b3 3e
       0.6220233 0.5582987 -0.62994504 0.35036278
000070 cd eb d4 3f b2 70 d9 3d 6e c4 ce 3d ac 6c 10 3e
       1.6634461 0.10617198 0.1009606 0.14103955
000080 1f ef 36 bf f1 37 93 3e be 0e cc 3e 8d 95 3a 3f
       -0.7145862 0.28753617 0.39854997 0.72884446
000090 54 89 b6 bd c2 e4 64 3e df 58 3e be b7 12 9e be
       -0.08912912 0.22352889 -0.18588589 -0.30873653
0000a0 6d 38 ba 3d 92 f3 9a 3e 2a 77 31 3f ae 2d 7d bd
       0.090927936 0.30263954 0.69322455 -0.06181114
0000b0 b9 40 76 3e 28 e6 0d 3e 09 03 74 3e 75 37 a2 bd
       0.24048127 0.13857329 0.23829283 -0.07920734
0000c0 7f 7d 20 3f f3 38 80 3d d3 a3 32 3d 24 26 37 be
       0.6269149 0.06260862 0.043613266 -0.17885643
0000d0 d1 73 4d 3e 5f 26 b0 3d 1d 0c 9e 3e fe 96 79 be
       0.20063712 0.08601069 0.30868617 -0.24374005
0000e0 ce 86 a3 be cf ee 69 3e 6c fd de 3e bc c7 56 bd
       -0.31938785 0.22845004 0.4355272 -0.052436575
0000f0 be 36 8f 3e 58 7d 91 3e 73 aa e8 3d ff 30 76 3f
       0.27971452 0.28415942 0.113606356 0.9616851
000100 d9 40 7a 3e 8b c1 44 3e 69 80 0a 3e a9 e0 0f 3e
       0.244388 0.19214456 0.13525547 0.14050545
000110 76 75 02 be 7f 8c ad 3d f5 72 a9 3d 60 bc 08 3e
       -0.1274012 0.08474063 0.082738794 0.1335311
000120 d3 a9 1c 3f 5e 20 54 3f 15 d8 2b 3f b3 a2 8b 3e
       0.6119663 0.8286189 0.6712659 0.27272567
000130 29 d1 02 3f dd 73 0c bf 4d 26 3a be 94 ea a3 3d
       0.51100403 -0.54864293 -0.18178673 0.080037266
000140 00 02 74 be 52 56 a4 bd 67 34 89 bc 4d 03 0d 3f
       -0.23828888 -0.08024277 -0.01674862 0.5508316
000150 d1 01 09 3e 8e 04 94 3e bf 4b 6d be db c6 ca be
       0.13379599 0.28909725 -0.23173426 -0.3960484
000160 30 e5 19 3e bc 48 53 3f d8 72 8c 3e 35 2e ef 3e
       0.15028834 0.8253286 0.2743137 0.4671494
000170 44 f8 e9 3e c2 c5 84 3f db 5e 5a be fb 6f 49 3e
       0.45697224 1.0372851 -0.21325247 0.19671623
000180 5d 3c a6 3e 56 72 d0 3d 26 cc fa 3d bb 56 65 be
       0.3246793 0.10178058 0.122459695 -0.22396366
000190 3c d9 bd bc 05 83 81 be ca 38 13 3e 87 af 07 be
       -0.023174874 -0.25295272 0.14377132 -0.13250552
0001a0 11 c0 77 be f7 44 4d 3e cc c0 ae 3e 1c 70 fd 3d
       -0.24194361 0.20045839 0.34131467 0.12374899
0001b0 09 5e 80 bc 67 fb a8 be 44 93 68 3c 97 ca cf bc
       -0.01566984 -0.33004305 0.014195267 -0.025365157
0001c0 cf dc 1c be de 7f 73 3f 66 35 91 be 6f 6b 5a be
       -0.15318607 0.95116985 -0.28361052 -0.21330045
0001d0 4b 1b 52 3e 35 ff 0a bd 95 8e 42 bc 12 57 ce 3e
       0.20518224 -0.03393479 -0.0118748145 0.40300804
0001e0 dd 3c 11 3f 74 bb 8b 3d 00 8c ce 3d 7a 0b 08 3d
       0.56733495 0.06822863 0.10085297 0.03321407
0001f0 0b b1 06 3f e3 f3 15 3f 5a a7 b5 3d c0 e7 81 3e
       0.52613896 0.58575267 0.088698104 0.25372124
000200 cf fc 2c 3e 64 11 7e bf ab b9 b4 be d7 e7 34 3e
       0.16893314 -0.99245286 -0.35297903 0.17666565
000210 5c c9 20 be 70 cb 9b bd 1d 1a 8f be 86 0b 15 bf
       -0.15701813 -0.07607162 -0.2794961 -0.5822071
000220 59 cc 95 be e8 39 5f 3d 5a 96 06 3f d0 ea 0b bf
       -0.29257467 0.054498583 0.5257317 -0.5465517
000230 82 f4 ca bd f0 ab 25 3d ba c8 fc bc 18 04 13 bf
       -0.099099174 0.040447176 -0.030857433 -0.5742812
000240 85 7d 21 bd 6f b3 fe bd cd f6 66 be 07 17 1a 3e
       -0.039426345 -0.12436568 -0.22555085 0.15047847
000250 b4 e6 0d be c6 9b 9e be 13 9b d1 bd bf dc bd 3e
       -0.13857538 -0.3097822 -0.10234656 0.37082478
000260 28 54 54 be 4a 1a 3e bf 6e a8 91 be a5 9f 16 3d
       -0.20735228 -0.74258864 -0.28448814 0.036773343
000270 2d 4e b3 bf e8 41 65 3d 21 8a 8c be f0 e2 a7 3f
       -1.4008232 0.055971056 -0.27449134 1.3116131
000280 e3 9b a3 bd 9e 5b e0 3d bf 3a e2 be 12 a6 1a bf
       -0.079887174 0.109549746 -0.44185445 -0.60409653
000290 16 23 eb 3e 3c e7 c6 be d4 33 e8 be e8 18 46 be
       0.45925206 -0.38848293 -0.45352042 -0.19345438
0002a0 80 4b c7 be f2 4d 87 be d0 be f4 bd 4e 9d 27 3d
       -0.3892479 -0.26426655 -0.11950457 0.0409215
0002b0 04 f1 a5 be 20 c4 91 be 43 0d 48 be 80 79 3f 3d
       -0.32410443 -0.28469944 -0.19536309 0.04674673
0002c0 b6 98 9f be 1b 78 8f be 0f 79 6d be 78 e2 49 bd
       -0.31171197 -0.2802132 -0.23190711 -0.049288243
0002d0 40 dd 94 bd 18 eb 69 bd ed 0e 3b 3f 4c 29 ae be
       -0.072687626 -0.05710897 0.7306965 -0.34015882
0002e0 06 6c ff be 64 7c 11 3e f4 d8 88 be de e6 7f bd
       -0.49887103 0.14207608 -0.26728022 -0.06247603
0002f0 91 59 11 bf ce 74 93 be a3 4f 5a 3e 6f 8a 28 bf
       -0.5677729 -0.28800052 0.21319441 -0.6583623
000300 a6 f9 86 be 4d af 73 be 76 63 44 bd ac ea 4a 3f
       -0.26362342 -0.2379734 -0.047946416 0.7926433
000310 4d a1 5b bc c4 ee 6f be 24 23 e0 be 6f 2d 75 3e
       -0.013405156 -0.23430926 -0.4377681 0.23943113
000320 52 ba 4a 3e 1c 44 61 3d a1 0a 23 bf b7 ec c3 be
       0.19797638 0.054996595 -0.63688093 -0.38266537
000330 f2 18 ed bd 6c d1 6c be 2b 52 4e 3c 01 ba 4a be
       -0.115770236 -0.23126763 0.012592833 -0.19797517
000340 2f 86 b8 3e d1 1c b3 be ad a3 c3 3e af 43 f2 3a
       0.36039874 -0.34982923 0.38210812 0.0018483306
000350 0c 3d 43 be cb fd 37 3f f6 cb e4 be 67 5f 19 bf
       -0.19066256 0.7187163 -0.4468686 -0.599112
000360 27 99 5d be 03 ee 2e 3e d0 75 0e bf 3a c4 27 3d
       -0.21640454 0.17082982 -0.5564852 0.04095862
000370 a7 88 26 be 3e 65 03 bd 7a a8 ce bd 5d 7c e8 be
       -0.16263066 -0.032078974 -0.10090728 -0.45407382
000380 2c 42 15 bf 00 1f 52 bd cc be 71 be 27 91 ff bd
       -0.58304095 -0.051299095 -0.2360794 -0.124788575
000390 b6 e0 10 be a1 4d 52 bf 72 84 8f 3c 15 82 c6 be
       -0.1414822 -0.821497 0.01751921 -0.3877112
0003a0 41 8d 52 be b0 7a 06 be 4e 6d 60 bd f4 86 31 3e
       -0.20561697 -0.13132739 -0.05479174 0.17336637
0003b0 3b 45 52 bf 10 20 75 3c c8 22 8b bb 6d d0 bb be
       -0.8213689 0.014961258 -0.0042460896 -0.36682454
0003c0 eb 1c 43 be 6c 36 b2 be 1b 1b 2d be f3 34 1b bf
       -0.19054 -0.34807146 -0.16904871 -0.6062767
0003d0 5f d2 77 be 0a 99 db be cb e5 04 3d ff 68 9a 3e
       -0.24201344 -0.42890197 0.03244571 0.3015823
0003e0 da 28 08 bf 62 27 ad 3d 27 83 55 be 41 64 3e 3f
       -0.53187335 0.08454777 -0.20850812 0.74371725
0003f0 0d 96 0f bf ee 1f 1a bf 86 82 21 be 1f 5e bb be
       -0.56088334 -0.6020497 -0.15772447 -0.36595246

action_model._continuous_distribution.mu.bias f4 [2]
000000 df 95 90 be d9 1b bd be
       -0.28239343 -0.3693531

action_model._discrete_distribution.branches.0.weight f4 [3, 128]
000000 26 f6 b7 bf 67 ac 52 be eb 78 d2 be 4c 8c 0a 3f
       -1.4371994 -0.20573579 -0.41107878 0.54120326
000010 f5 fb ba bf 87 05 57 bf f9 f4 a8 3f fc 88 55 40
       -1.4608141 -0.8399281 1.319976 3.3364859
000020 9f c8 0d c0 73 6f aa 3e b6 81 06 40 87 c5 b6 3d
       -2.21537 0.33288154 2.101667 0.08924394
000030 e8 3e 33 bf 16 bb 87 bf ae 61 9b be 50 b2 c9 be
       -0.7001786 -1.0603969 -0.3034796 -0.39393854
000040 7e 08 3b 3f 4f cb 33 3f 3d 12 7d bf ca cd 3a 3f
       0.73059833 0.702321 -0.98855954 0.7297026
000050 1c be 82 bf f7 5a ce 3e 5d 04 a8 bf 13 9e 49 3f
       -1.0214267 0.40303776 -1.3126332 0.7875683
000060 d9 34 cc bd 1f a3 fa bf a2 ed 25 3e 9f c2 c0 bd
       -0.099710174 -1.9581031 0.16203931 -0.09412121
000070 33 09 47 40 fc c3 af be 16 34 9c 3e db 31 03 c0
       3.1099365 -0.34329212 0.30508488 -2.049918
000080 1f fb 73 3f 67 6c 6f bf e6 12 87 3f 92 97 0f c0
       0.95305055 -0.93524784 1.0552642 -2.243626
000090 d0 4d 36 c0 fe 1d f1 be bc 22 70 c0 bf 38 26 bf
       -2.8484993 -0.47093195 -3.75212 -0.6493034
0000a0 de 69 b4 3f 38 20 d6 be ea d7 16 3f 3d 1e cd bf
       1.4094808 -0.41821456 0.5892321 -1.6024853
0000b0 d8 60 d9 bc 15 21 d6 bc 8e 49 6e 40 9a ce 36 bf
       -0.026535437 -0.026138822 3.7232394 -0.71409
0000c0 0f 24 7d bf 74 36 a9 bf 73 44 4c c0 f2 b4 39 be
       -0.98883146 -1.3219743 -3.1916778 -0.18135431
0000d0 2d b2 4a be 95 59 d4 bf d1 9c e7 bf d2 eb 66 3f
       -0.19794531 -1.6589838 -1.8094732 0.90203583
0000e0 12 37 62 bf c1 e3 9a ba 3b 33 a3 bf 34 c2 fa be
       -0.8836528 -0.0011817144 -1.2750009 -0.4897629
0000f0 8e a6 5c 3f 2b fa 5d 3e 6d 12 53 bf 33 77 1c 40
       0.8619164 0.21677463 -0.8244999 2.4447753
000100 2d 60 4b c0 e7 44 62 3e a1 52 0f 40 18 db 62 c0
       -3.177745 0.22096597 2.2394183 -3.5446224
000110 3c 11 58 3f 64 42 0c 3f d0 bc 56 3f 0e 77 56 be
       0.844013 0.54788804 0.83881855 -0.20943853
000120 e8 76 3b bf 44 55 48 be c7 52 16 3f f8 67 10 bd
       -0.7322831 -0.19563776 0.5872006 -0.035255402
000130 21 7c ff 3d 81 4f d2 bd 43 54 1a c0 dc 7e c6 bf
       0.124748476 -0.102690704 -2.411393 -1.5507464
000140 bd ed 35 3f b8 d2 21 bf 39 4f 38 bf 67 cd 92 be
       0.71065885 -0.63212156 -0.71995884 -0.28672335
000150 77 a6 f0 bf e7 c1 1c bf 8f 13 30 c0 d4 01 75 3f
       -1.8800801 -0.6123337 -2.7511938 0.95705914
000160 78 a2 bf 3e 85 a5 3e 40 97 65 72 bf 1e 66 f8 3d
       0.3742864 2.9788525 -0.94686264 0.12128852
000170 cb 8a 52 3e 32 bb 00 bf f7 9e af bf 3f a7 5b 3e
       0.20560758 -0.5028564 -1.3720387 0.21450518
000180 52 3e 0f 3e 47 02 61 3f 61 45 e1 3e 24 a5 60 bf
       0.13988617 0.878941 0.43998244 -0.87751985
000190 1b 82 80 bf fd 79 1f bf 46 44 9a be 84 d2 f2 bf
       -1.0039705 -0.62295514 -0.30130213 -1.8970494
0001a0 96 32 ba bf f9 d9 ae be 77 2c 12 c0 27 6f 17 3e
       -1.4546688 -0.34150675 -2.283964 0.14788495
0001b0 c7 cf bc 3b 7d 06 19 3e c8 09 32 c0 b5 88 69 3d
       0.0057620737 0.14943881 -2.781847 0.05701514
0001c0 3b 31 f5 be cb 2d 6f be 09 08 55 c0 3a 2e 3c 3f
       -0.47889122 -0.23357312 -3.3286154 0.73508036
0001d0 31 92 6e c0 96 e7 f9 bf 7e b3 8a bf 2d 8f 7d bf
       -3.7276728 -1.95238 -1.0836027 -0.99046594
0001e0 5a f3 6b 3e 0a 56 fa bf 3c d0 61 bf 8e e8 da bf
       0.2304205 -1.9557507 -0.88208365 -1.710222
0001f0 da c1 22 3e d4 e3 a6 3e b6 9d 58 c0 43 d5 c4 3e
       0.15894261 0.32595694 -3.384626 0.38443956
000200 21 2b e1 be c0 1e 61 bf 16 5d c0 be 29 b4 f2 3e
       -0.43978217 -0.87937546 -0.3757102 0.47403076
000210 b7 d8 5a 3d da 17 79 bf 4a c1 89 3f ca 74 18 bf
       0.05342933 -0.9730202 1.0762112 -0.59553206
000220 a3 9e 0b 3f af c5 1d 3f 60 b7 4d bf 85 29 b2 3f
       0.54538935 0.61629766 -0.80357933 1.3918921
000230 5f 85 6e bf 55 96 5d 3f 6c f4 af 3d c1 b2 77 3f
       -0.9317226 0.86557513 0.08591542 0.9675713
000240 d2 e5 7e 3f d5 6d 57 be 29 59 95 3e c8 47 a0 be
       0.9956943 -0.21037991 0.29169586 -0.31304765
000250 27 98 e3 bf 62 12 67 3e 1b 4b 41 3e 7c 17 41 3f
       -1.7780808 0.22565606 0.18876307 0.7542646
000260 ab 04 86 3d 72 3e 2a c0 eb 36 5c bf b5 c9 97 bf
       0.06543859 -2.6600614 -0.860213 -1.1858431
000270 85 6f 9b bd e5 55 db be 90 4d f9 3f 12 a0 e4 bf
       -0.0758963 -0.4283897 1.9476795 -1.786135
000280 21 82 66 3f 4d 59 c6 bf 20 13 23 3f da 41 5a bf
       0.9004231 -1.5496002 0.6370106 -0.8525673
000290 65 dc 5c bf 6c 91 1f bf c1 04 6c 3e dd 12 be be
       -0.86273795 -0.6233127 0.23048688 -0.37123767
0002a0 72 cf 62 3f 73 6b b1 3e 45 88 b6 3e 36 73 ae 3e
       0.88597786 0.3465229 0.3565084 0.34072274
0002b0 1c 4b 01 be f6 62 46 bf 96 f8 fe 3e bc 0c fd 3c
       -0.12626308 -0.7749475 0.4979903 0.030889861
0002c0 4e 66 a0 3c 52 15 9e 3c 62 c5 9b bf 92 ff 68 c0
       0.019580033 0.019297276 -1.2169611 -3.6405988
0002d0 bd 46 f8 3d 31 1f ef 3e 1e 2e f0 bf b0 bb 84 3f
       0.12122867 0.46703485 -1.8764074 1.0369778
0002e0 df 66 4f be 5b 60 3d 3f 4e 99 09 bf c8 e0 ec bd
       -0.20254086 0.7397515 -0.5374955 -0.11566311
0002f0 8b 77 2d bd 59 9b cc 3d 42 2e a9 be 24 fa b6 3f
       -0.042350333 0.09990568 -0.33043104 1.4295087
000300 d9 f3 8a be 4e 98 81 be ee b3 8c 3f b0 b6 64 3f
       -0.27139166 -0.25311512 1.099241 0.8934126
000310 6b aa 1f 3e 07 ec b6 bd c3 46 52 3f c1 10 5c bf
       0.15592353 -0.089317374 0.82139224 -0.85963064
000320 a1 83 26 bf d3 e2 29 be 1a 37 5e bf 9f a7 b7 3e
       -0.650446 -0.16590433 -0.8680283 0.35870072
000330 96 55 bc 3e 1c 89 54 bd b1 af 78 bf 09 92 db bd
       0.36784047 -0.05188857 -0.97143084 -0.10721213
000340 de 3b 05 3e 7b e2 1a 3f 30 91 56 3e be 95 7a bd
       0.13011119 0.6050183 0.20953822 -0.06117796
000350 4c 8c cd 3e 68 0b 11 bf 1b d9 80 3f eb 4b 7d 3f
       0.401461 -0.5665803 1.0066255 0.98943967
000360 d3 ad cb 3e 0c 78 85 3f ad f0 d8 3e 47 40 b8 bf
       0.39781055 1.042726 0.4237112 -1.4394616
000370 47 6e 2b 3e 7b f0 a6 be 36 11 3a be b5 1a 0d 3d
       0.16741286 -0.32605347 -0.18170628 0.034449298
000380 fb e2 14 3f 20 62 90 be 28 a5 ba be 57 fa 55 be
       0.58158845 -0.28199863 -0.3645413 -0.20896278
000390 eb 3a 08 3e 3e 30 3d be 19 bc 82 bf 23 39 bd be
       0.13303725 -0.18475434 -1.0213653 -0.36957654
0003a0 a4 d2 e2 bd 90 05 04 be c3 93 67 bf 56 6c 7f be
       -0.11075333 -0.12892747 -0.9045984 -0.2494367
0003b0 5e 2a ea 3e 78 b8 37 bd 5f 6d f6 40 d0 a0 17 bf
       0.4573545 -0.044853657 7.700851 -0.59229755
0003c0 97 3b b5 be 97 dd 59 bb 6d 14 e2 be dc 11 55 3e
       -0.35397026 -0.003324365 -0.4415621 0.20807594
0003d0 14 36 ee 3e 3c 87 37 bf c2 0c 96 bf 9a 1e 81 3d
       0.46525633 -0.71690726 -1.1722643 0.06304665
0003e0 1e 41 a3 bd d4 81 66 3d 60 a9 4a bf bf 8d 97 bf
       -0.079714045 0.056276157 -0.79164696 -1.1840132
0003f0 a0 03 0a bf 2e 12 63 3e 0f 37 48 bf 99 19 8f be
       -0.5391178 0.22174904 -0.7820901 -0.27949217

action_model._discrete_distribution.branches.0.bias f4 [3]
000000 da ba e0 bf 33 31 61 bf f1 a7 21 40
       -1.7557023 -0.879657 2.5258753

action_model._discrete_distribution.branches.1.weight f4 [3, 128]
000000 20 2c 05 40 41 02 8d bf 26 4d af bf 71 67 04 c1
       2.0808182 -1.1016313 -1.3695419 -8.275254
000010 46 f5 58 bf ce 27 3f c0 03 c2 92 3e 51 cf c3 40
       -0.8474926 -2.9868045 0.28663644 6.119057
000020 c2 c7 d1 3f d8 99 82 bf ca 7b 91 3f 3c ff 4f 40
       1.6389086 -1.0203199 1.1365902 3.2499533
000030 4e e6 05 3f 91 35 42 bf 09 e4 36 3f 11 f5 dd 3d
       0.5230454 -0.75862986 0.71441704 0.10837758
000040 77 7b 6c bf 47 f1 84 c0 1d b3 f3 3d f0 c8 e4 be
       -0.9237589 -4.154453 0.118993975 -0.44684553
000050 e0 23 4a 3f b5 1e 04 bf fd 28 bb be 6c dd 2c 3f
       0.7896099 -0.51609355 -0.3655471 0.6752536
000060 b0 c0 0e be af 12 a0 40 f8 24 c8 3f ef fb a4 3f
       -0.13940692 5.0022807 1.5636282 1.2889384
000070 8c ac 95 3f 2f ce f5 3e 6f bb b6 3e 47 1f 67 bf
       1.1693282 0.48008868 0.35689875 -0.902821
000080 a1 b1 86 3f 5e 79 a6 3f b6 f4 4c 3f 78 cb d5 3f
       1.0522958 1.3005788 0.800609 1.6702719
000090 dd 0c 28 be 0c e8 dd be 9f 6c d7 3e 1c 5c d1 3d
       -0.16411157 -0.433411 0.4207506 0.102226466
0000a0 a9 6d 76 3f 4e 5c 37 bf 3b c7 db be f9 cc 0a be
       0.9626108 -0.7162522 -0.42925438 -0.13554753
0000b0 d2 96 fa be 9a 9b db 3e 55 bc 8b 40 74 2d b1 bb
       -0.48943192 0.42892152 4.3667397 -0.0054070298
0000c0 6d 5e 94 3e 0e d8 d7 3d b8 9d 6d bf ee f6 84 be
       0.2897829 0.10539256 -0.92818785 -0.25969642
0000d0 00 53 fb 3f 9a 01 1f 40 cb d2 9b 3f 55 10 1d be
       1.9634705 2.4844728 1.2173704 -0.15338261
0000e0 2a 16 54 bf 5e f1 59 40 97 db d3 3e 41 26 23 3f
       -0.8284632 3.405357 0.4137847 0.63730246
0000f0 21 3f b5 be 9a 60 fd be 87 60 14 41 76 be e1 40
       -0.35399726 -0.49487764 9.273566 7.0544996
000100 ea 09 12 3e 8e f0 20 bf b6 d5 9a 40 92 d8 30 40
       0.14261594 -0.6286706 4.8385878 2.7632184
000110 ac b1 9c 3f c2 36 02 3f 6a d9 44 3f 3b 07 87 3f
       1.2241721 0.50864804 0.7689425 1.0549082
000120 10 68 56 3f bb ed c2 3e 59 ec 97 be 37 da 1b bf
       0.83752537 0.38072 -0.29672506 -0.60879844
000130 a4 b8 97 3e 53 b2 8b bf 66 50 dd 3f 10 1f 69 40
       0.29633057 -1.0913795 1.7290161 3.642521
000140 10 e8 4e bd ea fc 98 3f a5 26 e9 bf 83 2b fc be
       -0.05051428 1.1952183 -1.8214918 -0.49251947
000150 59 22 f7 3e 4e 18 5b 3f de 8b 03 40 39 13 73 bf
       0.48268393 0.8558396 2.0554118 -0.94951206
000160 d6 e4 01 3f 0f 85 d8 3f 21 29 cc 3d dc 4d b8 be
       0.507398 1.6915606 0.09968782 -0.35996902
000170 d5 e3 08 3e d9 44 39 3e e4 11 62 3f 5e 64 8a be
       0.13368161 0.1809267 0.8830855 -0.270297
000180 f8 fa 90 3f a2 3e 4b 3e 8e aa c2 be b1 a2 4c bf
       1.132659 0.19848111 -0.38020748 -0.7993575
000190 a1 e6 75 3f 87 18 2c 3f e4 1a 12 40 ce b3 d9 bf
       0.96055037 0.67224926 2.2828913 -1.7007997
0001a0 a4 04 df 3f 1e 56 a6 3e 72 d0 fc 3d b6 65 2a 3f
       1.7423291 0.32487577 0.12344445 0.6656145
0001b0 bd 68 9a 3e 28 30 30 3e 69 b5 f2 bf d5 58 33 bd
       0.30158034 0.1720587 -1.8961612 -0.04378589
0001c0 5b 0d ca 3d 2f c6 3d bf 05 31 21 bf 9e 08 5a bf
       0.098658286 -0.7413053 -0.6296542 -0.851694
0001d0 b8 d9 99 be b0 01 de 3c 8b c1 af bf 3a c9 31 bf
       -0.3004892 0.027100414 -1.373094 -0.6944767
0001e0 42 b5 8a be 5c a6 70 40 c9 87 cb 3f be 78 24 be
       -0.27091414 3.7601538 1.5900813 -0.16061684
0001f0 ce 27 5f 3c 50 3e 89 bd 5d 23 10 40 93 f1 43 3e
       0.01362033 -0.06701338 2.2521584 0.19135122
000200 1d 24 a1 3f 4a ef f0 bf 34 cb ea bc 69 ec 33 3f
       1.2589146 -1.8823025 -0.028661348 0.7028261
000210 16 44 3d 3f 7c d9 88 40 dc cf 77 3e 48 af 9b 40
       0.73932016 4.2765484 0.24200386 4.8651466
000220 3f e8 14 3f a4 4a 5d 3d 34 4f 86 bd 85 51 7c c0
       0.5816688 0.05402626 -0.065580755 -3.9424756
000230 7e d4 d1 bf 1c fe c8 be 55 15 07 3e 1d bc 85 be
       -1.6392972 -0.3925637 0.13191731 -0.26120082
000240 59 f3 f8 bf d7 2d 46 3f a2 19 82 3e 37 64 a5 3c
       -1.9449264 0.77413696 0.2541018 0.020189388
000250 ba 4b 02 c0 16 3a 42 3f 83 6d 1d 3f cc 23 43 3f
       -2.035872 0.7586988 0.61495227 0.76226497
000260 d3 c7 ad 3e 5f 68 ff 3f 44 b3 5e bf b4 b2 d1 3e
       0.33941516 1.9953727 -0.8699229 0.40956652
000270 48 e1 f4 3f a6 38 ed be 96 d0 c4 be 9e e6 e4 3e
       1.913125 -0.46332282 -0.38440388 0.44707197
000280 69 5f 8a 3f ac 08 57 bf ee 4d 53 3f 6d 9f 9b bf
       1.0810367 -0.8399761 0.82540786 -1.2158028
000290 c6 ed 41 bf 7d 4d 50 3f e7 d3 cd bf 46 c1 8d bf
       -0.7575344 0.8136824 -1.6080292 -1.1074607
0002a0 af d5 66 bf 35 43 e7 be 0b 21 ab be 76 23 29 bd
       -0.90169805 -0.45168462 -0.33423647 -0.041293584
0002b0 c5 5e 49 3d 41 e0 5f 3f 14 7a 2b 3e 5e 98 4c 3d
       0.049162645 0.8745156 0.16745788 0.049949996
0002c0 42 02 4f 3e bd 25 37 bf 8d 48 9f bf 7e 36 89 bf
       0.20215705 -0.7154196 -1.2444016 -1.0719755
0002d0 dc a4 03 bf 68 55 38 be 09 36 5b bf 8d 39 35 be
       -0.5142343 -0.1800133 -0.85629326 -0.17697735
0002e0 5a f3 a5 bf 84 64 54 40 95 49 55 be 84 26 9f 3f
       -1.296489 3.318635 -0.2082885 1.2433629
0002f0 a2 ab 6b 3e 04 9e f3 3e 74 a6 86 3c 59 79 5c 3f
       0.23014691 0.47581494 0.016436793 0.8612266
000300 6b 2c e9 bd 84 b9 60 3f cd e5 c4 3f de 5d c6 be
       -0.11385425 0.87783074 1.538263 -0.3874349
000310 8d f0 24 c0 8d ab d4 be 30 b0 e8 3f fb 3f d3 bf
       -2.577182 -0.41537133 1.8178768 -1.65039
000320 e9 91 72 3e 66 3f 32 bd 23 72 26 bf 13 26 2b 3e
       0.23688473 -0.043517493 -0.6501791 0.16713743
000330 20 96 98 3e fd 1c b5 b9 d4 6f 43 c0 8c b0 c7 bf
       0.29802036 -0.00034544608 -3.0537004 -1.5600753
000340 ba c2 15 be 2d 55 cf bf 36 05 75 bf 00 2d 5a bf
       -0.14625064 -1.6197869 -0.95711076 -0.85224915
000350 4e 9c c5 bf 9a bc 11 bf 61 e1 b1 bd e3 4a e9 3e
       -1.5438325 -0.5692841 -0.08685566 0.45564947
000360 c9 14 d7 3e 9b a9 2b 3f 19 ee d0 3e 87 b2 0b bf
       0.42008045 0.6705567 0.40806654 -0.54569286
000370 49 56 18 bf e6 1d 30 bf 5e 3e af 3d bd 07 ff be
       -0.5950666 -0.6879562 0.085568175 -0.4981059
000380 ab 3f 18 bf 1a 21 56 3f cb bb 84 3e 86 c1 9b 3e
       -0.5947215 0.8364426 0.25924525 0.30421084
000390 80 ec 30 bf 32 d1 c8 bf c6 07 80 3e 39 cb f0 3e
       -0.6911087 -1.5688841 0.2500593 0.47030047
0003a0 58 5f 9d bf ee c1 12 c0 f9 18 f7 bf 0c 8a 1a 3f
       -1.2294722 -2.2930865 -1.9304496 0.6036689
0003b0 9c 77 d0 3e 95 02 d2 3e bd 17 22 c0 75 f4 8f be
       0.40716255 0.41017595 -2.5326989 -0.28116193
0003c0 a3 f6 26 3f 89 23 88 3e 99 25 4b bd a6 2d df 3c
       0.6522009 0.2658961 -0.049596403 0.027243447
0003d0 41 0d c7 bf 26 a2 e5 be 18 a8 85 bd 90 08 1c bf
       -1.555092 -0.44850272 -0.06526202 -0.60950565
0003e0 39 e4 7d bd 55 84 a0 3f 01 a3 02 c0 34 3b 65 bf
       -0.06198523 1.2540385 -2.041199 -0.8954346
0003f0 44 01 ca 3c 4e 4d ab bd 3b 93 2b 3f 31 3b 8b be
       0.024658807 -0.08364354 0.6702153 -0.27193597

action_model._discrete_distribution.branches.1.bias f4 [3]
000000 46 34 06 3f be d3 ef bd 32 1a b4 3d
       0.5242351 -0.117103085 0.08794059
