results/EasyMapAgent1/My Behavior/My Behavior-499895.onnx (onnx, 81381 bytes, 14 tensors)

77 f4 [13]
208.55324 569.0348 420.53745 729.8646 0.0014143607 631.93646 222.72043 409.22095
266.53354 151.09056 83.946724 573.8223 195.8506
00000000: a18d 5043 3a42 0e44 cb44 d243 5677 3644
00000010: 1262 b93a effb 1d44 6eb8 5e43 489c cc43
00000020: 4b44 8543 2f17 1743 b9e4 a742 a174 0f44
00000030: c1d9 4343

action_model._continuous_distribution.log_sigma f4 [1, 2]
-0.1538016 -0.072261564
00000000: 2b7e 1dbe dffd 93bd

action_model._continuous_distribution.mu.bias f4 [2]
0.17361397 0.18618077
00000000: dcc7 313e 2ca6 3e3e

action_model._continuous_distribution.mu.weight f4 [2, 128]
-0.016410157 -0.084208965 -0.011500788 -0.094075166 0.004035786 0.002906889 0.009183493 0.011402329
-0.011733938 -0.021085238 0.0047662444 -0.013680284 0.001985115 0.021569837 0.00605658 0.01389029
-0.003936383 -0.001887549 -0.089851364 0.02380521 -0.0077126944 -0.028706642 -0.016360508 -0.01389207
-0.00049033633 0.0055038994 0.011518056 -0.059644975 0.027072834 -0.0016945312 -0.010161448 -0.01406687
-0.012670494 -0.026720433 0.00023784021 0.013180261 -0.033995535 -0.077047355 0.008236221 -0.015381274
-0.0028287463 -0.0043216897 -0.012725639 0.071578674 0.018856531 0.014436784 -0.027401986 -0.066286735
0.0044250223 0.0345383 0.002638376 0.006828547 0.04755727 -0.0064940993 -0.15195803 -0.0009006584
0.0025654237 -0.0839429 -0.026545959 0.0055574635 0.0048092413 -0.010647693 -0.0015029155 -0.0053450153
-0.01477123 0.045070015 -0.0038571528 -0.005736824 -0.01019324 -0.36699143 -0.0058321133 -0.009475194
-0.11721467 -0.041562468 -0.015180354 0.01621418 0.008677733 -0.01887288 -0.0054245903 -0.03911027
-0.00035854607 -0.028019527 -0.044687457 -0.040411532 -0.01138549 0.0019351623 0.0004752102 -0.005209197
-0.004731192 -0.0092045525 0.017719664 -0.0025368058 0.08390865 0.057022788 -0.0061094766 0.018379185
0.0057200235 0.0017120625 -0.0036626875 0.08998492 0.162977 0.0006461827 -0.014884984 0.0052296687
-0.015199107 0.07503565 -0.0028987825 0.022132576 -0.010950586 -0.0074231992 0.017854344 0.0070397933
-0.0007772725 0.0018578147 -0.03533386 0.011095102 0.019698579 -0.026870828 0.060476873 0.010327827
-0.006199327 -0.002184624 -0.0793264 -0.002277571 -0.17355745 0.0783151 0.021265604 -0.011691553
-0.011084821 -0.074584685 -0.0117763495 -0.027002294 -0.0020190766 -0.0016726522 -0.0073298463 0.0036767889
-0.0018439026 -0.00043078756 -0.012506862 0.0019696606 0.0046716356 0.02119258 -0.004645839 0.0067193587
0.004190358 0.008132406 -0.08734087 0.0072176214 -0.0036569193 0.088818796 0.009274816 -0.010392294
0.0030355777 0.0011729648 0.013126936 -0.012128529 -0.0051803775 -0.010521842 -0.0014069679 -0.0064389156
-0.0026143517 0.013587829 -0.0040461863 -0.06043207 -0.017706236 -0.12477588 -0.005049295 0.004535346
-0.007167716 0.0109815 0.0016561842 0.16460104 0.012951825 -0.005792723 0.07115975 -0.113098614
0.001702818 -0.06900216 -0.0053740875 -0.005892715 -0.091374725 -0.031963315 -0.06734335 0.078204736
0.004096781 -0.044551942 0.00093671 -0.021191772 0.010532357 -0.0076915594 0.003771336 -0.04862385
-0.0055802353 -0.014293787 -0.008840617 -0.0019570095 0.0003837368 0.05427206 -0.001544403 0.0006450862
-0.04044693 -0.0050512133 0.0097275395 -0.003911188 0.00928706 -0.025831727 -0.0012144679 -0.08632979
0.0052275574 0.022587571 -0.006748842 0.049113493 0.0017925567 0.009585049 0.005633164 -0.0075047985
-0.0030433687 0.0103158625 0.010465093 0.0046633477 -0.0123986 0.05070429 0.0027839278 0.015372611
-0.013042822 0.00945169 0.0056299907 0.03540845 0.0809404 0.011862255 0.001974761 -0.0058275214
-0.00017430329 0.0035896595 -0.0007925954 -0.0059365686 0.0026086345 -0.0029590612 -0.021034023 0.0022278505
-0.005187721 0.0040453332 -0.053564228 0.0020400726 0.010350105 -0.028394148 0.029421795 -0.0012666063
-0.0007436101 0.0061208527 -0.034346122 0.0069152666 0.08127885 0.13151191 0.027229346 0.0059419707
00000000: 986e 86bc c075 acbd cd6d 3cbc 7baa c0bd
00000010: a03e 843b 8181 3e3b 5d76 163c d6d0 3a3c
00000020: b43f 40bc f3ba acbc 282e 9c3b 4523 60bc
00000030: b418 023b 3ab3 b03c 4776 c63b 1994 633c
00000040: c6fc 80bb a267 f7ba fe03 b8bd 2503 c33c
00000050: c5ba fcbb 312a ebbc 7906 86bc 919b 63bc
00000060: ea89 00ba 0e5a b43b 3ab6 3c3c 4a4e 74bd
00000070: d9c7 dd3c 081b deba 347c 26bc bb78 66bc
00000080: e797 4fbc cfe4 dabc bf64 7939 05f2 573c
00000090: e73e 0bbd 01cb 9dbd 37f1 063c bd01 7cbc
000000a0: 7d62 39bb f69c 8dbb 337f 50bc d797 923d
000000b0: 0379 9a3c 4388 6c3c 217a e0bc 57c1 87bd
000000c0: c7ff 903b 0878 0d3d 9be8 2c3b 01c2 df3b
000000d0: 69cb 423d 74cc d4bb e39a 1bbe 291a 6cba
000000e0: ab20 283b 41ea abbd e976 d9bc 621b b63b
000000f0: d796 9d3b a973 2ebc 7afd c4ba 3d25 afbb
00000100: 0703 72bc 569b 383d 49c8 7cbb f8fb bbbb
00000110: 8c01 27bc 4de6 bbbe 501b bfbb d83d 1bbc
00000120: 3f0e f0bd 683d 2abd 05b7 78bc 9ad3 843c
00000130: 0d2d 0e3c 4c9b 9abc c3c0 b1bb 1732 20bd
00000140: 3dfb bbb9 3589 e5bc 320a 37bd 9086 25bd
00000150: 358a 3abc 46a5 fd3a a225 f939 e9b1 aabb
00000160: 1d08 9bbb b1ce 16bc d428 913c 8a40 26bb
00000170: 4cd8 ab3d ba90 693d 0132 c8bb f28f 963c
00000180: 096f bb3b 4967 e03a b309 70bb 044a b83d
00000190: 71e3 263e 9664 293a 26e0 73bc a45d ab3b
000001a0: ad05 79bc 4aac 993d 80f9 3dbb 604f b53c
000001b0: 166a 33bc 4f3e f3bb 4643 923c 11ae e63b
000001c0: e0c1 4bba eb81 f33a 3dba 10bd 3bc8 353c
000001d0: ea5e a13c 3620 dcbc 99b6 773d 0c36 293c
000001e0: b923 cbbb e92b 0fbb e175 a2bd 4d43 15bb
000001f0: 0bb9 31be ab63 a03d 3435 ae3c ed8d 3fbc
00000200: 1c9d 35bc dbbf 98bd 97f1 40bc ea33 ddbc
00000210: 7c52 04bb e53c dbba 352f f0bb 48f6 703b
00000220: 1baf f1ba 54db e1b9 95e9 4cbc 6c15 013b
00000230: 8514 993b 109c ad3c 1f3c 98bb 112e dc3b
00000240: 454f 893b c83d 053c c5df b2bd cc81 ec3b
00000250: eda8 6fbb a1e6 b53d 66f5 173c 7144 2abc
00000260: 8bf0 463b 2bbe 993a 5c12 573c bdb6 46bc
00000270: 28c0 a9bb ce63 2cbc 026a b8ba 8afd d2bb
00000280: 8b55 2bbb 7c9f 5e3c df95 84bb 9e87 77bd
00000290: ab0c 91bc 7f8a ffbd 8e74 a5bb 3d9d 943b
000002a0: 29df eabb c0eb 333c 5214 d93a 2d8d 283e
000002b0: e433 543c e2d0 bdbb 34bc 913d 3fa0 e7bd
000002c0: 1731 df3a 0151 8dbd 1d19 b0bb ad17 c1bb
000002d0: ac22 bbbd f7eb 02bd 4feb 89bd ce29 a03d
000002e0: 4a3e 863b 197c 36bd 8b8d 753a 5e9a adbc
000002f0: e88f 2c3c 7a09 fcbb 8528 773b cd29 47bd
00000300: 68da b6bb 7d30 6abc 3cd8 10bc 2c41 00bb
00000310: 4830 c939 614c 5e3d 916d caba 011b 293a
00000320: aeab 25bd a684 a5bb 4260 1f3c 6c29 80bb
00000330: c128 183c 0f9d d3bc c82e 9fba accd b0bd
00000340: ee4b ab3b 9209 b93c 6425 ddbb 3b2b 493d
00000350: 39f4 ea3a 9c0a 1d3c 6896 b83b d0ea f5bb
00000360: 4173 47bb dd03 293c c875 2b3c ffce 983b
00000370: 7f23 4bbc 4daf 4f3d 8f72 363b 67dd 7b3c
00000380: 8fb1 55bc 43db 1a3c c97b b83b 7308 113d
00000390: 15c4 a53d e759 423c fe6a 013b cbf4 bebb
000003a0: 2fc5 36b9 7e40 6b3b 2dc6 4fba 8c87 c2bb
000003b0: a0f5 2a3b cfec 41bb 8b4f acbc 2101 123b
000003c0: c2fd a9bb b78e 843b 2a66 5bbd bdb2 053b
000003d0: 7d93 293c d89a e8bc fa05 f13c 4104 a6ba
000003e0: d4ee 42ba 6f91 c83b 85ae 0cbd 7699 e23b
000003f0: 8775 a63d 0fab 063e 1410 df3c ddb4 c23b

action_model._discrete_distribution.branches.0.bias f4 [3]
-0.2972937 -0.10976362 0.33630162
00000000: e136 98be c0cb e0bd ba2f ac3e

action_model._discrete_distribution.branches.0.weight f4 [3, 128]
-0.017828641 0.10151345 0.0085794125 -0.19191384 0.026209572 -0.008389892 0.009576153 -0.018549796
0.0038007412 0.004259358 -0.011288714 0.053421687 -0.025327753 -0.041033972 -0.004130014 -0.021401525
0.0045495527 -0.0028422996 0.14115241 -0.02302191 0.04622829 0.16921917 -0.0020139755 -0.07630247
0.020729346 -0.007699783 -0.09161767 -0.12882102 -0.01627692 0.00104619 -0.0036825803 0.0054778247
0.044910993 -0.057740327 -0.0039664744 -0.009360402 -0.013031843 -0.497526 -0.5901668 -0.0057789613
-0.008327957 -0.009016666 -0.018226126 -0.24528696 -0.051426925 -0.024525002 -0.112796776 -0.23554046
-0.01738824 0.79233134 -0.0015616094 -0.012653348 -0.0062842313 -0.1326044 -0.063358605 -0.014028538
-0.026028713 -0.016904434 0.017119242 -0.2901312 0.002657026 0.021621589 -0.009503846 0.29307404
0.011735572 -0.30815816 -0.112606004 0.0016661177 -0.021584362 -0.37172934 -1.5771991e-05 -0.010719846
-0.07800047 -0.059584983 -0.012247924 -0.020487411 -0.06666825 -0.4619065 0.0015520673 -0.53067696
-0.01241677 0.26705718 -0.06362694 -0.11217398 -0.0074483743 -0.020701937 -0.019759126 0.011196898
0.0012328627 -0.0114196865 -0.058922537 -0.007827785 -0.17093268 0.43732128 -0.014789954 -0.05542568
0.023348788 -0.020946108 0.016924778 0.3545688 0.080986515 -0.010231509 0.0035225993 -0.0128301475
0.0014078572 0.015727961 -0.00063517835 -0.03648582 0.0029745104 0.00042121913 -0.33536884 -0.004772222
0.0056201713 0.0029853354 0.12885058 -0.013859187 -0.04077122 0.07926881 -0.22594082 -0.024503738
-0.023589553 -0.020445839 -0.20802195 -0.005603747 -0.22971997 -0.090208784 -0.008230757 0.0033921774
-0.003157839 -0.020425133 -0.0035047494 -0.03245498 0.016788324 0.0052464656 0.021359649 0.0007386067
0.01589909 0.0055192653 -0.008337171 0.004968056 -0.013881965 -0.022898361 -0.01369563 0.01091606
0.007259827 0.01864871 -0.015274178 -0.04145519 0.039667115 -0.27194497 0.022822728 -0.076961674
0.018455135 -0.005863092 0.13861744 0.017597675 0.0026206055 -0.010607479 -0.0010109359 0.0029588388
-0.009626334 -0.019321077 -0.011796514 -0.02935244 -0.1078797 -0.02540542 -0.42937192 0.013543477
-0.00684884 0.0054650023 0.023782562 0.09326583 0.0094865095 -0.0161645 0.15759279 -0.16328794
0.010519294 -0.4253185 -0.0062374617 0.009969211 -0.044309545 -0.03999264 -0.05400806 -0.06949199
0.010194992 -0.048861124 0.016331038 0.13359503 0.01771114 0.0011751641 0.0037320266 -0.13009652
-0.005508637 0.10775556 0.018096348 -0.0009018665 0.0076583778 0.11750883 -0.0035984775 0.017798863
0.08506517 0.07786464 0.0061366493 0.01005288 0.0122348815 -0.13468605 -0.0039837905 -0.2538238
-0.0030628603 0.16765743 0.02278441 -0.022386355 0.0059087086 -0.011313888 0.0039111157 0.005367716
0.00041177968 0.011026642 -0.027905405 0.007110703 0.2894484 0.009989984 0.011715517 -0.041820683
0.01936656 0.007620529 -0.020111265 -0.11485017 0.3211958 0.012797855 0.0197173 -0.022023449
0.013537642 -0.13295746 0.020408504 0.006390452 0.009379475 -0.004172928 0.071752265 0.002809113
0.032122545 -0.0054468005 -0.273441 0.013854118 0.020408954 0.027092723 -0.34224394 -0.011124743
-2.9554738e-05 -0.01017974 0.017511137 0.0044303522 0.06669478 0.09293332 0.032665297 0.0012024922
00000000: 5f0d 92bc 49e6 cf3d aa90 0c3c 1085 44be
00000010: 75b5 d63c c275 09bc 4ce5 1c3c bef5 97bc
00000020: db15 793b 1692 8b3b 4cf4 38bc b3d0 5a3d
00000030: 267c cfbc 3d13 28bd 1255 87bb 4052 afbc
00000040: 6a14 953b e045 3abb 428a 103e 7298 bcbc
00000050: e059 3d3d ca47 2d3e e7fc 03bb 7844 9cbd
00000060: 97d0 a93c 764e fcbb 0ca2 bbbd a8e9 03be
00000070: 2d57 85bc 5020 893a 7257 71bb 537f b33b
00000080: 97f4 373d 1f81 6cbd 33f9 81bb 5f5c 19bc
00000090: 8383 55bc babb febe 2c15 17bf 715d bdbb
000000a0: fc71 08bc a3ba 13bc f54e 95bc 812c 7bbe
000000b0: 0aa5 52bd a8e8 c8bc ff01 e7bd 8531 71be
000000c0: c871 8ebc 3ad6 4a3f ebae ccba fd4f 4fbc
000000d0: f4eb cdbb 73c9 07be 28c2 81bd f4d7 65bc
000000e0: 2b3a d5bc 2b7b 8abc a73d 8c3c 148c 94be
000000f0: 8021 2e3b c21f b13c 05b6 1bbc cd0d 963e
00000100: 8e46 403c e8c6 9dbe fa9d e6bd a261 da3a
00000110: b0d1 b0bc 4f53 bebe 184e 84b7 4ba2 2fbc
00000120: b6be 9fbd 620f 74bd 84ab 48bc 37d5 a7bc
00000130: 5d89 88bd 027f ecbe bd6e cb3a 72da 07bf
00000140: b56f 4bbc b8bb 883e d74e 82bd 79bb e5bd
00000150: 7e11 f4bb 1c97 a9bc e4dd a1bc 3273 373c
00000160: 0298 a13a a319 3bbc c258 71bd 1c40 00bc
00000170: fa08 2fbe 93e8 df3e 9051 72bc 0a06 63bd
00000180: f545 bf3c 2c97 abbc d5a5 8a3c 0b8a b53e
00000190: 42dc a53d 0fa2 27bc 69db 663b 8a35 52bc
000001a0: d987 b83a edd7 803c 1982 26ba 2872 15bd
000001b0: 01f0 423b 13d7 dc39 77b5 abbe 4d60 9cbb
000001c0: 6a29 b83b 9ea5 433b 68f1 033e a511 63bc
000001d0: b9ff 26bd b057 a23d 085d 67be 10bc c8bc
000001e0: e13e c1bc 087e a7bc b503 55be a39f b7bb
000001f0: b63b 6bbe 62bf b8bd 4cda 06bc 4b4f 5e3b
00000200: bff3 4ebb 9c52 a7bc f0af 65bb 83ef 04bd
00000210: ab87 893c 8bea ab3b 6efa ae3c 0e9f 413a
00000220: cf3e 823c f4da b43b a198 08bc 13cb a23b
00000230: 2e71 63bc 5895 bbbc a363 60bc 46d9 323c
00000240: d8e3 ed3b 2ec5 983c 8c40 7abc ebcc 29bd
00000250: fc79 223d 5f3c 8bbe bbf6 ba3c 159e 9dbd
00000260: 392f 973c 2e1f c0bb bbf1 0d3e 0029 903c
00000270: 77be 2b3b feca 2dbc 6181 84ba 14e9 413b
00000280: c5b7 1dbc 3c47 9ebc 2a46 41bc 8774 f0bc
00000290: 08f0 dcbd 071f d0bc a3d6 dbbe 76e5 5d3c
000002a0: 3c6c e0bb c313 b33b a6d3 c23c 2802 bf3d
000002b0: 4e6d 1b3c 6a6b 84bc 0160 213e f434 27be
000002c0: 1e59 2c3c 59c3 d9be 9f63 ccbb e755 233c
000002d0: ed7d 35bd 53cf 23bd 8e37 5dbd d151 8ebd
000002e0: e508 273c 9a22 48bd abc8 853c 23cd 083e
000002f0: f416 913c f707 9a3a 0495 743b 0638 05be
00000300: cc81 b4bb f2ae dc3d cb3e 943c 3c6b 6cba
00000310: 21f3 fa3b 78a8 f03d 6fd4 6bbb ecce 913c
00000320: a636 ae3d 7f77 9f3d f215 c93b d6b4 243c
00000330: d074 483c 24eb 09be 758a 82bb 31f5 81be
00000340: 45ba 48bb 64ae 2b3e 5fa6 ba3c 9763 b7bc
00000350: d79d c13b e35d 39bc d128 803b aae3 af3b
00000360: 22e4 d739 17a9 343c e099 e4bc e600 e93b
00000370: 9532 943e 08ad 233c 71f2 3f3c 2a4c 2bbd
00000380: 9fa6 9e3c a1b5 f93b 61c0 a4bc 9136 ebbd
00000390: c773 a43e 18ae 513c 2d86 a13c 856a b4bc
000003a0: fccc 5d3c 0026 08be bc2f a73c ff66 d13b
000003b0: 5fac 193c 0fbd 88bb daf2 923d 1819 383b
000003c0: ee92 033d 137b b2bb 7500 8cbe 62fc 623c
000003d0: ae30 a73c 8ff1 dd3c 993a afbe 8e44 36bc
000003e0: 51ec f7b7 edc8 26bc 8473 8f3c 7d2c 913b
000003f0: 4697 883d d353 be3d 0ccc 053d f19c 9d3a

action_model._discrete_distribution.branches.1.bias f4 [3]
-0.2745403 0.010370247 0.2478443
00000000: 8c90 8cbe f8e7 293c e5ca 7d3e

action_model._discrete_distribution.branches.1.weight f4 [3, 128]
-0.016873784 0.19683552 -0.009771871 0.016411388 -0.014976311 0.024583312 0.012126443 0.023205549
-0.00791433 -0.019804701 0.013559534 -0.0028241165 0.022325585 -0.008202971 0.018096004 -0.0072577177
0.0023206642 0.0016126868 0.112569235 -0.0040990734 0.041383035 -0.035273224 -0.02571832 -0.10525776
6.319752e-05 -0.008448105 -0.13208722 0.006954468 0.0008567728 -0.0032685907 -0.017491536 0.0021022772
-0.03723418 -0.004152309 -0.00836773 0.006755342 -0.1973535 -0.10488213 0.05927303 -0.012405071
0.0094214445 -0.00034789857 -0.023793591 -0.016838718 -0.003081437 0.008688546 0.09011077 -0.19348328
0.004422066 -0.12965493 0.007632067 -0.007905626 0.25991732 0.055652305 0.07772253 -0.12856552
-0.014820433 0.01902089 -0.023568297 -0.014582636 0.0020924672 -0.017303994 -0.0059245415 0.33172488
-0.03159944 -0.21133234 -0.04335543 0.00043723616 -0.0071406057 0.1892073 -0.0033984832 -0.009857004
0.21418402 -0.013240393 -0.008203438 0.012432926 0.008153348 0.13889427 -0.016514663 0.0054367287
-0.0032812662 -0.5781407 0.0029687623 -0.14247145 -0.021448717 0.020605244 -0.0032065257 0.004369764
0.005332193 -0.0067683808 -0.013848919 -0.0011584767 -0.6431799 -0.0009815992 0.023084573 -0.054703668
0.0023387142 -0.021608112 -0.0048000105 0.14003672 0.12507163 -0.004951644 -0.007495256 0.0150953485
-0.005666768 -0.0665436 -0.008687184 0.005708651 -0.017112706 0.009287806 -0.02724272 -0.0044589723
-0.0015301649 0.007638132 -0.046480257 0.00040914494 0.0012778933 -0.0018168561 0.001373632 -0.026009269
-0.018622518 -0.0073088766 -0.22373572 -0.012691354 -0.037002515 -0.06682832 0.010722607 0.0006461039
0.0073252656 -0.23640214 0.03071235 -0.042442016 0.0023067098 0.0064824554 0.013432452 -0.010421501
0.02669906 0.009997965 0.00885621 -0.009864911 0.007865079 0.0023175848 0.0075134807 -0.008230748
0.010536725 0.009799762 -0.06286415 0.047906157 -0.020000562 -0.021621227 0.024153274 0.03285029
0.007146522 -0.01187259 -0.042030916 -0.11626858 -0.024818264 0.008818433 -0.008538115 0.011073792
-0.016027527 0.031133138 -0.026912618 -0.002749855 0.085036546 0.11156593 0.07090635 0.02291248
0.014051459 0.0031481045 0.0343713 -0.02864972 0.01664183 0.0034080485 0.0094727585 -0.009245002
0.005011121 0.22272013 0.010016227 0.017217103 -0.041245345 -0.0063939206 -0.011180358 0.10694185
0.020625493 0.03367603 0.014344253 -0.03489659 0.010943853 0.0015803649 0.012734213 -0.0005211478
0.0039501404 0.084754005 0.026233487 0.011743725 0.030172324 -0.14381073 0.011512814 0.0069124014
-0.0077477456 -0.10452972 0.013792064 0.009894678 0.0012578783 0.00027054065 -0.0006717237 0.046514697
0.0048442134 0.3454396 0.013097944 0.016328922 0.0148861315 0.009355399 0.006432889 0.02940007
0.0060698944 0.02150666 -0.010824574 0.013201201 -0.078415245 0.17360829 -0.00676208 0.07217288
-0.009392771 0.019617984 -0.012864353 -0.08975926 -0.13668382 -0.015885672 0.029043507 -0.014139457
0.026124848 -0.00073750573 -0.007193278 -0.0030116858 0.0029722557 0.0038760721 -0.14666055 0.007361819
-0.0042571267 0.0068719606 0.038079437 0.008295989 0.009896658 -0.019025035 0.070360795 0.059105314
0.018637966 -0.012494882 -0.032845978 -0.004886728 0.06422891 0.01978894 -0.0035297528 0.0010935231
00000000: e43a 8abc 408f 493e 331a 20bc 2d71 863c
00000010: 335f 75bc f162 c93c fdad 463c 9019 be3c
00000020: 1bab 01bc 783d a2bc cf28 5e3c d014 39bb
00000030: 25e4 b63c c165 06bc 123e 943c 26d2 edbb
00000040: 4916 183b ca60 d33a b38a e63d 8551 86bb
00000050: 4281 293d a87a 10bd 3aaf d2bc 6191 d7bd
00000060: e988 8438 ec69 0abc df41 07be 4ee2 e33b
00000070: 0d99 603a da35 56bb 694a 8fbc 5cc6 093b
00000080: de82 18bd 1810 88bb ce18 09bc ea5b dd3b
00000090: 0917 4abe 71cc d6bd 47c8 723d a43e 4bbc
000000a0: 675c 1a3c 2866 b6b9 c7ea c2bc 5af1 89bc
000000b0: eff1 49bb 675a 0e3c ff8b b83d 7b20 46be
000000c0: fae6 903b 43c4 04be 6b16 fa3b 9986 01bc
000000d0: e213 853e acf3 633d fd2c 9f3d aea6 03be
000000e0: 67d1 72bc b3d1 9b3c 4d12 c1bc 02ec 6ebc
000000f0: c621 093b 1bc1 8dbc a822 c2bb d8d7 a93e
00000100: 6a6e 01bd 8167 58be 7795 31bd d83c e539
00000110: befb e9bb 8fbf 413e 16b9 5ebb 457f 21bc
00000120: 0e53 5b3e 3cee 58bc b667 06bc 79b3 4b3c
00000130: 9f95 053c 4d3a 0e3e c249 87bc 9626 b23b
00000140: 830a 57bb 0701 14bf 918f 423b 09e4 11be
00000150: 38b5 afbc 54cc a83c 9324 52bb 3d30 8f3b
00000160: adb9 ae3b 4bc9 ddbb 94e6 62bc 07d8 97ba
00000170: 70a7 24bf 01a9 80ba dc1b bd3c f410 60bd
00000180: 1d45 193b 7f03 b1bc 6849 9dbb c965 0f3e
00000190: c712 003e 6741 a2bb c49a f5bb 7b52 773c
000001a0: 4cb0 b9bb 0348 88bd b154 0ebc a30f bb3b
000001b0: f22f 8cbc e22b 183c 202c dfbc 921c 92bb
000001c0: d08f c8ba 4c49 fa3b 1562 3ebd 8182 d639
000001d0: fc7e a73a 9323 eeba 710b b43a 6411 d5bc
000001e0: 408e 98bc 4d7f efbb fa1a 65be 66ef 4fbc
000001f0: f38f 17bd 49dd 88bd e0ad 2f3c 4c5f 293a
00000200: c808 f03b 6713 72be 7798 fb3c aed7 2dbd
00000210: 2b2c 173b c76a d43b ca13 5c3c f1be 2abc
00000220: fdb7 da3c 81ce 233c a319 113c 70a0 21bc
00000230: 88dc 003c 9fe2 173b a533 f63b 42da 06bc
00000240: 3aa2 2c3c 2e8f 203c ebbe 80bd 3f39 443d
00000250: 38d8 a3bc 001f b1bc 16dd c53c 078e 063d
00000260: 5f2d ea3b 4085 42bc 9c28 2cbd 391e eebd
00000270: ac4f cbbc 307b 103c 73e3 0bbc da6e 353c
00000280: 294c 83bc ec0a ff3c da77 dcbc e936 34bb
00000290: a427 ae3d ae7c e43d 5937 913d f4b2 bb3c
000002a0: 1738 663c 6e50 4e3b ecc8 0c3d d1b2 eabc
000002b0: 7254 883c 9159 5f3b a133 1b3c 5978 17bc
000002c0: 5434 a43b bf10 643e 1a1b 243c e20a 8d3c
000002d0: e1f0 28bd 1884 d1bb d22d 37bc 5404 db3d
000002e0: cbf6 a83c e0ef 093d 2804 6b3c baef 0ebd
000002f0: d94d 333c 3f24 cf3a 29a3 503c a39d 08ba
00000300: 2e70 813b 8293 ad3d 9ce7 d63c c168 403c
00000310: f32b f73c 1f43 13be 3ea0 3c3c 6d81 e23b
00000320: cde0 fdbb ae13 d6bd 1cf8 613c 4a1d 223c
00000330: 64df a43a 5ad7 8d39 9d16 30ba 3286 3e3d
00000340: 35bc 9e3b 76dd b03e c298 563c 3bc4 853c
00000350: f6e4 733c 6347 193c fcca d23b 6ad8 f03c
00000360: f7e5 c63b bc2e b03c 8e59 31bc da49 583c
00000370: 2c98 a0bd 5fc6 313e 7094 ddbb 60cf 933d
00000380: 23e4 19bc e5b5 a03c 02c5 52bc b4d3 b7bd
00000390: d8f6 0bbe ab22 82bc a6ec ed3c 2ea9 67bc
000003a0: c703 d63c 2c55 41ba 97b5 ebbb b45f 45bb
000003b0: 2dca 423b b305 7e3b 2f2e 16be 6a3b f13b
000003c0: 5e7f 8bbb 2f2e e13b 2ff9 1b3d e6eb 073c
000003d0: 9825 223c 64da 9bbc 5219 903d 6a18 723d
000003e0: a6ae 983c 55b7 4cbc 8189 06bd d820 a0bb
000003f0: 728a 833d 6a1c a23c 6d53 67bb 8c54 8f3a

discrete_action_output_shape f4 [1, 2]
3.0 3.0
00000000: 0000 4040 0000 4040

network_body._body_endoder.seq_layers.0.bias f4 [128]
-0.7569903 -0.103473105 -0.5431467 -0.6716707 -0.6985719 -0.032084983 -0.34019125 -0.25365964
-0.7372004 -0.62840205 -0.009692045 -0.01930918 -0.119841315 -0.89842397 -0.7874064 -0.16942717
-0.5990209 -0.37879825 -0.046765894 -0.73320144 -0.2990559 -0.52282935 -0.44429 -0.8077459
-0.028637175 -0.62874573 -0.055486962 -0.014247937 -0.20028964 -0.43961987 -0.018148884 -0.009073348
-0.3322706 -0.6233201 -0.29583892 -0.6284173 0.01218921 -0.0038736253 -0.15973574 -0.32687354
0.012024269 -0.15028289 0.005129049 -0.37976906 -0.0023234827 -0.19034024 -0.065476365 -0.024709642
-0.08347154 -0.35576975 -0.22751121 -0.033592187 -0.07937098 -0.47805125 -0.18310253 -0.2015774
-0.20243764 -0.6539582 -0.2234448 0.012406207 0.0019808284 -0.83620346 -0.5937591 -0.55841935
-0.9345532 -0.20090455 -0.016040986 -0.32531714 -0.1545712 -0.31245747 -0.21574911 -0.42599156
-0.0055065933 -0.47650847 -0.41812885 0.052255604 -0.19408448 -0.6408853 -0.48273587 -0.5459952
-0.62189686 -0.4669815 -0.16422775 -0.3539386 -0.014493806 -0.038802154 -0.012825421 -0.28345552
0.0032270637 0.003150219 -0.016508382 0.0014219271 -0.042860776 -0.24600187 -0.16385795 -0.5461882
-0.4854294 -0.67589825 0.0026641365 0.015385172 -0.0032514369 -0.31614 -0.40977898 -0.08214523
-0.280886 -0.044658396 -0.39828303 -0.0034783129 0.049854506 -0.40001464 -0.46386933 -0.3459029
-0.12380549 0.00942666 -0.0048059463 0.0052858554 -0.28499505 -0.54537046 -0.1238935 -0.3226115
-0.38499606 -0.01657 -0.1889774 -0.34057358 -0.3557892 -0.5042625 -0.38196498 -0.6681127
00000000: 1eca 41bf b5e9 d3bd aa0b 0bbf 9cf2 2bbf
00000010: 9cd5 32bf 8b6b 03bd 8c2d aebe addf 81be
00000020: 2ab9 3cbf f5de 20bf 62cb 1ebc 492e 9ebc
00000030: 5d6f f5bd 1dff 65bf 7793 49bf 517e 2dbe
00000040: 6f59 19bf d8f1 c1be 988d 3fbd 17b3 3bbf
00000050: db1d 99be 25d8 05bf fb79 e3be 6fc8 4ebf
00000060: 8298 eabc 7bf5 20bf 4c46 63bd 2e70 69bc
00000070: ba18 4dbe db15 e1be f8ac 94bc 61a8 14bc
00000080: 5f1f aabe e891 1fbf 3378 97be f5df 20bf
00000090: 41b5 473c a6dc 7dbb c491 23be f85b a7be
000000a0: 7101 453c c2e3 19be 9511 a83b 1771 c2be
000000b0: 9245 18bb 8de8 42be 7918 86bd e06b cabc
000000c0: 20f3 aabd 7427 b6be b3f8 68be f697 09bd
000000d0: 418d a2bd 22c3 f4be 3b7f 3bbe 4e6a 4ebe
000000e0: d04b 4fbe ce69 27bf b7ce 64be 6743 4b3c
000000f0: c9d0 013b 6e11 56bf 9900 18bf 92f4 0ebf
00000100: e13e 6fbf ecb9 4dbe 6368 83bc f88f a6be
00000110: ea47 1ebe 6dfa 9fbe 56ed 5cbe 911b dabe
00000120: a770 b4bb ebf8 f3be fc14 d6be f909 563d
00000130: 15be 46be 0f11 24bf 2829 f7be 57c6 0bbf
00000140: a234 1fbf 3318 efbe 522b 28be 7137 b5be
00000150: 6e77 6dbc 02ef 1ebd b721 52bc 1521 91be
00000160: 257d 533b e873 4e3b 963c 87bc f55f ba3a
00000170: c88e 2fbd eae7 7bbe 61ca 27be fdd2 0bbf
00000180: 348a f8be ab07 2dbf cb98 2e3b 1712 7c3c
00000190: 0f16 55bb 1add a1be 8dce d1be c23b a8bd
000001a0: 4ad0 8fbe b9eb 36bd c1eb cbbe 68f4 63bb
000001b0: 3d34 4c3d b8ce ccbe 4880 edbe 2f1a b1be
000001c0: bc8d fdbd 4772 1a3c 337b 9dbb f834 ad3b
000001d0: dfea 91be 669d 0bbf e0bb fdbd 562d a5be
000001e0: 341e c5be cfbd 87bc 4b83 41be a95f aebe
000001f0: 012a b6be 5917 01bf ea90 c3be 6f09 2bbf

network_body._body_endoder.seq_layers.0.weight f4 [128, 13]
-0.2069313 -0.0028860853 -0.08021394 0.27484676 0.2637391 -0.10062024 -0.17656885 -0.3353079
-0.41533425 -0.22184561 0.33407313 -0.09310274 0.32929957 0.019957226 -0.028758176 0.020403929
-0.038835835 -0.56564575 -0.059311103 0.05623402 -0.32604823 -0.027781544 -0.0018598308 -0.010558189
0.019220425 0.25981337 0.1883574 -0.08725894 -0.22414537 0.09350129 -0.2523226 -0.21236804
-1.0340291 -0.019177308 -0.08836036 -0.09128201 -0.13163728 -0.0846241 -0.007066172 -0.027950365
0.16666502 -0.2705834 -0.085586146 -0.099016026 0.05625522 -0.9800195 0.27989444 -0.13801958
-0.006230812 0.3489602 -0.113842525 -0.20617315 0.6631325 -0.3657324 -0.2503792 0.46736005
-0.04716061 0.14341123 -0.56882596 -0.093222074 -0.1097705 -0.010015269 -0.33826217 -0.14985307
-0.1576295 -0.010000515 0.04015064 -0.037075948 0.02883679 0.063389875 -0.011243382 -0.08411443
-0.018519098 0.011306319 0.001757692 0.041932404 0.005189125 -0.026679847 0.11374221 -0.14491414
-0.0361529 -0.094487175 0.07776152 -0.31353587 -0.28959644 0.4866005 -0.44270536 0.12709612
0.34268236 -0.96625584 0.08561542 -0.39420137 0.008158132 -0.25308588 0.0933977 0.3810683
-0.11543056 -0.044939358 -0.0006644633 0.104886934 -0.009233649 -0.15469839 -0.20379108 -0.42780697
-0.32237038 0.12986045 -0.5491427 -0.112914525 0.20894124 0.06916628 -0.54262644 0.014268076
-0.38094008 0.003779844 0.20691507 -0.14921482 0.22825502 -0.047278006 -0.19530278 0.08339443
0.06734306 -0.25280753 -0.13482621 -0.35247365 0.046475727 0.07517188 0.057794534 0.25416803
0.38806093 -0.08267726 0.014239644 0.006786883 0.03289045 0.017191572 -0.12182287 0.019601585
-0.011970254 -0.009440644 0.017857175 0.004880341 0.0099066645 0.018717403 0.005056716 0.009183149
0.025655327 -0.014872655 0.011948113 -0.09723286 0.007094488 -0.03154389 -0.0071421294 0.0091771595
0.004030232 0.024236897 0.0054176254 0.0006245073 0.097254224 -0.059735425 0.1846669 0.08608538
0.16376422 0.3664194 0.111152075 -0.06710366 0.1594865 0.11266655 0.119416244 -0.106626116
0.07649177 0.24086998 -0.3237878 -0.16477196 0.102362424 0.13431598 0.28873172 -0.27649274
0.13064836 0.0870748 0.20857117 0.441268 -0.21763983 0.27677625 -0.41743314 -0.029052913
-0.47061867 0.039022766 0.26446626 0.3596511 0.2823642 -0.025131263 -0.3177234 0.21637854
-0.6215007 -0.5505249 -0.046387266 0.08200261 0.18128893 -0.084681146 0.34391332 -0.103791505
0.44827315 0.46391803 -0.20551379 -0.0079353005 0.04835715 0.10418253 0.015570007 -0.043380085
0.13332337 -0.4954984 0.40882286 -0.01783426 0.22533701 0.20762026 -0.59905386 -0.6053626
-0.5947643 0.1944572 0.48821282 -0.10033201 -0.21959217 -0.443184 -0.0373544 0.10783349
0.04412884 0.35324365 0.05083585 0.10990753 -0.105586186 -0.025962884 -0.04318508 0.076421924
0.027341906 0.094137296 0.011807007 -0.04517385 0.045178466 -0.0056620333 -0.052201353 0.055840753
0.022376828 -0.027836889 -0.0023771883 0.0048335744 0.00697038 -0.000596698 0.067415565 0.073920116
-0.23693274 -0.11159802 0.33812475 0.48584035 0.4509833 0.13355765 0.31066743 -0.74604475
00000000: cce5 53be 7a24 3dbb 3547 a4bd b7b8 8c3e
00000010: d008 873e fc11 cebd 77ce 34be 7aad abbe
00000020: b1a6 d4be 7f2b 63be a20b ab3e a6ac bebd
00000030: f499 a83e 567d a33c 4496 ebbc 2426 a73c
00000040: 5312 1fbd 29ce 10bf 33f0 72bd a555 663d
00000050: cbef a6be 1f96 e3bc 91c5 f3ba 41fc 2cbc
00000060: 2774 9d3c 4206 853e c3e0 403e d1b4 b2bd
00000070: 5d86 65be 9b7d bf3d 6e30 81be 0277 59be
00000080: 115b 84bf bb19 9dbc 47f6 b4bd 10f2 babd
00000090: eccb 06be 664f adbd 598b e7bb 2af8 e4bc
000000a0: 3caa 2a3e e889 8abe ca47 afbd eac8 cabd
000000b0: e06b 663d 8fe2 7abf 534e 8f3e 0155 0dbe
000000c0: d72b ccbb e9aa b23e 4526 e9bd 0e1f 53be
000000d0: 0dc3 293f 4741 bbbe b431 80be d149 ef3e
000000e0: 7c2b 41bd 65da 123e 949e 11bf 37eb bebd
000000f0: 5bcf e0bd 1517 24bc b330 adbe 1573 19be
00000100: a169 21be 33d9 23bc ff74 243d f3dc 17bd
00000110: 223b ec3c 8dd2 813d 2936 38bc 3044 acbd
00000120: 5db5 97bc 243e 393c 5b62 e63a 50c1 2b3d
00000130: 8909 aa3b b28f dabc adf1 e83d 5f64 14be
00000140: 1015 14bd 7e82 c1bd 6f41 9f3d c687 a0be
00000150: fc45 94be b323 f93e 47aa e2be 7c25 023e
00000160: 1074 af3e 8b5c 77bf 2357 af3d c3d4 c9be
00000170: b0a9 053c 7994 81be 4b47 bf3d 621b c33e
00000180: dc66 ecbd 5512 38bd 612f 2eba f6ce d63d
00000190: bb48 17bc 4169 1ebe 9cae 50be 8409 dbbe
000001a0: bb0d a5be 23fa 043e 9e94 0cbf bb3f e7bd
000001b0: b1f4 553e 0da7 8d3d 91e9 0abf a6c4 693c
000001c0: 940a c3be 42b7 773b 8be1 533e c5cb 18be
000001d0: afbb 693e 95a6 41bd 74fd 47be b3ca aa3d
000001e0: 29eb 893d fd6f 81be e20f 0abe 6d77 b4be
000001f0: 555d 3e3d b7f3 993d f6b9 6c3d 5022 823e
00000200: ecaf c63e b252 a9bd 654d 693c 8064 de3b
00000210: 23b8 063d 57d5 8c3c 457e f9bd 8193 a03c
00000220: e21e 44bc eeac 1abc 3649 923c 44eb 9f3b
00000230: 904f 223c 3d55 993c cfb2 a53b eb74 163c
00000240: 1f2b d23c 70ac 73bc 05c2 433c 0622 c7bd
00000250: e178 e83b 2a34 01bd 8608 eabb cc5b 163c
00000260: 0910 843b 758c c63c 5686 b13b fab5 233a
00000270: 392d c73d 22ad 74bd 5219 3d3e 884d b03d
00000280: cfb1 273e 539b bb3e b3a3 e33d a56d 89bd
00000290: 6e50 233e b8bd e63d 8190 f43d cb5e dabd
000002a0: b8a7 9c3d 9fa6 763e 84c7 a5be fbb9 28be
000002b0: 64a3 d13d 218a 093e a5d4 933e 7590 8dbe
000002c0: afc8 053e 4654 b23d ae93 553e e1ed e13e
000002d0: fadc 5ebe 9eb5 8d3e ccb9 d5be 6000 eebc
000002e0: eef4 f0be 56d6 1f3d 1f68 873e 3024 b83e
000002f0: 0a92 903e 14e0 cdbc a4ac a2be 5692 5d3e
00000300: ab1a 1fbf 33ef 0cbf 9300 3ebd fcf0 a73d
00000310: cea3 393e 4f6d adbd 6815 b03e a490 d4bd
00000320: 0f84 e53e aa86 ed3e 3572 52be 1003 02bc
00000330: 2612 463d a65d d53d 5819 7f3c 51af 31bd
00000340: ec85 083e f7b1 fdbe 3b51 d13e 2719 92bc
00000350: bfbe 663e 689a 543e 985b 19bf 0bf9 1abf
00000360: 7942 18bf ca1f 473e 08f7 f93e de7a cdbd
00000370: c5dc 60be 03e9 e2be ed00 19bd ced7 dc3d
00000380: 71c0 343d 5adc b43e 4139 503d 3317 e13d
00000390: 923d d8bd 1db0 d4bc d7e2 30bd 1983 9c3d
000003a0: 22fc df3c 0ecb c03d 2d72 413c 3708 39bd
000003b0: 0e0d 393d 9488 b9bb 16d1 55bd 46b9 643d
000003c0: 9c4f b73c 300a e4bc 9aca 1bbb f662 9e3b
000003d0: c967 e43b ba6b 1cba 2c11 8a3d 6e63 973d
000003e0: 7f9e 72be 818d e4bd b01e ad3e 11c0 f83e
000003f0: 48e7 e63e 56c3 083e cd0f 9f3e cafc 3ebf

network_body._body_endoder.seq_layers.2.bias f4 [128]
-0.030106343 -0.5743994 -0.047476668 -0.3809455 -0.061056063 -0.043858483 -0.03891848 -0.08125706
-0.05369878 -0.010891924 -0.05674955 -0.037772194 -0.059438165 -0.119968764 -0.082406126 -0.084623836
-0.082854725 -0.058622405 -0.26869723 0.013729525 -0.06207405 -0.42783034 -0.06059729 -0.17388828
0.021525275 0.0033051143 -0.61008376 -0.38978285 -0.012533642 -0.028977513 -0.05542631 -0.09361276
-0.04395359 -0.3136521 0.027094387 -0.18124202 -0.22295207 -0.20127082 -0.04606717 0.0014420336
0.026015574 -0.057170145 -0.029357111 -0.49039423 -0.14508802 -0.045519263 -0.29299325 -0.056694128
-0.06269203 -0.23598142 -0.014209092 -0.13661748 -0.47012308 -0.4691623 -0.43569028 -0.3566465
-0.04072326 -0.10243092 -0.06571442 -0.31024054 -0.03910657 0.00014227445 -0.06270803 -0.67662257
-0.038334936 -0.54566205 -0.24875765 -0.061235268 -0.023944475 -0.2483655 -0.043970156 -0.10719725
-0.53668416 -0.3384009 -0.054766353 -0.08132324 -0.16098294 -0.38652512 -0.030484578 -0.20689435
-0.04963762 -0.30815703 -0.30960608 -0.3408209 0.0013080087 -0.011397592 -0.034332328 -0.017461445
-0.02722801 -0.0971724 -0.16712116 0.0016823264 -0.4231264 -0.39103764 -0.1296005 -0.17390992
-0.045927014 -0.10567827 0.014976796 -0.38970408 -0.7721546 -0.044982497 -0.022302052 -0.032916494
-0.12019971 -0.099282935 -0.012365744 -0.054525938 -0.04861363 -0.035165872 -0.41613886 -0.03815843
-0.0657902 -0.01155606 -0.37798983 -0.08214544 -0.09804686 -0.09152185 -0.43224198 -0.060178544
-0.022306437 -0.085679404 -0.28006327 -0.06373973 -0.2524824 -0.60606724 -0.090138845 -0.006533799
00000000: 94a1 f6bc d70b 13bf e576 42bd 4a0b c3be
00000010: ec15 7abd f4a4 33bd fc68 1fbd 1a6a a6bd
00000020: 40f3 5bbd 0a74 32bc 3772 68bd 04b7 1abd
00000030: 6f75 73bd 2fb2 f5bd 8bc4 a8bd 434f adbd
00000040: bdaf a9bd 0c1e 70bd af92 89be cdf1 603c
00000050: 5c41 7ebd 940c dbbe dd34 78bd c50f 32be
00000060: c655 b03c 9e9a 583b 732e 1cbf 9e91 c7be
00000070: e859 4dbc 4062 edbc b306 63bd 0cb8 bfbd
00000080: ae08 34bd 0297 a0be 0cf5 dd3c 8297 39be
00000090: 8c4d 64be f019 4ebe eeb0 3cbd 9e02 bd3a
000000a0: 9d1e d53c 3e2b 6abd 537e f0bc f414 fbbe
000000b0: f491 14be 6872 3abd 3603 96be 1a38 68bd
000000c0: ae64 80bd 1da5 71be 40cd 68bc 74e5 0bbe
000000d0: f9b3 f0be 0a36 f0be cc12 dfbe 5f9a b6be
000000e0: 6fcd 26bd 4dc7 d1bd 4895 86bd d9d7 9ebe
000000f0: 362e 20bd 822f 1539 116d 80bd 2337 2dbf
00000100: 1805 1dbd 82b0 0bbf 53ba 7ebe d5d1 7abd
00000110: 3427 c4bc 8753 7ebe 0d1a 34bd 3b8a dbbd
00000120: 2264 09bf e242 adbe af52 60bd cd8c a6bd
00000130: b6d8 24be 9fe6 c5be cbba f9bc 1ddc 53be
00000140: d150 4bbd c2c6 9dbe b084 9ebe 1480 aebe
00000150: 7d71 ab3a f7bc 3abc 0ea0 0cbd 4e0b 8fbc
00000160: 470d dfbc 5302 c7bd cf21 2bbe 8281 dc3a
00000170: 06a4 d8be 1636 c8be feb5 04be 7115 32be
00000180: f71d 3cbd d96d d8bd 3c61 753c 4b87 c7be
00000190: edab 45bf 913f 38bd cbb2 b6bc 72d3 06bd
000001a0: 442b f6bd da54 cbbd b199 4abc 9756 5fbd
000001b0: 161f 47bd 170a 10bd 2710 d5be 044c 1cbd
000001c0: 03bd 86bd a155 3dbc e287 c1be de3b a8bd
000001d0: cbcc c8bd cf6f bbbd d24e ddbe c77d 76bd
000001e0: fdbb b6bc af78 afbd 7464 8fbe fa89 82bd
000001f0: 6045 81be 3927 1bbf b79a b8bd 7b19 d6bb

network_body._body_endoder.seq_layers.2.weight f4 [128, 128]
-0.052442398 -0.040185932 -0.096167736 -0.0036435905 -0.00019479505 0.059864964 -0.04727025 0.037809134
-0.07198395 -0.13909897 -0.051153038 -0.075600356 -0.15000272 0.0271902 -0.07202587 -0.042322494
0.06941131 -0.014899339 0.06190236 -0.13343565 -0.16107541 0.045328774 0.10440363 -0.014741014
-0.021712534 0.053024337 0.020388534 -0.04891381 -0.17138211 0.08635475 0.05653062 -0.103656076
0.0038923798 0.032349817 -0.072575465 0.057400435 0.0030615584 0.089645095 -0.04411125 -0.03422034
-0.013340521 0.14431874 -0.02063928 -0.15484554 0.048803937 -0.03554456 0.016637124 7.71254e-05
-0.04630337 0.102009125 -0.022460965 0.032799184 -0.0077227405 0.058469936 -0.03973706 -0.009394228
-0.19744563 0.093469635 0.010827835 0.013923829 0.01648514 0.13544424 0.0759934 0.011826371
-0.028681103 0.050283164 -0.07791 0.014446206 -0.03622056 0.10027726 -0.014018115 -0.15619451
0.02240495 0.078400776 0.11247672 0.05084047 0.018967928 0.13431504 0.009864248 -0.13513078
-0.103254765 0.018471602 -0.025218321 0.004760309 -0.010369704 0.016957555 0.081422664 -0.06728981
-0.035108212 0.016345171 -0.049772415 -0.020020967 0.16153964 0.006938579 0.06903994 0.1421975
0.04245842 -0.032331806 -0.016986018 -0.17717177 0.16132148 -0.02474963 0.10588876 0.072863884
0.17246133 0.04477593 -0.036983944 0.011161269 0.022590274 -0.027950108 -0.061631516 -0.08416269
0.17615584 -0.0005431845 0.044462807 -0.04213076 0.19613738 -0.037788138 -0.07849699 0.121555306
0.015379957 0.031064132 -0.1628794 -0.116463155 -0.021594975 -0.12128333 -0.07204698 0.046264347
0.10805895 -0.026783897 0.022029296 0.08429216 -0.13422406 0.09269605 -0.11097768 0.15566231
-0.033908486 0.12566009 0.07150568 0.029229013 -0.0729877 0.1444764 0.001042419 -0.26648405
-0.8593108 -0.13340482 -0.13934685 -0.19110662 -0.24922189 -0.43192875 0.20207083 -0.3311796
0.022897018 -0.7110872 0.05673195 -0.10389986 -0.43737155 0.019795345 -0.017938472 -0.0052645737
-1.0616164 -0.023090716 -0.08949665 -0.479055 0.007242025 -0.046447504 0.17172255 -0.02836767
-0.015771165 0.00634138 0.02341712 -0.45415118 0.006194046 -0.22253136 -0.046091486 -0.00028151245
0.14141268 0.05547035 0.10606222 0.0113719115 0.0034688024 0.17466016 -0.7286192 0.058323078
-0.36757943 0.19531511 0.12914976 -0.072906695 -0.018747041 0.34087917 -0.17623754 -0.13172393
0.0858053 0.22504029 0.04926423 -0.07000814 0.27673978 -0.24992675 0.15886624 -0.11182394
-0.02065898 0.33899075 -0.22677518 -0.11416562 0.044309735 -0.03836591 -0.6038461 -0.00021480393
0.11696388 0.037648764 0.044921733 0.2536083 0.02188114 0.0027395976 0.053082477 -0.064824164
-0.098680474 -0.06436477 -0.039944172 0.0060221986 0.13353531 -0.1693571 -0.534178 0.40043342
-0.19645031 -0.1595872 0.038911235 0.0036005364 -0.04920229 0.19343679 -0.122065164 0.039233606
0.049308307 -0.019909475 -0.3067976 -0.008468588 -0.043578032 -0.20752306 -0.19666918 0.18504734
-0.117308654 0.015241091 -0.078732885 -0.009700216 -0.33506772 0.0073312386 -0.25610533 0.47367185
0.073537156 -0.047777817 -0.11912184 -0.36175546 -0.20261575 -0.14713827 -0.05706795 -0.5553751
00000000: d7cd 56bd 019a 24bd 97f3 c4bd 4ec9 6ebb
00000010: e641 4cb9 f734 753d 739e 41bd c0dd 1a3d
00000020: 526c 93bd f66f 0ebe d985 51bd 5cd4 9abd
00000030: 509a 19be fbbd de3c 4d82 93bd 5a5a 2dbd
00000040: 8427 8e3d 5b1c 74bc 548d 7d3d 5ba3 08be
00000050: f4f0 24be aaaa 393d 92d1 d53d 4b84 71bc
00000060: 7cde b1bc 0c30 593d db05 a73c d959 48bd
00000070: cb7e 2fbe c2da b03d a78c 673d a349 d4bd
00000080: 4c17 7f3b 3e81 043d 72a2 94bd b81c 6b3d
00000090: 6da4 483b d997 b73d 00ae 34bd a12a 0cbd
000000a0: 3392 5abc 4bc8 133e b513 a9bc d48f 1ebe
000000b0: a3e6 473d 2c97 11bd 944a 883c 62be a138
000000c0: 9aa8 3dbd 29ea d03d 0f00 b8bc 7058 063d
000000d0: 0b0f fdbb 2c7e 6f3d 54c3 22bd 40ea 19bc
000000e0: 302f 4abe 026d bf3d 3b67 313c c620 643c
000000f0: d80b 873c e5b1 0a3e 6da2 9b3d 65c3 413c
00000100: a2f4 eabc b8f5 4d3d 478f 9fbd c8af 6c3c
00000110: 035c 14bd 2a5e cd3d 3cac 65bc 74f1 1fbe
00000120: 968a b73c 9690 a03d 325a e63d 193e 503d
00000130: a162 9b3c e289 093e a89d 213c b95f 0abe
00000140: 3c77 d3bd c251 973c a796 cebc 5efc 9b3b
00000150: b1e5 29bc 92ea 8a3c edc0 a63d 3dcf 89bd
00000160: a1cd 0fbd 4fe6 853c 29de 4bbd 0303 a4bc
00000170: a66a 253e 055d e33b d064 8d3d 399c 113e
00000180: e1e8 2d3d 5b6e 04bd 4326 8bbc 846c 35be
00000190: 7531 253e bcbf cabc 35dc d83d a939 953d
000001a0: b499 303e f766 373d 7a7c 17bd c1dd 363c
000001b0: 3d0f b93c a0f7 e4bc 5471 7cbd 7d5d acbd
000001c0: 3262 343e 7f64 0eba a21e 363d 4e91 2cbd
000001d0: 3dd8 483e bcc7 1abd 08c3 a0bd fdf1 f83d
000001e0: 37fc 7b3c 357a fe3c dcc9 26be 3c84 eebd
000001f0: f2e7 b0bc 6563 f8bd 5e8d 93bd af7f 3d3d
00000200: 034e dd3d e769 dbbc c876 b43c 5ea1 ac3d
00000210: 0872 09be 6dd7 bd3d 4448 e3bd f165 1f3e
00000220: a0e3 0abd 0aad 003e 9271 923d af71 ef3c
00000230: 937a 95bd 9ff1 133e c7a1 883a 9970 88be
00000240: cbfb 5bbf 469b 08be f1b0 0ebe 74b1 43be
00000250: 0634 7fbe c425 ddbe a8eb 4e3e 5f90 a9be
00000260: 8792 bb3c d009 36bf c35f 683d 73c9 d4bd
00000270: 2aef dfbe d929 a23c b4f3 92bc 7282 acbb
00000280: 0ce3 87bf be28 bdbc 054a b7bd b246 f5be
00000290: 824e ed3b bd3f 3ebd 09d8 2f3e 5163 e8bc
000002a0: 8832 81bc 5acb cf3b 43d5 bf3c 8186 e8be
000002b0: 6cf7 ca3b 43df 63be 6dca 3cbd f697 93b9
000002c0: 7cce 103e e134 633d 2637 d93d 4151 3a3c
000002d0: d954 633b 1dda 323e ca86 3abf 2ee4 6e3d
000002e0: 5f33 bcbe af00 483e d63f 043e 1b50 95bd
000002f0: 6593 99bc b787 ae3e 9d77 34be a3e2 06be
00000300: b0ba af3d f670 663e 4ac9 493d 6d60 8fbd
00000310: d6b0 8d3e ccec 7fbe d5ad 223e f303 e5bd
00000320: 053d a9bc 3290 ad3e c137 68be aacf e9bd
00000330: 207e 353d 9325 1dbd a895 1abf fe3c 61b9
00000340: c28a ef3d 9735 1a3d daff 373d f2d8 813e
00000350: 1440 b33c d28a 333b 036d 593d 88c2 84bd
00000360: fd18 cabd add1 83bd 809c 23bd dd55 c53b
00000370: 7bbd 083e f36b 2dbe e4bf 08bf 9c05 cd3e
00000380: 452a 49be d46a 23be 6361 1f3d faf6 6b3b
00000390: 5788 49bd 4b14 463e 4dfd f9bd 6bb3 203d
000003a0: 82f7 493d 3219 a3bc 9314 9dbe d5bf 0abc
000003b0: e17e 32bd ed80 54be a563 49be 0d7d 3d3e
000003c0: 853f f0bd c5b5 793c b53e a1bd a8ed 1ebc
000003d0: ff8d abbe e33a f03b 3d20 83be 1e85 f23e
000003e0: a69a 963d acb2 43bd 27f6 f3bd 0338 b9be
000003f0: 817a 4fbe 6aab 16be 15c0 69bd 102d 0ebf

network_body.observation_encoder.processors.0.normalizer.running_mean f4 [13]
429.85275 662.7984 686.0584 1465.6715 0.0 1122.8077 373.29016 403.88876
414.9636 33.31363 21.143225 -382.91742 -0.38333288
00000000: 27ed d643 19b3 2544 bd83 2b44 7d35 b744
00000010: 0000 0000 d959 8c44 24a5 ba43 c3f1 c943
00000020: 577b cf43 2841 0542 5325 a941 6e75 bfc3
00000030: 3544 c4be
