results/EasyMapAgent1/My Behavior/My Behavior-31287.pt (torch, 477679 bytes, 57 tensors)

discrete_act_size_vector f4 [1, 2]
000000 00 00 40 40 00 00 40 40
       3.0 3.0

network_body.observation_encoder.processors.0.normalizer.running_mean f4 [13]
000000 1b 01 9a 43 f6 67 64 43 0e a7 a0 43 46 45 28 44
       308.00864 228.4061 321.3051 673.0824
000010 00 00 00 00 c2 95 09 45 8b ae 86 43 99 38 74 43
       0.0 2201.3599 269.36362 244.22108
000020 36 ef a9 43 27 fa 58 41 ca a8 b7 c0 8a ea b5 43
       339.86884 13.561072 -5.739354 363.83234
000030 f5 dd bd 41
       23.733377

network_body.observation_encoder.processors.0.normalizer.running_variance f4 [13]
000000 2b 76 05 4e 1b e6 8d 4d 6f 29 05 4e 0c 13 fc 4f
       5.597785e+08 2.9758346e+08 5.585213e+08 8.4582134e+09
000010 00 00 80 3f 4b 8d 05 50 5e b8 02 4e b8 4f f7 4e
       1.0 8.962518e+09 5.482802e+08 2.0745984e+09
000020 79 ff e8 4e 9d 54 22 4d 84 f4 02 4d 26 29 99 4e
       1.9545284e+09 1.7021589e+08 1.3731642e+08 1.2848054e+09
000030 2d 86 7e 4d
       2.6688789e+08

network_body.processors.0.normalizer.running_mean f4 [13]
000000 1b 01 9a 43 f6 67 64 43 0e a7 a0 43 46 45 28 44
       308.00864 228.4061 321.3051 673.0824
000010 00 00 00 00 c2 95 09 45 8b ae 86 43 99 38 74 43
       0.0 2201.3599 269.36362 244.22108
000020 36 ef a9 43 27 fa 58 41 ca a8 b7 c0 8a ea b5 43
       339.86884 13.561072 -5.739354 363.83234
000030 f5 dd bd 41
       23.733377

network_body.processors.0.normalizer.running_variance f4 [13]
000000 2b 76 05 4e 1b e6 8d 4d 6f 29 05 4e 0c 13 fc 4f
       5.597785e+08 2.9758346e+08 5.585213e+08 8.4582134e+09
000010 00 00 80 3f 4b 8d 05 50 5e b8 02 4e b8 4f f7 4e
       1.0 8.962518e+09 5.482802e+08 2.0745984e+09
000020 79 ff e8 4e 9d 54 22 4d 84 f4 02 4d 26 29 99 4e
       1.9545284e+09 1.7021589e+08 1.3731642e+08 1.2848054e+09
000030 2d 86 7e 4d
       2.6688789e+08

network_body._body_endoder.seq_layers.0.weight f4 [128, 13]
000000 b2 f0 a0 be eb 5c 3b 3e b7 1c 5d 3e 74 fa 9f bd
       -0.31433636 0.18297164 0.21592985 -0.07811442
000010 24 af 9e be 8f e9 72 3e d6 64 df 3e 72 d4 1f 3e
       -0.30992997 0.23721908 0.4363162 0.15608385
000020 59 f1 00 be bb 45 01 3e 7f 42 92 be 36 e3 69 3e
       -0.12592067 0.12624256 -0.28566357 0.2284058
000030 e2 7d d9 be d9 56 92 be 05 42 da bc 9d 63 1d be
       -0.42478853 -0.28581885 -0.026642809 -0.1537003
000040 fd 2a 34 3b 40 60 80 3e 9c 0e 6d be a9 2f a5 be
       0.0027491443 0.25073433 -0.23150104 -0.32262924
000050 57 9f aa 3d b7 c2 09 3e 4e 7c f0 3d 3f b3 e0 3e
       0.08331173 0.13453184 0.11742459 0.43886754
000060 25 6a 1b 3e 24 fc f0 3d cd 76 22 3e 30 4a 00 bf
       0.1517721 0.11766842 0.15865631 -0.501132
000070 e4 4b 3d be 0b fb 8a 3d 9b dc a4 be e3 f1 91 3d
       -0.18485981 0.06786164 -0.3219956 0.07126214
000080 76 27 60 be 8c d7 97 be ca e7 90 bd 28 1c a6 bd
       -0.21890053 -0.29656637 -0.0707546 -0.08110839
000090 b4 56 56 bd 0d 46 3c be e0 18 88 bc 2e d1 99 3e
       -0.05232878 -0.18386097 -0.016613424 0.30042404
0000a0 36 56 a2 bd b0 77 73 3e f0 1b f7 3c 01 a5 57 bd
       -0.079266 0.23776126 0.030164689 -0.052647594
0000b0 31 61 4c 3e 02 3f a3 bd c3 91 2f 3d bc b7 28 bd
       0.1995895 -0.07971002 0.04286362 -0.041190848
0000c0 ec 41 98 3e 85 91 cf 3e ca 01 9d 3e a8 f9 f1 3e
       0.29737794 0.4054071 0.30665427 0.47260785
0000d0 2c 56 b6 3d b7 5a c5 bd 58 08 30 be 96 6c 02 bf
       0.08903155 -0.09636443 -0.17190683 -0.5094694
0000e0 6d 2e 6f 3e 0f 4d e2 be 9f ac c4 be 40 d2 9b be
       0.23357554 -0.44199416 -0.3841295 -0.30433846
0000f0 ed 86 31 3d 89 85 94 be 2c 04 c7 bd c3 33 0b be
       0.043341566 -0.2900813 -0.097175926 -0.13593964
000100 cd d7 e1 3e cf 83 63 3e 7c d0 fa bc 58 bb d5 bd
       0.44109955 0.2221825 -0.030616991 -0.104361236
000110 c5 2d 9f 3d ee 41 bf be 7e 54 6a 3e d2 70 58 3e
       0.07772402 -0.37354988 0.22883794 0.21136788
000120 9a 7f 09 bd dd 0d 26 be 5c ad 9e 3d 7f a5 8b 3d
       -0.033568956 -0.16216226 0.077479094 0.06818675
000130 15 59 1e 3e 0a 60 03 bd 7c 72 fe 3e 70 e2 da 3e
       0.1546367 -0.03207401 0.4969672 0.42750883
000140 c8 2a dd bd f8 93 6a 3e 91 08 dc 3d fe 65 19 3f
       -0.107991755 0.22908008 0.107438214 0.5992125
000150 05 32 c1 3e f0 22 88 be be 46 17 3f a0 48 35 bc
       0.37733474 -0.26589155 0.5909232 -0.011064678
000160 f9 57 5e be ed 5d 8a 3e 4e 6a 09 bf 40 67 94 be
       -0.21713246 0.27024785 -0.53677833 -0.28985023
000170 02 5d 29 3f 73 aa bd 3e ff 56 ae be c1 80 87 3e
       0.66157544 0.37044105 -0.34050748 0.2646542
000180 4d eb 1d be 3b 11 fb 3e 3c 0b b3 be d8 03 13 3f
       -0.15421791 0.49036583 -0.3496951 0.5742774
000190 8e 31 13 be 3f 92 f6 bd 8d 62 03 be f0 a4 8f be
       -0.14374372 -0.12039613 -0.12830563 -0.28055525
0001a0 bf 1b 21 3e 97 80 56 bd 1e 61 bd 3d 46 66 9f be
       0.1573324 -0.052368727 0.09247039 -0.31132716
0001b0 85 fc 1c bf b6 a0 ed 3d 1b a8 f6 3d 3b 4e 12 be
       -0.61322814 0.11602919 0.12043782 -0.14287655
0001c0 69 97 2a 3f 0b 4c 43 3e 46 6a b9 3e aa e9 0a 3f
       0.66637284 0.19071977 0.36213893 0.54262793
0001d0 6a 9c 03 3e 3e 96 cf 3d a3 fc 42 be 80 3d 79 3e
       0.12852636 0.10136078 -0.19041686 0.24339867
0001e0 0c cc 96 be 62 76 db 3d bc 5e 19 bf 0f d2 35 3e
       -0.2945255 0.10715939 -0.5991018 0.17755912
0001f0 a1 d1 a7 3e 2d 1f 5b 3e ca 64 d0 be 27 15 04 3f
       0.32777122 0.21398611 -0.40701896 0.51594776
000200 04 9a e9 be 3a 59 c6 3d 4d 2d ec be 9b c7 53 3e
       -0.45625317 0.09684987 -0.46128312 0.20681612
000210 6e a9 87 3d 89 39 80 3d ca 17 48 3e 26 09 44 bd
       0.06624113 0.06260974 0.19540325 -0.047860287
000220 99 65 98 bd 9e 22 f0 bd 3d 67 5d be a6 a2 26 3e
       -0.07441253 -0.11725353 -0.21621414 0.16272983
000230 f5 28 01 be 30 90 ef 3d 17 99 88 3e 46 36 8c bd
       -0.1261328 0.116974235 0.26679298 -0.06846289
000240 15 69 50 be b5 31 80 3e 86 af 44 bb 08 00 8f be
       -0.20352586 0.25037923 -0.0030011847 -0.2792971
000250 b3 b4 d1 3c 47 ac 6f 3d 81 f7 94 3e e8 94 d9 be
       0.02559886 0.058513906 0.2909508 -0.4249642
000260 87 f5 0e be 9f 31 ca 3c 7a 0b 18 bc 0c 8e 73 bd
       -0.13960849 0.024681864 -0.00928008 -0.05946164
000270 ca bd 28 3e 7f fa 12 be ff 32 b9 be bd e6 b3 bd
       0.16478649 -0.14353369 -0.3617172 -0.08784244
000280 4e 8a 10 bf 27 f4 5b 3d 35 75 11 3d 9e 0c 11 bd
       -0.56461036 0.05369964 0.035512168 -0.035412423
000290 f0 62 c2 bd 38 a6 a3 3e 62 06 0f 3c 6d cc ff be
       -0.09491527 0.31962752 0.008729549 -0.49960652
0002a0 b0 47 84 be d0 2e c0 3e 12 d9 c0 3e 13 dd ac be
       -0.25835943 0.37535715 0.37665612 -0.33762416
0002b0 90 e2 86 3d ad 44 7a be 2e ef e6 3d 06 7f db 3e
       0.06586182 -0.2444026 0.11276089 0.4287035
0002c0 38 78 2a 3e c6 9c ad bd 86 34 df bd d8 68 be 3d
       0.16647422 -0.08477168 -0.1089869 0.09297341
0002d0 46 fc 9e bd 31 38 8a be 95 70 53 3e de 1b 20 bf
       -0.07762961 -0.26995996 0.20648415 -0.6254252
0002e0 4b 54 0a 3d a7 d9 6e be 79 a2 9a be ea 88 8a bd
       0.033771794 -0.23325215 -0.30202082 -0.067643955
0002f0 ee 7a fa be a2 b1 69 3e 61 d3 9e bd 57 52 97 3d
       -0.48921913 0.22821668 -0.07755161 0.07388752
000300 13 82 ad bd cc ea 1f be 29 80 cb be 2b 7c 8b 3e
       -0.08472075 -0.15616912 -0.39746216 0.2724317
000310 26 55 9b bc 49 86 2f be ce 35 1d bf 7f 6d 06 3c
       -0.0189615 -0.1714107 -0.61410224 0.008204817
000320 e4 76 97 3e 46 de 58 be 1b 89 8a be f9 48 5f bd
       0.29582894 -0.2117854 -0.27057728 -0.05451295
000330 32 cf a9 bc 4e de a0 3c 73 79 6d be 92 4e 57 be
       -0.020728681 0.019637253 -0.2319086 -0.21026066
000340 95 4e 64 be 52 2e 55 3e 5e 39 b2 bd 64 c7 b7 be
       -0.22295602 0.20818451 -0.08702348 -0.3589431
000350 f6 82 49 3c 84 8c 99 be a0 13 9e 3d bf ee 24 3e
       0.01229929 -0.29990017 0.07718587 0.161067
000360 83 e2 10 bf 8b 6f c8 bd f3 8e da bd 32 09 9b be
       -0.5659563 -0.097869 -0.10671797 -0.30280453
000370 e5 f0 e5 3d 99 4f a0 3e 95 3d 67 be 2a a2 1b 3e
       0.112275876 0.31310728 -0.22582085 0.1519858
000380 c5 85 37 be fd 2c 95 3d 52 c9 d6 bd 88 66 06 bd
       -0.17922123 0.072839715 -0.104876176 -0.032812625
000390 34 c6 68 3e 02 39 18 3e 06 e6 7e bd 1d 6c c5 3d
       0.22731858 0.14865497 -0.062231086 0.096397616
0003a0 e4 4b 11 bd 5c aa 1e be 03 19 61 3e 0a b4 26 be
       -0.035472766 -0.15494674 0.21982197 -0.16279617
0003b0 b2 69 9c 3e 13 ca 4a be f5 f5 b7 be a1 ca 81 be
       0.3054939 -0.19803648 -0.35929838 -0.25349906
0003c0 af 48 83 3d 90 0a 42 be 10 28 f8 be 0c 43 2c 3e
       0.06410348 -0.18949342 -0.48468065 0.16822451
0003d0 45 b1 8f 3e 5f 14 81 3e e3 4e 54 3e 81 8a b3 bd
       0.28064933 0.25210854 0.20733218 -0.08766652
0003e0 16 9b cf be 57 c4 4a 3e 83 0a 9c 3e fd fd 9b be
       -0.4054801 0.1980146 0.3047677 -0.30467215
0003f0 3a b9 66 3e b1 46 f1 be 4b 65 60 be e6 ad 04 3e
       0.22531596 -0.47124246 -0.2191364 0.12956962

network_body._body_endoder.seq_layers.0.bias f4 [128]
000000 7a d8 e6 bd 3a 4d 19 be df 40 b1 bd 7c 6d 2e be
       -0.112717584 -0.14970866 -0.08654951 -0.17033952
000010 84 78 e8 bd f5 1e b1 bd 57 a4 5d be 91 f8 f8 bd
       -0.113511115 -0.08648483 -0.21644722 -0.12156785
000020 4f 9f 45 be 53 d9 b3 bd 57 0a 93 bd 4b d2 04 bd
       -0.19299053 -0.08781686 -0.071797065 -0.032427114
000030 50 09 28 be 4e a1 00 bd df 38 21 be bc 9f 02 be
       -0.16409802 -0.031403832 -0.15744351 -0.12756246
000040 67 2c 49 be 45 50 96 bd 11 73 76 bd a6 f9 c0 bd
       -0.19645844 -0.07339529 -0.06016833 -0.09422617
000050 d2 d6 8c be 41 24 d1 bd 1a b8 6d bd 74 73 0e be
       -0.27507645 -0.10211993 -0.0580369 -0.1391123
000060 78 6c 0d be 04 65 4d bd 99 ce 5e be f8 be 94 bd
       -0.13810909 -0.050145164 -0.21758498 -0.07262987
000070 b7 57 47 be 57 f7 5a be 98 02 1b be 6c 9f e7 bd
       -0.19467054 -0.21383415 -0.15137708 -0.11309704
000080 a2 90 d3 bd 83 81 68 be a6 9f 51 be 7e 48 40 be
       -0.10330321 -0.22705655 -0.20471057 -0.18777654
000090 9c 91 26 be b6 63 e7 bd c9 64 13 be 12 6c 95 bd
       -0.16266483 -0.11298315 -0.14393915 -0.072960034
0000a0 8b 26 95 bd 5c df b2 bd 07 c7 b8 bd 67 41 14 be
       -0.07282742 -0.08734009 -0.090223365 -0.14478074
0000b0 39 e0 36 bd b7 79 ce bd c6 0d 38 be b0 a1 77 bd
       -0.04464743 -0.10081809 -0.17974004 -0.06045693
0000c0 0d 1a ff bc 4f 67 f9 bd da 92 e1 bd 21 ac 69 be
       -0.031140352 -0.12177908 -0.11014338 -0.22819568
0000d0 9c 58 77 be eb ff 91 bd 5e 95 26 be 04 e5 e6 bd
       -0.24154896 -0.071288906 -0.16267917 -0.1127415
0000e0 09 2f 49 be d8 ce 19 be a0 11 34 be b6 ec ef bd
       -0.19646849 -0.15020311 -0.17584848 -0.11715071
0000f0 bc 75 ee bd 1a 99 55 be af be 91 bd 1d 22 0c be
       -0.1164355 -0.20859185 -0.07116448 -0.13684888
000100 82 23 cc bd 8c 1f 6f be 36 26 c8 bd a2 67 65 bd
       -0.0996771 -0.23351878 -0.09772913 -0.056007035
000110 7b 19 e0 bd 2e fc f1 bd 34 2d 18 be 86 8b 25 be
       -0.1094236 -0.118156776 -0.14860994 -0.16166505
000120 cb 89 2e be 2c 02 8f bd 9b 5f 10 be 30 fa 33 bd
       -0.17044751 -0.06982836 -0.1409897 -0.04393977
000130 9f 38 5d be 92 08 0d be f1 3b fb bd 17 ee 10 bd
       -0.2160363 -0.137728 -0.12267292 -0.03538331
000140 be 5d 43 be 12 1b b1 bd 2d 99 3c be a9 ab 74 be
       -0.19078729 -0.086477414 -0.18417807 -0.23893608
000150 e5 00 2d be 26 de 6c be bf 5c b2 bc 99 46 dc bd
       -0.16894872 -0.23131618 -0.02177274 -0.10755653
000160 be b8 ab bd 52 0a 53 be 2e d7 7f bd f8 36 34 be
       -0.08384846 -0.20609406 -0.06246107 -0.17599094
000170 f5 51 b6 bd ba 21 a1 bc 3b 84 c3 b9 3c d5 13 be
       -0.08902351 -0.019669402 -0.00037291818 -0.14436811
000180 1d be 8c bd 79 75 5e bd 26 6f 7d bc 0c 2d 67 bc
       -0.06872199 -0.05431125 -0.015468394 -0.014109861
000190 27 6e 01 be 6b e4 54 bd 7b 91 e4 bd 50 af 06 be
       -0.12639676 -0.05197565 -0.11160561 -0.13152814
0001a0 83 0a 84 bd 00 88 dd bd 5d f0 be bd 45 aa 1b be
       -0.064473175 -0.108169556 -0.093231894 -0.15201671
0001b0 19 e1 fa bd 02 fa 5f be 6d 34 1e be 41 0b 55 bd
       -0.12249965 -0.21872714 -0.15449686 -0.052012686
0001c0 51 02 c3 bd 76 35 bd bd 30 c5 c3 bd 8c 0d 5f be
       -0.09521926 -0.092387125 -0.09559095 -0.21782511
0001d0 76 1d 14 bd 6b 93 82 be 99 be 3e be 3c cf 88 bd
       -0.03616091 -0.25503096 -0.18627395 -0.06680152
0001e0 a6 d8 07 be 0c db 35 be 9e 24 87 bc 76 29 b0 bc
       -0.13266239 -0.17759341 -0.016496953 -0.021504145
0001f0 54 3a 17 be d2 52 06 be e4 70 43 be af 58 3d bd
       -0.14768344 -0.13117531 -0.19086033 -0.046227153

network_body._body_endoder.seq_layers.2.weight f4 [128, 128]
000000 6b 52 50 be 05 68 91 3d 94 04 2f bd ce 1a b9 bd
       -0.2034394 0.07099918 -0.042728975 -0.09038316
000010 78 ef 98 3c 26 5a 76 3d 9e b1 22 bd 73 35 cd bc
       0.018668875 0.060144566 -0.03972017 -0.0250499
000020 75 ab d5 bb 92 4a 12 3d 53 b2 9e bd a8 68 14 be
       -0.0065206834 0.035715647 -0.077488564 -0.14493048
000030 6f ec b4 bd ff d5 58 3e 8b eb 53 bc b9 49 bf 3d
       -0.08834159 0.21175383 -0.012934576 0.09340233
000040 aa 06 e7 3c ed 9f 88 3d f3 f3 7f ba 1d 37 3a 3e
       0.02820142 0.066711284 -0.00097638293 0.18185087
000050 6a d2 e5 bd 1c 09 9d bd 62 91 0b be c6 62 41 3d
       -0.11221774 -0.07667753 -0.13629678 0.04721334
000060 02 9f 97 3d 38 84 aa 3d f1 0a 38 3a d1 32 50 3d
       0.07403375 0.08326 0.00070206734 0.050829712
000070 a3 9a 0b bd 41 09 f6 3d 07 e2 f9 bd ac 50 0c be
       -0.03408302 0.12013484 -0.122013144 -0.13702649
000080 4a 12 9a 3b 44 9e 8d bd e1 9d 1c bd dc 2e 86 3c
       0.0047018873 -0.069149524 -0.038236503 0.016379766
000090 e5 97 57 bc 0c 4b f8 bb 2f c9 09 bd 86 eb d3 3d
       -0.013158773 -0.0075773057 -0.03363913 0.10347657
0000a0 22 a6 4d 3d c9 89 e7 bc 43 10 95 3d 8c e7 5c 3d
       0.050207265 -0.028263943 0.07278492 0.053931758
0000b0 8c bb 4b 3d 11 ae f5 3d 15 e9 ca 3d d7 44 f7 bc
       0.049739406 0.11996091 0.09907738 -0.030184193
0000c0 ab 69 34 3c 86 2b 09 bd 98 05 fa bc 10 57 90 3c
       0.011011521 -0.033488773 -0.030520245 0.01761964
0000d0 25 13 dc bd 5c e3 93 bd ff 72 25 3e 08 de 84 bd
       -0.10745839 -0.072211 0.16157149 -0.064876616
0000e0 af 26 f1 bc 07 09 55 3d 44 f9 1f 3d ea 8c 47 bd
       -0.029437391 0.052010562 0.039056078 -0.04871837
0000f0 3e 0b 37 bc b3 5c b1 bc 91 4c c0 ba bb e9 ca bc
       -0.011172114 -0.021650648 -0.0014671256 -0.024769654
000100 07 88 c0 bd 97 4b c8 bc b2 27 09 3d 76 16 22 bd
       -0.09400945 -0.024450107 0.033485122 -0.0395722
000110 86 59 1a be 37 9b 13 3e cd 3c c0 3d db 5f 85 bd
       -0.15073213 0.14414679 0.09386597 -0.065124236
000120 bc 45 b5 bd 94 fe 8f bd aa 52 05 3e 1e d6 84 bc
       -0.088511914 -0.07030979 0.13019815 -0.01621538
000130 78 46 5a 3d 4a bd e2 3a 78 40 87 bc 82 f6 b0 3c
       0.05328986 0.0017298844 -0.016510233 0.02160192
000140 43 f1 19 3d 88 56 22 3d 33 55 00 3e ba 80 75 3c
       0.0375836 0.039633304 0.12532501 0.014984304
000150 2c 23 c7 3d c8 9e 40 bc 0c a1 7b bd 70 d6 1d be
       0.097235054 -0.011756606 -0.061432883 -0.15413833
000160 e1 16 b1 bc d0 5e f9 3c b9 9d 17 bd 80 02 d6 3d
       -0.021617355 0.030440718 -0.03701565 0.104496956
000170 f2 9c aa 3c 67 b9 50 be f5 12 7c 39 0f a2 1c bd
       0.02082679 -0.20383225 0.00024039655 -0.03824049
000180 fb 52 3e ba 77 8d 68 3d 77 26 9e bd 11 f4 e1 bb
       -0.000726029 0.056775536 -0.0772218 -0.00689555
000190 5a a4 b4 bd 89 bb b0 bd 48 71 28 be e5 03 98 bd
       -0.0882041 -0.086295195 -0.16449463 -0.07422618
0001a0 c0 3d 72 bd 30 2b c9 3d a0 55 99 bd 0a a1 2d 3e
       -0.05914092 0.098226905 -0.07487035 0.16955963
0001b0 63 88 e7 bc 63 68 0b 3d a4 34 78 be 70 2e 5d 3b
       -0.028263276 0.034035098 -0.24238831 0.0033749603
0001c0 ab e9 f2 bb fd 62 6b 3d e4 87 0b 3d ba 37 3c 3e
       -0.0074131093 0.05746745 0.034065142 0.18380633
0001d0 ae 73 7e bb e7 6c 0d 3d 95 19 e2 bd 68 18 7b bd
       -0.0038826275 0.034527685 -0.11040036 -0.061302572
0001e0 51 a9 22 3e 44 d9 a4 3d da 64 fc 3c 77 35 dd bc
       0.15884902 0.08049253 0.030809809 -0.027003033
0001f0 c9 19 ae bb 4c d8 6b 3d be 99 50 be 0d f9 8f bb
       -0.0053131324 0.057579324 -0.20371148 -0.004393703
000200 c7 81 95 3d 95 58 20 be 44 5d 05 be 12 2f 78 3b
       0.07300144 -0.15658791 -0.1302386 0.0037869853
000210 b3 55 a4 bd e6 99 bc 3a 64 8d cb bd 4c 97 78 bd
       -0.08024158 0.0014389127 -0.099390775 -0.060691163
000220 ef 55 bd bd 12 5a f5 bd 72 a3 65 be 3c cb d8 3d
       -0.09244906 -0.1198007 -0.2242563 0.10585639
000230 ec c9 02 bd dd 38 68 bb 17 06 1c bd 75 43 34 3b
       -0.03193085 -0.0035434284 -0.038091745 0.0027506028
000240 f0 fd 05 3e aa 72 a7 3c 14 39 a7 3d 3b 14 b3 bd
       0.1308515 0.020440418 0.08165184 -0.08744093
000250 d0 5a d9 3d f9 4e 38 bd 01 35 d3 3c 43 9a 2e 3d
       0.10613024 -0.04499719 0.02578211 0.042627584
000260 b9 7f 52 bb 9e e2 09 bc 4d 4c 17 ba 1f fc fa 3d
       -0.0032119586 -0.008415846 -0.00057715626 0.122551195
000270 8a a0 7c 3e e0 96 85 bd e5 2c 8d 38 cb 5e 47 be
       0.24670616 -0.06522918 6.731766e-05 -0.19469754
000280 98 97 90 bc b3 08 b1 3d 78 d2 23 3e 86 00 75 3d
       -0.01765041 0.08644237 0.15998256 0.059814952
000290 99 30 43 3d 4a 61 52 bc 51 17 a9 bd 6c 03 f2 bd
       0.04765377 -0.012840578 -0.082564004 -0.11817059
0002a0 44 7c 1d be 56 06 ff 3d 86 87 75 be 2e a4 53 3d
       -0.15379435 0.1245238 -0.2397748 0.051670246
0002b0 2f 3a 62 bd d6 17 16 3c a2 68 8e bd 9e b6 18 3d
       -0.05523127 0.009160956 -0.06953551 0.037283532
0002c0 4f f6 2b bd 9e e6 b3 3c 8a 02 03 be 85 04 bd bc
       -0.041982945 0.021960553 -0.12793937 -0.023073444
0002d0 56 49 4b 3d 1b 94 e5 3b 51 e0 ef bd e2 50 fc 3b
       0.049630485 0.007006181 -0.11712707 0.0077000717
0002e0 a8 0b 5e 3d 9e 18 15 bd 78 21 33 3d 7e b1 ae bd
       0.054210335 -0.03640043 0.04373309 -0.08529948
0002f0 61 26 66 3d cf 66 2f be 69 58 43 bd e4 30 c5 bd
       0.056188945 -0.17129062 -0.047691736 -0.09628466
000300 c3 d2 e2 3c cb cf b1 3c ad c9 0d bd 34 24 f4 3c
       0.02768839 0.021705529 -0.03461616 0.02980242
000310 43 b8 12 3d c1 f8 53 3d ae bb 26 3e c2 d3 d0 bd
       0.035820257 0.051750902 0.16282532 -0.101966396
000320 9c 50 b8 bd 2a 41 38 3d 5d 42 25 be 98 40 18 bd
       -0.0899975 0.04498402 -0.16138597 -0.037170976
000330 46 e9 e1 3d af ca ba bc e1 85 d8 3d bc e0 08 3d
       0.110308215 -0.022801725 0.105724104 0.03341745
000340 e1 b8 d4 3d c4 cb 26 3c a8 9f 0c 3e f9 9e d6 3d
       0.10386825 0.010180417 0.13732779 0.104795404
000350 15 19 22 3c 57 65 02 be 51 f6 8c 3c e7 81 81 3c
       0.009893675 -0.1273397 0.017207297 0.015809013
000360 c7 65 61 bc 7b 5d bd 3d f0 d5 b4 bd c7 02 18 bd
       -0.013757176 0.092463456 -0.08829868 -0.037112024
000370 0a 59 8e 3d 3c 8d 04 be 10 80 a6 3c b7 80 5e 3d
       0.069505766 -0.12944502 0.020324737 0.05432197
000380 6e 4c 0a bc c5 4a 8d 3d af 29 a2 bd a6 18 86 3d
       -0.008441074 0.06899027 -0.07918107 0.0654767
000390 ee 8a c7 bd 34 0d 3d be 29 d1 04 be b9 3b 6d bd
       -0.097432956 -0.18462068 -0.12970413 -0.057918284
0003a0 75 fd fb 3d b7 bf 55 bd a6 a8 fa bc 3a c5 c0 bd
       0.123042025 -0.052184787 -0.030597996 -0.09412618
0003b0 82 d6 2d bd 56 e0 01 be c4 80 95 bc 5a 45 3f 3d
       -0.0424409 -0.12683234 -0.018249877 0.046697
0003c0 de 14 b7 bd 76 e8 56 3e 40 a0 a5 3d fb c8 fc 3c
       -0.08939527 0.20987114 0.08087206 0.030857554
0003d0 be f1 13 bd 1e 26 32 3d 82 f8 06 3e ae 30 c6 3d
       -0.036119215 0.043493383 0.13180736 0.09677254
0003e0 03 cf 05 3d b8 73 0b be 78 53 25 bd 22 3a 46 bd
       0.032668125 -0.13618362 -0.040362805 -0.048395284
0003f0 0c 98 97 bd ae 78 de bd b5 f3 31 3c c0 18 88 3c
       -0.074020475 -0.108628616 0.010861327 0.016613364

network_body._body_endoder.seq_layers.2.bias f4 [128]
000000 3c 67 8a bd bc 80 d6 bd 8c 4f 66 bd 24 df 40 bd
       -0.06757972 -0.10473773 -0.056228206 -0.047087803
000010 d5 cf cc bd 40 da 85 bd 28 43 62 bd 3a da 88 bd
       -0.10000578 -0.065357685 -0.055239826 -0.066822484
000020 d3 aa f5 3a c6 e5 58 bd f1 b7 b9 3b 25 89 ca bc
       0.0018742926 -0.052953504 0.0056676795 -0.024723599
000030 bc f2 50 3d 33 90 1f be 3a 3e 88 bd a8 08 30 bc
       0.05101274 -0.15582351 -0.06652494 -0.010744251
000040 71 db d4 bc 71 31 12 bd 11 7b 9b bd 91 45 93 bd
       -0.025983544 -0.035691682 -0.075918324 -0.07191003
000050 4c 26 d4 bd 4f 3a 11 bd 67 1f 44 bd 19 ce a4 bd
       -0.10358867 -0.035455998 -0.04788151 -0.080471225
000060 95 a9 eb bc 7a 3b 26 bc 88 b9 e6 bd 00 0f a6 bc
       -0.028767386 -0.010146016 -0.11265856 -0.020270824
000070 d5 0a 5f bd 24 23 85 bd de 8f d4 bc 8d 10 25 bd
       -0.05445369 -0.06500843 -0.025947507 -0.040298987
000080 49 7d 2c bd 82 c1 e1 3c b8 cb 07 3d 75 02 88 bd
       -0.04211167 0.027558092 0.033153266 -0.06641094
000090 1a dc 1f bd a5 fe 14 bd c5 0e 8f bd a8 73 70 bd
       -0.039028265 -0.03637566 -0.06985239 -0.05870405
0000a0 d8 d4 46 bd 82 43 cb bd a1 36 ea bc e9 83 c6 bd
       -0.048542827 -0.099249855 -0.028590502 -0.096931286
0000b0 4a 1f 73 bd ba 13 ce bd 60 f7 9f bc ff 25 d5 bc
       -0.05935601 -0.10062356 -0.019527137 -0.026019095
0000c0 96 cf c2 bb 8b 0e 7e bd 38 d7 a6 bd ca 8b 4c bd
       -0.0059451563 -0.062025588 -0.081465185 -0.049938
0000d0 93 4d 0c be 4f 60 93 bd 98 f8 0c bc ff 3d b6 bd
       -0.13701467 -0.07196104 -0.008604191 -0.088985436
0000e0 f6 60 21 bc ef 11 7f bd d2 db bb bc 8e 21 df bd
       -0.009849777 -0.062272962 -0.022931967 -0.10895072
0000f0 d0 28 00 be 02 e7 9c bd f9 a5 57 bd a1 29 61 bd
       -0.12515569 -0.07661249 -0.05264852 -0.05497134
000100 73 c1 6c bd 26 05 a7 bd 8e 51 c1 bd c4 41 82 3c
       -0.057801675 -0.08155279 -0.094393834 0.0159005
000110 55 12 52 bd 32 ac f0 bd c1 8b fa bc a0 ed 41 bd
       -0.051287014 -0.11751594 -0.030584218 -0.047345757
000120 1a 07 07 bd ff 44 35 be 2b ce 24 bd d1 71 36 bd
       -0.032965757 -0.17702101 -0.04023568 -0.044542138
000130 88 41 29 bd 5e 36 10 3b d9 81 bd 3c ce 9c 0d bd
       -0.04132226 0.0022005062 0.023133205 -0.03457337
000140 69 c6 6d bc a9 40 4b bd f5 32 50 bd 40 da 22 bd
       -0.014512637 -0.04962221 -0.050829846 -0.03975892
000150 e0 90 2a be 28 a2 9f bc d7 50 29 bd b1 47 66 bd
       -0.16656828 -0.019486502 -0.04133686 -0.056220714
000160 a9 9c 23 be a6 da a4 bc f9 32 da bc 3e 56 3d bd
       -0.1597773 -0.020123791 -0.026635634 -0.046224825
000170 8d 08 a8 bd aa e9 32 be 0f 05 8e bd f1 62 7f bd
       -0.08204756 -0.17471948 -0.069345586 -0.062350217
000180 9f f6 61 bd 9f 52 22 bd 93 f9 9c bd 94 07 f9 bd
       -0.055166837 -0.039629575 -0.0766479 -0.121596485
000190 fc 8c 28 bd a1 bc bb bd 8a e2 9d bd 25 26 b3 bd
       -0.04115008 -0.091668375 -0.077092245 -0.0874751
0001a0 d9 aa a7 bd 4b f3 28 be f6 48 fb bc 81 4d 39 bc
       -0.081868835 -0.16499059 -0.030674439 -0.011309982
0001b0 4e 45 b5 bc e8 29 9e bc 0d 39 c8 bd a2 2f af bd
       -0.022127774 -0.019307092 -0.097765066 -0.08554007
0001c0 f1 ad 0c be e3 8b 0f be 02 ff 3f bd 86 cc 86 bd
       -0.13738228 -0.14018206 -0.046874054 -0.065819785
0001d0 30 c8 9d bd ca 13 8f 3a 67 97 8f bd 7b 9b 6a bd
       -0.07704198 0.0010915932 -0.070112996 -0.057277184
0001e0 90 b9 49 bd 28 89 79 3b 35 9a 84 bc 2f 48 bf bd
       -0.04924923 0.0038076136 -0.016186813 -0.0933994
0001f0 05 6e e4 3b 7f 76 d4 bd 87 e2 36 be df e3 14 bd
       0.006971123 -0.10374164 -0.17859851 -0.036350127

action_model._continuous_distribution.log_sigma f4 [1, 2]
000000 7f c9 09 3d 10 44 99 38
       0.033639427 7.308286e-05

action_model._continuous_distribution.mu.weight f4 [2, 128]
000000 f3 15 52 bc 7d 12 88 3c 12 56 8d 3b 4d e1 d0 bb
       -0.012822616 0.016610378 0.004313239 -0.006374514
000010 c3 f0 79 3c c8 ca 8e 3b f5 40 b3 3a 76 18 17 bc
       0.015255156 0.0043576695 0.0013675975 -0.009222141
000020 90 e5 a7 3b ce d5 f5 3b 3e c9 57 bb d6 ac ef 3a
       0.0051238015 0.007502294 -0.0032926346 0.0018285762
000030 9b 32 a4 bd ce a1 60 3d a2 e9 80 3c 0a 22 16 3c
       -0.08017465 0.05484181 0.015736405 0.009163389
000040 1f 05 20 3c 2f 05 91 3c fe 95 55 b9 ba d1 dc 39
       0.009766846 0.017702667 -0.0002036914 0.00042117928
000050 9c d5 43 b8 3f 1c 04 bc de 9e d8 39 11 d2 bc bb
       -4.6690562e-05 -0.008063375 0.00041317096 -0.0057623466
000060 a8 39 b9 39 f1 20 27 3b c2 ca c6 3a 0c 92 23 bc
       0.00035328907 0.0025501812 0.0015166628 -0.009983551
000070 74 ae e9 3c 32 61 9a 3c 2f 10 b8 3b fc b9 84 bb
       0.028525569 0.018845174 0.0056171636 -0.0040504914
000080 79 c6 40 3c 44 86 00 3c 1e fc 20 bb 87 46 70 bb
       0.01176607 0.007844511 -0.0024564336 -0.0036663131
000090 8a e9 83 bc 6f 64 3b 3c 28 c6 e3 3b 92 0f a6 bb
       -0.016102571 0.011437519 0.0069511123 -0.005067774
0000a0 63 55 65 3b 05 d3 2b bd 90 34 80 3c 32 c8 eb bb
       0.0034993521 -0.04194929 0.015650064 -0.007195496
0000b0 e3 70 34 3b 6e e9 c9 ba c4 9f 1b bc 63 f1 65 3c
       0.0027533106 -0.001540465 -0.00949854 0.014034602
0000c0 35 cc 8c bb 6e a1 9e bb f3 a7 55 3c b1 44 13 3c
       -0.0042968043 -0.0048410213 0.0130405305 0.008988545
0000d0 5b 2e 34 bd db 8b 23 bc 3f b0 a5 3b e3 11 73 3d
       -0.04398952 -0.009982075 0.0050564106 0.05934323
0000e0 f9 62 10 3c ff 25 25 3d 9d ce d4 bb 1c 05 0d bd
       0.008812659 0.04031944 -0.006494357 -0.0344287
0000f0 c2 4e 02 3d 9d 65 23 3c 8d c3 3e 3c c8 ac 00 bc
       0.03181339 0.009972957 0.011643303 -0.007853694
000100 53 62 c4 3c c8 87 3b 3c 83 fe 96 3c 88 55 a6 3b
       0.023972666 0.011445947 0.018431908 0.005076114
000110 20 06 a1 3b 72 44 d0 3b 31 2a 0f 3b 5b 1c 81 3a
       0.0049140602 0.0063558156 0.0021845216 0.000985037
000120 2d 30 4a 3c 55 4c 3c 3c 49 4b 01 bc a7 12 01 3c
       0.012340588 0.011492808 -0.007891485 0.007877982
000130 c4 0a 94 3b 1e 55 1a 3c 6a 59 e3 bb 38 fd 1b bc
       0.004517885 0.009419708 -0.006938149 -0.009520821
000140 75 d8 2f 3c 11 fb 53 3c 40 21 e6 3c a3 51 86 3c
       0.01073276 0.012938277 0.028092027 0.01639635
000150 69 23 a1 bc 48 82 c2 3a 42 37 48 3c 0b 6e 0d 3b
       -0.019670205 0.0014839852 0.012220206 0.0021580483
000160 4b 42 6b bb 4f d5 00 3d 9e c8 cc bb 8a 04 64 bb
       -0.0035897668 0.031453427 -0.0062495014 -0.0034792745
000170 58 fc fa 3b 14 38 19 3d 67 d8 10 bc 12 0c 96 bb
       0.0076594763 0.037406996 -0.008840657 -0.0045790756
000180 c6 47 0b 3b c5 6e 54 3b de 10 99 39 f8 c6 2d 3a
       0.0021252497 0.0032414657 0.00029195 0.0006629075
000190 e2 a7 d2 b9 c5 2b 13 3c d5 4b 90 3b 0b 11 22 3d
       -0.00040179404 0.008982603 0.004403571 0.039567035
0001a0 35 5e 20 3c c5 5f c2 bc 0d de 1a bc 9c 69 3e 3c
       0.009788086 -0.023727307 -0.009452355 0.011621859
0001b0 84 f6 d2 3b eb 6e 9d 3b 01 c2 6b 3b f9 26 de 3b
       0.0064380784 0.004804482 0.003597379 0.0067795482
0001c0 5f 0c 7e 3c f5 b8 1d bc 19 b1 80 bc 13 e9 ab 3b
       0.015505879 -0.009626617 -0.015709447 0.0052462905
0001d0 c1 2e 2c 3b d9 2b b0 3a 47 b0 3d bc 37 20 83 3c
       0.0026272985 0.0013440802 -0.011577672 0.016006572
0001e0 a4 9e 23 ba 52 52 ac 3c 76 0b 82 bc f7 34 05 bb
       -0.0006241596 0.021035347 -0.015874606 -0.002032576
0001f0 fe 6f 7d 3a 99 ac 37 bc 62 3a 61 bc 9d a6 0e 3c
       0.0009667872 -0.011210584 -0.01374683 0.008706716
000200 24 6a ca bb 82 a6 d1 3b 4c bb aa bc db 1c b8 bb
       -0.0061772037 0.006398023 -0.020841263 -0.005618674
000210 46 01 fa 3b b4 3b 52 3c 61 df db 3b 86 10 0b 3c
       0.0076295463 0.012831617 0.0067099785 0.008487826
000220 c2 39 52 b9 b4 3b e6 3b 0a 2c e1 bb 5b 31 8a 3a
       -0.00020048677 0.00702616 -0.006871705 0.0010543274
000230 82 a9 69 bd 3a 3f 5f 3d 3c 2c cd ba 53 82 88 bc
       -0.05704642 0.054503657 -0.0015653442 -0.016663706
000240 ca cd f1 3a 48 04 13 3c 21 47 b6 3b 2a d6 b6 ba
       0.0018448171 0.008973189 0.0055626784 -0.0013949324
000250 42 62 3f 3c e1 86 aa ba a2 41 24 bc fb 0f 76 ba
       0.011681141 -0.0013010168 -0.010025414 -0.00093865365
000260 08 cb d6 bb de a6 3f 3c b1 83 22 3b fd 98 c1 3b
       -0.006554965 0.011697499 0.0024797732 0.00590813
000270 ab 78 aa 3b 17 c2 ec bb 5f c7 f1 ba bf 59 a8 3b
       0.005202373 -0.0072252857 -0.0018446258 0.0051376517
000280 b8 5d 0c 3c e1 44 44 bc f2 09 3a 3c e8 29 88 3a
       0.008567266 -0.011979313 0.01135491 0.0010388466
000290 12 81 e4 3c 33 94 c8 3b 42 46 ae 3a 79 77 0d 3b
       0.027893577 0.0061211823 0.0013296085 0.0021586104
0002a0 e3 7c 83 3b 34 82 87 3b 34 44 8d 3c 50 b0 4b bb
       0.0040126904 0.0041353945 0.017244436 -0.0031080432
0002b0 2a 1d 19 3c cb 7a d3 3b 65 e0 15 3c 8a 17 8e bc
       0.009345332 0.006453847 0.009147738 -0.017345209
0002c0 11 d9 0d bb e2 74 3f bc ae 24 79 3c a9 89 d3 3a
       -0.0021644274 -0.011685582 0.015206499 0.0016139048
0002d0 f6 13 30 bd 7d e6 ad 3a 94 d6 2d bb 3f 5b 59 bb
       -0.042987786 0.0013267543 -0.0026525604 -0.003316596
0002e0 8a cb 99 3b f8 08 22 3d e2 7e 13 3b 92 a4 e9 3b
       0.004693453 0.039559335 0.0022506048 0.007130214
0002f0 fc 99 24 3d e3 d4 91 bb a4 72 5c ba 0a a0 3a 3b
       0.040185913 -0.004450427 -0.0008409417 0.0028476738
000300 d8 56 6f bc 1b cc 9c bc 7d df 21 3c 2f e8 a5 bb
       -0.0146081075 -0.019140294 0.009879944 -0.005063079
000310 3f bb aa 3b 5a 55 26 3c d3 98 55 3c 58 77 03 b9
       0.0052103098 0.010152185 0.013036924 -0.00012537593
000320 f1 54 01 bb b2 1e 62 ba 46 c0 96 3b d5 03 4a 3c
       -0.0019734467 -0.000862579 0.0046005575 0.012330015
000330 f4 b6 ad 3a 69 54 1e 3c 29 04 4e 3c 74 e6 ca bb
       0.0013253377 0.00966368 0.012574234 -0.006192023
000340 be ad 09 bc b1 d5 4b 3c b5 25 70 3c 62 02 d4 bb
       -0.00840324 0.012441085 0.014657428 -0.0064700106
000350 05 da b2 bc dd e7 c5 bb fb f7 9e b8 ad fc bd 3b
       -0.021832475 -0.006039603 -7.580217e-05 0.0057979436
000360 9d 8d 0d 3d 4f 9d c3 3b db 0c 02 3c a0 9f 2d 3c
       0.03455888 0.0059696804 0.007937635 0.01059714
000370 c5 cf 29 bc cc dd 99 ba 14 6a 97 3a 80 42 8b 3c
       -0.0103644775 -0.0011739074 0.0011552 0.016999483
000380 3a e3 a8 3b db 74 eb 3b ed d4 9e bb ea 52 c4 bc
       0.0051540406 0.007185561 -0.00484716 -0.023965318
000390 6c aa 20 bb cf 9a e9 bb 08 a6 00 3b d7 d9 80 3c
       -0.0024515642 -0.0071290503 0.0019630212 0.015728874
0003a0 0b a7 e4 b9 a3 33 f5 bb cf fa 37 bc 87 ee ee bb
       -0.00043612006 -0.007482962 -0.011229231 -0.0072916183
0003b0 7d 45 4e 3c 60 08 a0 bb 9e ab d0 3b 94 dc 87 3c
       0.0125898095 -0.004883811 0.0063681146 0.016584672
0003c0 78 0d 55 3c 98 22 c8 3b 95 3a ec 3b 2f a3 0e bc
       0.0130036995 0.0061076395 0.007209132 -0.008705898
0003d0 56 c6 01 bc ff ef 71 3b 68 b7 7c 3b 08 57 b0 b9
       -0.007920822 0.003691673 0.0038561467 -0.0003363418
0003e0 75 16 22 bc 27 92 53 3b e5 7c 3f bc 62 73 d9 bb
       -0.0098930495 0.0032283159 -0.011687492 -0.006636069
0003f0 87 0e d9 bb c9 8a c4 3b 55 1c 9f 3c a3 00 fc 3b
       -0.0066240462 0.00599799 0.01942269 0.0076905056

action_model._continuous_distribution.mu.bias f4 [2]
000000 1b 34 0a bd 7e d2 10 bd
       -0.033741098 -0.03535699

action_model._discrete_distribution.branches.0.weight f4 [3, 128]
000000 b7 bf 93 3b 84 96 d3 3a 9c 65 95 bd dd 68 9c bc
       0.004508938 0.001614288 -0.07294771 -0.019092971
000010 58 b5 4f 3c a7 36 df 3b 88 5e ad 3b ef 9f e8 3b
       0.012677513 0.006811935 0.00529081 0.0070991437
000020 80 41 7f 3c 2d e1 07 bc 1b d9 ee 3c fd a9 47 39
       0.015579581 -0.008293432 0.029156258 0.00019041444
000030 f8 36 cb bc b3 d4 91 3d 39 2e 6d bc 1e 61 f2 bb
       -0.024806485 0.07120647 -0.014476352 -0.007396831
000040 8f e9 38 bb 19 84 d4 39 d5 b8 72 bc 18 83 07 3c
       -0.0028215384 0.0004053421 -0.014814575 0.008271001
000050 e4 ed 87 3b 26 07 2d 3c 40 94 0e 3b b0 8f 78 bb
       0.004148232 0.010560786 0.0021755844 -0.0037927441
000060 4d ad 17 bc fa d1 29 3c ba c9 aa 3c 3d b8 18 bc
       -0.009257627 0.010365004 0.020848144 -0.00932127
000070 88 46 8a bb 93 9a 0a bc 82 49 d5 bb 2f 6d 44 3b
       -0.0042198338 -0.008459705 -0.006509007 0.0029972305
000080 23 2f 71 bc 47 68 8f bd ef 58 83 3b ed 8e 96 3c
       -0.014720711 -0.07002311 0.0040084044 0.0183787
000090 8d 60 83 bd 97 16 b4 3c 56 4a 5e bb 97 4c 44 bc
       -0.064149 0.021983428 -0.003391882 -0.011981151
0000a0 ba 3f ed 3b f1 50 04 bd a3 03 aa bb 72 04 da bb
       0.007240263 -0.032303754 -0.005188422 -0.006653362
0000b0 76 1f a2 bc e0 ca a9 3c d8 48 02 bc 15 f6 7e bc
       -0.019790392 0.020726621 -0.007951938 -0.0155616
0000c0 4d 13 ad bc 70 0e 14 3c ac b9 31 3d d4 f6 19 39
       -0.021127367 0.009036645 0.04338996 0.00014683168
0000d0 93 4d 1e 3c a7 45 84 3c c6 92 d3 bb b4 14 42 3a
       0.00966205 0.016146494 -0.0064567057 0.00074035977
0000e0 f1 a7 87 3a 86 66 58 3d 70 9e a7 3c 47 ab 38 37
       0.0010349733 0.05283215 0.020461291 1.1007133e-05
0000f0 e5 1d 61 3d 91 86 ec bb 0c 5a 5a bb 52 9d a5 3b
       0.05496015 -0.00721819 -0.0033317832 0.0050541544
000100 61 34 57 bd 0e cf 2f bc 8d 56 fa bb 13 55 87 bb
       -0.052540187 -0.010730518 -0.007639712 -0.0041300147
000110 ed 2d 8d 3c aa 6c 2d 3c b9 1b 1f 3d 94 2d ba ba
       0.017233813 0.01058499 0.038844798 -0.0014204257
000120 22 04 f2 ba 80 a1 22 bc ea bb f8 bc 26 0b c7 bc
       -0.0018464366 -0.0099262 -0.030363042 -0.024297308
000130 ad 00 71 bb d4 5e f4 bc 95 ef 9b 3b d3 60 9d 3c
       -0.0036774084 -0.029830374 0.004758785 0.019211208
000140 a4 43 83 bc 6f c7 a5 bb 2e 7a d0 3b 88 ea 1f bd
       -0.016023465 -0.0050591747 0.006362221 -0.039042026
000150 b1 51 5b 3d f0 8f 81 bc 7f 8f 6b bc 06 24 7d ba
       0.053544704 -0.015815705 -0.014377474 -0.0009656552
000160 32 88 29 bc 84 a7 fd bb 5c 97 10 bc 22 11 71 3b
       -0.010347413 -0.0077409167 -0.008825149 0.0036783894
000170 73 e4 6d bc bf 44 a4 ba f1 7f 5d bc 0d 69 0f 3d
       -0.014519799 -0.0012532695 -0.013519273 0.035012294
000180 37 52 35 3d 05 f9 a4 3c cb 5b b9 3c 05 af be bc
       0.04426786 0.020138273 0.022626778 -0.023276815
000190 9c 52 1c 3c a1 54 d9 bb 14 33 41 bc de ad 19 3d
       0.00954118 -0.006632403 -0.011791963 0.03751933
0001a0 ff 6d 56 bc 71 8b 4f 3d 72 78 1e 3c 4a e3 27 bd
       -0.013087749 0.05067009 0.009672271 -0.040988244
0001b0 aa a0 4d bc e1 ba 70 bc 4a ac f8 3a d9 d8 70 3a
       -0.012550512 -0.014692993 0.0018972245 0.0009187586
0001c0 a5 12 50 bd 23 a8 a5 bb e0 89 11 bd 89 6d 85 3a
       -0.05079903 -0.005055444 -0.03553188 0.0010179739
0001d0 ac b4 18 bd 69 42 ca ba 7b 47 07 bb 6a 01 f9 bb
       -0.037281677 -0.0015431169 -0.002064197 -0.0075990455
0001e0 40 8f a7 bc bb 54 24 bc 65 16 3e bd fc fc 39 3a
       -0.02045405 -0.010029967 -0.046408076 0.00070948876
0001f0 78 be 33 bc f1 88 29 3c 08 12 9b 3c 6e 12 f9 3b
       -0.010970704 0.010347591 0.018929496 0.007601074
000200 97 80 a7 3c 6b 31 ae bc 25 b5 ac 3c 54 a7 5c bb
       0.020447059 -0.021263799 0.02108247 -0.0033669071
000210 e2 85 43 bd aa 02 1f 3a d5 c5 3c 3c db 55 f1 bc
       -0.047735102 0.00060657656 0.011521776 -0.029459884
000220 20 df 01 bc 3f 43 9e 3a 6d 13 fb 3b 6b fb e9 3c
       -0.007926732 0.0012074484 0.007662228 0.028562268
000230 9b 7d 95 bc d3 6e 83 bd d5 0d 7e 3c e8 b4 10 bc
       -0.01824837 -0.064176224 0.0155062275 -0.008832194
000240 98 71 3d 3b c7 20 64 bc dd 16 94 bb d4 f6 7d 3c
       0.0028906818 -0.01392383 -0.004519327 0.015500743
000250 96 84 c4 bc c9 5a a7 3c 33 00 57 bc 15 44 21 3c
       -0.023989003 0.020429032 -0.013122606 0.009842892
000260 40 bc 97 bc ea 8f 29 3b a5 17 7d 3b 39 22 03 3c
       -0.018522382 0.0025873133 0.003861883 0.008003765
000270 26 31 37 bb b4 fb 14 bc d7 bc 67 3c fa 7e 49 3b
       -0.0027952879 -0.009093214 0.014144144 0.003074585
000280 73 dd 70 bc e8 45 20 3b 24 45 e1 3c 21 43 7c bc
       -0.014701235 0.002445573 0.02749879 -0.015396864
000290 76 f2 cd 3c a3 bb 09 3c 5e 31 3c 3c 79 31 40 3c
       0.025140028 0.0084065525 0.011486379 0.011730545
0002a0 b8 e8 b7 3a ab 32 a0 3b 75 30 72 3c a0 d4 5d 3c
       0.0014031148 0.0048888526 0.014782061 0.013539463
0002b0 74 f5 37 3d 73 b5 19 bc 2f 0e c1 3c b6 e8 8e 3c
       0.044911817 -0.00938164 0.023566334 0.01744495
0002c0 c5 aa 0c 3c 17 53 50 3c e7 1f 6a bc f6 b5 ce 3a
       0.0085856365 0.012715123 -0.014289833 0.0015770781
0002d0 97 63 0f 3d c8 65 b3 3b f9 de 21 bb 23 d3 d3 bc
       0.035007086 0.0054747798 -0.0024699552 -0.025857514
0002e0 0b 7e ae bc b0 c5 80 3c f8 fe 1c bc 5d c7 4b 3c
       -0.021300336 0.015719265 -0.009582274 0.012437669
0002f0 b8 91 b2 bc f1 65 85 bc 3b 5a 75 3b 5e 13 fb bb
       -0.021798 -0.016283961 0.0037437815 -0.007662221
000300 e0 1e c0 3c 92 56 6f bb 7f d8 b1 bc 27 97 a0 3b
       0.023452222 -0.0036520106 -0.021709679 0.0049008313
000310 69 aa 77 bc a0 9d 2c bc f9 75 b1 bc fa 39 e6 3a
       -0.015116313 -0.010535628 -0.021662699 0.0017564886
000320 85 33 55 3c 7b c5 ea bb 12 3e cd 3b df 1c 88 3c
       0.0130127715 -0.007164655 0.006263503 0.01661533
000330 2e ef 1c 3c 3d 34 18 bc b7 8d 2b 3c a2 9b 88 bc
       0.009578509 -0.009289798 0.010470799 -0.016675774
000340 8d 93 b3 3b fb 62 91 3c ea d6 ed bc f8 3b f6 3b
       0.005480236 0.017747393 -0.029033143 0.007514473
000350 68 4e 89 bd f8 e5 aa bb 21 98 52 ba 33 2a 8f 3c
       -0.06704408 -0.0052154027 -0.0008033533 0.017476177
000360 6a d7 53 3d c2 ba 2a bc 1a 28 b4 3b bf e9 ad 3c
       0.051719107 -0.010420503 0.0054979445 0.021229623
000370 95 58 79 3b 07 ae 90 bc 92 a0 ec 3b f3 c1 2e bd
       0.0038047184 -0.017661108 0.00722129 -0.042665433
000380 cf e2 c1 bc 60 bb 81 bc 50 00 44 bc 65 3e 6e 3d
       -0.023667721 -0.015836418 -0.011962965 0.058164973
000390 0f 7e d1 bb 70 8e 30 3c 70 9d 72 3c 29 fb 29 bd
       -0.006393201 0.010776147 0.014808044 -0.04149929
0003a0 dc a6 13 bd 8b 6d 12 bd 30 5c 82 3c 46 f1 c7 3c
       -0.0360478 -0.035749 0.015913099 0.02440704
0003b0 60 48 f1 3c dc cc 78 3c 9f 78 ae bc 30 8a 33 3c
       0.029453456 0.015185561 -0.021297751 0.010958239
0003c0 6d b2 41 3d e6 0e af bb 89 1c 95 3b ad d8 e4 bb
       0.0472893 -0.005342352 0.004550521 -0.0069838376
0003d0 c7 1a 49 bc bd 7c bd b9 cd 1d c3 bb f9 e5 f2 3a
       -0.012274451 -0.00036141826 -0.0059544803 0.0018531672
0003e0 0d 2a 25 3b 5e d3 0b 39 14 c8 a4 3b 24 90 3f bc
       0.0025202066 0.00013334813 0.005028734 -0.011692081
0003f0 56 f3 6d bb d1 c5 d9 bb 45 3b 51 bc f5 2e ef bb
       -0.003630837 -0.006645896 -0.012770479 -0.007299299

action_model._discrete_distribution.branches.0.bias f4 [3]
000000 ea 43 4a be 99 61 1d 3d 80 b4 18 3e
       -0.1975247 0.038423155 0.14912605

action_model._discrete_distribution.branches.1.weight f4 [3, 128]
000000 fe 5c d5 b9 be ad bd 3c a1 96 85 bd e7 b1 23 bc
       -0.0004069581 0.023154136 -0.06522871 -0.009991146
000010 ac d3 2a bd 51 5c 27 3c 3a d5 9d bb 57 2e 81 3b
       -0.041705772 0.010214881 -0.0048166784 0.0039422917
000020 09 af 43 39 97 45 7e bb 80 70 b5 b9 58 e3 47 3b
       0.00018661855 -0.0038798803 -0.0003460683 0.0030500498
000030 99 e4 04 be 43 d2 ca bb da dc 19 3b b7 65 c3 3b
       -0.12977828 -0.006189616 0.0023477585 0.005963053
000040 5e 4d 19 39 86 8d a5 bc af 65 15 bd d8 0f 2b bc
       0.00014620039 -0.020209085 -0.036473926 -0.010440789
000050 3d 88 80 3a 9a 37 e5 3c 13 a8 63 3c 53 a7 f7 bb
       0.0009806227 0.027980614 0.0138950525 -0.0075577884
000060 29 32 c0 bc d8 70 2c bb d0 f1 50 3c 26 f4 85 3c
       -0.023461418 -0.0026312377 0.012752965 0.01635177
000070 41 47 2c bd ba a5 65 bc d6 5e 48 bb 3f a2 2d bb
       -0.04206014 -0.014016563 -0.0030574105 -0.0026494411
000080 18 84 1b 3b dc d3 95 bc 44 25 fc 3b a8 c7 c8 3c
       0.0023729857 -0.018289499 0.007694872 0.024509266
000090 31 7c df 3c 92 ec 84 bb aa 11 ca 3c 11 41 71 3c
       0.027280899 -0.0040565217 0.024666626 0.014724986
0000a0 ee b0 6e 3b c1 26 c7 3d 59 74 bf bc 5f 48 f6 bc
       0.0036421376 0.097241886 -0.023370909 -0.030063806
0000b0 b7 d9 26 3c 23 a4 4f 3c c6 d6 c5 3c 34 77 f5 bb
       0.010183743 0.012673411 0.024150264 -0.0074910168
0000c0 1e c7 f3 3a 4d 60 07 3c 8e 3d 1b bc a5 fd c9 3b
       0.001859877 0.008262706 -0.009475125 0.00616427
0000d0 ff 67 cc 3d ae e7 d0 3c 30 53 b1 3c b9 d7 57 bd
       0.09980773 0.025501098 0.021646112 -0.052695964
0000e0 9c bd 1d bc 52 bc 0e 3e aa 04 57 bc d8 0e 90 3c
       -0.009627726 0.13939026 -0.013123671 0.017585203
0000f0 36 c1 31 bc 49 51 49 bb 38 3a 7f 3c 98 cb ac 3a
       -0.010849288 -0.0030718616 0.015577845 0.0013183234
000100 25 2e 34 3d b9 7f 80 bd 80 0e f7 bc 87 d0 c1 3c
       0.04398932 -0.06274361 -0.030158281 0.023659004
000110 c9 79 0a 3d f9 16 f6 ba b3 a1 0c bb 47 d0 c0 3b
       0.03380755 -0.0018775157 -0.0021458685 0.0058842036
000120 f3 dd a5 3b 3a c9 d2 bc da 0e 04 3c b0 fa f1 3a
       0.005061859 -0.025730718 0.0080601815 0.0018461552
000130 74 8c 2b bc 2e ca 8c 3b 04 0e 2b 3b 3a 13 35 3c
       -0.010470498 0.0042965626 0.0026100883 0.011051947
000140 98 76 d0 bc dd e7 a0 3c 6b 41 eb bc 74 d5 a6 3c
       -0.025447175 0.019641811 -0.028717717 0.020365454
000150 ae 09 60 bd 2b bf bd ba 65 9c 69 3b ea ba 4b 3a
       -0.05469673 -0.0014476528 0.0035646197 0.0007771688
000160 65 0c 95 bd 28 df 5c 3a 64 4f d7 3c fc a2 4c 3c
       -0.07277755 0.0008425587 0.026282974 0.01249003
000170 11 2b d1 bc 8c 46 11 bd b2 cb 25 3d 57 b5 64 38
       -0.025533231 -0.03546767 0.040477462 5.4528322e-05
000180 80 62 95 bc 3b 7a 51 bb 0a 5a 79 bc fb 9d cc 3d
       -0.018235445 -0.0031963724 -0.015219221 0.0999107
000190 8c 48 d4 3b e2 d0 d5 bc d4 99 41 3c e4 a9 4a bd
       0.006478375 -0.02610058 0.011816461 -0.049478427
0001a0 96 26 37 bd f1 7d 2a bd c2 f4 7f 3c 15 14 ec bc
       -0.044714533 -0.041624013 0.01562232 -0.02881817
0001b0 09 92 5d 3b 86 5e c8 bb cf e2 c7 3a a6 b6 dd 3b
       0.0033808968 -0.0061147837 0.0015250089 0.006766158
0001c0 67 c2 1d 3d ad 33 2a bd 60 89 80 3c 41 2a a9 3c
       0.038515475 -0.041553188 0.015690506 0.020650031
0001d0 78 eb d0 bc d2 0a 78 ba 50 59 86 3c cb 11 73 bd
       -0.025502905 -0.00094620616 0.01640001 -0.05934314
0001e0 1d d7 22 3b bb ab 14 3c 8a 2f 12 3d 30 fe 2e bd
       0.0024847456 0.009074147 0.035689868 -0.04272288
0001f0 30 16 9f 3b b2 21 d7 ba ca a6 ad bc 08 5f 9c 3b
       0.00485494 -0.001641324 -0.021197695 0.004772071
000200 33 59 44 bb 34 85 11 3d 81 20 91 3c 7a 51 8c bb
       -0.0029960393 0.035527423 0.017715694 -0.0042821737
000210 f9 48 8f 3c d8 56 d1 3a ec 76 5e 3c a3 27 99 bb
       0.01749085 0.0015971316 0.013578158 -0.0046739145
000220 35 28 a4 3c 4c b1 f2 3c 77 ad b8 3c bf 36 8b 3c
       0.020038703 0.029625557 0.022543652 0.016993878
000230 b6 76 c5 bc e7 cd 85 3d 5f 3a 17 3d da 01 d2 3c
       -0.024104457 0.065334134 0.0369209 0.025635649
000240 80 4b 9d 3c 23 f7 ba 3c 42 c0 4c 3b b0 3d 14 3d
       0.01920104 0.022822922 0.0031242524 0.036191642
000250 f7 e9 f1 3a 16 fc 40 bc 6e b7 37 3c 3a c7 1a bb
       0.0018456568 -0.011778852 0.011213167 -0.0023617283
000260 9e 8c 58 3c 51 1e 0f bc 1d 53 82 3b 83 ec 4a 3c
       0.0132171195 -0.008735255 0.003977193 0.01238549
000270 44 cf b8 3c 3a a1 ab 3c 95 a5 b8 3c 4d 11 f6 bb
       0.02255977 0.020950902 0.022539893 -0.0075093866
000280 1e 25 a3 3c d4 20 0b 3d 2a ca 99 3c e2 24 30 bc
       0.01991516 0.033966854 0.018773157 -0.010750981
000290 c6 67 02 bd e7 b9 2b 3c 97 f4 46 3a c1 23 8d 3c
       -0.031837247 0.010481334 0.00075895473 0.017228963
0002a0 99 90 e7 ba bc 2b 87 bd 0d 3a e7 3c 8c 8c fb 3a
       -0.0017666995 -0.066001385 0.028225923 0.0019191667
0002b0 d4 53 29 3d 44 ad 30 3a 4c ce b2 3b 60 c0 75 3c
       0.04133971 0.0006739686 0.0054567214 0.014999479
0002c0 9b 69 51 bb da f8 95 bb 56 cc 98 bb aa ce db bb
       -0.0031953815 -0.0045767846 -0.0046630306 -0.006707986
0002d0 ea c0 c9 bd fe b0 eb 3c 4a 6c 8e bc 87 26 3c 3d
       -0.098512486 0.02877092 -0.01738562 0.04593518
0002e0 2e 29 76 3c 9a 58 3e 3d 18 2e 29 3b 34 5a ed bc
       0.015024466 0.046471216 0.0025814828 -0.028973676
0002f0 30 2e b3 3c c2 1d bd 3c 77 d1 49 3c 5d f0 2f 3c
       0.02187261 0.023085479 0.012318007 0.010738459
000300 36 5e f3 3c 7f 06 49 3d b6 ec 17 bb 6a 1f f4 3b
       0.02970801 0.04907846 -0.0023181862 0.007450034
000310 ee 69 8e 3a a9 10 2d bb 1a 4c 3b 3c 96 5c 68 3b
       0.001086531 -0.0026407635 0.011431718 0.0035455576
000320 88 54 e0 3c 8c 41 9e 3b dd 19 a2 3b aa 74 06 3c
       0.027384058 0.004829591 0.004946931 0.008206526
000330 8a ea 2c 3c fe 55 03 3d cd 5c 39 bc 7b b7 19 bc
       0.010553965 0.03206443 -0.011313629 -0.009382124
000340 3a aa 31 3d 5f c0 a4 3b f2 ef 2e 3b ed 17 3c 3d
       0.04337523 0.0050278152 0.0026693312 0.045921255
000350 8b d6 81 bc 4f 12 cd 3c c7 cb b3 3c 57 09 9a 3b
       -0.015849372 0.025033144 0.021947755 0.0047008204
000360 0e cb b2 bb d4 a9 bb bc 1d f1 0b 3c 29 0d d6 3b
       -0.005456335 -0.022908129 0.008541373 0.0065323305
000370 ef 38 05 3c ff 64 6c bc e2 30 d1 bb f0 23 ad 3b
       0.00813125 -0.014428376 -0.006384001 0.005283825
000380 1a c5 c9 bb ad 83 fc bb 92 ea 8e 3c f8 66 30 bd
       -0.0061575295 -0.0077061267 0.017445836 -0.04306695
000390 da 87 3c bc 34 0f 5e 3c 30 09 06 3b cc 17 93 3d
       -0.011506999 0.013553429 0.0020452254 0.07182273
0003a0 25 4d 53 bc e8 80 26 bd 53 b8 be bc 9a c1 67 3d
       -0.012896811 -0.04065028 -0.023281252 0.056581117
0003b0 e0 dc 0e 3d b7 cf c5 3c 50 e1 9a 3b 75 1f 11 3d
       0.03487861 0.024146898 0.0047265664 0.03543039
0003c0 67 ca e1 bc 6b 68 69 3c 95 e5 34 3c 72 d2 68 3c
       -0.027562333 0.014246087 0.011041065 0.01421033
0003d0 29 48 ec ba 94 71 26 bb f6 12 88 bc 30 70 39 3d
       -0.0018026876 -0.0025397288 -0.016610604 0.045273006
0003e0 99 4f 23 bb 93 8f c4 3c 40 dc 40 3c e8 36 79 3c
       -0.002491927 0.023994243 0.011771262 0.015210845
0003f0 d3 78 cf 3c c7 72 2f bc a9 2d 01 bd 01 8d 75 3c
       0.025326168 -0.010708517 -0.031537686 0.014987231

action_model._discrete_distribution.branches.1.bias f4 [3]
000000 1d e7 b3 bc ea 3c cd 3c cb 4b d7 bb
       -0.02196079 0.02505346 -0.0065703145
