results/Agent1/My Behavior/My Behavior-7801.onnx (onnx, 81381 bytes, 14 tensors)

77 f4 [13]
000000 6f 70 8c 43 4f cb 94 43 1c a0 cf 43 5d fd a1 43
       280.8784 297.58835 415.25085 323.9794
000010 0e 7d 39 3c d1 88 04 44 dd b2 cf 43 49 49 d6 43
       0.011321319 530.13776 415.39737 428.57254
000020 87 59 1a 44 67 78 8c 42 fa 46 8f 42 e9 1a c6 43
       617.39886 70.23516 71.638626 396.21024
000030 01 ea 51 43
       209.91408

action_model._continuous_distribution.log_sigma f4 [1, 2]
000000 00 00 00 00 00 00 00 00
       0.0 0.0

action_model._continuous_distribution.mu.bias f4 [2]
000000 00 00 00 00 00 00 00 00
       0.0 0.0

action_model._continuous_distribution.mu.weight f4 [2, 128]
000000 2a 5a 4b 3a 17 6a a3 bc 23 ac bd 3b 2f 9b 8b bc
       0.0007757271 -0.019948049 0.0057883426 -0.01704177
000010 2f c0 d6 bb e4 87 06 bd 2a f3 70 3c 7b 42 f7 3c
       -0.006553672 -0.03284444 0.014706412 0.030183068
000020 19 38 49 3c 84 dc 81 bb 19 09 49 bc f5 61 2e bb
       0.012281441 -0.003963055 -0.012270235 -0.002660868
000030 ca 80 d1 bc 4a c1 1a 3c 0b 38 27 bc 14 f2 30 3c
       -0.025574107 0.009445498 -0.010206233 0.010799903
000040 ef b3 22 3c d3 70 74 bc 39 1a 93 3b 03 2f 2a 3d
       0.009930595 -0.0149194775 0.00448921 0.04154874
000050 b1 9b 3b 3b ef 4f 2c bc b2 56 21 3b ff 42 ec 3b
       0.0028626735 -0.0105171045 0.0024618325 0.007210135
000060 ab 03 6b 3c 68 c2 f5 3b aa f4 30 3d ad 51 25 3d
       0.014344136 0.0074999817 0.04320208 0.040361095
000070 c4 d3 af 3c 97 4e e4 3b 9d 90 c9 3c 96 cd 04 3d
       0.021463282 0.0069673765 0.02460509 0.032422625
000080 1f 06 aa ba 40 c1 19 3c f5 3c a4 3b 1e ec 9c bc
       -0.0012971795 0.009384453 0.0050121495 -0.019155558
000090 39 77 0c 3c 64 60 27 3d 8c 40 05 bc 4b 59 aa bc
       0.008573347 0.04086341 -0.008133065 -0.020794531
0000a0 d7 6d ef 3b 5f 10 dc bc df f2 0a 3d 82 24 16 bc
       0.007306795 -0.026863275 0.033923026 -0.009163978
0000b0 f0 df ef 3c d6 01 09 bc 7e 67 b3 ba b8 c4 da 3b
       0.029281586 -0.008362254 -0.0013687459 0.0066762827
0000c0 9f 0b 76 bc b0 09 2b 3c 90 24 5f bc 2a 51 d4 3c
       -0.015017419 0.010439321 -0.013619557 0.025917608
0000d0 d7 4d 8d 3c 8a 8e f3 ba a4 8b 49 bc 2f 7a 04 bc
       0.017249031 -0.0018581909 -0.012301359 -0.008085771
0000e0 17 1c 17 bc 84 f6 a4 3b a3 68 16 3d 43 4f f2 3a
       -0.009223006 0.0050342698 0.036720883 0.0018486757
0000f0 f7 d4 b6 ba e8 26 74 3c 33 3f e3 bb 75 90 58 bc
       -0.0013948967 0.014901854 -0.006935024 -0.013218035
000100 42 51 d7 b9 b5 0f 06 bc 7b a5 a2 bb a7 7f b4 3b
       -0.00041068537 -0.008182456 -0.0049635745 0.0055083814
000110 8b aa a0 bb 27 03 10 bb a3 fe a2 ba a6 69 15 bc
       -0.004903143 -0.0021974535 -0.0012435507 -0.009119427
000120 b4 7b 91 3b 4b bf dc bc bd 13 b8 3c dc 9f 44 3b
       0.0044397954 -0.026946684 0.02247035 0.003000251
000130 93 b7 02 bd 41 b8 a5 bb 3d 00 df 3c cb 83 83 3b
       -0.03191335 -0.005057365 0.027221793 0.0040135137
000140 89 7e 2d bc 0c a1 41 3c 0e ba b3 3c 91 90 3b 3c
       -0.01058925 0.011818182 0.021939304 0.011448042
000150 ef 86 ed bb 5b 4e f0 bb 67 6e a8 3b c3 56 12 bd
       -0.0072487514 -0.0073335594 0.005140114 -0.035727274
000160 a2 42 89 3b de 88 2d ba e4 9a 35 3c 52 2a 84 3c
       0.0041888515 -0.0006619821 0.011084292 0.016133461
000170 33 72 3a bc 33 63 70 3c 1e 95 9a bc 8d 79 ad bc
       -0.011379766 0.014672088 -0.018869933 -0.021176124
000180 6e f5 a4 bc 3b bf 53 3c 20 d2 bb bb eb 88 93 bc
       -0.020136561 0.012924011 -0.005731836 -0.018009624
000190 1b 5e b0 3c 4c 09 85 bc f3 d8 85 3c 34 6e 02 bc
       0.021529248 -0.016239785 0.016338801 -0.007960845
0001a0 47 ec a9 3c a8 9b a4 bc 64 91 45 bc 6b 99 c1 bc
       0.020742549 -0.020093754 -0.01205859 -0.023632726
0001b0 2c b6 2b 3d 83 77 cf bc 4b 87 57 bc 5d e5 c6 bb
       0.04192178 -0.025325542 -0.013154815 -0.0060698227
0001c0 6f d6 0f 3c c3 6c 65 bc 21 00 05 3d c7 2a 16 3c
       0.008779152 -0.014002982 0.032470826 0.009165472
0001d0 b3 08 92 bc 61 38 b1 3c 98 00 61 bb c7 db 89 bc
       -0.017826414 0.021633329 -0.003433263 -0.01682843
0001e0 77 c6 22 bd 5b 74 e9 3b 3b f6 7e 3b e5 8b 7e bc
       -0.039740052 0.0071244664 0.003890409 -0.015536283
0001f0 fb e9 6a bc 93 90 a6 bb 77 2e 85 3c 31 cf a5 bc
       -0.014338012 -0.0050831526 0.016257508 -0.020240398
000200 35 6d cd 3b 31 a8 0b 3c 27 5c b9 bb dd e1 b7 3c
       0.006269122 0.008523987 -0.0056567374 0.022446567
000210 f3 9f a6 3b 2a 09 5e 3c df 67 9c bc bd 59 1a b9
       0.0050849854 0.01355199 -0.019092498 -0.00014720015
000220 d5 9b ce 3b 31 b1 b0 3b cf 28 c4 3b 67 e3 60 bc
       0.0063051977 0.0053922166 0.00598631 -0.013726092
000230 62 e5 61 bc 97 16 87 bc 7e 92 4a 3c 23 6b ae b9
       -0.013787599 -0.016490264 0.012364028 -0.0003326769
000240 1a 90 0a 3c a0 26 e3 bc d7 9a d7 bb 30 15 90 bc
       0.008457208 -0.027728379 -0.0065797376 -0.017588228
000250 72 a5 58 3c 86 9f 00 bc 21 98 ad 3b 57 82 ee 3b
       0.013223039 -0.007850533 0.005297676 0.0072787213
000260 d7 6b e3 bb 75 98 e2 3c 4e 7e be bb f3 c0 b1 3c
       -0.0069403457 0.027660588 -0.0058133965 0.02169845
000270 5b 8f 83 3a 6c a5 15 bc 4a a9 98 bc ff 79 04 bd
       0.001003723 -0.009133678 -0.01863541 -0.032342907
000280 b7 f9 f2 3c ac a5 27 bc 60 46 bd 3c 03 cd 01 bd
       0.029660089 -0.01023237 0.023104846 -0.031689655
000290 2d 99 05 bd ab 0f b2 bc 7f a5 0a bd ec 53 07 bc
       -0.032616783 -0.021735987 -0.033849236 -0.008259755
0002a0 b7 c9 8b bb 53 2e 1a 3c 48 87 69 3c 65 9c 4e 3c
       -0.0042659896 0.009410459 0.014253445 0.01261053
0002b0 ac 0a a7 bb f5 07 7c 3c 7a 8b 5e bb c7 0f 6a 3c
       -0.0050977077 0.0153827565 -0.0033957646 0.014285988
0002c0 1a 58 ce bc f0 65 09 3d aa 44 da 3c 18 99 85 3b
       -0.025188494 0.03354448 0.02664407 0.004077088
0002d0 1b cc 24 3b 45 16 88 bc 75 e9 b2 3c 86 db a0 bc
       0.002514607 -0.016612181 0.021839837 -0.019635927
0002e0 ef b4 21 bd d0 1d 07 bd ab 61 1f 3c 3f 00 1b bc
       -0.039479192 -0.032987416 0.009727876 -0.009460508
0002f0 4f 67 7a bb f7 6a 85 3c 43 04 07 bc 98 11 86 bc
       -0.003820855 0.016286356 -0.008240762 -0.016365811
000300 d2 b4 3a 3b f3 64 a2 3c 2a 4b 8c 3c 26 84 4b 3c
       0.0028489125 0.019823527 0.017125685 0.012421643
000310 73 4b 9b 3c 47 32 a2 3b 6d ce 17 3c 14 f6 49 3b
       0.018956875 0.004949841 0.009265524 0.003081684
000320 34 ba c3 bb 47 95 f6 bc f9 3d a2 bc ea 23 29 3c
       -0.005973125 -0.030100478 -0.019804941 0.010323504
000330 12 da c7 3b 54 99 25 bd 75 13 53 bb 0b 0c a8 3c
       0.006098994 -0.04042943 -0.0032207642 0.020513555
000340 75 cb 53 b9 9b 22 85 3b 93 17 b2 bc ab c1 9e 3b
       -0.00020198322 0.004062963 -0.021739757 0.0048448644
000350 0f f6 e8 bc df 91 43 3a 4f b6 65 bc 05 a4 a9 3b
       -0.028437642 0.0007460396 -0.014020517 0.0051770234
000360 57 f1 d3 3c 78 5a e9 bb 12 a7 e0 bb 5f 1c c7 ba
       0.025871916 -0.0071213804 -0.006855854 -0.001519095
000370 7e d3 14 bb 78 9b 68 bc 3d 8d 54 3c 4b 12 92 3c
       -0.0022709067 -0.014197223 0.012973127 0.017830988
000380 bb a2 30 3c c5 45 84 ba 64 29 80 bc 93 2c a2 bb
       0.0107809855 -0.0010091594 -0.015644737 -0.0049491613
000390 9f eb 5e bc 9a 15 06 3c f7 60 95 3c 6c 76 81 bc
       -0.013605981 0.008183861 0.018234713 -0.015803538
0003a0 df c5 09 bc c5 bb 4f 3c 2d f2 77 bc 3e 69 be 3a
       -0.008408993 0.012679045 -0.015133423 0.0014527214
0003b0 0b 00 11 bc 9a 54 96 3b 0d 38 06 bb 9d f7 c2 bb
       -0.008850108 0.004587722 -0.0020480186 -0.005949928
0003c0 9d ce 5b 3b 09 ad 88 3b 00 d8 e1 bb a7 4c 11 bd
       0.00335399 0.004171018 -0.0068922043 -0.035473492
0003d0 32 62 51 bb 85 da 65 bc 16 a1 82 3a 80 d6 5a bc
       -0.0031949398 -0.01402915 0.000996622 -0.013356805
0003e0 46 02 b9 3c 3a 83 d4 3c 27 12 27 bc 97 9b 95 bb
       0.022584092 0.02594148 -0.010197199 -0.004565667
0003f0 21 35 a7 bc 98 0c 3d 3c dd 33 61 bc 23 87 25 bc
       -0.020411076 0.011538647 -0.013745275 -0.01010302

action_model._discrete_distribution.branches.0.bias f4 [3]
000000 00 00 00 00 00 00 00 00 00 00 00 00
       0.0 0.0 0.0

action_model._discrete_distribution.branches.0.weight f4 [3, 128]
000000 42 4a 38 3c 67 35 68 bb f6 84 2e bc 7b 23 54 bc
       0.011248173 -0.003543222 -0.010651818 -0.012947912
000010 d3 8b af bc 9b 20 3e 3b 3d cd d7 37 57 9e cc 3b
       -0.021428978 0.0029011134 2.5725569e-05 0.0062444615
000020 1f 25 11 bb 77 67 ba 3b 93 fa d9 3a 5b b0 71 bc
       -0.002214737 0.0056886035 0.0016630463 -0.014751519
000030 da 3a a7 3b 2b e9 ec ba 93 0a 2d bc 65 a8 33 bc
       0.005103451 -0.001807486 -0.010561603 -0.010965441
000040 f2 3c c5 bb 02 e6 9d 3b 7d ab 56 3b e0 6a a4 3b
       -0.006019228 0.004818679 0.0032756024 0.0050176233
000050 2b 1e 12 3b 02 17 61 3c f9 eb 98 bb dd 20 ee bb
       0.0022295814 0.013738396 -0.004666802 -0.007267101
000060 3f f3 5b 3c 18 7b 7d bb 55 a6 ee 3b c3 f7 00 3c
       0.013424694 -0.0038678106 0.007283012 0.007871571
000070 b3 de 97 bb e5 2f 60 bb 3d 99 7f b9 f3 54 01 3b
       -0.004634702 -0.0034208235 -0.00024375781 0.0019734472
000080 28 bb 21 3c ed 6f b7 ba 14 c1 80 3c e3 b7 40 bb
       0.009871282 -0.0013995148 0.015717067 -0.002940648
000090 f3 12 89 bb 3d 95 b6 ba 2d 05 38 ba fa c8 04 bc
       -0.004183167 -0.0013929975 -0.0007019814 -0.008104557
0000a0 31 6f 37 bb a2 1c f1 bb d5 b5 05 bb 98 e0 fd 3b
       -0.002798986 -0.0073581496 -0.002040257 0.007747721
0000b0 07 50 2c bc 5e fc 8c bb 3d cf f1 bb 5a d7 c4 bb
       -0.010517127 -0.0043025455 -0.007379441 -0.006007117
0000c0 12 90 d1 3b 27 8b 31 bc 63 9d ee b8 d8 83 46 3c
       0.0063953483 -0.010836399 -0.0001137804 0.012116395
0000d0 04 36 18 bb 9f 36 94 3b 1b 49 95 bb cc d8 9c 3b
       -0.0023225555 0.004523113 -0.004555834 0.0047865864
0000e0 d0 2e 56 3c e9 18 0c bb 56 0c 30 bb af 91 07 bc
       0.013072684 -0.0021377152 -0.0026862822 -0.00827448
0000f0 0f 55 09 bc 52 db 5a 3c 9e 46 c8 3b 7a b2 5d 3c
       -0.008382096 0.013357954 0.006111934 0.013531322
000100 4b d9 18 bb 13 42 60 bc 2b 64 95 3b 8b 20 bb bb
       -0.0023322876 -0.013687628 0.00455906 -0.0057106665
000110 7f 61 29 ba 90 09 c7 ba d3 67 3f bc 8b 84 b1 3b
       -0.00064613664 -0.0015185345 -0.0116824685 0.0054174117
000120 74 78 99 bc 27 bb 84 3a d8 12 be 3b e3 0d 7d bc
       -0.018734194 0.0010126577 0.005800586 -0.015445205
000130 f3 83 37 ba a4 2e c8 bb ef 1a b8 bb 6d 77 c4 3b
       -0.0007000558 -0.0061090756 -0.005618445 0.005995682
000140 c3 6b db 3b 51 c1 2f 3c 00 67 b3 bb 34 55 92 bc
       0.006696196 0.010727243 -0.005474925 -0.017862894
000150 b5 96 2a 3b 33 4a 7f bc 6b d2 49 3b 62 6c b9 3a
       0.002602977 -0.015581655 0.0030795585 0.001414668
000160 75 73 79 3b e7 f2 99 3b 84 8a 04 3a 0c 2c 06 bb
       0.0038063203 0.0046981457 0.0005056041 -0.0020473031
000170 f1 68 32 bc c3 7b 47 3b ef 47 4a 3b 1b e8 b9 3b
       -0.010889278 0.0030438758 0.003086563 0.005673421
000180 70 fc b8 3b d7 b6 ba 3a db 44 02 3c 7d 74 e6 bb
       0.0056453273 0.0014245164 0.007950987 -0.0070329295
000190 10 7d 13 3c c8 26 5a 39 25 33 78 3b e3 8b 13 bc
       0.009001985 0.00020804547 0.0037872281 -0.00900552
0001a0 94 99 04 bb d8 c2 0c 3b b0 c8 c3 bb 13 5d 0f ba
       -0.0020233141 0.002147844 -0.0059748515 -0.0005468886
0001b0 3f fb 80 bb 88 ed f5 3a e1 06 44 bb 4f d3 58 3b
       -0.003936201 0.0018762806 -0.0029911327 0.0033084934
0001c0 53 6a 36 bc f7 2a 2d 3c b9 8b 01 3c cf 50 5f 3c
       -0.011133748 0.010569326 0.007906848 0.013630106
0001d0 c3 90 5e 3b 33 fb 08 bc d9 d9 02 bc b0 29 0c 3c
       0.0033960796 -0.008360672 -0.007986509 0.008554861
0001e0 33 fd 45 bb f3 d4 44 3b 7a 3d f6 3b ff 69 b6 b9
       -0.0030210733 0.0030034154 0.007514653 -0.00034792718
0001f0 21 50 b5 3b dd 8b e1 3a ba 58 19 3c c1 81 14 bb
       0.0055332338 0.001720782 0.009359533 -0.0022660347
000200 f0 21 00 bb d8 d5 7f bb 0a a7 d5 3a e3 7e 0d 3c
       -0.0019551478 -0.0039037373 0.0016300392 0.008636209
000210 1a 83 cd 3b 7f a2 0a 3c bd 08 07 3c 46 59 26 3c
       0.006271732 0.008461594 0.008241829 0.01015312
000220 0b a4 6b 3b 0e 50 2e 3c 63 e0 89 3b f3 65 9f 3c
       0.0035955932 0.010639204 0.004207657 0.019457793
000230 18 ca 95 bb 68 98 80 3b 83 f6 09 3c 84 ff c2 bb
       -0.0045712106 0.0039244182 0.008420589 -0.00595087
000240 9b f3 c8 bb d3 93 f8 3b 19 c8 9c bc 2d 47 e7 ba
       -0.0061325557 0.0075859814 -0.019138383 -0.0017645113
000250 24 21 8c 3b a7 c0 c7 bb 58 97 63 38 c4 76 a6 bb
       0.0042764116 -0.006095964 5.4261967e-05 -0.005080076
000260 83 a1 61 39 b5 c0 83 3b 8a 67 64 bc 2d d7 f8 bb
       0.0002151784 0.004020775 -0.013940701 -0.0075940103
000270 44 c4 ab ba 20 a3 ef bb 75 c7 89 3c 06 7a 1e bc
       -0.0013104756 -0.007313147 0.016818741 -0.009672647
000280 17 03 e2 bb 33 6b 64 bc 23 08 ba 3a 35 ef 94 bc
       -0.006897341 -0.013941574 0.0014193099 -0.018180469
000290 77 14 20 3c 08 74 36 3c 68 c4 5f bc 29 1f 8a 39
       0.009770504 0.011136062 -0.013657667 0.00026344627
0002a0 eb de f5 bb 43 d5 72 3c 87 1f bb ba 8d 11 8b 3b
       -0.0075033805 0.014821353 -0.0014276364 0.0042440356
0002b0 85 12 e4 3b 55 f3 c8 bb 72 fd d8 3b 5e 60 a6 3c
       0.0069602155 -0.006132523 0.00662201 0.020309623
0002c0 72 97 9a ba 00 80 99 ba 03 6b f0 bb af 79 1b bc
       -0.0011794402 -0.0011711121 -0.0073369755 -0.009489461
0002d0 95 d3 5b bb 77 5b 8d 3c 32 7a b4 3c f7 d3 72 3b
       -0.003354286 0.017255528 0.022030924 0.003705261
0002e0 a3 43 9d bb ef 3e 26 3b bd f3 8b bb db 24 c8 3b
       -0.0047993227 0.0025367101 -0.004270999 0.006107909
0002f0 2b 85 86 bb 6b c0 ae bb 19 7b 81 3b b6 52 a5 3a
       -0.0041052303 -0.0053329966 0.003951442 0.0012613151
000300 82 7a 8a 3b dd 48 52 bb d8 ba 61 3c fa c7 45 3b
       0.00422603 -0.0032086887 0.013777457 0.003017901
000310 35 24 56 bb 85 8f 7e 3a 8d ed 70 bb 80 fb 0b 3c
       -0.003267539 0.0009710717 -0.0036762685 0.008543849
000320 6a bc 9c ba 6f c7 d4 3b 23 2b e9 39 0d c4 f9 3b
       -0.0011958007 0.006493501 0.00044473363 0.007622248
000330 d2 c1 f8 bb 9a 99 6f bc 7f b4 3a 3c 20 1e 0b 3a
       -0.0075914646 -0.014624024 0.011395573 0.0005306918
000340 ec 02 00 bc 13 40 c8 3b 87 3a a9 bb d8 b9 c0 3b
       -0.007813197 0.006111154 -0.0051644477 0.0058815293
000350 59 9e 8c bb e2 6e da 3a ef 97 4b ba 74 22 cb 3a
       -0.0042913374 0.0016665126 -0.00077664753 0.0015497939
000360 9f f1 f7 bb 0f b4 6d 3a 57 08 15 ba 18 c3 5f 3c
       -0.0075666453 0.00090676633 -0.00056851417 0.013657354
000370 b5 b9 e3 3c ab ad da 3b 45 e5 c6 ba 7e 59 a9 3b
       0.027798513 0.006673535 -0.0015174529 0.005168139
000380 f0 78 d1 3b 68 47 d0 bb 8b 5c 71 3c 92 52 48 39
       0.0063925907 -0.0063561685 0.014731537 0.00019104246
000390 83 eb 7a ba 98 12 10 3c 15 d2 69 bc cb 68 b0 bb
       -0.0009571837 0.008793496 -0.014271279 -0.005383586
0003a0 93 0b 48 bc 1a 29 14 bc c3 b3 9e bc 69 7a 24 3c
       -0.012209791 -0.0090430025 -0.019372826 0.0100389505
0003b0 15 2f 12 bb 3a ee b9 38 1f 36 a4 3c 92 4b 32 bc
       -0.0022305895 8.8658606e-05 0.020045338 -0.010882275
0003c0 5f ea 5e 3c 57 03 66 3c 41 81 0b bc 77 1d 8a 3a
       0.013605683 0.014038882 -0.008514703 0.0010537346
0003d0 39 7c 2d bb d0 e1 35 3c c8 25 1b bb d2 bc 6e 3b
       -0.0026471748 0.011101201 -0.0023673642 0.0036428464
0003e0 cb 59 01 bc f5 db 13 3c b3 72 2b 3c 77 a3 cb 3b
       -0.0078949435 0.00902461 0.010464358 0.006214555
0003f0 25 95 df bb 14 0b 36 3a 79 e0 25 bc bd 1a ba bc
       -0.0068231993 0.00069444 -0.010124319 -0.022717828

action_model._discrete_distribution.branches.1.bias f4 [3]
000000 00 00 00 00 00 00 00 00 00 00 00 00
       0.0 0.0 0.0

action_model._discrete_distribution.branches.1.weight f4 [3, 128]
000000 73 ce 64 3c c8 79 23 3b c7 be 7e 3a 17 04 20 bb
       0.013965237 0.0024944413 0.0009717759 -0.00244165
000010 05 53 1a bc 75 0a 1b 3c f4 ba 96 3b a1 36 03 3a
       -0.009419207 0.009462942 0.0045999233 0.0005005394
000020 77 36 76 bc 7f f0 f7 ba 10 d0 dc 3a 7a e9 11 b9
       -0.015027634 -0.0018916278 0.0016846675 -0.00013915254
000030 f7 a5 09 bc 3f 5a 10 bc 37 1e d9 bb d0 33 ff ba
       -0.0084013855 -0.008810579 -0.0066259163 -0.0019470397
000040 c1 cc 28 bb 51 5a 2e 3b 1b aa 4c bc 3f 9c d2 bb
       -0.0025756808 0.0026604126 -0.012491728 -0.0064273174
000050 33 14 c2 3b af 0f 49 3b 00 d8 b2 bb e3 a4 95 bc
       0.005922818 0.0030679514 -0.005457878 -0.0182671
000060 7a 94 ed b8 db e7 8c bc f6 94 22 3c a2 53 17 3b
       -0.000113286966 -0.017200401 0.00992321 0.002309062
000070 37 eb a6 ba d0 4a d5 bb c2 22 86 bb 67 c4 ea bb
       -0.0012734894 -0.0065091625 -0.004093499 -0.0071645263
000080 41 e2 23 bb 33 1f 8d bc 0a 02 33 3a 8c 9b 22 3b
       -0.0025006684 -0.017226791 0.0006828612 0.0024811951
000090 2b 5c c6 b7 4b 62 f1 3b 22 91 8c 3a 95 18 34 bc
       -2.3646358e-05 0.0073664538 0.0010724405 -0.010992189
0000a0 79 05 b9 3c 78 9f 25 ba 65 ad 85 bc 2f 1a e7 3b
       0.022585617 -0.0006318013 -0.016318033 0.007052682
0000b0 63 79 9c 3c ff 65 ac bc 67 7d a0 ba 2b 5f 7e bb
       0.01910085 -0.02104473 -0.0012244404 -0.0038814049
0000c0 ff 01 08 3c d5 3d a5 bb 37 de 86 ba d3 20 7f 3a
       0.008301257 -0.0050427713 -0.0010289614 0.0009732369
0000d0 e7 b0 e7 bb 4d bb 0a bc c8 12 cf bb 2f f9 c9 3b
       -0.007070649 -0.008467508 -0.0063193776 0.006163738
0000e0 17 7a 26 bb f8 52 ce ba 76 b1 13 bc b4 76 bc bc
       -0.002540236 -0.0015741279 -0.009014478 -0.02300582
0000f0 f3 23 9a 3b 5a 70 e8 bb 6b 2f 3d bb d7 5f 19 3c
       0.0047039925 -0.0070934715 -0.0028867375 0.009361229
000100 f5 d3 e0 3b 19 f7 96 ba 6b 63 92 bc f5 45 56 3b
       0.0068612047 -0.0011517733 -0.017869672 0.0032695506
000110 a7 f6 3c 3c fb 4e 9c 3b ec 48 81 3b 1a 69 b6 bc
       0.011533416 0.0047701574 0.0039454605 -0.022266913
000120 e7 79 3c 3a 0f f6 e6 3b 54 89 04 bc 7a 41 74 3b
       0.0007189796 0.0070483754 -0.008089382 0.0037270472
000130 97 91 b3 bb c4 07 49 3b 74 fc 10 3c 3d 4c 40 3c
       -0.005480002 0.0030674795 0.008849252 0.011736927
000140 76 f0 41 bc 61 97 29 3c 60 0f 4d bb 4c 0d 0e bc
       -0.0118371155 0.010351033 -0.0031289682 -0.008670162
000150 bd 65 c8 3b 80 4c d1 ba 55 72 d8 bb ff b4 41 3b
       0.006115644 -0.0015968233 -0.0066054263 0.0029557345
000160 24 95 30 bc ac 84 ae 3b 4a 35 0f bb 7b d5 12 3a
       -0.010777745 0.0053258743 -0.002185183 0.0005601269
000170 a9 67 22 bb 60 7e d0 ba 67 55 d7 38 05 8d 90 bb
       -0.0024781025 -0.0015906803 0.00010267906 -0.004411342
000180 dd ab 35 bc 47 7e ac 3b 08 7b e5 3a df c2 5e 3b
       -0.011088339 0.005264077 0.001750798 0.0033990664
000190 a2 d4 c3 bc ce fe c7 3b f5 66 07 3b df 4c 37 bc
       -0.023905102 0.006103373 0.0020660732 -0.011187761
0001a0 5f 17 0d 3b c5 ea 56 bc 6c 7a 29 3c b2 0d 55 3b
       0.0021528823 -0.013117497 0.010344129 0.0032509384
0001b0 97 85 ef bb 87 de 72 3a 57 5c 82 3c 40 ce 87 3b
       -0.0073096263 0.00092647265 0.015913172 0.00414446
0001c0 cb 7c 85 bb 9d 83 ff 3b 35 ed bb 3a 43 18 7d bc
       -0.0040737144 0.007797672 0.0014337661 -0.015447679
0001d0 84 04 9f bb 2f b7 73 bc 37 f6 20 3c 6f db 27 3b
       -0.004852833 -0.014875217 0.009824327 0.002561297
0001e0 9b 2c 18 3b 53 aa 2c 3c 92 44 74 bb 70 7e 52 bb
       0.0023219946 0.010538655 -0.0037272316 -0.003211882
0001f0 9b 00 48 bc 70 25 e0 3b 86 14 2d ba 14 d3 1c bb
       -0.012207176 0.0068404004 -0.00066024845 -0.0023929523
000200 ea 25 c2 39 ce 52 a2 b9 70 13 d7 3b b5 73 60 3c
       0.00037030812 -0.00030960742 0.0065635964 0.013699462
000210 ff f1 57 3b 3d 4e 61 3a 33 90 1a 3c 4b f0 26 ba
       0.0032950637 0.0008594727 0.009433794 -0.0006368204
000220 9f 24 36 bc 9a 3e 30 3b 88 62 75 bc 45 89 21 3c
       -0.01111713 0.0026892782 -0.014977105 0.009859388
000230 19 87 31 bc 30 a8 64 bc 85 9f 84 bc a8 2f b8 bb
       -0.010835432 -0.013956115 -0.016189346 -0.0056209154
000240 7a 99 d4 bb b0 16 78 3c b8 cf 72 b9 2b 4e cf 3b
       -0.0064880224 0.015142128 -0.000231563 0.006326457
000250 17 b6 ee bb 57 e7 27 3b 2b 6c 22 3b b8 89 e0 3b
       -0.0072848904 0.0025620067 0.0024783711 0.006852355
000260 46 34 03 bc 73 e7 0d 3b 90 3e ba 3b 87 20 fb bb
       -0.008008068 0.0021652847 0.0056837276 -0.0076637897
000270 44 20 15 bc 70 4e a2 bb 43 6f 83 3c e3 dd a1 3b
       -0.009101931 -0.004953198 0.016044265 0.004939781
000280 4a 26 09 ba 47 c8 7f 3a 14 a4 31 3a 30 b7 dc bb
       -0.0005231841 0.00097573217 0.00067764637 -0.006735705
000290 f7 3d 2f bc 18 cf 3e bc 22 34 51 bc cf 85 eb bc
       -0.010695926 -0.011646055 -0.012768777 -0.028750328
0002a0 5f 2e 1b bb 7f 17 a7 bc bb 06 d3 3a 47 f4 0f bc
       -0.0023678762 -0.020396946 0.0016100028 -0.008786268
0002b0 8d 86 8d bc 96 3f 3c 3c 79 15 0d ba 53 f6 b4 3b
       -0.017276073 0.011489769 -0.0005381923 0.005522528
0002c0 99 35 0c bc df 77 61 bb 10 76 13 bc 11 7e 36 3a
       -0.008557701 -0.0034403724 -0.009000316 0.00069615344
0002d0 bb 0d 11 bc 08 53 53 3c 74 a1 2d bc b5 4a e1 bb
       -0.008853371 0.012898214 -0.010597575 -0.006875361
0002e0 23 6a 84 3b 0e c2 39 3b 50 2e 44 bc a8 3e a8 bb
       0.004040973 0.0028344425 -0.011973932 -0.0051344223
0002f0 29 89 a8 bb 0d f4 4c bb 29 5f 25 bb 87 17 5b bc
       -0.005143304 -0.0031273395 -0.0025233722 -0.013372309
000300 93 7c 81 bc 4f 5c 57 bc 90 9e 46 3c c3 d2 9b 3c
       -0.015806472 -0.013144567 0.012122765 0.019021397
000310 a8 b6 14 3c c8 6f b2 bb b5 a5 6f bb e4 b8 24 3b
       0.009076752 -0.0054454543 -0.0036567275 0.0025134617
000320 c8 f7 74 39 a8 5c 40 b7 e3 20 1d 3b 03 2d 95 3c
       0.00023361959 -1.1465665e-05 0.00239759 0.01820994
000330 07 00 c2 3b c4 a0 19 bc cf 54 d6 bb a0 3a f1 3a
       0.0059204134 -0.009376708 -0.0065408717 0.0018404312
000340 37 b3 b5 ba 05 84 d0 3c 92 df 0f bc 65 98 07 3c
       -0.0013862614 0.025453577 -0.008781331 0.00827608
000350 77 55 37 ba 1a b0 b6 ba c2 34 8f bb e0 ff 89 bc
       -0.0006993631 -0.001393798 -0.004370303 -0.016845644
000360 11 11 8e bb 17 86 3f bc 90 54 87 ba 57 b4 4e 3c
       -0.0043355306 -0.011689684 -0.0010324884 0.012616239
000370 df e0 b0 3b a0 9f 8b ba 7b 09 1d bc 25 15 df bb
       0.0053979005 -0.001065243 -0.00958478 -0.0068079405
000380 78 c1 dd b9 7e 8a 9b bb a5 f2 94 3b 2e 40 3a ba
       -0.0004229655 -0.004746734 0.004545527 -0.00071049004
000390 1e 3a 23 bc 69 b4 01 3c 5b 94 4a bc 6d 5a 80 3a
       -0.009962587 0.007916548 -0.012364472 0.0009792574
0003a0 88 22 2b bc a2 b1 d4 3b 2b 23 9e bb c5 9d 0a bb
       -0.010445245 0.006490902 -0.0048259697 -0.0021151167
0003b0 b5 a5 87 bb 20 ca 30 bb 79 25 31 bc ab 6e 37 ba
       -0.004139627 -0.0026975945 -0.010812157 -0.0006997387
0003c0 88 16 98 3a bd 39 a1 3b 63 c2 41 bb 39 08 c8 3b
       0.0011603395 0.004920213 -0.0029565326 0.006104496
0003d0 b4 7a 0b bc f6 f4 06 bc fc e6 31 3c 2c 1f 9d ba
       -0.008513141 -0.008237114 0.010858294 -0.0011987439
0003e0 d3 3f dc 3b 93 c5 2c 3c d7 ec 09 3b 57 b6 47 3b
       0.0067214756 0.010545152 0.0021045709 0.0030473673
0003f0 90 49 62 bc 31 78 10 bb 03 1c 88 ba 4b 88 97 3c
       -0.013811484 -0.0022044296 -0.0010384325 0.018497607

discrete_action_output_shape f4 [1, 2]
000000 00 00 40 40 00 00 40 40
       3.0 3.0

network_body._body_endoder.seq_layers.0.bias f4 [128]
000000 00 00 00 00 00 00 00 00 00 00 00 00 00 00 00 00
       0.0 0.0 0.0 0.0
000010 00 00 00 00 00 00 00 00 00 00 00 00 00 00 00 00
       0.0 0.0 0.0 0.0
000020 00 00 00 00 00 00 00 00 00 00 00 00 00 00 00 00
       0.0 0.0 0.0 0.0
000030 00 00 00 00 00 00 00 00 00 00 00 00 00 00 00 00
       0.0 0.0 0.0 0.0
000040 00 00 00 00 00 00 00 00 00 00 00 00 00 00 00 00
       0.0 0.0 0.0 0.0
000050 00 00 00 00 00 00 00 00 00 00 00 00 00 00 00 00
       0.0 0.0 0.0 0.0
000060 00 00 00 00 00 00 00 00 00 00 00 00 00 00 00 00
       0.0 0.0 0.0 0.0
000070 00 00 00 00 00 00 00 00 00 00 00 00 00 00 00 00
       0.0 0.0 0.0 0.0
000080 00 00 00 00 00 00 00 00 00 00 00 00 00 00 00 00
       0.0 0.0 0.0 0.0
000090 00 00 00 00 00 00 00 00 00 00 00 00 00 00 00 00
       0.0 0.0 0.0 0.0
0000a0 00 00 00 00 00 00 00 00 00 00 00 00 00 00 00 00
       0.0 0.0 0.0 0.0
0000b0 00 00 00 00 00 00 00 00 00 00 00 00 00 00 00 00
       0.0 0.0 0.0 0.0
0000c0 00 00 00 00 00 00 00 00 00 00 00 00 00 00 00 00
       0.0 0.0 0.0 0.0
0000d0 00 00 00 00 00 00 00 00 00 00 00 00 00 00 00 00
       0.0 0.0 0.0 0.0
0000e0 00 00 00 00 00 00 00 00 00 00 00 00 00 00 00 00
       0.0 0.0 0.0 0.0
0000f0 00 00 00 00 00 00 00 00 00 00 00 00 00 00 00 00
       0.0 0.0 0.0 0.0
000100 00 00 00 00 00 00 00 00 00 00 00 00 00 00 00 00
       0.0 0.0 0.0 0.0
000110 00 00 00 00 00 00 00 00 00 00 00 00 00 00 00 00
       0.0 0.0 0.0 0.0
000120 00 00 00 00 00 00 00 00 00 00 00 00 00 00 00 00
       0.0 0.0 0.0 0.0
000130 00 00 00 00 00 00 00 00 00 00 00 00 00 00 00 00
       0.0 0.0 0.0 0.0
000140 00 00 00 00 00 00 00 00 00 00 00 00 00 00 00 00
       0.0 0.0 0.0 0.0
000150 00 00 00 00 00 00 00 00 00 00 00 00 00 00 00 00
       0.0 0.0 0.0 0.0
000160 00 00 00 00 00 00 00 00 00 00 00 00 00 00 00 00
       0.0 0.0 0.0 0.0
000170 00 00 00 00 00 00 00 00 00 00 00 00 00 00 00 00
       0.0 0.0 0.0 0.0
000180 00 00 00 00 00 00 00 00 00 00 00 00 00 00 00 00
       0.0 0.0 0.0 0.0
000190 00 00 00 00 00 00 00 00 00 00 00 00 00 00 00 00
       0.0 0.0 0.0 0.0
0001a0 00 00 00 00 00 00 00 00 00 00 00 00 00 00 00 00
       0.0 0.0 0.0 0.0
0001b0 00 00 00 00 00 00 00 00 00 00 00 00 00 00 00 00
       0.0 0.0 0.0 0.0
0001c0 00 00 00 00 00 00 00 00 00 00 00 00 00 00 00 00
       0.0 0.0 0.0 0.0
0001d0 00 00 00 00 00 00 00 00 00 00 00 00 00 00 00 00
       0.0 0.0 0.0 0.0
0001e0 00 00 00 00 00 00 00 00 00 00 00 00 00 00 00 00
       0.0 0.0 0.0 0.0
0001f0 00 00 00 00 00 00 00 00 00 00 00 00 00 00 00 00
       0.0 0.0 0.0 0.0

network_body._body_endoder.seq_layers.0.weight f4 [128, 13]
000000 a8 b5 da 3e 41 72 ad 3d ec 60 c2 3e b7 ae 52 be
       0.42716718 0.08469058 0.3796457 -0.20574461
000010 c9 f8 17 be 96 bb 15 3d 50 2b 86 3e aa 1e 33 3e
       -0.14840998 0.03655585 0.2620492 0.17492166
000020 d6 e8 38 3e e0 68 02 bd 20 fc cb 3e 2e 72 e6 be
       0.1805757 -0.031838298 0.39840794 -0.45008987
000030 8a 11 4b 3e e9 11 73 bd db d9 7c be ed 29 3d 3e
       0.1983091 -0.059343252 -0.2469248 0.18473025
000040 88 b1 a2 be 3e c7 c8 3d 43 79 1f be f8 2c 08 bc
       -0.3177607 0.098036274 -0.15573601 -0.008311503
000050 60 24 88 3d de 82 52 3e 2b 90 40 3e 5b ae 4f 3e
       0.06647563 0.20557734 0.18804996 0.20281355
000060 5a 1c 64 3e 94 2d d6 3d 7f f2 b4 3e be 07 2c bd
       0.2227644 0.10457912 0.3534126 -0.04199957
000070 61 88 5b be 09 57 78 3e 68 44 47 be 4f db 67 bd
       -0.21438743 0.24251951 -0.19459689 -0.056605633
000080 19 0c f2 bd 28 bd 72 bd c6 ca 11 be 17 d0 04 3e
       -0.11818714 -0.059262425 -0.14237508 0.12970005
000090 46 4b 11 bf 3c f9 c4 3e 99 e2 e2 be 5a 96 f5 3e
       -0.56755483 0.384714 -0.44313505 0.47966272
0000a0 ec 28 38 bd 55 4b 5f be 04 75 7c 3e ca e2 08 3e
       -0.0449609 -0.2180608 0.24654013 0.13367763
0000b0 bd c2 a8 be 31 02 3c be 70 23 c3 bb ce 67 c2 3e
       -0.32961074 -0.18360211 -0.005955152 0.37969822
0000c0 82 07 e3 3c 0e 4c b2 3d 2a a3 23 be e6 42 97 be
       0.027713541 0.087059125 -0.15980211 -0.29543227
0000d0 f9 0a 99 3e b6 5f 91 be 74 36 05 bc e1 35 c2 bc
       0.29891184 -0.28393334 -0.008130658 -0.023707332
0000e0 41 4e 78 be 34 f7 2f be 5d 32 a6 bd 6e 2a c6 be
       -0.24248601 -0.17184144 -0.08115075 -0.38704246
0000f0 7f 2c 56 3e 19 4b 2f be 33 5c 8f 3d 9d 80 2c 3e
       0.20915411 -0.17118491 0.070000075 0.16845937
000100 53 46 94 bd 21 ce 19 bf 5a 15 77 be 91 0e 05 be
       -0.07239976 -0.6008015 -0.24129239 -0.12993838
000110 1d 8b 03 be 59 f4 93 3e 7d d0 17 be 90 07 de 3d
       -0.12846036 0.2889736 -0.14825626 0.10841286
000120 b0 00 d4 3d f9 93 40 3e 9a 88 b3 3e ae d2 c8 be
       0.10351694 0.18806447 0.35065156 -0.39223236
000130 b4 24 9d 3c f3 24 48 3e 2a 90 90 3e 1e 38 b3 bd
       0.01918254 0.19545345 0.28234988 -0.08750938
000140 89 d4 b1 3d d7 3a ff 3c 4c e1 7c be 8f 2c 2d be
       0.08683116 0.031155987 -0.24695319 -0.16911529
000150 4e 05 94 3e 64 37 83 be 35 09 bd 3e 1f 66 fa be
       0.28910297 -0.25628197 0.36921087 -0.48906037
000160 6a 31 b1 3d b9 88 24 3f 93 69 e7 be 83 d5 6b 3e
       0.08652003 0.6427112 -0.45197734 0.23030667
000170 31 76 03 bd 95 2d 8b 3d aa 80 1c be 74 74 3c 3e
       -0.032095138 0.067958035 -0.15283456 0.18403798
000180 1e 6e 0e bc 59 3d 0f bf 0e 09 e0 bd 52 6c 39 3e
       -0.008693246 -0.55952984 -0.10939227 0.18107727
000190 c4 1e 2f 3e 84 da 84 be 31 bf bc 3c c9 5e 12 be
       0.1710158 -0.25947964 0.023040386 -0.1429397
0001a0 bc 16 bf be 9c dc af be 0f cb 9f bb 29 7b 07 3d
       -0.37322032 -0.34348 -0.0048765014 0.03307644
0001b0 85 f2 3c bf cb 96 0e 3e c9 1a 09 bf 28 ce b3 3e
       -0.73807555 0.1392471 -0.53556496 0.35118222
0001c0 74 14 05 3f d0 3b 7c be 93 1e 2b 3e 84 f6 c0 be
       0.51984334 -0.24632192 0.16710882 -0.37688076
0001d0 60 7f a0 bd 99 0b 0e be 5c aa 66 3e c5 ed f8 3c
       -0.07836795 -0.13871612 0.22525924 0.030386815
0001e0 e5 84 ed 3c 03 64 05 3f c6 55 cd 3c a9 5d d7 3e
       0.028994033 0.5210573 0.025065314 0.42063645
0001f0 e5 5b 4e 3e 41 6f 6d be 91 d1 c3 bd 39 90 ee 3c
       0.20152242 -0.23186971 -0.09561456 0.029121505
000200 22 f4 c4 be 22 8f a5 3e af 35 f3 3c 8b 25 55 3e
       -0.3846751 0.32335764 0.029688684 0.20815103
000210 42 df b0 3e 12 9a b8 be 9c 02 6f 3e dd 1f bc be
       0.34545332 -0.36055046 0.23340839 -0.3674306
000220 44 82 8c bd 52 3b 4c bd 32 d4 4e be fd 25 97 be
       -0.06860784 -0.04986126 -0.20198134 -0.2952117
000230 f5 7e 7a bd bb a9 c8 3c 67 ad 81 be 96 6d 94 3c
       -0.061156232 0.024494996 -0.25327608 0.01811866
000240 2d ff 32 be 15 25 13 3d bc b8 2b 3e 4a 93 77 bd
       -0.17480154 0.035924036 0.1676969 -0.0604432
000250 b2 2a 86 bd ef 84 bf 3e 95 4c 84 bd 5d 5f d5 bc
       -0.06551112 0.37406108 -0.06459919 -0.02604645
000260 3a eb 53 be c9 59 28 3d 31 f8 a7 3d 6f 5a af be
       -0.206952 0.04110125 0.08201636 -0.34248683
000270 9a 76 a6 3e fb 61 58 3e c7 de c2 be ec a5 1e be
       0.3251236 0.21131127 -0.3806059 -0.15492982
000280 cc 7b 3f 3f 73 6c 93 3e a2 fb e6 bd 09 bc cc bc
       0.74798274 0.28793678 -0.11278464 -0.024992006
000290 01 07 e5 be 29 90 9f 3e 7e 38 87 be 57 c8 e7 3e
       -0.44731906 0.31164673 -0.26410288 0.45270035
0002a0 4d ac cf be cd ed 85 be 2c 12 46 be ac d0 02 be
       -0.40561143 -0.2615799 -0.1934287 -0.12774915
0002b0 26 3c d0 3d 85 67 d9 bc 77 77 db bd b1 f5 bb 3e
       0.101677224 -0.02653862 -0.107161455 0.36710885
0002c0 f4 ba 0c bd f4 ec e5 bd 38 7d 4a 3e 4d d7 78 be
       -0.03435798 -0.11226836 0.1977433 -0.2430088
0002d0 b6 d1 09 3d 53 70 4d 3e 16 23 2a be 6e 1f 12 be
       0.03364726 0.2006238 -0.16614947 -0.14269802
0002e0 50 c9 6e be fb e3 df 3e cb 5e e2 3e 17 c3 69 3e
       -0.23318982 0.43728623 0.44212946 0.22828327
0002f0 bd 22 6a be 86 40 c8 3d 1e 66 19 3f 74 04 c2 3a
       -0.22864814 0.09777932 0.59921443 0.0014802353
000300 04 ef 9b 3e 00 0b 16 3d fe f5 77 3e 3d c6 23 3e
       0.30455792 0.036631584 0.24214932 0.1599359
000310 63 a4 ab bd 9d cf 07 3f 2b d3 09 be cd a3 c2 be
       -0.08380964 0.5305117 -0.1345946 -0.38015595
000320 f4 25 dc 3e ec 2a e7 be 6f ef a8 be 48 76 38 3e
       0.42997706 -0.45149934 -0.32995173 0.1801387
000330 96 8f d6 3e d9 36 5d 3e 09 7a 9c bc 44 3a 3a bd
       0.41906422 0.21602954 -0.01910116 -0.045465723
000340 93 1d e0 3e b3 1f 2f 3e f1 72 78 bd f7 0f 27 3d
       0.43772563 0.17101936 -0.06065649 0.04078671
000350 5e d2 9f 3e b5 78 2e 3f d9 d5 e7 3d 89 3c 60 bd
       0.31215185 0.68152934 0.11320085 -0.05474523
000360 98 47 2b be 61 08 82 3e ef 4a e9 be 27 b1 38 be
       -0.1672653 0.25397018 -0.45564982 -0.18036328
000370 e5 f4 c1 3d 64 e2 9b bd 76 1d 1d 3e 06 5d 00 bd
       0.09470538 -0.0761154 0.1534327 -0.031338714
000380 b7 1b 23 3d da 8b 16 3e 7e 5e 03 be af 01 38 3f
       0.039821353 0.14701787 -0.12829015 0.7187757
000390 98 f3 f3 be 26 ba d3 3e 25 47 35 3f 1a 93 9a be
       -0.47646785 0.41352957 0.7081168 -0.30190355
0003a0 0b 79 af 3e 55 8e 5a be 42 df 8c 3e bd 28 c3 bd
       0.34272036 -0.21343358 0.27514082 -0.095292546
0003b0 32 07 32 be 7c 3a 83 3d 16 f3 88 3e e6 67 a9 bd
       -0.17385557 0.064076394 0.2674796 -0.0827177
0003c0 5c e5 87 be d0 6b 00 be 0b 45 e1 bd b1 e5 aa 3d
       -0.26542175 -0.12541127 -0.10999497 0.083445914
0003d0 ba 4e f3 be 9a d3 0a bf c5 22 df be 64 11 3e be
       -0.47521 -0.5422913 -0.43581215 -0.18561321
0003e0 78 bc f2 3d 25 a0 6d 3e 1a 96 02 3e 36 e8 96 be
       0.11852354 0.23205622 0.12752572 -0.29474038
0003f0 75 f4 cb 3e 53 72 89 be ce 49 8b 3e c8 fb a0 be
       0.39834943 -0.26845035 0.27204746 -0.31442094

network_body._body_endoder.seq_layers.2.bias f4 [128]
000000 00 00 00 00 00 00 00 00 00 00 00 00 00 00 00 00
       0.0 0.0 0.0 0.0
000010 00 00 00 00 00 00 00 00 00 00 00 00 00 00 00 00
       0.0 0.0 0.0 0.0
000020 00 00 00 00 00 00 00 00 00 00 00 00 00 00 00 00
       0.0 0.0 0.0 0.0
000030 00 00 00 00 00 00 00 00 00 00 00 00 00 00 00 00
       0.0 0.0 0.0 0.0
000040 00 00 00 00 00 00 00 00 00 00 00 00 00 00 00 00
       0.0 0.0 0.0 0.0
000050 00 00 00 00 00 00 00 00 00 00 00 00 00 00 00 00
       0.0 0.0 0.0 0.0
000060 00 00 00 00 00 00 00 00 00 00 00 00 00 00 00 00
       0.0 0.0 0.0 0.0
000070 00 00 00 00 00 00 00 00 00 00 00 00 00 00 00 00
       0.0 0.0 0.0 0.0
000080 00 00 00 00 00 00 00 00 00 00 00 00 00 00 00 00
       0.0 0.0 0.0 0.0
000090 00 00 00 00 00 00 00 00 00 00 00 00 00 00 00 00
       0.0 0.0 0.0 0.0
0000a0 00 00 00 00 00 00 00 00 00 00 00 00 00 00 00 00
       0.0 0.0 0.0 0.0
0000b0 00 00 00 00 00 00 00 00 00 00 00 00 00 00 00 00
       0.0 0.0 0.0 0.0
0000c0 00 00 00 00 00 00 00 00 00 00 00 00 00 00 00 00
       0.0 0.0 0.0 0.0
0000d0 00 00 00 00 00 00 00 00 00 00 00 00 00 00 00 00
       0.0 0.0 0.0 0.0
0000e0 00 00 00 00 00 00 00 00 00 00 00 00 00 00 00 00
       0.0 0.0 0.0 0.0
0000f0 00 00 00 00 00 00 00 00 00 00 00 00 00 00 00 00
       0.0 0.0 0.0 0.0
000100 00 00 00 00 00 00 00 00 00 00 00 00 00 00 00 00
       0.0 0.0 0.0 0.0
000110 00 00 00 00 00 00 00 00 00 00 00 00 00 00 00 00
       0.0 0.0 0.0 0.0
000120 00 00 00 00 00 00 00 00 00 00 00 00 00 00 00 00
       0.0 0.0 0.0 0.0
000130 00 00 00 00 00 00 00 00 00 00 00 00 00 00 00 00
       0.0 0.0 0.0 0.0
000140 00 00 00 00 00 00 00 00 00 00 00 00 00 00 00 00
       0.0 0.0 0.0 0.0
000150 00 00 00 00 00 00 00 00 00 00 00 00 00 00 00 00
       0.0 0.0 0.0 0.0
000160 00 00 00 00 00 00 00 00 00 00 00 00 00 00 00 00
       0.0 0.0 0.0 0.0
000170 00 00 00 00 00 00 00 00 00 00 00 00 00 00 00 00
       0.0 0.0 0.0 0.0
000180 00 00 00 00 00 00 00 00 00 00 00 00 00 00 00 00
       0.0 0.0 0.0 0.0
000190 00 00 00 00 00 00 00 00 00 00 00 00 00 00 00 00
       0.0 0.0 0.0 0.0
0001a0 00 00 00 00 00 00 00 00 00 00 00 00 00 00 00 00
       0.0 0.0 0.0 0.0
0001b0 00 00 00 00 00 00 00 00 00 00 00 00 00 00 00 00
       0.0 0.0 0.0 0.0
0001c0 00 00 00 00 00 00 00 00 00 00 00 00 00 00 00 00
       0.0 0.0 0.0 0.0
0001d0 00 00 00 00 00 00 00 00 00 00 00 00 00 00 00 00
       0.0 0.0 0.0 0.0
0001e0 00 00 00 00 00 00 00 00 00 00 00 00 00 00 00 00
       0.0 0.0 0.0 0.0
0001f0 00 00 00 00 00 00 00 00 00 00 00 00 00 00 00 00
       0.0 0.0 0.0 0.0

network_body._body_endoder.seq_layers.2.weight f4 [128, 128]
000000 0a c5 f2 bd 73 ac ac 3d 3e 61 b5 3d d3 98 94 bd
       -0.118539885 0.084313296 0.08856438 -0.072557114
000010 56 31 88 bd 15 82 b0 bd 0f 52 64 bd 47 d2 66 39
       -0.06650035 -0.08618561 -0.05574232 0.00022012844
000020 e0 46 45 3c 08 bb e1 3d e4 88 96 bb 29 95 35 3d
       0.012040824 0.110220015 -0.0045939554 0.044331703
000030 f8 4e 10 bd 0d a7 a1 ba a2 6c 89 bc 84 49 21 3d
       -0.03523156 -0.001233311 -0.016775433 0.03937675
000040 a5 bb c3 bd 6b 3d 93 3d 9c 02 08 3d 00 88 67 be
       -0.09557275 0.07189449 0.033205613 -0.22610474
000050 c0 9d b3 3d 45 80 10 3e 20 74 4e bd 50 9f d7 3d
       0.08770323 0.14111431 -0.050403714 0.10528433
000060 bf 40 6a 3c 4a 91 95 3b 98 cd e3 3d 00 86 ef bc
       0.014297663 0.004564439 0.11123198 -0.0292387
000070 17 43 a8 bd 3f df b5 bd 76 b4 4e bd d6 62 05 bd
       -0.08215921 -0.088804714 -0.05046507 -0.03256496
000080 9a ae aa 3c 95 40 2f bd 7a 7a de bd 69 8f 79 3c
       0.02083521 -0.0427862 -0.10863204 0.015231946
000090 0a d0 8d 3d 3c c0 b1 bd a8 32 17 3b 82 d8 47 3d
       0.06924446 -0.08679244 0.0023070965 0.048790462
0000a0 49 0f ca bd 8f 7f 2a bd f4 ae 6d bd 2c 7e 43 bd
       -0.09866197 -0.041625556 -0.058028176 -0.04772775
0000b0 8d 27 59 3d f3 05 28 39 08 71 f5 3c fe b0 47 3d
       0.053016234 0.00016023945 0.029961124 0.048752777
0000c0 c4 83 3f bd 5c af a7 bd 6a fc 5b 3e ef 34 3a be
       -0.04675652 -0.08187744 0.21483007 -0.18184255
0000d0 a5 00 57 bd 65 ce 15 bd 2c d9 42 be 58 d6 bd 3c
       -0.05249085 -0.036573786 -0.19028157 0.023173496
0000e0 66 a3 b8 bd 9e 70 74 bd c1 31 d9 bc 15 46 f2 bb
       -0.09015541 -0.059677713 -0.026512982 -0.0073936083
0000f0 75 78 c8 3d de 79 0a 3e c8 2b ab 3b 04 d7 0e 3e
       0.097886 0.13523051 0.005223725 0.1394921
000100 c4 7f f0 3d 12 37 6c 3d a2 61 5b 3d f7 46 d0 bd
       0.11743119 0.057669707 0.053559907 -0.101697855
000110 85 4a 30 be fc f8 87 3d 9d d4 df bc 42 8c bc 3c
       -0.17215927 0.06639287 -0.027323062 0.023016099
000120 99 25 71 3b 32 ac 3f 3d 59 89 1d bd 7d bf 1d bd
       0.0036796092 0.046795078 -0.038461063 -0.038512696
000130 61 cd 5a be ae 6d 22 be a7 cb ba 3d 5f 09 ba 3b
       -0.21367408 -0.15862152 0.09120875 0.0056773867
000140 0e fe 23 bd ff 27 72 bd 58 5a d1 3c d0 0a f7 3d
       -0.040037207 -0.059120174 0.025555775 0.12062609
000150 ec 1f 08 3e 0f 39 e0 bc ab e9 eb bc b2 a4 77 3e
       0.13293427 -0.027370958 -0.028797945 0.2418392
000160 85 a6 0a 3e 33 73 d0 3d 12 93 9f 3d 24 7a 00 3e
       0.13540085 0.101782225 0.07791723 0.12546593
000170 96 02 f0 3d 2b 9f c1 3c c3 14 20 3d 6b c5 a7 3d
       0.11719243 0.023635468 0.0390823 0.08191951
000180 51 68 ea bc f1 99 a3 bc e9 1e 88 bd e2 91 01 be
       -0.028614195 -0.019970866 -0.06646521 -0.12653306
000190 d8 2a c1 3d 3e 2b 7e 3d b1 9c ea 3d 4f c1 e7 bd
       0.09432 0.062052958 0.11455668 -0.113161676
0001a0 77 70 77 3c 37 6b 0c bd e6 45 34 3d 96 d9 b9 3d
       0.015102497 -0.034281936 0.044011973 0.09074704
0001b0 97 b4 0b be 2c 65 d2 bd ae 36 48 bd 7b b5 da bd
       -0.13643108 -0.10273203 -0.04888027 -0.10679146
0001c0 44 84 aa bd ba 0f 32 bd ef 1f 79 3d ec ab 39 3d
       -0.08326009 -0.04347203 0.06082147 0.045329973
0001d0 29 15 a7 3d c0 b5 1c be 91 18 e5 bc 3d 37 61 bd
       0.08158333 -0.15303707 -0.027965816 -0.05498432
0001e0 d2 31 e8 bd 44 ac 9c 3d fc 86 b7 bd 93 4d 26 3e
       -0.113376275 0.076500446 -0.08961293 0.1624053
0001f0 9e 57 53 3d 35 1e b6 3d 5a a9 95 3c 3f a9 cb 3d
       0.05159723 0.0889248 0.01826923 0.099443905
000200 67 4b 32 be 18 d8 36 3b 6d 58 8b 3c 69 ce 3a 3d
       -0.17411576 0.0027899798 0.017009938 0.045607004
000210 eb af d3 3d 6c e6 0a bd 57 4b 33 be ae ae 4d bc
       0.10336288 -0.033911154 -0.17509209 -0.012553854
000220 1f e2 3a be b2 18 fe 3d 8a f0 82 3d 55 76 55 3d
       -0.18250321 0.12407054 0.063935354 0.052114803
000230 c6 cb 28 bd 30 62 a8 bd b1 c5 6e bb ae 03 5b bc
       -0.04120996 -0.08221853 -0.0036433751 -0.0133675765
000240 7b 3b 0a bd ac a3 a2 3c 5a b7 0d bc e1 fe c9 3b
       -0.03374813 0.019853435 -0.008649671 0.006164417
000250 da 6d e5 3d 4f 03 3b be 13 ab aa bd 4c 91 40 bc
       0.11202593 -0.18262981 -0.08333411 -0.0117533915
000260 da ca 05 bd a2 f2 8d 3b 9b 14 da 3c 56 8f c2 bd
       -0.032664157 0.0043319026 0.026621154 -0.094999954
000270 aa c1 ba bd 3f c0 56 3b 2d 10 e8 bc 89 a6 0a 3e
       -0.0911897 0.0032768396 -0.028328026 0.1354009
000280 6d 22 41 bd ea 81 3a 3d f0 53 d1 bc 68 ba 62 bd
       -0.04715197 0.045534052 -0.02555272 -0.055353552
000290 1f 0f 40 3c b9 95 a3 3d a1 81 00 3e 81 49 2c bd
       0.011722355 0.07987542 0.1254945 -0.042062286
0002a0 0b 0c 3c bd cb bd 21 3e 83 06 92 3d 88 8e c8 3c
       -0.045909923 0.15795057 0.07130148 0.024482027
0002b0 fd e8 15 3e 43 f6 f9 bd 03 14 b0 3d 08 e4 b7 bd
       0.14639659 -0.12205174 0.08597567 -0.089790404
0002c0 3c c4 2c bc ef ca b5 bc f4 c0 43 3d 99 6b 00 3e
       -0.010544833 -0.022191493 0.047791436 0.12541045
0002d0 50 2c cf 3d 99 1f 04 3e fa 41 9f bd ec 61 0c 3e
       0.10115874 0.12902679 -0.07776256 0.13709229
0002e0 51 e2 89 3d 51 e1 bf bd 2b dc 17 3d 8a ff ee 3c
       0.067326196 -0.093691476 0.037075203 0.029174585
0002f0 0f cc f0 3d a4 ef f2 3c 8b 2a b3 3d 61 27 79 bd
       0.11757671 0.029655285 0.08748349 -0.06082857
000300 cc 04 c1 3d eb b6 17 be da 3e a5 bd 54 a3 0c 3d
       0.09424743 -0.14815871 -0.080686286 0.03433545
000310 66 50 89 3d 7c 78 3d 3d ec 86 8b 3b 86 9a a4 bd
       0.06704788 0.04625748 0.0042580273 -0.080372855
000320 1d 9d a8 bd f3 e2 2f bc a7 de c2 3d 5f f8 03 bd
       -0.08233092 -0.010735261 0.09515124 -0.032219287
000330 3c 1d 87 3d a1 53 44 be f0 6a 1a bd 7a b2 e8 3d
       0.06597373 -0.19172527 -0.03769964 0.11362167
000340 61 d7 7f 3d c6 a7 54 bd ba c1 9b bd 5a 28 d0 3d
       0.06246126 -0.051917814 -0.0760531 0.101639464
000350 58 01 84 3d 96 cc 45 3b 2d 5a 34 be 73 10 11 3e
       0.06445569 0.0030181757 -0.17612524 0.14166431
000360 37 96 9a 3d 49 4f 07 be f2 78 d4 3c 9c 60 66 3d
       0.075481825 -0.13213839 0.025936577 0.056244478
000370 1a be 16 bd d8 70 b8 3d 5e e0 05 be 84 91 cc bd
       -0.03680239 0.09005898 -0.1307387 -0.099886924
000380 e5 80 08 be e1 ba 3f 3d 65 90 ae bd 6f 2d 05 bd
       -0.1333042 0.04680908 -0.08523635 -0.032514032
000390 f4 01 ab bd 76 95 10 be 9d f1 b1 bd 18 a7 01 3e
       -0.08349982 -0.14119515 -0.08688662 0.12661397
0003a0 8d 10 1c 3e 91 e3 70 3d 72 e0 ce bd 48 32 92 bd
       0.15240689 0.058810774 -0.10101403 -0.07138497
0003b0 00 7a 1a 3e e5 9e 0e 3e af e6 8d 3d d1 ee 89 3d
       0.15085602 0.13927801 0.06928765 0.06735004
0003c0 f9 87 c7 3a ed c2 7d 3d 37 a0 01 be ef ae 4e 3d
       0.0015223018 0.061953474 -0.12658773 0.0504598
0003d0 27 43 d6 bd 11 7c 39 3d 6c e6 f1 bc 5c ef 9a 3d
       -0.10462027 0.045284335 -0.029528819 0.075651854
0003e0 f4 49 b6 bd 7d 16 2c ba d6 9b 1f 3c 2c 81 2b 3e
       -0.08900824 -0.00065646303 0.009741744 0.16748494
0003f0 f9 0b d7 bd c5 f2 9e 3c fd 4f 1d be 22 19 1c bd
       -0.105003305 0.01940287 -0.15362544 -0.038109906

network_body.observation_encoder.processors.0.normalizer.running_mean f4 [13]
000000 4c 44 ef 43 4f 50 e1 43 f6 e1 1d 44 bf e3 21 44
       478.53357 450.6274 631.53064 647.55853
000010 00 00 00 00 05 fa 02 45 69 05 53 44 54 14 9a 44
       0.0 2095.6262 844.08453 1232.6353
000020 78 1c 9d 44 60 a1 c5 bd 91 eb 78 40 7c 6b 85 44
       1256.8896 -0.096499205 3.8893778 1067.3589
000030 e9 61 c2 42
       97.19123
