Assets/My Behavior.onnx (onnx, 77740 bytes, 14 tensors)

77 f4 [6]
000000 5a ec 35 43 0e 25 a7 42 70 3b 00 43 55 a3 ff 42
       181.92325 83.57237 128.23218 127.81901
000010 ad e7 76 42 8f c1 77 42
       61.726246 61.939022

action_model._continuous_distribution.log_sigma f4 [1, 2]
000000 06 c4 83 bf 2c dd 15 bf
       -1.0294197 -0.58540606

action_model._continuous_distribution.mu.bias f4 [2]
000000 86 43 85 3e b8 ef c1 3e
       0.2602808 0.37878203

action_model._continuous_distribution.mu.weight f4 [2, 128]
000000 d4 d6 64 3c 57 6a ab bd a9 4c bb 3b 3f 9b 89 be
       0.013967235 -0.08369892 0.0057159257 -0.26876256
000010 6d 16 f6 3b 36 b6 e7 3d d7 ae 48 bd 86 13 00 bc
       0.0075099976 0.11314051 -0.048994865 -0.007817155
000020 05 df 78 bb 60 0a 3d bb dc 5e 5c 3c a0 0b 00 bc
       -0.0037974727 -0.0028845295 0.013450351 -0.007815272
000030 89 2a 0d 3c 6b 0f e5 3d cb 2d 64 3d 34 d7 d2 ba
       0.008616098 0.11184581 0.055707734 -0.0016085864
000040 bc 8b 46 3a 57 af 9f bb 32 c6 c3 bb 6e 92 84 b9
       0.00075739226 -0.004873197 -0.0059745545 -0.000252861
000050 70 41 19 ba 4a 94 d3 ba 37 b2 e6 bd 93 72 44 3b
       -0.0005846238 -0.0016142216 -0.112644605 0.0029975518
000060 bc 59 0e 3c 84 fd 98 3b 93 21 0a 3c ba 44 44 3c
       0.0086883865 0.0046688933 0.008430856 0.011979276
000070 e6 c7 9c bc 04 79 20 3b a2 fc e4 3a dd a5 62 3e
       -0.019138288 0.0024486193 0.001747031 0.22133584
000080 85 37 a1 3b d2 7e 01 3b 06 55 60 b9 0c 08 ee bb
       0.0049199485 0.0019759429 -0.00021393978 -0.007264143
000090 a1 db 43 ba 03 04 4b ba a6 23 d6 bb b8 91 a3 3a
       -0.0007471387 -0.0007744433 -0.0065350113 0.0012479341
0000a0 06 4e ca bb 9b 1c 6a bd 68 91 1e 3c 97 3f 1f 3c
       -0.006173852 -0.057156187 0.009678222 0.009719751
0000b0 d2 df 37 3d 30 d3 10 3b 00 43 27 3c 2b dd 86 3b
       0.044891186 0.0022098534 0.010208845 0.0041157207
0000c0 10 da ed 3b 4f a1 85 3a 5b 6f 1b 3a 4b 43 8a bd
       0.007258661 0.0010195168 0.0005929374 -0.06751116
0000d0 26 77 4c 3c c7 49 9e bb 01 1a c8 3a 27 d1 eb 3b
       0.012479579 -0.0048305723 0.0015266539 0.0071965638
0000e0 55 b1 da bb d8 d0 f0 3b 8b da 07 bd c5 ad 62 3d
       -0.0066739717 0.007349115 -0.033167403 0.0553415
0000f0 54 12 2b 3c a7 dc 6c 3b 2e 30 d1 bc 31 69 9e ba
       0.0104413815 0.0036142261 -0.02553567 -0.0012085793
000100 89 ed f0 bd d9 d3 f1 ba a9 8a 07 3c 5a 84 aa be
       -0.11764056 -0.0018449976 0.008272805 -0.333041
000110 ed b8 2c be 71 eb 1b 3d 06 51 bd 3b 8e 10 bd bd
       -0.16867419 0.03806633 0.005777481 -0.09231673
000120 92 b2 b5 ba 9b c5 f5 bc af d9 26 3b bb ab ef 3c
       -0.0013862422 -0.030001452 0.002545934 0.029256692
000130 70 1e 22 3b 3b da 5d 3b 57 93 03 bb 80 4d 73 3d
       0.002473738 0.0033852 -0.0020076835 0.05940008
000140 e7 89 0e 3c 56 75 7f bd 53 94 bc bd 74 f5 83 3d
       0.008699871 -0.06236776 -0.09207978 0.06443301
000150 68 32 84 bc f0 22 eb bb 97 3b e4 ba e3 fa af 3c
       -0.016137317 -0.0071757957 -0.0017412779 0.021481937
000160 35 d7 3f 3a 6f 2d c4 ba b4 17 aa 3d e6 fd 5a 3d
       0.000731814 -0.0014967154 0.08305302 0.053464793
000170 a6 71 16 bb 47 88 cc 3a 05 2a 52 bc 95 02 07 3d
       -0.0022955923 0.0015604579 -0.012827401 0.032961447
000180 cf 79 0c 3e b8 43 26 bc 8c 4c cd 3b 66 e1 f8 3a
       0.13718341 -0.010147981 0.0062652286 0.0018988072
000190 05 28 5b 3b 2c 44 f2 bd ec 80 f7 3b 08 7e 37 bd
       0.0033440602 -0.11829409 0.0075532105 -0.044797927
0001a0 af 9f 37 bb 81 1a 5d 3c 2b a8 29 3d a3 71 63 3b
       -0.0028018763 0.013495089 0.041420143 0.0034705184
0001b0 2d fe fd 3b f4 5e c4 3b 33 ee 9b bc f6 fc 6f bb
       0.0077512474 0.0059927646 -0.01903448 -0.0036619282
0001c0 72 a8 b0 3a 93 41 af bb 29 31 07 3d 7f e0 04 3c
       0.0013477935 -0.005348393 0.033005867 0.008110165
0001d0 c2 fc a1 b8 91 d0 d1 ba 61 1b a0 3b dc c6 51 bb
       -7.724158e-05 -0.0016007592 0.0048860763 -0.0032009399
0001e0 4d 15 03 3c c0 64 4c bc 57 f3 07 bc 38 a8 4e 3d
       0.008000684 -0.012475193 -0.008297763 0.050453395
0001f0 11 91 f1 ba 5c 53 46 bb 60 69 0e 3d 92 c5 bf bb
       -0.0018430074 -0.0030262088 0.034768462 -0.0058524096
000200 33 51 f2 bb b7 f6 96 bd 2b 76 58 bc 5d e3 4a bd
       -0.0073949336 -0.07371276 -0.013211767 -0.049533237
000210 78 92 3c bc e0 d5 2a 3c 07 ba dd bc 2c eb 85 3b
       -0.01150953 0.010426968 -0.027066244 0.0040868726
000220 7c d4 0d bd 80 26 45 bc 63 01 ce bb 65 b1 3a bc
       -0.03462647 -0.012033105 -0.0062867864 -0.011394833
000230 64 da fc bb e5 a7 f3 bd f3 18 fb 3c 05 bb 52 3c
       -0.007716464 -0.11897258 0.030651545 0.012861972
000240 f8 a4 fb bb e2 93 54 bc da 9a 00 bc 5a 02 d1 bd
       -0.007679578 -0.012974711 -0.0078494195 -0.10205527
000250 c7 ac 23 bc d3 8f c2 3b e6 1c 6a bd 48 b1 b2 ba
       -0.009989924 0.0059375553 -0.057156466 -0.0013633156
000260 a8 2e 12 bc 41 dc 8c bb 7c ac 86 3b d9 53 b9 bb
       -0.0089222565 -0.0042987172 0.004109917 -0.0056557474
000270 04 02 13 bd b6 3e 1d bc 94 14 b2 3b f8 e5 20 bd
       -0.035890594 -0.009597471 0.005434582 -0.039281815
000280 b1 32 cf 3a 55 e9 80 3c 9a e7 7e bc 33 6d bf 3a
       0.0015807954 0.015736261 -0.015558148 0.0014604687
000290 84 22 da ba 06 a1 87 bb 52 33 b9 3b 0e 84 c2 bb
       -0.0016642367 -0.0041390685 0.00565187 -0.0059361523
0002a0 d8 17 6c 3c 33 8e 04 3d f2 1d 82 ba 3a eb cd ba
       0.014409982 0.032362174 -0.0009927137 -0.0015710362
0002b0 bd ed 36 bc d3 e6 12 3c 57 94 7b 3c 8d bb 57 bd
       -0.01116508 0.008966166 0.015355191 -0.052669097
0002c0 b2 d2 36 bc 21 08 90 3b 09 d0 88 3c 1b f2 76 3d
       -0.011158632 0.0043955003 0.016700761 0.060289484
0002d0 a7 b4 5f bc 2a 0c 95 3c 74 a9 88 3c ac d4 9e bb
       -0.013653911 0.018194277 0.016682364 -0.00484713
0002e0 db 6f c5 bb af 22 15 3c 10 6a 3c 3d da 7e 6c bd
       -0.006025297 0.0091025075 0.045999587 -0.057738163
0002f0 63 7a c5 3b 71 7c 96 3b e8 58 06 bd af 5a a0 3b
       0.0060265525 0.0045924713 -0.03279963 0.004893623
000300 9e 36 18 3e ed 50 19 bb a9 86 e2 3b 52 92 5f bd
       0.14864585 -0.0023394183 0.0069130254 -0.0545829
000310 f3 c0 29 bd 9a 96 85 bd b7 0c d4 ba 74 55 90 3d
       -0.041443776 -0.065228656 -0.0016178106 0.07047549
000320 b7 95 b0 bb 85 03 1c 3d 52 ac f8 3b 7f dd 93 bd
       -0.005388941 0.038089294 0.0075889016 -0.072199814
000330 4b 12 cc bb d2 13 12 3c 9c 1a fa bb 05 25 c5 bd
       -0.0062277666 0.008915858 -0.0076325666 -0.096262015
000340 56 90 4a bc dd 56 57 bc 0b 8a 01 3d bb b2 9c 3b
       -0.012363514 -0.013143268 0.03162579 0.0047820485
000350 19 84 80 3e 12 9a bd 3c 34 b2 7a b9 6d 80 15 3e
       0.25100783 0.023144756 -0.00023908244 0.14599772
000360 6f 9a f7 3b 7b 8c 6c 3c 71 00 bf bc f2 7f 19 3b
       0.0075562517 0.01443779 -0.02331564 0.0023422209
000370 20 93 68 3b 02 89 06 bc b8 8f 62 bb d0 a2 8c be
       0.0035488084 -0.008211376 -0.0034570526 -0.27467966
000380 ce 9a 14 3e 39 3e ae bb d7 3c 84 bb c5 c4 d4 bb
       0.14512178 -0.005317476 -0.004035573 -0.0064931833
000390 43 60 b5 bb cc 34 7c 3c 48 0b 75 bb e9 28 89 bd
       -0.005535157 0.015393447 -0.0037390757 -0.06697256
0003a0 ac 59 e8 3a c9 5c 51 bb 83 40 60 be 66 93 e8 bb
       0.001772692 -0.0031946173 -0.2189961 -0.0070976494
0003b0 fc 5e 7e bc f3 1f 28 3c f5 99 38 3e 2b c9 71 bc
       -0.015525576 0.010261524 0.1802748 -0.014757435
0003c0 57 9f 4f 3b 39 4f ac bb 07 e2 ca 3b 4b 99 0f bc
       0.0031680667 -0.0052584675 0.0061914953 -0.008764575
0003d0 38 43 8c 3a e5 53 a9 3c 83 c2 21 3a 3c 11 a8 bb
       0.0010701185 0.020669887 0.0006170647 -0.0051290076
0003e0 54 c6 eb bb 99 d6 c8 3d 76 00 b6 3b 8e 5d 93 bd
       -0.0071952734 0.09806556 0.005554254 -0.071955785
0003f0 4e cc 07 bc 70 2f 8f bc 05 0f 7d 3d b0 f6 13 bc
       -0.008288456 -0.017478675 0.061781902 -0.009030983

action_model._discrete_distribution.branches.0.bias f4 [3]
000000 a5 b5 f6 3d 9c 62 1d be ea 14 9c 3d
       0.12046365 -0.15369648 0.076211765

action_model._discrete_distribution.branches.0.weight f4 [3, 128]
000000 73 1f aa bc df e2 ea 3f 2a 44 26 3c 2f e6 10 bf
       -0.02076695 1.8350486 0.0101480875 -0.5660123
000010 df d9 83 bc 35 88 1f 3c 4a 07 88 3f ba 22 4c 3b
       -0.0160951 0.009737064 1.0627224 0.0031148628
000020 37 eb 26 3d 3d 37 08 3c 0d d0 2a bc 70 78 88 3c
       0.040751662 0.008313951 -0.01042558 0.016658992
000030 61 2d 20 3b ab a4 42 3f 0f db 44 bd 18 4b 7f 39
       0.002444111 0.76032513 -0.048060473 0.0002434667
000040 0d e8 f4 3b c0 89 38 3c 39 3e 6c 3c d0 a1 b8 bd
       0.0074739517 0.011263311 0.014419132 -0.09015238
000050 59 4e 38 3c 20 30 b7 ba 9f 5b c6 be 6a 78 7d 3b
       0.011249148 -0.0013976134 -0.38741776 0.0038676509
000060 2c 97 e9 3b 59 fe c7 3c b0 fa 01 bb 65 1b 43 bc
       0.007128617 0.024413275 -0.001983326 -0.011908387
000070 35 ee 5e be cf 2f 85 3b e3 50 b5 3c 70 f3 2b bf
       -0.21770556 0.004064537 0.022133296 -0.6716833
000080 7a 82 61 3c 24 65 a5 bc 4d 05 82 bc 02 e7 82 bb
       0.013764018 -0.02018983 -0.015871668 -0.0039948234
000090 51 49 cd 3c 35 0d b7 bb ee 30 13 bc 00 4a b6 3c
       0.025059374 -0.005586291 -0.008983834 0.022252083
0000a0 cb db 31 3c 1a ca dd be 47 74 a4 3b c2 57 f2 3a
       0.010855625 -0.43318254 0.005018744 0.0018489289
0000b0 6c 35 9e 3c e4 3d a5 3c 0f 65 be 3b 65 d9 29 bc
       0.019312583 0.020171113 0.005810387 -0.010366772
0000c0 83 22 74 bc 0f 0d 14 bc 10 58 29 bc 62 96 12 be
       -0.014900806 -0.009036317 -0.010335937 -0.14315179
0000d0 71 ae fb bb 26 64 4e bc ce 34 5f 3c b2 a6 e1 3b
       -0.007680707 -0.012597119 0.013623429 0.0068863267
0000e0 94 97 03 3c 4b 75 ac 3b 84 e3 6c be 74 5e 32 3f
       0.0080317445 0.005263006 -0.23133665 0.69675374
0000f0 1d e9 6f ba 4c 69 49 bc cd 73 34 3e eb b4 9c 3c
       -0.0009151863 -0.012293171 0.176223 0.019129237
000100 bb e1 b2 bf fe 8f a9 3c 56 23 60 3b ef 12 ce 3d
       -1.3975137 0.020698544 0.003420075 0.10062205
000110 6d f7 8e bf 9a 9d 9b 3e cb e2 34 3c 1e 62 8e 3d
       -1.1169258 0.30393678 0.0110404 0.06952308
000120 8a 71 c9 3c 90 42 93 bf df ef c7 ba 91 8e 24 bd
       0.024590272 -1.1504688 -0.0015253982 -0.040175024
000130 8f dc 3d 3c 53 db 4a 3b e7 ac 16 bc b2 be b3 bf
       0.01158823 0.0030953481 -0.009196497 -1.404257
000140 7c 8c 7f 3c b2 23 29 3e d2 fb 77 be 48 a6 12 be
       0.015597459 0.16517523 -0.24217156 -0.14321244
000150 40 f1 ba bd 91 ff 5f bc 44 f3 8e bb ab 34 79 bf
       -0.09128046 -0.013671772 -0.0043624956 -0.9734599
000160 ca 2f 22 3c 40 6e f3 bc 0b 41 88 bf 3c 4e 52 bf
       0.009899089 -0.029715657 -1.064485 -0.82150626
000170 5d 78 8f 3c dc 21 2f bb 2b 92 50 3c 0c b2 9b 3e
       0.017513448 -0.0026723063 0.012730162 0.30409276
000180 88 62 90 bd f9 7a c6 3c 50 57 0a bc 21 af 5c bc
       -0.07050043 0.02422856 -0.0084436685 -0.013469488
000190 77 f8 64 3b 1a c2 9d be f2 08 f8 3b cf f3 4b be
       0.0034938136 -0.3081215 0.0075694257 -0.19917224
0001a0 95 e8 ba 39 eb 28 6e bc 1e 82 a2 bf 17 39 37 3c
       0.00035649972 -0.014536123 -1.2695959 0.011183045
0001b0 c4 1b b5 3b a1 ec 33 3c 87 5d 11 3f ce 1e 0e 3d
       0.0055269916 0.01098171 0.56783336 0.034697346
0001c0 d4 77 23 3c c6 db 07 3c ad 15 7d bf 9a 44 21 3c
       0.0099773 0.008292144 -0.988612 0.009843016
0001d0 d4 fc a2 3c 02 b2 80 3c 64 48 22 bb e5 39 98 3c
       0.019895948 0.01570988 -0.0024762386 0.018582294
0001e0 93 a9 73 3c a8 ba ff be 5b 3f 05 bc ae a6 c2 3e
       0.014871973 -0.49947095 -0.008132781 0.38017792
0001f0 f9 0c 04 3d 31 ac a0 3c 7d ef 50 3e 08 ac 12 3c
       0.032238934 0.019613357 0.20403858 0.008952148
000200 ff 07 bf bc 54 a0 19 c0 ee 11 a1 bc ea 6a 80 3e
       -0.023319243 -2.4004107 -0.01966187 0.2508157
000210 f7 4c 0a 3d f4 2a a7 3e eb a2 5f bf 24 54 0e bd
       0.033764806 0.32649958 -0.8735797 -0.03474821
000220 45 37 3c bc 4e 12 a7 3c 8a f5 98 3c 56 e4 fe bc
       -0.011487787 0.02039447 0.01867177 -0.031114738
000230 2b 1a bc 3b 11 88 60 be ef 75 f9 bd b6 0e ac bc
       0.005740424 -0.21926905 -0.12180697 -0.021003108
000240 fa e0 31 bc 83 f6 ad 3c 2b 6a 99 bc 00 a0 88 3d
       -0.010856861 0.02123571 -0.018727383 0.066711426
000250 2e 1f 2e bc 04 81 06 bd 0b e5 cc 3d fd eb 31 3b
       -0.010627551 -0.032837883 0.10004624 0.0027148717
000260 99 30 bb 3c ca 89 ce bc e8 d0 ee bc 10 f1 69 3c
       0.022850322 -0.025212187 -0.029152349 0.014278665
000270 84 e5 98 3d c8 0a 3c bc 41 32 75 bc 8e b3 24 3e
       0.07465652 -0.01147718 -0.014965595 0.1608412
000280 88 e5 f6 bb 8b 95 fa bb aa 75 05 3d a0 a5 00 bd
       -0.0075346865 -0.0076472214 0.032582916 -0.031407952
000290 8b 13 d5 bc a0 f0 c3 3c 4f b7 1a 3d 90 4e 5b bc
       -0.026010295 0.02391845 0.037772473 -0.01338543
0002a0 30 5d f4 bc 0a ff 28 3e f9 f6 8c bc 69 c1 af bb
       -0.029829592 0.1650354 -0.01720761 -0.0053636325
0002b0 61 a7 48 be ed fb b4 bc 43 21 dd 3d 6f bc a0 bd
       -0.195951 -0.022092784 0.1079736 -0.07848441
0002c0 05 2b 39 3d 04 b7 8c bc dd e0 07 3c aa e2 4c bc
       0.045207042 -0.017177112 0.008293358 -0.012505213
0002d0 57 8b 19 3d 9e e6 0e 3c 93 10 0e bd 9d e5 d7 bc
       0.0374864 0.008721976 -0.034683775 -0.026354605
0002e0 27 11 ca bc 4b eb 81 3c ea 08 0b 3f 25 93 f5 bd
       -0.024666382 0.015859267 0.54310477 -0.11990956
0002f0 68 ae 9a 3c a2 56 7d 3c 26 2e b7 3d 45 7e 96 bc
       0.018881992 0.015462549 0.08944349 -0.018370757
000300 c9 3c 09 bf c4 5d 0c bc c0 d3 e9 3c 3a 0a 2a 3e
       -0.53608376 -0.008567277 0.028543353 0.16605464
000310 5d ad 92 bc ae f3 c5 3e ba 6d cb 3c 77 ee a7 be
       -0.017904932 0.38662475 0.024832595 -0.32799122
000320 9d 3d fc bb 6d 82 11 3f 9c fa c5 3a ad c1 ec be
       -0.0076977746 0.5683964 0.0015104595 -0.46241513
000330 38 dd ad bb 62 47 3f bd a7 fc 7b 3c 4f b4 db be
       -0.0053059123 -0.046698935 0.015380061 -0.42911002
000340 9f a6 e5 3b 33 7b ee 3e b5 e5 0e 3f 6b 1d 3b be
       0.007008388 0.4657837 0.55819255 -0.18272941
000350 9d 1e ab 3d 36 51 ab bc 3a 51 1a 3c 27 64 c5 be
       0.083554484 -0.020912748 0.00941878 -0.38552973
000360 dd d5 d6 bc 30 10 e6 3c 7e 5d ad be 47 99 36 3f
       -0.026225025 0.02808389 -0.3386039 0.7132763
000370 ff c1 3a bc 74 7c f2 bc 97 fb 96 bc e3 ab 39 3e
       -0.011398791 -0.02960036 -0.018430514 0.18131976
000380 69 f4 a2 3e 4a 83 4e bc 12 78 29 3c ac 6c 0f bd
       0.31827095 -0.012604544 0.010343568 -0.035015747
000390 45 bc a7 bc 1f 76 c2 3e f7 44 89 bb 61 38 f8 3d
       -0.020475516 0.37980744 -0.0041891295 0.121201284
0003a0 c3 67 0f bd 15 a8 0a 3d 83 df 6c be 9e 6b db bb
       -0.035011064 0.0338517 -0.23132138 -0.0066961786
0003b0 7f 90 7d bb 8e 52 b1 3c 2e 12 3b bf e3 e3 d1 ba
       -0.0038690863 0.02164581 -0.73074615 -0.001601335
0003c0 d4 ff 2f bd 72 73 a4 bb 0b 93 0e 3f 40 2d 31 3d
       -0.042968586 -0.005018645 0.5569312 0.043256044
0003d0 1e 56 7d bc 30 b5 b8 bc 36 bc 3b bc f5 13 ca 3a
       -0.0154624265 -0.022547334 -0.011458447 0.0015417325
0003e0 e0 71 80 bc 47 23 87 3e bf 96 cd 3b 50 d1 12 3e
       -0.0156793 0.26394102 0.006274074 0.14337659
0003f0 2c ca c5 bb 9c 93 22 bd 03 f2 65 be 89 93 48 3d
       -0.0060360637 -0.039691553 -0.22455601 0.048968825

action_model._discrete_distribution.branches.1.bias f4 [3]
000000 78 e5 25 3e 54 04 65 be c4 2a c8 3d
       0.16200817 -0.22364932 0.09773782

action_model._discrete_distribution.branches.1.weight f4 [3, 128]
000000 2e cf de bb 2a b0 8a bf 55 5b 96 bb e4 0a 6e 3e
       -0.0067996 -1.0835011 -0.0045885243 0.23246342
000010 77 64 14 3c bc 92 03 3f 42 4a 93 bf 27 41 60 3c
       0.009057156 0.51395774 -1.1507037 0.0136874085
000020 52 bc 4b be 07 71 9d 3b ab d1 43 bd 28 31 45 3d
       -0.19896057 0.0048047337 -0.047807377 0.048142582
000030 13 ae 07 bd 7d 68 16 bf 32 85 18 bf ec 9f dd 3b
       -0.033124994 -0.58753186 -0.5957824 0.006763449
000040 38 3a c8 3c b3 cd e5 3a e5 80 30 3d 47 87 73 bd
       0.024441823 0.0017532617 0.043091673 -0.059455182
000050 5c 80 0e 3d 6e ed e4 3a c0 8c 2e bf e3 34 04 bd
       0.03479038 0.0017465779 -0.6818352 -0.032277
000060 47 05 e7 bc 26 5a 1f 3d dd 1d cf bb 07 a2 ca bc
       -0.028200759 0.03890433 -0.0063206987 -0.024735464
000070 19 0d 10 bc 2e ea 20 3c 1f 4e b4 3c 84 73 13 bf
       -0.008792185 0.009821458 0.022009907 -0.5759814
000080 cf 60 4d bc c1 97 81 bd 07 24 bc 3a 1c d0 16 3d
       -0.012535288 -0.06327773 0.0014353999 0.036819562
000090 24 c5 5c 3d 5a 9c 1a bc 95 bf 51 bd 6e e7 02 bc
       0.053898945 -0.009436691 -0.051208097 -0.007989747
0000a0 f9 fd ac 3b 2c 52 46 3b 15 f1 02 3d 12 43 8f bc
       0.0052792993 0.003026138 0.031968195 -0.017488036
0000b0 a1 f8 76 be 39 cc 78 bc 60 04 cb 3d 86 01 e3 bd
       -0.24118282 -0.015185409 0.09912944 -0.11084275
0000c0 20 b9 52 3b 03 c7 26 bd f2 14 1b bc 01 8d e3 3d
       0.00321538 -0.040717136 -0.009465443 0.11110879
0000d0 94 0a 3f bc a2 29 3d bc e0 cb a2 bc e1 68 1b bc
       -0.011660237 -0.011545571 -0.019872606 -0.009485454
0000e0 38 9a 36 3d 2f 26 1a bd 53 6d b1 bc 57 da aa 3d
       0.04458067 -0.03763407 -0.021658575 0.08342426
0000f0 cd ba 15 bd bb 52 53 3c dc cc 78 3f 66 ce a9 b9
       -0.0365551 0.012898142 0.9718759 -0.0003238797
000100 44 7e 8d bf 5f 6b 12 3d 7a 84 6a bd 88 87 77 be
       -1.1054158 0.03574693 -0.057255246 -0.24172795
000110 b3 29 89 3e 46 74 30 3d 06 81 c6 bc 32 35 52 bf
       0.26789626 0.043079637 -0.024231445 -0.8211242
000120 46 93 4d 3d ce 2c 44 3f 83 59 25 bd d8 3c 0d bf
       0.05018928 0.76630867 -0.04036857 -0.55170965
000130 99 f4 82 ba f3 90 fd 3a 85 81 b6 3c ec f3 21 be
       -0.0009991109 0.0019345566 0.022278557 -0.15815705
000140 e0 29 be bc 5b 69 b7 3d 18 9b 82 3e d3 67 05 c0
       -0.023213327 0.08955642 0.25508952 -2.084462
000150 c7 1e 36 be 62 b5 94 3b 66 70 56 bc 75 96 c3 3e
       -0.17785178 0.004538224 -0.013088321 0.38200727
000160 0d f6 5c 3c 70 4d 10 bd 54 d5 86 bf d4 07 77 3f
       0.013486397 -0.0352301 -1.0533853 0.9649632
000170 1e 2f fb 3c c9 c9 e6 3c 3b 07 3c 3d b2 a3 11 3f
       0.030662116 0.02817239 0.045905333 0.56890404
000180 87 4c 14 bf 54 41 23 3d 7d 79 e3 bc c0 f7 ac bc
       -0.5792927 0.039857224 -0.027767891 -0.02111423
000190 87 be 5c 3c 88 21 cb 3e 19 b4 94 3d 8a 6f 00 3d
       0.01347316 0.3967402 0.072609134 0.031356372
0001a0 91 23 21 3d 03 4b 01 bd 79 81 54 3e c7 91 e8 3a
       0.03934056 -0.031565677 0.20752515 0.001774364
0001b0 98 0d d6 bc b6 be db bc d2 14 d5 be a0 a2 3e 3c
       -0.026129529 -0.026824336 -0.41617447 0.0116354525
0001c0 91 7a 8f bc 77 22 6c 3c e7 bc e3 be 22 9d 7d bc
       -0.017514499 0.014412514 -0.4448006 -0.015479358
0001d0 dd 7f b9 3c 8c 2a ae bc 8d 11 bc bc ee 17 91 3c
       0.022643978 -0.021260522 -0.022957588 0.017711606
0001e0 50 e3 f7 3c 7b a7 3f 3f 6d b4 9e bd 3b 32 b6 be
       0.030259758 0.7486493 -0.07749257 -0.35585198
0001f0 e0 36 1f 3d ea 0a 4f 3d ed c0 41 bf af 6d da 3c
       0.038870692 0.050547518 -0.75685006 0.02666363
000200 96 7c 1b bd d8 c8 6e 3f da ce 0f bd b6 69 9e be
       -0.03796061 0.93275213 -0.03510938 -0.30940026
000210 83 22 4e bc b4 6d 68 be 2a 55 e4 3e 02 dd bd bc
       -0.01258147 -0.22698098 0.44596225 -0.023176674
000220 0c 2c 39 3e b2 b5 90 3b 20 b0 20 bc 13 47 78 3b
       0.18083209 0.004416191 -0.0098076165 0.003788416
000230 70 64 0a bd 0c 6e 0a 3f 5f d0 86 bf 62 07 55 bc
       -0.03378719 0.5407417 -1.053234 -0.0130022485
000240 5b 54 07 bd 2d 4b 49 3c 16 a3 40 bc f5 c3 62 3d
       -0.033039432 0.01228599 -0.011757633 0.05536266
000250 e5 ca 8e bc 25 01 f4 bc 1b 45 cc 3e a0 11 b8 3c
       -0.017430732 -0.029785702 0.39896473 0.022469342
000260 58 47 4c bc 21 88 36 bd 85 b9 00 bd 09 e2 7d 3b
       -0.012468182 -0.044563416 -0.031426925 0.0038739464
000270 46 7d 2e bc 85 fd a0 bc e7 6b ee bb b6 9b de 3e
       -0.010649985 -0.019652138 -0.0072760466 0.43478173
000280 f3 b4 fc bc 7d 86 5a bd 9f 87 4c 3c 43 09 cf bb
       -0.030848002 -0.053350914 0.012483506 -0.0063182428
000290 d4 5b 53 bd 1c 95 68 3c 29 63 07 3d 87 01 8d bc
       -0.051601246 0.014195707 0.03305355 -0.017212642
0002a0 c9 b2 3a bc dc eb 41 3e fd 99 cc bc 94 1e de bc
       -0.011395165 0.1893763 -0.024975771 -0.02711419
0002b0 7c d0 7f 3e 93 20 99 3c ae e4 10 3e ea c9 2f 3e
       0.24981874 0.01869229 0.14149734 0.17166868
0002c0 13 7e 30 bb 27 d8 78 3c b2 f0 9b 3c ce 67 eb 3d
       -0.0026930615 0.0151882535 0.01903567 0.114944085
0002d0 2e ed 97 bb 6b 48 19 3d 20 ef c0 bc d7 b2 3a bd
       -0.0046364283 0.03742258 -0.023551524 -0.04558071
0002e0 e1 16 c0 bc 16 8b d7 3c 23 1d bc bd fc b1 4d 3e
       -0.02344841 0.026311439 -0.09185245 0.20087427
0002f0 cf bc e4 3c d7 60 fc 3a c4 0b dc 3d a4 82 9c bb
       0.027922062 0.0019254935 0.107444316 -0.0047763158
000300 a2 5c 15 3f 03 7c d6 bb 13 b3 f8 3c 9f 2f 15 3e
       0.5834447 -0.006545545 0.030358827 0.14568947
000310 83 4a 37 3e 33 96 8b bf ea e6 aa 3c 86 d7 aa be
       0.17899518 -1.0905212 0.020862062 -0.33367556
000320 61 05 e0 bc 42 ce e9 be ab c1 21 3c 1e 8f 4e 3f
       -0.027346315 -0.45665175 0.009872834 0.8068713
000330 64 b1 d5 bc cd e1 e9 3c f2 67 11 3d 96 d0 13 3f
       -0.026085563 0.028550053 0.03549952 0.5774015
000340 14 8a 40 bd 72 d9 95 bf ce 1e a7 be 19 65 9d 3e
       -0.04700668 -1.1706984 -0.3264069 0.30741194
000350 63 c4 d3 3c 01 36 a9 3b 09 b1 be 3c b2 b9 c1 3e
       0.02585048 0.0051639085 0.023277776 0.37836987
000360 58 0d ff bc f5 00 a3 3c 0f 94 3d 3f 70 af e3 3d
       -0.031134292 0.019897917 0.74054044 0.111174464
000370 98 1f 9d bb ab 18 15 bd f2 63 6e bc 03 ab 8e bf
       -0.004795026 -0.03640048 -0.014550196 -1.1145939
000380 25 9e e4 3e 9c 0a 83 bc 7a bd 7b 3c c1 06 9b bd
       0.44651905 -0.01599627 0.015364999 -0.075696476
000390 3f 37 09 bd bd 96 fa be 64 b9 90 bc 56 56 8c bd
       -0.033499952 -0.4894313 -0.017666526 -0.06852405
0003a0 0e cc 3f bc de d3 ab 3b f5 1a 8e 3e 70 f2 6b bc
       -0.011706365 0.0052437624 0.27754942 -0.014401063
0003b0 9c 17 ab bc 08 9d e2 bb 2d 66 91 3f 8f cc 99 3b
       -0.020885281 -0.0069156922 1.1359307 0.0046935747
0003c0 dd ed e2 3b 65 49 a5 3b 27 59 bd 3e 01 70 41 3c
       0.006925328 0.0050441497 0.3698208 0.011806489
0003d0 17 5d d2 bc 24 ce 7b 3c 12 96 f8 bc ed 83 26 bc
       -0.025679154 0.015368972 -0.030344997 -0.0101632895
0003e0 61 6a 03 bd 75 17 20 bf db f9 7c ba 19 9a 21 be
       -0.032083873 -0.6253579 -0.00096502685 -0.1578144
0003f0 65 61 8d bc 99 5f c4 bc 50 82 d7 3e dc 60 9f bb
       -0.017258355 -0.023971366 0.42091608 -0.0048638415

discrete_action_output_shape f4 [1, 2]
000000 00 00 40 40 00 00 40 40
       3.0 3.0

network_body._body_endoder.seq_layers.0.bias f4 [128]
000000 93 86 c6 bb a0 5c 07 bc 09 e3 47 3a e2 96 43 3b
       -0.006058523 -0.00826183 0.00076250784 0.0029844572
000010 e8 52 2f bc 15 89 d8 be 8e b6 09 bc a2 c2 34 3c
       -0.010700919 -0.42292085 -0.008405341 0.011032732
000020 1b 28 01 39 4c 02 13 3b 78 48 93 3a 88 94 7f 3c
       0.00012317339 0.002243179 0.0011236807 0.015599377
000030 40 a8 05 be 54 c3 9d bf 4c d2 f4 3b 32 e8 f6 bb
       -0.13052464 -1.2325234 0.0074713584 -0.007535004
000040 00 31 37 bb 41 18 ed 3b cd fa ef 3b 93 4b b5 3b
       -0.002795279 0.0072355573 0.007323599 0.005532691
000050 f6 fb a9 3b 0c 23 09 bc 62 06 25 3b 98 e8 e4 39
       0.005187507 -0.008370172 0.0025180806 0.00043660845
000060 27 0e 93 3d cc f3 e8 bb 84 e9 fb ba bc 41 86 3a
       0.07180434 -0.007109141 -0.0019219373 0.0010242979
000070 88 03 43 bf ee 64 e4 ba 48 39 7c bb 46 02 34 b9
       -0.76177263 -0.0017425099 -0.003848629 -0.00017166985
000080 65 34 a5 3b e1 a7 b1 39 8f d4 34 3b eb bd 14 bc
       0.0050416463 0.0003388515 0.0027592515 -0.009078483
000090 a7 f3 36 bb fd 8d 83 3b 00 de 06 bb 27 85 c5 bb
       -0.0027916224 0.004014729 -0.00205791 -0.006027836
0000a0 09 3a b5 bb 1a 91 3c bc 99 d0 5a bb 5f d0 ed bb
       -0.0055306 -0.011509204 -0.0033388494 -0.007257506
0000b0 92 b2 fc 3b 27 7b a6 3a 9c 19 a4 3b 4c 85 13 ba
       0.007711717 0.0012701497 0.0050079357 -0.0005627468
0000c0 98 fa 8a ba de 4f 60 3d 3f 38 68 bb d6 08 ee bb
       -0.0010603247 0.054763667 -0.0035433916 -0.007264237
0000d0 7b 93 79 3b 9d 7a da 3b 21 89 73 38 4a 38 7c bb
       0.003808229 0.0066674487 5.8063426e-05 -0.00384857
0000e0 e4 a5 68 bb 05 55 3c be 40 59 43 bb dc b7 12 3b
       -0.003549927 -0.18391807 -0.0029807836 0.002238742
0000f0 28 eb 67 3b 4d ff 17 3b b6 74 3b bf ff 33 c0 3b
       0.0035387967 0.0023192943 -0.7322496 0.0058655734
000100 b9 63 cb bb 87 19 bf 3a 3d d6 53 bb 54 77 e7 bb
       -0.006206956 0.0014579751 -0.003232374 -0.0070637856
000110 cf 8f eb ba 67 e0 01 3c 07 ed 0d bc 65 82 8b 3b
       -0.0017971935 0.007927037 -0.008662469 0.0042574876
000120 51 2d a1 3b 13 14 f3 bb 9a 24 54 3a 27 f7 d6 ba
       0.004918732 -0.0074181645 0.0008092612 -0.0016400561
000130 0e 0a 7f bb af 5a 47 bb ba ac 3d bb a3 70 ee be
       -0.0038915905 -0.0030419042 -0.0028942064 -0.4657031
000140 19 0c 40 bb 5c ef 9e bb 89 3a a1 b9 33 86 88 3b
       -0.0029304086 -0.004850311 -0.00030751925 0.0041663884
000150 b8 64 9f 3b ee 99 13 bf 73 23 02 bc af 65 62 3b
       0.0048643015 -0.57656753 -0.007943022 0.0034545471
000160 a1 90 ac bb d4 79 a3 bf d9 27 0f 3b 71 18 f3 be
       -0.0052662645 -1.2771554 0.002184382 -0.47479585
000170 e0 22 05 3c 8a 9b 67 bb f5 2c 66 be 65 fc 2c 3c
       0.008125991 -0.0035340511 -0.22478087 0.010558222
000180 39 76 0a bb 27 48 12 bf 52 46 08 bc 6b 0c 5c bf
       -0.0021127595 -0.57141346 -0.008317547 -0.8595645
000190 f9 08 41 3b 23 85 54 bb c1 9e 93 bb 72 13 99 bb
       0.002945481 -0.0032427988 -0.004505009 -0.0046715075
0001a0 7b fe 17 bb b0 37 ba be 2f c0 a8 bb 8f 2e 5e bb
       -0.0023192454 -0.3637061 -0.005149863 -0.0033902263
0001b0 20 db a3 3b 0f 32 9a bb 18 d0 87 bf 0f df 8b ba
       0.005000487 -0.0047056745 -1.061038 -0.0010671335
0001c0 8f a3 74 bf 9a ac 23 3b 5b bc f6 be 46 1d 18 3c
       -0.9556207 0.0024974705 -0.4819058 0.009284323
0001d0 01 73 53 3b 4a 9d f8 b9 5e 43 8e bf 6c bb 3e 3a
       0.0032264593 -0.00047419436 -1.1114309 0.0007275853
0001e0 3e 75 4d bc 5d 93 14 3e 9b e0 9c bb 1a 22 b4 bb
       -0.01254016 0.1450934 -0.0047875172 -0.0054972293
0001f0 2b 99 b6 bb f7 25 be 3b 74 46 55 bf 43 54 ab bb
       -0.0055724583 0.0058028656 -0.8331063 -0.0052285506

network_body._body_endoder.seq_layers.0.weight f4 [128, 6]
000000 b4 a6 75 bc e8 90 36 3b 8e e4 96 be 95 4a 99 be
       -0.014993358 0.0027857367 -0.29471248 -0.29939714
000010 e1 8a da 3e 4a 05 dd 3e 0d af 74 bc d8 de e5 bb
       0.4268408 0.43168098 -0.0149343135 -0.0070150904
000020 32 62 d5 bd 98 4f 1b be b8 c2 b1 3c 0a 81 88 3c
       -0.1041912 -0.15167081 0.021699294 0.016663093
000030 7e 5b eb 3b af 6a 78 3c e6 b4 3c 3e 76 87 28 3e
       0.0071825376 0.015162154 0.18428382 0.16457924
000040 a5 4a 45 3e 07 b0 37 3e 70 db 55 bb 20 ac 2c 3c
       0.19266756 0.17938243 -0.0032632016 0.010539085
000050 84 70 c6 bb 96 63 95 3c 03 1c 2e bd 89 ea 42 bd
       -0.0060558934 0.018235963 -0.042507183 -0.04758695
000060 55 2c 86 bb b4 cd 0e 3b c2 91 b6 3d 34 81 74 3d
       -0.0040946403 0.002179009 0.0891452 0.05969353
000070 01 01 6b bf c7 7a 6c bf a1 e8 77 bf c2 a0 c9 3f
       -0.91798407 -0.92374843 -0.9683934 1.5752184
000080 c2 96 97 be 56 14 27 3f fc a1 ad be f5 26 78 be
       -0.29607207 0.65265405 -0.33912647 -0.24233611
000090 69 8e 65 bc 7e 63 b3 bc 13 86 19 3e 4b ea 06 3e
       -0.014011004 -0.021898028 0.14992552 0.13175313
0000a0 ef 6d 88 3e 95 59 90 3e a6 38 19 3c 05 ab 1d 3c
       0.26646373 0.28193346 0.009351885 0.009623294
0000b0 be db 25 be b0 41 26 be 47 39 08 3f ac 3f 00 3f
       -0.16197106 -0.16235995 0.532124 0.50097156
0000c0 70 13 de 3a 09 e5 50 3c 91 59 d8 bd 53 3c c4 bd
       0.0016943049 0.012749919 -0.105639584 -0.095818184
0000d0 6c e0 b6 3e b7 25 aa 3e 5c 94 69 3c 28 04 04 3b
       0.35718095 0.332319 0.014256563 0.002014408
0000e0 65 cd 82 bd 9a 4e 38 bd 88 23 a4 3e a6 f4 9a 3e
       -0.06386832 -0.044996835 0.32058358 0.30264777
0000f0 17 cc 17 3a 4e 26 59 bb 3e 87 ab 3e 99 61 b5 3e
       0.00057906046 -0.0033134404 0.3350162 0.35426024
000100 86 12 ca be eb 91 c8 be 5b db 66 3c d3 ce 50 3b
       -0.39467257 -0.39173827 0.014090384 0.0031861558
000110 10 fc dd be 3e 4a de be 80 31 f2 3c e1 d3 c1 ba
       -0.4335637 -0.43416017 0.029564619 -0.0014787876
000120 8a ff ab 3d af 37 0f 3e e9 1d 16 3e 48 df 7e 3d
       0.083983496 0.13986085 0.14659847 0.062224656
000130 5d a5 d2 be 6e ae ed bd 43 e2 c9 bf 6e c0 a5 3e
       -0.41141787 -0.116055354 -1.5772175 0.32373375
000140 4a c6 74 3e 6f f2 84 be e3 8d 1a 3e 41 ce e1 3e
       0.23903766 -0.25966212 0.15093188 0.44102672
000150 85 73 6e 3b 32 92 9b 3c 37 3d 04 3e 77 9c 17 3e
       0.0036384773 0.01899061 0.12913977 0.1480578
000160 d1 64 87 be 71 5a 90 be 83 84 d4 bb 06 ca 8b bc
       -0.26444104 -0.28194 -0.006485523 -0.017064106
000170 1c 60 74 3e 12 98 65 3e 35 81 24 3d 02 3f 8b 3d
       0.23864788 0.22421291 0.040162284 0.06799127
000180 6d 09 65 bc 26 27 03 3b b2 23 c4 bd ea 9e 12 be
       -0.013979298 0.0020012348 -0.09577121 -0.14318433
000190 12 35 05 3f ea c7 03 3f 1b 90 39 3c c9 72 52 3c
       0.52034104 0.5147692 0.011325861 0.01284475
0001a0 13 87 25 bd 36 55 e2 bb 2b 2b 41 be 11 e8 51 be
       -0.04041202 -0.0069071306 -0.18864124 -0.20498683
0001b0 e1 8e 02 3c d3 74 3d ba 8e b7 1e 3e 0f d6 10 3e
       0.007968635 -0.0007227186 0.15499708 0.14144157
0001c0 d9 71 68 be 71 64 72 be eb 26 fa b8 e3 44 b8 bc
       -0.2269968 -0.23671128 -0.00011928178 -0.022493785
0001d0 ae 0c 61 3d e8 d6 c1 3d 3f 7c 69 3f 6c 20 70 3f
       0.054943733 0.09464818 0.9120521 0.9379947
0001e0 59 01 1d 3c be a0 78 bb 1b f5 12 bf b3 09 11 bf
       0.009582841 -0.0037937607 -0.5740525 -0.56655425
0001f0 5e da 99 3d c4 3e a4 3d 51 9d 82 bc 47 28 4a bc
       0.07512353 0.08019784 -0.015944155 -0.012338704
000200 63 d3 a1 3e 12 96 a4 3e 77 69 91 3e 08 e3 9e 3e
       0.31606588 0.32145745 0.28400776 0.31032586
000210 c4 d6 8a bc a0 04 29 3c d2 97 27 3f 78 e0 1a 3f
       -0.016948111 0.010316044 0.65466034 0.6049876
000220 20 82 14 3e 1f 40 10 3e e9 0e 8a 3c 03 7a 27 3c
       0.14502764 0.1408696 0.016852813 0.010221961
000230 44 e6 8e bd 74 ae 0b bd 18 8d 6b 3d dc f7 c8 3c
       -0.069775134 -0.03410192 0.057507604 0.024532251
000240 4a c7 8d c0 f8 b7 10 bf 0a 17 15 bd b3 e9 c0 3d
       -4.4305773 -0.56530714 -0.036398925 0.094195746
000250 4c a3 d2 3d d2 9c 04 3e 19 86 84 bc 7b 04 6e 3c
       0.10285053 0.12950447 -0.016177224 0.014527435
000260 e3 75 a1 3e 0b aa 96 3e 35 82 63 3e df 21 6b 3e
       0.31535253 0.29426607 0.22217639 0.2296214
000270 1b df df bb 06 3c 69 3a 2e ac 1c 3e b3 0b ea 3d
       -0.006832016 0.0008897189 0.15300056 0.11428013
000280 ff 9c e8 bd 2c f3 d2 bd 7b e0 ef bb d1 c5 a5 bb
       -0.1135807 -0.103002876 -0.0073204613 -0.005058982
000290 4f c8 a8 be 80 9d b6 be 3c b4 e8 bd 4e 90 ea bd
       -0.32965323 -0.35667038 -0.11362502 -0.11453305
0002a0 33 d9 ca bf ef 88 cd 3e cb a4 2b be 4a 0c 93 be
       -1.5847534 0.40143535 -0.16762082 -0.28720313
0002b0 32 d2 10 be a0 7d 8f be ff 52 ac bb ec ce 4f bb
       -0.14142683 -0.28025532 -0.0052589173 -0.0031709028
0002c0 9d 8f 34 3f c3 b3 2f 3f 4c 00 98 be 99 b5 99 be
       0.70531636 0.6863367 -0.29687726 -0.3002136
0002d0 c9 05 8d 3b 91 55 ba bc f1 cb c7 be 5b 8a aa be
       0.004303668 -0.02274588 -0.39022782 -0.33308682
0002e0 f9 d8 01 3e 95 b4 19 3e d5 39 3e bb af 7c ee 3b
       0.12680425 0.15010293 -0.002902617 0.007278047
0002f0 68 3f 04 bf d9 3f f5 be b2 f0 81 be 73 ba 84 be
       -0.5165925 -0.47900274 -0.25378948 -0.259235
000300 9c 5d 57 3c bf 7f 9f 3c c2 fc 62 bd 2b e4 91 bd
       0.013144877 0.019470094 -0.05541683 -0.07123598
000310 e5 b6 c2 3e 15 a7 b8 3e 11 6d 60 bc cf 18 52 bc
       0.38030162 0.36064973 -0.013697878 -0.012823298
000320 8c 7b 11 3f a6 b9 06 3f 4a 33 c2 3e 6b ce ca 3e
       0.5682914 0.5262703 0.37929755 0.3961061
000330 c4 d4 da bb 40 87 3d bc 72 c5 5e bc 65 b1 d1 bc
       -0.0066781957 -0.011567891 -0.013596879 -0.025597284
000340 6c 1e 63 bc c8 e1 5e bc be df 4f bc b5 be 3b bc
       -0.013862234 -0.013603635 -0.012687622 -0.011459042
000350 52 57 f2 be 35 f5 f3 be e3 99 6e bc a1 61 05 bc
       -0.47332245 -0.47648016 -0.014563057 -0.008140952
000360 9f a0 63 bc c4 01 83 bc 2e bc cb be de e1 c0 be
       -0.0138932755 -0.015992053 -0.39792007 -0.37672323
000370 5d 88 8f be c2 b5 86 be 29 7f 8c 3c 5f 74 24 bc
       -0.28033724 -0.26310545 0.017150478 -0.010037511
000380 c3 91 28 be 10 22 cf bd 2c 47 f5 3e 3b d7 f4 3e
       -0.16461854 -0.10113919 0.47905862 0.47820458
000390 7e c0 f9 3a 03 b7 a2 bc 9d 62 f6 3d fe 6f 11 3e
       0.001905456 -0.019862657 0.12030528 0.14202878
0003a0 71 11 d1 3c 1d c3 89 3d 48 c4 10 bb 8d df ac 3b
       0.025521012 0.06726668 -0.002208965 0.005275673
0003b0 71 ab 00 3e e6 48 e6 3d b9 a2 0a bf b4 fb 09 bf
       0.125654 0.11244373 -0.54154545 -0.53899693
0003c0 3e 83 20 bb 42 a2 39 bc 93 94 ac 3d 7e af a0 3d
       -0.002449229 -0.011330189 0.08426776 0.078459725
0003d0 e7 a0 1d be d8 6a 13 be 5c 54 80 bc 9f 9d 41 bb
       -0.1539341 -0.14396226 -0.015665226 -0.0029543412
0003e0 a1 2b 57 3e d4 db 47 3e 3a 64 c6 be db 35 be be
       0.21012737 0.19517452 -0.38748342 -0.37150463
0003f0 09 07 1d bc 33 18 47 3c 2e bd 93 be e7 04 b0 be
       -0.009584197 0.012151766 -0.2885527 -0.3437874

network_body._body_endoder.seq_layers.2.bias f4 [128]
000000 01 b4 39 3d 4b 98 5e bd 35 bb c1 bc 76 41 78 bf
       0.04533768 -0.054344457 -0.023648838 -0.96974885
000010 23 f9 38 3c 51 ed 58 bf 90 36 2b 3e fd f0 8d bb
       0.011289868 -0.84737116 0.16720033 -0.0043317066
000020 89 0c 5d 3d aa be c3 bc 60 47 5b bd 5d 50 60 bd
       0.053967033 -0.023894627 -0.053534865 -0.05476414
000030 c0 a3 48 bd 51 30 05 bf 8f 0e 07 be 0c de ab bc
       -0.04898429 -0.5202685 -0.13189147 -0.020979904
000040 9e 80 9d bc 38 4d 1b 3c fc 56 86 bd ed 7c c9 bd
       -0.019226369 0.00947886 -0.0655956 -0.09838281
000050 e4 3f 91 bc e0 33 98 bb a3 fe 3e bf b4 ee 03 bd
       -0.01773066 -0.004644856 -0.74607295 -0.032210067
000060 9e 5f d7 bc 03 75 2b bd cc cf df bc e7 4f 86 bc
       -0.026290711 -0.041859638 -0.027320765 -0.016395522
000070 a8 08 ca bb ff 24 47 3d 1b 30 36 bd c0 6c 5e bf
       -0.0061655827 0.048619267 -0.04447947 -0.8688469
000080 2f f0 dc bc 79 15 30 3d 2c 79 ae bb 72 e1 5c bc
       -0.026969997 0.042989228 -0.0053245034 -0.013481485
000090 fc 74 00 bd df 63 b8 bb 26 2a 34 bd d7 58 81 3c
       -0.031361565 -0.00562714 -0.04398551 0.015789432
0000a0 4e df bd bc f0 56 4c bf 4d 50 39 bd b4 fb 9f bc
       -0.023177769 -0.79820156 -0.045242596 -0.019529201
0000b0 e0 82 ff 3a d8 95 96 bd e1 4c cd be d6 52 b2 bd
       0.001949396 -0.07352799 -0.40097716 -0.08707206
0000c0 65 7a 82 bb 88 ee 82 bc 48 6e a6 bb c5 ae 06 be
       -0.0039818757 -0.015982881 -0.0050790645 -0.13152607
0000d0 2c d0 4d 3c de df b3 bc 9e e9 be bb e5 6e 53 3c
       0.012561839 -0.021957334 -0.005826189 0.012904857
0000e0 23 0e af bc 74 84 11 3c 84 b1 7e be 5d aa e1 3d
       -0.021369046 0.008881677 -0.24872404 0.11018822
0000f0 a9 0f dd bc 3b 43 c5 bc 1d 63 7d bd 11 a0 f5 bc
       -0.026985006 -0.02407991 -0.0618621 -0.029983552
000100 c7 91 8e 3e 94 39 78 bd 88 4d 91 bc 30 c9 f0 be
       0.27845594 -0.060601786 -0.017737165 -0.47028494
000110 4d 3b 58 bf ae d5 1d bf e6 e9 20 bd 52 25 48 3e
       -0.84465486 -0.61654174 -0.039285563 0.19545487
000120 00 c8 0f bd c5 f6 6f bf 1c b1 b3 3c d5 c4 59 be
       -0.035102844 -0.93735915 0.021935038 -0.21266492
000130 f0 c3 17 bc cb bc b7 bc c5 48 45 bc d4 92 d1 be
       -0.009263024 -0.02242889 -0.012041275 -0.40932333
000140 42 8f 51 bd 9d 17 1b bf 6c 75 0f bf 0a f5 2b 3e
       -0.051162012 -0.60582906 -0.56038547 0.16792694
000150 b3 1b 6c be 65 0c 28 bd 48 1a 04 bd 1e dd 25 3e
       -0.23057441 -0.041027445 -0.032251626 0.16197631
000160 26 f0 65 bd 58 95 15 3d 68 73 28 bf d8 9f c0 be
       -0.056137227 0.03651938 -0.65801096 -0.3762195
000170 85 b7 1f bd 1c 7c b2 3c 77 21 56 3c 29 41 38 bf
       -0.038993377 0.021787696 0.013069502 -0.71974427
000180 ab a9 a6 3c bd 7b 90 bc 34 53 82 bd 6f 80 1c 3d
       0.020344576 -0.017637128 -0.06363526 0.03820842
000190 3c ae 18 3d d0 69 88 bf 83 51 86 bd 36 f6 0a be
       0.037275538 -1.0657291 -0.06558516 -0.13570485
0001a0 a8 7b e2 ba 37 9b d7 bc d4 1a 5f be 8d cc 84 bc
       -0.0017279284 -0.02631913 -0.21787578 -0.016210819
0001b0 14 bc 6f bd c0 8f e5 bc bd f4 70 be 96 52 8e bd
       -0.058528975 -0.028022647 -0.2353086 -0.06949346
0001c0 dc d3 28 bc 28 7e 3d bc a9 c0 14 bf 7d e2 0e bd
       -0.010304417 -0.0115657225 -0.58106476 -0.034883965
0001d0 30 2e 02 bd e8 02 d5 ba b7 ff e7 3a f8 cc 3d bc
       -0.03178233 -0.0016251476 0.001770011 -0.011584513
0001e0 79 45 2e bd 6e 2f 92 bf 08 c1 13 3d c6 df 05 3e
       -0.042546723 -1.1420724 0.03607276 0.13073644
0001f0 76 1f 97 bd a6 64 d1 bd c8 d5 3a 3a a9 78 24 3d
       -0.073790476 -0.10224275 0.0007127193 0.040154133

network_body._body_endoder.seq_layers.2.weight f4 [128, 128]
000000 8e 3c 82 3c 16 31 19 3c b6 99 51 bd 4e 43 58 3c
       0.015898015 0.009350082 -0.05117198 0.01319964
000010 a1 77 8c bb 87 3d 83 3b 59 37 73 bd 36 4d 08 bc
       -0.004286722 0.0040051374 -0.059378956 -0.00831919
000020 d4 6a cc bb bd ec 22 bd 01 ac 13 bd b6 34 c2 bc
       -0.006238321 -0.039776552 -0.036052708 -0.023706775
000030 c4 91 c5 bd 3e 02 0e 3e 41 b8 55 bc fa 74 72 bc
       -0.09646943 0.13868043 -0.013044418 -0.014798397
000040 d3 82 15 3d c0 4a bb bd 17 3e fc bc 92 85 92 bc
       0.036501717 -0.09145117 -0.030791325 -0.017885957
000050 5c 7e 83 bc 1b 6a 0b 3c 57 4f 06 bd 47 74 0c 3d
       -0.016051464 0.008509184 -0.032790508 0.03429058
000060 01 77 93 bc 8b 7e 43 bd 1c bd 59 3d 8f 89 85 3c
       -0.018001081 -0.047728103 0.053158864 0.016300945
000070 06 5a 36 3d f1 24 c4 bd 33 8d 0a 3c a0 18 20 3d
       0.044519447 -0.095773585 0.008456516 0.039085984
000080 1d 8d 9c 3c cb 47 35 bd 00 fc cb bc 73 fa c5 3a
       0.019110257 -0.04425792 -0.024900436 0.0015104547
000090 a9 86 7e bc b8 92 57 bd a4 71 6b bc d2 ad d6 3c
       -0.015535035 -0.052630156 -0.014370356 0.02620593
0000a0 0e a9 8a bd d2 15 a4 3c f1 0c 51 3c 1e 5b 32 3d
       -0.06770526 0.020029936 0.012759433 0.043543927
0000b0 f2 11 a2 39 12 09 84 3c d2 a4 ed 3c 17 4f 55 bc
       0.00030912418 0.016117606 0.029009257 -0.013019345
0000c0 2a fe 0b bd 08 93 10 3d 93 0b 66 bd 84 f5 ae bc
       -0.034177937 0.03529647 -0.05616338 -0.021357305
0000d0 c1 d5 8e bd f4 5f f8 bc ed b6 20 3c 00 d1 ac bc
       -0.06974364 -0.030319192 0.009809238 -0.021095753
0000e0 f1 96 b9 bc 13 49 8e bd 8d 75 4d 3d e5 50 e1 bd
       -0.022654982 -0.069475316 0.050160933 -0.110017575
0000f0 4c 2e 6e bc f3 2d 44 bd 2e ea 13 bd 67 c5 77 bd
       -0.014537405 -0.047895383 -0.036112003 -0.060490992
000100 28 b6 6d bc d9 6b 95 3c 72 39 8e 3c 24 21 99 37
       -0.014508761 0.018239902 0.017361376 1.8254454e-05
000110 78 ad ee bc 20 0d fc bc 10 ac a0 bc cf 7e 76 bd
       -0.02913545 -0.030767977 -0.019613296 -0.060179528
000120 19 19 96 3d 06 fc b2 3d 87 0c 9f bd 90 ab 46 3d
       0.07329006 0.08739476 -0.07766061 0.04850346
000130 b9 2b 97 3d b8 c9 bd 3c d3 1b 02 3d 8b 99 61 bd
       0.07381386 0.023167476 0.031764816 -0.05507807
000140 2d 3b 80 3c fd 5d 59 bd 22 73 4b 3a 61 65 83 bd
       0.015653217 -0.05306815 0.00077609916 -0.06415821
000150 63 81 a6 bc 0f c3 fa 3d 68 ed 82 3c 70 6e 1e bb
       -0.020325368 0.12244236 0.015982345 -0.0024174713
000160 6d 25 72 bd 12 13 eb bd 52 27 1e 3b a7 fb d3 bd
       -0.059117723 -0.11478247 0.0024132323 -0.10350733
000170 8b 6e c2 bb 99 8c 99 bd 5a 33 b5 bb 94 28 11 bd
       -0.005933588 -0.0749752 -0.005529803 -0.03543909
000180 d4 b8 75 bc 17 fe e2 bd de bf 88 3d f3 36 30 3d
       -0.01499768 -0.1108362 0.06677221 0.043021154
000190 2b a8 46 bd d2 51 80 bc 9e ae bc bc 0b c4 c3 bc
       -0.04850022 -0.015664015 -0.023032483 -0.023897192
0001a0 b1 f9 80 3d 37 95 84 bc fe 48 bc bb 6e d6 54 3d
       0.06297625 -0.016184432 -0.005746006 0.05196231
0001b0 42 cc d8 bc 21 23 7a 3d 4f eb 21 3d 94 4f f0 3c
       -0.026464585 0.061068658 0.03953105 0.02933482
0001c0 78 62 17 be 60 d8 82 3c 04 8e 0a 3d 15 e7 58 ba
       -0.14783657 0.015972316 0.033826843 -0.000827418
0001d0 59 fe 98 bd 6b a7 ff bc 42 27 61 3e cd 14 1b 3c
       -0.07470388 -0.03120776 0.21987632 0.0094654085
0001e0 b8 dc 56 3d b7 ed f6 bc 99 33 0c bc f7 07 28 bb
       0.052456588 -0.030142648 -0.008557224 -0.0025639513
0001f0 a0 a0 8e bd 68 d5 d4 3b fb d7 d8 bc 49 b6 63 bd
       -0.069642305 0.0064951666 -0.026470175 -0.055593763
000200 e8 24 8f bb 0f 5e 2f 3b 87 3a dd 3a 2a 06 dd b8
       -0.0043684132 0.0026758944 0.0016878404 -0.00010539249
000210 4b c0 b2 3b a2 6b 70 bf 2f 4e 09 bb 14 06 c0 3b
       0.005455052 -0.93914235 -0.0020951142 0.0058600996
000220 61 87 81 ba 45 31 ea b9 37 95 9b bb 39 6f be bb
       -0.0009882265 -0.00044668667 -0.0047480124 -0.0058115986
000230 c0 47 3f be 14 e7 63 bf a7 8e 70 3c bd 89 15 3b
       -0.18679714 -0.8902447 0.0146824485 0.0022817694
000240 0e 65 99 3c 9b d2 67 bb 92 f8 70 ba 76 f1 8e bb
       0.018724944 -0.0035373333 -0.00091923133 -0.0043622805
000250 8b c5 a0 3b 48 e1 91 3b f8 d2 a6 3c a6 58 2a bc
       0.0049063615 0.0044519044 0.02036427 -0.010397112
000260 f1 06 2d bd e6 25 30 bb 39 ce 27 3c c8 1b dc 3b
       -0.042242948 -0.0026878058 0.010242038 0.006717179
000270 00 a5 89 bf 6f aa 93 3c 7c fa 91 bc f3 59 a1 3b
       -1.0753479 0.018025605 -0.017819636 0.004924053
000280 a9 06 93 3a d9 d8 06 3c 12 6c 21 bc 49 a1 26 bc
       0.0011217195 0.008230411 -0.009852426 -0.010170289
000290 a8 73 5d bc c0 6e 43 ba e5 e7 aa bb b3 13 60 3c
       -0.013516344 -0.00074551627 -0.0052156323 0.013676572
0002a0 fc 04 21 bc 8d e7 01 3c 87 97 39 3c 0d cb 50 bc
       -0.0098278485 0.007928741 0.011327631 -0.012743724
0002b0 d5 b7 53 bc 04 0f 29 3a 88 79 c9 bb 53 ea ad bc
       -0.012922247 0.0006449076 -0.006148521 -0.021229899
0002c0 0e 70 a8 3b 6c 95 13 c0 8d 15 8f 37 79 8e 8e 3a
       0.005140311 -2.305995 1.7056964e-05 0.00108762
0002d0 45 1b 6a 3c ee 45 3a bc f6 ba f2 3b 0b 9f 81 3b
       0.014288728 -0.011369212 0.0074075414 0.003955727
0002e0 31 62 b5 3c a1 15 8a be 4c 2c ef 3b 6d 22 b2 3b
       0.022141548 -0.26969627 0.007298982 0.005436233
0002f0 7e 9f a1 bb 65 e6 c0 3a 05 98 6f bf 39 44 54 3a
       -0.004932343 0.00147171 -0.9359134 0.0008097324
000300 4c 5b 71 bb fd f0 62 3c 18 35 a1 3b 4b fa 9d bc
       -0.0036828099 0.013851401 0.0049196593 -0.019284388
000310 ef 88 b2 3b d4 7e 7c bc 71 1a c0 bb 54 40 ed 3b
       0.0054484527 -0.015411098 -0.005862527 0.0072403345
000320 de e3 ed 3a 39 31 28 3b 18 82 5f 3c 36 bf 1f 3c
       0.0018149575 0.0025664105 0.013641857 0.009750178
000330 f1 14 e4 bb 54 dd 09 ba cd 05 20 bc b9 58 8e be
       -0.006960504 -0.0005259116 -0.009767008 -0.27802065
000340 27 5e 31 3b 2a a2 33 3c e3 ad 4a bc 37 35 a9 bc
       0.0027064176 0.010963956 -0.012370559 -0.020655258
000350 de 70 a4 bb f4 5c c2 bf bd a4 81 bb 87 8d 23 3a
       -0.0050183376 -1.5184617 -0.003956406 0.0006239046
000360 2a 67 83 3c b4 5e 94 bf d9 46 ed 3b 5c 30 8a be
       0.016040403 -1.1591401 0.0072411117 -0.2699002
000370 20 c2 44 3a 18 7c e7 ba 1c ac 39 c0 d3 f7 8a 3c
       0.00075057335 -0.0017660884 -2.9011297 0.016963875
000380 4a ba 8b 3b 68 e1 75 bf 2e 0b 0c 3b 09 51 e1 bf
       0.0042641507 -0.9604707 0.0021368968 -1.7602855
000390 05 ad 1d 3c 1d fd ba 3c 44 62 a9 ba 8a 2c 91 37
       0.009623771 0.022825772 -0.0012922962 1.7306087e-05
0003a0 0f a3 ef 3b 78 e4 43 be 3f 3d 2f 3b ed f3 2f bc
       0.0073131393 -0.19130123 0.0026739386 -0.010739309
0003b0 61 93 98 3b 63 30 53 3c da 27 19 bf f1 f3 47 3c
       0.004656241 0.012889954 -0.59826434 0.012204156
0003c0 02 cd 47 bf dd c6 03 ba 2f 71 0e bf 14 f4 03 3c
       -0.7804719 -0.00050268864 -0.55641454 0.008053798
0003d0 36 c5 9f 3b 43 02 b8 bc 8c db 86 bf d6 d0 64 3b
       0.0048758043 -0.022462016 -1.053575 0.0034914515
0003e0 29 ab 49 ba 4f 48 e1 bf 6c c5 3e 3c 31 73 28 ba
       -0.00076930464 -1.7600192 0.011643749 -0.0006425856
0003f0 aa 61 93 bc 58 58 64 3c 28 0b 73 bf 81 7a a5 3c
       -0.017990906 0.013937078 -0.949389 0.020200016

network_body.observation_encoder.processors.0.normalizer.running_mean f4 [6]
000000 1b bd 6e 40 ce b5 38 41 96 1e 61 43 0a f5 7c 43
       3.730292 11.544386 225.11948 252.95718
000010 96 dc 0f 43 f6 26 06 43
       143.86166 134.15219
