results/EasyMapAgent2/My Behavior/My Behavior-499442.onnx (onnx, 81381 bytes, 14 tensors)

77 f4 [13]
279.65036 553.75366 252.41115 930.8707 0.0014150019 751.9986 285.9211 503.39484
304.82227 101.420845 63.945717 344.5968 191.56384
00000000: 3fd3 8b43 3c70 0a44 4169 7c43 bab7 6844
00000010: 9677 b93a e9ff 3b44 e7f5 8e43 8ab2 fb43
00000020: 4069 9843 79d7 ca42 6ac8 7f42 644c ac43
00000030: 5890 3f43

action_model._continuous_distribution.log_sigma f4 [1, 2]
-0.21827671 -0.53967434
00000000: ee83 5fbe 1928 0abf

action_model._continuous_distribution.mu.bias f4 [2]
-0.48064175 0.33412927
00000000: ad16 f6be fe12 ab3e

action_model._continuous_distribution.mu.weight f4 [2, 128]
-0.62192905 0.20535734 -0.595391 -0.015561053 -0.090101026 0.076706804 -0.17822522 -0.27970427
0.23118663 -0.30212438 0.041345496 0.30117932 -0.20359026 0.5038117 0.05734106 0.37511793
-0.295956 0.26262462 0.17101173 -0.10434911 -0.6188509 -0.28301388 -0.6250867 -0.25371155
-0.3532591 0.29736552 0.06810709 0.23654315 -0.11436003 0.046455715 -0.15956421 -0.19000696
0.50221103 0.20870553 -0.33857587 -0.2498603 0.09618926 -0.069499575 -0.5603761 0.51617855
-0.41097385 -0.9384067 0.6106144 -0.22274679 -0.44786975 -0.13989712 0.7471391 0.1047379
-0.08208471 -0.76291645 0.12925516 -0.008077797 0.2327755 -0.08815419 -0.5246182 0.025207108
-0.5337836 0.27788344 -0.27104652 -0.024817144 0.45703977 -0.18916354 0.29229668 -0.45971844
0.20659521 -0.30070904 0.23961316 0.031675123 -0.16708706 0.33276305 -0.2970831 0.41772243
-0.3659611 -0.23699479 -0.4897713 0.7417676 -0.27243328 0.07648001 -0.2809915 -0.53508115
0.03973264 -0.06713116 -0.7006845 0.021661436 -0.20834742 -0.59966415 -0.23399328 -0.44642895
-0.5470215 0.07021668 0.69932884 0.08021128 -0.40198672 -0.11414863 -0.3980549 -0.092879094
0.7195667 0.116656035 -0.10517616 0.20722154 -0.381014 -0.028714929 -0.30649683 -0.2237317
-0.3651508 -0.5265836 0.5053243 -0.31692398 -0.92919195 -0.20760413 -0.91036487 -0.2029959
-0.16550724 -0.030886946 0.67756486 0.4743494 0.44495147 -0.31870624 0.09275599 0.014974491
0.3737633 -0.9294689 -0.032549914 -0.20570137 0.40535897 -0.1433269 -0.2862381 -0.29365742
-0.30401602 0.30690205 0.6392393 0.03979028 -0.0202749 -0.21671592 -0.4602119 -0.24389239
-0.46690777 -0.24935822 0.017318731 0.16402239 0.27813476 0.43635717 0.19246161 0.43383282
-0.50026053 -0.1810646 -0.41973084 0.36125556 -0.2527148 -0.36039156 0.42778337 -0.297459
0.047696844 -0.22372249 0.4130095 0.09748924 0.35192436 0.09390023 -0.04609048 -0.19839084
-0.76926607 -0.2476884 -0.25744954 -0.19897754 -0.35860434 0.3708429 0.07878958 0.4007614
-0.222799 0.7108551 0.058792498 0.323255 -0.020332044 0.42332357 -0.3529413 0.017138701
-0.4180228 0.36480963 0.3199263 0.04858281 -0.26615858 0.0152381 -0.15295051 -0.31353953
0.39886832 0.0045780092 -0.15507476 -0.029011045 0.018834742 -0.18249543 0.3295284 0.32150766
0.6480455 0.14914086 0.2055103 0.22009347 -0.25956213 0.16950244 -0.05280494 0.81978595
0.38216567 -0.22246966 -0.26227587 0.34425306 -0.29573837 -0.050892796 -0.03970384 0.15452738
0.18069778 0.14043833 0.6368065 0.37826943 -0.21513763 0.12315059 -0.4183101 0.017584404
0.14118631 -0.033023205 -0.22984228 0.028713591 0.10536131 0.11596208 0.17392409 0.11630944
0.3235511 0.2983027 0.016956987 -0.045684308 -0.1724453 -0.2509648 -0.2098108 -0.13307896
-0.23372506 0.6334922 0.09003089 0.18695132 0.29369652 -0.006169569 0.103663325 -0.47917604
-0.14590916 0.07179091 0.39214525 0.1558372 0.008376632 0.103341356 -0.2395988 -0.120730765
-0.13716324 0.8611572 0.06565445 -0.36814088 -0.21239775 -0.21238627 -0.34410593 0.52236474
00000000: be36 1fbf 3249 523e 8b6b 18bf c9f3 7ebc
00000010: e386 b8bd 7518 9d3d ac80 36be 6635 8fbe
00000020: 30bc 6c3e 0cb0 9abe e559 293d 2d34 9a3e
00000030: f779 50be cef9 003f 76de 6a3d 750f c03e
00000040: 8b87 97be bc76 863e b31d 2f3e fcb4 d5bd
00000050: 036d 1ebf 32e7 90be af05 20bf 7be6 81be
00000060: 60de b4be 4b40 983e bb7b 8b3d 5e38 723e
00000070: 9735 eabd 5948 3e3d cd64 23be 2f91 42be
00000080: e790 003f e7b6 553e d159 adbe 61db 7fbe
00000090: e0fe c43d cb55 8ebd cf74 0fbf 4724 043f
000000a0: 2a6b d2be 6c3b 70bf 3a51 1c3f bc17 64be
000000b0: 2f4f e5be 3141 0fbe 8244 3f3f d380 d63d
000000c0: 071c a8bd 7e4e 43bf 775b 043e bc58 04bc
000000d0: b35c 6e3e 2f8a b4bd 614d 06bf 237f ce3c
000000e0: 0ba6 08bf bd46 8e3e 9cc6 8abe 534d cbbc
000000f0: 1e01 ea3e 16b4 41be e9a7 953e 3760 ebbe
00000100: b28d 533e 89f6 99be 275d 753e c6bd 013d
00000110: df18 2bbe eb5f aa3e 471b 98be b7df d53e
00000120: 415f bbbe c3ae 72be 4ec3 fabe 7be4 3d3f
00000130: 607c 8bbe 8da1 9c3d 1ede 8fbe 14fb 08bf
00000140: b1be 223d 107c 89bd 0f60 33bf 5373 b13c
00000150: 0759 55be 9783 19bf ef9b 6fbe 5692 e4be
00000160: 9a09 0cbf c3cd 8f3d 3707 333f d045 a43d
00000170: 34d1 cdbe c2c6 e9bd dacd cbbe 6537 bebd
00000180: 8635 383f 5ce9 ee3d 9966 d7bd e231 543e
00000190: 4414 c3be 923b ebbc 27ed 9cbe ec19 65be
000001a0: 0cf5 babe 2fce 06bf ef5c 013f dc43 a2be
000001b0: 86df 6dbf 2d96 54be ac0d 69bf 28de 4fbe
000001c0: bb7a 29be 9f06 fdbc e474 2d3f eddd f23e
000001d0: aed0 e33e 772d a3be daf6 bd3d 9157 753c
000001e0: e75d bf3e adf1 6dbf 0f53 05bd 61a3 52be
000001f0: 368b cf3e 49c4 12be cd8d 92be 445a 96be
00000200: fda7 9bbe 4422 9d3e 30a5 233f 22fb 223d
00000210: 8c17 a6bc c7ea 5dbe e5a0 ebbe edbe 79be
00000220: 890e efbe c357 7fbe 03e0 8d3c 7cf5 273e
00000230: ae67 8e3e 356a df3e a814 453e 561f de3e
00000240: 1311 00bf 0069 39be f6e6 d6be 7df6 b83e
00000250: d663 81be 3e85 b8be 6c06 db3e 8c4c 98be
00000260: c45d 433d 8217 65be fb75 d33e 70a8 c73d
00000270: 6e2f b43e c44e c03d 5fc9 3cbd f826 4bbe
00000280: 9fee 44bf 07a2 7dbe 6dd0 83be c5c0 4bbe
00000290: fd9a b7be 1fdf bd3e 6e5c a13d 9930 cd3e
000002a0: 6c25 64be 9afa 353f 67d0 703d ae81 a53e
000002b0: 638f a6bc debd d83e b9b4 b4be 7666 8c3c
000002c0: 1607 d6be 54c8 ba3e 61cd a33e c5fe 463d
000002d0: f045 88be 39a9 793c 0f9f 1cbe 4188 a0be
000002e0: 7838 cc3e 2003 963b ebcb 1ebe 92a8 edbc
000002f0: 514b 9a3c 15e0 3abe f2b7 a83e a79c a43e
00000300: 4fe6 253f 62b8 183e 4b71 523e 2f60 613e
00000310: 54e5 84be 0c92 2d3e fe49 58bd 7edd 513f
00000320: 38ab c33e 16cf 63be 0649 86be f041 b03e
00000330: 056b 97be f774 50bd 7ea0 22bd 6d3c 1e3e
00000340: d708 393e 11cf 0f3e c005 233f 88ac c13e
00000350: 0a4d 5cbe 6036 fc3d be2c d6be 2b0d 903c
00000360: 2593 103e 5743 07bd c65b 6bbe c438 eb3c
00000370: acc7 d73d 877d ed3d 2819 323e a533 ee3d
00000380: 7da8 a53e 22bb 983e 61e9 8a3c 781f 3bbd
00000390: 8095 30be 757e 80be a4d8 56be da45 08be
000003a0: 9f55 6fbe 8b2c 223f 1e62 b83d 2b70 3f3e
000003b0: 645f 963e 192a cabb 704d d43d 9056 f5be
000003c0: 3669 15be 1d07 933d 43c7 c83e c993 1f3e
000003d0: 243e 093c a2a4 d33d 6359 75be b141 f7bd
000003e0: 8574 0cbe cc74 5c3f d775 863d f67c bcbe
000003f0: cc7e 59be c97b 59be a72e b0be b2b9 053f

action_model._discrete_distribution.branches.0.bias f4 [3]
-1.5237622 1.1262699 0.0988425
00000000: a40a c3bf 9d29 903f f06d ca3d

action_model._discrete_distribution.branches.0.weight f4 [3, 128]
0.428746 0.7500831 -0.13577102 1.1948227 0.7832344 0.96769553 0.33115596 0.42936453
0.2404948 0.8776649 3.1012933 2.4254618 0.0024276422 0.8442246 0.20542063 1.4307772
0.64348394 0.32334295 -0.22662461 0.8937668 0.21599823 0.34753433 -0.47861788 0.1710474
-0.14128056 0.6174966 -2.7238717 -1.0443162 -0.20591918 0.3679303 -0.31062642 0.5671651
0.56091744 0.24493505 0.8409407 0.23914179 0.595832 0.41625983 0.2562734 0.7309615
0.52834064 -0.43150142 0.914006 0.31459126 0.048375674 -0.15376072 0.6186919 0.8421183
0.4215696 0.10134922 -0.26551294 0.031515438 0.96162796 -0.46813136 -0.7486335 0.8945825
0.22438855 0.6543386 0.23715745 0.30343243 -0.82154 1.035277 -0.31760812 -0.28281564
1.0126967 0.21052657 -0.33678022 0.10873501 -0.056464165 0.87203616 2.3762307 0.57162386
0.41575488 -0.26309928 0.15954636 0.7177611 -0.02104837 0.83037823 1.4956737 -0.2888491
-0.1566677 0.6072606 0.61868703 0.29408562 1.3144614 1.1529558 0.11559369 0.40474653
0.4989264 -1.4864163 0.6731856 0.15294796 0.07076298 -0.2611167 0.76632273 1.5226666
0.6094461 0.029073965 0.434373 0.83494574 0.48734903 0.50812113 0.50472516 0.1613036
0.7158282 -0.41253546 -0.99642944 0.8152872 -0.10121967 0.27866173 0.31966665 0.9742142
2.3229604 -1.0871061 0.3923042 0.5807809 0.11354563 -0.10138581 0.465156 0.52717435
0.53785396 -0.15956804 0.3457223 0.42332458 0.68480426 -0.117419206 0.33702663 0.44222724
-0.3211739 -0.06816024 0.59789443 -0.101599604 0.47135115 -0.7404945 -0.053528134 -0.56997436
-0.37626448 0.64554554 0.36896816 -1.0114467 0.2964203 -0.34636837 -0.31764403 -0.3997946
0.39745086 -0.015781587 -0.23001012 -0.5338925 0.29345924 -0.32681125 0.29284635 0.43009186
0.56616217 -0.88488823 0.7147247 0.10400424 0.15968585 -0.35033968 0.35382512 -0.6225159
-0.19190384 -0.9554697 0.24371333 -0.5804169 -0.22413684 -0.3743401 -0.04519592 -0.1423841
0.338397 1.1177188 -0.13698646 -0.21594676 0.6004871 0.06580765 -0.5739853 -0.10859132
-0.2705904 0.5838937 0.06755328 0.24530877 -0.5603151 0.67526466 0.25199896 -0.64855087
0.042844255 0.19844204 -0.09847318 -0.6170827 0.13008715 -0.07668257 0.18715948 0.31778017
-0.4609391 0.67193854 0.09601674 0.2104602 -0.17351606 -0.27419603 1.3619115 0.21634063
0.3901879 0.08737449 0.023289828 -0.62945855 -0.24617839 -0.6678419 0.12598793 0.6515223
0.24230255 -0.32969987 0.78839165 -0.006422731 0.410657 -0.15816033 -0.2846968 -0.14628027
0.23375139 -0.5477386 -0.2406146 -0.29524907 -0.26949894 0.15850858 0.285543 -0.30889037
-0.23730013 -0.33212534 0.92608184 -0.1718512 0.049772434 -0.3120208 -0.23137978 0.20256266
0.31472299 0.61361307 -0.39641032 -0.4004797 0.48276883 0.61529696 0.9668837 0.8897161
-0.18268637 -0.21079998 -0.15056798 0.6484354 -0.62864935 0.28617853 -0.03468928 -0.8267263
-0.056671534 1.0227263 1.609389 0.12689637 -0.52291447 -0.008730765 -0.30961412 -0.09708293
00000000: 9984 db3e 7205 403f 8f07 0bbe f3ef 983f
00000010: 0d82 483f e5ba 773f 468d a93e abd5 db3e
00000020: 4544 763e a6ae 603f 977b 4640 c43a 1b40
00000030: 1419 1f3b 1a1f 583f c959 523e b523 b73f
00000040: 5dbb 243f 358d a53e 4810 68be e7cd 643f
00000050: a42e 5d3e 05f0 b13e 670d f5be 0d27 2f3e
00000060: daab 10be 4214 1e3f ea53 2ec0 27ac 85bf
00000070: 7adc 52be 5c61 bc3e 6d0a 9fbe bb31 113f
00000080: 4998 0f3f 41d0 7a3e e447 573f 96e1 743e
00000090: 7288 183f 0220 d53e 4436 833e 4b20 3b3f
000000a0: 5541 073f c1ed dcbe 4cfc 693f 1b12 a13e
000000b0: 9225 463d 7373 1dbe 9862 1e3f 1195 573f
000000c0: f8d7 d73e 2e90 cf3d 50f1 87be 5516 013d
000000d0: 402d 763f eaae efbe 72a6 3fbf 5c03 653f
000000e0: 1dc6 653e bc82 273f 67d9 723e 7f5b 9b3e
000000f0: 7250 52bf f583 843f 889d a2be 36cd 90be
00000100: 0ca0 813f 4794 573e 756e acbe 76b0 de3d
00000110: f846 67bd c33d 5f3f 2a14 1840 f155 123f
00000120: d3dd d43e f3b4 86be 1f60 233e 31bf 373f
00000130: a26d acbc ab93 543f 3c72 bf3f 07e4 93be
00000140: 7f6d 20be 6e75 1b3f 4662 1e3f 6492 963e
00000150: 4540 a83f 0e94 933f 62bc ec3d f03a cf3e
00000160: 4873 ff3e e442 bebf e455 2c3f 649e 1c3e
00000170: 2eec 903d 17b1 85be ba2d 443f bde6 c23f
00000180: a904 1c3f 862c ee3c 2366 de3e 01bf 553f
00000190: d085 f93e 3a14 023f ab35 013f c52c 253e
000001a0: 8440 373f d937 d3be 0016 7fbf a9b6 503f
000001b0: 424c cfbd c0ac 8e3e 59ab a33e 1a66 793f
000001c0: 62ab 1440 4b26 8bbf 19dc c83e 0fae 143f
000001d0: 9c8a e83d 5da3 cfbd ed28 ee3e e6f4 063f
000001e0: ccb0 093f ce65 23be 8302 b13e 00be d83e
000001f0: 554f 2f3f 7b79 f0bd c18e ac3e 9c6b e23e
00000200: e870 a4be 9997 8bbd 9c0f 193f 7413 d0bd
00000210: f054 f13e 0c91 3dbf 5140 5bbd d7e9 11bf
00000220: bda5 c0be 7942 253f 65e9 bc3e 1677 81bf
00000230: 67c4 973e 3257 b1be 3da2 a2be e1b1 ccbe
00000240: ae7e cb3e 6348 81bc c687 6bbe 2ead 08bf
00000250: 4a40 963e ce53 a7be f5ef 953e 0035 dc3e
00000260: 01f0 103f 0988 62bf 33f8 363f 2d00 d53d
00000270: b084 233e b95f b3be 9128 b53e 345d 1fbf
00000280: 7182 44be aa99 74bf fd8f 793e 3496 14bf
00000290: 2184 65be 81a9 bfbe 5b1f 39bd 23cd 11be
000002a0: 5f42 ad3e 6911 8f3f 2e46 0cbe 2621 5dbe
000002b0: 86b9 193f 29c6 863d b3f0 12bf 2065 debd
000002c0: d38a 8abe 0f7a 153f 6059 8a3d 3932 7b3e
000002d0: cf70 0fbf 25de 2c3f 0206 813e 6e07 26bf
000002e0: 757d 2f3d 6434 4b3e 4eac c9bd 22f9 1dbf
000002f0: 9135 053e c00b 9dbd bca6 3f3e 15b4 a23e
00000300: 3600 ecbe 2a04 2c3f 6da4 c43d e182 573e
00000310: 32ae 31be 6c63 8cbe 1e53 ae3f 6688 5d3e
00000320: b5c6 c73e 66f1 b23d 4fca be3c 3224 21bf
00000330: 3016 7cbe b0f7 2abf fb02 013e 2aca 263f
00000340: 291e 783e 6cce a8be 09d4 493f c675 d2bb
00000350: a241 d23e c8f4 21be c7c3 91be 7fca 15be
00000360: 865c 6f3e 9938 0cbf ac63 76be e32a 97be
00000370: c4fb 89be 1350 223e b132 923e e126 9ebe
00000380: cefe 72be 550c aabe b313 6d3f c3f9 2fbe
00000390: 2ede 4b3d 31c1 9fbe d2ee 6cbe 966c 4f3e
000003a0: 5f23 a13e bf15 1d3f 4bf6 cabe ad0b cdbe
000003b0: 7a2d f73e 1a84 1d3f b185 773f 6fc4 633f
000003c0: 2312 3bbe f3db 57be 7e2e 1abe ddff 253f
000003d0: 2aef 20bf fe85 923e 5916 0ebd 56a4 53bf
000003e0: 6920 68bd b2e8 823f 7500 ce3f 1ff1 013e
000003f0: b9dd 05bf 7c0b 0fbc be85 9ebe 6ad3 c6bd

action_model._discrete_distribution.branches.1.bias f4 [3]
-0.33822203 0.68626213 -0.337858
00000000: 702b adbe e0ae 2f3f b9fb acbe

action_model._discrete_distribution.branches.1.weight f4 [3, 128]
1.1007699 -0.091413975 0.3691884 0.3853349 0.82611305 0.32732457 0.0935405 0.629944
0.5266447 -0.80381864 0.21403338 -1.5531673 -1.0140703 0.11494673 0.31379634 0.85688096
-0.18323846 0.17232494 -0.11063487 -0.7822448 -0.4437662 0.33404562 -0.23695631 0.6003666
-0.08846076 0.8908955 -0.9776996 0.2460031 -0.55280143 -0.06596644 0.25521395 0.2024801
0.5727685 0.7401969 -0.33294582 0.28003946 0.33152097 -0.3490964 0.5748803 0.22104803
0.28602245 -0.08308327 0.6158898 0.39994365 -0.4983603 -0.122999944 -0.113282904 -0.05549801
-0.07384098 -0.06605907 0.3530911 0.35998932 -0.8014249 0.4213066 -0.6727026 0.3746544
-0.49066937 0.3003265 0.20526789 -0.018989094 -0.73471576 -0.45471814 0.4014621 -0.1408248
0.28246224 0.3308143 0.3239822 0.33675003 0.20909928 0.021029843 0.1069365 0.14858711
-0.36588076 0.1717181 -0.032697365 -0.022086866 -0.02675796 0.28038797 0.06601782 -0.07322093
-0.25045985 -0.2459599 0.072902225 0.6416813 0.014611722 -0.8250808 -0.07998804 0.116825104
0.7404296 -0.61562055 -0.2961337 0.07245902 0.014267944 0.3471867 -0.21849841 0.70214695
0.14175953 -0.5295052 -0.1534572 -0.8950208 0.6410969 -0.16496707 0.07006238 0.73921496
-0.9683981 -0.7164529 0.26377752 -0.37880355 -0.11008254 -0.5691067 0.057047132 0.27399036
0.4710406 2.1674829 -0.3407317 -0.8308898 0.9203898 0.17357807 0.36027765 0.30235386
0.41255584 0.05971825 0.16815737 0.18321416 0.6698237 0.37487707 0.4252812 0.40046436
-0.047287703 -0.6031715 0.37004128 0.29313886 -1.0645509 -0.37353635 -0.60987324 -0.4214701
0.24495515 0.20272733 -0.6665129 0.3221641 0.12637043 -0.32985047 -0.8882964 -1.1319698
0.09998936 0.24725814 0.01711499 0.3409041 0.45424247 -0.118637264 0.33082435 -0.2674165
0.43762946 -1.0327018 -0.004204741 -0.09167878 0.16927245 0.12120675 -0.16646697 0.08874627
-0.04439144 -0.55809224 0.2888443 -0.071527354 -0.39666313 -0.08835897 -0.56548685 0.14111134
0.54320884 0.36853433 -0.5951069 0.3310253 0.6805286 0.7325558 -0.35702628 -0.011774234
-0.14242497 0.04868429 -0.5469755 0.13084516 -0.07647691 -0.17031005 0.07627003 -0.13996948
0.2932937 -0.28237212 0.1285885 0.04650568 0.22353445 -0.114819124 -0.50085175 -0.0013903939
0.32789811 -0.7406878 0.3876381 -0.54762554 -0.35245284 0.16312054 -0.39861342 0.3429253
0.31263286 0.24333525 0.08583715 -0.7352541 -0.15103124 0.22179638 0.15884407 0.12669009
-0.000827917 0.21265739 0.41024938 -0.39796808 0.21388866 0.3520234 0.14152259 0.23385118
1.2489504 0.48102763 -0.16110666 -0.015088563 0.27742544 0.29068682 0.085396916 -0.37010473
-0.10117201 0.26963577 0.4299058 -0.19013104 -0.40263766 -0.35432717 -0.23230106 0.15704368
0.40636045 0.6521737 0.00625643 0.3729561 0.45783833 -0.07411556 0.23320706 -0.5460427
-0.15681624 1.9433218 -0.57885265 0.49007958 -0.7870551 -0.013230761 0.10649651 0.25556272
-0.39126188 0.51364726 -0.045201886 -0.15073052 -0.5338646 -0.16378877 -0.10297417 0.4553906
00000000: 07e6 8c3f 4037 bbbd 4306 bd3e 9e4a c53e
00000010: 257c 533f 1697 a73e 2992 bf3d 0344 213f
00000020: 30d2 063f 0fc7 4dbf 912b 5b3e 30ce c6bf
00000030: 0ecd 81bf 3169 eb3d eaa9 a03e 8d5c 5b3f
00000040: dda2 3bbe f375 303e 8994 e2bd 3241 48bf
00000050: 5335 e3be 0708 ab3e ada4 72be a0b1 193f
00000060: ea2a b5bd ba11 643f 854a 7abf 3de8 7b3e
00000070: 6584 0dbf 6a19 87bd 67ab 823e f156 4f3e
00000080: f5a0 123f 8b7d 3d3f e077 aabe 5561 8f3e
00000090: 1ebd a93e c3bc b2be 5b2b 133f 6a5a 623e
000000a0: 8971 923e 9027 aabd f4aa 1d3f 6ac5 cc3e
000000b0: 1529 ffbe 65e7 fbbd de00 e8bd e251 63bd
000000c0: f139 97bd fa49 87bd 5bc8 b43e 8550 b83e
000000d0: 2f2a 4dbf 80b5 d73e 3d36 2cbf b4d2 bf3e
000000e0: 0439 fbbe 65c4 993e bf31 523e 048f 9bbc
000000f0: 5516 3cbf d1d0 e8be 718c cd3e 6034 10be
00000100: e49e 903e 7e60 a93e ffe0 a53e 806a ac3e
00000110: 1f1e 563e c746 ac3c 8601 db3d 3827 183e
00000120: b954 bbbe dfd6 2f3e aced 05bd 84ef b4bc
00000130: 8233 dbbc 038f 8f3e 5a34 873d dbf4 95bd
00000140: 463c 80be e9dc 7bbe c34d 953d 3a45 243f
00000150: 0166 6f3c 7f38 53bf c5d0 a3bd 0042 ef3d
00000160: cb8c 3d3f 4f99 1dbf d69e 97be 6565 943d
00000170: 18c4 693c 75c2 b13e 0cbe 5fbe e7bf 333f
00000180: 6929 113e a78d 07bf e223 1dbe 1520 65bf
00000190: ed1e 243f 21ed 28be dd7c 8f3d 313d 3d3f
000001a0: f0e8 77bf 7569 37bf d90d 873e 8af2 c1be
000001b0: f472 e1bd fab0 11bf 41aa 693d 7748 8c3e
000001c0: 3c2c f13e 0ab8 0a40 6374 aebe 32b5 54bf
000001d0: aa9e 6b3f 73be 313e 5076 b83e 20ce 9a3e
000001e0: 853a d33e 209b 743d 7231 2c3e 7e9c 3b3e
000001f0: 9179 2b3f e3ef bf3e 75be d93e aa09 cd3e
00000200: c0b0 41bd 7369 1abf 0d76 bd3e 4c16 963e
00000210: 3443 88bf 2840 bfbe a720 1cbf eeca d7be
00000220: 86d5 7a3e c197 4f3e 97a0 2abf b1f2 a43e
00000230: 4067 013e 29e2 a8be 6567 63bf 63e4 90bf
00000240: 39c7 cc3d 3d31 7d3e bc34 8c3c fb8a ae3e
00000250: 7892 e83e 18f8 f2bd cf61 a93e d1ea 88be
00000260: f810 e03e 932f 84bf edc7 89bb 16c2 bbbd
00000270: c255 2d3e 3f3b f83d 5176 2abe 9bc0 b53d
00000280: ccd3 35bd 22df 0ebf 66e3 933e ef7c 92bd
00000290: 6e17 cbbe 8cf5 b4bd bfc3 10bf 7e7f 103e
000002a0: bc0f 0b3f 88b0 bc3e ed58 18bf 267c a93e
000002b0: 1f37 2e3f c788 3b3f 26cc b6be b7e8 40bc
000002c0: dad7 11be 2e69 473d 9606 0cbf 46fc 053e
000002d0: ed9f 9cbd c265 2ebe 7633 9c3d 2954 0fbe
000002e0: 982a 963e 1493 90be b4ac 033e bd7c 3e3d
000002f0: 37e6 643e 4a26 ebbd d237 00bf e13d b6ba
00000300: 43e2 a73e b79d 3dbf 8078 c63e 3031 0cbf
00000310: b374 b4be 1209 273e 0f17 ccbe e893 af3e
00000320: 6a11 a03e e02c 793e 63cb af3d 9d39 3cbf
00000330: efa7 1abe 971e 633e 05a8 223e 0cbb 013e
00000340: 9208 59ba dcc2 593e 350c d23e 79c2 cbbe
00000350: a105 5b3e 693c b43e 4ceb 103e af76 6f3e
00000360: 9bdd 9f3f 4149 f63e 25f9 24be 0536 77bc
00000370: b50a 8e3e e7d4 943e 94e4 ae3d 5e7e bdbe
00000380: 4533 cfbd b30d 8a3e 9d1c dc3e b6b1 42be
00000390: 8626 cebe 5f6a b5be 54e0 6dbe 0fd0 203e
000003a0: 7a0e d03e dbf4 263f bd02 cd3b 1af4 be3e
000003b0: c969 ea3e e6c9 97bd d5cd 6e3e 74c9 0bbf
000003c0: 7094 20be c5be f83f b02f 14bf b6eb fa3e
000003d0: 717c 49bf d5c5 58bc d81a da3d 1ed9 823e
000003e0: 7a53 c8be 637e 033f 9d25 39bd 1a59 1abe
000003f0: 5aab 08bf 3eb8 27be 1fe4 d2bd f528 e93e

discrete_action_output_shape f4 [1, 2]
3.0 3.0
00000000: 0000 4040 0000 4040

network_body._body_endoder.seq_layers.0.bias f4 [128]
-2.7593958 -1.9082593 -2.3547368 -3.3004453 -1.549564 0.056239963 -1.2203345 -3.139606
-2.2373252 -1.044604 -1.7696077 -1.7629846 -2.7351139 -2.3909051 -2.9043357 0.8723748
-2.4383357 -3.0767365 -2.527132 -2.8574224 -2.4337227 -1.2885584 -1.9770722 -2.3003473
-1.8527455 -2.37996 -2.6376455 -2.7258635 -1.7243928 -2.8738942 -2.9479675 -1.933652
-3.0956411 -3.249661 -2.470595 -2.6314783 -2.9515195 -2.6481345 -3.0107217 -2.413743
-2.869983 -2.8235064 -0.45023823 -2.8743317 -2.3437603 -2.0780363 -2.156131 -1.6149172
-2.9607043 -1.8532655 -2.0121129 -2.3658237 -2.6076605 -2.7568371 -2.864991 -2.6554894
-2.0788152 -2.720843 -2.744223 -1.978823 -2.3478782 -2.103212 -2.9515386 -3.3143837
-2.8496997 -3.112838 -2.571685 -0.86831474 -1.9848852 -0.85880274 -2.4316657 -2.4393742
-3.1137464 -2.534491 -2.2059631 -2.8710968 -2.4956698 -1.9981003 -2.0768082 -2.7300498
-1.9004271 -2.3453093 -1.6270224 -3.077825 -2.2050576 -2.8496442 -2.1072676 -2.2073073
-2.4804068 -2.7641618 -1.801667 -1.6791314 -1.2196848 -1.9386382 -1.8344139 -2.8543863
-2.0296407 -2.7542334 -0.53503954 -1.8358141 -2.7596908 -2.6682844 -2.1026657 -3.0258331
-2.4827101 -2.8210013 -2.246376 -1.6636893 -2.5005019 -2.1984816 -2.2870727 -2.6253092
-3.1483839 -3.1047487 -2.533055 -2.4939306 -2.8114808 -2.8754234 -2.5107725 -2.8363702
-2.197193 -2.6540766 -1.9860036 -2.758986 -1.276851 -2.766617 -2.2686658 -2.387742
00000000: f199 30c0 d741 f4bf 02b4 16c0 7f3a 53c0
00000010: 1d58 c6bf e05b 663d ec33 9cbf 4eef 48c0
00000020: 5630 0fc0 95b5 85bf 8182 e2bf 7ba9 e1bf
00000030: 1b0c 2fc0 9704 19c0 a3e0 39c0 f453 5f3f
00000040: b10d 1cc0 40e9 44c0 88bc 21c0 02e0 36c0
00000050: 1dc2 1bc0 7bef a4bf b410 fdbf e438 13c0
00000060: c426 edbf 4451 18c0 2fcf 28c0 8c74 2ec0
00000070: e7b8 dcbf e2ed 37c0 80ab 3cc0 e981 f7bf
00000080: fc1e 46c0 72fa 4fc0 3a1e 1ec0 246a 28c0
00000090: b2e5 3cc0 097b 29c0 aaaf 40c0 c47a 1ac0
000000a0: cdad 37c0 54b4 34c0 a085 e6be 0df5 37c0
000000b0: 2b00 16c0 8cfe 04c0 0dfe 09c0 9bb5 cebf
000000c0: 2e7c 3dc0 ce37 edbf 75c6 00c0 a869 17c0
000000d0: e9e3 26c0 0570 30c0 035c 37c0 8af3 29c0
000000e0: 4f0b 05c0 4b22 2ec0 5aa1 2fc0 124a fdbf
000000f0: a343 16c0 079b 06c0 02e6 3cc0 dd1e 54c0
00000100: 7b61 36c0 bd38 47c0 7d96 24c0 e049 5ebf
00000110: b810 febf 7fda 5bbf 69a0 1bc0 b51e 1cc0
00000120: 9f47 47c0 1a35 22c0 802e 0dc0 0dc0 37c0
00000130: 0eb9 1fc0 c0c1 ffbf 6dea 04c0 23b9 2ec0
00000140: 3241 f3bf 8c19 16c0 4542 d0bf 16fb 44c0
00000150: aa1f 0dc0 9260 36c0 79dd 06c0 8644 0dc0
00000160: fcbe 1ec0 07e8 30c0 069d e6bf c7ed d6bf
00000170: a21e 9cbf 4c25 f8bf 13ce eabf 44ae 36c0
00000180: a2e5 01c0 5c45 30c0 5af8 08bf f5fb eabf
00000190: c69e 30c0 2cc5 2ac0 1392 06c0 40a7 41c0
000001a0: b9e4 1ec0 498b 34c0 a0c4 0fc0 c5f3 d4bf
000001b0: 3908 20c0 ecb3 0cc0 665f 12c0 1105 28c0
000001c0: 1f7f 49c0 34b4 46c0 931d 22c0 8f9c 1fc0
000001d0: 4def 33c0 f006 38c0 7fb0 20c0 1787 35c0
000001e0: cf9e 0cc0 64dc 29c0 5e35 febf 3a93 30c0
000001f0: db6f a3bf 4110 31c0 d231 11c0 c4d0 18c0

network_body._body_endoder.seq_layers.0.weight f4 [128, 13]
0.7784018 0.63750315 0.34431827 -0.39190832 0.261853 0.40497002 0.17198879 -0.5974401
0.10652412 -0.05202324 0.24283996 -0.101721115 0.101152614 -0.025602046 -0.8609102 -0.6628349
0.5527997 -0.10550796 -0.88836783 0.32577893 0.3054699 -0.8325024 -0.16872953 -0.36573663
-0.87288904 0.10457663 0.80889297 -0.21979114 0.8476973 -0.21983352 -0.5974193 0.48326156
-0.13681856 0.22383133 -0.12920034 0.14441924 0.048348054 0.16606668 -0.34074607 -0.2533923
0.41707468 0.14322618 -0.017764205 -0.36825377 0.08910638 0.24293134 -1.0004181 0.8303186
-0.59269947 0.2984176 -0.19704846 -0.46356806 0.20106205 -0.070221595 0.25665998 0.29511
0.44152007 -0.16767256 -0.039100736 0.22198328 -0.17259061 0.48676488 0.0012554666 -0.51611114
0.6109603 0.43254912 1.0484449 -0.13290879 0.76894236 0.20202246 -1.6606276 0.19450286
1.3154974 1.6259933 -0.4044663 0.52326125 0.08905175 -0.0707694 -0.14373326 -0.85285026
0.17646092 0.873913 0.0814132 -0.24514507 -1.5321203 -0.13473274 0.37046558 -0.5664141
0.66435325 1.3988186 -0.360644 0.087236926 -0.85395664 0.7013753 0.33782306 0.1494424
0.1891309 -0.3412468 0.028965365 -0.0052159503 -0.40020233 0.83780897 0.55228984 -0.6965992
-0.15006796 -0.1747694 -0.76991695 0.91941357 -0.26336393 -0.5766861 0.6687526 0.26062718
-0.18838349 -0.47076467 -0.3902332 -0.8779986 0.513686 0.12066809 -0.9494875 -0.15578656
0.40982434 -0.14631158 0.034186617 -1.2805396 0.15834896 0.35479137 -0.32402033 -0.14986297
0.6744529 -0.2629477 0.15249208 -0.24268596 -0.26052347 1.2051387 0.03496904 -0.72861403
-0.1526805 -0.5576602 -0.5864869 0.056030035 0.27334848 -0.5063772 0.54604495 0.3262287
0.3711265 0.36206555 -0.5485085 -0.37750864 0.73059905 0.25177404 -0.05639818 0.24779254
-0.2518952 0.32085973 -0.4954653 0.13311087 0.5827016 0.4372972 0.2673826 -0.4714062
0.041491456 0.32938647 -0.38905346 -0.41683918 0.3079795 0.0021545347 0.36375058 -0.29582924
0.05880884 0.4989047 -0.30884558 0.3334886 -0.06210551 -0.029483879 -0.22247978 -0.0042476947
-0.07597296 0.3325879 -0.27580604 0.10736486 -0.6335557 -0.48952225 0.43822962 -0.31498364
-0.15406707 -0.26710725 -0.37697113 0.36187434 0.025284825 0.040005144 0.42605996 -0.90548754
0.018872734 0.18166205 -0.3543632 0.5467815 1.3455087 0.2805713 0.9188445 0.2446934
-1.9657675 0.1661575 0.8751729 1.9268131 -0.5073397 0.06124906 -0.3922446 -0.19980973
0.3858663 -0.34286493 0.020762358 -0.2590948 -0.0947498 -0.32345217 0.20366503 -0.058876026
0.263558 -0.96346486 0.05875864 -0.009957526 -1.0655897 0.65674406 -0.35977307 0.687018
-0.18129674 0.28010604 0.23972586 -0.19633497 -0.39354944 0.22119786 -0.51866287 0.2903746
0.14487584 -0.109305434 1.0422667 -0.055222243 0.56042916 -0.4450766 0.282411 0.20603661
0.2554092 -0.3033056 -0.052730642 -0.21343258 0.19854756 -0.4829872 0.061049376 0.30403835
-0.1356958 0.47134823 -0.34529075 0.17134833 0.20946884 -0.549129 -0.48176336 0.3102976
00000000: 5745 473f 6833 233f 7c4a b03e 35a8 c8be
00000010: 9911 863e 3b58 cf3e d41d 303e d6f1 18bf
00000020: 5129 da3d 5216 55bd 0aab 783e 2953 d0bd
00000030: 1a29 cf3d 62bb d1bc 9c64 5cbf 8caf 29bf
00000040: 4884 0d3f 8f14 d8bd 136c 63bf 7fcc a63e
00000050: 8d66 9c3e e11e 55bf 6fc7 2cbe d541 bbbe
00000060: a875 5fbf 462c d63d 9c13 4f3f ee10 61be
00000070: b102 593f 0a1c 61be 79f0 18bf 0f6e f73e
00000080: 2a1a 0cbe 0a34 653e 184d 04be a3e2 133e
00000090: 9c08 463d 620d 2a3e 4576 aebe a3bc 81be
000000a0: d08a d53e e2a9 123e 3d86 91bc c28b bcbe
000000b0: 687d b63d fec2 783e b30d 80bf c38f 543f
000000c0: 27bb 17bf 31ca 983e 12c7 49be cb58 edbe
000000d0: 36e3 4d3e 57d0 8fbd f068 833e a818 973e
000000e0: eb0e e23e 5bb2 2bbe 1828 20bd 964f 633e
000000f0: 98bb 30be 3f39 f93e 788e a43a dc1f 04bf
00000100: e567 1c3f 1477 dd3e 7133 863f 3e19 08be
00000110: 68d9 443f fade 4e3e 728f d4bf c22b 473e
00000120: 3862 a83f 8c20 d03f 3516 cfbe 73f4 053f
00000130: c460 b63d 8cef 90bd d02e 13be 6554 5abf
00000140: 2cb2 343e c3b8 5f3f f7bb a63d 4f07 7bbe
00000150: 851c c4bf 61f7 09be aaad bd3e 8400 11bf
00000160: 0e13 2a3f 7d0c b33f 55a6 b8be 46a9 b23d
00000170: e79c 5abf 558d 333f 25f7 ac3e 6e07 193e
00000180: 88ab 413e e7b7 aebe c648 ed3c 90ea aabb
00000190: 52e7 ccbe a67a 563f de62 0d3f 5354 32bf
000001a0: 6aab 19be c0f6 32be 4719 45bf b05e 6b3f
000001b0: a3d7 86be b3a1 13bf 5f33 2b3f ed70 853e
000001c0: 9ae7 40be 1108 f1be a5cc c7be 84c4 60bf
000001d0: ed80 033f d520 f73d 9d11 73bf 8386 1fbe
000001e0: 7fd4 d13e b4d2 15be 4407 0c3d b9e8 a3bf
000001f0: 3b26 223e 37a7 b53e fee5 a5be ae75 19be
00000200: f2a8 2c3f 15a1 86be e226 1c3e ab82 78be
00000210: 5563 85be fc41 9a3f b23b 0f3d 7386 3abf
00000220: 4758 1cbe d2c2 0ebf 0124 16bf c07f 653d
00000230: 55f4 8b3e f0a1 01bf 9ac9 0b3f 7307 a73e
00000240: 4b04 be3e a860 b93e 0e6b 0cbf d048 c1be
00000250: 8a08 3b3f 87e8 803e c701 67bd 54bd 7d3e
00000260: 68f8 80be ba47 a43e a1ad fdbe 374e 083e
00000270: ef2b 153f 6be5 df3e 5fe6 883e 275c f1be
00000280: f2f2 293d 58a5 a83e 0432 c7be f26b d5be
00000290: 7daf 9d3e 1833 0d3b 843d ba3e ee76 97be
000002a0: 8ae1 703d 7070 ff3e 0221 9ebe 05bf aa3e
000002b0: 5962 7ebd 2d88 f1bc bdd1 63be 3f30 8bbb
000002c0: b697 9bbd f648 aa3e 7336 8dbe 1ce2 db3d
000002d0: b530 22bf a9a2 fabe a25f e03e 8945 a1be
000002e0: c2c3 1dbe 48c2 88be 5c02 c1be 9847 b93e
000002f0: 1f22 cf3c 6fdc 233d 8824 da3e 08ce 67bf
00000300: fe9a 9a3c 9e05 3a3e 186f b5be dff9 0b3f
00000310: a139 ac3f 0ba7 8f3e 6539 6b3f e890 7a3e
00000320: 459e fbbf 3125 2a3e 550b 603f d0a1 f63f
00000330: 04e1 01bf 4be0 7a3d 49d4 c8be ec9a 4cbe
00000340: 4590 c53e fe8b afbe d215 aa3c 13a8 84be
00000350: 2f0c c2bd 869b a5be 918d 503e fd27 71bd
00000360: 13f1 863e a2a5 76bf e6ac 703d e424 23bc
00000370: 3e65 88bf 6120 283f 2d34 b8be 69e0 2f3f
00000380: daa5 39be 0f6a 8f3e b27a 753e 090c 49be
00000390: 507f c9be b181 623e 17c7 04bf fbab 943e
000003a0: 555a 143e 87db dfbd ff68 853f b830 62bd
000003b0: 4978 0f3f 15e1 e3be 2d98 903e 43fb 523e
000003c0: ffc4 823e df4a 9bbe 16fc 57bd 128e 5abe
000003d0: 0d50 4b3e 194a f7be e90e 7a3d eaaa 9b3e
000003e0: d7f3 0abe 8e54 f13e f3c9 b0be f075 2f3e
000003f0: 007f 563e b893 0cbf b0a9 f6be 54df 9e3e

network_body._body_endoder.seq_layers.2.bias f4 [128]
-1.7080334 -1.1548511 -2.3139482 -1.4111207 -1.127847 -0.9622788 -0.57734483 -2.240227
-1.2737175 -0.8666677 -0.95396256 -0.9972276 -2.8425267 -1.1814997 -0.37726048 -0.60281086
-0.36980307 -1.2095506 -0.5382634 -1.5518715 -0.78359395 -0.68018913 -2.0392292 -0.5603001
-1.1172069 -0.7314819 -0.82517004 -1.8969343 -1.9696943 -1.1308241 -1.4244355 -1.0570142
-0.9992358 -0.578774 -0.82523793 -1.0274875 -0.72788984 -1.155397 -0.54463494 -1.169981
-1.0717698 -1.981626 -1.1803049 -1.7698239 -2.0565054 -1.915228 -0.63752764 -0.86414164
-0.3264113 -1.9716476 -1.3406721 -1.1851661 -0.8964484 -1.7633451 -1.9032639 -1.1104171
-2.3487911 -0.8150189 -1.1245009 -1.1952406 -1.3259387 -0.9475076 -1.4509802 -0.99973506
-1.9988426 -1.453369 -1.6768657 -1.7323359 -0.67161584 -1.74271 -1.4777281 -1.3387034
-0.9928903 -0.77275956 -1.9435185 -1.8573344 -1.2067604 -1.3876442 -0.9334644 -0.49886546
-1.4723501 -0.8556963 -1.6656858 -1.4526786 -0.7624264 -1.0858096 -0.9315831 -2.1302037
-1.9748684 -0.7609626 -1.1039304 -0.5309071 -0.9620632 -1.0879924 -1.9373976 -2.5412579
-1.3545586 -1.5070555 -0.7682302 -0.86101586 -1.7522535 -0.66553605 -1.5064821 -1.018542
-1.4447682 -1.476798 -1.044792 -2.223181 -1.570143 -1.3458481 -1.6274786 -0.44666603
-1.2968273 -1.9833155 -1.0128416 -1.607196 -1.0383167 -1.6803799 -0.6999108 -1.2635717
-1.0821396 -1.8080275 -0.8327834 -1.036216 -0.9509922 -2.2229595 -0.66655093 -1.8532732
00000000: d7a0 dabf 29d2 93bf ba17 14c0 9a9f b4bf
00000010: 4a5d 90bf e757 76bf dfcc 13bf e15f 0fc0
00000020: 2d09 a3bf efdd 5dbf e436 74bf 4f4a 7fbf
00000030: f5eb 35c0 623b 97bf 4928 c1be d051 1abf
00000040: d456 bdbe 8ed2 9abf a1cb 09bf baa3 c6bf
00000050: 9d99 48bf e020 2ebf bb82 02c0 d46f 0fbf
00000060: a300 8fbf 6642 3bbf 583e 53bf bece f2bf
00000070: f11e fcbf d8be 90bf e753 b6bf 3e4c 87bf
00000080: ebcd 7fbf 882a 14bf cb42 53bf b684 83bf
00000090: fd56 3abf 0de4 93bf 326d 0bbf f0c1 95bf
000000a0: c12f 89bf eca5 fdbf 3b14 97bf 9789 e2bf
000000b0: c99d 03c0 3126 f5bf 0335 23bf 6338 5dbf
000000c0: 621f a7be f35e fcbf 259b abbf 86b3 97bf
000000d0: a47d 65bf 4bb5 e1bf 279e f3bf 2622 8ebf
000000e0: 9852 16c0 14a5 50bf a5ef 8fbf a5fd 98bf
000000f0: 5cb8 a9bf dc8f 72bf b8b9 b9bf a3ee 7fbf
00000100: 13da ffbf ff07 babf 89a3 d6bf 2fbd ddbf
00000110: 04ef 2bbf 1f11 dfbf 3226 bdbf a25a abbf
00000120: 0f2e 7ebf 92d3 45bf 37c5 f8bf 22bd edbf
00000130: 2077 9abf 539e b1bf 86f7 6ebf 4b6b ffbe
00000140: f875 bcbf ea0e 5bbf 3135 d5bf 5ff1 b9bf
00000150: 602e 43bf cffb 8abf 3b7c 6ebf 4255 08c0
00000160: 7dc8 fcbf 72ce 42bf 974d 8dbf 87e9 07bf
00000170: c649 76bf 5643 8bbf a5fc f7bf f8a3 22c0
00000180: 2d62 adbf 32e7 c0bf bcaa 44bf 896b 5cbf
00000190: d849 e0bf 9260 2abf 68d4 c0bf 965f 82bf
000001a0: 2aee b8bf b807 bdbf bfbb 85bf 9948 0ec0
000001b0: 72fa c8bf c044 acbf 3851 d0bf 69b1 e4be
000001c0: 70fe a5bf 48dd fdbf cba4 81bf 99b8 cdbf
000001d0: 90e7 84bf b016 d7bf 5b2d 33bf b8bc a1bf
000001e0: 8d83 8abf 726d e7bf 4b31 55bf baa2 84bf
000001f0: 3a74 73bf f844 0ec0 15a3 2abf 0e38 edbf

network_body._body_endoder.seq_layers.2.weight f4 [128, 128]
1.0333767 -0.39799598 0.5427315 -0.40006903 0.7929411 -0.94827586 -0.7976201 -0.95971817
0.06501422 -0.5361377 -0.69870514 0.41388735 0.36646456 0.40610775 -0.33087292 -0.86431324
-0.42014918 0.13600598 0.4090983 0.47441417 0.8888297 0.015172405 1.1898502 -0.037426706
-0.41811657 0.8562397 0.13930328 0.4603921 -0.5608772 0.8770496 -0.18981037 0.2691316
0.23526537 -0.13487768 0.2191647 -0.115140036 -0.026465755 0.87841475 0.11211134 -0.49386603
-0.01985962 1.882007 -1.4395311 0.118256904 0.6629247 1.996053 1.1180619 0.7779043
0.27919495 -0.017240033 0.54066443 -0.03408813 -0.29770383 -0.25993738 -0.36773404 -0.49534252
0.30117446 0.33743343 0.46243924 -0.8720072 0.17786746 0.92709935 0.044457503 -0.3445512
0.63455045 0.367945 0.031095615 -0.87997615 1.4488455 0.24174426 0.19541404 0.47252116
0.40789628 -0.5316443 0.37581524 0.60689604 -0.6304289 0.81606495 0.44591856 -0.021541577
-0.8192353 -0.20799668 0.5334728 0.39130643 0.61817217 -0.55850875 0.20567596 1.080762
0.3329799 0.5511233 -0.28098866 0.89028925 0.053257894 -0.22814976 0.97191465 -0.56238025
-0.72428465 0.3097549 -0.7082863 -0.4739536 0.16967118 -0.04140678 0.731399 0.38553223
0.3162836 0.7594122 0.46831647 1.2032297 -1.3212756 1.2484072 0.6446025 0.06783433
0.67474496 -0.21071348 0.51267874 0.401394 0.33863682 -0.18138433 0.08733611 0.31569403
-1.4605399 -0.35007855 0.7394579 -0.13941902 1.2732918 -0.6564589 1.5843166 0.61514705
0.34770605 -0.4603714 0.4723857 0.35548374 0.61375767 -0.6773333 0.0040904623 -0.06028916
0.22471519 -1.1288962 0.37550595 0.9583116 0.86956435 0.34552908 -0.045115355 -1.2053218
-0.23606437 0.11229214 0.5694995 -0.08928821 0.7233379 -0.23380215 0.79881465 0.1974346
-0.3984263 0.6799693 0.12365808 -0.16606236 0.23017411 0.59301484 -0.56634104 0.47400004
0.47090077 -0.28416136 0.15896516 0.20653981 -0.6361081 1.0099583 0.40657747 0.3985948
-0.29763138 0.81549346 0.12577209 1.0195774 0.80520785 0.71966213 0.88671565 0.36590746
0.15048136 0.87824 0.7988313 0.63138324 1.3610239 0.36066064 0.19723684 -0.2549859
0.24631956 0.5957686 0.5636782 0.44274747 0.8704559 1.0140707 -0.083139576 0.17692898
0.77434176 0.7475747 0.37343892 -0.41025737 -0.14906722 -0.17398147 0.5433541 1.0075288
-0.0688922 0.33087012 0.6658823 0.9041594 0.28169593 0.8465667 1.2095273 0.31322363
-0.13993643 -0.68255424 0.16530554 0.50300914 0.59601617 0.32520953 0.61986756 0.49019197
0.95839715 0.1078642 0.34751192 0.75946945 0.16271736 -0.3357924 0.27777246 0.45900947
0.034597155 0.37746558 0.4664864 -0.2306906 0.94339895 0.3601781 -0.041828837 0.7643938
0.6542539 0.5837059 0.2771956 0.72237486 0.22134615 0.7911443 0.6705385 0.59112066
0.3963442 0.42407522 0.5782931 0.529448 0.050285473 0.36461732 -0.28517437 0.59800905
0.29777163 0.3380917 0.79021084 0.13555557 -0.115102 0.9293544 0.8466732 0.49255404
00000000: b045 843f 21c6 cbbe 74f0 0a3f d9d5 ccbe
00000010: 30fe 4a3f 35c2 72bf d530 4cbf 17b0 75bf
00000020: 2d26 853d 5240 09bf 57de 32bf 0be9 d33e
00000030: 3ea1 bb3e 5bed cf3e 2d68 a9be a243 5dbf
00000040: cb1d d7be 2745 0b3e 5575 d13e 6ae6 f23e
00000050: 588a 633f ae95 783c 034d 983f bf4c 19bd
00000060: 6013 d6be 8632 5b3f 85a5 0e3e 83b8 eb3e
00000070: a695 0fbf 5386 603f a65d 42be 9ecb 893e
00000080: 68e9 703e 601d 0abe b66c 603e 8ace ebbd
00000090: b6ce d8bc cadf 603f a19a e53d 02dc fcbe
000000a0: a4b0 a2bc 9be5 f03f 8e42 b8bf ad30 f23d
000000b0: 6fb5 293f aa7e ff3f a71c 8f3f bc24 473f
000000c0: a4f2 8e3e f83a 8dbc fc68 0a3f ff9f 0bbd
000000d0: a36c 98be 8316 85be a347 bcbe 899d fdbe
000000e0: 8a33 9a3e 13c4 ac3e d6c4 ec3e dd3b 5fbf
000000f0: e322 363e 6256 6d3f 1219 363d 0469 b0be
00000100: e671 223f 4963 bc3e 3bbc fe3c 1e46 61bf
00000110: c573 b93f cf8b 773e 9e1a 483e 4bee f13e
00000120: c8d7 d03e d719 08bf db6a c03e 8a5d 1b3f
00000130: ca63 21bf a2e9 503f 704f e43e f677 b0bc
00000140: 68b9 51bf 15fd 54be ac91 083f 5159 c83e
00000150: 8840 1e3f 6efa 0ebf b89c 523e 6956 8a3f
00000160: 577c aa3e 6b16 0d3f bfdd 8fbe ffe9 633f
00000170: f324 5a3d 17a0 69be 66cf 783f 27f8 0fbf
00000180: b86a 39bf 3298 9e3e 4052 35bf 0caa f2be
00000190: 48be 2d3e 289a 29bd f73c 3b3f 7b64 c53e
000001a0: edef a13e d768 423f 2dc7 ef3e 6e03 9a3f
000001b0: 8f1f a9bf cfcb 9f3f ab04 253f baec 8a3d
000001c0: 16bc 2c3f 46c5 57be ea3e 033f 8483 cd3e
000001d0: ce61 ad3e d0bc 39be 46dd b23d a6a2 a13e
000001e0: f9f2 babf 7f3d b3be 1d4d 3d3f dcc3 0ebe
000001f0: 3afb a23f b10d 28bf e3ca ca3f 477a 1d3f
00000200: 8706 b23e cdb5 ebbe 8adc f13e f701 b63e
00000210: 391f 1d3f b765 2dbf 4909 863b c4f1 76bd
00000220: bd1b 663e ac7f 90bf 5142 c03e e953 753f
00000230: c59b 5e3f 30e9 b03e e1ca 38bd fc47 9abf
00000240: dcba 71be 6cf9 e53d b8ca 113f bddc b6bd
00000250: ac2c 393f d569 6fbe 1e7f 4c3f 4c2c 4a3e
00000260: 88fe cbbe 7812 2e3f 7340 fd3d 400c 2abe
00000270: c3b2 6b3e d2cf 173f bafb 10bf 22b0 f23e
00000280: e819 f13e 997d 91be c3c7 223e 2c7f 533e
00000290: fbd7 22bf 5046 813f ec2a d03e 9e14 cc3e
000002a0: 2463 98be 2ec4 503f 66ca 003e 8381 823f
000002b0: 1a22 4e3f c73b 383f ccff 623f 3958 bb3e
000002c0: c917 1a3e 56d4 603f 3580 4c3f 55a2 213f
000002d0: 0836 ae3f 83a8 b83e 74f8 493e 838d 82be
000002e0: 323b 7c3e 4a84 183f 374d 103f ccaf e23e
000002f0: 33d6 5e3f 12cd 813f 1545 aabd df2c 353e
00000300: 433b 463f 0e61 3f3f 6333 bf3e 410d d2be
00000310: 14a5 18be 3328 32be 4119 0b3f b4f6 803f
00000320: 5b17 8dbd cf67 a93e 4377 2a3f fe76 673f
00000330: 733a 903e 98b8 583f cad1 9a3f d95e a03e
00000340: 7f4b 0fbe e0bb 2ebf db45 293e 35c5 003f
00000350: 8494 183f dd81 a63e a4af 1e3f 71fa fa3e
00000360: 8459 753f e8e7 dc3d 15ed b13e 976c 423f
00000370: 619f 263e fbec abbe 3138 8e3e 4a03 eb3e
00000380: bfb5 0d3d 2b43 c13e 4ed7 ee3e 283a 6cbe
00000390: 9882 713f 4469 b83e b754 2bbd 50af 433f
000003a0: 2f7d 273f c06d 153f 95ec 8d3e 8fed 383f
000003b0: 91a8 623e 6f88 4a3f 69a8 2b3f af53 173f
000003c0: a1ed ca3e 6320 d93e 040b 143f e789 073f
000003d0: 24f8 4d3d 1faf ba3e 6002 92be 1f17 193f
000003e0: 8675 983e 5b1a ad3e 424b 4a3f 14cf 0a3e
000003f0: 99ba ebbd 2cea 6d3f 93bf 583f 0b30 fc3e

network_body.observation_encoder.processors.0.normalizer.running_mean f4 [13]
472.36066 798.8693 522.02374 1234.5969 0.0 937.86316 488.00217 628.8835
547.75836 40.891556 17.024124 -30.691977 89.09888
00000000: 2a2e ec43 a3b7 4744 8581 0244 1a53 9a44
00000010: 0000 0000 3e77 6a44 4700 f443 8b38 1d44
00000020: 89f0 0844 f490 2342 6831 8841 2b89 f5c1
00000030: a032 b242
