results/EasyMapAgent2/My Behavior/My Behavior-999744.onnx (onnx, 81381 bytes, 14 tensors)

77 f4 [13]
00000000: 0b32 8343 e204 1144 f64a 6843 b56e 7244
00000010: b616 833a dcc7 2244 d896 8e43 ba31 e643
00000020: 9cbf 8c43 0a8f cb42 35d0 7442 7d60 ae43
00000030: 4636 2943
262.39096 580.0763 232.29282 969.7298 0.0010001275 651.1228 285.17847 460.3885
281.49695 101.77937 61.203327 348.7538 169.212

action_model._continuous_distribution.log_sigma f4 [1, 2]
00000000: cba4 78be b034 14bf
-0.24281614 -0.57892895

action_model._continuous_distribution.mu.bias f4 [2]
00000000: 6313 cebe 2135 833e
-0.40249166 0.25626472

action_model._continuous_distribution.mu.weight f4 [2, 128]
00000000: 2439 1bbf 7d1c 8d3e be54 babe 2f80 84be
00000010: 48ac 783d a9a3 8fbe bd00 e8be 77e7 09bf
00000020: 7a47 253d efae aebe 0367 93bd dad3 04be
00000030: 2ecd e33d 6da1 c63e 3dd2 9bbd 97dd 723f
00000040: 199d bdbe 8f82 163e 6776 ebbe d622 3dbe
00000050: a527 1fbf 5dac c2be 4f8b 1cbf 9ffa afbe
00000060: 7477 01be 3c16 c73c d42b a23e 08c8 ae3e
00000070: 1eea c53d ad05 82bd 9909 5ebe 73b3 d3be
00000080: 19a0 ec3e bdad 3e3c 662d 9ebe fdf2 99be
00000090: 507d 35be 640d a53d 2749 c8be 4d4c c83e
000000a0: a65a b3be cfc5 52bf 543a 3e3f 46e9 79bd
000000b0: 36eb 5c3d 5d8a a7bd 2000 343f 4562 e93c
000000c0: 3c2c b73d c8ea d5be 8390 f6be f555 8dbe
000000d0: 3e86 763d 2ced 6fbe 4622 dbbd 0651 47be
000000e0: 39f5 26be e1cc c93d 5db0 febe c773 1bbe
000000f0: 1eab 2f3f f147 d0be 7d5e b03e 29e2 9abe
00000100: 9be0 1a3e 9556 b0bd 270e 433c 6c80 a9bd
00000110: 563f 47be 68d4 8f3e 99b6 a3be f7e1 f33e
00000120: e046 bdbd 9246 b1be 952f d4be 176b 5b3f
00000130: d786 cabe bfb4 383e e46e c4be 11bc 29bf
00000140: 4437 5abd 9a5f 91be c0c8 22bf 9544 b2be
00000150: 84c6 a4be 6238 12bf 747f d5be 1a84 acbe
00000160: a443 c2be 43af ef3c af97 663f 5fbe 3f3e
00000170: 6916 a1be d8e6 6c3c 8e26 32be 3eaa 4e3d
00000180: 15b9 243f a895 ea3e f96c e1bd 95a4 043e
00000190: dad4 11be e6f0 fabc 310a 6cbe e329 83be
000001a0: 9c35 0fbf 5654 9bbe 5bd4 cb3e 4438 c5bd
000001b0: 3861 17bf ef00 be3d 8cc1 24bf d114 46be
000001c0: e291 4bbe dbf5 6bbd e2cb f03e 096f 423f
000001d0: d4f3 503e 57c9 81be 5494 0cbc ae8e 033e
000001e0: 459d 3cbe 271a 82bf 6510 283d f649 45be
000001f0: 9d8a 7fbd 4b5a 8dbe eb1e c2be c678 d6bd
00000200: 90e8 a6be 5c31 fb3d 9279 473f a9b2 87be
00000210: cd2c 5ebe fb97 7fbe d741 cebe bc43 85be
00000220: 1a81 06bf 4721 a63d 65ab f1bd 8150 183e
00000230: 50bc e43e 342a b13e 678f fc3e 8451 093e
00000240: d736 fdbe e138 0dbe 1050 6dbe 2f90 a13e
00000250: bb6a 59be c81c a4be 3d90 173f 939a 2ebc
00000260: 8d45 08bc 1871 f9bd 4515 2abe 8a0f 953d
00000270: 7cf5 c93e 8ff3 983e ae78 babe 6728 b1be
00000280: 52c1 7abf 498e d8bd 41a2 73be 28ef 0cbf
00000290: 1179 84be 4daf 213f 5e19 a83e 1a53 d83e
000002a0: 76cc 39bf b993 4e3f dd4c 63bd 5118 a2be
000002b0: cbc7 953e 3ba7 1a3f d0d5 a8bd f082 233e
000002c0: c024 a5be 5fe0 163f 0b1e c03d 08d1 abbe
000002d0: 12f3 8bbe 9d08 8fbe e71c 15be ce0e adbe
000002e0: 53ea e03e 575e 113e 3754 7fbe c37d 58be
000002f0: 1973 67bf abe5 98be 0d06 a13d dabc bc3e
00000300: ccf5 193f ab3a dabc 03fc a23e 7a4c c33d
00000310: c51e 0fbe af6f 823e 03c2 87bc 8bce 843e
00000320: c008 113f 0d82 88be 7739 57be 8142 ec3d
00000330: 0077 8ebe a2a6 a4be c9f9 dd3c 279a 143f
00000340: 6b91 01be 63cc a33e ff19 943f d216 6c3e
00000350: 49d0 58bd fdca babd 56ec 8abe 2d13 8ebd
00000360: 0bd6 bc3d 02c8 2b3d 2bc4 3fbd eb32 193e
00000370: 20c8 c7bd 2ccc e4be da13 06bc 68bf 4a3e
00000380: cab2 913d 2170 173f 6f69 c53c 1824 6b3e
00000390: 8834 86be 66e9 08be 2915 76be 1dbc f0be
000003a0: da67 2cbd a2e4 393f 4936 81be 9f46 dc3d
000003b0: 89c5 be3e 077b 3abe 30b6 9e3d 2e75 40be
000003c0: 28e1 80be 510a b33d ac27 bf3e de7d 933d
000003d0: 6f63 083d d76e bfbc 68c2 81be e7a8 b6bd
000003e0: 9880 92be 740f 8e3f 9375 843d 45b1 cebe
000003f0: a697 9cbd 594d abbe ffe6 a9be 879d 2e3f
-0.60634065 0.27560797 -0.36392778 -0.25879046 0.060711175 -0.2805455 -0.45313063 -0.5386881
0.04035137 -0.3411784 -0.07197382 -0.1297144 0.11123119 0.38795033 -0.07608459 0.9486937
-0.37033918 0.14698242 -0.4598877 -0.1847032 -0.6216987 -0.38022128 -0.6115007 -0.34370896
-0.12643224 0.024302594 0.31674063 0.34136987 0.09663795 -0.06348739 -0.21683349 -0.41347846
0.46215895 0.011638102 -0.3089401 -0.30068198 -0.17723584 0.08059195 -0.3911831 0.39120713
-0.35030097 -0.8233308 0.7430775 -0.061013483 0.053935252 -0.081806876 0.7031269 0.028489241
0.08943984 -0.41780686 -0.4815713 -0.27604643 0.060186617 -0.23430318 -0.106998965 -0.19464502
-0.16304483 0.09853531 -0.4974393 -0.15180884 0.6862048 -0.40679887 0.3444709 -0.30250672
0.15124743 -0.08610264 0.01190523 -0.08276448 -0.19457754 0.2809174 -0.31975248 0.47633335
-0.09242034 -0.34624153 -0.41442552 0.8571028 -0.39556 0.18037699 -0.38365853 -0.6630259
-0.05327536 -0.2839325 -0.6358757 -0.3481795 -0.32182705 -0.57117283 -0.41698802 -0.33694535
-0.3794223 0.029258376 0.900752 0.18724965 -0.3146241 0.014459334 -0.1739752 0.050455324
0.6434491 0.45817304 -0.11007113 0.12953408 -0.14241353 -0.030632447 -0.23050763 -0.25617895
-0.55941176 -0.3033778 0.39810452 -0.096298724 -0.5913272 0.09277522 -0.6435783 -0.19343878
-0.19879869 -0.057607513 0.4703055 0.75950676 0.20405513 -0.25348923 -0.008580286 0.12847397
-0.18419369 -1.0164231 0.04103126 -0.19266495 -0.06238805 -0.2760795 -0.37914214 -0.104722545
-0.32599306 0.12265274 0.77919877 -0.26503494 -0.21696778 -0.2496032 -0.40284607 -0.2602824
-0.52540743 0.08111816 -0.11800269 0.1487446 0.4467492 0.3460251 0.49328157 0.13410002
-0.49455902 -0.13791229 -0.23175073 0.31555316 -0.2123212 -0.32053208 0.59204465 -0.010656971
-0.008317363 -0.12179774 -0.16609676 0.072783545 0.39445102 0.2987332 -0.36420196 -0.34601137
-0.97951233 -0.10574014 -0.23792364 -0.55052423 -0.25873616 0.6315811 0.32831854 0.422509
-0.7257761 0.80694157 -0.055493224 -0.31659177 0.29253992 0.60411423 -0.082439065 0.15967917
-0.322546 0.58936113 0.0938073 -0.33557916 -0.27333885 -0.2793626 -0.14561807 -0.33800358
0.43928775 0.14196144 -0.24934469 -0.21141724 -0.9041 -0.29862723 0.07862482 0.36862832
0.6014068 -0.026639303 0.31832895 0.09536071 -0.13976581 0.25475833 -0.016572004 0.2593883
0.56653976 -0.2666172 -0.21018015 0.11536122 -0.27825165 -0.3215838 0.027096646 0.5804772
-0.12653129 0.31991872 1.1570433 0.2305558 -0.05293301 -0.09120748 -0.27133435 -0.06937251
0.09220513 0.04193879 -0.04681794 0.1496083 -0.09754968 -0.4468702 -0.008183444 0.19799578
0.071141794 0.5915547 0.024098126 0.22962987 -0.26211953 -0.13370284 -0.2403151 -0.4701852
-0.042091228 0.7261449 -0.2523673 0.107556574 0.37260082 -0.18210994 0.07749593 -0.187947
-0.2517178 0.08742202 0.37334955 0.07201742 0.033297952 -0.023368282 -0.25343633 -0.08918934
-0.28613734 1.1098466 0.06467738 -0.4036962 -0.07646112 -0.3345745 -0.3318405 0.6820912

action_model._discrete_distribution.branches.0.bias f4 [3]
00000000: 00ad f1bf ca98 893f cc83 e43e
-1.888092 1.0749753 0.44631803

action_model._discrete_distribution.branches.0.weight f4 [3, 128]
00000000: 4cfe 1e3f 0e67 563f 9fc6 d1be b62f 3d3f
00000010: 3b0d 653f ba7a 093f d89d cbbd 428d 063e
00000020: 4503 5f3e e6e0 073f 6d75 5440 4868 0a40
00000030: 0603 93bc 9218 613f ee24 05bd bd1d ef3f
00000040: 1c68 0c3f 4ea5 b2bd 1f63 babf 0fb0 843e
00000050: 46ed 12bf 50e3 30bf 6823 30bf 7d87 bdbe
00000060: df63 92be 8fbc 573e ab8c 57c0 a75d b9bf
00000070: 34df 47bf cb99 053e 73ba 41be ff2c 623e
00000080: 9551 063e 4003 33bd 0576 a1bd e434 b1be
00000090: 0c3f 0dbe 2c77 d63e 7a30 0ebf e1dd da3e
000000a0: 2b28 003f bcde 0dbf 30cb 1c3f 2a28 0cbe
000000b0: e1df bfbe 2df7 c2be 75e8 763f e30b 983e
000000c0: 16ec 3c3e cebc 99bc edb3 30bf abc0 3ebe
000000d0: 6415 183f 2b17 23bf ce36 9cbf 07cd a13e
000000e0: 8d21 6f3d 7855 1c3d 92de 2dbf 3207 763e
000000f0: cb42 9bbf c03c 6f3f facf 643e 6367 34bf
00000100: 823d 563f b617 843e 4bf6 64be bf6d 083e
00000110: 5297 c6be 7c90 173f 5d47 2440 cffd d53e
00000120: 86c2 083e 7eab 97be 65d8 f53d 0e3a 2a3e
00000130: 642c 08bf 24f3 283f b044 9e3f b7fb 8fbf
00000140: 700c 483c e906 c4bf 0b51 6d3f 83d5 f43e
00000150: 2c6f 383f 4664 5f3e 0490 66be ae5f 5b3d
00000160: dcf4 9b3e 3302 25c0 c77c 4a3f f206 1cbf
00000170: 1689 713b 7087 07bf d04f 763e 5c30 d83f
00000180: 9740 d33e 937f 1abe ed5c 0b3e 9ad4 19bf
00000190: 6ee1 1e3f ad82 de3e 0c8a b23d c5d7 92bc
000001a0: 9396 3e3e 156d dfbe 2e70 21c0 a986 3a3f
000001b0: 6126 a4be c188 903f 8f28 0e3e c58c 643f
000001c0: 6697 1e40 781c e4bf cc8f 073f e0d0 013f
000001d0: 48b7 c4be f769 d8bd 28b6 6f3e b070 bc3e
000001e0: 6a43 c43d 9341 69be 09a0 743f 290b a03e
000001f0: d7e0 1a3f c6d5 2abe 4264 3abf 1630 febd
00000200: 40ea 5abf 637f ae3e ffed 253f 2462 fd3b
00000210: 2c59 1b3f e1cb e1be 1a70 453e b3f9 aabe
00000220: f427 23be e3d2 313f 0941 503e bc51 36bf
00000230: f4f8 023f a80d abbc f2b1 bebe 9312 bcbe
00000240: 8a74 aa3e 38ab bb3e 911a c93d c8e7 af3c
00000250: 1e5c 123f 1a03 37be bef9 f23e 885a c13e
00000260: 0dc4 463f 0835 1dbf 862a 7a3f 7d02 b43e
00000270: 984b ae3e c9ee a2bd ee56 1a3e ca61 b5be
00000280: ddb6 4d3e eed7 10bf 541d 6b3e 309d d9bd
00000290: 5f81 74bd 5af7 d2bd 1773 e83c 045a 14bd
000002a0: 4d55 173f b6b8 923f 0cf1 b2bd 9c5f 843e
000002b0: 4fdd 283f cad6 833e 7991 4cbf d6d7 16bd
000002c0: 86a7 fc3c 7f29 383f acf1 f63d f46d ba3e
000002d0: aa6e acbe e64e 1e3f 99e1 033f 5042 d6be
000002e0: 1979 6b3e 2373 e33d 5c6b ba3e d099 dbbe
000002f0: 7be8 8fbe 1517 7a3e e6f0 8abd afbf 0a3f
00000300: 3614 9ebe 6590 213f a533 90bd f957 823e
00000310: d719 053e 3b69 f5be 843a da3f 1238 863e
00000320: ddf0 423f 9ce3 103e b73d 373e 2bbe bdbc
00000330: ea19 4e3c c779 cbbe b63f ae3d 65de 7f3f
00000340: e0a0 7e3e 0f38 69bd f935 c23e 0ed6 f33c
00000350: 8778 de3e f534 c63d e1cc 58bd 91e7 ed3d
00000360: 5881 fa3e a85a 55bb 0f88 44be a2eb 443e
00000370: a7d0 d1bd 85d5 ae3e aeec 273f 5419 a4be
00000380: 9ffa a6bd da18 e7bd 4317 9c3f 7e85 5dbe
00000390: 9c49 b33e d26a 2cbe fe65 d2bd 9a6a e43e
000003a0: 0922 193f e61b 2b3f 473e 7e3f d817 7fbe
000003b0: 59dd 233f 804d b63f 84fe 9a3f 0e44 b13f
000003c0: 1945 09bf 9433 f0be 0836 abbd 0bf4 253f
000003d0: 25ab 2ebf 854e 853e c0ba ad3e 6e1d 22bf
000003e0: 9a88 983e 61e5 563f 1ea9 1d40 724b ac3e
000003f0: 8679 cfbe 3742 173e 31ca babd 4734 4c3d
0.62106776 0.83751 -0.40971848 0.73900926 0.89473313 0.5370289 -0.09942216 0.13139823
0.21778591 0.5307754 3.319667 2.1626148 -0.017945778 0.87928116 -0.032505922 1.868095
0.5484636 -0.087229356 -1.4561499 0.25915572 -0.573933 -0.6909685 -0.68804026 -0.37017432
-0.2859182 0.21068023 -3.3679607 -1.4481705 -0.78074956 0.13046949 -0.18918781 0.22087477
0.13117059 -0.04370427 -0.078838386 -0.34610665 -0.13793582 0.41887796 -0.5554272 0.42747405
0.5006129 -0.5541799 0.6124754 -0.13687196 -0.37475494 -0.38079205 0.9644845 0.2969657
0.18449435 -0.018766787 -0.69024545 -0.18628184 0.5940764 -0.63707227 -1.2204225 0.31601736
0.058381606 0.038167447 -0.6791774 0.24026182 -1.2129759 0.9345207 0.22344962 -0.70470256
0.83687603 0.2579934 -0.22359578 0.13323115 -0.38787323 0.5920484 2.5668557 0.41795203
0.13355455 -0.29623026 0.120041646 0.16623709 -0.53192735 0.65996003 1.2364712 -1.1248692
0.012209997 -1.5314609 0.92701787 0.47819147 0.72044635 0.21815595 -0.22515875 0.053558044
0.3046025 -2.5782592 0.79096645 -0.609481 0.0036855391 -0.52941036 0.24053884 1.6889758
0.41260216 -0.15087728 0.13609667 -0.6009003 0.6206273 0.43459073 0.087177366 -0.017925153
0.18612127 -0.4363791 -2.522472 0.72861725 -0.3206053 1.1291734 0.1388266 0.892773
2.4779906 -1.7821188 0.5295379 0.5070934 -0.38421082 -0.10567086 0.23409331 0.36804724
0.09583171 -0.22778921 0.95556694 0.31258515 0.6049933 -0.1668311 -0.7280923 -0.124115154
-0.8551369 0.34081563 0.6481628 0.0077326465 0.6068294 -0.4410086 0.19281045 -0.3339363
-0.1593321 0.6946241 0.20337309 -0.71218467 0.5116112 -0.020880535 -0.37245136 -0.3673292
0.33292037 0.36654067 0.0981952 0.021472827 0.5717181 -0.17872277 0.47456163 0.37764382
0.776429 -0.61409044 0.97721136 0.35158148 0.34042048 -0.07955701 0.15072224 -0.3542617
0.20089288 -0.5657948 0.22960407 -0.10625684 -0.05969369 -0.10301085 0.028375192 -0.036218658
0.59114534 1.1462619 -0.08737382 0.25854194 0.6596269 0.2574981 -0.79909474 -0.03682693
0.0308416 0.7193832 0.12057814 0.36412013 -0.3367818 0.6183914 0.5151611 -0.41847467
0.22995414 0.11105945 0.36410034 -0.42890787 -0.28107056 0.24422868 -0.06784229 0.54198736
-0.30874795 0.63110954 -0.070411004 0.25457743 0.12998138 -0.47931847 1.7049108 0.26214653
0.7614878 0.14149326 0.17894636 -0.023161968 0.012579421 -0.39741346 0.08508246 0.9994872
0.24866056 -0.056938227 0.37931803 0.029765155 0.4345133 0.096780695 -0.052929763 0.116164334
0.48926806 -0.0032555256 -0.19192527 0.19230512 -0.102448754 0.34147277 0.6559552 -0.32050574
-0.08153271 -0.11284037 1.2194599 -0.21632954 0.35017097 -0.16837624 -0.1027336 0.4461258
0.5981756 0.66839445 0.9931378 -0.2491144 0.64009625 1.4242401 1.2108922 1.3848894
-0.5362106 -0.4691435 -0.08359915 0.64825505 -0.68229896 0.26036468 0.3393154 -0.63326156
0.2979172 0.83943754 2.463447 0.3365131 -0.40522403 0.14771353 -0.09120596 0.049854543

action_model._discrete_distribution.branches.1.bias f4 [3]
00000000: 0536 2fbf 9b0b 483f 20fa a4bd
-0.684418 0.7814271 -0.0805552

action_model._discrete_distribution.branches.1.weight f4 [3, 128]
00000000: dbbf a23f 0913 073f dbb7 863f e319 3c3e
00000010: d0cf a13f ead8 853e e7a3 c5be 5dfa 143f
00000020: 12a4 4d3d 0841 ddbe 03af 403e 0211 13c0
00000030: 6920 dcbe 72f7 bf3e bdc4 a2be 131c b03e
00000040: 471a 2dbf 8d4c 113e b086 cdbe 4093 83bf
00000050: 917b 15bf 71ae e33d 6047 d53e 46aa b03e
00000060: 234c c23c 3144 633f 797c 01c0 f31a 493f
00000070: 16b4 1f3e b15b ca3e 1401 f83e b33d aa3e
00000080: 4d68 ef3e f6bd 113f 0de6 9fbe cd6e ef3e
00000090: 52e4 be3d a0d0 7fbe 25c6 cc3e 59e4 473e
000000a0: 76c1 d23e fa20 e03e 364e 423f 3475 2f3f
000000b0: 93bd 29bf 6815 8d3e b1ec 29be 9abc 3abe
000000c0: c62e 1dbe 2f07 33bd 7557 e73e 6aac ff3e
000000d0: b854 92bf adde 873d b927 d8be bbd3 af3e
000000e0: 56ee 28be 36d1 94be 8c48 6a3e a962 b3be
000000f0: d2e4 32bf 1efe c3be ad7c 343e 5698 f13e
00000100: d6d7 3c3e 1136 ce3e b156 483f a15a c73e
00000110: f376 b53d 14f9 5fbf 60c6 00be b113 5f3e
00000120: 9956 ba3d 0d72 dd3e 78ae 7ebe 211b bf3d
00000130: 23b0 98bd f567 103f e741 423d 09b9 91be
00000140: 697a 15be 58a1 02bf 4a4a ac3e 8a08 013f
00000150: 7f14 8d3e edf5 1bbf 03ae 25be 9235 de3d
00000160: d0c8 573f b5cc 27bf 0d57 9bbe 92f7 36bf
00000170: 13ce 843e 204f db3e 01e9 02bf d4d6 073f
00000180: e39b 3a3e f2b6 4fbf 46ce e4be cb7b 95bf
00000190: d771 533f 5aec 663c 9d9a 27bd e361 713f
000001a0: aa8d 84bf e6c4 303e b099 cb3e 8459 eabe
000001b0: b08f 973e ee64 06bf 4025 f43e 3840 5b3e
000001c0: f823 d03e 9526 7b40 ae23 5cbf bc17 26bf
000001d0: 7a78 523f 4746 8a3e 7451 be3e 1509 883d
000001e0: ddce 483d e137 623f 368f e83d 94d0 aa3d
000001f0: 52e9 be3e 624c a63e 7c39 4c3e 94a8 673f
00000200: 0aa9 5cba 92f6 91bf 2b1f f2be a55b d23e
00000210: 1bc1 9dbf 4d74 a1be 11b1 e4be f9be eebe
00000220: 1ecb 3c3f 10af 38bf f0e8 babf 8c70 733e
00000230: ab45 5abd 9b5d 27bf 7d9f 3cbf 65ee 5dbf
00000240: 0c3a fbbd 9377 6d3e 65c7 0cbf 53c7 c73e
00000250: 290c 953d 48bc b3be a437 d1bd 0357 7dbe
00000260: 9d8d be3e ca8b 8cbf 80d3 e83e b480 0ebf
00000270: cc53 1f3d 6516 df3b 1d1c 0bbe 2cbf 083e
00000280: c80a bb3d 631c 53bf 92bd 3b3e f016 b73d
00000290: 08da 63bf f3eb d3be 2252 92bf 0546 c33e
000002a0: ea64 363f 8127 063f 717e 9abf 5bd0 b43d
000002b0: a940 583f 2e12 013e 4050 f9be ad9f f8be
000002c0: 7b1a e2be 965d 343e d228 a8bf cb65 00be
000002d0: fd2c 803e 10b2 8a3d 63b4 b9bd d380 12bf
000002e0: e4fa bf3e fd08 e9be 863f 52bd 1b2b 993e
000002f0: 5f56 cc3e a3e5 35bf 79b2 26bf a8a1 cbbe
00000300: 2228 d23e 6fb5 46bf dbfa 11be bbe2 06bf
00000310: e3d3 4bbd c223 393f 04e3 58bf 99d3 363f
00000320: 1196 b8be c765 733e 1985 873e 51e7 f1be
00000330: ab7d debe ec6b b6bd 15a4 0a3d 6978 083f
00000340: 1b8d 943e 0cc4 103f 4d16 083f f929 82bf
00000350: 781d 0b3e a36b 253e 76f2 0ebf ab8d bd3e
00000360: 4db5 5a3f b085 753f 7348 a53c 9675 f43e
00000370: 5220 bb3e d2a3 4e3e 99de 983e 8f7b fcbd
00000380: 72eb 06bf 6da8 c13e 4201 2a3f 65c7 8d3c
00000390: 6876 21be 3ebe 27bf 7252 f5be 1424 94be
000003a0: 9afc 453e aba8 693e 7611 123c e416 8e3e
000003b0: a848 2b3e dba7 f9be 455e c83e bdf5 89bf
000003c0: a33b 24be aad4 0640 105e 19bf 9048 d23e
000003d0: 9808 cfbf 60a0 46be ec26 66bd 68a9 c33e
000003e0: c23c a4be 8025 9e3e 1fe5 3bbf 5710 f5be
000003f0: 557c 49bf e331 843d fe8c a3be efba afbe
1.27148 0.5276342 1.0524858 0.1836925 1.2641544 0.26142055 -0.3860161 0.58194524
0.050205298 -0.43213677 0.18816762 -2.297913 -0.42993477 0.37493473 -0.31790724 0.3439642
-0.6761822 0.14189358 -0.4014182 -1.0279312 -0.5839167 0.111172564 0.41656017 0.34504908
0.023717945 0.88775927 -2.0232222 0.78556746 0.15596041 0.3952308 0.48438323 0.33250198
0.46759263 0.5693048 -0.31230202 0.46764222 0.093208924 -0.24981928 0.39994922 0.19520701
0.41163224 0.4377516 0.7590059 0.6853821 -0.6630489 0.27555394 -0.16594197 -0.18236008
-0.15349874 -0.043708023 0.45183912 0.4993623 -1.1432104 0.06634269 -0.42217806 0.34341225
-0.16497168 -0.29065865 0.22879237 -0.3503621 -0.698804 -0.38279814 0.17625685 0.47186536
0.1844171 0.40275624 0.7825728 0.38936332 0.088605784 -0.8748944 -0.12575674 0.21784855
0.090985484 0.43251076 -0.24871242 0.09331346 -0.074554704 0.56408626 0.04742613 -0.28461483
-0.14597477 -0.5102744 0.33650428 0.50403655 0.275547 -0.6092213 -0.16179661 0.108500615
0.8429079 -0.65546733 -0.30339852 -0.7147151 0.25938472 0.42833805 -0.51136786 0.53062177
0.18223529 -0.8113853 -0.44688624 -1.1678404 0.8259558 0.014094437 -0.040918935 0.9428999
-1.0355732 0.17262611 0.39765692 -0.4577142 0.29601812 -0.52497756 0.4768467 0.21411216
0.40652442 3.9242299 -0.8599194 -0.64879966 0.8221508 0.27006742 0.3717152 0.06642357
0.049025405 0.88366514 0.1135544 0.08340564 0.37287384 0.3248015 0.19943804 0.90491605
-0.0008417523 -1.1403372 -0.47289404 0.41085544 -1.2324556 -0.31534043 -0.4466634 -0.46630076
0.7374743 -0.72142124 -1.4602337 0.23773402 -0.053289097 -0.65377206 -0.7368086 -0.86691886
-0.12266931 0.23190145 -0.5499175 0.3901926 0.0727771 -0.35104585 -0.10215691 -0.24740224
0.37217417 -1.098016 0.45473862 -0.55665135 0.038898274 0.0068080896 -0.13584943 0.13354176
0.09132916 -0.8246519 0.18334034 0.08939922 -0.89004564 -0.41390952 -1.1431315 0.38139358
0.7124773 0.5240403 -1.2069837 0.08828803 0.84473664 0.12604591 -0.48694038 -0.48559323
-0.44160828 0.17613825 -1.3137457 -0.12538831 0.25034323 0.06772244 -0.09067609 -0.5722782
0.37496102 -0.4551467 -0.051330112 0.299157 0.39909646 -0.7105352 -0.6511608 -0.3977177
0.41046244 -0.77620596 -0.1425585 -0.52689713 -0.049762618 0.7232019 -0.847214 0.7141662
-0.36051992 0.23769294 0.26468733 -0.47246793 -0.43455252 -0.08907303 0.033847887 0.5330873
0.29013905 0.56549144 0.5315903 -1.0169059 0.1358546 0.16154341 -0.55838716 0.37022147
0.85432893 0.95907116 0.020176148 0.4774596 0.36548096 0.2017968 0.2985733 -0.123282544
-0.5270301 0.3782381 0.6640817 0.017306993 -0.15767825 -0.6552466 -0.47914463 -0.28933775
0.19334641 0.22818248 0.008915296 0.2775184 0.16726935 -0.48760876 0.39134422 -1.0778118
-0.16038375 2.10673 -0.59909153 0.41070986 -1.6174498 -0.19397116 -0.056189463 0.38215184
-0.32077605 0.30887985 -0.73396486 -0.4786403 -0.7870534 0.06454828 -0.31943506 -0.34322307

discrete_action_output_shape f4 [1, 2]
00000000: 0000 4040 0000 4040
3.0 3.0

network_body._body_endoder.seq_layers.0.bias f4 [128]
00000000: 71ee 42c0 dcc4 e9bf 2354 32c0 dddf 64c0
00000010: 8965 fdbf 47c5 ae3e 80e6 7dbf 1cd3 4ec0
00000020: 4dc2 0ac0 2313 91bf 6144 fbbf 3604 e6bf
00000030: 88da 3dc0 0827 40c0 c6a8 3ac0 3eaa 8d3f
00000040: 2342 42c0 8116 56c0 bf5b 1ac0 9c6a 4bc0
00000050: 83b0 25c0 cc34 a7bf f8c9 06c0 00be 09c0
00000060: 6752 dabf cff8 1fc0 305e 31c0 d9e3 4ac0
00000070: 69a3 dfbf d810 45c0 a0e4 4fc0 c8ee 14c0
00000080: 0e5c 5fc0 e7e2 64c0 6650 52c0 d47e 39c0
00000090: 9905 3bc0 f591 35c0 e181 6ac0 8a7f 20c0
000000a0: 15dc 5fc0 50ad 22c0 6433 55bf 93e1 43c0
000000b0: 1d7c 3ac0 18ab 0cc0 6374 0cc0 520e ddbf
000000c0: b1ab 47c0 230e 13c0 3610 06c0 a472 26c0
000000d0: 8687 3ec0 97b7 45c0 b5fb 53c0 56c0 2bc0
000000e0: ad11 10c0 d8b4 43c0 17b0 3bc0 c3da 10c0
000000f0: 582f 29c0 1d87 12c0 9194 5cc0 f02e 61c0
00000100: 30f7 3ac0 b484 68c0 0d27 35c0 37a8 a7bf
00000110: aed0 ffbf 893f 69bf ff81 1cc0 e661 2ec0
00000120: 438b 64c0 5873 22c0 3879 2bc0 1681 32c0
00000130: c233 1ec0 6616 01c0 9d1e 26c0 5ced 46c0
00000140: 598e e8bf ddfd 3ec0 90e0 aebf 0fca 54c0
00000150: 13ec 1fc0 4c1a 4dc0 9364 19c0 027b 0fc0
00000160: 450a 2fc0 9371 42c0 e17c 06c0 3f34 f0bf
00000170: e8a7 a3bf 11cd 08c0 ba71 ebbf 97c8 2fc0
00000180: 0cf6 30c0 4bb3 59c0 04d8 38bf 0994 febf
00000190: d3d5 3bc0 984e 3fc0 7b92 30c0 3875 38c0
000001a0: c578 30c0 3fcc 47c0 d228 29c0 5155 c9bf
000001b0: 9f83 22c0 99de 0dc0 d890 27c0 cdc7 34c0
000001c0: 40c4 55c0 e5c6 52c0 e2ba 2cc0 665f 34c0
000001d0: 62a2 61c0 2eee 41c0 65be 51c0 fc2d 38c0
000001e0: 19aa 1dc0 e63a 3ec0 f0c1 f6bf e37d 50c0
000001f0: 5737 a8bf b847 4fc0 438a 1cc0 3710 29c0
-3.0458033 -1.8263202 -2.7863853 -3.5761635 -1.9796611 0.34134886 -0.9917984 -3.231635
-2.1681092 -1.1333965 -1.9630243 -1.7970035 -2.966463 -3.0023823 -2.916551 1.1067579
-3.0352867 -3.3451235 -2.4118497 -3.178382 -2.5888984 -1.3062987 -2.1060772 -2.1522217
-1.7056397 -2.499561 -2.7713737 -3.1701567 -1.7471744 -3.079153 -3.2483292 -2.327074
-3.4899936 -3.576349 -3.2861571 -2.898366 -2.9222167 -2.8370335 -3.6641772 -2.5077844
-3.4978077 -2.5418282 -0.8328154 -3.060643 -2.9138253 -2.1979427 -2.1946037 -1.7269995
-3.1198542 -2.2977378 -2.0947394 -2.600747 -2.9770217 -3.0893304 -3.312238 -2.6836143
-2.2510788 -3.0579128 -2.9326227 -2.2633522 -2.6435146 -2.2894967 -3.4465678 -3.5184898
-2.9213371 -3.6330996 -2.8305085 -1.309821 -1.9985559 -0.9111257 -2.4454343 -2.7247252
-3.5709999 -2.53829 -2.6792736 -2.7891288 -2.471909 -2.016992 -2.5956185 -3.1082373
-1.8168441 -2.9842446 -1.3662281 -3.3248327 -2.4987838 -3.20473 -2.3967636 -2.2418828
-2.7350018 -3.038182 -2.101372 -1.8765944 -1.2785616 -2.1375163 -1.8394082 -2.746618
-2.7650175 -3.4015682 -0.72204614 -1.9888927 -2.9349258 -2.989172 -2.7589405 -2.8821545
-2.7573712 -3.1218412 -2.6431165 -1.5729162 -2.5392835 -2.2167113 -2.6182156 -2.8246949
-3.3401031 -3.2933896 -2.6989064 -2.8183227 -3.525536 -3.0301623 -3.2772458 -2.8778067
-2.463507 -2.9723449 -1.9277935 -3.2576835 -1.3141888 -3.2387524 -2.4459388 -2.6416147

network_body._body_endoder.seq_layers.0.weight f4 [128, 13]
00000000: 8958 a83e ca5f d83e 4078 313f af34 c9be
00000010: 9911 863e 193d 873f 7ecd 513c 479f 57bf
00000020: ed5a 1d3e 3c63 b33e 1f06 d33e cedd 213e
00000030: 8c2b 25be cf22 593e bebc 64bf 24ea 54bf
00000040: 5b64 503f 8f14 d8bd 94e0 91bf f55a b1be
00000050: 19a1 2d3e 73d1 8cbf bf3f 4fbe 85a1 52bf
00000060: ec0c 85bf f1ae a13d 8a42 203f 2ad6 4cbe
00000070: 69f3 593f ed71 0dbe 79f0 18bf 2369 283f
00000080: 1c0c d53b e0e5 393e 363d 63bd 3e6e eb3d
00000090: d19d 823e f645 3fbc 508b c8be 2652 dabe
000000a0: 77c5 153e c662 933e 4d19 4bbe c28b bcbe
000000b0: 60e7 bc3e 69ed 6f3f 4509 45bf 6f6d 383f
000000c0: 17e4 95bf bbdc 1f3e 4691 ea3c f9f7 adbd
000000d0: 0180 173e 4173 1bbe bc1f fe3e 20d4 0d3d
000000e0: eb0e e23e bc4b b2bc 364c 4cbe c18d b23e
000000f0: ce7e 423e 1cac 0d3e a890 2f3e a585 fabe
00000100: ae02 5c3f bd05 c13e b1ac 953f 3f82 16be
00000110: bd17 303f fade 4e3e d458 ecbf 83d3 703f
00000120: 3447 873f 7ba5 fa3f 0685 e0be 0de5 373f
00000130: 26a0 cd3d 3a59 c3be f62f 9bbd 12f8 46bf
00000140: 55cf c93d cb13 953f f7bb a63d 27f3 a3be
00000150: 57c1 e0bf 1131 a93c aff7 d23e 8ffc 25bf
00000160: 5add 143f 0750 e33f 84c7 8dbe f5e7 703e
00000170: 3e86 82bf beb4 3d3e 331c eb3e 6e07 193e
00000180: 77d4 a03c f8c6 31bd 2d31 f23d 40e2 48bd
00000190: 99d2 59bf 2c96 023f 24ea 0b3f 50d3 3abf
000001a0: d23e 043e 486d 82be 6490 6cbf c2b1 9a3f
000001b0: a3d7 86be 55d5 63bf 4889 9c3d fe00 353e
000001c0: 46f6 05bf e00c 61bf 4dac 41bf 55bc 83bf
000001d0: 66a8 223f ac80 3dbd d71a 5cbf 4a98 f93b
000001e0: a2d2 1b3f b4d2 15be ae14 9abd 4704 90bf
000001f0: ebd9 273d 1106 183e 6d10 f7be a9b1 f2be
00000200: 3bee 443f e0b9 e0be f51e eb3c 3ab4 03bf
00000210: cfcb e1be 84ea 873f b23b 0f3d fd5a cbbe
00000220: 2081 0fbf 1f21 09bf 3ab3 2bbf 8a0a 1d3f
00000230: 8d8e 99be f794 2dbe f17d 103f 2a98 063f
00000240: 4136 1c3f 556e f43d d270 19bf d048 c1be
00000250: 3751 533f ee0c 823e 1ca8 d5be b779 b83d
00000260: 89f1 20be 0791 803e 29c1 42bf 8d46 c4bd
00000270: b8fb 4a3e 2cdf d43e cfce 163f f614 13bf
00000280: f2f2 293d 757a 0d3f 189d 7d3d a5e8 b2be
00000290: ece1 c73e a614 cbbd 9aef 4f3e 6ca8 92be
000002a0: 6754 793e 7d7b 1a3e 9022 1dbf a8c5 7e3d
000002b0: ed8c 62be 2d88 f1bc 36fa 813e 15db 3f3e
000002c0: cc07 82bb 3301 073f 9716 013d 7727 dd3e
000002d0: 7b60 e8be c20a 0ebf 6fcd 0d3f 9251 48bf
000002e0: 8fbc f8be 6b37 233e 5c02 c1be 67d2 a3bd
000002f0: 4766 79be 4372 093f 882f 3e3f 34a6 7fbf
00000300: 7b4e c3be b99d a43e e9c7 c0be c34e 133f
00000310: ef17 c43f de8e a53e dbd6 8f3f e890 7a3e
00000320: 4a57 07c0 46af b4be 76a6 eb3e db70 eb3f
00000330: 6ce8 24bf 51c5 4fbe fbc8 08bf 994a 1ebf
00000340: cc32 993e df84 2dbf 22dc 77be cb2c 56be
00000350: 2f0c c2bd e363 a2bd caec 6d3e 8218 a53d
00000360: c5fd 193e cb3d 7fbf 4a7a 45bd 2ccc 963e
00000370: 4b12 85bf 5e69 983e 7791 35bf 49d7 e43e
00000380: bb4e 06be 0f6a 8f3e 8f8d 053f 7bf0 93bd
00000390: a202 c4be c900 6a3e b310 51bf fc9e 473e
000003a0: cae3 c73e 023c f3be d976 973f 7b15 e83d
000003b0: e64e 563f 20e8 e3be 2d98 903e 03a0 173e
000003c0: 0e00 693e fc91 d3be 814f a4bd 21c5 babc
000003d0: 85da f43d 7c90 c9be c031 043e 8791 b2bc
000003e0: c8f1 dfbe 4b5d d43e 88eb d6be f075 2f3e
000003f0: ded5 0c3f 4f5a d9be 77d7 c9be bf6e 5d3e
0.32880047 0.4226058 0.6932411 -0.39298007 0.261853 1.056552 0.012805341 -0.8422741
0.15366717 0.35036647 0.41215608 0.15807268 -0.16129893 0.21204685 -0.893505 -0.8316977
0.8140313 -0.10550796 -1.1396661 -0.34639707 0.16955985 -1.1001419 -0.20239161 -0.8227771
-1.0394568 0.078946956 0.6260153 -0.20003572 0.8513704 -0.1381299 -0.5974193 0.65785426
0.0065016877 0.18154097 -0.055478297 0.114956364 0.2551103 -0.011674395 -0.39168787 -0.426408
0.14626108 0.28786296 -0.1983387 -0.36825377 0.36895275 0.93721634 -0.7696727 0.7204198
-1.1710232 0.15611546 0.028633725 -0.08494563 0.14794923 -0.15180685 0.49633586 0.034626126
0.44152007 -0.021764629 -0.19950947 0.34873775 0.18993685 0.13835186 0.17145026 -0.48930088
0.8594159 0.3769969 1.1693326 -0.14698122 0.6878622 0.20202246 -1.8464608 0.9407274
1.0568604 1.9581751 -0.4385149 0.7183388 0.100403115 -0.38154012 -0.07577507 -0.77722275
0.098539986 1.1646665 0.0814132 -0.32021448 -1.7559003 0.02065328 0.41204593 -0.648385
0.58150256 1.7758797 -0.2769128 0.23525985 -1.0197217 0.18525979 0.45919952 0.1494424
0.019632561 -0.043402642 0.11825786 -0.049043894 -0.8508697 0.51010394 0.54654145 -0.7297869
0.12914589 -0.25474 -0.9240782 1.2085497 -0.26336393 -0.88997394 0.07643372 0.1767616
-0.5232891 -0.8791027 -0.75653535 -1.0291849 0.63538206 -0.04626529 -0.85978454 0.007617031
0.60868275 -0.14631158 -0.075234756 -1.1251305 0.040979307 0.14846064 -0.4825472 -0.4740117
0.7692601 -0.4389181 0.028701285 -0.5144688 -0.44100806 1.0618443 0.03496904 -0.39717856
-0.56056404 -0.53566164 -0.67070353 0.61344206 -0.2999157 -0.16951357 0.5644217 0.52575934
0.61020285 0.11935107 -0.59937775 -0.37750864 0.825458 0.2540049 -0.4172982 0.0900759
-0.15717138 0.25110647 -0.7607599 -0.09583769 0.19822586 0.41576517 0.58909315 -0.5745386
0.041491456 0.5526498 0.061917394 -0.3494312 0.39039552 -0.09916048 0.20306244 -0.2864412
0.24348603 0.1508617 -0.61380863 0.06220022 -0.22124071 -0.029483879 0.25386208 0.18735917
-0.0039682146 0.52736205 0.031515684 0.43194172 -0.4538611 -0.55485165 0.5539159 -0.78249466
-0.4858136 0.15939109 -0.37697113 -0.079991154 -0.24355422 0.53689975 0.74291277 -0.9986298
-0.38145813 0.32151583 -0.3765252 0.57542056 1.5319804 0.32335562 1.1237444 0.2446934
-2.1147027 -0.35289973 0.46025437 1.8393816 -0.6441715 -0.20290114 -0.5343167 -0.61832577
0.29921567 -0.6778087 -0.24205068 -0.20915525 -0.0947498 -0.07929208 0.23234859 0.08061315
0.15038212 -0.99703664 -0.048212327 0.29452646 -1.0396208 0.2976789 -0.70925087 0.446955
-0.13115971 0.28010604 0.52169126 -0.072236024 -0.3828326 0.22851862 -0.81666106 0.19494241
0.39040977 -0.4750672 1.1833144 0.11332222 0.8371414 -0.44513035 0.282411 0.14807133
0.22753927 -0.41322315 -0.08022977 -0.022799077 0.11955742 -0.39368045 0.12909603 -0.021797908
-0.43739152 0.41477427 -0.4197657 0.17134833 0.55013835 -0.42451712 -0.394222 0.21624278

network_body._body_endoder.seq_layers.2.bias f4 [128]
00000000: 5ded e3bf 05fc 74bf cab6 13c0 d185 cebf
00000010: 047c b4bf 98b9 b5bf 42f9 52bf 0886 1dc0
00000020: 7d88 9ebf b56b 8cbf dedd 81bf 10a2 85bf
00000030: d0bc 2bc0 a5b6 a2bf 9bc5 1fbf e39b 16bf
00000040: 8b80 b8be c3ab 89bf 8f6b ffbe 9028 dbbf
00000050: cbe3 5bbf 9ae3 64bf 6a33 02c0 3636 4fbf
00000060: 64de bfbf 604c 8abf c8da 4ebf 5d93 d2bf
00000070: a27b f1bf a74b b7bf 7769 a1bf 6863 99bf
00000080: 2639 58bf 634a 67bf 5895 90bf 996e adbf
00000090: 7ff8 7fbf cded 90bf e5de 50bf b0a8 c1bf
000000a0: 644f 54bf a958 04c0 6e59 aabf b8a4 0bc0
000000b0: fa20 21c0 268c 05c0 6f5e 34bf c811 8dbf
000000c0: 7785 ddbe fbc1 0dc0 eee3 c6bf db35 c5bf
000000d0: f2e5 6dbf 2943 04c0 e7f6 05c0 4b59 b1bf
000000e0: 89cf 11c0 536c 8fbf 7814 b4bf f08f 8abf
000000f0: 8ef6 93bf bdc3 8cbf 7bb8 fcbf e45c 84bf
00000100: a4c3 10c0 c977 dbbf 03b6 febf a5a9 f4bf
00000110: 3698 71bf 1278 e4bf bcd6 e3bf c69a b6bf
00000120: f5ff a5bf 7d73 7bbf e167 19c0 2fa8 11c0
00000130: ccec bebf 2518 afbf 2945 90bf 4496 e4be
00000140: 0449 d9bf f045 70bf 278e cfbf 3297 a3bf
00000150: 209a a8bf 7fad aabf d770 83bf 38cb 1ac0
00000160: 06f2 12c0 6951 3abf be96 b1bf 7759 28bf
00000170: 0baf 9dbf 7233 9ebf 5c4f 0ac0 48cd 1cc0
00000180: fa1e bfbf dbc7 d8bf 10b1 34bf f00f 75bf
00000190: 910b f0bf 4df5 52bf eb39 e9bf bd64 93bf
000001a0: d3d7 bbbf 21b5 c4bf a876 7cbf d981 12c0
000001b0: fe1b f4bf 3936 debf 5f24 0fc0 0047 20bf
000001c0: d443 bfbf 85ba ffbf 527a 7fbf 6cfc dcbf
000001d0: 7a04 9fbf 122e eebf 8f5b 65bf 61f1 b3bf
000001e0: 31d1 a3bf 1122 cbbf 7337 7abf 0b6e a3bf
000001f0: fc99 c1bf 7022 1ac0 61fa 5bbf f806 dbbf
-1.7806813 -0.9569705 -2.3080316 -1.6134588 -1.4100347 -1.4197264 -0.8241159 -2.4613056
-1.2385403 -1.097037 -1.0145833 -1.0440083 -2.6833992 -1.2711989 -0.62410897 -0.58831614
-0.3603557 -1.0755543 -0.49886748 -1.7121754 -0.8589446 -0.8940979 -2.034388 -0.80942094
-1.4989743 -1.0804558 -0.80802584 -1.6451222 -1.8865855 -1.4319962 -1.261031 -1.1983461
-0.844622 -0.9034788 -1.1295576 -1.3549377 -0.9998855 -1.1322571 -0.8159011 -1.5129604
-0.8293364 -2.0679114 -1.3308542 -2.1819286 -2.5176377 -2.086679 -0.70456594 -1.1021051
-0.43265888 -2.2149646 -1.5538309 -1.540706 -0.92928994 -2.0665991 -2.0931947 -1.3855375
-2.278292 -1.1204933 -1.4068747 -1.0825176 -1.1559618 -1.0997235 -1.9743799 -1.0340848
-2.261941 -1.714593 -1.9899296 -1.9114271 -0.9437288 -1.7849143 -1.7799907 -1.4265983
-1.2968737 -0.98223096 -2.3969653 -2.27589 -1.4916015 -1.3679243 -1.1271106 -0.44645894
-1.6975408 -0.93856716 -1.6215256 -1.2780516 -1.3172035 -1.3334197 -1.0268811 -2.4186535
-2.296022 -0.7278047 -1.3874128 -0.6576151 -1.2319044 -1.235945 -2.1610937 -2.4500294
-1.4931328 -1.6935991 -0.70582676 -0.95727444 -1.875353 -0.8240555 -1.82208 -1.1515118
-1.4675239 -1.5367776 -0.98618555 -2.2891753 -1.9071043 -1.7360297 -2.236595 -0.6260834
-1.4942575 -1.9978796 -0.9979602 -1.7264533 -1.2423241 -1.860781 -0.8959283 -1.4058038
-1.2798215 -1.5869771 -0.9774086 -1.2767957 -1.5125117 -2.408352 -0.8592892 -1.7111502

network_body._body_endoder.seq_layers.2.weight f4 [128, 128]
00000000: cbca ac3f 20aa e33d cf93 db3e bfb2 00bf
00000010: 8af9 563f 886f 29bf be60 71bf d4bf 99bf
00000020: 6753 e23e 8625 abbe 3eeb 18bf b36b 8e3f
00000030: 9112 c43e d5e4 ce3e 699b a1be ed6f 6bbf
00000040: 3bed d6be 6235 17bd bdf9 193f 4a6b 8f3e
00000050: 7022 b83f 7033 e0bd e6fc d03f bad9 8d3e
00000060: 87bd 4dbe 99ce 733f 6c06 4cbe 764d 193f
00000070: 742c 9abe a32e 6e3f 664d 93be 185b 753e
00000080: 90a3 853e e2cd 04bf 4683 933e a71f 9bbe
00000090: 7d79 98bd da78 913f cdd6 103a 3d43 81bd
000000a0: 9ea1 80be fb5d 0340 a72b fcbf a30a 0b3e
000000b0: 66f0 673f 2b47 0d40 ac76 b63f 3ca7 863f
000000c0: 58eb 3a3e 176e fd3e 33a2 393f 76f1 9d3e
000000d0: 442a c4bd 96cd 88be 1392 b6be f79e 54bf
000000e0: 524d 3a3f 96c2 0a3e 555b d33d 68f6 57be
000000f0: 3013 ac3e 4cf3 9d3f 1042 633e bd1b d1be
00000100: bd90 473f d9ec c63e 9427 623e 0f1f 98bf
00000110: 1cd5 d73f 96db cc3e c33d cf3e c0db 113f
00000120: 1a5a b63d 1cf8 43be d353 263f 8f27 643f
00000130: bbde 2dbf ede5 9f3f 302c ff3e 49cf 7ebc
00000140: c22b 1cbf cb5e 213c 738b 153f d4ea ee3e
00000150: 7c7e 7d3f cc48 03bf 36ba 213f faef 9e3f
00000160: aa56 6a3e 74f2 4f3f 5000 edbe dc1f 9f3f
00000170: 0049 a43e 34b3 593f 2656 a23f 9539 35bf
00000180: 4b4b d3be fd9d a43e 518b 30bf 11a2 05be
00000190: ff79 d53c d3dc 10bd 1da2 6d3f 136f 343f
000001a0: a886 143e e293 663f 3c25 303f 3069 b13f
000001b0: cb01 65bf ff4e c33f dde5 523f aa27 a8bb
000001c0: 14ed 3c3f 64c8 2abe 9e52 d93e 3afe db3e
000001d0: 237c b43e 8095 43be 7840 0f3c be80 e63e
000001e0: f98b a1bf 3e55 f9be fb8c 973f 2b4b 1f3e
000001f0: 0b73 ac3f b8ad 25bf 9c0a 0240 baad 783f
00000200: bd98 103e 0a59 07bf 7836 443e f289 903d
00000210: 23eb 723f 2e46 dcbe 1bce 953d 22b1 fabe
00000220: ed8b b13e cc3b 0cbf 6cf8 6b3e a3e3 373f
00000230: 8169 483f 8436 763e 446e 04be c8ac 90bf
00000240: 1912 e9be ee94 5cbc f386 143f 5471 f2be
00000250: 3119 8e3f 06d8 6ebe 8fdc 7c3f 06dc f63e
00000260: e4fb f1be 3da2 4d3e 1d4f 8b3e c9c9 03bf
00000270: d7c8 853e b4a1 2a3f 53b0 88bf 5744 a13e
00000280: 87c6 1e3e 643e 23bf 55a2 bebc c51e 173e
00000290: 8d1a 88bf 5113 3a3f 26db aa3d cbbc 163f
000002a0: 89f5 40bf f361 1a3f 6d3a a1bb 10ab 393f
000002b0: cb33 573f ae45 713f dff3 5f3f 4431 02be
000002c0: b70d 98be 5605 993f 8f47 3c3f 184d 003f
000002d0: 40ba bb3f 5845 383e bc99 8b3e 9798 12bf
000002e0: 4194 233f 2dcf 063e e74e 083f dc9d 493f
000002f0: c981 0d3f 297e 893f 37b3 7bbe 6cdd 88be
00000300: 0b7a 403f 11b9 fb3e 466e 0f3f c46f 38bf
00000310: c90e cebe 8078 d7be 8732 4b3f ae8a 853f
00000320: 24d2 99be e2b6 df3e 15a8 293f 0f92 323f
00000330: b69e 533d c11b 543f 5c29 aa3f ff85 903d
00000340: df99 11be 077e 94bf 1942 803d 298c 8d3e
00000350: 4cdb 8f3e 38a7 833e 6f6d 2d3f 555c 043f
00000360: 1e63 dd3e 2bc9 d03e cdff 053e 96cc 6d3f
00000370: fa5b 073e c42b 43bf 1d8c 343e babb 7d3d
00000380: e781 6cbf a235 963e 8826 1a3e 8a3f 333d
00000390: 88cb 783f d706 933e e38b a5be 4ab9 c93e
000003a0: 6630 a53e 4569 383f 4838 58bd 0e65 3c3f
000003b0: da8c 203f e303 8a3f d499 c23e e468 0a3f
000003c0: e667 ee3e 9acc a23e 9fc5 783f e857 173e
000003d0: 47e8 0cbf e441 343e 2c58 e5be b490 253f
000003e0: 1672 883f f197 6f3d 7a1d 023f bd72 813c
000003f0: 5ba8 1abf 41e9 1e3f 84e4 853f 1284 283f
1.3499388 0.11116433 0.42886207 -0.50272745 0.83974516 -0.6618581 -0.9428824 -1.2011666
0.44204256 -0.33427066 -0.5973395 1.1126617 0.38295415 0.4040896 -0.3156388 -0.9196766
-0.41977867 -0.036916144 0.60146695 0.28011543 1.438551 -0.10947311 1.6327178 0.27705175
-0.2009183 0.9523712 -0.19924325 0.5988382 -0.3011204 0.9303991 -0.28769988 0.23960531
0.2610135 -0.5187665 0.2881109 -0.30297586 -0.07445047 1.1365006 0.0005525172 -0.06311653
-0.25123304 2.052611 -1.9700822 0.13578276 0.90601194 2.2074687 1.4254966 1.0519786
0.18253839 0.49498054 0.7251312 0.30848283 -0.09578374 -0.2671935 -0.3565832 -0.8305506
0.7277423 0.13550791 0.103201546 -0.2109009 0.3360839 1.2339873 0.2219317 -0.40841475
0.7795523 0.38852575 0.2208541 -1.1884478 1.6861911 0.4001128 0.40476808 0.56975937
0.08903904 -0.19137615 0.64971656 0.8912286 -0.67917985 1.2492043 0.498384 -0.01555235
-0.6100427 0.009849261 0.5841591 0.46663535 0.99021125 -0.51282954 0.6317476 1.2416985
0.22884622 0.8122933 -0.462893 1.2431598 0.32086945 0.8503907 1.268254 -0.7079099
-0.4126838 0.32151785 -0.6896258 -0.13050105 0.026059149 -0.035366844 0.9282549 0.70481986
0.14504492 0.900694 0.68806815 1.3860226 -0.8945586 1.5258483 0.82381994 -0.0051316814
0.7379925 -0.16678005 0.42445844 0.42967397 0.3525096 -0.19099998 0.008743398 0.45020097
-1.2620841 -0.48697847 1.1839899 0.15556018 1.3472608 -0.647182 2.0318975 0.97140086
0.14120765 -0.5287024 0.19161403 0.07057561 0.9489004 -0.43022293 0.07314702 -0.48963267
0.34677067 -0.5477874 0.23043984 0.7183172 0.78285986 0.24044234 -0.12932688 -1.1302729
-0.4552162 -0.013463242 0.58018416 -0.47352087 1.1101438 -0.23324594 0.98774046 0.4821474
-0.4726249 0.2008142 0.27208796 -0.51479775 0.2612979 0.6665299 -1.067881 0.31497452
0.1550542 -0.63767076 -0.023270765 0.14757831 -1.0633103 0.72685724 0.083425805 0.58881825
-0.75374657 0.6030571 -0.004920295 0.72526646 0.84063405 0.9424695 0.8748149 -0.12714106
-0.29697964 1.1954753 0.7354669 0.50117636 1.4666214 0.17995203 0.27265728 -0.57264084
0.6389809 0.13164969 0.53245395 0.787565 0.5527616 1.0741626 -0.24580084 -0.2673143
0.7518622 0.49164632 0.5602764 -0.7204554 -0.40245655 -0.42084122 0.79373974 1.0432947
-0.30043137 0.43694216 0.662721 0.6975412 0.05166503 0.8285485 1.3293872 0.07056808
-0.14218853 -1.160096 0.06262607 0.27645996 0.28096998 0.25713515 0.6774511 0.5170339
0.43239683 0.4077848 0.13085862 0.928903 0.1321868 -0.76238656 0.17631574 0.061946608
-0.92385715 0.29337794 0.15053761 0.043761767 0.97185564 0.28716156 -0.32333288 0.39399177
0.32263488 0.7203563 -0.05278805 0.735917 0.6271492 1.0782436 0.38007987 0.540663
0.46563643 0.31796724 0.97176546 0.14779627 -0.5504193 0.1760326 -0.44793832 0.64673924
1.0659816 0.058494512 0.5082623 0.015801782 -0.6041314 0.6207467 1.0460362 0.65826523

network_body.observation_encoder.processors.0.normalizer.running_mean f4 [13]
00000000: 5351 fb43 4084 7a44 85da 0a44 53a7 b744
00000010: 0000 0000 6516 4344 6e25 f343 252b 0d44
00000020: decc 0144 d0b1 1a42 ea1d 9341 449c 03c3
00000030: 672b 9742
502.63535 1002.0664 555.41437 1469.2289 0.0 780.3499 486.29242 564.67413
519.20105 38.673645 18.389606 -131.61041 75.58477
