results/EasyMapAgent1/My Behavior.onnx (onnx, 81381 bytes, 14 tensors)

77 f4 [13]
212.11406 486.02713 371.96326 632.768 0.0009997207 611.715 186.25436 344.89984
236.7221 174.56447 89.12278 541.93744 221.05626
00000000: 331d 5443 7903 f343 4cfb b943 2731 1e44
00000010: 0f09 833a c3ed 1844 1e41 3a43 2e73 ac43
00000020: dcb8 6c43 8190 2e43 dd3e b242 ff7b 0744
00000030: 670e 5d43

action_model._continuous_distribution.log_sigma f4 [1, 2]
-0.14661223 -0.09550705
00000000: 8421 16be 3399 c3bd

action_model._continuous_distribution.mu.bias f4 [2]
0.17474732 0.18858595
00000000: f6f0 323e ad1c 413e

action_model._continuous_distribution.mu.weight f4 [2, 128]
0.017504536 -0.1586324 -0.014967352 0.05501753 0.013287861 0.0034416197 -0.008927057 0.009588446
-0.0117627075 0.01426398 -0.0030796565 0.0051062326 -0.009200124 0.014602392 0.009336819 -0.00041456107
-0.019133642 -0.013810057 -0.03969658 -0.0008469916 0.02764325 0.011622164 0.007747001 0.030471062
-0.005911957 -0.009376735 0.036513276 -0.017742388 0.0009249884 -0.001813225 0.0013552308 -0.010969556
0.004670011 -0.022655599 -0.0007741219 0.0017356707 0.081310764 -0.050255388 -0.020088663 -0.010790614
-0.010968278 0.0038705282 0.015146599 0.15471114 0.009331018 0.001413394 -0.03073586 -0.13571188
-0.002950744 0.025167901 0.012100297 0.012387753 0.051963966 0.04705277 -0.075162366 0.0069458317
0.0064932643 -0.035048835 0.0020480242 -0.01119501 -0.016463038 -0.017584268 0.004708079 -0.046282586
0.0068123573 -0.016091691 -0.06951052 0.0062748715 -0.008951346 -0.26983908 -0.0033595534 -0.008105956
-0.05466783 0.01946391 -0.006435277 -0.0023543546 0.011926684 -0.013308322 -0.00998512 -0.07767445
-0.0050009 -0.04783514 -0.061875988 -0.048800103 8.769735e-06 0.017961571 -0.0016710317 -0.011436996
-0.00029636442 -0.014468176 0.0063637057 0.009255233 0.07595754 0.07708361 -0.013001172 -0.097644955
-0.01351188 0.017319696 0.0043015336 0.026748875 0.05542934 0.006831582 -0.0042964974 0.009861388
0.01891001 0.037904017 -0.0026181173 -0.0070452853 0.0006760585 0.005146136 0.018555027 0.003396931
0.014328996 0.005900741 -0.023118528 0.0005715299 0.017966097 0.008471704 0.04880401 0.006121826
-0.012733626 -0.0035764787 -0.047195375 -0.0032747767 -0.16793095 0.033803027 0.007276178 0.0028062465
-0.024824038 -0.04052429 0.0076801497 0.017383132 -0.011384133 0.011763112 0.004934875 0.013173639
0.019387346 -0.0036724873 -0.0039376095 -0.0006686909 0.0105814105 0.004831894 0.0046850853 0.007827471
0.0019176935 0.026276184 -0.10522309 -0.018040577 -0.033905055 0.20150518 0.0074766534 -0.02159472
0.0024638514 0.016103724 0.12659521 -0.00012361145 -0.018966518 0.017793491 -0.0042072786 -0.0023994378
0.004157014 -0.04147035 -0.025500884 -0.045145724 0.019315058 -0.0328561 0.038585525 -0.01080872
0.005860941 -0.025023926 -0.014136939 0.19598721 0.00078096095 -0.0070664366 -0.03390144 -0.10159506
-0.015618005 -0.04018801 0.013532291 -0.023207357 -0.040604576 0.07567757 -0.13146487 0.06444109
-0.0050208205 0.0319263 0.0022180667 0.0036557189 -0.010328548 0.01833549 -0.011824578 -0.06141033
-0.004312377 0.06690317 0.009149053 0.008782772 0.0042327503 0.19757119 0.020880181 -0.0036122734
-0.00055305305 0.022027377 0.0010632391 -0.0042880424 -0.013452005 -0.05026246 0.015416373 -0.08793917
0.01992214 0.029252924 -0.06360162 0.07149248 0.030990768 -0.0049604154 0.0083420975 0.019268231
0.0152102085 0.022023693 0.030095086 0.00037773178 0.01613514 0.028476259 0.0023803702 0.037356585
0.0009491268 -0.027111597 0.00491073 -0.0025362892 0.018076658 -0.008775841 0.0073517403 -0.014719526
-0.01555131 0.01826087 0.029779326 0.004734657 0.0015495189 -0.0027152954 -0.05681079 -0.0220591
0.008511028 -0.0104830675 -0.097421505 -0.0038381258 -0.016226564 0.007219232 0.04928393 0.021494213
-0.010995984 0.026434831 -0.055375718 -0.00044479768 0.060659867 0.088845454 -0.002602475 -0.0071550123
00000000: ac65 8f3c 8870 22be a039 75bc 105a 613d
00000010: 54b5 593c cc8c 613b ca42 12bc db18 1d3c
00000020: 5fb8 40bc 78b3 693c 10d4 49bb 2f52 a73b
00000030: 1ebc 16bc df3e 6f3c 75f9 183c 7259 d9b9
00000040: 28be 9cbc 9443 62bc e298 22bd a508 5eba
00000050: 1974 e23c e46a 3e3c 8eda fd3b 739e f93c
00000060: 17b9 c1bb e1a0 19bc f28e 153d 7c58 91bc
00000070: ec7a 723a bca9 edba 00a2 b13a a7b9 33bc
00000080: e406 993b 3c98 b9bc 71ee 4aba 727f e33a
00000090: 4286 a63d 98d8 4dbd fb90 a4bc 1ecb 30bc
000000a0: 4bb4 33bc b0a8 7d3b 7129 783c 996c 1e3e
000000b0: 20e1 183c a241 b93a c5c9 fbbc 0ef8 0abe
000000c0: 4561 41bb ea2c ce3c 5340 463c 01f6 4a3c
000000d0: 2bd8 543d 68ba 403d baee 99bd dc99 e33b
000000e0: 73c5 d43b 5e8f 0fbd 2538 063b 466b 37bc
000000f0: 7edd 86bc e20c 90bc 3b46 9a3b cf92 3dbd
00000100: 323a df3b b9d2 83bc 885b 8ebd 709d cd3b
00000110: aba8 12bc 5928 8abe f42b 5cbb d8ce 04bc
00000120: 60eb 5fbd c772 9f3c 04df d2bb 844b 1abb
00000130: 2368 433c 260b 5abc a198 23bc c813 9fbd
00000140: 97de a3bb c8ee 43bd ad71 7dbd 9ee2 47bd
00000150: ba21 1337 2524 933c 8506 dbba 3d62 3bbc
00000160: 5c61 9bb9 ee0b 6dbc a286 d03b 43a3 173c
00000170: a08f 9b3d 03de 9d3d de02 55bc 14fa c7bd
00000180: ef60 5dbc 09e2 8d3c e1f3 8c3b 7520 db3c
00000190: e009 633d 77db df3b a2c9 8cbb a991 213c
000001a0: 2ae9 9a3c 3e41 1b3d b894 2bbb 23dc e6bb
000001b0: 8539 313a eba0 a83b b600 983c 0c9f 5e3b
000001c0: 2ac4 6a3c 015b c13b 1163 bdbc b9d2 153a
000001d0: a32d 933c e7cc 0a3c b7e6 473d 9999 c83b
000001e0: b3a0 50bc 5b63 6abb f04f 41bd a39d 56bb
000001f0: 17f6 2bbe 0b75 0a3d 016d ee3b 01e9 373b
00000200: c85b cbbc ccfc 25bd c4a9 fb3b 1267 8e3c
00000210: 8484 3abc 11ba 403c bbb4 a13b 3fd6 573c
00000220: 36d2 9e3c 1dae 70bb 1007 81bb 164b 2fba
00000230: a75d 2d3c dd54 9e3b 5885 993b cb3e 003c
00000240: 1e5b fb3a 2741 d73c 347f d7bd d5c9 93bc
00000250: 07e0 0abd 6057 4e3e b7fe f43b 69e7 b0bc
00000260: 9178 213b f5eb 833c 2da2 013e b29d 01b9
00000270: ac5f 9bbc a8c3 913c 36dd 89bb e33f 1dbb
00000280: 9037 883b d0dc 29bd 3be7 d0bc b9ea 38bd
00000290: 9d3a 9e3c 1e94 06bd db0b 1e3d 0f17 31bc
000002a0: 230d c03b fafe ccbc 9f9e 67bc dfb0 483e
000002b0: 67b9 4c3a 918d e7bb 3ddc 0abd 1211 d0bd
000002c0: a9e2 7fbc 2f9c 24bd 8bb6 5d3c 5b1d bebc
000002d0: fc50 26bd d8fc 9a3d ba9e 06be b1f9 833d
000002e0: b285 a4bb 27c5 023d fc5c 113b c994 6f3b
000002f0: 1239 29bc 4f34 963c e0bb 41bc 6689 7bbd
00000300: d74e 8dbb 8704 893d e9e5 153c 9ee5 0f3c
00000310: e2b2 8a3b 1a50 4a3e ea0c ab3c e4bb 6cbb
00000320: c3fa 10ba c272 b43c 625c 8b3a b582 8cbb
00000330: cc65 5cbc 02e0 4dbd f494 7c3c 7419 b4bd
00000340: c133 a33c d4a3 ef3c 9141 82bd a66a 923d
00000350: 5ae0 fd3c fb8a a2bb 4bad 083c 69d8 9d3c
00000360: 3d34 793c 086b b43c f889 f63c 4d0a c639
00000370: d72d 843c 0b47 e93c fcff 1b3b 3803 193d
00000380: d2ce 783a 2419 debc 30ea a03b df37 26bb
00000390: 8015 943c 8cc8 0fbc dee6 f03b 2b2a 71bc
000003a0: ecca 7ebc d297 953c c6f3 f33c 2e25 9b3b
000003b0: 3a19 cb3a 19f3 31bb 6eb2 68bd 49b5 b4bc
000003c0: d771 0b3c 2cc1 2bbc ed84 c7bd 1189 7bbb
000003d0: 92ed 84bc 4f8f ec3b f2dd 493d a214 b03c
000003e0: 8028 34bc dc8d d83c a6d1 62bd bc33 e9b9
000003f0: 7b76 783d 9bf4 b53d 498e 2abb 9874 eabb

action_model._discrete_distribution.branches.0.bias f4 [3]
-0.2534547 -0.16569717 0.35308346
00000000: d0c4 81be 85ac 29be 5bc7 b43e

action_model._discrete_distribution.branches.0.weight f4 [3, 128]
-0.0021902132 0.13830866 0.0019182008 -0.3112564 -0.010965859 0.008321584 0.02658573 -0.007989091
-0.011714275 0.02666475 0.016885558 -0.008578245 -0.020532059 -0.07440627 -0.047688942 -0.026314458
-0.0022198004 -0.01806141 0.21731813 0.01915079 0.045754127 0.20490275 -0.0006215273 -0.062198076
-0.0026591928 -0.0066316845 -0.10083074 -0.0728547 0.0010688439 -0.018924974 -0.022761323 -0.0033160613
0.018010097 -0.010138259 -0.02496324 -0.0630302 -0.041088637 -0.5159132 -0.6238545 0.011904976
-0.032452002 -0.01467947 0.018652478 -0.13142453 0.022378484 -0.019903641 -0.07940099 -0.33967742
-0.012693272 0.8468819 0.015753992 -0.02332216 0.22431706 -0.074299276 -0.15573327 0.01664896
0.013180308 0.018694315 0.012006267 -0.49386275 -0.053746067 -0.0016359203 -0.013086834 0.3013787
0.0051179524 -0.29439083 -0.17143826 0.014263978 0.027480178 -0.3991307 -0.007592613 -0.014017309
-0.057681818 -0.11380656 -0.053530883 0.012188921 -0.023599355 -0.46095172 -0.021590972 -0.5839166
-0.039898835 0.36506397 -0.18127586 -0.27386123 -0.0042530578 -0.03244884 -0.011455309 -0.008259679
0.0016113872 0.043398052 -0.071683295 0.026207345 -0.22234064 0.52285135 -0.03503464 -0.015449499
0.02146009 -0.03420087 -0.013941638 0.32788536 -0.0068846466 0.0017837274 0.0019686806 -0.002166083
-0.05308142 0.016946757 -0.013695951 0.000550192 0.0010257105 -0.016760187 -0.5344996 -0.020988155
-0.05275357 0.015211134 -0.0035785022 0.0022937253 -0.046060532 -0.030999377 -0.29806757 -0.04269517
-0.012994184 -0.009179821 -0.18422966 -0.041210458 -0.35223934 -0.032496963 0.023630124 -0.019309161
-0.023333617 -0.0032288264 -0.013298127 0.10795392 -0.0008283237 0.0350473 0.047959678 0.046496667
0.023677848 -0.0154843 -0.00013641013 -0.006754639 0.024923652 0.056806825 0.05870071 0.028942317
0.011010265 0.029280141 -0.14536291 -0.020242566 -0.045346767 -0.16799162 0.0132307885 0.008029932
0.016488366 0.03238328 0.10992948 0.04894297 0.032575883 -0.002037686 0.0073966067 0.0039932774
-0.028915206 0.093171544 0.021366084 0.036713704 -0.05285875 -0.08705554 -0.36987153 0.006719018
0.0042523905 -0.0051293783 0.004135424 0.09008135 0.00086881535 0.03471633 0.11915801 0.008719887
0.026603302 -0.56420887 -0.005854789 0.059903465 -0.23052189 -0.016641771 0.12959893 -0.09710227
-0.0049864654 -0.05957049 -0.0013356368 0.30554155 0.0739899 0.025933081 -0.0049141496 -0.24325207
-0.01180813 -0.004647674 0.16765222 -0.023230547 -0.011028559 0.14932683 0.030510176 0.0014737551
0.08282336 0.12932155 0.027642554 -0.010506268 0.0347014 -0.08792906 0.019189248 -0.2900846
0.0027634823 0.07886996 0.13046202 0.19575866 -0.012973482 0.011270038 -0.01412573 0.03162165
0.004723471 -0.04803939 0.016766973 -0.0032355273 0.37326849 -0.031425606 0.04344903 -0.025040189
0.010127715 0.015547661 0.0017761998 -0.082561344 0.3461516 0.0049385065 0.014526662 -0.014478451
0.0726385 -0.108753115 0.03436903 0.026751103 -0.027751757 -0.012689567 0.26409656 -3.0588542e-06
0.097034566 -0.029222017 -0.1046692 0.030245462 0.08183963 0.010732835 -0.19398698 0.02186809
0.0069443355 0.0018557736 0.10283623 0.03047462 0.13452779 0.19086334 -0.01446814 -0.00951735
00000000: ae89 0fbb c9a0 0d3e 236c fb3a 005d 9fbe
00000010: 25aa 33bc 4157 083c 51ca d93c ade4 02bc
00000020: 3bed 3fbc 0970 da3c 9553 8a3c c48b 0cbc
00000030: d932 a8bc 5162 98bd 7b55 43bd 6b91 d7bc
00000040: 127a 11bb 86f5 93bc a588 5e3e 1ee2 9c3c
00000050: ae68 3b3d 07d2 513e feed 22ba 69c3 7ebd
00000060: da45 2ebb 9a4e d9bb 5980 cebd d834 95bd
00000070: 7318 8c3a 8c08 9bbc f475 babc 4752 59bb
00000080: e989 933c f11a 26bc b57f ccbc fa15 81bd
00000090: 8f4c 28bd e312 04bf eeb4 1fbf 170d 433c
000000a0: 64ec 04bd 2982 70bc 15cd 983c 2794 06be
000000b0: 1553 b73c f60c a3bc fc9c a2bd 33ea adbe
000000c0: 71f7 4fbc 41cd 583f 840e 813c 1d0e bfbc
000000d0: 5fb3 653e 382a 98bd 8b78 1fbe 6663 883c
000000e0: 38f2 573c d224 993c efb5 443c 94db fcbe
000000f0: d624 5cbd 606c d6ba 296a 56bc 4f4e 9a3e
00000100: 7fb4 a73b 65ba 96be 838d 2fbe 76b3 693c
00000110: 1c1e e13c dc5a ccbe 74cb f8bb dba8 65bc
00000120: c543 6cbd 6a13 e9bd 3343 5bbd 0ab4 473c
00000130: 6f53 c1bc dd01 ecbe 8ddf b0bc 8f7b 15bf
00000140: f66c 23bd aae9 ba3e 61a0 39be 8a37 8cbe
00000150: 3c5d 8bbb 13e9 04bd 0caf 3bbc 9b53 07bc
00000160: 2f35 d33a 28c2 313d b1ce 92bd c9b0 d63c
00000170: 44ad 63be 96d9 053f 7c80 0fbd e51f 7dbc
00000180: 12cd af3c 3616 0cbd 786b 64bc 97e0 a73e
00000190: 9a98 e1bb f6cb e93a fb04 013b d8f4 0dbb
000001a0: e76b 59bd edd3 8a3c fb64 60bc c33a 103a
000001b0: 2271 863a a94c 89bc f7d4 08bf 5aef abbc
000001c0: 2114 58bd 1f38 793c 4e85 6abb 5352 163b
000001d0: f8a9 3cbd 68f2 fdbc 509c 98be 21e1 2ebd
000001e0: 8fe5 54bc f666 16bc b3a6 3cbe 4ccc 28bd
000001f0: b758 b4be 891b 05bd f693 c13c 3f2e 9ebc
00000200: 2426 bfbc b89a 53bb 63e0 59bc f216 dd3d
00000210: dd23 59ba c28d 0f3d 5e71 443d 4a73 3e3d
00000220: 0cf8 c13c ddb1 7dbc 5109 0fb9 0556 ddbb
00000230: b02c cc3c 46ae 683d 2870 703d 7018 ed3c
00000240: 6664 343c e8dc ef3c 04da 14be bdd3 a5bc
00000250: 88bd 39bd ff05 2cbe f3c5 583c fa8f 033c
00000260: 9c12 873c 55a4 043d b522 e13d 6c78 483d
00000270: 4a6e 053d b38a 05bb 3c5f f23b 0ada 823b
00000280: 95df ecbc b9d0 be3d ed07 af3c 1c61 163d
00000290: 6b82 58bd 2d4a b2bd cd5f bdbe 352b dc3b
000002a0: a357 8b3b 5814 a8bb 7382 873b 927c b83d
000002b0: 36c1 633a b632 0e3d 1d09 f43d dbdd 0e3c
000002c0: 2bef d93c fe6f 10bf 88d9 bfbb 565d 753d
000002d0: ee0d 6cbe 5354 88bc 95b5 043e 8edd c6bd
000002e0: 8165 a3bb 3000 74bd 8910 afba f16f 9c3e
000002f0: 0488 973d 9d71 d43c e006 a1bb 1217 79be
00000300: e376 41bc 844b 98bb 06ad 2b3e fd4d bebc
00000310: 21b1 34bc 22e9 183e 7af0 f93c 042b c13a
00000320: 4b9f a93d de6c 043e a372 e23c 7b22 2cbc
00000330: 0e23 0e3d 2714 b4bd c532 9d3c f885 94be
00000340: 8a1b 353b 9386 a13d d697 053e f574 483e
00000350: ba8e 54bc f7a5 383c 9b6f 67bc b485 013d
00000360: 59c7 9a3b f4c4 44bd e45a 893c 240b 54bb
00000370: 0c1d bf3e 23b8 00bd 9cf7 313d 1521 cdbc
00000380: b7ee 253c 9ebb 7e3c 60cf e83a ec15 a9bd
00000390: c83a b13e 32d3 a13b 3d01 6e3c 0637 6dbc
000003a0: 7ec3 943d f4b9 debd 8ac6 0c3d 2125 db3c
000003b0: a757 e3bc e7e7 4fbc aa37 873e b746 4db6
000003c0: 0fba c63d 0363 efbc ce5c d6bd 55c5 f73c
000003d0: 899b a73d c6d8 2f3c 86a4 46be b524 b33c
000003e0: 4f8d e33b 6e3d f33a cd9b d23d e9a5 f93c
000003f0: a7c1 093e ae71 433e c70b 6dbc a9ee 1bbc

action_model._discrete_distribution.branches.1.bias f4 [3]
-0.2896081 0.026907358 0.25173318
00000000: 8347 94be d26c dc3c 2ce3 803e

action_model._discrete_distribution.branches.1.weight f4 [3, 128]
-0.03706775 0.28879982 -0.017201595 -0.006798101 -0.019438663 0.038645633 0.0064756637 0.056580085
0.016850987 -0.034505107 -0.01366212 -0.044960998 0.0066956687 0.055419676 0.053557914 0.056435946
0.030518677 0.0044201757 0.13377689 -0.017728178 -0.0823777 -0.05802934 0.044190306 -0.14697869
0.027790802 -0.0060874177 -0.03440427 -0.09536086 -0.011812854 0.0040209447 0.0068431636 -0.015945269
-0.056521006 0.03997072 -0.017337056 0.047615297 -0.33716825 -0.15354724 0.02199984 -0.03402967
0.0034682683 0.019466124 -0.027861444 0.097958006 0.0064480836 0.06061276 0.15250957 -0.3132285
0.008005901 -0.3100532 0.032871563 0.043346457 0.30642885 0.10035993 -0.052868802 -0.21787727
0.017226212 -0.009094064 -0.002015529 0.024309484 0.04977055 0.020755751 0.0031665743 0.42498466
-0.011452407 -0.35170794 -0.008464085 0.014640656 -0.012940279 0.15152396 0.016198393 0.05188518
0.31489652 -0.15066564 0.044135824 0.021318512 0.037025895 0.17430411 0.00019696992 -0.0788979
0.0367015 -0.8843058 -0.037743635 -0.14129265 -0.005560955 0.036184374 0.03025248 0.010329319
0.0058361148 -0.019332781 0.04380188 0.0027602592 -0.48454547 -0.09126353 -0.015615569 -0.0159833
-0.021363568 0.026063785 0.026222644 0.058417555 0.21644045 0.016225968 0.02962847 0.0035356374
0.030608902 -0.11353261 0.019570882 0.0350565 -0.0029883462 0.025845222 0.09980492 0.014113977
0.06192566 -0.0017947549 -0.042155053 0.029958958 0.04792135 0.002316578 -0.019270293 0.04263082
0.027060343 0.0012716394 -0.38517895 0.07168697 0.04182144 -0.028671943 -0.064983405 0.021075066
-0.0016061547 -0.28857872 0.024434013 -0.0036811226 0.016193297 0.005739766 0.04237169 -0.017387206
0.0217603 -0.004245024 0.02784659 0.01610481 0.035684213 -0.008981128 0.0037846381 -0.034071665
0.0061242604 0.035775963 -0.02693328 -0.012532741 0.031007562 -0.02879399 -0.021372966 0.040444627
-0.01413883 0.007938107 -0.018131498 -0.09586963 0.011445336 0.0073255403 0.00046426695 0.021059508
0.012029391 0.13185196 0.003811021 0.017564747 0.15298493 0.104302764 0.16734506 0.03776194
0.012157746 -0.01700819 0.011912175 -0.16338164 -0.0031893326 -0.02971276 -0.11836139 0.025622485
0.015434858 0.5067374 -0.017626973 -0.02686944 -0.21581562 -0.073956974 0.15462549 0.06057939
0.008812455 0.043456037 -0.0027178815 -0.12397982 0.014545223 0.0010212618 -0.0019034778 -0.059867036
-0.013526351 0.007463388 0.055143412 -0.030015865 0.029076712 -0.08671109 0.00077958195 -0.008658075
-0.04223789 -0.10925233 0.002435148 0.005930841 0.006603789 -0.057183255 0.0093849795 0.11245811
-0.014622927 0.45002344 0.07146241 0.06501235 0.008294797 -0.015947733 -0.020734482 0.028985903
0.0054356405 0.025905432 0.014080054 -0.0020119478 -0.37410617 0.3051374 0.028335689 0.020939933
0.022989944 0.0012724494 -0.022188436 -0.11215023 -0.14093493 -0.027717423 0.0053923666 0.0038530102
-0.026204742 -0.010732373 -0.0035172275 0.0049544596 -0.010740221 -0.003080589 -0.32726613 -0.0115738055
-0.007683717 -0.0054663396 0.025296511 -0.0017348634 0.0008671665 -0.000980197 0.058771312 0.01268612
-0.013766295 -0.024005191 -0.040162057 -0.018864516 0.04641504 -0.013018548 0.009518651 -0.0030205979
00000000: 5ad4 17bd 92dd 933e 5cea 8cbc 9bc2 debb
00000010: d53d 9fbc e24a 1e3d ce31 d43b 85c0 673d
00000020: 150b 8a3c 3a55 0dbd 16d7 5fbc 0629 38bd
00000030: 5767 db3b beff 623d 8b5f 5b3d 6129 673d
00000040: 4e02 fa3c 1fd7 903b cffc 083e af3a 91bc
00000050: a4b5 a8bd 2cb0 6dbd e500 353d 9581 16be
00000060: 89a9 e33c f678 c7bb 7eeb 0cbd 8e4c c3bd
00000070: b38a 41bc 21c2 833b 9e3c e03b a79f 82bc
00000080: 9282 67bd 56b8 233d 7106 8ebc 4208 433d
00000090: 51a1 acbe 7d3b 1dbe 0239 b43c b262 0bbd
000000a0: e34b 633b 6c77 9f3c af3d e4bc 359e c83d
000000b0: 724a d33b 1645 783d 782b 1c3e 7c5f a0be
000000c0: 2f2b 033c 4bbf 9ebe 55a4 063d 0e8c 313d
000000d0: 3ee4 9c3e 8289 cd3d f58c 58bd 381b 5fbe
000000e0: fc1d 8d3c 45ff 14bc f716 04bb af24 c73c
000000f0: 34dc 4b3d f707 aa3c 4d86 4f3b 9797 d93e
00000100: e0a2 3bbc 1013 b4be f2ac 0abc 5ddf 6f3c
00000110: 7703 54bc 1929 1b3e 7eb2 843c 8e85 543d
00000120: 1e3a a13e 1848 1abe c4c7 343d 29a4 ae3c
00000130: 77a8 173d c77c 323e b689 4e39 3995 a1bd
00000140: 5054 163d dd61 62bf 1299 1abd 05af 10be
00000150: ac38 b6bb 1136 143d 0dd4 f73c 4e3c 293c
00000160: e13c bf3b c85f 9ebc 9a69 333d 77e5 343b
00000170: 5816 f8be 60e8 babd 72d8 7fbc 69ef 82bc
00000180: a602 afbc b883 d53c dfd0 d63c 3f47 6f3d
00000190: 91a2 5d3e 52ec 843c 68b7 f23c 27b6 673b
000001a0: 85bf fa3c c983 e8bd 1d53 a03c 6897 0f3d
000001b0: 21d8 43bb 5cb9 d33c 8666 cc3d 4f3e 673c
000001c0: c3a5 7d3d fb3d ebba c7aa 2cbd 7d6c f53c
000001d0: 2d49 443d bbd1 173b bcdc 9dbc a89d 2e3d
000001e0: a7ad dd3c 23ad a63a 2d36 c5be 9ed0 923d
000001f0: f54c 2b3d 6ce1 eabc 0516 85bd 9ea5 ac3c
00000200: 9c85 d2ba 97c0 93be d729 c83c fd3e 71bb
00000210: cea7 843c a614 bc3b f08d 2d3d 9d6f 8ebc
00000220: a842 b23c d819 8bbb 881e e43c 3cee 833c
00000230: 9c29 123d 9525 13bc b107 783b bb8e 0bbd
00000240: 05ae c83b d189 123d 2fa3 dcbc 2056 4dbc
00000250: 9203 fe3c 60e1 ebbc 5c16 afbc 44a9 253d
00000260: 8da6 67bc d50e 023c 8288 94bc 4c57 c4bd
00000270: 3885 3b3c 160b f03b db68 f339 fd84 ac3c
00000280: ec16 453c 3304 073e 53c2 793b f2e3 8f3c
00000290: 15a8 1c3e b09c d53d 815c 2b3e 44ac 1a3d
000002a0: 4831 473c c254 8bbc 492b 433c 844d 27be
000002b0: 1f04 51bb 2d68 f3bc 7567 f2bd 3fe6 d13c
000002c0: 7de2 7c3c 8bb9 013f 7166 90bc 4d1d dcbc
000002d0: c5fe 5cbe c176 97bd 2556 1e3e 1822 783d
000002e0: 1e62 103c f5fe 313d 7c1e 32bb 22e9 fdbd
000002f0: 164f 6e3c dcdb 853a 1e7e f9ba 2337 75bd
00000300: a19d 5dbc 708f f43b 0fde 613d d5e3 f5bc
00000310: 4932 ee3c 9595 b1bd dc5c 4c3a 99da 0dbc
00000320: a301 2dbd b0bf dfbd 0197 1f3b 8057 c23b
00000330: 9964 d83b fd38 6abd 75c3 193c 7050 e63d
00000340: 0095 6fbc 7969 e63e e25a 923d 3225 853d
00000350: e6e6 073c d2a4 82bc 5cdb a9bc d873 ed3c
00000360: 751d b23b a137 d43c 07b0 663c e2da 03bb
00000370: d88a bfbe f83a 9c3e 3f20 e83c 398a ab3c
00000380: 6855 bc3c 51c8 a63a 86c4 b5bc 05af e5bd
00000390: 3f51 10be a60f e3bc 73b2 b03b c982 7c3b
000003a0: 54ab d6bc d6d6 2fbc 4981 66bb 0559 a23b
000003b0: c0f7 2fbc b5e3 49bb 6d8f a7be 0fa0 3dbc
000003c0: b1c7 fbbb fb1e b3bb a13a cf3c 5b64 e3ba
000003d0: 8f52 633a f479 80ba 30ba 703d 72d9 4f3c
000003e0: 078c 61bc 89a6 c4bc f880 24bd c289 9abc
000003f0: b21d 3e3d bf4b 55bc 1ef4 1b3c 39f5 45bb

discrete_action_output_shape f4 [1, 2]
3.0 3.0
00000000: 0000 4040 0000 4040

network_body._body_endoder.seq_layers.0.bias f4 [128]
-0.78895915 -0.112563886 -0.58694273 -0.6425077 -0.6889026 -0.026710633 -0.32496247 -0.20511293
-0.74123245 -0.72804403 0.025133085 -0.023929626 -0.10699138 -0.88975924 -0.7819769 -0.15989877
-0.51556385 -0.38924795 -0.011800266 -0.6850167 -0.31377578 -0.52762055 -0.3708883 -0.78507376
-0.02675798 -0.6686952 -0.06548971 -0.03553243 -0.21807237 -0.43056837 0.030385945 -0.0075177946
-0.30357113 -0.6396471 -0.21657915 -0.6000199 -0.007447541 -0.00553818 -0.1791637 -0.3147475
-0.017609078 -0.17367357 -0.029305471 -0.40426418 -0.0049219164 -0.15673389 -0.07606589 -0.013144722
-0.12815738 -0.28446403 -0.18198985 -0.015847035 0.0035114312 -0.4607608 -0.15871076 -0.13495497
-0.24545601 -0.61491156 -0.26831964 0.01693085 -0.015314539 -0.8579726 -0.7552659 -0.5240552
-0.95768136 -0.22494042 -0.025056627 -0.28880376 -0.18724672 -0.31346765 -0.17213427 -0.41865763
0.0017299084 -0.4794157 -0.4118094 0.05724699 -0.16113353 -0.63570696 -0.3878736 -0.72970736
-0.59473217 -0.52664757 -0.12778775 -0.40520832 -0.03738602 0.002832647 -0.00026426016 -0.22262727
0.022400051 0.0099786455 -0.003499392 0.02683045 -0.038336247 -0.36720598 -0.011019237 -0.6377934
-0.5386974 -0.66442066 0.0013794492 -0.027308617 0.011883031 -0.23903926 -0.35870948 -0.013031915
-0.256045 -0.024252689 -0.40052792 -0.02108971 -0.021519065 -0.2645428 -0.46948922 -0.27905187
-0.11998952 0.027207313 0.021413753 0.011494027 -0.33184135 -0.5041312 -0.10005746 -0.36648005
-0.31603116 -0.011781028 -0.13453686 -0.3708782 -0.30140874 -0.6007272 -0.44099048 -0.8781721
00000000: 3af9 49bf e587 e6bd e141 16bf 627b 24bf
00000010: ec5b 30bf 42d0 dabc 7b61 a6be 2009 52be
00000020: 69c1 3dbf 1861 3abf e6e3 cd3c 1008 c4bc
00000030: 4c1e dbbd 43c7 63bf a32f 48bf 81bc 23be
00000040: fefb 03bf 824b c7be e755 41bc 415d 2fbf
00000050: 38a7 a0be 2412 07bf 12e5 bdbe 98fa 48bf
00000060: 8d33 dbbc 9c2f 2bbf 781f 86bd 748a 11bd
00000070: 5d4e 5fbe 7573 dcbe f2eb f83c d557 f6bb
00000080: ad6d 9bbe eabf 23bf edc6 5dbe e79a 19bf
00000090: 810a f4bb 9f79 b5bb b076 37be 9626 a1be
000000a0: ea40 90bc 7cd7 31be 0712 f0bc b7fb cebe
000000b0: 0748 a1bb d97e 20be 6fc8 9bbd f65c 57bc
000000c0: b03b 03be 45a5 91be 8c5b 3abe a4d1 81bc
000000d0: 0a20 663b d7e8 ebbe 1385 22be a331 0abe
000000e0: d258 7bbe d86a 1dbf 3161 89be 91b2 8a3c
000000f0: d5e9 7abc 18a4 5bbf 1b59 41bf 7b28 06bf
00000100: 9b2a 75bf c856 66be 8e43 cdbc 16de 93be
00000110: 9bbd 3fbe d57e a0be f743 30be 4b5a d6be
00000120: 18be e23a fa75 f5be afd8 d2be d27b 6a3d
00000130: 3000 25be b1bd 22bf 5e97 c6be 1ace 3abf
00000140: 5e40 18bf 60d2 06bf cbda 02be 7777 cfbe
00000150: 1522 19bd eea3 393b 668c 8ab9 67f8 63be
00000160: 5080 b73c 797d 233c 0e56 65bb 88cb db3c
00000170: 7806 1dbd 6c02 bcbe 088a 34bc 6e46 23bf
00000180: 13e8 09bf 7917 2abf a2ce b43a 52b6 dfbc
00000190: 0bb1 423c b5c6 74be c5a8 b7be d083 55bc
000001a0: 5518 83be 93ad c6bc ff11 cdbe 54c4 acbc
000001b0: c048 b0bc 2772 87be e460 f0be e3df 8ebe
000001c0: 11bd f5bd dfe1 de3c e56b af3c 7251 3c3c
000001d0: 1ce7 a9be be0e 01bf edea ccbd 46a3 bbbe
000001e0: d6ce a1be 3605 41bc 08c4 09be bfe3 bdbe
000001f0: 3f52 9abe 42c9 19bf 81c9 e1be e3cf 60bf

network_body._body_endoder.seq_layers.0.weight f4 [128, 13]
-0.09480167 0.025990652 -0.023530504 0.30875856 0.2637391 -0.102933414 -0.19960563 -0.3666533
-0.43897036 -0.23206729 0.41914353 -0.20489499 0.27834547 0.035583243 -0.06110134 0.073352024
0.05128904 -0.56564575 -0.06322959 -0.007328259 -0.30485362 -0.021914782 -0.0065317107 0.030012956
-0.003615638 0.2938294 0.13447303 -0.061328858 -0.14801362 -0.09086212 -0.2523226 -0.063580096
-1.1540854 -0.11745626 -0.14749028 -0.13390535 -0.15466109 -0.071347155 0.053992003 -0.021768983
0.108468026 -0.35818338 -0.059908964 -0.099016026 0.03217057 -0.9137604 0.28610963 -0.13862595
-0.13351423 0.45933792 -0.11124924 -0.24917385 0.6495201 -0.3364094 -0.19547723 0.4451551
-0.04716061 0.1738974 -0.6017279 -0.092231765 -0.06447362 0.056769602 -0.348628 -0.17587818
-0.17437202 -0.011488297 0.025215602 -0.06753554 -0.005853018 0.063389875 0.018557923 0.008266393
0.018651893 0.013692645 0.013187384 -0.00067907956 -0.0064302166 -0.033965416 0.09162986 -0.11805501
-0.16489144 -0.20477031 0.07776152 -0.3175842 -0.22373605 0.46388063 -0.4566165 0.15815489
0.40963602 -1.184216 0.12898715 -0.43702585 0.06686139 -0.20568664 0.050983574 0.3810683
0.0035386756 -0.11132554 -0.050745875 0.06161238 -0.006662978 -0.19671522 -0.25365496 -0.51381
-0.39317808 0.08916807 -0.60096526 -0.18548724 0.20894124 0.17632483 -0.50055325 -0.10583778
-0.5473199 0.068294175 0.18551947 -0.18744253 0.2077996 0.010105939 -0.16412236 0.0295371
0.02231096 -0.25280753 -0.16549516 -0.2596928 0.040707447 0.025785862 0.022157822 0.267069
0.27116263 -0.19759762 0.027577564 -0.019492602 0.02521208 0.035644636 -0.12182287 0.019766822
0.03481029 -0.017309668 -0.0026265716 -0.008418039 0.018502712 0.0027070472 0.0053859884 0.0021177349
0.028575422 -0.049484335 -0.00832497 -0.09723286 0.024248406 -0.00317275 0.010215176 0.009586296
0.026202355 -0.022364037 0.0023420388 -0.015876943 0.06019792 -0.0014425186 0.16144007 0.14018336
0.16376422 0.3465691 0.11385158 -0.104141206 0.041953582 0.05175524 0.07211351 -0.08005357
0.08699867 0.16837335 -0.31071067 -0.14329855 0.15149926 0.13431598 0.26413915 -0.37599066
0.10851514 0.083023846 0.2256569 0.5707607 -0.32761848 0.22249015 -0.38877496 -0.028846405
-0.523178 0.05769193 0.26446626 0.39015263 0.24034508 -0.08825324 -0.49209467 0.32057297
-0.71162546 -0.54997057 -0.03211185 0.10594877 0.120368175 -0.11148844 0.3350754 -0.103791505
0.44241628 0.44807175 -0.2777421 -0.012737541 -0.0052607013 0.098265275 0.037524156 -0.14295074
0.022522816 -0.6317023 0.26786956 -0.0028822217 0.22533701 0.24229413 -0.5264806 -0.662692
-0.7831979 0.23808146 0.62416357 -0.17003918 -0.17559035 -0.400969 -0.11432021 0.05167137
0.11859014 0.35324365 -0.006113112 0.10131454 -0.008750658 -0.032328084 0.015364648 0.11812939
-0.031342484 0.06089726 -0.005221696 -0.038801953 0.057052672 0.05045305 -0.052201353 0.040209945
0.020964291 -0.013885216 -0.0037433656 -0.01377606 0.007010855 0.03283281 0.038778313 0.020418162
-0.2680452 -0.18107766 0.31660366 0.48584035 0.46171874 0.18581162 0.20160793 -0.8673296
00000000: 6127 c2bd 59ea d43c 0bc3 c0bc 9a15 9e3e
00000010: d008 873e c1ce d2bd 6b65 4cbe fbb9 bbbe
00000020: b9c0 e0be 0ca3 6dbe fb99 d63e fecf 51be
00000030: 4c83 8e3e bcbf 113d 6645 7abd 9639 963d
00000040: 7514 523d 29ce 10bf 847e 81bd e421 f0bb
00000050: c615 9cbe a186 b3bc f607 d6bb bbdd f53c
00000060: 57f4 6cbb cf70 963e 4cb3 093e f833 7bbd
00000070: e290 17be eb15 babd 6e30 81be 4836 82bd
00000080: 12b9 93bf e88c f0bd b107 17be 7c1e 09be
00000090: 7a5f 1ebe 751e 92bd b826 5d3d de54 b2bc
000000a0: 7c24 de3d d063 b7be 1a63 75bd eac8 cabd
000000b0: 4ac5 033d 34ec 69bf f67c 923e f6f3 0dbe
000000c0: f4b7 08be 572e eb3e a4d6 e3bd 6e27 7fbe
000000d0: f346 263f da3d acbe 2f2b 48be 5feb e33e
000000e0: 7c2b 41bd 2912 323e d70a 1abf 02e4 bcbd
000000f0: bf0a 84bd 3e87 683d 5f7f b2be 6919 34be
00000100: 948e 32be 6939 3cbc f390 ce3c 1350 8abd
00000110: acca bfbb 8dd2 813d c906 983c c46f 073c
00000120: dbcb 983c 1e57 603c e60f 583c 4204 32ba
00000130: 91b4 d2bb 521f 0bbd 70a8 bb3d d3c6 f1bd
00000140: 4dd9 28be 4faf 51be 6f41 9f3d 659a a2be
00000150: 101b 65be c381 ed3e a3c9 e9be 5bf3 213e
00000160: d0bb d13e 6494 97bf 3515 043e dac1 dfbe
00000170: a0ee 883d 859f 52be 27d4 503d 621b c33e
00000180: 20e9 673b a5fe e3bd e8da 4fbd 435d 7c3d
00000190: 1c55 dabb b76f 49be 10df 81be 0d89 03bf
000001a0: a34e c9be c09d b63d dcd8 19bf 5ef0 3dbe
000001b0: b1f4 553e 7f8e 343e 4224 00bf 7ac1 d8bd
000001c0: 281d 0cbf d1dd 8b3d d1f8 3d3e eff0 3fbe
000001d0: 6bc9 543e 6193 253c b10f 28be caf7 f13c
000001e0: 79c5 b63c fd6f 81be 9077 29be 74f6 84be
000001f0: dabc 263d df3c d33c 5284 b53c 45bd 883e
00000200: d4d5 8a3e 0857 4abe 58ea e13c f3ae 9fbc
00000210: 9089 ce3c 1c00 123d 457e f9bd 08ee a13c
00000220: 3c95 0e3d 01cd 8dbc 8f22 2cbb d1eb 09bc
00000230: 0093 973c b768 313b f27c b03b b2c9 0a3b
00000240: 0117 ea3c 16b0 4abd 7465 08bc 0622 c7bd
00000250: 98a4 c63c e9ed 4fbb 8e5d 273c d70f 1d3c
00000260: 52a6 d63c c934 b7bc e47c 193b 5d10 82bc
00000270: 1892 763d e412 bdba 8c50 253e 3a8c 0f3e
00000280: cfb1 273e 8171 b13e 042b e93d fc47 d5bd
00000290: 85d7 2b3d 4dfd 533d 3fb0 933d 20f3 a3bd
000002a0: 5c2c b23d 106a 2c3e 7815 9fbe dbbc 12be
000002b0: 9f22 1b3e 218a 093e 3f3d 873e d981 c0be
000002c0: 303d de3d 6808 aa3d 9a12 673e 601d 123f
000002d0: 9cbd a7be 75d4 633e 830d c7be 4c4f ecbc
000002e0: feee 05bf 604e 6c3d 1f68 873e 16c2 c73e
000002f0: 051d 763e 1dbe b4bd d5f3 fbbe 2422 a43e
00000300: 162d 36bf dfca 0cbf b787 03bd abfb d83d
00000310: 9783 f63d 0d54 e4bd 018f ab3e a490 d4bd
00000320: 6384 e23e a969 e53e 3634 8ebe 1fb1 50bc
00000330: f661 acbb 4e3f c93d eeb2 193d ae61 12be
00000340: c581 b83c 3eb7 21bf 3326 893e a8e3 3cbb
00000350: bfbe 663e f41b 783e 6fc7 06bf 2fa6 29bf
00000360: a87f 48bf a0cb 733e 2fc9 1f3f c01e 2ebe
00000370: f5cd 33be cf4b cdbe b720 eabd 5ca5 533d
00000380: 63df f23d 5adc b43e 8050 c8bb ff7d cf3d
00000390: eb5e 0fbc 746a 04bd 01bc 7b3c d2ed f13d
000003a0: fa60 00bd 686f 793d c31a abbb ccee 1ebd
000003b0: 10b0 693d dba7 4e3d 16d1 55bd 2fb3 243d
000003c0: 4ebd ab3c d17e 63bc 4153 75bb fcb4 61bc
000003d0: 50bb e53b b27b 063d 02d6 1e3d fd43 a73c
000003e0: 383d 89be 6c6c 39be e019 a23e 11c0 f83e
000003f0: 6666 ec3e 6745 3e3e 4f72 4e3e 5009 5ebf

network_body._body_endoder.seq_layers.2.bias f4 [128]
-0.061711997 -0.5800522 -0.059013065 -0.36083153 -0.084856585 -0.026831232 -0.078673705 -0.076194264
-0.035591766 -0.028199205 -0.07476178 -0.02691508 -0.06252461 -0.09044795 -0.07425303 -0.07238782
-0.018168993 -0.0443594 -0.33584034 -0.011325328 -0.10947791 -0.43768734 -0.046611175 -0.17059089
0.017441537 -0.009311125 -0.7338809 -0.43411806 -0.037568267 -0.06581238 -0.08859037 -0.06198931
-0.024880284 -0.34959155 -0.0041709556 -0.15935598 -0.18225048 -0.22752395 -0.005498081 -0.015621194
0.005724717 -0.04468186 -0.03557969 -0.543089 -0.096705444 -0.03768279 -0.36092943 -0.056891322
-0.084158905 -0.29569575 -0.012848956 -0.15886278 -0.48386085 -0.47934407 -0.42211345 -0.3755291
-0.033374887 -0.10386171 -0.046433393 -0.36246365 -0.059037264 -0.023282785 -0.07531788 -0.7024308
-0.06031968 -0.54455185 -0.23072197 -0.041415967 -0.060520843 -0.18514961 -0.016276155 -0.06963541
-0.6036537 -0.40641838 -0.046712086 -0.06964283 -0.15594348 -0.4193388 -0.035942167 -0.18971081
-0.043230686 -0.2477878 -0.33032605 -0.3502951 0.008382681 -0.030798024 -0.008518335 -0.0071479576
-0.014259356 -0.09330712 -0.11805758 0.0006368267 -0.4314796 -0.41571197 -0.07629728 -0.2042612
-0.0609295 -0.10825452 0.03945994 -0.41536233 -0.9771185 -0.026176885 -0.0007539206 -0.0454987
-0.14391077 -0.15213172 0.025780093 -0.062580876 -0.047309365 -0.03637665 -0.4285726 -0.044365138
-0.08425526 -0.028806623 -0.4173735 -0.08060523 -0.08566634 -0.093215175 -0.35527056 -0.033588
-0.012051243 -0.0441349 -0.26352698 -0.018927312 -0.19385153 -0.67065334 -0.109498985 -0.017395183
00000000: b8c5 7cbd 4d7e 14bf afb7 71bd e9be b8be
00000010: 4ac9 adbd 2ccd dbbc ae1f a1bd bd0b 9cbd
00000020: acc8 11bd 0502 e7bc b41c 99bd 047d dcbc
00000030: e70c 80bd c63c b9bd f911 98bd 1140 94bd
00000040: 24d7 94bc 34b2 35bd 44f3 abbe de8d 39bc
00000050: f435 e0bd 8e18 e0be 5ceb 3ebd 61af 2ebe
00000060: 8ee1 8e3c b08d 18bc 9edf 3bbf b944 debe
00000070: 2fe1 19bd a4c8 86bd de6e b5bd 81e8 7dbd
00000080: bdd1 cbbc aafd b2be 83ac 88bb 372e 23be
00000090: df9f 3abe 0afc 68be 3f29 b4bb 09f0 7fbc
000000a0: 6896 bb3b 5304 37bd 02bc 11bd e107 0bbf
000000b0: 810d c6bd 4559 1abd becb b8be e006 69bd
000000c0: 815b acbd 6f65 97be 6d84 52bc edac 22be
000000d0: 9cbc f7be 966c f5be 411f d8be 5a45 c0be
000000e0: 1bb4 08bd 73b5 d4bd f130 3ebd d694 b9be
000000f0: 0fd1 71bd 8abb bebc 4340 9abd 81d2 33bf
00000100: c511 77bd c067 0bbf 6142 6cbe caa3 29bd
00000110: b4e4 77bd dc97 3dbe 9255 85bc 039d 8ebd
00000120: 0d89 1abf 1216 d0be 2c55 3fbd e6a0 8ebd
00000130: a6af 1fbe 93b3 d6be 1838 13bd 8d43 42be
00000140: a912 31bd 16bc 7dbe 7f20 a9be e159 b3be
00000150: 8357 093c 234c fcbc 7d90 0bbc 6a39 eabb
00000160: 13a0 69bc ce17 bfbd 2cc8 f1bd b7f0 263a
00000170: e5ea dcbe 33d8 d4be c041 9cbd d929 51be
00000180: 3691 79bd 8cb4 ddbd bfa0 213d 5faa d4be
00000190: 7024 7abf e870 d6bc c1a2 45ba d85c 3abd
000001a0: 585d 13be 6bc8 1bbe c630 d33c 672a 80bd
000001b0: 77c7 41bd afff 14bd de6d dbbe 38b8 35bd
000001c0: 068e acbd defb ebbc fbb1 d5be 5b14 a5bd
000001d0: d671 afbd 99e7 bebd 06e6 b5be 9293 09bd
000001e0: 9472 45bc ccc6 34bd 02ed 86be 730d 9bbc
000001f0: 0481 46be f0af 2bbf 0141 e0bd 5880 8ebc

network_body._body_endoder.seq_layers.2.weight f4 [128, 128]
0.07632498 -0.050709013 -0.088616945 0.040577207 0.024501825 0.06388628 0.014866887 0.05578043
-0.06591056 -0.14884613 -0.019839713 -0.08688343 -0.13543981 0.093744956 -0.04577336 0.03898809
-0.03628881 -0.015191863 0.008252433 -0.20686668 0.055100203 0.13306242 0.14438356 0.041770097
-0.014609262 -0.022480741 0.06568411 -0.013247092 -0.043104786 0.13251945 0.027559275 -0.06877131
-0.03495948 -0.08399721 -0.0003928165 0.04169467 0.0040783305 0.032994818 -0.060694825 -0.057296194
0.07238499 0.11417707 -0.008435721 -0.068210594 0.05240538 0.02564202 0.029763373 4.6035693e-05
-0.11232312 0.061265577 0.07461292 -0.015234918 -0.01826778 0.063559584 0.06977933 0.02234948
-0.108997144 0.007971345 -0.029991126 0.11183948 0.023110041 -0.025603082 0.0026907793 0.047045078
0.018390633 0.09020299 -0.07804882 -0.020152193 -0.062463447 0.12234295 0.054039355 -0.012391067
-0.022134965 0.09601029 0.09366598 0.022809487 0.043501314 0.21283656 0.03797943 -0.122835346
-0.04223002 -0.01626234 -0.03153751 0.034608696 -0.03649508 -0.025262577 0.0015561356 0.093835555
-0.02160533 0.08451346 -0.07139854 0.04103107 0.125533 -0.07428131 0.0062414953 0.09719635
0.0998716 0.020148953 0.0044079833 -0.0710697 0.09758895 0.03158409 0.115949586 0.001170654
0.21282862 -0.024934877 0.0018632951 0.012923612 0.03776985 -0.032921202 -0.05433127 0.016094942
0.21321201 0.05263116 0.057987068 -0.0443013 0.059486028 0.021352315 -0.07131309 0.10289291
0.10480773 0.025948394 -0.15378648 -0.13486041 0.009695342 -0.10197017 -0.14330208 0.04053941
0.040954202 -0.044440623 -0.12203611 -0.085369095 -0.25282386 0.0063228454 0.11054036 0.14472243
-0.089483626 0.105380446 -0.004922877 -0.004023179 0.014041864 0.120034575 -0.0052983514 -0.17267273
-0.9184288 -0.14015862 0.0052191233 -0.16780785 -0.21968119 -0.45849916 0.10725527 -0.48327264
-0.011612543 -0.69243044 0.07405538 -0.017502274 -0.53587633 -0.23505561 -0.0030392609 -0.026692417
-1.1333816 -0.06489075 -0.10565344 -0.6432692 0.039938726 0.02740425 0.12865074 -0.030225763
0.01199697 -0.09510994 -0.0127015505 -0.58388394 0.0009749682 -0.25179613 0.07415942 -0.06725046
0.19095415 -0.0585653 0.10953859 -0.04240905 -0.010073181 0.23087353 -0.7362294 -0.026603108
-0.40548912 0.21193306 0.046203297 -0.004448116 -0.0066287145 0.32592872 0.04019563 -0.09464682
0.03871474 0.30655533 0.06478346 -0.04436209 0.23685439 -0.28664804 0.096647695 -0.21356833
-0.037215155 0.14236452 -0.4331928 -0.0048420904 -0.03823403 -0.063157015 -0.76291573 -0.113099374
0.022012986 -0.18603528 -0.06039731 -0.00081097643 0.018924607 -0.04744361 0.011993018 -0.19417979
-0.043047957 0.010546267 0.02422302 0.009751655 0.010608817 -0.050841313 -0.6035183 0.376578
-0.15178916 -0.18537587 -0.03350805 -0.049641404 -0.03927816 0.057677966 -0.11347844 -0.03236623
-0.051662803 0.04983145 -0.2838201 -0.0045236154 0.01102901 -0.13296671 -0.44696224 0.15293214
-0.06467152 -0.057387564 -0.05055068 5.848553e-05 -0.5122445 -0.046753813 -0.46615002 0.5193556
0.06686402 -0.0368452 -0.072623216 -0.41391525 -0.35898516 -0.018831786 -0.115691215 -0.54120934
00000000: 4550 9c3d 41b4 4fbd cd7c b5bd 4934 263d
00000010: 0db8 c83c cfd6 823d 3e94 733c 057a 643d
00000020: 1efc 86bd 1f6b 18be e586 a2bc f1ef b1bd
00000030: bcb0 0abe 5bfd bf3d d97c 3bbd fab1 1f3d
00000040: 93a3 14bd 4be7 78bc 3635 073c dcd4 53be
00000050: c0b0 613d 8441 083e 49d9 133e 1f17 2b3d
00000060: b05b 6fbc 8829 b8bc 6485 863d 550a 59bc
00000070: a58e 30bd 2eb3 073e fdc3 e13c f9d7 8cbd
00000080: ac31 0fbd bb06 acbd f0f2 cdb9 08c8 2a3d
00000090: 84a3 853b 9325 073d 239b 78bd 6aaf 6abd
000000a0: 953e 943d abd5 e93d fa35 0abc ffb1 8bbd
000000b0: 06a7 563d 370f d23c 51d2 f33c 7316 4138
000000c0: aa09 e6bd 9df1 7a3d a9ce 983d e19b 79bc
000000d0: 50a6 95bc 872b 823d 77e8 8e3d 4216 b73c
000000e0: e539 dfbd 3f9a 023c f3af f5bc 190c e53d
000000f0: 4551 bd3c 8ebd d1bc c957 303b 57b2 403d
00000100: f4a7 963c 58bc b83d 0fd8 9fbd 3616 a5bc
00000110: acd9 7fbd f18e fa3d 5f58 5d3d e703 4bbc
00000120: 6354 b5bc 0ba1 c43d f3d3 bf3d f6da ba3c
00000130: 6f2e 323d d4f1 593e 5290 1b3d 1991 fbbd
00000140: 63f9 2cbd 9938 85bc 7a2d 01bd d9c1 0d3d
00000150: dd7b 15bd 77f3 cebc 3ff7 cb3a db2c c03d
00000160: a9fd b0bc 6515 ad3d 6639 92bd 3210 283d
00000170: b98b 003e cd20 98bd 7585 cc3b e10e c73d
00000180: 7b89 cc3d 6b0f a53c d870 903b fe8c 91bd
00000190: b7dc c73d 525e 013d fa76 ed3d a170 993a
000001a0: bfef 593e 3a44 ccbc cf39 f43a 8fbd 533c
000001b0: 8fb4 1a3d 62d8 06bd 778a 5ebd 8ad9 833c
000001c0: 4054 5a3e c593 573d d983 6d3d 4875 35bd
000001d0: 9fa7 733d 0deb ae3c 990c 92bd 85b9 d23d
000001e0: 6fa5 d63d ba91 d43c 347a 1dbe d918 0abe
000001f0: 36d9 1e3c bdd5 d0bd c8bd 12be a70c 263d
00000200: 98bf 273d 5f07 36bd 11ee f9bd fed5 aebd
00000210: 2172 81be df2f cf3b fc62 e23d 1e32 143e
00000220: 3143 b7bd b4d1 d73d 1650 a1bb dfd4 83bb
00000230: d90f 663c b0d4 f53d cb9d adbb 1fd1 30be
00000240: 261e 6bbf be85 0fbe 2e05 ab3b d2d5 2bbe
00000250: 1bf4 60be 67c0 eabe a7a8 db3d 836f f7be
00000260: 8942 3ebc 1f43 31bf 59aa 973d ee60 8fbc
00000270: 312f 09bf 6bb2 70be 562e 47bb 0eaa dabc
00000280: a612 91bf 71e5 84bd d560 d8bd 4aad 24bf
00000290: ca96 233d e17e e03c 05bd 033e 059c f7bc
000002a0: f08e 443c 00c9 c2bd 2a1a 50bc 6b79 15bf
000002b0: 0295 7f3a 6ceb 80be e5e0 973d 9cba 89bd
000002c0: 7c89 433e 2be2 6fbd c555 e03d 1db5 2dbd
000002d0: fc09 25bc 1c6a 6c3e 8879 3cbf c3ee d9bc
000002e0: 459c cfbe fb04 593e ab3f 3d3d 80c1 91bb
000002f0: b035 d9bb 21e0 a63e 2ca4 243d 31d6 c1bd
00000300: 5993 1e3d d2f4 9c3e 31ad 843d 06b5 35bd
00000310: f589 723e 88c3 92be 3aef c53d a8b1 5abe
00000320: eb6e 18bd 01c8 113e 72cb ddbe 66aa 9ebb
00000330: 499b 1cbd 7758 81bd 724e 43bf a5a0 e7bd
00000340: 9454 b43c 0880 3ebe 2b63 77bd b597 54ba
00000350: c707 9b3c 3b54 42bd 5d7e 443c 11d7 46be
00000360: 0e53 30bd 40ca 2c3c 5b6f c63c 68c5 1f3c
00000370: 9bd0 2d3c fb3e 50bd 2d80 1abf d5ce c03e
00000380: 9e6e 1bbe 2cd3 3dbe bd3f 09bd c954 4bbd
00000390: 23e2 20bd bb3f 6c3d 6267 e8bd 7492 04bd
000003a0: 609c 53bd 101c 4c3d de50 91be d63a 94bb
000003b0: 05b3 343c 6d28 08be 3cd8 e4be 3e9a 1c3e
000003c0: 8072 84bd 390f 6bbd 3b0e 4fbd 5c4e 7538
000003d0: 7522 03bf ed80 3fbd 37ab eebe 7df4 043f
000003e0: 01f0 883d feea 16bd 7bbb 94bd b3ec d3be
000003f0: e7cc b7be 1e45 9abc 84ef ecbd b28c 0abf

network_body.observation_encoder.processors.0.normalizer.running_mean f4 [13]
425.83377 515.07855 557.6842 1331.9512 0.0 1344.285 362.91818 353.5523
402.08502 25.439093 22.522875 -447.0142 -99.94511
00000000: b9ea d443 07c5 0044 ca6b 0b44 707e a644
00000010: 0000 0000 1f09 a844 8775 b543 b2c6 b043
00000020: e20a c943 4383 cb41 d92e b441 d181 dfc3
00000030: e5e3 c7c2
