results/EasyMapAgent3/My Behavior/checkpoint.pt (torch, 477743 bytes, 57 tensors)

discrete_act_size_vector f4 [1, 2]
0	0x40400000	3.0
1	0x40400000	3.0

network_body.observation_encoder.processors.0.normalizer.running_mean f4 [13]
0	0x43dc55b4	440.66956
1	0x44887e84	1091.9536
2	0x44257d78	661.96045
3	0x44648db8	914.21436
4	0x00000000	0.0
5	0x44335489	717.32086
6	0x44235e19	653.4703
7	0x440d2220	564.5332
8	0x441c1062	624.256
9	0x420f5988	35.837433
10	0x4186fd0b	16.873556
11	0xc371a47c	-241.64252
12	0x4309ae1d	137.68013

network_body.observation_encoder.processors.0.normalizer.running_variance f4 [13]
0	0x519207c6	7.8399455e+10
1	0x52db82be	4.7139566e+11
2	0x51989ce0	8.193337e+10
3	0x53dae752	1.8803676e+12
4	0x3f800000	1.0
5	0x531a30e3	6.6224515e+11
6	0x5240e2d1	2.0710977e+11
7	0x52535c1d	2.2694588e+11
8	0x51eadcd2	1.2609089e+11
9	0x50e43123	3.0627404e+10
10	0x50aa967c	2.289591e+10
11	0x524f583f	2.2263469e+11
12	0x514da035	5.5197258e+10

network_body.processors.0.normalizer.running_mean f4 [13]
0	0x43dc55b4	440.66956
1	0x44887e84	1091.9536
2	0x44257d78	661.96045
3	0x44648db8	914.21436
4	0x00000000	0.0
5	0x44335489	717.32086
6	0x44235e19	653.4703
7	0x440d2220	564.5332
8	0x441c1062	624.256
9	0x420f5988	35.837433
10	0x4186fd0b	16.873556
11	0xc371a47c	-241.64252
12	0x4309ae1d	137.68013

network_body.processors.0.normalizer.running_variance f4 [13]
0	0x519207c6	7.8399455e+10
1	0x52db82be	4.7139566e+11
2	0x51989ce0	8.193337e+10
3	0x53dae752	1.8803676e+12
4	0x3f800000	1.0
5	0x531a30e3	6.6224515e+11
6	0x5240e2d1	2.0710977e+11
7	0x52535c1d	2.2694588e+11
8	0x51eadcd2	1.2609089e+11
9	0x50e43123	3.0627404e+10
10	0x50aa967c	2.289591e+10
11	0x524f583f	2.2263469e+11
12	0x514da035	5.5197258e+10

network_body._body_endoder.seq_layers.0.weight f4 [128, 13]
0	0x3e91594e	0.28388447
1	0x3f04293f	0.51625437
2	0x3e86cdb2	0.26328808
3	0xbc5ae996	-0.013361355
4	0xbdee5aee	-0.11638437
5	0x3c2934f6	0.010327568
6	0x3ee1ae72	0.44078404
7	0x3db35968	0.08757287
8	0xbd8a874b	-0.06764086
9	0xbf1ca826	-0.61194074
10	0xbdee1c8d	-0.116265394
11	0x3d29ce65	0.0414566
12	0x3e7ff698	0.24996412
13	0xbecbc4ad	-0.3979849
14	0x3e2b4425	0.16725214
15	0x3d0e8fda	0.034805156
16	0xbd82dbc7	-0.063895755
17	0x3dd4fdf1	0.10399998
18	0x3e494978	0.19656932
19	0x3f3a81d8	0.72854376
20	0xbcda08de	-0.026615556
21	0xbecf9226	-0.4054119
22	0x3e8443bf	0.25832936
23	0x3e04238a	0.12904182
24	0x3e3b04b1	0.18263508
25	0xbebdc479	-0.3706396
26	0xbebe68d9	-0.37189367
27	0xbe8097cc	-0.25115812
28	0x3f80f39c	1.0074344
29	0x3f26ca59	0.6515251
30	0x3e6aafa7	0.22918569
31	0xbe3cdf79	-0.18444623
32	0xbd10a537	-0.03531381
33	0xbd88cea8	-0.066800416
34	0xbc52662a	-0.012841741
35	0xbe51d806	-0.20492563
36	0xbf259690	-0.64682865
37	0x3f96667c	1.1750026
38	0x3e867234	0.26259005
39	0xbeb8ac16	-0.3606879
40	0xbe2cfd03	-0.16893391
41	0x3f2a21d5	0.66457874
42	0xbefd6218	-0.49488902
43	0xbe2e7acf	-0.17039035
44	0xbe2232ee	-0.1583974
45	0x3e1844a8	0.1486994
46	0x3eb6fa44	0.35737813
47	0xbe1bafec	-0.15203828
48	0xbd724c95	-0.059155066
49	0xbdd21397	-0.10257643
50	0x3f5067a6	0.81408155
51	0xbcb2b5d5	-0.02181522
52	0x3e45b8cb	0.19308774
53	0x3ea6ab86	0.32552737
54	0xbd509bde	-0.050929897
55	0x3e347232	0.17621687
56	0xbc042922	-0.008066447
57	0xbd488940	-0.048959017
58	0xbeb28e01	-0.34873965
59	0x3f169433	0.58819884
60	0x3e022bf0	0.12712073
61	0x3e883337	0.26601574
62	0xbf0de1e9	-0.55422837
63	0x3d9f3e3d	0.07775543
64	0xbf79cb0f	-0.9757547
65	0xbd8dfc29	-0.06932861
66	0xbe5c993b	-0.21542828
67	0xbecc19ac	-0.39863336
68	0xbdfe64e2	-0.124215856
69	0x3ea1278e	0.3147549
70	0xbe227821	-0.15866138
71	0x3e781750	0.24227643
72	0x3e380518	0.17970693
73	0xbe88e88a	-0.26739913
74	0x3cee23c9	0.029069798
75	0xbdcbe312	-0.099554196
76	0xbd78dccc	-0.060757443
77	0x3d8b610c	0.068056196
78	0x3d554ca8	0.05207506
79	0x3e18e4ce	0.14931032
80	0x3d1d1809	0.038353
81	0xbe7973ef	-0.24360631
82	0xbd1c93c8	-0.038226873
83	0x3eed2ad6	0.46321744
84	0xbef6e655	-0.48222604
85	0x3dc36cd7	0.09542244
86	0x3e330f95	0.17486413
87	0xbf2e696a	-0.681296
88	0xbed38201	-0.41310123
89	0x3ec3ff84	0.3828088
90	0x3eccfa23	0.4003459
91	0xbf18af38	-0.5964236
92	0xbe49a3b1	-0.1969135
93	0xbdfcd906	-0.123460814
94	0x3cf93f2a	0.030425627
95	0xbdb201f4	-0.08691779
96	0xbe5a2c3f	-0.21305941
97	0x3f1cae7e	0.61203754
98	0x3e21ef68	0.15813982
99	0xbd96d792	-0.073653355
100	0xbeeb8b56	-0.46004742
101	0xbef6e928	-0.4822476
102	0x3ea8c929	0.32965973
103	0x3e974be7	0.29550096
104	0xbeee87b9	-0.46587923
105	0xbea2582e	-0.317079
106	0x3e516cc6	0.2045165
107	0xbf1a7672	-0.60336983
108	0x3f2524ae	0.64509094
109	0x3ebf15c9	0.37321308
110	0xbec6287c	-0.38702762
111	0x3f12b762	0.5731107
112	0xbf118a71	-0.5685187
113	0x3c811423	0.015756672
114	0x3e9f6803	0.31134042
115	0xbded4138	-0.11584705
116	0xbe75cb6c	-0.2400338
117	0xbe7000be	-0.23437783
118	0xbf69979b	-0.91246957
119	0x3ec893ff	0.39175412
120	0xbf01e000	-0.5073242
121	0x3e9fdad2	0.31221634
122	0xbe17587c	-0.14779848
123	0xbd279b01	-0.040919308
124	0x3c938fb9	0.018012868
125	0xbc1ffa11	-0.00976421
126	0x3d03e08a	0.03219656
127	0x3e913456	0.28360242
128	0xbe6b5ebd	-0.22985359
129	0xbe5f8afc	-0.21830362
130	0xbea45ac5	-0.32100502
131	0x3de23c38	0.11046642
132	0x3e930e2a	0.28721744
133	0x3e9ace9c	0.30235755
134	0x3e2470f8	0.16058719
135	0xbe374929	-0.17899002
136	0x3dbb4f48	0.09145981
137	0xbf0cb4cd	-0.5496338
138	0xbed352b9	-0.4127405
139	0x3ef77f16	0.48339146
140	0xbcc46eb8	-0.023978576
141	0xbe0ad36e	-0.13557217
142	0x3f587e90	0.8456812
143	0xbdb246d3	-0.08704915
144	0xbe86041c	-0.2617501
145	0x3f17a4f7	0.5923609
146	0x3e8897b4	0.2667824
147	0xbe5f19be	-0.21787164
148	0x3efcc61a	0.4936989
149	0x3ecdf279	0.40224054
150	0x3e8a9daa	0.27073413
151	0xbef44d0d	-0.47715035
152	0xbe8d2c71	-0.2757297
153	0xbf381d35	-0.71919566
154	0x3eeae5e9	0.45878533
155	0x3ea9ed88	0.33189034
156	0xbeb20a02	-0.3477326
157	0x3f03e228	0.5151696
158	0x3ea8a315	0.32936922
159	0xbf4add31	-0.7924376
160	0xbe60d782	-0.2195721
161	0x3e88570a	0.26628906
162	0x3e309f7d	0.1724834
163	0xbe8ee57e	-0.27909464
164	0x3e9f9aa8	0.3117268
165	0xbe94fce4	-0.2909919
166	0xbdea09dc	-0.11427662
167	0xbc8d1093	-0.017219817
168	0x3e752972	0.23941591
169	0xbe60a7c1	-0.21938993
170	0x3e4a0741	0.1972933
171	0xbd9ba157	-0.075991325
172	0xbead6a25	-0.33870044
173	0x3de56e8c	0.11202726
174	0xbe491ffa	-0.19641104
175	0x3f02e5d9	0.5113197
176	0x3eba99ad	0.3644537
177	0xbe9403ff	-0.289093
178	0xbebd6a29	-0.36995056
179	0xbdeb3c39	-0.11486096
180	0x3e91c117	0.28467628
181	0xbd8f4230	-0.06995046
182	0x3c40b694	0.01176228
183	0xbe16ade2	-0.14714769
184	0xbea5e06c	-0.32397783
185	0x3da9709d	0.082734324
186	0x3d97df6b	0.074156605
187	0xbea0668d	-0.3132824
188	0x3f18039a	0.59380496
189	0x3e2784e4	0.16359288
190	0xbe0dcf0a	-0.1384851
191	0xbe113b9a	-0.14182892
192	0xbe53101e	-0.20611617
193	0x3d54b4b7	0.051930156
194	0x3e17e2bb	0.14832585
195	0xbe379d88	-0.17931187
196	0xbce6269c	-0.028094582
197	0xbefc0185	-0.4921991
198	0xbf016177	-0.50539345
199	0xbed3bd8e	-0.41355556
200	0xbec3a90e	-0.38214916
201	0x3f35f820	0.71081734
202	0xbdaa9508	-0.08329207
203	0xbe7bf350	-0.24604535
204	0xbe0bef72	-0.1366556
205	0x3e7aeac8	0.24503624
206	0x3de8e182	0.11371137
207	0xbea85f62	-0.3288527
208	0xbe96ad73	-0.29429206
209	0x3c9fbd4b	0.019499442
210	0xbee21327	-0.44155237
211	0xbe74d978	-0.23911083
212	0xbd311f39	-0.043242667
213	0xbca4a2f5	-0.020097235
214	0x3e891f18	0.26781535
215	0x3d9dfd79	0.07714362
216	0xbd1ad3e5	-0.037799735
217	0xbf4121ff	-0.754425
218	0xbed19f00	-0.4094162
219	0x3f29d624	0.6634238
220	0x3f374fe7	0.71606296
221	0xbf275ebb	-0.6537892
222	0x3e4091ec	0.18805665
223	0x3eef5603	0.4674531
224	0xbe93b8d5	-0.28851953
225	0xbc88dc8b	-0.016706726
226	0xbebc1d54	-0.36741126
227	0x3f15da23	0.58535975
228	0xbe22dccb	-0.15904538
229	0x3ec8b201	0.39198306
230	0xbe5cdaca	-0.21567836
231	0x3d3abf9e	0.045592897
232	0x3e221b45	0.15830715
233	0x3f486ff3	0.7829582
234	0x3c7d9a73	0.015478718
235	0xbc923807	-0.017848982
236	0x3e753b31	0.23948361
237	0x3d8f1f8e	0.069884405
238	0x3bda1996	0.006655882
239	0x3c90d2de	0.017678674
240	0x3cf82a1f	0.030293522
241	0xbe62e7cd	-0.22158737
242	0xbd02ec38	-0.031963557
243	0x3e2f3bfe	0.17112729
244	0x3da2572e	0.079267845
245	0xbd03a1bc	-0.032136664
246	0x3c643bbd	0.013930258
247	0xbe7d6a7e	-0.24747655
248	0xbd6e8890	-0.058235705
249	0x3deb78bb	0.11497637
250	0x3ddbf208	0.10739523
251	0x3e815502	0.25260168
252	0x3d706694	0.058691576
253	0xbeaf46f8	-0.34233832
254	0x3dfe31eb	0.12411865
255	0x3ce4dacf	0.027936367

network_body._body_endoder.seq_layers.0.bias f4 [128]
0	0xbf5ce091	-0.8628016
1	0xbfbac81e	-1.4592321
2	0xbe19c60f	-0.1501696
3	0x3e755856	0.23959479
4	0xbfb55550	-1.416666
5	0xbf8cbc68	-1.0994997
6	0xbf896c77	-1.0736226
7	0xbfb96ce1	-1.4486352
8	0xbed55d7e	-0.4167289
9	0xbf291a5d	-0.6605585
10	0xbf05355c	-0.52034545
11	0xbebbcf58	-0.36681628
12	0xbf46ffdd	-0.77734166
13	0xbf9e152c	-1.2350211
14	0xbea7a567	-0.3274338
15	0xbfb6a286	-1.4268348
16	0xbf978d3e	-1.1839979
17	0xbebf1e10	-0.37327623
18	0xbe9e85be	-0.30961412
19	0xbee2293d	-0.44172087
20	0xbf5c2549	-0.8599439
21	0xbf18f9d7	-0.59756225
22	0xbfbb4d80	-1.4633026
23	0x3e22b6ca	0.15890041
24	0xbe9812ef	-0.29701945
25	0xbf6f5b0c	-0.934983
26	0xbf6089b2	-0.87710106
27	0x3dacb8bf	0.08433675
28	0xbdd8dce7	-0.10589009
29	0xbfbb03a1	-1.4610482
30	0xbf0e24a2	-0.5552465
31	0xbeaa456e	-0.33256096
32	0xbf81ec58	-1.0150251
33	0xbf32eb53	-0.69890326
34	0xbea42038	-0.3205583
35	0x3e1d23d7	0.15345703
36	0xbdeb8510	-0.11499989
37	0xbf6b7297	-0.91971725
38	0xbe8b0b66	-0.27157134
39	0xbe12352e	-0.14278099
40	0xbfb6d7fd	-1.4284664
41	0xbf9a0054	-1.203135
42	0xbfa2015a	-1.2656662
43	0x3efef06d	0.49792805
44	0xbe6a04c4	-0.2285338
45	0xbf1734bc	-0.5906484
46	0xbf93eaf1	-1.1556073
47	0xbf657fdb	-0.89648217
48	0xbea8d77a	-0.32976896
49	0xbe685aa1	-0.22690822
50	0xbf46712d	-0.7751644
51	0xbf37139c	-0.71514297
52	0xbe63f47d	-0.22261234
53	0xbf1ccf62	-0.6125394
54	0xbe971224	-0.29506028
55	0xbf80f4a8	-1.0074663
56	0xbf46e186	-0.7768787
57	0xbd1b41df	-0.037904616
58	0xbf8b5de2	-1.0888026
59	0x3f00a1c9	0.50246865
60	0xbf79ed48	-0.9762769
61	0xbf4e85ca	-0.80672896
62	0x3dd30a42	0.10304691
63	0x3fb943f9	1.4473869
64	0xbe62e414	-0.22157317
65	0xbfd6fa49	-1.6795131
66	0xbf31a571	-0.6939307
67	0xbfba8f34	-1.4574952
68	0xbf3e5bb3	-0.7435867
69	0xbe83d3f0	-0.25747633
70	0xbfa319a4	-1.27422
71	0xbf4b0a9c	-0.79313064
72	0xbf488e2f	-0.78341955
73	0xbf39a687	-0.72519726
74	0xbf8fc9d8	-1.1233473
75	0xbfb6c2d2	-1.4278204
76	0xbfb170ac	-1.386251
77	0x4005633f	2.0841825
78	0xbf9bfba5	-1.2186171
79	0xbf7e1348	-0.9924817
80	0xbe9c6b1e	-0.30550474
81	0xbf828937	-1.0198125
82	0xbf192630	-0.59823895
83	0xbfab1edf	-1.3368796
84	0xbf93c8c0	-1.1545639
85	0xbedc2a07	-0.43000814
86	0xbfd0b64c	-1.6305633
87	0xbfb52f79	-1.4155113
88	0xbe3c57f2	-0.18392923
89	0xbed2e0c5	-0.4118711
90	0xbf269232	-0.65066826
91	0xbea28453	-0.3174158
92	0xbf9ab90f	-1.2087725
93	0xbea45ad2	-0.3210054
94	0xbf9882a3	-1.1914867
95	0xbe875a7a	-0.26436216
96	0xbf2ef1fd	-0.68337995
97	0x3ef73dfb	0.48289475
98	0xbf965333	-1.174414
99	0xbf7b585a	-0.9818169
100	0x3f1a0405	0.60162383
101	0xbf6b0e40	-0.9181862
102	0xbda49ac8	-0.08037335
103	0xbf58c57d	-0.84676343
104	0xbf00b148	-0.5027051
105	0xbf6c8a23	-0.9239828
106	0xbfb0cb53	-1.381205
107	0xbf69a36f	-0.91265005
108	0xbf91e86c	-1.1399055
109	0xbf3d79dd	-0.74014074
110	0x3e3efd91	0.18651415
111	0xbf91e5f4	-1.1398301
112	0xbfd6e6e1	-1.6789209
113	0xbede0e50	-0.43370295
114	0xbf015c33	-0.5053131
115	0xbec0d846	-0.37665004
116	0xbeaa3f5e	-0.3325147
117	0xbf730a4d	-0.9493759
118	0xbfc95e82	-1.5731966
119	0xbfa2ef02	-1.2729189
120	0xbf973ea9	-1.1815997
121	0xbec46795	-0.38360277
122	0xbd5ba3f7	-0.053623166
123	0x3ec4f905	0.38471237
124	0xbf837c32	-1.0272276
125	0xbfadfd1f	-1.3592871
126	0xbeea8797	-0.45806572
127	0xbdcf403e	-0.10119675

network_body._body_endoder.seq_layers.2.weight f4 [128, 128]
0	0x3e4ffe47	0.20311843
1	0xbd88cac0	-0.066792965
2	0xbcb5c185	-0.022187004
3	0x3ef0d8ee	0.47040504
4	0x3f1a453a	0.6026188
5	0x3e6b8ec0	0.23003674
6	0x3d66558e	0.056233935
7	0xbd54b2f8	-0.05192849
8	0x3db48780	0.08814907
9	0x3ecbc1c2	0.39796263
10	0x3e572cc9	0.21013178
11	0xbd1cc049	-0.038269315
12	0x3ee9b82d	0.45648327
13	0x3e810122	0.25196177
14	0x3e80aff9	0.25134256
15	0x3e229d12	0.1588023
16	0x3e0ff080	0.14056587
17	0xbd97f946	-0.07420592
18	0xbe20f3a5	-0.15717943
19	0x3ea27083	0.31726465
20	0x3c81bb6d	0.015836442
21	0xbe99123d	-0.29896727
22	0x3e6de0d3	0.23230295
23	0x3e3f102f	0.18658517
24	0x3c4f156a	0.012639383
25	0x3eac7484	0.33682644
26	0x3d5788f1	0.052620832
27	0xbd093bee	-0.03350442
28	0xbedb44a2	-0.428258
29	0x3f218dab	0.63106793
30	0x3d1fdee1	0.039030913
31	0xbc9f36ab	-0.019435247
32	0x3ee759a2	0.45185572
33	0x3e086b32	0.13322142
34	0x3e07657e	0.1322231
35	0x3e42569c	0.18978351
36	0x3e72aca8	0.23698676
37	0x3e340676	0.1758059
38	0x3e9fd09b	0.3121384
39	0x3e699b03	0.22813039
40	0x3ed5e098	0.41772914
41	0x3ec15a8b	0.3776439
42	0x3e53cd6d	0.20683832
43	0x3f2dda14	0.67910886
44	0xbe9f6d13	-0.31137905
45	0x3c97637a	0.018480051
46	0x3ea6d1d4	0.3258196
47	0xbeb58453	-0.35452518
48	0xbdb21aac	-0.086964935
49	0xbea83ee2	-0.32860476
50	0xbbf0bc0e	-0.0073466366
51	0x3db2da88	0.08733088
52	0xbd129166	-0.035783194
53	0xbdad7c31	-0.08470953
54	0xbde57715	-0.11204354
55	0x3e8de995	0.2771727
56	0x3e96eac3	0.29475984
57	0xbe3415f8	-0.17586505
58	0x3e80620b	0.250748
59	0x3ebcb034	0.36853182
60	0x3eae691f	0.34064576
61	0x3e417abf	0.1889448
62	0x3df7ab1b	0.12093183
63	0xbf337283	-0.70096606
64	0xbe23967e	-0.15975377
65	0x3e14d877	0.145357
66	0x3eb32b50	0.34993982
67	0x3f0fc8b2	0.5616561
68	0x3ee09bc4	0.4386884
69	0xbdb83bf4	-0.0899581
70	0x3d58582b	0.05281846
71	0x3e3d8407	0.18507396
72	0x3f09f1f9	0.53884846
73	0x3cffcf29	0.031226711
74	0x3e10dd70	0.14146972
75	0x3cd429dc	0.025898866
76	0x3e385989	0.18002905
77	0xbee0e926	-0.43927878
78	0x3e5628dc	0.20914024
79	0x3e1685b9	0.14699449
80	0xbdfd7298	-0.12375373
81	0x3db73628	0.08945876
82	0xbece7237	-0.40321514
83	0x3eb901d5	0.3613421
84	0x3d8125c3	0.063060306
85	0x3e20e5b7	0.1571263
86	0x3e8d06af	0.27544162
87	0x3eefb286	0.4681589
88	0x3e60bfa6	0.21948108
89	0xbc650624	-0.013978515
90	0x3e9cb365	0.30605617
91	0x3e9f077d	0.310604
92	0x3c4ec278	0.012619607
93	0xbd91a355	-0.07111231
94	0x3d40efc2	0.04710365
95	0x3e268cd9	0.16264667
96	0x3f05c77f	0.5225753
97	0xbf4d6556	-0.8023275
98	0x3d9b8557	0.07593792
99	0xbf0381ff	-0.51370233
100	0xbf3df5f9	-0.7420345
101	0xbb0bb2d7	-0.0021316314
102	0xbc3c9036	-0.011508992
103	0xbf1c80e2	-0.6113416
104	0xbeb9c920	-0.3628626
105	0x3eeb67ef	0.45977733
106	0x3e97eb2a	0.29671603
107	0xbe142ec7	-0.14470969
108	0x3e9af01f	0.30261323
109	0x3e4eb984	0.20187956
110	0xbdb23a6c	-0.08702549
111	0x3c20258d	0.009774578
112	0x3d904b99	0.07045669
113	0x3dd15ddd	0.10222981
114	0xbe986f98	-0.2977264
115	0xbe842a5f	-0.25813577
116	0xbd10885d	-0.035286296
117	0x3bfc6cec	0.007703414
118	0x3ef6c610	0.48197985
119	0x3f359ed3	0.7094547
120	0x3de8e0a2	0.1137097
121	0xbe4c2327	-0.19935285
122	0xbc956b83	-0.018239742
123	0xbf4ee2cb	-0.8081481
124	0x3e77463c	0.24147886
125	0x3efb2283	0.49049768
126	0xbeceabff	-0.40365598
127	0x3e0cc88b	0.13748376
128	0x3f308c5d	0.6896418
129	0xbde8fd83	-0.113764785
130	0xbe9acf9f	-0.30236527
131	0xbcea0d45	-0.02857078
132	0x3eceee87	0.40416357
133	0x3f1ce958	0.61293554
134	0x3ef523aa	0.47878772
135	0x3f6a0160	0.9140835
136	0xbe5d32b2	-0.2160137
137	0x3e72ed96	0.23723444
138	0x3eeb8fad	0.46008053
139	0x3e6bf0c1	0.23041059
140	0x3f52de71	0.8237067
141	0x3f3d3f35	0.7392457
142	0x3dd267c5	0.10273699
143	0x3d8c26d8	0.06843346
144	0x3de342ad	0.11096702
145	0xbcb10127	-0.021606995
146	0x3e4630be	0.19354531
147	0xbd4bf2f5	-0.04979225
148	0x3cfecd80	0.03110385
149	0xbe037a8b	-0.12839715
150	0x3f195bb2	0.5990554
151	0xbe3f2b4b	-0.18668859
152	0x3c11a91a	0.008890415
153	0x3f10c9b5	0.5655778
154	0x3e9dd212	0.30824333
155	0x3ecc0824	0.3984996
156	0xbeb8cdda	-0.36094552
157	0x3ec7eaff	0.39046475
158	0x3e4807be	0.19534203
159	0x3e282efb	0.16424172
160	0x3f5d2379	0.8638225
161	0x3e388d83	0.18022732
162	0x3f11e372	0.5698768
163	0xbf35c585	-0.71004516
164	0xbe8e21f9	-0.27760294
165	0xbf26aaa0	-0.65104103
166	0x3e0b1d8b	0.13585488
167	0xbe8fc62d	-0.28080884
168	0x3f880a89	1.0628215
169	0x3f358f2d	0.70921594
170	0x3f21b908	0.6317296
171	0x3d608533	0.05481453
172	0xbee28011	-0.44238332
173	0xbef75174	-0.4830433
174	0x3e566cfe	0.20940015
175	0x3e94c5a0	0.29057026
176	0x3e16cbf0	0.14726233
177	0x3e5ce3b8	0.21571243
178	0x3e7b6097	0.24548565
179	0x3eabd341	0.3355961
180	0x3eb76fac	0.35827386
181	0xbd6972db	-0.0569943
182	0xbf09d69c	-0.5384309
183	0x3eb0df94	0.34545577
184	0x3e67e8e6	0.22647437
185	0xbeb184ca	-0.34671623
186	0x3f12cb00	0.57341003
187	0xbf221316	-0.6331037
188	0x3edcd04f	0.43127677
189	0x3eef7da2	0.46775538
190	0xbebddf49	-0.37084416
191	0xbfaf6b1c	-1.3704562
192	0xbf806baf	-1.0032862
193	0x3f404b2c	0.75114703
194	0x3dc5e45f	0.09662699
195	0x3ee7d817	0.4528205
196	0x3ec583c6	0.38577098
197	0x3df438fc	0.119249314
198	0x3e65872d	0.22414847
199	0x3c572cf3	0.013133275
200	0x3e8f421c	0.27980125
201	0x3e44e22e	0.19226906
202	0x3e44a92d	0.1920516
203	0x3f1638e9	0.5868059
204	0x3f648453	0.8926441
205	0xbf9e2af1	-1.2356855
206	0x3ed9c898	0.42535853
207	0x3eec2564	0.46122277
208	0xbf527915	-0.82216007
209	0x3f595925	0.8490165
210	0x3ec09fa1	0.37621787
211	0x3f0b9dd8	0.54537725
212	0x3eff7e53	0.49901065
213	0x3f014571	0.50496584
214	0x3f01fdf8	0.5077815
215	0x3f237c1e	0.6386126
216	0x3ede9e6b	0.43480238
217	0xbefba48c	-0.49148977
218	0xbe29598e	-0.16538069
219	0x3e601190	0.218817
220	0x3f451aca	0.76994
221	0x3e9ac747	0.30230162
222	0x3f2452d4	0.64188886
223	0xbd98d254	-0.07461992
224	0x3efab2db	0.4896458
225	0xbed24759	-0.4107006
226	0x3e1a2164	0.150518
227	0x3e1cc6a7	0.15310155
228	0xbe958f9b	-0.29211125
229	0x3f09df67	0.5385651
230	0x3ec05b30	0.3756957
231	0x3ed57850	0.41693354
232	0xbef5c635	-0.48002782
233	0x3f66b3d2	0.90118134
234	0x3e1e2221	0.15442707
235	0xbc91c249	-0.017792838
236	0x3e881721	0.26580146
237	0xbe5d721b	-0.21625559
238	0xbf6f0bd6	-0.93377435
239	0x3ea27a8f	0.3173413
240	0x3f57b204	0.84256005
241	0xbd897319	-0.06711406
242	0x3de0652b	0.10956796
243	0x3db74b01	0.08949853
244	0x3ee17774	0.44036448
245	0x3eca698d	0.39533654
246	0x3f2542e7	0.6455521
247	0x3f8fd221	1.1236001
248	0xbe3f9089	-0.1870748
249	0xbe5e7be9	-0.21726955
250	0x3dddf3db	0.10837527
251	0xbf4ed67d	-0.80796033
252	0x3ed12297	0.40846702
253	0x3f79cb74	0.9757607
254	0xbe591548	-0.21199524
255	0x3ec764cf	0.38944098

network_body._body_endoder.seq_layers.2.bias f4 [128]
0	0xbf3dcdea	-0.74142325
1	0xbfa1be94	-1.2636285
2	0xbf2bef19	-0.6716171
3	0xbed947dd	-0.4243764
4	0xbfa45cd9	-1.2840835
5	0xbf868e48	-1.0512171
6	0xbf85c633	-1.0451111
7	0xbf3a5fa4	-0.72802186
8	0xbf067503	-0.52522296
9	0xbf2da3ff	-0.67828363
10	0xbf831d97	-1.0243405
11	0xbf7b9fa0	-0.98290443
12	0xbf97828c	-1.1836715
13	0xbf49d8e7	-0.7884659
14	0xbf7f6e01	-0.9977723
15	0xbf2d2aad	-0.67643243
16	0xbf1e572a	-0.6185175
17	0xbf18d746	-0.5970348
18	0xbf1351a6	-0.5754646
19	0xbf571e8f	-0.84031004
20	0xbf50b576	-0.8152689
21	0xbf840754	-1.0314736
22	0xbf7e0ce2	-0.9923841
23	0xbf606546	-0.8765453
24	0xbf84149d	-1.0318791
25	0xbf5731b7	-0.84060234
26	0xbfb3b066	-1.4038208
27	0xbfb017a1	-1.3757211
28	0xbf870924	-1.0549664
29	0xbeb3ebcf	-0.35140845
30	0xbf33265a	-0.69980395
31	0xbf527bf3	-0.8222038
32	0xbf2c8a22	-0.67398274
33	0xbf475bbf	-0.7787437
34	0xbf2f2981	-0.68422705
35	0xbf1185db	-0.5684487
36	0xbf766ee3	-0.9626295
37	0xbf669f38	-0.900867
38	0xbf81ca9f	-1.013996
39	0xbf66bc9b	-0.9013154
40	0xbebd4b3f	-0.3697147
41	0xbef78960	-0.48346996
42	0xbf243684	-0.64145684
43	0xbf14f30b	-0.58183354
44	0xbe9b343e	-0.30313295
45	0xbf2f6f2a	-0.68529
46	0xbf3a5292	-0.7278224
47	0xbfb8b0e8	-1.4428988
48	0xbf1029e2	-0.5631391
49	0xbf9d79a9	-1.2302753
50	0xbfadc66b	-1.3576177
51	0xbf687b60	-0.90813255
52	0xbf5d8049	-0.8652387
53	0xbfa75c41	-1.3075029
54	0xbf964a7b	-1.174148
55	0xbfbb5470	-1.4635143
56	0xbf1c867b	-0.611427
57	0xbf02f5cc	-0.51156306
58	0xbf0df672	-0.5545417
59	0xbf88c9e2	-1.068661
60	0xbf3ae987	-0.73012584
61	0xbf2eda23	-0.683016
62	0xbf895497	-1.072894
63	0xbef529bb	-0.478834
64	0xbe874949	-0.264231
65	0xbf14992f	-0.5804624
66	0xbe760411	-0.24024989
67	0xbf329517	-0.69758743
68	0xbf5fdb30	-0.8744383
69	0xbf05ef03	-0.5231783
70	0xbf854c08	-1.0413828
71	0xbf342c25	-0.7037986
72	0xbfa06b10	-1.2532673
73	0xbfb004ba	-1.3751442
74	0xbf83635e	-1.02647
75	0xbf86b171	-1.0522901
76	0xbf83daca	-1.0301144
77	0xbf07c3b9	-0.53033024
78	0xbf781590	-0.969079
79	0xbf576f84	-0.84154534
80	0xbf678b94	-0.90447354
81	0xbf0dc02f	-0.55371374
82	0xbf0085b5	-0.5020402
83	0xbeeec7bd	-0.46636763
84	0xbf90e178	-1.1318808
85	0xbf54c7cc	-0.83117366
86	0xbf82d08d	-1.0219895
87	0xbf292211	-0.66067606
88	0xbf749d2f	-0.95552343
89	0xbf32024a	-0.6953474
90	0xbf06fd6f	-0.5273046
91	0xbf638032	-0.88867486
92	0xbf198206	-0.59964025
93	0xbf5c7bcd	-0.86126405
94	0xbf98af2f	-1.1928462
95	0xbf03623b	-0.5132176
96	0xbf70f4e3	-0.9412367
97	0xbf957444	-1.1676106
98	0xbf809e28	-1.0048265
99	0xbf17cfaa	-0.59301245
100	0xbf84dc15	-1.0379664
101	0xbf591e65	-0.84812003
102	0xbf5e25a7	-0.867762
103	0xbe89fc58	-0.26950336
104	0xbf52f178	-0.823997
105	0xbf4e0e6c	-0.80490756
106	0xbc1e20c1	-0.009651364
107	0xbf4f651e	-0.8101367
108	0xbf5bd463	-0.8587095
109	0xbf800d2d	-1.0004021
110	0xbf322702	-0.6959077
111	0xbec58c30	-0.38583517
112	0xbf526dc9	-0.8219877
113	0xbfa9e1a3	-1.3271984
114	0xbf8da456	-1.1065776
115	0xbf7b5cf7	-0.9818873
116	0xbfa246f5	-1.2677904
117	0xbf478176	-0.77931917
118	0xbf6d2020	-0.92627144
119	0xbf1b70f9	-0.6071926
120	0xbf8ca68d	-1.0988327
121	0xbf314038	-0.69238615
122	0xbf27c848	-0.6553998
123	0xbfbd0ed0	-1.4770145
124	0xbf157d28	-0.583941
125	0xbf5346cb	-0.82529896
126	0xbf4bfc85	-0.7968219
127	0xbf7fff16	-0.99998605

action_model._continuous_distribution.log_sigma f4 [1, 2]
0	0xbe74aa88	-0.23893178
1	0x3dcfa7bf	0.10139417

action_model._continuous_distribution.mu.weight f4 [2, 128]
0	0xbd3f6115	-0.046723444
1	0xbd22be73	-0.039732408
2	0x3ddeff60	0.10888553
3	0x3dcc20e7	0.09967213
4	0x3c180680	0.0092788935
5	0x3c257f04	0.010101084
6	0xbd1e8800	-0.03870392
7	0x3dbeb00d	0.09310923
8	0xbe87ad92	-0.2649961
9	0x3dbb92f9	0.09158892
10	0x3ed66e37	0.41880962
11	0xbe8130e1	-0.25232604
12	0x3c389244	0.011265341
13	0x3d541d97	0.05178603
14	0x3e31b1c4	0.17352968
15	0x3e24b95b	0.16086332
16	0x3d291f81	0.04128981
17	0x3d5800ff	0.052735325
18	0x3e2079a4	0.15671402
19	0xbe2cb16e	-0.16864559
20	0xbdfab4ab	-0.12241491
21	0xbdbe7f77	-0.09301656
22	0x3d0d1c0f	0.034450587
23	0x3b87e8a4	0.004147606
24	0xbd838ebd	-0.064237095
25	0x3deffc80	0.117180824
26	0x3c980e2d	0.018561447
27	0x3c949df9	0.018141733
28	0xbbd0efa0	-0.006376222
29	0x3d807ed3	0.0627419
30	0x3d8283ca	0.06372793
31	0x3ec730b4	0.38904345
32	0x3e49aaaf	0.19694017
33	0xbd83d45f	-0.06436991
34	0x3dc28c2d	0.09499393
35	0xbbe50685	-0.0069893026
36	0x3d1a3477	0.03764769
37	0x3e84fcae	0.2597403
38	0x3e1f44a4	0.15553528
39	0x3c4d9be8	0.012549378
40	0xbe864c8a	-0.2623027
41	0x3e22c782	0.15896419
42	0x3c64af7d	0.013957855
43	0x3ee61f79	0.44945887
44	0x3eac0b01	0.33602145
45	0x3e5d176c	0.21590966
46	0x3c0f9311	0.008763091
47	0x3bbb881c	0.0057230126
48	0x3c8927eb	0.016742667
49	0x3cee10bb	0.029060712
50	0xbcff0ecd	-0.031134987
51	0xbd9f263f	-0.07770967
52	0x3deb0d39	0.114771314
53	0x3d3b0423	0.045658242
54	0xbda89d59	-0.08233137
55	0xbccbd4f2	-0.024881814
56	0x3d8b0244	0.067875415
57	0x3e4f6f41	0.20257284
58	0x3d2d3e51	0.042295758
59	0xbd92157f	-0.07133006
60	0xbd64b198	-0.05583343
61	0x3e8ef723	0.27922925
62	0x3cba38a6	0.02273209
63	0x3d1633f2	0.036670633
64	0xbd47120e	-0.048601203
65	0x3ee32486	0.44363803
66	0x3d74eafb	0.059794407
67	0x3cb6205a	0.022232223
68	0x3d446063	0.047943484
69	0x3e7e751a	0.24849358
70	0xbd0ddc39	-0.03463385
71	0x3dc349ea	0.09535582
72	0xbcec9e51	-0.028884085
73	0xbdb004c8	-0.08594662
74	0xbda250f0	-0.07925594
75	0xbe390987	-0.1807004
76	0x3d09693a	0.033547617
77	0x3e908f17	0.2823417
78	0xbcb39581	-0.021921875
79	0x3dde6fab	0.10861143
80	0x3c4e8e41	0.012607158
81	0x3eb50530	0.3535552
82	0xbdb63c0f	-0.08898174
83	0x3ed52596	0.41630238
84	0xbd8e824b	-0.06958445
85	0xbd2496b3	-0.04018278
86	0x3e7a9f8c	0.24474925
87	0x3ca995dc	0.020701341
88	0xbcc89c7e	-0.024488684
89	0x3d921144	0.071321994
90	0x3db3ff12	0.08788885
91	0x3b8d2351	0.0043071886
92	0x3de6e9f3	0.11275091
93	0x3dde15cb	0.108440004
94	0xbd4a02fb	-0.04931925
95	0x3cf1c7f1	0.029514285
96	0xbe01e1c6	-0.12683782
97	0x3db36364	0.08759192
98	0xbcd72a08	-0.02626516
99	0x3dd701ed	0.10498414
100	0x3da56c4e	0.08077298
101	0x3d082c4f	0.03324538
102	0xbcda2445	-0.026628623
103	0xbd804762	-0.06263615
104	0xbe52e179	-0.20593823
105	0xbda63feb	-0.0811766
106	0xbda348c3	-0.079728626
107	0x3e7c54ef	0.24641775
108	0x3e88db84	0.26729977
109	0xbc4e95d2	-0.012608962
110	0x3dcf3788	0.101180136
111	0x3e1ce66f	0.15322278
112	0x3dc58494	0.09644428
113	0xbdd6885f	-0.104752295
114	0xbe07dda5	-0.13268144
115	0x3dc26a47	0.09492927
116	0x3c1e5574	0.009663928
117	0xbe9c9cf6	-0.30588502
118	0xbe07a813	-0.13247709
119	0x3edb776e	0.42864555
120	0x3c22f63f	0.009946405
121	0xbc60a5f8	-0.013711445
122	0xbdbff9f7	-0.09373849
123	0xbf1f0345	-0.62114364
124	0x3cbe408e	0.023224141
125	0x3be0a9e7	0.0068561914
126	0x3dabd1cd	0.08389626
127	0xbd5d4f23	-0.05403055
128	0xbbb418df	-0.005496129
129	0x3d94ff20	0.07275224
130	0x3cce378c	0.025172971
131	0x3e17accb	0.14812009
132	0x3d8dfd8e	0.06933127
133	0x3df53844	0.119736224
134	0x3e181d21	0.14854862
135	0xbdafcb80	-0.085837364
136	0x3f020f61	0.50804716
137	0x3e3ae470	0.18251204
138	0x3dea06df	0.11427092
139	0xbe63dc0e	-0.22251913
140	0x3c9a8695	0.018863002
141	0x3da67e0c	0.0812951
142	0xbe97821e	-0.2959146
143	0x3db0df3b	0.08636328
144	0x3eda4c81	0.42636493
145	0x3e357eb3	0.17724113
146	0xbe0d93ea	-0.13825956
147	0x3dd3a75f	0.10334658
148	0xbe898c76	-0.26864976
149	0x3c9b1b28	0.018933848
150	0x3e64e245	0.2235194
151	0x3e2dff33	0.16991882
152	0x3de64774	0.11244097
153	0x3e29274f	0.16518901
154	0x3cef0f92	0.02918223
155	0x3e125b0c	0.14292544
156	0x3dec498d	0.11537466
157	0xbc992a2b	-0.018696865
158	0x3e6673c8	0.22505105
159	0xbf07bca5	-0.53022224
160	0x3decc9dc	0.11561939
161	0xbe88200f	-0.2658696
162	0xbdb39c5e	-0.08770059
163	0x3daea5e1	0.08527733
164	0xbe328297	-0.17432629
165	0xbdb8236c	-0.08991131
166	0xbe15f589	-0.14644445
167	0x3e17946d	0.14802714
168	0xbe6cc9d2	-0.23123863
169	0xbe9a4f1a	-0.30138475
170	0x3e8d129e	0.27553266
171	0xbe2b0502	-0.16701129
172	0xbd650df3	-0.055921506
173	0x3eeb5e14	0.45970213
174	0x3ee8f998	0.45502925
175	0xbcf126d1	-0.029437454
176	0x3e784ed4	0.2424882
177	0x3dc8a39e	0.097968325
178	0x3c77ad76	0.01511704
179	0xbdc7d990	-0.09758294
180	0xbe0ff707	-0.14059077
181	0x3bd24a3b	0.0064175404
182	0x3d7957f2	0.060874887
183	0xbd74f38b	-0.059802573
184	0x3e8b859b	0.2725037
185	0xbe92c16d	-0.28663197
186	0xbe94c394	-0.29055464
187	0x3cf8b87d	0.030361408
188	0xbc225ebe	-0.009910284
189	0x3f463144	0.77418923
190	0xbc66fa7a	-0.014097804
191	0xbd95d7d1	-0.07316554
192	0xbdacc231	-0.084354766
193	0xbeac351c	-0.3363427
194	0x3ed972b3	0.4247032
195	0xbd8cb4b0	-0.06870401
196	0xbdd3d253	-0.103428505
197	0x3eb867e6	0.36016768
198	0x3e10acfe	0.14128491
199	0x3e1b1a5f	0.15146779
200	0x3d4f1e03	0.05056573
201	0x3dd94df8	0.106105745
202	0x3e036461	0.1283126
203	0x3d53e816	0.051735006
204	0x3cd2fea8	0.025756195
205	0xbe8c8197	-0.2744262
206	0x3db8b23e	0.09018372
207	0x3deccd46	0.1156259
208	0x3d004e64	0.03132476
209	0x3d923b39	0.07140202
210	0x3f230d9f	0.6369266
211	0x3edeb9bd	0.43501082
212	0x3d5e8dc2	0.05433441
213	0x3e196955	0.14981587
214	0xbe895945	-0.2682592
215	0x3dbad3ef	0.091224544
216	0x3e627a31	0.22116925
217	0xbebe2812	-0.37139946
218	0x3e2a3a76	0.16623864
219	0xbd87a01a	-0.06622334
220	0x3e7540ec	0.23950547
221	0x3d577e28	0.052610546
222	0x3d8b05f5	0.067882456
223	0xbe605ce2	-0.21910432
224	0x3db287ef	0.087173335
225	0x3df3da65	0.1190689
226	0x3daa7629	0.083233185
227	0x3e052295	0.13001473
228	0x3d8565da	0.06513567
229	0x3d7b1271	0.061296884
230	0x3e1ac896	0.1511558
231	0x3d2e60c3	0.042572748
232	0xbe5f9aeb	-0.2183644
233	0x3d968c94	0.07351032
234	0xbd5e706c	-0.054306433
235	0x3e283ab4	0.16428643
236	0x3d976088	0.07391459
237	0x3d9b32de	0.075780615
238	0x3e42f926	0.19040355
239	0x3e4db5ce	0.20088884
240	0x3db6c084	0.08923438
241	0xbe031826	-0.1280218
242	0x3dfb57ea	0.12272628
243	0x3dbc20f4	0.09185973
244	0xbe2d6794	-0.16934043
245	0xbf0c3370	-0.5476599
246	0x3e281c19	0.16416968
247	0xbe6f177c	-0.23348802
248	0xbe16c4f4	-0.14723569
249	0xbd8aa950	-0.06770575
250	0xbe8c2ccc	-0.27377927
251	0x3e8d708d	0.27624932
252	0x3d2976b8	0.041372985
253	0x3e1438cc	0.14474791
254	0x3daa4538	0.08313984
255	0x3e72f1d6	0.23725066

action_model._continuous_distribution.mu.bias f4 [2]
0	0x3d2bd89b	0.041954618
1	0xbde17164	-0.11007956

action_model._discrete_distribution.branches.0.weight f4 [3, 128]
0	0x3ef7eaeb	0.48421416
1	0x3e2d9b89	0.16953863
2	0xbf7d8dca	-0.9904448
3	0xbe79f52c	-0.24409932
4	0x3c6d935d	0.014500466
5	0xbd832689	-0.064038344
6	0xbf097dc1	-0.5370751
7	0x3eacc5dd	0.33744708
8	0xbd4bed5b	-0.049786907
9	0xbd92d6fa	-0.0716991
10	0xbd479a38	-0.04873106
11	0xbea064c1	-0.3132687
12	0x3dd464eb	0.10370811
13	0x3eb6d5ec	0.35710084
14	0x3e8cdd39	0.2751253
15	0xbe93536f	-0.28774592
16	0x3db30c8f	0.0874263
17	0x3dc88ec9	0.09792859
18	0xbef43c87	-0.4770243
19	0xbe79de18	-0.24401128
20	0xbef70b3a	-0.48250753
21	0xbe8a5f8c	-0.2702602
22	0xbda57aa5	-0.08080033
23	0xbc53d07e	-0.012928126
24	0xbea465e9	-0.32109
25	0x3e49d4b5	0.19710048
26	0x3eafe6ec	0.34355867
27	0x3f1ac841	0.60461813
28	0xbeda20fa	-0.42603284
29	0xbfa200e7	-1.2656525
30	0xbddbffc6	-0.10742144
31	0x3d0db0e2	0.034592517
32	0xbe318e0e	-0.17339346
33	0xbe94d851	-0.29071286
34	0xbef54ef3	-0.47911796
35	0x3e2abb96	0.16673121
36	0x3f875991	1.0574208
37	0xbed1c899	-0.40973356
38	0xbec654ee	-0.3873667
39	0xbe74f9c0	-0.23923397
40	0xbf51b2a2	-0.819132
41	0xbf1dc5e3	-0.61630076
42	0xbf4a18ec	-0.7894428
43	0x3d4ccaa4	0.04999794
44	0x3d16a745	0.036780614
45	0xbe58c3c2	-0.21168426
46	0x3daaa780	0.08332729
47	0x3ea14a37	0.31501934
48	0x3e8877c4	0.26653874
49	0xbe88a415	-0.26687685
50	0x3ab02904	0.0013439958
51	0x3f86b44e	1.0523775
52	0x3e1143c3	0.14186005
53	0x3f4f5f86	0.8100513
54	0xbe772a34	-0.24137193
55	0x3f2389bd	0.63882047
56	0x3ebe1fc3	0.37133607
57	0xbf0a993f	-0.54140085
58	0xbe812b0a	-0.2522815
59	0xbf089352	-0.5334979
60	0x3f8bde1d	1.0927159
61	0x3e5bef45	0.21477993
62	0x3dfd4fd1	0.123687394
63	0xbe9293fd	-0.2862853
64	0x3ea099aa	0.31367236
65	0x3e80b83e	0.25140566
66	0xbd5a96ad	-0.053366352
67	0x3f18ece7	0.59736484
68	0xbe5816d1	-0.21102454
69	0xbf95c7f9	-1.1701652
70	0xbe57409d	-0.21020742
71	0xbf965943	-1.174599
72	0x3efef7b6	0.49798363
73	0x3e54d145	0.20782955
74	0xbf1afe52	-0.6054431
75	0xbe303b83	-0.17210202
76	0xbdad8b29	-0.08473808
77	0xbf581a5f	-0.8441524
78	0xbe6643f5	-0.22486861
79	0x3e2de4c3	0.16981797
80	0x3e411f98	0.18859708
81	0xbec42245	-0.38307396
82	0xbe2057cc	-0.15658492
83	0x3e923f41	0.28563884
84	0x3d24c3e7	0.04022589
85	0xbe80f57a	-0.25187284
86	0x3d8ff774	0.0702962
87	0xbcd633a4	-0.026147671
88	0xbeee2a1b	-0.465165
89	0xbec9bb1e	-0.39400572
90	0x3db4b16a	0.088229015
91	0xbf949c47	-1.1610192
92	0xbd852960	-0.06502032
93	0x3e9fe0fc	0.31226337
94	0x3e898578	0.2685964
95	0xbea08101	-0.31348422
96	0x3db64b48	0.089010775
97	0xbe7631bd	-0.24042411
98	0xbeb692e4	-0.35658944
99	0x3e63382f	0.22189401
100	0x3f075ca9	0.52875763
101	0xbe82efe1	-0.25573638
102	0xbeb351f7	-0.35023472
103	0xbef4d866	-0.4782135
104	0xbeb5fcee	-0.35544533
105	0x3dbd1ec7	0.09234386
106	0x3e267634	0.16256028
107	0xbd16b4ed	-0.036793638
108	0xbf26ca28	-0.65152216
109	0xbe4ac0d2	-0.19800118
110	0xbee9f7d4	-0.4569689
111	0xbde3ba7f	-0.11119556
112	0xbee86ae1	-0.45394042
113	0x3da3bd8c	0.079951376
114	0xbdab3a94	-0.08360782
115	0x3e1346d8	0.14382493
116	0x3eb3dda0	0.35130024
117	0x3a408a5c	0.0007344836
118	0xbd7311da	-0.059343196
119	0xbe7b2238	-0.24524772
120	0xbf900739	-1.1252204
121	0x3f79537d	0.9739302
122	0xbc80a742	-0.015704755
123	0x3eda0e68	0.42589116
124	0x3ed36935	0.41291204
125	0x3e018ed8	0.12652147
126	0xbe9f0b76	-0.31063432
127	0xbe8cccee	-0.275001
128	0xbf06d4d5	-0.52668506
129	0xbec57ae0	-0.3857031
130	0x3e88ca96	0.2671706
131	0x3eaa68a1	0.3328295
132	0xbe075f77	-0.1322001
133	0xbe52f024	-0.20599419
134	0x3ca44c73	0.020055985
135	0xbf181825	-0.5941184
136	0xbed1e988	-0.40998483
137	0xbd40c7ed	-0.047065664
138	0x3ca0cbcd	0.01962843
139	0xbe8a3a60	-0.26997662
140	0xbec6e3ae	-0.3884558
141	0xbeb425fc	-0.3518523
142	0xbd9ce2d1	-0.07660449
143	0x3e9716f5	0.29509702
144	0x3e0da715	0.13833268
145	0xbcf44c95	-0.029821673
146	0xbeb1b60f	-0.34709212
147	0xbea4a2a6	-0.3215534
148	0x3ea6b231	0.32557824
149	0xbe229b55	-0.15879567
150	0xbd6bc306	-0.057559036
151	0xbe107d9c	-0.14110416
152	0xbe3efffe	-0.18652341
153	0xbcc07ff7	-0.023498518
154	0xbee33de4	-0.44383156
155	0xbe205696	-0.1565803
156	0x3b5b6f03	0.0033482916
157	0xbda291f9	-0.07937998
158	0x3e67f783	0.22653012
159	0xbe8c17c5	-0.27361885
160	0xbed833a4	-0.422269
161	0xbeb9310e	-0.36170238
162	0xbdafbe5f	-0.08581232
163	0x3e6fa224	0.23401695
164	0xbe825d0a	-0.25461608
165	0x3cf76a8a	0.030202169
166	0x3e90bcc7	0.28269026
167	0xbe05c684	-0.13064009
168	0x3dfd9fb4	0.123839766
169	0x3e4ad0e4	0.19806248
170	0x3d1c887f	0.03821611
171	0xbecb5334	-0.39711916
172	0x3e46e9bb	0.19425099
173	0xbdebd2f3	-0.11514845
174	0x3e3db49c	0.18525928
175	0x3e819c12	0.25314385
176	0xbe86a41f	-0.2629709
177	0xbec916ed	-0.39275303
178	0xbe677cb8	-0.2260617
179	0xbd7f855d	-0.062383045
180	0xbe8d6ec3	-0.27623567
181	0x3e21b42f	0.15791391
182	0xbddd9ef3	-0.10821333
183	0x3f1b4328	0.6064935
184	0xbdb7aa25	-0.08967999
185	0xbe68b705	-0.22726066
186	0xbc6ec10b	-0.014572392
187	0x3e0f689e	0.14004752
188	0xbd005054	-0.031326607
189	0x3e722242	0.23645881
190	0x3da3947c	0.079873055
191	0xbf03e906	-0.5152744
192	0xbf0d4e07	-0.55197185
193	0x3d16187b	0.03664444
194	0x3debd438	0.11515087
195	0xbded920a	-0.1160012
196	0x3e10ad55	0.14128621
197	0x3ec651f4	0.387344
198	0xbe25dcd8	-0.16197526
199	0x3bacc9b0	0.0052730665
200	0x3efc398c	0.49262655
201	0x3e1a8294	0.15088874
202	0xbdf02520	-0.11725831
203	0xbe8abbe1	-0.27096465
204	0x3dbc789d	0.09202693
205	0x3de6bdce	0.11266671
206	0xbe5e0262	-0.21680596
207	0xbec69a44	-0.3878957
208	0xbeae65e9	-0.34062126
209	0xbecbcadd	-0.3980321
210	0xbef4110b	-0.47669253
211	0x3e3dbf03	0.18529896
212	0xbe8dcb8c	-0.27694356
213	0xbdf669a3	-0.12031867
214	0x3c2c8170	0.010528907
215	0x3e3c7fe5	0.18408163
216	0x3d444108	0.04791358
217	0xbe882d5d	-0.2659711
218	0x3e04cfa5	0.12969835
219	0x3f06bc46	0.5263103
220	0x3e9f9040	0.31164742
221	0xbe3a9e4c	-0.18224448
222	0xbec9e52b	-0.39432654
223	0x3d407beb	0.046993177
224	0xbe296036	-0.16540608
225	0xbdcab2fe	-0.09897421
226	0xbe349b60	-0.17637396
227	0x3e46be83	0.19408612
228	0xbdd88a2e	-0.10573231
229	0xbec3a753	-0.38213596
230	0x3ccee03b	0.025253406
231	0x3f67fa91	0.9061671
232	0xbe90f70a	-0.28313476
233	0xbeff031f	-0.4980707
234	0xbda3d45d	-0.079994895
235	0x3ea39b8b	0.31954607
236	0x3e345ade	0.17612788
237	0xbdb3ac07	-0.08773046
238	0xbe65a7fd	-0.22427364
239	0x3daa2d25	0.08309392
240	0x3e3bc1ef	0.18335699
241	0xbeb50790	-0.35357332
242	0xbd32c055	-0.043640453
243	0x3e7d0af7	0.24711214
244	0xbe94c653	-0.2905756
245	0x3d07209c	0.032990083
246	0x3d476e36	0.04868909
247	0xbeab0a2c	-0.33406198
248	0x3d734827	0.05939498
249	0xbf763cc2	-0.9618646
250	0x3c6d9f9e	0.014503388
251	0x3edeefa9	0.4354222
252	0x3eb91e29	0.36155823
253	0x3db9ab9d	0.09065936
254	0xbd316e7d	-0.04331826
255	0xbd57f7c9	-0.05272654

action_model._discrete_distribution.branches.0.bias f4 [3]
0	0xbeec1988	-0.4611323
1	0x3d23337a	0.039844014
2	0x3ee91e42	0.45530897

action_model._discrete_distribution.branches.1.weight f4 [3, 128]
0	0xbe699aec	-0.22813004
1	0xbe8dc4a8	-0.276891
2	0xbebbd677	-0.3668706
3	0xbeb815b1	-0.3595405
4	0x3c9b5894	0.018963136
5	0xbda0c7aa	-0.07850583
6	0xbef6114b	-0.48060068
7	0xbd0aebdd	-0.033916343
8	0x3f0e0fdd	0.55492955
9	0x3d2911a7	0.0412766
10	0x3dab5b4b	0.08367022
11	0x3ecdd8fd	0.4020461
12	0xbe0a4eaf	-0.13506578
13	0x3e60c3be	0.2194967
14	0x3e938534	0.28812563
15	0x3c638e1c	0.013888862
16	0xbb49f224	-0.0030814493
17	0x3e241a5d	0.16025682
18	0xbed5bd09	-0.41745785
19	0xbeb781f9	-0.3584135
20	0xbf983d85	-1.1893774
21	0xbea910c1	-0.33020595
22	0xbd38a308	-0.045077354
23	0xbdf8d457	-0.121498756
24	0xbe98b54c	-0.2982582
25	0x3dd872a5	0.10568742
26	0x3d780e13	0.060560297
27	0x3e1b98be	0.15194985
28	0xbe99a505	-0.30008712
29	0xbeaf639c	-0.34255683
30	0x3ea14f3d	0.31505767
31	0xbf5d5ced	-0.8646992
32	0x3d0c1bd6	0.034206234
33	0xbecfbe01	-0.4057465
34	0xbdb426dd	-0.08796475
35	0xbf19c55f	-0.6006679
36	0xbefa0e54	-0.48839056
37	0x3e0ce325	0.13758524
38	0xbd336bd9	-0.043804023
39	0xbedc7916	-0.4306113
40	0xbea0a3be	-0.31374925
41	0xbf45d69c	-0.7728059
42	0x3efa15a4	0.48844635
43	0xbe84a50b	-0.25907168
44	0x3eace60f	0.3376927
45	0xbee8ceba	-0.4547022
46	0x3ec00808	0.37506127
47	0x3e0ad06a	0.13556066
48	0x3e53cd6c	0.20683831
49	0xbe7630c2	-0.24042037
50	0x3e22a54f	0.15883373
51	0x3e80a69b	0.2512711
52	0x3dcf1425	0.10111264
53	0x3d066db3	0.03281946
54	0xbd9b1bd0	-0.07573664
55	0x3e09bee5	0.13451727
56	0xbbb1c2aa	-0.005424817
57	0xbf34a6fc	-0.705673
58	0x3e1ab8a4	0.15109497
59	0xbef37b42	-0.47554976
60	0xbe8b6844	-0.27227986
61	0x3db2a98f	0.08723747
62	0xbdde7c0f	-0.10863506
63	0xbf014107	-0.5048985
64	0xbe8c36be	-0.27385515
65	0x3d937363	0.07199743
66	0xbe53f43a	-0.20698634
67	0x3e9357bb	0.2877787
68	0x3e49800a	0.1967775
69	0x3e98b4ef	0.2982554
70	0xbe6979f8	-0.22800434
71	0x3de0a607	0.10969167
72	0x3eef12e4	0.466941
73	0x3e620957	0.22073875
74	0xbeb658d5	-0.35614648
75	0xbf8db7d8	-1.107173
76	0x3e39e4da	0.18153706
77	0xbe91e99d	-0.28498545
78	0xbe722b73	-0.23649387
79	0xbe3689f7	-0.17826067
80	0xbde2c2da	-0.11072321
81	0xbd96c30a	-0.073614195
82	0xbe4b611f	-0.19861268
83	0x3d7782e1	0.06042755
84	0xbe1bf0d7	-0.15228592
85	0xbd59ab27	-0.05314174
86	0xbe9c8783	-0.30572137
87	0x3e3a185d	0.18173356
88	0xbe1502d2	-0.14551857
89	0xbe464de6	-0.19365653
90	0x3d77332f	0.060351547
91	0x3cad30de	0.021141466
92	0xbc9ae5a8	-0.018908337
93	0x3e3c8771	0.18411042
94	0xbdba4af4	-0.090963274
95	0xbe536166	-0.20642623
96	0xbe9bf650	-0.3046136
97	0xbe9e4c88	-0.30917764
98	0xbf0998a7	-0.53748554
99	0xbdbfd746	-0.09367232
100	0x3e275c7e	0.16343877
101	0xbd0bc877	-0.034126725
102	0xbde0d213	-0.109775685
103	0xbe701c11	-0.23448206
104	0xbf068c9f	-0.5255832
105	0xbe8170f6	-0.25281495
106	0xbd3eaa2c	-0.046549007
107	0x3d7438e9	0.059624586
108	0xbedf157b	-0.43571076
109	0xbe820c61	-0.2540007
110	0xbe9e6070	-0.3093295
111	0xbebd9a2f	-0.37031695
112	0xbf041cf0	-0.51606655
113	0xbe1ebd8e	-0.15501997
114	0xbe39ead6	-0.18155989
115	0xbdbfa454	-0.09357515
116	0xbf45ead4	-0.77311444
117	0x3cfac07e	0.030609366
118	0x3d81db26	0.06340627
119	0xbe7d0093	-0.2470725
120	0xbf4a3b7f	-0.78997034
121	0xbd92feb7	-0.07177489
122	0xbedbfb9f	-0.4296541
123	0x3effb179	0.49940088
124	0x3e59bfcc	0.21264571
125	0x3e0f8cf6	0.14018616
126	0xbe31632b	-0.17322986
127	0xbe43e6da	-0.19131032
128	0xbef78919	-0.48346785
129	0xbe5c499a	-0.21512452
130	0x3e52dca2	0.20591977
131	0x3d1c7257	0.03819498
132	0xbe6ba3e5	-0.2301174
133	0xbe55632f	-0.20838617
134	0xbd2613fb	-0.0405464
135	0x3df94750	0.12171805
136	0xbe09f0bb	-0.13470738
137	0xbe97b812	-0.29632622
138	0x3e149dc8	0.14513314
139	0xbf083d07	-0.5321812
140	0xbd809ecb	-0.06280287
141	0xbede3aac	-0.43404138
142	0xbee53462	-0.44766527
143	0xbeb71c89	-0.35763958
144	0xbe7257b7	-0.23666273
145	0xbeb8044c	-0.35940778
146	0xbe89b3c4	-0.26894963
147	0x3db6ecb3	0.089318655
148	0x3ed23cbe	0.41061968
149	0x3cb4a678	0.022052035
150	0xbec1f10f	-0.37879226
151	0xbe521b12	-0.20518139
152	0xbe4c1bc2	-0.19932464
153	0xbed609b3	-0.41804275
154	0xbe06977d	-0.13143726
155	0xbea3f53f	-0.32023045
156	0xbe15e8ad	-0.1463954
157	0x3f519638	0.8186984
158	0xbde25030	-0.11050451
159	0x3ebb75b0	0.36613226
160	0xbea7c60c	-0.32768285
161	0xbe4a4d2c	-0.19756001
162	0x3e7644b2	0.24049643
163	0x3dc9a660	0.09846187
164	0x3d0dc880	0.03461504
165	0x3bb993ad	0.0056633563
166	0xbe44b457	-0.19209419
167	0xbdf40d09	-0.11916549
168	0x3e02df8e	0.12780592
169	0x3c524e43	0.012836042
170	0x3e815d13	0.25266322
171	0x3dec30d0	0.11532748
172	0x3e792ab1	0.24332692
173	0xbd6ad641	-0.057333235
174	0x3d722ea7	0.059126522
175	0xbfb6cc6e	-1.4281137
176	0x3e455256	0.1926969
177	0xbea3d2e8	-0.31996846
178	0xbe4df61b	-0.20113413
179	0xbeafacf9	-0.34311655
180	0x3e04bbff	0.1296234
181	0xbf206d98	-0.62667227
182	0xbe945ff9	-0.2897947
183	0xbfa4d85e	-1.287853
184	0xbd8d206a	-0.06890948
185	0x3e7b1339	0.24519052
186	0xbec6b0fc	-0.38806903
187	0x3e3baaf8	0.18326938
188	0xbe7fe83c	-0.24990934
189	0x3e0e1ee5	0.13878973
190	0xbf16e326	-0.5894035
191	0xbe8b3eac	-0.27196252
192	0x3e599e9f	0.21251915
193	0x3c8131c3	0.015770799
194	0x3d8e39d6	0.06944625
195	0xbd772177	-0.06033465
196	0x3e23be5c	0.15990585
197	0x3cc77a34	0.024350263
198	0xbdb18422	-0.086677805
199	0xbdf20ef1	-0.11819256
200	0xbfc0f8e4	-1.5075955
201	0x3e107254	0.14106113
202	0x3d4aa559	0.049474094
203	0x3e9361da	0.28785592
204	0xbe02c20f	-0.1276934
205	0x3e74d995	0.23911126
206	0xbe28faf1	-0.16501977
207	0xbea70d95	-0.3262755
208	0xbe740417	-0.23829685
209	0xbd332aa4	-0.043741837
210	0xbe50ef97	-0.20403896
211	0x3e1331db	0.14374487
212	0xbed6ab76	-0.4192769
213	0xbe77ca3c	-0.2419824
214	0xbe17d1c5	-0.14826114
215	0xbe592b4b	-0.21207921
216	0xbed99863	-0.42499074
217	0xbd461769	-0.04836217
218	0xbea3ca74	-0.31990397
219	0x3ec1b141	0.37830546
220	0x3dbb6f95	0.09152142
221	0xbec78f2f	-0.38976428
222	0xbce5708c	-0.028007768
223	0xbcefcde6	-0.029272985
224	0xbdfeaf38	-0.12435764
225	0xbe68fd79	-0.22752942
226	0xbe0cbf6c	-0.13744897
227	0x3e5a6a1d	0.21329542
228	0xbf2477ee	-0.642455
229	0xbe27f691	-0.16402651
230	0xbe552dc9	-0.20818247
231	0xbec19905	-0.37812057
232	0xbe36469d	-0.17800374
233	0xbf2d13bb	-0.6760823
234	0x3f02fb86	0.51165044
235	0x3e6520dc	0.22375816
236	0x3e1afd94	0.15135795
237	0xbd8b95f9	-0.068157144
238	0x3dfa5ed5	0.12225119
239	0x3eb1cb83	0.3472558
240	0x3dfffd1c	0.12499449
241	0xbe1981d2	-0.14990929
242	0xbe17b6aa	-0.14815775
243	0xbe6a72fa	-0.22895423
244	0xbe19cd79	-0.15019788
245	0x3e5c079e	0.2148728
246	0xbea269f9	-0.31721476
247	0xbe640963	-0.22269206
248	0xbec6f82d	-0.38861218
249	0x3f21abf2	0.6315299
250	0x3e99a875	0.30011335
251	0x3ebb1b6f	0.36544368
252	0xbf010268	-0.50394297
253	0xbea12833	-0.31475982
254	0xbeac7708	-0.33684564
255	0xbe8b1cdb	-0.27170452

action_model._discrete_distribution.branches.1.bias f4 [3]
0	0xbf0a50f0	-0.5402975
1	0x3e19c143	0.1501513
2	0x3ee7f84a	0.45306617

exp_avg f4 [128, 13]
0	0xb852128b	-5.008517e-05
1	0xb5e6e544	-1.720306e-06
2	0x38587a53	5.1612336e-05
3	0xb79087ae	-1.7229318e-05
4	0x00000000	0.0
5	0x375e2d03	1.3242711e-05
6	0xb83ca9cb	-4.4980825e-05
7	0xb677e36b	-3.6938243e-06
8	0x3845e924	4.718559e-05
9	0x37349ab6	1.07648575e-05
10	0xb9021002	-0.0001240373
11	0xb8276054	-3.9905615e-05
12	0xb82e3079	-4.1529976e-05
13	0xb78ae2e5	-1.6556538e-05
14	0xb8377834	-4.3742548e-05
15	0xb75f88a9	-1.33236545e-05
16	0x37796c9b	1.4866843e-05
17	0x00000000	0.0
18	0x37c4daa4	2.3466833e-05
19	0xb864faf4	-5.4593154e-05
20	0xb7ffd4f0	-3.0497526e-05
21	0xb805ee32	-3.1931508e-05
22	0x385481a4	5.0665476e-05
23	0x37674f10	1.3787081e-05
24	0x38851a18	6.3467945e-05
25	0xb75f830b	-1.3322347e-05
26	0xb8d98004	-0.00010371211
27	0xbaf962dc	-0.0019026655
28	0xbae09a46	-0.0017135821
29	0x3a5d2bd3	0.0008437011
30	0x00000000	0.0
31	0x3aa62c99	0.0012678086
32	0xbac25b79	-0.0014828286
33	0xbab6194e	-0.001389304
34	0xbb34dd49	-0.0027597717
35	0x3b15fb46	0.0022885366
36	0xba5c9115	-0.0008413953
37	0x3ae5877a	0.0017511689
38	0xba874cb0	-0.0010322537
39	0x390c9e74	0.00013410469
40	0xb9bb1e65	-0.00035690065
41	0xb9ba3b49	-0.00035520855
42	0xba274e86	-0.00063822453
43	0x00000000	0.0
44	0xb9b4a02a	-0.00034451607
45	0x38202d8e	3.81894e-05
46	0x39b1b04e	0.00033891428
47	0xb8daafe4	-0.00010427812
48	0x3aa8ca14	0.0012877607
49	0x3b5c77fd	0.0033640855
50	0x3ada6deb	0.0016664838
51	0x3a90d95e	0.0011051109
52	0x37ea6932	2.794396e-05
53	0xb8b19cbd	-8.4692125e-05
54	0xb987a76d	-0.00025873948
55	0x359e7d15	1.1808321e-06
56	0x00000000	0.0
57	0xb828809c	-4.0174098e-05
58	0x3848dd1a	4.7889633e-05
59	0x3897e454	7.2427705e-05
60	0x395538c7	0.00020334414
61	0x39c2fe50	0.0003719204
62	0x39ec0e87	0.0004502425
63	0x39cf36ce	0.0003952295
64	0x388678cc	6.412118e-05
65	0xb65acf92	-3.2605353e-06
66	0xb8078389	-3.230901e-05
67	0xb81b63c7	-3.7047805e-05
68	0xb6b61fa9	-5.4277084e-06
69	0x00000000	0.0
70	0x3827f735	4.0046132e-05
71	0xb7903287	-1.7189666e-05
72	0xb78bac1e	-1.665024e-05
73	0xb73ea07a	-1.1362246e-05
74	0x384270b0	4.6358153e-05
75	0x3826f44e	3.980501e-05
76	0x384c73bc	4.8745176e-05
77	0xb652781c	-3.1362351e-06
78	0xb884917c	-6.321349e-05
79	0xb98a206e	-0.00026345573
80	0xb9533e97	-0.00020145845
81	0xb8da75d4	-0.00010416997
82	0x00000000	0.0
83	0x39f274b1	0.0004624478
84	0xb971b310	-0.00023050257
85	0xb92caba1	-0.00016467135
86	0xb962dff0	-0.00021636463
87	0x393d2c91	0.00018041047
88	0x3897d145	7.2392206e-05
89	0x3987d133	0.00025905072
90	0xb89d05cd	-7.487424e-05
91	0xb6f6bc62	-7.353302e-06
92	0xb7bf23be	-2.2785618e-05
93	0xb73ac627	-1.11326e-05
94	0x37847b8d	1.5793159e-05
95	0x00000000	0.0
96	0x378ad7b9	1.6551336e-05
97	0xb7a67adf	-1.9845958e-05
98	0xb75f5129	-1.3310732e-05
99	0x375a7ddf	1.3023119e-05
100	0x374a8b84	1.2072622e-05
101	0xb88b1199	-6.631314e-05
102	0xb4067423	-1.2521973e-07
103	0xb7b74d15	-2.1851194e-05
104	0x3922dd9d	0.00015532081
105	0x39773da9	0.00023578726
106	0x39391d92	0.0001765399
107	0xb99119d8	-0.0002767581
108	0x00000000	0.0
109	0xb91d35fb	-0.00014992796
110	0x39852e74	0.00025402347
111	0x39a682d3	0.0003175946
112	0x39ab3196	0.00032652606
113	0xb9de50ea	-0.00042403425
114	0x3a85ee63	0.001021814
115	0x3906f7ab	0.000128715
116	0x39ec75a4	0.00045101077
117	0xb8de077e	-0.000105871804
118	0x37fca6ba	3.0118379e-05
119	0x3982afb8	0.00024926453
120	0xb98f968a	-0.00027387246
121	0x00000000	0.0
122	0xb902b33a	-0.00012464533
123	0xb914ebfa	-0.00014202288
124	0x39b9419e	0.00035334838
125	0x39a809df	0.00032050812
126	0xb9172ea2	-0.00014417854
127	0x3abe6f35	0.0014528992
128	0x39999ab6	0.00029297703
129	0x3a31bc0f	0.0006780037
130	0xb910b925	-0.00013801882
131	0xb9cef89d	-0.00039476613
132	0xb894b3fb	-7.090714e-05
133	0x39c073c7	0.00036707355
134	0x00000000	0.0
135	0x39a55b5b	0.00031539318
136	0xba1b42a6	-0.0005922712
137	0xb96f96cf	-0.00022848997
138	0xb9905a85	-0.00027533263
139	0x3984d130	0.0002533286
140	0xba65e623	-0.000876995
141	0xb8a48954	-7.845709e-05
142	0xb99f70cc	-0.00030410883
143	0xb69d76a1	-4.692775e-06
144	0xb900d0c7	-0.00012284807
145	0xb8bfe45c	-9.150125e-05
146	0xb722bbce	-9.699679e-06
147	0x00000000	0.0
148	0x39072f4f	0.00012892227
149	0xb8d194a9	-9.993587e-05
150	0xb884f033	-6.338991e-05
151	0x37a70e15	1.9914509e-05
152	0x3794b339	1.7726432e-05
153	0xb867ccaf	-5.526532e-05
154	0x3906d718	0.00012859365
155	0xb81acecd	-3.690906e-05
156	0xb7b44c69	-2.1493253e-05
157	0x37b434c9	2.1482252e-05
158	0x38a99fda	8.088323e-05
159	0xb8687b5c	-5.5427998e-05
160	0x00000000	0.0
161	0xb8915dbf	-6.9316004e-05
162	0xb7f6908e	-2.9392799e-05
163	0x38d65789	0.0001022062
164	0x38eb83ca	0.00011230221
165	0xb858da44	-5.170169e-05
166	0x39a64f26	0.00031720957
167	0xb5e49e1f	-1.7033343e-06
168	0x39299eeb	0.00016176298
169	0xb79eac36	-1.891526e-05
170	0x380ae389	3.3113673e-05
171	0x384ae594	4.8374364e-05
172	0xb7632906	-1.3539806e-05
173	0x00000000	0.0
174	0xb7e9e06a	-2.7880265e-05
175	0xb6e41bc0	-6.79816e-06
176	0x37536648	1.2600394e-05
177	0x383254a5	4.251734e-05
178	0xb7f44d7b	-2.9123146e-05
179	0xb72aed93	-1.0188104e-05
180	0xb748ee8c	-1.197647e-05
181	0xb581af4f	-9.66227e-07
182	0xb8b9667c	-8.8405766e-05
183	0xb7ca8a78	-2.4144756e-05
184	0x38a24efb	7.739473e-05
185	0x37a98f86	2.0213203e-05
186	0x00000000	0.0
187	0x38465745	4.7288155e-05
188	0xb8bbce73	-8.955309e-05
189	0xb7ae5108	-2.078015e-05
190	0x3881d18c	6.1902305e-05
191	0xb87fdcb3	-6.100228e-05
192	0xb989c112	-0.00026274525
193	0xb8d7cbe9	-0.0001028998
194	0xb88a658e	-6.599269e-05
195	0xb9437b4c	-0.00018642581
196	0xb90db835	-0.0001351543
197	0x38bc7f29	8.988224e-05
198	0x398057b1	0.00024479398
199	0x00000000	0.0
200	0x395d4cdf	0.00021104839
201	0xb9c947f4	-0.00038391317
202	0xb8bcac0f	-8.996587e-05
203	0x37ade5e4	2.0730258e-05
204	0xb91b2b3b	-0.00014798057
205	0xba71ebe3	-0.000922857
206	0xb9a1e0eb	-0.0003087589
207	0xb9887c20	-0.00026032422
208	0xb7e27603	-2.6996253e-05
209	0xb8ea6092	-0.00011175977
210	0xb8a074a4	-7.6511205e-05
211	0x375faeb9	1.3332517e-05
212	0x00000000	0.0
213	0x38e49200	0.00010899082
214	0xb8a7ae38	-7.995631e-05
215	0xb88ab495	-6.613989e-05
216	0xb8a595b9	-7.895701e-05
217	0x38e39d1b	0.00010853467
218	0xb80f3c6a	-3.415012e-05
219	0x38b882a9	8.798141e-05
220	0xb85b5d75	-5.2300707e-05
221	0xb8f2956f	-0.000115672934
222	0xb8fd2099	-0.00012070052
223	0x3954193c	0.00020227296
224	0xb928b08f	-0.00016087502
225	0x00000000	0.0
226	0xb7d78362	-2.5691177e-05
227	0xb9f8e413	-0.00047472175
228	0x39ba2166	0.00035501568
229	0x395620d0	0.00020420854
230	0x37d2b11b	2.5116422e-05
231	0x3a7ac132	0.00095655315
232	0x383b4ab9	4.4653865e-05
233	0x3a254058	0.00063038385
234	0x3744670e	1.1706505e-05
235	0xb970e87a	-0.00022974788
236	0xb927b8fc	-0.00015995273
237	0x384e04f1	4.911883e-05
238	0x00000000	0.0
239	0x394d04c7	0.00019552103
240	0xb94fe3d7	-0.00019825935
241	0xb9129653	-0.00013979645
242	0xb986832b	-0.000256562
243	0x39a2e955	0.00031072894
244	0x38974811	7.2136645e-05
245	0x396027e7	0.0002137717
246	0xb87c48e8	-6.014938e-05
247	0xb7f74756	-2.9477913e-05
248	0xb808ad9d	-3.2586617e-05
249	0x3888e142	6.526943e-05
250	0x36f383bb	7.2573e-06
251	0x00000000	0.0
252	0xb8c5f8c4	-9.440028e-05
253	0xb8cd243e	-9.7819124e-05
254	0x392cd89f	0.00016483896
255	0x392a6209	0.00016248984
