results/EasyMapAgent3/My Behavior/My Behavior-1499525.onnx (onnx, 81381 bytes, 14 tensors)

77 f4 [13]
000000 76 06 49 43 eb 80 e3 43 75 2e 46 43 0b 0a 53 44
       201.02524 455.00717 198.18147 844.1569
000010 d1 12 56 3a 69 1f 0d 44 8e 64 a0 43 22 d0 a5 43
       0.0008166256 564.4908 320.78558 331.62604
000020 64 4d 7a 43 dc a8 d7 42 78 d7 c3 42 38 7b a0 43
       250.3023 107.8298 97.92084 320.96265
000030 cd 77 28 43
       168.46797

action_model._continuous_distribution.log_sigma f4 [1, 2]
000000 8b 7f 1f be 49 78 58 3e
       -0.15575998 0.21139635

action_model._continuous_distribution.mu.bias f4 [2]
000000 cd 45 01 3e 8b 5a 34 bd
       0.12624283 -0.04403166

action_model._continuous_distribution.mu.weight f4 [2, 128]
000000 38 46 3e bd 54 6e 07 bc b7 6d 99 3d 09 c1 d8 bd
       -0.046453685 -0.00826605 0.074916296 -0.105836935
000010 9b 17 81 3c a3 07 53 3d ed ea b4 3c 7f 18 1f bc
       0.015758326 0.051520955 0.022084678 -0.00971043
000020 5f 63 4c bd 79 f1 5b 3c ba df ba 3e da 9a a2 be
       -0.049899455 0.013424271 0.36498815 -0.31758767
000030 55 01 26 3d 1d 1f 28 3d 74 3e df 3d a6 db 1b 3d
       0.040528614 0.041045297 0.10900584 0.03805127
000040 44 31 8d 3c 09 13 01 3d 44 a5 d9 3d 13 b4 36 be
       0.017235406 0.031512294 0.10627225 -0.1784213
000050 69 75 b5 bd 24 35 40 3d 5c cc 5b 3d 46 8d 2a bc
       -0.08860285 0.04692568 0.05366169 -0.010409659
000060 cd 48 ec 3b c1 ea a5 3d de 8d 1a bd f3 e1 29 bd
       0.007210827 0.081014164 -0.03773295 -0.041475248
000070 d5 27 34 bc 00 5d 12 3c d9 21 2c 3a b2 19 71 3e
       -0.010995825 0.008933306 0.0006566323 0.23544958
000080 60 15 19 3e 9c 9d 3e bc 89 3a c7 3d 60 a6 f1 bd
       0.1494956 -0.011634257 0.097279616 -0.11799312
000090 e8 2d f4 3d 6b ce 48 3e 40 86 80 3d d6 9b 74 3d
       0.119228184 0.19609992 0.06275606 0.05971893
0000a0 98 84 a2 bd d9 52 9e 3d ac 6e 30 bc 74 c7 cb 3e
       -0.079354465 0.07730646 -0.010768574 0.39800608
0000b0 d6 31 99 3e 72 f7 a4 3e b7 98 14 be e3 58 1e bd
       0.29920834 0.32220036 -0.14511381 -0.038658988
0000c0 b2 d0 ff 3c bf 48 3b bc 28 29 e2 bc 87 11 47 bc
       0.031227443 -0.011430918 -0.027607515 -0.012150175
0000d0 bd 10 84 3d 65 eb 31 3c 4c 3a ef bc 0a bb 07 bd
       0.06448505 0.010859345 -0.029202603 -0.03313736
0000e0 e6 fe bf 3c 33 92 cc 3b e3 84 2e 3d c4 cc 9e bd
       0.023436975 0.0062430142 0.0426072 -0.077539
0000f0 f3 49 86 3c 00 17 b8 3e 3b bd c1 bd ab a8 ef 3d
       0.016392684 0.35955048 -0.09459921 0.11702093
000100 56 da 50 bd f9 52 97 3e c2 da 8c bd 1c 84 58 3e
       -0.05098947 0.2955549 -0.06877662 0.21144146
000110 03 ee 33 bd ac f5 34 3e dd b2 69 3d 09 62 4a bd
       -0.043928158 0.17671841 0.057055343 -0.0494099
000120 df 91 eb bc d0 0f 6a be fb 00 9e bb e5 05 23 be
       -0.02875608 -0.22857594 -0.004821894 -0.15920217
000130 9f 36 d5 3d 56 4b 33 3e 00 52 2a 3c 86 28 8d 3d
       0.10410809 0.17509207 0.010395527 0.06892495
000140 bb 6a 38 bd 3b 00 83 3e 02 0f 71 3d 96 0b f6 3e
       -0.04502366 0.25586113 0.058852203 0.48055714
000150 99 23 71 bd bf f5 6e 3c 8f b1 2e 3e ea 4a 03 3e
       -0.05887184 0.014584958 0.1705992 0.12821546
000160 47 97 ce bb 94 da a1 3c 82 e7 31 bb 56 5f 37 be
       -0.0063046548 0.019757546 -0.0027146046 -0.17907462
000170 0e 5f c3 3b 66 01 ce bc 0e d8 60 bd 91 61 19 bd
       0.005962259 -0.025147151 -0.054893546 -0.037446562
000180 89 5d fb bc cd 71 a2 3d c4 9c 10 3d 50 a6 4d bb
       -0.03068425 0.07931862 0.035305753 -0.0031379648
000190 14 5f 3b 3d 03 d7 59 bc 84 ec 3a bd 8d f8 a3 bd
       0.04574497 -0.013295892 -0.045635715 -0.08006392
0001a0 18 f3 36 3d e2 60 99 bd e8 82 fc bc ea 44 b6 3d
       0.044665426 -0.07489182 -0.03082414 0.08899863
0001b0 58 af b2 3d 85 0c b7 3c a7 9e 1c 3e 6e b7 be bd
       0.087248504 0.022344837 0.15294896 -0.0931233
0001c0 d9 b7 8d 3c d7 45 db bc 0c 69 d3 bd 56 d5 99 3d
       0.01729958 -0.0267667 -0.103227705 0.07511394
0001d0 7a 75 d2 bd 39 bf af be 1b 8a 21 be b4 44 4b 3e
       -0.10276313 -0.3432558 -0.1577534 0.19850427
0001e0 02 13 13 be 1a 62 9d 3d 47 01 da 3d ff 7b e3 be
       -0.1436272 0.07684727 0.10644775 -0.4443054
0001f0 b8 0d eb bc 9c 31 87 bd 1a bf 55 bc c2 e7 2c bd
       -0.028693065 -0.06601259 -0.01304605 -0.04221321
000200 9c 79 29 be ae 22 cc 3c 88 da 40 3d fd dc 6d 3c
       -0.16550297 0.02491888 0.047083408 0.01451802
000210 b9 98 14 3d b4 b5 8b bc 35 9f 03 3e 58 8f 88 bd
       0.03627846 -0.017054416 0.12853701 -0.06667966
000220 d6 d8 d3 3e 57 19 c3 3d 18 75 fe 3d d3 7d b0 bd
       0.4137637 0.095263176 0.124246776 -0.08617749
000230 8f 7b 5b bc 35 8c 98 3d 42 b5 13 be 29 4e 3f bd
       -0.013396158 0.07448617 -0.14424613 -0.0467054
000240 a2 6c 6e 3e f2 e8 e6 3d d4 3c 76 be dd bb 07 3d
       0.23283628 0.112748995 -0.24046642 0.033138145
000250 be 0f 87 be eb 6a 09 3d c7 93 b5 3d 8a 4c 97 3d
       -0.26379198 0.03354923 0.08866077 0.073876455
000260 6f e0 df 3d 45 10 84 3d dc 3a c4 bd 95 7c 9d 3c
       0.10931479 0.06448416 -0.09581539 0.019224444
000270 78 8f 2d 3d 14 4e 1f bd 3b d6 c0 bd 9f fd 0a bf
       0.04237315 -0.03889282 -0.09415861 -0.54293245
000280 4b 9a 18 bd 85 e5 b9 be e9 f1 9d 3d 18 d0 fb 3d
       -0.03725652 -0.36307922 0.07712156 0.1229555
000290 3c a7 ad be fa 2b 51 3e 8e f4 48 be e5 da 06 3e
       -0.33916652 0.20426932 -0.1962454 0.13169439
0002a0 e2 a6 20 be 5b e0 bb be fe af 79 3e 51 3d 69 be
       -0.1568866 -0.36694607 0.24383542 -0.22777297
0002b0 9b e8 7d be 9f 1f af 3e a6 e9 20 3f ab dd 06 bd
       -0.24795763 0.34203812 0.6285652 -0.032926243
0002c0 c1 d3 53 3e 84 d2 15 3e c7 39 05 bd 2f 57 44 be
       0.20686246 0.14631087 -0.032525804 -0.19173883
0002d0 84 91 f2 bd 9b 6e 8d bd 0b 12 b6 3d f9 30 a1 bb
       -0.11844161 -0.06905862 0.0889016 -0.004919168
0002e0 5f 92 6f 3e d7 c7 b6 be d2 1d 69 be 4d 40 ca bd
       0.2339568 -0.3569934 -0.22765282 -0.09875546
0002f0 7a ff 2f bd 43 0c 37 3f 99 5f ec bd 76 5c 1c be
       -0.04296825 0.71503085 -0.11541671 -0.15269646
000300 76 3c 34 3d ac 85 de be bf ef d7 3e e8 76 65 be
       0.044002973 -0.4346136 0.421751 -0.2240864
000310 65 45 86 bd 59 e9 c2 3e c1 14 82 3d 53 db 24 3e
       -0.06556205 0.38068655 0.06351615 0.1609929
000320 be 9c 8a 3d ed 32 d5 3d e2 0a d5 3d 87 4a 8e 3e
       0.067681774 0.10410104 0.10402466 0.27791235
000330 d5 a2 13 3e 3b a6 09 3e 32 90 b2 3d 41 cd 9a 3d
       0.14417584 0.13442318 0.08718909 0.0755868
000340 c8 55 1a 3d 7d 70 95 3d 64 ae 7d 3e 67 71 c9 3e
       0.037679464 0.07296846 0.24773556 0.39344332
000350 d2 ba 83 3d 69 82 e3 3d 31 be 76 be 75 c1 44 3e
       0.064321175 0.11108858 -0.2409599 0.19214423
000360 50 23 e0 3d 0d ac f7 be 44 8c 30 3c 99 40 aa 3d
       0.10944235 -0.48373452 0.010775629 0.08313102
000370 6c 2e 83 3e 37 ca ca bc 95 8a b9 3d ed da e9 bd
       0.25621355 -0.024754627 0.090596355 -0.1141871
000380 86 9a 89 bc f4 eb fc 3d 19 46 a2 3d 30 68 db 3d
       -0.016797315 0.12349692 0.07923526 0.107132316
000390 e9 94 29 bd a4 92 b7 3d 36 48 1c 3e 0d 0b e0 3c
       -0.041401777 0.08963516 0.15261921 0.02734902
0003a0 7f aa 4c be 84 46 f3 3d f0 dc a8 bd 3c 6b ec 3d
       -0.19986914 0.11878684 -0.082452655 0.11543891
0003b0 34 db 5a 3e f6 35 a2 3c 93 27 5b 3e 81 f2 73 3e
       0.21372682 0.019801121 0.21401815 0.23822977
0003c0 41 90 2d 3e a6 0d 1e be 4a d8 e4 3d e5 38 27 3d
       0.1694956 -0.15434894 0.11174066 0.040825743
0003d0 25 f2 13 bc d8 a7 0c bf aa 94 08 3e dc 91 9d be
       -0.0090299 -0.5494361 0.13337961 -0.30775344
0003e0 9f 7b 25 3d 73 ac 3d be 02 c9 64 be 92 ad 1b 3e
       0.040401097 -0.18522815 -0.22342303 0.1520293
0003f0 e1 a0 6d 3b 8d 92 93 bc 8d af 13 3c 1a 29 f2 3d
       0.0036259221 -0.018014217 0.009014023 0.11824246

action_model._discrete_distribution.branches.0.bias f4 [3]
000000 83 a2 c9 be 92 78 7d 3d 73 b7 ae 3e
       -0.393818 0.061882563 0.34124336

action_model._discrete_distribution.branches.0.weight f4 [3, 128]
000000 24 0e f2 3e d4 bb 6a 3e 4a 28 23 bf 2d 38 da bd
       0.47276413 0.22923213 -0.6373335 -0.10655246
000010 85 6a c5 3c 4a 13 93 3c 40 e5 0d bf 08 23 95 3e
       0.024098644 0.017953534 -0.5542793 0.2912829
000020 bd aa b3 bd 18 9c 3f be fe ac e9 bd 76 a8 e5 be
       -0.087728 -0.18711889 -0.11409949 -0.44855088
000030 ef 0b 06 3e f5 3c b3 3e b3 66 a1 3e 7f f6 92 be
       0.1309049 0.35007444 0.31523666 -0.28703687
000040 42 e8 ab 3d ad dc fa 3c c9 6a e6 be e1 0c 5b be
       0.08393909 0.030622805 -0.45003346 -0.21391632
000050 53 de 40 be 4c 08 8e be b1 12 96 bd f0 a7 2c bd
       -0.1883481 -0.27740705 -0.07327784 -0.042152345
000060 c3 3b b9 be bc 64 a7 3d d6 da b8 3e d4 62 fe 3e
       -0.36178407 0.081735104 0.3610446 0.49684775
000070 f6 aa b3 be 99 6b 9f bf 7d 8a fd 3d b6 8b 8b be
       -0.3509137 -1.2454711 0.1237993 -0.27255028
000080 05 04 42 be cf 2d 61 be 20 96 bc be 31 f3 a4 3e
       -0.18946846 -0.21990131 -0.36833286 0.3221679
000090 09 ac 80 3f ae 3c d0 bd 06 d1 b3 be b5 08 4d be
       1.0052501 -0.10167824 -0.3512041 -0.20022853
0000a0 94 9c f6 be 05 40 10 bf 00 74 03 bf 89 f1 ea 3d
       -0.48166335 -0.56347686 -0.51348877 0.114718504
0000b0 5d d1 da 3d 8d 5d cd bd 80 31 f4 3d 95 00 bb 3e
       0.10684464 -0.10027609 0.11923504 0.36523882
0000c0 b5 8d be 3e 4d 1d f9 bd cc 81 f7 3d 1a dc 36 3f
       0.3721749 -0.12163792 0.12085304 0.714296
0000d0 ab ea 15 3e d3 cf 53 3f 3b 72 3e be 06 8f 45 3f
       0.146403 0.8273899 -0.18598263 0.7717136
0000e0 21 80 bc 3e fd 9a 3c bf b3 c6 a5 be e5 36 10 bf
       0.36816505 -0.73673993 -0.32378158 -0.5633376
0000f0 56 5b 6a 3f 1d c7 4c 3e f8 8d e3 3d c2 d2 88 be
       0.9154562 0.1999783 0.11111063 -0.26723295
000100 9f 58 4c 3e 17 1f 12 3e 4a 61 be bc db c6 e6 3e
       0.19955681 0.14269672 -0.02323975 0.4507359
000110 a8 b6 b0 bd ee c2 5a bf 13 c6 8f be d8 ff 5a bf
       -0.08628589 -0.8545369 -0.28080806 -0.85546637
000120 4c d2 10 3f be 54 82 3e 79 a3 03 bf 4e bd 2b 3e
       0.5657089 0.25455278 -0.51421314 0.16771433
000130 41 95 ff bc 25 fd 0e bf 0d 01 97 be a8 db 9c 3d
       -0.0311991 -0.5585502 -0.2949299 0.076590836
000140 38 4f 2d 3e 76 28 83 be 09 6c 52 bd 61 98 3d 3e
       0.16924751 -0.25616807 -0.05137256 0.18515159
000150 5b c4 17 3e fa 60 81 be 7b 18 03 bd 99 2a fd be
       0.14820997 -0.252693 -0.03200577 -0.49446562
000160 0c 04 e4 be 80 b3 19 bf e2 67 c4 bb 28 cf 31 bf
       -0.44534338 -0.6003952 -0.005993829 -0.6945672
000170 b4 fa ae 3a 64 74 7b 3e e9 ba 35 3e ea b6 69 be
       0.0013349862 0.24556118 0.17747082 -0.22823682
000180 24 db 96 3d f8 4c 54 be 08 ac ca be 70 5d 11 3e
       0.073660165 -0.20732486 -0.39584374 0.141958
000190 1d 26 b0 3e dd 6b 11 be 56 eb 89 be 1c f3 4d be
       0.34404078 -0.14201303 -0.2693736 -0.2011227
0001a0 44 fa 92 be 74 0a 5e 3e 6a 39 26 3e bd 27 98 3d
       -0.28706563 0.21683675 0.16232839 0.074294545
0001b0 77 32 3a be ba 81 22 be ac 21 c0 be 45 0a 02 bd
       -0.18183313 -0.158698 -0.3752569 -0.031748075
0001c0 ea 50 ac be 67 21 03 3e 9b 5f 1e bc 20 a8 01 3e
       -0.33655483 0.1280571 -0.009666349 0.12661791
0001d0 20 f5 fb 3e b2 53 72 3d 9f 77 e0 3c e6 3a c6 be
       0.49210453 0.05916185 0.02740079 -0.3871681
0001e0 0b 97 4e bf 5f 9c 48 3f 28 59 4c 3e 59 18 7e 3e
       -0.80699223 0.78363603 0.19955885 0.24813975
0001f0 25 b8 b7 3e d1 10 86 3c c4 1d 22 be 42 68 a1 be
       0.3588268 0.01636544 -0.15831667 -0.31524855
000200 8f e1 30 be ab f2 a7 be 46 68 90 3e df eb a8 3e
       -0.17273544 -0.32802328 0.28204554 0.32992455
000210 37 28 be bd e5 36 49 bd 3a d9 57 3e 4f 37 88 be
       -0.09285014 -0.049124617 0.21078959 -0.26604697
000220 5a c9 0f be 66 f9 71 3d bd 2e 26 3e b7 49 12 3d
       -0.14041653 0.059075736 0.16228767 0.03571483
000230 42 1a 11 be b8 c0 00 bc 1f 09 ba 3c 90 8a ab 3e
       -0.14170173 -0.007858448 0.022709427 0.33504152
000240 8e a5 9b 3e 6c b5 69 3d a1 07 52 3d 27 ec 23 bc
       0.30399746 0.057057783 0.051276807 -0.010005034
000250 61 74 13 3e 3f 83 b9 3d d8 ac 00 3e a5 8a f0 3c
       0.14399864 0.09058236 0.12565935 0.029362986
000260 3c 9b d6 3d 28 95 1f 3e 46 29 dc be b1 11 07 be
       0.10478827 0.15584242 -0.4300024 -0.13190342
000270 fd a3 94 3e 80 38 07 be cd 33 32 3e 00 ee 25 3c
       0.29031363 -0.13205147 0.17402573 0.010127544
000280 3a 2b cf bd 8c d1 77 bd c6 4c 0a 3e 9f d6 ca 3d
       -0.10115667 -0.060502574 0.13505849 0.09904217
000290 cc 5b 58 be 23 de 7f 3e 3d d6 ca 3e 1e b4 a7 3d
       -0.21128768 0.24987082 0.39616576 0.081886515
0002a0 7b 78 91 3e 1e 64 0c 3d 15 16 e8 3d 17 e3 42 be
       0.28412232 0.034275167 0.11332337 -0.1903194
0002b0 4a 62 4d 3e c3 f7 92 bc db f1 01 3d ee bd 0c 3e
       0.20057026 -0.017940408 0.031724792 0.13744327
0002c0 c2 70 d2 3d 38 76 7f bd f1 4c 64 be 26 6d 6b 3e
       0.10275413 -0.0623686 -0.22294976 0.22990856
0002d0 5c 7a 7d be 20 3f 1c 3d 1f 5e 12 3e 3f f7 a3 3e
       -0.24753708 0.03814614 0.14293717 0.3202457
0002e0 25 65 95 3c db cd c4 3d c9 33 51 3e 97 8e a4 3e
       0.018236706 0.09609576 0.2042991 0.32140037
0002f0 f5 81 b5 3d 36 3b 3e 3e 9c c0 4d 3e f0 40 39 be
       0.08862678 0.18577275 0.20093006 -0.18091178
000300 85 ec c8 bd 53 8f 0c be 07 06 2f 3e b8 63 d1 3d
       -0.098107375 -0.13726549 0.17092143 0.10224098
000310 96 e8 85 3e 45 59 a1 3e ba e0 05 3e 28 6c 7e be
       0.2615401 0.3151342 0.13074008 -0.24845946
000320 a3 d8 ae 3e a2 57 09 3e b3 85 cb 3d 29 a6 c1 be
       0.34149656 0.13412336 0.099376105 -0.37822083
000330 4d 49 5f 3e b5 e1 05 3e 08 50 ec 3d 5c 9a 53 bb
       0.21805306 0.13074382 0.11538702 -0.003228805
000340 4c 6a 20 bd 46 4e ef bb 86 d6 3b be 1e 68 51 3e
       -0.039163873 -0.007303032 -0.18343553 0.20449874
000350 b3 01 07 be 99 6c 38 3d d2 e5 47 3e af dc a1 3e
       -0.13184242 0.04502544 0.19521263 0.3161368
000360 33 cc 3c 3e 69 9a 2e 3e fb a8 1f 3e 36 72 b9 3e
       0.18437271 0.1705109 0.15591805 0.3621995
000370 fc 55 82 3e 58 43 53 bd 51 69 1e be 79 c8 d6 3d
       0.25456226 -0.051577896 -0.15469863 0.10487456
000380 95 e1 18 3e 6f 74 11 3e 26 92 db 3d 5e 4c 06 3e
       0.14929803 0.14204572 0.10721235 0.1311507
000390 4c e0 1b 3b 70 13 34 be 7e a5 02 3e a6 98 fb 3e
       0.0023784814 -0.1758554 0.12758443 0.491399
0003a0 3f f1 53 bd 2e a7 21 be 1b fb 39 bd e5 4f d4 3d
       -0.051743742 -0.1578643 -0.04540549 0.10366801
0003b0 c6 17 3f be cb 6e 0a 3d 41 e0 d0 3d cb a9 5d 3e
       -0.18661413 0.033797067 0.10199023 0.21646802
0003c0 8c 5d 42 3e ff 52 37 be 4b bf 67 bc 05 55 5f 3e
       0.18980998 -0.17902754 -0.014144729 0.21809776
0003d0 b1 25 86 be 0c 39 05 3e bd 02 57 3e 9f e6 f6 3c
       -0.2620063 0.13010043 0.20997138 0.030139266
0003e0 68 ea 96 bd 92 97 06 bf 5e 77 f6 bd 5c e3 b9 3e
       -0.07368928 -0.5257503 -0.12034486 0.36306274
0003f0 a1 d6 83 3e fe 1e b2 3d e5 f1 1a 3e 6d 94 46 3e
       0.25749686 0.086973175 0.15131338 0.19392557

action_model._discrete_distribution.branches.1.bias f4 [3]
000000 cb 32 d9 be 34 27 21 3d e2 e6 dd 3e
       -0.42421564 0.039344028 0.43340212

action_model._discrete_distribution.branches.1.weight f4 [3, 128]
000000 a8 c5 43 bd 42 6f 1e be 72 4d bf be 57 a3 5a be
       -0.04779592 -0.15472129 -0.37363774 -0.21351372
000010 92 5e 13 3d bc af 02 bd 9b a8 69 be 07 cc 3e be
       0.03597886 -0.031905875 -0.22818224 -0.18632518
000020 5e 6e 61 3e 28 17 28 3e 56 a0 63 3d af 68 a6 3e
       0.22014758 0.16415083 0.05557283 0.32501742
000030 82 dd 93 bc 39 c2 8e 3e 63 76 19 3e c4 cc 58 3e
       -0.01804996 0.27882555 0.14986567 0.21171862
000040 d4 d9 c0 3d 01 33 3d 3e 5c d7 b0 be 1d 8d 21 be
       0.094165474 0.18476488 -0.34539306 -0.15776487
000050 38 c3 86 bf 12 bd 4b be a0 b3 82 3b ec 13 7b bd
       -1.0528326 -0.19896343 0.003988698 -0.061298296
000060 55 ef 53 be 29 22 7f 3d 1a c0 f5 3c ba b8 92 bd
       -0.20696767 0.062288437 0.029998828 -0.0716414
000070 8d 88 2c be 0c f5 ec be e9 53 26 3d 83 02 3f bf
       -0.16848965 -0.46280706 0.040607367 -0.7461321
000080 26 b2 c2 bd f6 98 c8 be 21 82 56 be 73 4e 09 bf
       -0.09506635 -0.391792 -0.20948078 -0.5363533
000090 3c ee e1 be 75 5b 80 3d e3 74 a3 3d de 36 ab be
       -0.4412707 0.06267444 0.07981279 -0.33440298
0000a0 23 28 78 be 93 fb 0e bf 30 9d e6 3e b3 e4 80 be
       -0.24234061 -0.5585262 0.450418 -0.25174484
0000b0 37 c7 56 3e 9f f3 69 be fa e0 6d 3e 3f 20 07 bd
       0.20974432 -0.2284684 0.23230353 -0.032989737
0000c0 af 68 83 3e 52 0b b1 be 23 c1 1d 3e 25 92 91 3e
       0.25665805 -0.3457895 0.15405707 0.28431812
0000d0 20 03 47 3e ca eb 09 bc 37 d9 94 3d 16 92 93 bc
       0.19434786 -0.008418033 0.07267993 -0.018013995
0000e0 ed d0 ab 3d 14 09 fb be 1b 26 13 bd 06 14 a7 be
       0.08389459 -0.49030364 -0.035925012 -0.32632464
0000f0 df 15 51 be db dd e0 3d 51 8c c7 bd 25 8d bd be
       -0.204185 0.109798156 -0.0974356 -0.37021747
000100 e5 98 4e be 5d c1 5c be 54 a2 4a bd d6 86 92 3e
       -0.20175512 -0.21558137 -0.049471214 0.28618497
000110 b4 a8 84 3e bc cd 2b 3e ec 3d f5 bd 32 61 9c bd
       0.2590996 0.167777 -0.11974701 -0.07635726
000120 c9 94 9a 3e 58 be a2 3d cd d4 94 be d5 60 70 bf
       0.3019164 0.079464614 -0.29068604 -0.93897754
000130 69 c2 5e 3e 41 9f 9d be 79 18 9c bd a2 21 e3 bd
       0.21753849 -0.30785564 -0.07621855 -0.11090399
000140 24 31 41 bd 69 0a 91 bd 29 da 19 be e3 cf c8 3c
       -0.047166005 -0.07082064 -0.15024628 0.02451319
000150 08 1c 07 be b8 5e 3f 3c 3f df 5e be 4a 6b 51 3e
       -0.13194287 0.011680298 -0.21764849 0.20451084
000160 ae 01 00 be 35 9d f1 bd 23 39 15 3e da 13 a7 3d
       -0.12500641 -0.11797563 0.14572577 0.08158083
000170 85 80 0c 3e 76 bd 41 3d 33 bd 27 bd a0 88 9d bd
       0.13720901 0.047299825 -0.04095192 -0.07692075
000180 61 0c 05 be e3 17 15 be a3 05 bf be 6a 5e aa 3e
       -0.12993003 -0.14559893 -0.37308988 0.33275157
000190 91 7e 34 3e c2 90 1c 3d ff 16 2b be 22 c7 2f be
       0.17626406 0.03822399 -0.16707991 -0.17165807
0001a0 f4 83 25 be d8 91 f3 bd 24 bc 4f be ba e7 1a 3c
       -0.16163617 -0.11893052 -0.20286614 0.009454662
0001b0 96 d6 c7 be 04 5b 96 bd 24 26 3f be 09 c2 94 bd
       -0.39030904 -0.073415786 -0.18666893 -0.07263572
0001c0 ed 56 80 be 01 b5 7e 3d 7f 92 45 be c6 55 a4 3d
       -0.2506632 0.062184338 -0.19294165 0.080241725
0001d0 d3 83 2a bf 6c a4 75 bc 58 38 77 bd f5 13 51 be
       -0.666074 -0.0149928145 -0.060356468 -0.20417769
0001e0 49 39 46 bf 87 97 8b 3d 36 c4 6d be fd 70 a4 3e
       -0.7743116 0.06816011 -0.2321938 0.32117453
0001f0 df ed ca 3d c2 83 09 3e 94 d9 bb bc 81 5f 55 be
       0.099086516 0.13429168 -0.022930898 -0.20837213
000200 64 09 99 be 42 b2 2a be 65 bd bb 3d b5 2e 57 3b
       -0.29889977 -0.16669562 0.091669835 0.0032834236
000210 e1 83 c1 bd 25 f5 e0 bd 55 cd 8d 3d 17 3c d0 3d
       -0.09448982 -0.109842576 0.069239296 0.10167711
000220 0c 6b bf 3d 45 2e a3 be d9 41 29 3e 05 a1 e5 be
       0.093465894 -0.31871238 0.16529025 -0.4484941
000230 46 fb a3 3b 59 0b be be 6b ef ca be 0e 55 c7 be
       0.0050043194 -0.37118033 -0.39635786 -0.3893208
000240 8e 97 cf bd 69 65 6b be 13 2f 43 be f6 7b 91 3d
       -0.10136329 -0.22987904 -0.19060926 0.07103722
000250 9f 33 46 3e 72 c0 64 3c be 6f 8e be 25 13 2a be
       0.1935563 0.013961898 -0.27819628 -0.16608866
000260 c8 53 4e bd 2d f5 bd be df 82 e9 bd 47 42 26 be
       -0.05037287 -0.37101117 -0.11401915 -0.1623622
000270 f7 2f cd bd 75 10 21 3f 10 b0 02 be df d0 80 3e
       -0.10018914 0.62915736 -0.12762475 0.25159356
000280 54 3b 98 be cc 79 b8 bd 2f e4 f4 3d 30 ae 02 3c
       -0.29732764 -0.09007606 0.11957585 0.0079761
000290 68 fe ef bd d1 a8 35 3e 59 2d 05 be 18 ca a6 bd
       -0.11718446 0.1774018 -0.1300558 -0.08144015
0002a0 47 86 c2 3d e0 0a db bd 02 38 50 3e 38 fd 48 3e
       0.094982676 -0.106954336 0.20333865 0.19627845
0002b0 91 dc 7b 3e 1f a8 21 be 3f 5c 85 3c a0 de 89 bf
       0.24595858 -0.1578679 0.016279338 -1.0771065
0002c0 29 3f d4 3d 04 92 f1 bd 33 3a 81 bd 75 b9 da be
       0.10363609 -0.117954284 -0.06309929 -0.42719617
0002d0 7b 12 33 3d 97 ad 26 bf b8 5d 5d be 5c 52 7f bf
       0.043718796 -0.6510863 -0.21617782 -0.99735045
0002e0 58 06 75 bd f3 c3 b0 3d b3 e6 45 be 46 3f 3f 3e
       -0.059820503 0.08631124 -0.19326286 0.1867648
0002f0 3d 89 92 be 1b bb 23 3d a7 9d 2d bf 24 7c 23 be
       -0.2862033 0.03997336 -0.67818683 -0.15965325
000300 17 0a 78 3d 26 d3 f3 bc 2c 0d 92 3d 18 dc ec bd
       0.060556497 -0.02976377 0.071314186 -0.11565417
000310 77 37 4e 3e fd 93 39 bd 79 25 28 bd ab ef 4e be
       0.20138346 -0.04530715 -0.04105136 -0.20208614
000320 12 3f 9f bf 07 ad 8a 3d e1 54 14 3e 27 02 5c 3e
       -1.2441123 0.067712836 0.14485504 0.21485196
000330 dc 61 40 bd e4 22 11 3e 58 a2 d0 bd b1 78 86 be
       -0.046968326 0.14173466 -0.101872146 -0.26263955
000340 0d 83 c8 bd e1 44 f4 3b 5d f3 86 bd b5 d9 af 3d
       -0.09790621 0.0074545 -0.065893866 0.08586446
000350 a1 a0 a5 be 1c f7 9c bd 58 c6 79 be cc 97 77 be
       -0.32349113 -0.0766432 -0.24392068 -0.24179
000360 92 f9 95 be 2b 50 a8 bb 4d 1d 89 be 2c 8d 3b 3e
       -0.2929197 -0.00513651 -0.26780167 0.18315572
000370 0b af aa bd 3f 6b 7a be 65 ed cf 3d c0 b1 f1 bd
       -0.08334168 -0.24454974 0.10152701 -0.11801481
000380 d4 a1 8b be b7 42 25 bd 40 e4 4a 3d 48 15 ed bc
       -0.27271903 -0.040346827 0.049534082 -0.028940812
000390 48 86 29 bf 90 29 44 be 17 34 c7 bd 24 e8 79 be
       -0.6622052 -0.1915648 -0.09726732 -0.24404961
0003a0 6d ff b6 be 0a 27 c0 be c8 14 ab 3e 0a 9a 08 3e
       -0.3574175 -0.37529784 0.33414292 0.13340011
0003b0 53 4a 47 3d 8d 7b 59 3c d7 a1 b9 3c 04 16 30 3e
       0.048654865 0.013274086 0.022660179 0.17195898
0003c0 73 d0 85 3c 31 55 02 be 8f c9 f9 3c 6d dc 8a be
       0.016334748 -0.1272781 0.030491618 -0.27121297
0003d0 f7 10 55 be 2c aa 47 3e 5e 0c 69 be a9 e9 b8 be
       -0.20807253 0.19498509 -0.22758624 -0.3611577
0003e0 d6 00 aa be 24 6e df 3e c3 d3 53 3e 21 30 9e 3e
       -0.33203763 0.43638718 0.2068625 0.30896094
0003f0 de 19 e8 be b5 2b 6d be 0e 5a a9 be 78 83 6f bd
       -0.45332235 -0.23161204 -0.3307652 -0.058474988

discrete_action_output_shape f4 [1, 2]
000000 00 00 40 40 00 00 40 40
       3.0 3.0

network_body._body_endoder.seq_layers.0.bias f4 [128]
000000 d2 d3 4f bf ae f3 b3 bf 41 53 df bd cd 3b 15 3e
       -0.8118259 -1.405874 -0.10904551 0.14573593
000010 92 0f b3 bf 92 fe 80 bf c9 97 8a bf e6 a2 b1 bf
       -1.3989127 -1.0077689 -1.0827571 -1.3877838
000020 0e 97 c2 be f7 c3 29 bf 76 22 12 bf b5 71 a5 be
       -0.3800587 -0.66314644 -0.57083833 -0.32313314
000030 7b ab 44 bf c1 b4 94 bf 89 dc 87 be 12 ad be bf
       -0.7682416 -1.1617662 -0.26535442 -1.4896567
000040 c3 63 91 bf 2c 1d 88 be ae db c3 be 4a da ba be
       -1.135857 -0.26584756 -0.3825354 -0.36494666
000050 65 7f 3c bf f3 23 fd be 60 fb a5 bf c6 9f 0e 3e
       -0.7363189 -0.4944149 -1.2967339 0.13928136
000060 fa d8 7e be 52 14 6e bf 17 2b 50 bf d8 6a 95 3d
       -0.24887457 -0.92999756 -0.8131575 0.072957695
000070 34 3b 29 be 66 8c b3 bf d1 c1 03 bf 96 c9 bc be
       -0.1652649 -1.4027221 -0.51467615 -0.36872548
000080 dc 2f 44 bf be f8 1f bf 90 81 a5 be 43 34 84 3e
       -0.7663553 -0.62488925 -0.3232541 0.25821123
000090 dc 4e 10 be b8 e1 51 bf 82 f4 3d be 6b a0 a3 3b
       -0.14092582 -0.81985044 -0.18550304 0.0049934885
0000a0 2b fe ab bf 13 ae a2 bf 13 f1 98 bf aa 7e c8 3e
       -1.3436941 -1.2709373 -1.194857 0.39159137
0000b0 83 fa 83 be 92 71 09 bf f1 82 8e bf 89 cd 72 bf
       -0.25777063 -0.5368892 -1.113371 -0.9484487
0000c0 96 d1 bd be f2 0d 87 be cb 12 53 bf f5 1e 42 bf
       -0.37073964 -0.26377827 -0.8245055 -0.75828487
0000d0 50 e2 40 be a1 fa 10 bf 8f 97 8f be a7 0e 79 bf
       -0.18836331 -0.5663243 -0.28045318 -0.9728798
0000e0 24 c0 41 bf 8c 77 3b 3e 20 80 75 bf e4 b5 cf 3e
       -0.7568381 0.18307322 -0.9589863 0.4056846
0000f0 d3 ca 6c bf ac 75 39 bf 70 73 27 3e a3 93 a5 3f
       -0.92496985 -0.7244518 0.1635263 1.293568
000100 54 2e 12 be dc d1 c9 bf bf c4 10 bf 06 c0 b0 bf
       -0.14275485 -1.5767169 -0.5655021 -1.3808601
000110 36 58 26 bf 94 be 7b be 84 95 97 bf c6 f7 66 bf
       -0.6497835 -0.24584419 -1.1842504 -0.9022182
000120 92 8c 32 bf 6c 9d 38 bf 00 9a 86 bf af 44 ad bf
       -0.69745743 -0.72115207 -1.0515747 -1.3536586
000130 0b 2d b0 bf ed 0f e9 3f 26 b9 91 bf 02 02 5c bf
       -1.3763746 1.8207985 -1.1384628 -0.85940564
000140 2f e5 95 be 62 6a 8f bf a8 d5 07 bf d3 c0 a4 bf
       -0.29276416 -1.120434 -0.5306039 -1.2871345
000150 1b 61 91 bf b8 de fe be 15 91 bd bf 56 7e 8f bf
       -1.1357759 -0.49779296 -1.48099 -1.121043
000160 d0 4e 1c be 66 9b c8 be 91 7c 30 bf 60 ce 8c be
       -0.1526444 -0.3918106 -0.68940073 -0.27501202
000170 b2 68 9f bf 85 46 52 be e2 37 9a bf b0 67 7f be
       -1.2453825 -0.20534714 -1.2048304 -0.24941897
000180 fe d9 41 bf f6 19 f0 3e 20 a1 87 bf 3e 6a 84 bf
       -0.75723255 0.46894807 -1.0596046 -1.0344923
000190 9b 5c 31 3f 52 28 42 bf d3 cb fe bd 26 8d 71 bf
       0.6928193 -0.75842774 -0.1244122 -0.94356
0001a0 dc 8c e4 be 7d 4a 62 bf d4 87 ac bf 91 58 66 bf
       -0.44638717 -0.8839491 -1.3478951 -0.8997889
0001b0 a0 a5 87 bf 11 e0 1d bf 25 f4 59 3e 3e 90 9d bf
       -1.059742 -0.61670023 0.2128454 -1.2309644
0001c0 48 fa d2 bf d5 d1 f9 be 38 65 f6 be b5 ba b8 be
       -1.648263 -0.48792902 -0.481241 -0.36079946
0001d0 d0 7a c2 be c9 49 6f bf dc c2 af bf d0 ba a6 bf
       -0.37984324 -0.9347196 -1.3731341 -1.3025761
0001e0 15 7a 92 bf 7a 01 c8 be e6 2b a9 bc 5d 51 df 3e
       -1.1443506 -0.39063627 -0.020650815 0.43616763
0001f0 41 07 92 bf f6 22 a9 bf 15 c5 d5 be 99 90 ca bc
       -1.1408464 -1.3213794 -0.41751924 -0.024727153

network_body._body_endoder.seq_layers.0.weight f4 [128, 13]
000000 92 43 91 3e 9b ad f6 3e f2 2d 70 3e ec 63 90 3d
       0.28371865 0.48179325 0.23455027 0.070503086
000010 ee 5a ee bd db 5f 9c 3c 38 6a c7 3e e7 8e ae 3c
       -0.11638437 0.019088676 0.38948226 0.021308376
000020 b0 c1 73 bd 34 da 11 bf c2 e9 a7 bd 18 af f9 3d
       -0.059510887 -0.56973577 -0.08198883 0.121915996
000030 a4 3d 2e 3e 46 14 c2 be 22 75 6c 3e 09 32 c2 bc
       0.17015702 -0.37906092 0.23091558 -0.0237055
000040 58 f1 9a 3d f1 fd d4 3d b1 03 3f 3e e4 67 26 3f
       0.07565564 0.10399998 0.18653752 0.65002275
000050 a6 a8 00 be 31 22 e8 be 0c 7e 79 3e 91 9b 89 3d
       -0.12564334 -0.45338586 0.2436449 0.06719125
000060 d6 e7 5c 3e 46 91 c7 be 06 a5 d6 be 4e e7 44 be
       0.21572813 -0.38978022 -0.41922778 -0.1922886
000070 52 99 79 3f 80 0b 42 3f a7 af 6a 3e 3d fd 57 be
       0.97499573 0.757988 0.22918569 -0.21092696
000080 71 f9 26 bd 61 1d 7b 3c d4 83 00 3d 7f 23 32 be
       -0.04076523 0.015326829 0.03137572 -0.17396353
000090 6a b3 1f bf 53 f9 90 3f f6 8b 60 3e 88 20 00 bf
       -0.6238314 1.1326088 0.21928391 -0.5004964
0000a0 0d 59 0e be 82 0f 1f 3f 70 98 a0 be cf 7a 2e be
       -0.13901158 0.6213304 -0.313663 -0.17039035
0000b0 b0 42 2b be 54 f8 f3 3d 61 03 c2 3e 29 f1 9a bd
       -0.16724658 0.11912599 0.37893203 -0.07565529
0000c0 17 9e b3 bd 88 7c 21 be f1 fd 47 3f 76 7a 2d 3e
       -0.087703876 -0.15770161 0.7812186 0.16941246
0000d0 32 18 a2 3d 50 42 bb 3e ee b7 88 bd 0b 68 06 3e
       0.07914771 0.3657403 -0.06675707 0.13125627
0000e0 22 29 04 bc b3 39 55 bd fd 29 d3 be 4e b3 0e 3f
       -0.008066447 -0.05205698 -0.41242972 0.5574235
0000f0 4b 9c 09 3e 95 6c 54 3e 21 72 0a bf 66 91 a5 3c
       0.13438527 0.20744546 -0.54080397 0.020210933
000100 02 41 78 bf 6a 13 0b bc 2b 47 7d be 54 94 e0 be
       -0.96974194 -0.008488515 -0.2473418 -0.43863165
000110 73 59 79 bd 8e 27 a1 3e 9e f5 82 be 58 eb 40 3e
       -0.06087632 0.3147549 -0.25578016 0.18839777
000120 e3 7e 82 3e 26 6d 8c be e2 cf 3b 3d 03 95 44 bc
       0.25487432 -0.27427024 0.04585255 -0.011998418
000130 b7 c6 e4 bd 88 bc 42 3e 9f b1 fc 3d 4e b2 c6 3d
       -0.11170714 0.19017231 0.12338566 0.09701978
000140 35 9d 22 3d 08 c8 45 be c8 93 1c bd eb 44 a0 3e
       0.039700706 -0.19314587 -0.038226873 0.3130258
000150 e7 36 e8 be c4 32 b4 3d 6a ec 40 3e 3e 9a 28 bf
       -0.45354387 0.08798745 0.18840185 -0.65860355
000160 d4 4a 95 be 3a 4c a3 3e 07 0c df 3e 1c 9e 2c bf
       -0.29158652 0.31894094 0.43563864 -0.67428756
000170 a5 1f 3b be 43 39 a6 bd 07 00 3e 3e f4 01 b2 bd
       -0.1827379 -0.081163906 0.18554698 -0.08691779
000180 d8 4d 40 be 12 0c 0a 3f ed 45 37 3e b4 c0 d4 b9
       -0.18779695 0.5392467 0.17897768 -0.00040579366
000190 32 3f d2 be 94 21 f0 be 13 a0 bb 3e d5 19 65 3e
       -0.4106384 -0.46900618 0.36645564 0.22373135
0001a0 ee 83 b6 be ce 18 99 be 32 14 98 3e ac 62 ea be
       -0.3564753 -0.29901737 0.29702908 -0.45778406
0001b0 ae 24 25 3f fb 20 b3 3e 4b 43 c1 be 5e eb c8 3e
       0.64509094 0.349861 -0.37746653 0.3924207
0001c0 cb 1d 38 bf bc e6 1e bd 19 ba b5 3e 15 9d 85 bd
       -0.7192046 -0.038794264 0.35493544 -0.06524102
0001d0 2b 80 1c be 02 02 0a be dd db 78 bf 0a 54 66 3e
       -0.15283267 -0.13477328 -0.97210485 0.22492996
0001e0 5e 7d f3 be d2 da 9f 3e ee a0 ec bd a2 39 00 3d
       -0.47556585 0.31221634 -0.115541324 0.031304963
0001f0 ba b8 10 bd f7 3e 52 3c c8 51 e8 3d fd ef 7c 3e
       -0.03533242 0.012832395 0.113437235 0.24700923
000200 63 7c 0c be 36 43 17 be 97 aa d2 be eb 73 53 3e
       -0.13719325 -0.14771733 -0.41145775 0.20649688
000210 9a bf a1 3e 97 25 71 3e f8 70 24 3e e2 a2 f9 bd
       0.31591493 0.23549496 0.16058719 -0.121892706
000220 86 a3 72 3e a2 5e 0f bf 33 7d 87 be 4e a7 c5 3e
       0.23695192 -0.56003773 -0.26462707 0.38604206
000230 33 11 d4 bd 0e 8d 09 be 8d 8e 6c 3f b5 99 c1 bd
       -0.10354843 -0.13432714 0.92405015 -0.094531454
000240 03 87 a1 be 3b 58 19 3f 7d e8 aa 3e be 19 5f be
       -0.31548318 0.59900254 0.333805 -0.21787164
000250 e9 c6 ee 3e 18 96 bd 3e ce 53 9c 3e 12 75 c6 be
       0.4663613 0.37028575 0.30532688 -0.38761193
000260 f3 52 2e be 11 53 33 bf 5b b0 0d 3f a4 40 8d 3e
       -0.1702383 -0.70048624 0.5534722 0.2758838
000270 18 53 50 be c7 54 a7 3e 7b ec 82 3e fc 37 13 bf
       -0.20344198 0.32681867 0.25571045 -0.575073
000280 82 d7 60 be 6c 0c 8a 3e 5c 51 33 3d 00 69 87 be
       -0.2195721 0.26962602 0.043778762 -0.26447296
000290 2c 95 4a 3e aa d2 70 be f2 32 17 bc ef c4 58 3d
       0.19783467 -0.23517862 -0.009228455 0.052922186
0002a0 eb 09 89 3e 9e c0 3d be d6 e9 26 3e 6d c3 b9 bd
       0.2676538 -0.18530509 0.16300139 -0.09070478
0002b0 35 2a 71 be 8c 6e e5 3d 4b d5 ec bd 41 82 e3 3e
       -0.23551257 0.11202726 -0.1156412 0.44435313
0002c0 ac a2 99 3e 22 a6 91 be 6c 95 79 be c9 cb 5f be
       0.3000692 -0.28447062 -0.24373406 -0.21855082
0002d0 f7 79 88 3e d1 73 da bd c4 b6 3d 3d 82 38 57 be
       0.26655552 -0.106666215 0.046316877 -0.2101765
0002e0 25 97 b7 be db 1d 06 3e 6b df 97 3d 8a a5 b0 be
       -0.35857502 0.13097326 0.074156605 -0.34501296
0002f0 65 36 fd 3e f5 1e 70 3e 9f bb d8 bd da 21 03 bd
       0.49455562 0.23449309 -0.10582661 -0.032014705
000300 a4 33 65 be 96 1c 75 3d a1 09 91 3e 33 0c 29 be
       -0.2238298 0.059841715 0.2832766 -0.1650856
000310 72 cb 12 be 64 37 06 bf 4e 02 e0 be 8e bd d3 be
       -0.1433542 -0.5242827 -0.43751758 -0.41355556
000320 2b 1c 9d be b6 42 29 3f 0a 36 74 3c 2e ef 5d be
       -0.30685553 0.6611742 0.014905462 -0.21673271
000330 23 02 90 bd 8e 42 d9 3d eb 24 b7 3c 67 3e 72 be
       -0.070316575 0.106083974 0.022356471 -0.23656617
000340 da 8e 80 be 1d 49 8a 3c fb 49 db be e2 90 19 be
       -0.25108987 0.016880566 -0.4282988 -0.14996675
000350 39 1f 31 bd 8f 45 67 bd f5 36 58 3e 7e 9e d0 3d
       -0.043242667 -0.05646282 0.21114714 0.1018648
000360 75 fa cc bc ef 0f 29 bf b6 0f e2 be 7b 2d 26 3f
       -0.025021771 -0.6603994 -0.44152611 0.6491315
000370 67 86 35 3f b1 d9 06 bf 92 89 52 3d ed 4d 9e 3e
       0.70908207 -0.5267592 0.05140073 0.30918828
000380 9b 85 b2 bd 8b dc 88 bc ea b0 e5 be 4f ee 19 3f
       -0.087168895 -0.016706726 -0.44861537 0.60129255
000390 e2 59 72 bd 71 0c 84 3e 75 fd 31 be 29 ea e8 3d
       -0.05916775 0.25790742 -0.17381842 0.113727875
0003a0 e3 6c 78 3e 2b 9b 53 3f 21 b7 3e 3c d6 bf 5d 3d
       0.24260287 0.8265864 0.011640341 0.054138027
0003b0 bf ec 6b 3e 4f cb 18 bd 96 19 da 3b 16 f7 37 3b
       0.2303953 -0.037303265 0.006655882 0.0028070859
0003c0 70 83 17 3e 13 07 a6 bd 52 84 ba bc 89 b4 95 3d
       0.14796233 -0.08106818 -0.022768173 0.07309825
0003d0 d6 85 62 bb 43 a3 91 bd d8 0f 17 3e cc 28 fa bd
       -0.0034564636 -0.07111218 0.14752138 -0.12214813
0003e0 3d 36 67 bd 52 ad ac bc b7 2c 09 3e 02 55 81 3e
       -0.05644821 -0.02107874 0.13395964 0.25260168
0003f0 08 d8 97 3d 93 c6 ab be b0 cb d3 3d 2c 61 ba 3c
       0.074142516 -0.33549938 0.10341585 0.022751413

network_body._body_endoder.seq_layers.2.bias f4 [128]
000000 dc 79 56 bf b9 1a 9c bf 6e 1c 47 bf d1 fc 07 bf
       -0.8377969 -1.2195655 -0.77777755 -0.5312014
000010 50 0f 97 bf 9f 88 6b bf b5 44 68 bf 44 91 4e bf
       -1.1801548 -0.9200534 -0.9072984 -0.8069041
000020 f2 fe 11 bf af a4 1a bf 17 2b 76 bf f8 40 70 bf
       -0.5702964 -0.6040754 -0.961595 -0.93849134
000030 71 9e 89 bf 99 a8 31 bf 84 25 88 bf 53 05 1e bf
       -1.0751477 -0.69397885 -1.0636449 -0.61726874
000040 6c 3f 11 bf 15 2e 21 bf bd 6e 25 bf ef a4 4b bf
       -0.567374 -0.6296094 -0.646221 -0.79548544
000050 6b ca 42 bf d2 e3 5a bf df b5 73 bf 98 40 4f bf
       -0.76090115 -0.85503876 -0.9519939 -0.8095794
000060 d4 fa 62 bf 93 29 58 bf 1d 55 ae bf 94 9a ba bf
       -0.88663983 -0.8443844 -1.3619725 -1.4578424
000070 ed df 6d bf 76 8f a0 be 00 fe 36 bf bb 49 59 bf
       -0.9291981 -0.31359452 -0.71481323 -0.8487813
000080 92 3c 49 bf 50 ca 3a bf d4 00 3c bf 3a a7 05 bf
       -0.7860805 -0.72964954 -0.73438764 -0.5220829
000090 e8 83 6e bf 22 82 69 bf 10 36 55 bf f5 4b 43 bf
       -0.9317002 -0.9121419 -0.8328562 -0.76287776
0000a0 57 f7 0b bf 9b c0 0a bf 46 d3 0a bf b6 c3 2e bf
       -0.54674286 -0.5420014 -0.5422863 -0.6826738
0000b0 14 ed 7e be 06 fa 29 bf c9 f1 14 bf 92 1f c3 bf
       -0.24895126 -0.6639713 -0.58181435 -1.524401
0000c0 a2 d7 12 bf fb 1f 90 bf ca 76 9a bf a7 bb 61 bf
       -0.5736028 -1.125976 -1.2067502 -0.8817696
0000d0 f7 2b 41 bf 02 f4 a8 bf 81 0d 7f bf f7 57 be bf
       -0.7545771 -1.3199465 -0.9962998 -1.4870595
0000e0 b9 84 0d bf 28 5f 12 bf 01 3d ef be 37 95 62 bf
       -0.55280644 -0.57176447 -0.4672623 -0.88508934
0000f0 6c f6 2f bf 7a 4d 1e bf 10 4e 86 bf 07 54 29 bf
       -0.68735385 -0.6183697 -1.0492573 -0.6614384
000100 f5 74 e5 be 45 96 2c bf fe 64 9f be 06 de 06 bf
       -0.44815794 -0.67416793 -0.31131738 -0.5268253
000110 4b 92 55 bf 44 2c fb be b5 a9 5a bf 97 b9 35 bf
       -0.8342635 -0.4905721 -0.854152 -0.7098631
000120 3c 97 9d bf 97 52 a8 bf cb 89 57 bf dd 99 84 bf
       -1.2311778 -1.3150204 -0.8419463 -1.0359455
000130 18 ce 40 bf 6e 60 3a bf ed 8f 58 bf fc 01 4f bf
       -0.75314474 -0.7280339 -0.84594613 -0.808624
000140 b7 a4 51 bf d7 4b 10 bf 75 ce 45 bf fd 3b dd be
       -0.8189196 -0.5636572 -0.77268153 -0.4320983
000150 b6 9f 84 bf bc 8e 44 bf 29 64 69 bf 05 7f 12 bf
       -1.036124 -0.76780295 -0.9116846 -0.57225066
000160 9d 8f 70 bf ca 9b e2 be c6 dd 12 bf 44 3b 65 bf
       -0.93969136 -0.44259483 -0.5736965 -0.8954356
000170 59 54 24 bf c6 fa 68 bf e4 1c 95 bf aa 63 e5 be
       -0.64191204 -0.9100765 -1.1649442 -0.448026
000180 75 a0 59 bf 2d e1 8e bf af 3e 6b bf 54 c0 29 bf
       -0.85010463 -1.1162468 -0.9189252 -0.66309094
000190 62 5b 89 bf 2e fd 45 bf e0 25 41 bf 11 64 5b be
       -1.0731013 -0.77339447 -0.7544842 -0.21424891
0001a0 5d f9 51 bf 9d 0c 50 bf c6 42 6d 3d 98 47 79 bf
       -0.82021123 -0.81269246 0.05792501 -0.9737487
0001b0 02 97 4b bf 1b 6c 69 bf 0d 5e 14 bf eb 5d db be
       -0.79527295 -0.9118058 -0.5795601 -0.4284509
0001c0 0e 52 51 bf 0d 04 9b bf 7e 1a 86 bf 22 f7 76 bf
       -0.8176583 -1.2110611 -1.0476835 -0.96470845
0001d0 64 20 94 bf 27 e2 5b bf b7 b9 4a bf 2a ad 24 bf
       -1.1572385 -0.85891956 -0.7918963 -0.6432673
0001e0 8e 40 87 bf 79 1a 34 bf dd 22 18 bf 67 e2 c9 bf
       -1.0566576 -0.70352894 -0.594282 -1.5772218
0001f0 96 41 20 bf fb fe 5f bf b8 0d 3a bf ac fe 6d bf
       -0.62600076 -0.87498444 -0.72677183 -0.92966723

network_body._body_endoder.seq_layers.2.weight f4 [128, 128]
000000 67 23 e4 3e f7 cf 85 3d 46 f4 02 bb 31 03 bd 3e
       0.4455826 0.06533807 -0.0019982024 0.36916497
000010 3e a4 de 3e bb 75 26 3e db 0e 86 3e c0 fb 85 3d
       0.43484682 0.16255848 0.2618321 0.06542158
000020 95 d7 38 ba 45 8e 57 3e 0b da 89 3e c5 96 03 3e
       -0.0007051167 0.21050365 0.26924166 0.12850483
000030 57 15 d5 3e cb 16 a0 3e ba e0 05 3e ab c4 26 3e
       0.41617844 0.3126739 0.13074008 0.1628596
000040 82 92 ac 3e f8 ca cc bc 96 0a 69 3d 29 c9 35 3e
       0.33705527 -0.024999127 0.05689486 0.17752518
000050 b3 fd e4 bd dc b0 c6 be 03 c9 a8 3e 52 fd cf 3c
       -0.11181202 -0.38806808 0.3296586 0.025389347
000060 df df 28 3e 7a 56 df 3e fc 9c a7 3d bb 3c 8a 3c
       0.1649165 0.43620664 0.08184239 0.016874662
000070 89 a0 6f be ac bc 2d 3f 42 e4 43 3e 1a 33 d0 bc
       -0.23401083 0.67866015 0.19130042 -0.025414992
000080 2b ab a9 3e 7b ec 3d 3e 18 17 98 3d c2 b6 3c 3e
       0.33138403 0.18547241 0.0742628 0.18429092
000090 e0 e7 7d 3c 6b dd 88 bc 03 68 7d 3e 0e 96 21 3e
       0.015497178 -0.016707143 0.24746709 0.15779898
0000a0 cf 74 0e 3f 64 6c c9 3e 02 a9 cf 3e 6c 27 f7 3e
       0.55646986 0.39340508 0.4055863 0.48272264
0000b0 c0 a5 fc bd 21 64 7a be d4 2b f2 3e 5a 19 cc bd
       -0.12336302 -0.24452259 0.47299063 -0.09965773
0000c0 b0 67 4f be 89 df a4 be 44 af 34 3e c9 1a 8c 3d
       -0.20254397 -0.32201794 0.17644984 0.06841046
0000d0 30 77 51 3e 71 c4 a9 bd 0d 41 af bd 0d fd 9d 3e
       0.20455623 -0.08289421 -0.08557329 0.30857125
0000e0 a0 ee 94 3e c1 d5 05 bd c4 d4 ca 3e 5f 86 3c 3e
       0.29088306 -0.032674555 0.39615452 0.18410634
0000f0 56 77 a2 3e 3f 49 c5 3d 4d 06 ad bd 4a 08 67 bf
       0.3173167 0.09633111 -0.084484674 -0.90247023
000100 60 78 ad be 8a 44 9f 3e e3 40 ce 3e 5a 71 bd 3e
       -0.338809 0.3110698 0.4028388 0.37000543
000110 79 04 3c 3e b0 b2 da bd 6b 5a a8 3c c0 ed 8a 3e
       0.18361081 -0.10678613 0.020550927 0.27134514
000120 75 d9 f5 3e cb 38 41 3e 12 f9 98 3e 51 e7 bb 3d
       0.4801747 0.18869321 0.29877526 0.091749795
000130 16 d5 ab 3e 9c 31 25 bf b5 97 ac 3e 70 40 8c 3e
       0.3356101 -0.6452882 0.33709493 0.27392912
000140 1c b5 4b be d5 17 8a 3e fb 4d a9 be 58 f6 02 3f
       -0.19893306 0.26971307 -0.33067307 0.5115714
000150 97 43 f9 3d 13 5c 8c 3e 0c 84 bd 3e a3 1e e2 3e
       0.12171095 0.27413997 0.37014806 0.44164
000160 f5 90 8f 3e 22 2b 51 be b5 28 51 3e d8 1c 9b 3e
       0.2804028 -0.2042661 0.20425685 0.30295444
000170 47 82 03 3e 0d 9e 35 3c 0a f5 ef 3d 34 f8 2a 3d
       0.12842666 0.0110850455 0.11716659 0.04174061
000180 5a 2c b8 3e ba a7 38 bf 69 9c 2d 3e 6a 32 b4 be
       0.35971338 -0.7213093 0.16954197 -0.35194713
000190 3a e5 17 bf 69 cb 89 3d 24 ba 1c 3d cc b1 05 bf
       -0.59334147 0.067282505 0.038263455 -0.5222442
0001a0 d0 07 74 be b2 31 0d 3f c3 55 b2 3e 90 ee d9 bb
       -0.23831105 0.55153954 0.34831056 -0.0066507533
0001b0 fd d3 86 3e 62 25 3e 3d 22 64 7d be 23 16 23 3e
       0.2633361 0.04642237 -0.24745229 0.15926413
0001c0 e7 73 16 3e 08 17 6a bd 18 fc 12 be 28 bd fc bd
       0.1469265 -0.05715087 -0.14353979 -0.12340766
0001d0 4b fc 80 bb c0 39 27 3e e6 11 f5 3e 8b 49 52 3f
       -0.0039363257 0.16330624 0.47865218 0.8214347
0001e0 0c 9b 2e 3e 6e f3 89 be d7 51 00 be b7 de 46 bf
       0.17051333 -0.26943535 -0.1253122 -0.77683586
0001f0 dd 73 40 3e c6 e7 1c 3f 65 0f d5 be 74 6b e4 bc
       0.18794198 0.6129116 -0.41613308 -0.027883269
000200 2a 19 29 3f c2 3d 48 be 4b a3 8c be 22 e8 4c bd
       0.6605402 -0.19554809 -0.27468333 -0.050026067
000210 e8 7f 92 3e 6b c8 1a 3f b4 45 d7 3e 04 01 6c 3f
       0.2861321 0.60462064 0.42045367 0.9218905
000220 21 d5 1a be 44 e2 79 3e fc 2f fd 3e 35 1d 4c 3e
       -0.15120365 0.2440272 0.49450672 0.19933017
000230 ea b1 3f 3f 5b a8 3d 3f 02 ec dc 3d ad 77 21 3c
       0.7488085 0.74085015 0.107872024 0.009855193
000240 58 7b 18 3e b6 a8 ee bd 1a ba 4e 3e fd 29 c8 bb
       0.14890802 -0.11653273 0.2018818 -0.006108521
000250 dc bf e2 3c 41 9a ab bd 6c a5 0a 3f 62 a7 24 be
       0.027679376 -0.08379031 0.54158664 -0.16079476
000260 0f ce 78 bd 71 ea 02 3f d2 7f 5d 3e 01 35 c1 3e
       -0.060743388 0.5113898 0.21630791 0.3773575
000270 62 a2 b3 be 2c af d1 3e 61 c2 89 3d 9c 84 13 3e
       -0.35084826 0.40953958 0.06726528 0.14406055
000280 37 75 4c 3f eb 8a 20 3e e0 2b 08 3f b6 52 28 bf
       0.79866356 0.15677993 0.5319195 -0.65751207
000290 ad b8 87 be 1b 38 20 bf 27 61 63 3d a7 9d 93 be
       -0.26508084 -0.6258561 0.055512574 -0.28831217
0002a0 72 4e 80 3f 07 74 32 3f e0 8b 16 3f 7c 33 bc 3d
       1.002394 0.69708294 0.5880718 0.09189507
0002b0 f3 12 f4 be 98 8f f9 be e2 88 64 3e 01 67 35 3e
       -0.47670707 -0.48742366 0.22317842 0.17715074
0002c0 30 5b 0b 3e d0 04 de 3d ea 96 fc 3d 43 f7 84 3e
       0.13609004 0.10840762 0.12333472 0.25969896
0002d0 5b 3a b5 3e 73 28 ba bd 5c 3e 0d bf b5 e7 93 3e
       0.35396084 -0.09089746 -0.5517328 0.28887716
0002e0 bd b1 4d 3e 32 0c d2 be 53 2c ee 3e 4d e8 1b bf
       0.20087333 -0.4102493 0.46518192 -0.6090134
0002f0 53 a8 d9 3e a0 44 02 3f 90 8d aa be 92 10 ac bf
       0.42511234 0.50885963 -0.3331113 -1.3442557
000300 86 8e 87 bf 18 bd 33 3f 0d d1 f9 3c 32 24 d3 3e
       -1.059037 0.7021041 0.030495191 0.41238552
000310 3f 02 c6 3e 3d c2 b0 3d f5 4f 70 3e 4b f2 aa 3d
       0.3867359 0.08630798 0.23468001 0.08346995
000320 49 f1 52 3e f5 41 93 3d e1 03 1e 3e 63 a0 0d 3f
       0.20599855 0.07190315 0.15431167 0.55322856
000330 09 5a 56 3f cd 8e 9b bf b1 6d d7 3e 30 12 dd 3e
       0.8373113 -1.2152954 0.42075875 0.43177938
000340 c3 bb 3c bf 3d a8 4e 3f 1c d4 c5 3e e5 48 e3 3e
       -0.73724 0.8072546 0.3863839 0.44391552
000350 38 04 cf 3e 85 9e d2 3e df 54 04 3f b1 8b 0a 3f
       0.40432906 0.41136566 0.51692003 0.541194
000360 91 ed b0 3e 76 1c 14 bf ad 93 19 be f9 59 27 3e
       0.3455625 -0.5785593 -0.1499774 0.16342916
000370 67 ec 3c 3f 22 4f 8a 3e c5 b8 1e 3f 0b 5a cc bd
       0.7379822 0.270135 0.62000686 -0.09978112
000380 68 7a d9 3e 65 d9 db be aa 9c cf 3d 51 ae 3e 3e
       0.424762 -0.42939296 0.10137303 0.18621184
000390 38 68 a0 be 1f a0 f0 3e 76 87 94 3e 8c 66 c5 3e
       -0.31329513 0.46997163 0.29009598 0.385548
0003a0 5d ea f0 be 0a 37 57 3f b1 f2 b6 3d ac ed 8b bc
       -0.47053805 0.8406836 0.089330085 -0.017081104
0003b0 52 d6 8d 3e da 76 7d be 0d 6c 56 bf 0c 9d 7a 3e
       0.27702576 -0.2475237 -0.8375862 0.24473971
0003c0 5f 2d 3e 3f 67 7a 7d bd 55 f3 a3 3d 02 20 2c 3d
       0.7428798 -0.06188431 0.08005396 0.042022713
0003d0 35 9d e4 3e cc 7a 93 3e fd e0 28 3f af 31 86 3f
       0.4465119 0.28804624 0.65968305 1.0483912
0003e0 2a d5 7a be e4 f1 43 be 0c fd cc 3d c9 32 54 bf
       -0.24495378 -0.19135243 0.10009202 -0.8288999
0003f0 fb 0e e8 3e f4 45 7f 3f 41 73 83 be 19 47 be 3e
       0.4532393 0.99716115 -0.2567387 0.37163618

network_body.observation_encoder.processors.0.normalizer.running_mean f4 [13]
000000 aa f4 dc 43 f6 d5 7e 44 9c 70 22 44 4c 4f 5f 44
       441.91144 1019.34314 649.7595 893.239
000010 00 00 00 00 66 c2 40 44 e4 91 1e 44 9c 73 10 44
       0.0 771.0375 634.27954 577.8064
000020 17 38 19 44 5a 85 13 42 d2 0c 81 41 c8 c7 45 c3
       612.8764 36.880226 16.13126 -197.7804
000030 fe ed 1c 43
       156.92966
