results/EasyMapAgent3/My Behavior/My Behavior-999595.onnx (onnx, 81381 bytes, 14 tensors)

77 f4 [13]
000000 6c af 4c 43 2f 02 ec 43 2a 26 52 43 1f b1 4e 44
       204.68524 472.01706 210.14908 826.7675
000010 36 19 83 3a 79 ba 18 44 4e 00 a7 43 b1 bd b1 43
       0.001000202 610.91364 334.00238 355.48196
000020 a6 b9 87 43 34 42 d0 42 65 ae c3 42 62 3c a8 43
       271.45038 104.1293 97.840614 336.47174
000030 5e bd 30 43
       176.73972

action_model._continuous_distribution.log_sigma f4 [1, 2]
000000 8f 07 12 be b8 27 b3 3d
       -0.14260696 0.0874781

action_model._continuous_distribution.mu.bias f4 [2]
000000 6c b6 aa 3d 28 6f d5 3d
       0.083355755 0.10421592

action_model._continuous_distribution.mu.weight f4 [2, 128]
000000 ac f0 93 3d ee 18 26 bd a7 21 15 bd f2 60 27 3d
       0.07223639 -0.04055112 -0.036409047 0.04086394
000010 b5 4e be 3d 4a af 06 bd 1d 19 3c 3d 62 2c ce bb
       0.09292356 -0.032882012 0.045922387 -0.006291912
000020 40 3e 9a bd d9 52 20 3e 39 29 f8 3e 5c a9 e7 bd
       -0.075314045 0.15656604 0.4846895 -0.113115996
000030 23 64 af 3d 7a 38 47 3d 6c cb e3 bb 1c 44 ac 3d
       0.085640214 0.048637845 -0.00695174 0.08411428
000040 5a 9f 87 bc 8b 0e 55 3d f3 c0 7d 3d 91 64 06 3d
       -0.016555477 0.052015822 0.06195159 0.03281075
000050 97 1e 1a be f4 7c a3 bc 2d bb 0e 3d ee 2e e6 3d
       -0.15050732 -0.019957043 0.034846473 0.1123942
000060 e5 dc f7 bc ae e3 89 3d 0b c3 20 3e 29 1d 58 3c
       -0.030256698 0.067328796 0.15699403 0.013190546
000070 4f 61 bf bc 09 05 98 3c 12 47 14 bd 5b 9d 25 3e
       -0.02336183 0.018557088 -0.03620059 0.16173308
000080 5c bb aa 3c 3b 59 b6 bb 5c 1b 78 3c c6 30 d7 3d
       0.020841293 -0.0055648363 0.015143242 0.1050735
000090 62 ef 2f 3d fe f6 92 3e e7 5a ca 3d 9f 52 90 bc
       0.042952903 0.28704065 0.098806195 -0.017617522
0000a0 97 df b9 3c 94 b3 79 3d 7c 84 1a bc ea be b8 3e
       0.022689624 0.060962275 -0.009431001 0.36083156
0000b0 a3 66 de 3d 43 f6 0d 3e 49 26 13 be 5e 1b 7b 3d
       0.1085942 0.13863473 -0.14370073 0.061305396
0000c0 e2 36 26 3e c6 e1 ca 3d de e9 b8 bc a2 cc e1 bc
       0.16231874 0.09906344 -0.022572454 -0.027563397
0000d0 80 95 56 3e bc 13 c6 bc 46 1c be bc d1 fa 8e 3d
       0.20955467 -0.024179332 -0.023206841 0.06981433
0000e0 1e eb 39 bd 5f 3f 5b bc 36 37 a0 3d 4d eb 89 3c
       -0.04539024 -0.013381808 0.07823031 0.016835833
0000f0 0e a9 87 3d 9e 63 8e 3e 50 bc a6 3d 48 c6 bc 3d
       0.066240415 0.27810377 0.081413865 0.09217507
000100 55 dd 1e 3d ab 49 54 3e f6 15 06 3e 0e cb d8 bc
       0.038785297 0.20731227 0.13094315 -0.026464012
000110 a1 92 41 be 4b 00 fc 3d fb 95 c3 bc 23 9c 8b 3d
       -0.1890359 0.123047434 -0.023875227 0.0681689
000120 b3 50 41 3d 10 0c 92 be c4 fe 11 bc ce a8 1e be
       0.0471961 -0.28524828 -0.0089108385 -0.15494081
000130 59 9e 4b 3e 55 1f b0 3c 26 8f 04 3e b7 44 b8 3d
       0.19884624 0.021499315 0.12945232 0.08997481
000140 c1 16 e8 bc e7 9f 29 3d ad cb 46 3c 99 73 98 3e
       -0.028331162 0.04141226 0.012133521 0.29775694
000150 e6 ac 69 bd e6 cc b4 3c 05 11 28 3e fc 4b 1f 3e
       -0.057049654 0.02207036 0.16412742 0.1555633
000160 12 ee cd bc ef 03 c1 3d e2 da f3 bc 63 d3 22 be
       -0.025137935 0.094245784 -0.029767457 -0.1590095
000170 d2 fd 55 bb 28 ff c0 3d fe 11 b0 3d 27 13 e0 3d
       -0.003265251 0.09423667 0.08597182 0.10941153
000180 cd c0 59 3d 5b ae 5e 3e d4 55 84 3c 36 d1 5f 3e
       0.053162385 0.21746199 0.016154207 0.21857151
000190 b2 11 10 3e a2 68 11 3d 55 09 85 3d c4 7f 6f bd
       0.1406925 0.035500176 0.064959206 -0.058471456
0001a0 a9 7a 97 3d 1e 15 d9 3d 49 8a f6 bc 51 c3 12 3d
       0.073964424 0.10599731 -0.030095236 0.0358308
0001b0 6c 21 33 be e6 6a 47 3d 35 38 cb bc a9 10 cd 3d
       -0.17493218 0.04868593 -0.024807075 0.10012943
0001c0 95 46 c2 3d 8c e6 61 3d 0c ee f3 bc 75 bd a2 3d
       0.09486119 0.055151507 -0.029776596 0.07946292
0001d0 11 c0 47 be 9e 56 b4 be f4 e8 06 3b 96 e8 c8 3d
       -0.19506861 -0.35222334 0.0020585628 0.09809987
0001e0 c8 d6 71 be 3d 76 ae 3d 41 9c 3e 3e 62 55 14 bf
       -0.23617089 0.08518646 0.18614294 -0.57942784
0001f0 2c 69 c5 3d 2c 7c b0 3c e7 50 0e 3e 9f dc 12 bc
       0.096392006 0.021543585 0.1389805 -0.008963733
000200 67 f0 18 bc a2 01 6a bd 1b bd 05 3d e4 36 91 bc
       -0.00933466 -0.057130463 0.03265105 -0.01772637
000210 47 3f 8d bc db 79 bb bc e9 90 5b 3d e5 3d 85 bd
       -0.017242087 -0.022885254 0.053604994 -0.06505946
000220 9d a6 01 3d 47 c7 ce bd 5d 7b ee bd 0f c1 cf bd
       0.031653035 -0.10096603 -0.116446234 -0.10144245
000230 c8 e7 6c 3c a2 3f 9c bd 62 ca 09 be 34 d2 42 bd
       0.014459558 -0.076293245 -0.13456109 -0.047563747
000240 07 cb 54 3d 31 2c c4 3c 1d 2f 24 be e3 a5 da bc
       0.051951434 0.023946853 -0.16033597 -0.02669043
000250 70 94 27 be e3 20 96 3c 13 da 87 3d 04 dc 87 3d
       -0.16365218 0.018326228 0.06633391 0.066337615
000260 fd 02 78 3d bf fe 24 bd 57 7e 87 bd 32 1e 05 be
       0.060549725 -0.040282007 -0.06615894 -0.129998
000270 60 fb cf 3c 3a 7c e7 bc a7 ac b7 3c f7 f7 99 be
       0.02538842 -0.028257478 0.022421194 -0.30071995
000280 d7 d3 04 be 6a fc 29 bd 52 e2 94 3c 95 0c 94 3c
       -0.12971435 -0.041500486 0.018174324 0.018072406
000290 27 53 0b be 3d 6b 84 3e fb 2c d6 be 47 2a 5b 3d
       -0.13605939 0.25863066 -0.41831192 0.053507116
0002a0 3d 12 38 3d 73 e7 99 bd 11 7b b1 bc 49 6e 08 be
       0.04493927 -0.075148486 -0.021665128 -0.1332332
0002b0 2e 2a 4b be 25 ec 05 3c 05 e4 80 3e be 70 84 bd
       -0.19840309 0.008173977 0.25173965 -0.06466816
0002c0 f9 f9 83 3e b0 87 99 3c 48 29 97 bc 1b ba 19 be
       0.25776652 0.018741459 -0.018452302 -0.150124
0002d0 49 c5 cd 3d 5d d5 a1 bd 48 28 f8 3c 27 d7 81 3c
       0.10047395 -0.07902024 0.030292645 0.015849663
0002e0 ed 2e 7b bc 3e 92 a1 bd ba a7 d4 bc e4 b0 9a bd
       -0.015331012 -0.078892216 -0.025958885 -0.075532705
0002f0 05 c7 e7 bd a2 53 04 3f 05 75 8a 3c 9c 39 9a 3c
       -0.11317257 0.51690114 0.016901502 0.018826298
000300 1a 87 cc bd 71 eb 40 be 71 c6 64 3d c4 c0 2f be
       -0.09986706 -0.18839814 0.05585331 -0.17163378
000310 54 c0 9d be 61 6b a3 3e 65 08 38 3d 6d b0 b9 3c
       -0.30810797 0.3191786 0.04492988 0.022667134
000320 3b ec f5 b9 e2 79 80 3d 9e 7f c3 3c 3c cc 3a 3e
       -0.00046906047 0.06273247 0.023864564 0.18241972
000330 c3 e8 a1 3d c0 c6 1e 3d 03 35 e7 bc 88 ba eb bc
       0.07905724 0.03876376 -0.02822352 -0.028775468
000340 eb 3f 4a bd 72 b0 a2 3d 9d 60 c6 3c 44 69 c5 3e
       -0.049377363 0.079438105 0.02421599 0.38556874
000350 4d ac 57 bd 85 db 95 3c 59 3c 3e be e2 6d ee bc
       -0.052654553 0.018293152 -0.18577708 -0.02910513
000360 be a2 4f 3d bf 3a 60 bd 9a 18 87 bc aa 53 80 be
       0.050692312 -0.054743525 -0.016491223 -0.2506383
000370 67 cf 07 3d 9c 65 64 bc 75 e6 0c 3e 10 d5 35 bc
       0.03315678 -0.013940241 0.13759787 -0.011098161
000380 a1 87 1f bd 3e 84 5a bd e5 e0 b7 3c 63 8c 56 bd
       -0.038947705 -0.053348772 0.022446105 -0.052379977
000390 28 b1 37 be bc 91 b1 bc f2 3f 86 bc d7 43 8b 3d
       -0.17938673 -0.021675937 -0.016387913 0.06800049
0003a0 88 39 a7 bd a3 ff 81 3d 16 64 b5 3d fd 30 dc 3c
       -0.0816527 0.06347587 0.088569805 0.026878828
0003b0 b5 00 e2 3d 24 ee 17 bd e4 bc 8d 3d 98 87 af 3a
       0.11035291 -0.037092343 0.06920794 0.001339185
0003c0 60 6c c7 3d ce 50 1d bd d9 8c b0 bc 13 1b c7 3d
       0.09737468 -0.03840714 -0.021551536 0.09721961
0003d0 da 91 89 bd 8c 9e d7 be 59 2e eb 3d 5e c0 2e be
       -0.06717272 -0.4211315 0.114834495 -0.1706557
0003e0 ae b6 16 bd cc 70 03 3e c0 80 33 be ee da 1f 3e
       -0.03679531 0.12835997 -0.17529583 0.15610859
0003f0 66 82 74 bd 1b 49 a5 ba 71 39 01 3c ee 9e 4a 3b
       -0.05969467 -0.0012610288 0.00788723 0.0030917483

action_model._discrete_distribution.branches.0.bias f4 [3]
000000 94 32 c0 be 31 d2 2e 3d c0 54 a8 3e
       -0.37538588 0.042680923 0.3287716

action_model._discrete_distribution.branches.0.weight f4 [3, 128]
000000 1f 8b 2c 3f 3a ca 87 3e 41 43 b4 3d 02 a5 9b 3d
       0.6739978 0.26521474 0.0880189 0.07599832
000010 74 7e 45 bc 21 5d 31 3e 4d dc be 3d 58 7a af 3e
       -0.012054075 0.17320682 0.09319363 0.34273028
000020 87 35 9b 3e 1b 09 27 be dc 67 0a 3e 0a df b5 be
       0.30314276 -0.16312067 0.13516182 -0.35521728
000030 61 c2 70 3e e6 42 e3 3e 59 52 bb 3e 4a 9d 76 bd
       0.2351165 0.44386977 0.36586264 -0.060208596
000040 9c 97 43 3e c3 d3 6a 3d a4 c5 10 3d 89 c6 25 3e
       0.19100803 0.057330858 0.035344735 0.16189016
000050 45 e5 94 be 1e 69 87 3e fc fd 61 3e a4 4a f4 3c
       -0.2908117 0.26447386 0.22069544 0.029820748
000060 26 a7 10 3e e6 4f 8d 3e 09 b0 f6 3e cc 8b 29 3f
       0.14126262 0.2760002 0.4818118 0.6622894
000070 dc 15 0a 3e 68 2b 8e bf fc e8 6f 3e a7 dd 2c 3e
       0.13484901 -1.1106997 0.2342872 0.16881429
000080 ee 13 10 3e e1 d3 5b 3e 9e 14 8e 3d 91 dc f8 3e
       0.14070103 0.21467544 0.06937526 0.4860578
000090 b6 d3 78 3f 27 5b da be b0 38 b9 bd 59 87 08 3e
       0.97198045 -0.4264767 -0.090440154 0.13332881
0000a0 e2 e2 e3 bd a3 a4 0d 3e fe 61 9b be 3f 5a 3e 3e
       -0.11127259 0.13832335 -0.303482 0.18589114
0000b0 81 b0 6d bd ce 89 3a 3e 4a 60 6c 3e 08 9c 29 3f
       -0.058029655 0.18216631 0.23083606 0.6625371
0000c0 3f 08 a0 3e 52 8d 77 3d e3 27 7b 3d 16 5d 44 3f
       0.3125629 0.060437508 0.061317336 0.7670454
0000d0 f2 6f 85 3e bf 3f 5e 3f b3 2f 0e 3e 5b f0 80 3f
       0.2606197 0.8681602 0.13885383 1.0073351
0000e0 e6 85 9f 3e f2 65 86 be c1 b5 11 be d8 c1 53 3d
       0.31156844 -0.26249653 -0.1422949 0.051698536
0000f0 c6 43 16 3f 32 79 4a 3e ba 02 7b 3e fe 00 fe 3d
       0.58697164 0.19772795 0.24512759 0.12402533
000100 51 08 02 3e 4d 9e 03 3f fa 83 70 3d 57 d1 e4 3e
       0.12698485 0.5141342 0.058719613 0.44690964
000110 58 59 d8 bd 26 3f 3a bf 6a 7a 2e 3e 11 79 46 bf
       -0.10563916 -0.72752607 0.17038885 -0.7752848
000120 66 08 56 3f 65 d6 33 3e a1 34 3f 3e 60 f4 99 3d
       0.83606565 0.17562254 0.1867242 0.07517314
000130 c1 89 b0 be bc b5 f7 3d d5 8e a6 bd 66 7d 19 3e
       -0.34480098 0.1209521 -0.08132712 0.14989242
000140 37 10 6b 3e 27 26 f9 bd e6 cb fb 3d 05 3b 1a 3e
       0.22955404 -0.1216548 0.1229475 0.15061577
000150 7f aa 58 3e ad 96 3f 3e 23 d3 b0 3d 60 a2 f8 be
       0.21158789 0.18709822 0.08634021 -0.48561382
000160 de fe 59 3e f9 80 ac bd 15 4b 24 3e fe 74 f7 be
       0.2128863 -0.08423037 0.16044267 -0.48331445
000170 82 01 e7 be c1 9a cb 3e 91 a8 9e 3e cd d7 9a bd
       -0.45118338 0.39766505 0.3098798 -0.07560692
000180 fd 82 dd 3e 68 d8 95 3d 25 58 0c 3e 04 4c cd 3d
       0.43264 0.07316667 0.137055 0.100242645
000190 83 7e e6 3e 53 16 0b 3e 70 88 09 3e e1 a1 77 be
       0.45018396 0.13582735 0.13430953 -0.24182846
0001a0 a6 b8 89 3d c4 44 f3 3d db ef 6e 3d c0 f0 f5 3d
       0.06724672 0.118783504 0.058334213 0.1200881
0001b0 0b e7 f9 bd f3 aa 9d bd c2 7b 20 3e 67 53 a0 bd
       -0.12202271 -0.076986216 0.1567221 -0.07828408
0001c0 8c 7d a1 3c 56 39 58 3e a7 e2 51 3e 06 27 58 3e
       0.019713186 0.21115622 0.20496617 0.21108636
0001d0 b7 f3 b2 3e 7f e4 3d 3e 5d 3a 88 3e ab 82 f9 3a
       0.34951565 0.18544196 0.26607028 0.0019036134
0001e0 b7 cc 28 bf cc e7 86 3f 5e 75 25 3d 39 da a0 3e
       -0.6593737 1.0539489 0.040395133 0.3141649
0001f0 95 83 09 3f de 22 83 3d d8 5b a8 bd dd ec 51 3e
       0.53716403 0.06403135 -0.08220643 0.20500512
000200 d2 44 a0 be 31 98 b3 be d6 a2 fe 3d 23 69 2c bd
       -0.31302506 -0.3507705 0.12433402 -0.042092454
000210 fa f0 09 bd 54 32 10 be 4e dd df bd cc 49 d2 be
       -0.03367708 -0.14081699 -0.109308824 -0.41071928
000220 b4 48 28 bc ed 0c f2 bc ec be ae bd 41 92 11 3e
       -0.01027124 -0.02954718 -0.08532509 0.14215948
000230 f9 7f 29 be 1c 4f 69 bb 59 c2 87 3d 06 87 e0 3d
       -0.16552724 -0.0035600131 0.06628866 0.10963254
000240 29 c4 cf bd c2 de 11 bd d7 b5 77 3d b4 26 93 be
       -0.101448365 -0.03561283 0.06047615 -0.28740466
000250 31 25 3d 3d ea af 9c bd 14 10 33 3c 7c 28 99 3d
       0.046178047 -0.076507404 0.010929126 0.07478425
000260 3e 82 27 3d d6 a5 98 3d 8a 31 ed be d4 db 48 be
       0.040895693 0.07453506 -0.46326858 -0.19615108
000270 c6 7a 5f 3d d8 bf 30 be 81 08 6e 3d 20 91 91 3d
       0.054560445 -0.17260683 0.05811358 0.071077585
000280 de a6 2d 3b c3 d7 3c bd 76 d4 3a be cd e3 b7 be
       0.0026497166 -0.046104204 -0.1824511 -0.35915986
000290 94 e4 c7 be f4 84 96 3e 31 2f e4 3d 16 72 2e be
       -0.3904158 0.2939831 0.111418135 -0.17035708
0002a0 c1 b9 05 3d ed ba 60 bd b1 d2 d7 bc 59 03 c2 3c
       0.03264785 -0.054865766 -0.026345583 0.023683237
0002b0 55 f9 5e 3d 37 35 d2 bd b2 05 81 bc 4d 3d 54 3b
       0.054437 -0.10264056 -0.015749786 0.003238517
0002c0 6d ca fe bc 54 43 a8 bd 7b a6 21 be 45 74 fa 3c
       -0.031102384 -0.08215967 -0.15786164 0.03057302
0002d0 dd 7c ba 3c a1 0b c1 3c 1a ac b7 3d 84 b4 39 3e
       0.022764618 0.023565115 0.08968373 0.18135267
0002e0 fd 98 2f be 42 39 07 bd 79 6e 88 3d a6 66 8c be
       -0.17148204 -0.03301359 0.06661696 -0.27422065
0002f0 f4 1a fb 3d fb d4 71 3d c2 f7 55 3e 33 1d 40 be
       0.12261 0.059041005 0.20895293 -0.18761139
000300 13 c5 33 3e 14 7f 5f be c5 f2 d8 bd c9 46 5d bd
       0.17555647 -0.2182582 -0.105931796 -0.054022584
000310 72 69 00 3e 25 3e e9 3e 0e cb 0b be b2 7e fa 3c
       0.12540224 0.45555225 -0.13651678 0.030577991
000320 e8 2e f0 3d 4d a8 d1 3c 52 d0 8f be 32 c3 8e be
       0.11727697 0.025592947 -0.28088623 -0.27883297
000330 df 67 2e 3d 2f c5 14 be 27 3a 26 bd 7a 3e 33 bd
       0.042579528 -0.14528345 -0.040582802 -0.043760754
000340 20 d9 51 bb 83 60 f0 3c b3 b9 22 be c0 28 16 3e
       -0.0032020286 0.029342895 -0.15891151 0.14663982
000350 1b f7 20 be 7a ba 09 be 87 69 be 3d 9b 9b 72 3e
       -0.15719263 -0.13450041 0.092974715 0.23692171
000360 f6 a4 21 3a c2 70 3c bc 3a 8b f9 bd 12 4d 0b 3e
       0.00061662437 -0.011501493 -0.121847585 0.13603619
000370 4b 1b 4d 3e c8 ed 1c be 7d 05 96 be af 2e 5a 3d
       0.20029943 -0.15325081 -0.29301062 0.053267177
000380 80 63 fd 3d 97 1d 0b bd 3f 5b 13 be 31 f2 0d bd
       0.12372494 -0.033963766 -0.14390276 -0.0346548
000390 78 62 a1 3d 83 16 e6 bd 95 20 43 be ef 55 06 3f
       0.078801095 -0.112347625 -0.19055398 0.52474874
0003a0 70 82 3a bc 19 6a 8e 3c ed d3 d2 bd 58 3a be bd
       -0.011383638 0.017384576 -0.10294328 -0.09288472
0003b0 f0 65 9d bd d1 b1 04 bd ed a4 bc bd ff fb 9f bd
       -0.07685459 -0.03239614 -0.092111446 -0.07811736
0003c0 bd f9 40 bd 5e ad ca bd 48 8e 9e be 29 b9 c8 bd
       -0.04711317 -0.098963484 -0.30967927 -0.098009415
0003d0 93 24 ce be 82 c1 25 3e 3c 4e a0 bd d6 37 87 3a
       -0.4026228 0.16187099 -0.07827422 0.0010316323
0003e0 c3 06 94 3d 75 21 c4 be 3b f1 25 be bb c4 b0 3e
       0.07227852 -0.38306776 -0.16205303 0.34525093
0003f0 1b a5 3f 3e 0e 00 10 be df 7d e9 3c 35 9c 1d be
       0.18715326 -0.14062521 0.028502403 -0.1539162

action_model._discrete_distribution.branches.1.bias f4 [3]
000000 7b 8a b5 be 57 56 14 3c 29 4a b7 3e
       -0.35457215 0.009053788 0.35798767

action_model._discrete_distribution.branches.1.weight f4 [3, 128]
000000 c8 1f 1f bd 7c fb 47 be 47 21 93 bd 7e 78 78 be
       -0.03884867 -0.19529527 -0.071840815 -0.24264714
000010 22 b3 83 3d a5 24 a6 3d a2 7f 22 bd 65 e0 b5 3d
       0.06430651 0.08112458 -0.0396725 0.088806905
000020 97 8f a0 3e 15 3b 4c 3e 33 2a 99 3d fd 31 a7 bc
       0.3135955 0.19944413 0.07478752 -0.020409578
000030 90 2d 74 3d cc 21 bf 3e 6a ac 8e 3e 72 2a 5b 3d
       0.059613764 0.37330472 0.27865916 0.053507276
000040 32 a2 9d 3c 03 bb 7e 3d d2 d3 2a bb 88 91 53 bd
       0.01924238 0.062190067 -0.0026066196 -0.05165246
000050 3c a0 36 bf 82 44 05 3d 4b 2c 7c 3d 4f 90 26 bd
       -0.7133825 0.032536037 0.06156568 -0.040664967
000060 18 a7 d6 3c 92 ac 02 bd a7 88 25 3e 3a 12 d1 3d
       0.026202723 -0.031902857 0.1616541 0.102085546
000070 7b 1f 81 3d d7 ae ef be 0a a4 ca bd d0 c0 a9 be
       0.063048325 -0.4681308 -0.09894569 -0.33154917
000080 6f 12 10 3e 68 74 7e ba 43 00 8e bd 3d a2 b2 be
       0.14069532 -0.0009706677 -0.06933644 -0.34889403
000090 d8 f4 c1 be 84 be d0 3c d6 4a c5 3d 34 6d 53 be
       -0.37882113 0.02548147 0.096334144 -0.20647126
0000a0 72 78 77 be 58 ce 31 be 6f da d9 3e 62 5a 67 be
       -0.2416704 -0.1736387 0.42549464 -0.22593072
0000b0 10 d9 d7 3d 53 c8 a4 3c 1e 8a 0d 3d a6 91 44 3c
       0.10539448 0.020115053 0.034555547 0.011997616
0000c0 26 69 92 3d 68 23 fb bd ad 55 09 3e 51 9c a6 3e
       0.07148962 -0.122626126 0.13411589 0.32541135
0000d0 d6 ab 55 bd 8c 2e 9c 3d 6b b4 c1 3d 89 63 fc 3c
       -0.05216583 0.076260656 0.0945824 0.03080918
0000e0 17 0c 81 bc 7d 9c 51 be 41 7f d9 bd 34 bc 47 be
       -0.015752835 -0.20469852 -0.10619975 -0.19505388
0000f0 b2 fc dd bd 13 49 64 3d 14 f4 47 bd 59 21 fa bd
       -0.108392134 0.05573375 -0.048816755 -0.12213392
000100 1a 5c 1e 3d 42 f6 be 3d 72 ab 2d bd fe f7 be 3e
       0.038662054 0.09324314 -0.04239983 0.37298578
000110 f9 b6 26 3e 8f a1 35 bd ef 88 9e 3d c9 77 9f be
       0.16280736 -0.044343527 0.07740962 -0.31146076
000120 3c fc ab 3d 36 48 45 3e 1b 8f fe bd c9 98 0a bf
       0.08397719 0.19265828 -0.12429639 -0.5413938
000130 7d 94 9f 3e ec 4e 3d bd e7 b5 05 3c 45 6b 6e bd
       0.31167975 -0.046217844 0.008161045 -0.05820777
000140 91 95 90 3c 1c 4d bb bc 26 25 03 3d d2 91 db 3b
       0.017649444 -0.022863917 0.03201785 0.0067007327
000150 d4 cb 97 bd 41 44 2b bc 33 53 8c 3d 7b b4 6f bd
       -0.07411924 -0.010453285 0.068518065 -0.05852173
000160 14 f4 b8 3d c6 b3 8e 3d 5f c8 38 bc 09 59 1f 3e
       0.09030929 0.06967883 -0.011278241 0.15561308
000170 3d b7 b9 3d e8 30 b6 bc 2b 44 4e 3d a1 00 94 bd
       0.09068153 -0.022240117 0.05035798 -0.072266825
000180 bd 98 4a bd da 59 5e 3d 61 6e 94 bd 3f fa 2a 3e
       -0.04946207 0.054284908 -0.072476156 0.16697024
000190 c4 63 4e 3e ea 0c 91 bd ff 9a 10 bd 99 de b2 be
       0.20155245 -0.07082541 -0.035304066 -0.34935454
0001a0 39 df 22 3c a2 26 4c bc 00 12 85 bd e6 8c 90 3d
       0.009940916 -0.012460383 -0.06497574 0.07058124
0001b0 0d c3 1e bf 07 27 40 3b de b3 4b 3d 45 4b da bd
       -0.62016374 0.0029320137 0.04973208 -0.10658888
0001c0 cc c3 ea bd 44 1b 08 3d 6b 66 fb bc 48 5a c9 3d
       -0.114631265 0.033229128 -0.030688485 0.09831673
0001d0 08 4f d7 be 50 a5 f4 3d 8b f7 fe 3d 6c 39 0b 3d
       -0.42052484 0.11945593 0.12449559 0.03399031
0001e0 9d fe 03 bf 99 dc 97 3e c4 3c 90 3c 2b f7 a6 3e
       -0.51560384 0.2966049 0.0176071 0.3261045
0001f0 ce 49 a3 3e 56 c8 56 3d c6 79 40 bb 2e 31 8b 3d
       0.31892246 0.05243715 -0.0029369458 0.0679649
000200 d7 9a 9d be 74 8a 37 be c3 69 db bc 6d f8 11 3e
       -0.30782196 -0.1792391 -0.02678383 0.14254923
000210 0b de 9f bd 6e 75 2a be f1 8f 63 bc 9f 90 aa bc
       -0.07806023 -0.16646358 -0.013889299 -0.020820914
000220 15 38 c0 3d a2 d9 97 be fd d4 67 bc b3 ee d2 bd
       0.09385697 -0.29658228 -0.014149901 -0.102994345
000230 c8 50 2e 3c 49 27 ac be a1 33 d1 be f1 9e 4f be
       0.010639377 -0.33623722 -0.40859702 -0.20275475
000240 4f 0a 25 3d 47 6e f7 bd 8b f1 0b be 8b ee 0b 3d
       0.040293034 -0.120815806 -0.1366636 0.03416304
000250 fd fa 66 3d 1d e3 1f be f0 78 4e be dc 0e dd bd
       0.056391705 -0.1561398 -0.20163321 -0.1079385
000260 83 3a 12 be 6a 55 78 be 59 46 81 be 1b 44 96 be
       -0.14280133 -0.24251333 -0.25248984 -0.29348835
000270 d0 a5 11 be 4d b7 00 3f 40 d0 e3 bd a2 75 06 3e
       -0.14223409 0.50279695 -0.11123705 0.13130811
000280 8c 17 37 be ad b4 0c be 4b e1 af bc 8b c0 8f 3c
       -0.17880076 -0.13740797 -0.021469733 0.017547866
000290 5f 15 bb bd 5a bd b6 3d fa e2 0d 3d f4 a2 fa bd
       -0.091349356 0.08922835 0.03464029 -0.12238112
0002a0 c1 0d df 3d 3b 7a ac bd 91 3c 78 bd 50 a1 64 3d
       0.10891295 -0.08421751 -0.060604636 0.055817902
0002b0 15 74 f3 3d 39 12 87 be 97 f3 84 bd ba dd 50 bf
       0.11887375 -0.2638109 -0.064917736 -0.8158833
0002c0 f0 6d 67 bb 3d 87 d1 bd 1b 72 59 be 73 08 b5 be
       -0.003531333 -0.10230873 -0.21234934 -0.3535801
0002d0 0c fd 00 bb c7 02 18 bf 8d 9c 18 be a1 87 44 bf
       -0.0019682078 -0.5937924 -0.1490347 -0.76769453
0002e0 5b 85 71 bc ed c5 91 bd c0 06 fe bd 8a 55 2d 3b
       -0.014741267 -0.071178295 -0.12403631 0.002644869
0002f0 ab 22 68 be 0e ea f2 3b 9d 29 14 bf c6 7b 2d be
       -0.22669475 0.0074131554 -0.57875997 -0.16941747
000300 38 65 cd 3b ef 13 a9 bd 0d 01 5f 3d b6 24 af be
       0.0062681697 -0.08255755 0.05444436 -0.34207696
000310 d9 2f 5b 3e 58 ee f7 3c ff 29 e8 bd ab 20 10 3e
       0.21404971 0.030265018 -0.11336135 0.14074962
000320 d7 96 61 bf 99 e4 bb bd 23 41 95 bd 79 33 0c 3c
       -0.8812079 -0.09174461 -0.072878145 0.008557194
000330 b1 80 e0 bd bf e1 25 bd af d4 11 bd 34 08 74 be
       -0.10962046 -0.04049849 -0.03560322 -0.23831254
000340 66 3f 4f 3d f6 9f 13 bc 9b a6 bd bd 7c 44 89 3d
       0.05059757 -0.009010306 -0.09260293 0.067025155
000350 0e 25 86 be d3 87 a9 bd fa d5 b8 be 4f 0e ec bb
       -0.26200145 -0.082778595 -0.3610075 -0.007203854
000360 ba d1 9f be f7 4e 95 3d 4d 56 2d be 54 cd 77 be
       -0.31214696 0.07290452 -0.16927452 -0.2419942
000370 bb fd 7c bd 3c 2a 23 be 9a 40 ca 3d fa 2a 9a bc
       -0.061765414 -0.1593408 0.09875603 -0.018819321
000380 3b 42 1c be 71 33 f8 bd 0f 17 f1 bd 18 34 43 bd
       -0.1525964 -0.12119187 -0.11771976 -0.047657102
000390 a9 2a 06 bf 8b 0c 47 bd 7a de 93 bd f6 c3 77 be
       -0.52408844 -0.048595946 -0.072201684 -0.24195847
0003a0 37 de 46 be 5e 55 c6 bd 57 15 b2 3e 35 c1 98 bd
       -0.19420706 -0.09684251 0.34781906 -0.07458726
0003b0 8e 83 b4 3d 2f 4b 16 bd 66 fd 09 be 30 1e f9 3d
       0.088141546 -0.036692794 -0.1347557 0.12163961
0003c0 ef e1 da bc bc e7 0a be 1e 68 dd bd 99 55 6a be
       -0.026719062 -0.13564962 -0.108108744 -0.22884215
0003d0 a8 bf a0 be 36 a7 a8 3e a4 7c b3 be df d1 9d be
       -0.31396222 0.32940072 -0.3505603 -0.3082418
0003e0 7e 3f 7d be ae e3 0f 3e 2c dd 39 bc a1 df 0f 3e
       -0.24731252 0.14051697 -0.011344235 0.14050151
0003f0 6f 3c 93 be e5 2f 0d be 27 b5 88 be 44 a6 ca bd
       -0.28757045 -0.13787802 -0.26700708 -0.09894994

discrete_action_output_shape f4 [1, 2]
000000 00 00 40 40 00 00 40 40
       3.0 3.0

network_body._body_endoder.seq_layers.0.bias f4 [128]
000000 ac 24 52 bf 1d 30 a4 bf b8 cb 77 bd 2f 0f 84 3e
       -0.82087207 -1.2827183 -0.060497016 0.25792834
000010 7f 8b a7 bf d9 c0 5e bf 80 d2 70 bf 6f 16 a8 bf
       -1.3089446 -0.8701301 -0.940712 -1.3131846
000020 fc a2 70 be b0 7b 1c bf 61 3e 10 bf 4c 2d 5d be
       -0.23499674 -0.6112623 -0.5634518 -0.2159931
000030 53 c8 0c bf ff 90 69 bf 89 44 fd bd 13 8b a0 bf
       -0.5499317 -0.9123687 -0.12366588 -1.2542442
000040 ed 62 83 bf 37 b9 74 be ac 14 91 be 9f 7d d1 be
       -1.0264565 -0.23898779 -0.28336084 -0.40916154
000050 3d d2 3b bf 56 9e 05 bf 01 d3 8d bf 5f ea 36 3e
       -0.73367673 -0.52194726 -1.1080018 0.17862843
000060 f2 4d e0 bd 90 a0 2a bf dc 34 1a bf 5c cd d0 3d
       -0.10952367 -0.6665125 -0.60236907 0.10195419
000070 eb 61 20 3e af 10 96 bf 4b ec 2e bf 7d 9f 2c bf
       0.15662353 -1.1723841 -0.68329304 -0.6743086
000080 7b 05 35 bf 14 90 f9 be fe 30 b9 be 93 f7 28 3e
       -0.7071149 -0.48742735 -0.3617019 0.16500692
000090 e6 2c 07 be ae 25 3c bf fa 30 86 3c a1 29 92 be
       -0.13200721 -0.73494995 0.016380776 -0.28547385
0000a0 d5 99 ac bf 8f 12 9b bf 29 d8 93 bf 1d 90 80 3e
       -1.3484446 -1.2115039 -1.1550342 0.2510995
0000b0 f3 d1 3b bd ab d7 c0 be 87 42 82 bf ee 4e 6a bf
       -0.04585452 -0.37664542 -1.0176553 -0.9152669
0000c0 76 04 cc be 82 67 f7 be d4 e6 78 bf 09 47 14 bf
       -0.39847153 -0.48321158 -0.97227216 -0.5792089
0000d0 94 3e 78 be a2 0f 10 bf ff 94 29 be aa ed 7b bf
       -0.24242622 -0.56273854 -0.16560744 -0.9840952
0000e0 66 82 26 bf 74 2b 2f be 7c c4 84 bf df 36 ef 3e
       -0.6504272 -0.1710642 -1.0372462 0.4672155
0000f0 58 6a 74 bf 8d 39 1c bf 83 b5 d9 bd 5b f1 90 3f
       -0.9547477 -0.61025316 -0.10630324 1.1323656
000100 3c 92 93 be 1d 13 d7 bf 36 c7 1c bf f0 93 9a bf
       -0.28822505 -1.6802708 -0.6124147 -1.2076397
000110 87 9a 0a bf e7 d7 04 be 6c 54 88 bf 35 65 44 bf
       -0.5414204 -0.12972985 -1.0650764 -0.7671693
000120 74 37 38 bf 83 7e 42 bf c6 87 73 bf cd 67 b3 bf
       -0.71959615 -0.7597429 -0.9512905 -1.4016052
000130 4d d9 b9 bf 9b 5e bd 3f 86 f3 77 bf 7f b0 6d bf
       -1.451944 1.4794496 -0.9685596 -0.92847437
000140 07 b3 26 be fb 4c 83 bf 2b b9 29 bf 3c 3b a8 bf
       -0.16279231 -1.0257868 -0.6629817 -1.3143077
000150 54 87 64 bf ff 36 d4 be 1c 3f b1 bf 22 97 71 bf
       -0.89268994 -0.4144821 -1.3847384 -0.94371235
000160 c5 c0 4d be e7 da be be 48 58 21 bf ac 12 2a be
       -0.20093067 -0.37276384 -0.6302533 -0.16608685
000170 7d ac a8 bf 1d 39 76 bd f8 6b 8b bf 46 55 2c be
       -1.3177639 -0.06011306 -1.0892324 -0.16829404
000180 9e 57 3b bf 3d 6c 03 3f ba f4 99 bf c4 3b 6f bf
       -0.7318057 0.51337034 -1.202781 -0.9345057
000190 ec af 07 3f 2b 00 1f bf 17 54 16 be 76 23 2b bf
       0.5300281 -0.6210963 -0.14680515 -0.66850984
0001a0 31 55 86 be e8 d4 37 bf e0 f4 9d bf e7 dc 3a bf
       -0.2623687 -0.71809244 -1.2340355 -0.7299332
0001b0 63 26 72 bf 87 17 0b bf 36 25 7e 3e 21 fd 75 bf
       -0.94589823 -0.54332775 0.24818882 -0.9608937
0001c0 c8 81 cc bf be 62 ec be 69 8c 91 be bc 2f 60 be
       -1.5977106 -0.46169084 -0.28427437 -0.21893209
0001d0 28 54 ae be 0a 91 82 bf ed 66 a9 bf 0c d2 a8 bf
       -0.3404858 -1.0200512 -1.3234535 -1.3189101
0001e0 38 99 87 bf 28 0b d5 be 78 5c 0d 3e e7 19 99 3e
       -1.0593634 -0.41610074 0.13804805 0.29902574
0001f0 a0 fe 8c bf cd f4 a6 bf e1 d9 40 be 86 12 e0 bc
       -1.1015205 -1.3043457 -0.18833114 -0.027352583

network_body._body_endoder.seq_layers.0.weight f4 [128, 13]
000000 24 9a ee 3d 63 56 6a 3e 11 2e 14 3e c4 29 45 3d
       0.11650494 0.22884516 0.14470698 0.048135534
000010 ee 5a ee bd da 76 1b 3e d0 24 d4 3d d3 57 de bd
       -0.11638437 0.15182057 0.10358584 -0.10856595
000020 62 1d ab 3d 89 ad 24 be 30 0c 18 bd c7 58 2f 3e
       0.08355214 -0.16081823 -0.037120998 0.1712371
000030 f4 13 1e be 22 ba 27 be cd 55 1c 3e 79 98 98 be
       -0.15437299 -0.16379598 0.15267105 -0.29803827
000040 ae 63 46 3e f1 fd d4 3d 5f cd ac 3d bd d6 2a 3f
       0.19373962 0.10399998 0.08437609 0.66733915
000050 5a 38 28 be 70 24 0c bf b4 0f 50 3e b0 d4 20 3e
       -0.16427746 -0.547431 0.2031849 0.15706134
000060 dd 5e 4b 3e 47 dc cf be 29 c7 0e bf db 72 88 be
       0.19860406 -0.40597746 -0.55772644 -0.26650128
000070 8c 53 4a 3f b8 ec 22 3f a7 af 6a 3e 14 b6 ac bd
       0.7903373 0.63642454 0.22918569 -0.08433166
000080 e4 a4 36 3d 92 5a 22 3e ac 3d 3f 3e 1f 0c fb bd
       0.044590846 0.15854862 0.1867587 -0.12258171
000090 a9 d4 5d bf a8 77 85 3f 80 54 8b 3e 8e 73 02 bf
       -0.8665262 1.0427141 0.27212906 -0.5095757
0000a0 a9 bb 04 be ed c2 19 3f 08 71 85 be cf 7a 2e be
       -0.12962212 0.6006306 -0.26062799 -0.17039035
0000b0 9f 00 a5 be d9 3b a4 3d 36 1d 07 3f f4 ef 9d bd
       -0.32227036 0.080192275 0.5277895 -0.07711783
0000c0 0b 21 01 be 20 a6 68 bd 69 7e 28 3f 5f 20 88 3e
       -0.12610261 -0.056799054 0.65817887 0.26587197
0000d0 30 53 2f be 2a c4 7a 3e 3b a6 1d ba 42 ad 58 3d
       -0.17121577 0.24488893 -0.0006013845 0.052899607
0000e0 22 29 04 bc cf b3 bc 3d 1c 7b ff be e4 8a 01 3f
       -0.008066447 0.09213983 -0.49898612 0.50602555
0000f0 f1 88 5c 3e 10 81 9b 3d b9 28 a5 be 0a 03 3b 3e
       0.21536614 0.07592976 -0.3225763 0.18262878
000100 53 52 86 bf 02 70 d6 3c 8b 4a 1e be ac f0 aa be
       -1.0493873 0.026176456 -0.15458123 -0.33386743
000110 82 c6 c5 bd 8e 27 a1 3e c7 2e 7e be 5c 26 5a 3e
       -0.09657003 0.3147549 -0.24822532 0.21303695
000120 fe eb 9d 3e 60 13 9c bd 7b 83 d8 bc 09 8b e2 3d
       0.3084411 -0.07620883 -0.026429882 0.11061675
000130 c1 0f ff bd 0e 29 95 3e 17 5f d0 3e 33 f4 8e 3e
       -0.12454177 0.29132885 0.40697548 0.27920684
000140 ed 4c 0e 3c 0d 68 8a be c8 93 1c bd bc 92 bd 3c
       0.008685333 -0.2703251 -0.038226873 0.023141257
000150 cb d4 36 be 4c d7 71 3e 01 24 28 3d 27 e2 29 bf
       -0.17854612 0.23617285 0.04104996 -0.66360706
000160 eb 33 89 bd 15 37 02 3e 02 7c ff 3e ba 87 19 bf
       -0.06699356 0.12716325 0.49899298 -0.5997273
000170 05 a2 93 be 08 1b 4e be 72 0d f6 3d f4 01 b2 bd
       -0.2883455 -0.20127499 0.12014283 -0.08691779
000180 03 f3 6a be 2a 7d f5 3e 10 77 b0 3e fe 6d d4 3c
       -0.22944264 0.47947055 0.34465837 0.025931355
000190 67 25 e1 39 20 b8 e3 be ea b9 86 3e a1 90 54 3e
       0.0004294321 -0.44476414 0.26313716 0.20758297
0001a0 3d 7b cd be d3 7a c7 be 0a b8 08 3e b7 19 02 bd
       -0.40133086 -0.38960895 0.13351455 -0.031762805
0001b0 ae 24 25 3f b5 2f 3d 3e 45 00 bd be 36 d9 a7 3e
       0.64509094 0.1847523 -0.36914268 0.32782906
0001c0 8c ab 62 bf 7b d1 fa bc 54 99 c7 3e 81 8c 22 3d
       -0.8854301 -0.030617466 0.38984168 0.039684776
0001d0 50 fb f1 bd b2 07 dd bd 7a c4 7f bf e9 7a e9 3c
       -0.11815512 -0.107924834 -0.99909174 0.028500991
0001e0 d4 73 14 be d2 da 9f 3e f1 d7 97 3b b1 71 06 be
       -0.1449731 0.31221634 0.0046338965 -0.13129307
0001f0 e2 73 6b be b1 33 35 be 53 34 1b bc 49 4e 67 3e
       -0.22993425 -0.176955 -0.009472924 0.22588457
000200 4d 25 57 3c 81 4c 18 be 93 53 be be f8 3e 5d 3d
       0.013131452 -0.14872934 -0.37173137 0.05401513
000210 10 23 89 3e 2c 4d 98 3d f8 70 24 3e ab 2c b1 bd
       0.26784563 0.07436594 0.16058719 -0.08651098
000220 be 7b 93 3e 79 8c 02 bf 17 38 38 be 23 87 34 3e
       0.28805345 -0.50995594 -0.17990147 0.17629676
000230 1e c8 06 3d b5 c3 42 be 0d 26 6c 3f d4 35 bf 3d
       0.03290569 -0.19019969 0.9224556 0.09336439
000240 fd c3 9a be 18 f0 11 3f b1 34 19 3e be 19 5f be
       -0.30227652 0.5700698 0.14961506 -0.21787164
000250 94 05 9b 3e 6f 54 df 3e df 70 d3 3e 9a 50 b0 be
       0.30277693 0.43619105 0.4129705 -0.34436494
000260 67 a1 d7 bc 88 a6 07 bf 80 98 67 3e 0e 8f cf 3e
       -0.02632208 -0.5298848 0.22616768 0.4053883
000270 39 69 03 be 54 8e 88 3e 86 65 02 bd 3c ad b4 be
       -0.12833108 0.26671088 -0.0318351 -0.35288417
000280 82 d7 60 be 7a e5 0a bd dc 88 32 be da b5 ba be
       -0.2195721 -0.033910252 -0.1743502 -0.36466867
000290 c9 59 c2 3c 71 96 00 bd 9e 51 b8 3b 54 57 62 bd
       0.023724454 -0.031393472 0.005624964 -0.055259064
0002a0 d8 b3 18 3d ab d6 c4 bd aa 55 3e 3e 45 ce 94 bd
       0.037280887 -0.09611257 0.18587366 -0.07265905
0002b0 1f 6a 70 be 8c 6e e5 3d 2c c9 1f be 1e d2 b9 3e
       -0.23477982 0.11202726 -0.15604085 0.3629312
0002c0 8d 1d c4 3e 55 b1 35 be ad 8e 0d 3d ae 77 d2 3d
       0.38303795 -0.17743428 0.034559894 0.10276733
0002d0 bc f5 66 3e 00 74 27 be 11 91 22 3d ad 9a 84 bd
       0.22554678 -0.16352844 0.039689127 -0.064748146
0002e0 83 d9 86 be c7 db e0 3d 6b df 97 3d b0 5e a3 be
       -0.26337823 0.10979419 0.074156605 -0.31908178
0002f0 96 ed fc 3e 22 c6 a8 3e 80 2f b8 3d b6 aa 69 bd
       0.49400014 0.32963663 0.08993435 -0.05704757
000300 3d d7 be bd c4 d6 ab 3b c2 1c bc 3e 4a cf 80 3c
       -0.09318397 0.005244108 0.3674069 0.015723843
000310 d2 69 88 bd 01 ff 2c bf aa ca 92 be 8e bd d3 be
       -0.066608086 -0.67576605 -0.28670245 -0.41355556
000320 b9 69 99 be ec 1b e7 3e f2 9d 3f be 1a 08 c8 be
       -0.29963472 0.4513849 -0.18712595 -0.3906868
000330 8f f6 be 3d 8c 53 18 3e ae 75 78 bd 4a 2b e8 be
       0.09324371 0.1487562 -0.060659103 -0.45345527
000340 db 80 07 be 65 f2 a2 3d c1 7b d9 be ba 48 38 be
       -0.13232748 0.07956389 -0.4247723 -0.17996493
000350 39 1f 31 bd 91 2c 69 be a0 78 96 3e af 7e 89 3e
       -0.043242667 -0.22770907 0.29388905 0.26854464
000360 78 82 87 3d c8 f8 1e bf 53 0a e6 bd 88 de 13 3f
       0.06616682 -0.6209836 -0.11232438 0.5776143
000370 93 96 45 3f 3b 34 37 bf d8 ca 81 3d 44 3f c6 3e
       0.77182883 -0.7156407 0.063375175 0.38720143
000380 0b b1 0d 3e 8b dc 88 bc cd d4 90 be 35 c6 8e 3e
       0.13837068 -0.016706726 -0.28287354 0.27885595
000390 4e 3d 50 be fd f9 50 3e 61 6c 0a be ed d6 9d 3e
       -0.20335886 0.20407863 -0.13517906 0.30828038
0003a0 41 5a 0c 3f 41 18 fb 3e d9 9f 50 3d f6 9f d7 3d
       0.54825217 0.49041942 0.050933693 0.10528557
0003b0 9f 84 5f 3e ff f1 f4 bd 96 19 da 3b 30 16 90 bd
       0.21827935 -0.119602196 0.006655882 -0.07035482
0003c0 8b 2e 67 3d 16 68 05 bd 53 bc f8 bc 31 92 e6 bc
       0.05644087 -0.032569967 -0.030363237 -0.028145881
0003d0 bc 6b 11 be b3 21 20 be 28 a5 de 3d f5 4f 81 be
       -0.14201254 -0.15637855 0.10871345 -0.25256315
0003e0 0a 3e 23 be 19 3f 17 3d e7 21 69 3e 02 55 81 3e
       -0.15941635 0.03692541 0.22766839 0.25260168
0003f0 67 d4 89 3e 87 bb d3 be 2d 04 c0 bd 44 cd f4 3d
       0.26919863 -0.4135401 -0.093757965 0.11953214

network_body._body_endoder.seq_layers.2.bias f4 [128]
000000 fb f1 3a bf 2d e3 72 bf f9 7f 47 bf 66 05 c9 be
       -0.7302548 -0.9487789 -0.77929646 -0.3926193
000010 e7 54 6d bf c7 84 55 bf d9 f5 3b bf 06 62 34 bf
       -0.92707676 -0.8340573 -0.7342201 -0.7046207
000020 b9 0f 25 bf 3c 76 1b bf cc 8c 72 bf c4 38 69 bf
       -0.64477116 -0.60727286 -0.9474609 -0.9110224
000030 16 e9 52 bf 6d a0 d6 be 8b 62 6c bf 34 cd 19 bf
       -0.8238691 -0.4191927 -0.92337865 -0.6007874
000040 e1 0b 13 bf 01 82 ce be 0e d0 1a bf 98 fe 08 bf
       -0.5744 -0.4033356 -0.60473716 -0.5351348
000050 f8 e9 52 bf d5 72 23 bf c9 22 49 bf 5e 44 06 bf
       -0.8238826 -0.63847095 -0.785687 -0.5244807
000060 52 a6 28 bf 8c 41 49 bf 7a 01 87 bf b1 5a 91 bf
       -0.65878785 -0.7861564 -1.0547326 -1.1355802
000070 83 57 66 bf 2c 1b 6a be 63 e8 34 bf 2a 57 6c bf
       -0.8997728 -0.22861928 -0.70667094 -0.923205
000080 90 e4 14 bf 5a 15 71 bf 76 ae 54 bf a5 54 02 bf
       -0.5816126 -0.94173205 -0.83078706 -0.5091041
000090 c0 fa 80 bf 89 93 3a bf 62 75 14 bf a2 b7 2a bf
       -1.0076523 -0.7288137 -0.5799161 -0.6668645
0000a0 21 46 a3 be 77 34 29 bf 2a f9 1e bf bd 41 24 bf
       -0.31889442 -0.6609568 -0.62098944 -0.6416281
0000b0 5c e4 7a be ee f5 21 bf 8b a8 13 bf cf a3 b2 bf
       -0.24501175 -0.63265884 -0.5767905 -1.395624
0000c0 07 10 c6 be 34 f1 53 bf bd 90 78 bf 82 bd 3c bf
       -0.38684103 -0.8278992 -0.97095853 -0.73726666
0000d0 9e eb 2f bf b8 b8 9b bf d2 76 33 bf 9a 05 af bf
       -0.687189 -1.2165747 -0.7010318 -1.3673584
0000e0 a5 96 ee be be 63 0a bf 71 42 d4 be fc 44 36 bf
       -0.46599308 -0.54058444 -0.4145694 -0.7119901
0000f0 d0 a8 27 bf 36 07 1b bf ae 7c 8f bf ce b1 21 bf
       -0.6549196 -0.6055788 -1.1209924 -0.63161933
000100 f6 d2 6f be f0 f9 2c bf 1d 16 54 be 83 53 fb be
       -0.23420319 -0.67568874 -0.2071156 -0.49087152
000110 c9 0e 37 bf 79 7e 00 bf a8 e1 40 bf b6 36 13 bf
       -0.71506935 -0.5019298 -0.75344324 -0.5750536
000120 ef b9 97 bf e6 44 8d bf a8 ce 25 bf af 16 8f bf
       -1.1853617 -1.1036651 -0.6476846 -1.1178797
000130 08 7c 31 bf 4c 79 32 bf 04 fd 0f bf cb e4 16 bf
       -0.6932988 -0.69716334 -0.56245446 -0.5894286
000140 93 77 f8 be 28 d4 0d bf bb fb 03 bf bf c3 e6 be
       -0.48528728 -0.5540185 -0.51555985 -0.45071217
000150 d0 d1 6c bf 72 29 ea be 7b e9 6b bf 5f f6 fe be
       -0.9250765 -0.45734745 -0.9215314 -0.4979734
000160 2b 4c 49 bf 67 37 b6 be b1 49 e1 be d8 3f 3d bf
       -0.7863185 -0.35589144 -0.44001535 -0.7392554
000170 0d 16 13 bf 68 1f 5c bf 8d 5f 56 bf 3f 43 ca be
       -0.5745552 -0.8598542 -0.8373955 -0.3950443
000180 1e 6a 12 bf ce e4 72 bf 36 11 5a bf 04 0a 10 bf
       -0.5719317 -0.9488038 -0.8518251 -0.5626528
000190 8d 56 72 bf 8b be fe be be 58 15 bf d1 e6 83 be
       -0.94663316 -0.49754748 -0.58338535 -0.25762036
0001a0 c5 67 53 bf 35 9c 0f bf f6 c0 96 bc a1 9f 6d bf
       -0.82580215 -0.5609773 -0.018402558 -0.928217
0001b0 2a 6f 4d bf 62 da 1d bf 9c 43 23 bf 57 08 99 be
       -0.8024775 -0.6166135 -0.6377504 -0.29889175
0001c0 b1 4b 1f bf 8e ed 77 bf 7b 22 67 bf 50 bb 6c bf
       -0.6222487 -0.96846855 -0.9028699 -0.92473316
0001d0 b2 01 9b bf 28 ba 2f bf cf 10 2f bf 91 c3 1c bf
       -1.2109892 -0.68643427 -0.6838502 -0.6123591
0001e0 f7 f9 87 bf 80 3d 0f bf ab 68 f6 be 2a a3 b0 bf
       -1.0623158 -0.55953217 -0.4812673 -1.3799794
0001f0 14 e4 fa be 6e ea 1f bf dd 25 ff be 61 03 47 bf
       -0.49002135 -0.62467086 -0.49833575 -0.7773953

network_body._body_endoder.seq_layers.2.weight f4 [128, 128]
000000 b6 46 87 3e 73 64 71 3c f9 6b dc bd a6 53 91 3d
       0.26421136 0.014733422 -0.10762782 0.07096033
000010 6b 4d 8e 3e f3 1a 19 3e d9 e0 c8 bd b5 f9 9b 3d
       0.2779344 0.14951687 -0.09808511 0.07615987
000020 8e d8 85 3d 4f ae df 3d 92 54 2c 3d 66 a0 d8 3d
       0.06535445 0.109219186 0.04207284 0.105774686
000030 60 e8 58 3e 9b 32 82 3e 25 ca 0b 3e 6b 96 63 3d
       0.21182394 0.25429234 0.13651331 0.05556337
000040 fd c1 47 3e 5b 9c 70 be 93 8c 4e 3d 09 be 4f 3e
       0.19507594 -0.23497145 0.05042703 0.20287336
000050 45 29 ac bd 48 37 92 be 42 35 a6 3e cb 3d f7 3c
       -0.08406309 -0.285578 0.32462507 0.030180832
000060 27 b1 06 3d 7a bb 2c 3e c1 21 1f 3e c9 8a 38 be
       0.03288379 0.16868392 0.1554022 -0.18021692
000070 fc a8 a9 bd 1a d4 11 3f c4 e4 9d 3e b2 0c 8d bb
       -0.08284184 0.56964266 0.30838597 -0.004304492
000080 91 00 66 3e 5a 75 25 3e 67 ba 8d bc 1b ba 36 3e
       0.22461154 0.16158047 -0.017300798 0.17844431
000090 13 83 a4 3c aa 20 54 be c7 50 93 bd 8b b2 b0 3d
       0.020082032 -0.20715585 -0.071931414 0.08627804
0000a0 1d 79 be 3e a3 8a 88 3e 4a 92 b0 3e 4e 42 45 3e
       0.37201777 0.2666827 0.3448661 0.19263574
0000b0 f7 ef c3 3c 7c a7 99 be af 8f 28 3e 4d fa 8b bd
       0.023918135 -0.30010593 0.16461061 -0.068348505
0000c0 b7 f2 b1 be 61 40 4b be db 7e ff 3d 0f f3 47 be
       -0.3475549 -0.19848777 0.12475368 -0.19526313
0000d0 84 99 be 3d 22 d0 51 be 86 62 59 bd 32 d4 88 3e
       0.093066245 -0.20489553 -0.053072475 0.26724392
0000e0 44 f0 84 3e 42 2d 3b bd 98 86 5d 3e 2c df 0f 3e
       0.25964558 -0.045697458 0.21633375 0.14049977
0000f0 37 fc ad 3e 1e 94 b1 3d 9d 00 1b 3e 15 f9 45 bf
       0.33981487 0.08670829 0.15136953 -0.77333194
000100 5e ff 57 be bd 89 7b 3e bf 8a 8c 3e a7 07 bc 3e
       -0.21093509 0.24564262 0.27449605 0.36724588
000110 89 10 45 3d 60 75 03 bc a2 c1 53 bd 0b 5b 1a 3e
       0.048111472 -0.00802359 -0.051698335 0.15073793
000120 59 20 c1 3e e6 15 a2 3d 9f f0 66 3e 12 0b 82 3c
       0.37719992 0.07914333 0.22552727 0.01587442
000130 57 f7 be 3e d4 58 37 bf 33 38 9b 3e fd 4d 91 3e
       0.3729808 -0.71619916 0.30316314 0.28379813
000140 bb ed 31 be 1f a5 71 3e d5 7d 4e be a6 8f b6 3e
       -0.17375843 0.23598145 -0.20165189 0.3565647
000150 5a 7f a7 3d e6 49 76 3e b5 6d c7 3e 73 4c 11 3e
       0.08178587 0.24051628 0.38950887 0.1418932
000160 f8 b0 23 3e 1f 50 ad bd be 4b 52 3e cb b0 f6 3d
       0.15985477 -0.084625475 0.20536706 0.12045439
000170 72 cb 00 3e 7a 41 97 be a7 1e 0e 3d 35 65 ab bd
       0.12577608 -0.29542142 0.0346972 -0.08368913
000180 29 8f 4f 3d 95 da 1c bf 6d e0 11 3e 72 cf af bd
       0.050673638 -0.6127103 0.14245768 -0.08584489
000190 39 42 a5 be d7 12 5a bd bd bc 96 be cd 02 e4 be
       -0.32277086 -0.053240623 -0.2944087 -0.44533387
0001a0 6c 46 88 bd e4 ca a0 3e 5d 40 98 3e a5 54 02 3e
       -0.06654057 0.31404793 0.29736605 0.12727602
0001b0 7c 75 8e 3e 07 0e 23 3e 14 7c a9 3d cd 00 49 3e
       0.27824008 0.1592332 0.08275619 0.19629212
0001c0 f6 8c cc 3c f8 44 c9 bd 49 e4 b7 bd ad 33 57 bd
       0.02496956 -0.09827608 -0.08979089 -0.052539516
0001d0 4e fd 16 be 11 95 bd 3d 72 9d 83 3e 7e bc 37 3f
       -0.14745066 0.09256948 0.2570606 0.7177199
0001e0 d9 1a e8 3d 6c 2f 5f be ff ef 5e be 3c f7 2c bf
       0.11333246 -0.21795434 -0.21771239 -0.6756475
0001f0 9d c6 a9 3e 84 9a 06 3f e7 55 f6 bd 2d 6a 93 3c
       0.33159342 0.5257952 -0.12028103 0.017994964
000200 e9 cb f7 3e 23 d9 54 be d1 6d 52 be 64 53 4b be
       0.4839776 -0.20785956 -0.20549704 -0.1985603
000210 d1 89 a9 3e 5d 76 05 3f 65 0b 9e 3e 1b 15 41 3f
       0.33112958 0.52133733 0.30868068 0.7542283
000220 ba 91 21 be a0 61 c7 3c ac c5 bf 3e 50 de 42 bb
       -0.15778247 0.024338543 0.374555 -0.002973456
000230 6a 1b 04 3f 9f a5 23 3f da e7 be 3d 62 37 38 bc
       0.5160433 0.6392459 0.09321566 -0.011243673
000240 40 8d 2d 3e e1 01 28 be bf 22 36 3c 1e 19 de 3c
       0.16948414 -0.16406967 0.011116683 0.027111586
000250 81 5f 5b bc 95 16 36 bd b0 3a 96 3e 1e db 2d be
       -0.013389469 -0.04445513 0.2934165 -0.16978118
000260 9a 69 85 bc 17 26 b8 3e 43 5d 8c 3e 9c 78 92 3e
       -0.016285706 0.3596656 0.27414903 0.28607643
000270 ee 4f d1 bd e7 57 65 3e f9 89 cb 3d 74 1b 5b 3e
       -0.102203235 0.22396813 0.099384256 0.21397191
000280 c3 58 14 3f 7b d0 0f 3e ab 5c b3 3e 08 33 d0 be
       0.5794794 0.14044373 0.35031638 -0.40663934
000290 5b 87 ec bd 36 62 36 bf 89 df 87 bd 6e 36 b0 be
       -0.115492545 -0.7124361 -0.06634433 -0.34416527
0002a0 85 ec 4a 3f 1a 6a e9 3e 51 12 02 3f bb ac a4 bd
       0.7926715 0.45588762 0.508092 -0.08040758
0002b0 07 f5 ba be 7a 78 ec be cb a7 fe 3d b8 14 42 3e
       -0.36515066 -0.46185666 0.12434348 0.18953216
0002c0 c5 7a b4 bd bb cf a4 bd 95 c0 f9 3d a9 7e 15 3d
       -0.08812479 -0.08047434 0.12194935 0.036497746
0002d0 d2 86 b2 3e 40 9f 6a be ef 86 10 bf ff 6c 60 3e
       0.34868485 -0.22912312 -0.5645589 0.21916579
0002e0 46 da 94 bc 32 fc 21 bf 44 38 af 3e 31 0e f4 be
       -0.018170487 -0.63275445 0.34222615 -0.47667077
0002f0 cf 0b 2e 3e 4f c1 f4 3e 41 ee 92 be ca f2 87 bf
       0.16996692 0.47803733 -0.28697398 -1.0620968
000300 ff 4d 80 bf 02 bd e8 3e 55 b9 52 be c6 47 e0 3e
       -1.0023803 0.45456702 -0.20578511 0.4380476
000310 3e ef dd 3e 0b 06 c4 3c 45 3d 3e 3e ab 13 bf bd
       0.4334659 0.023928663 0.1857806 -0.09329923
000320 d0 eb f4 3c ec ff fa bb 25 cd 62 3d f4 5c 4b 3e
       0.0298976 -0.007659903 0.055371422 0.19859678
000330 7e e2 16 3f 77 58 93 bf 35 f4 b8 3e 84 6c 9c 3e
       0.5893935 -1.1511372 0.36123815 0.3055154
000340 8b 97 14 bf 49 f5 2d 3f 95 18 a1 3e 2c b1 d4 3e
       -0.58043736 0.679524 0.31464067 0.4154142
000350 0a fe be 3e 18 4a a3 3e b8 7a c1 3e 17 df c7 3e
       0.3730319 0.31892467 0.3778894 0.39037392
000360 08 77 6c 3e 36 29 cc be 6c 33 02 be 94 b1 13 3e
       0.23092282 -0.3987519 -0.12714928 0.1442321
000370 99 24 13 3f a7 c5 72 3e c4 31 c2 3e 84 41 7b be
       0.5747772 0.23708211 0.37928593 -0.24536711
000380 73 58 68 3e 8e 57 9a be 1d bc d1 3d 4b 21 4e 3e
       0.2268999 -0.30144924 0.10240958 0.20129888
000390 8e d5 a8 be 98 e6 d4 3e 14 13 03 3e d0 6e 99 3e
       -0.3297543 0.4158218 0.12800246 0.29967356
0003a0 ad 3b b2 be 54 17 33 3f ea 52 a7 3d c3 21 c9 3a
       -0.34811154 0.6995747 0.081701115 0.0015345145
0003b0 9d 40 5c 3e 94 58 c6 bd fb 54 54 bf c7 68 83 3e
       0.21509023 -0.09684864 -0.8294217 0.25665876
0003c0 6c 6e 0f 3f 57 01 85 be e0 af 04 3e d4 f0 9f 3d
       0.56027865 -0.25977585 0.12957716 0.07809606
0003d0 21 5c c3 3e c6 fb 71 3e 91 55 01 3f 76 29 44 3f
       0.38156226 0.236312 0.5052119 0.76625764
0003e0 d1 e3 ca be 2f 46 35 be 2c bc 18 3d ef 9e 36 bf
       -0.39626935 -0.17702554 0.03728883 -0.71336263
0003f0 a4 64 c3 3e 44 52 57 3f a5 30 41 be 6c 62 93 3e
       0.3816272 0.841099 -0.18866213 0.28786027

network_body.observation_encoder.processors.0.normalizer.running_mean f4 [13]
000000 e2 7a da 43 d1 1d 6e 44 09 05 1f 44 f3 e1 5e 44
       436.96002 952.4659 636.0787 891.53046
000010 00 00 00 00 d7 7f 50 44 7b 82 15 44 ef ea 0f 44
       0.0 833.9975 598.03876 575.67084
000020 ea 6f 16 44 22 56 14 42 7b fe 74 41 1d e4 12 c3
       601.74866 37.084114 15.312129 -146.89107
000030 0b 50 20 43
       160.31267
