results/EasyMapAgent3/My Behavior/My Behavior-1999972.pt (torch, 477743 bytes, 57 tensors)

discrete_act_size_vector f4 [1, 2]
00000000: 0000 4040 0000 4040
3.0 3.0

network_body.observation_encoder.processors.0.normalizer.running_mean f4 [13]
00000000: 3380 de43 ed5d 8444 b575 2344 d93a 5b44
00000010: 0000 0000 76ae 3744 8d8c 2344 3beb 0f44
00000020: 3436 1b44 203a 1142 5eda 8341 9591 63c3
00000030: dfe9 1643
445.00156 1058.9352 653.8392 876.9195 0.0 734.72595 654.1961 575.6755
620.8469 36.306763 16.481625 -227.56868 150.91356

network_body.observation_encoder.processors.0.normalizer.running_variance f4 [13]
00000000: c4a1 8351 c771 b452 ef0c 8251 8bce a553
00000010: 0000 803f 6b94 0553 1960 2d52 80fe 3652
00000020: 8347 ce51 6179 b250 0747 8b50 ec5c 3252
00000030: fdd1 3751
7.066934e+10 3.875015e+11 6.982034e+10 1.4242696e+12 1.0 5.737207e+11 1.861604e+11 1.9648846e+11
1.1074538e+11 2.3954393e+10 1.8693503e+10 1.9151579e+11 4.9343877e+10

network_body.processors.0.normalizer.running_mean f4 [13]
00000000: 3380 de43 ed5d 8444 b575 2344 d93a 5b44
00000010: 0000 0000 76ae 3744 8d8c 2344 3beb 0f44
00000020: 3436 1b44 203a 1142 5eda 8341 9591 63c3
00000030: dfe9 1643
445.00156 1058.9352 653.8392 876.9195 0.0 734.72595 654.1961 575.6755
620.8469 36.306763 16.481625 -227.56868 150.91356

network_body.processors.0.normalizer.running_variance f4 [13]
00000000: c4a1 8351 c771 b452 ef0c 8251 8bce a553
00000010: 0000 803f 6b94 0553 1960 2d52 80fe 3652
00000020: 8347 ce51 6179 b250 0747 8b50 ec5c 3252
00000030: fdd1 3751
7.066934e+10 3.875015e+11 6.982034e+10 1.4242696e+12 1.0 5.737207e+11 1.861604e+11 1.9648846e+11
1.1074538e+11 2.3954393e+10 1.8693503e+10 1.9151579e+11 4.9343877e+10

network_body._body_endoder.seq_layers.0.weight f4 [128, 13]
00000000: 3d32 763e d962 083f 61eb 9a3e 4405 a6bc
00000010: ee5a eebd 17de a83c 11c0 e03e b8c5 af3d
00000020: bd63 78bd 0df8 22bf 0f3e 03be 4b9b aa3d
00000030: f4ad 573e 88fb c2be 6348 083e 539b 3d3b
00000040: 221e 95bd f1fd d43d 331a 0c3e 91a5 4a3f
00000050: 8b54 ce3c 8cc4 d9be 17d6 6d3e 69e1 033e
00000060: ec19 063e 7f8e d0be 47bf cebe 00d1 85be
00000070: f9d6 813f 1cab 3b3f a7af 6a3e b889 45be
00000080: 94ac 77bd d7a3 b9bd 440b 10bc d4c9 45be
00000090: 004f 1fbf 402f 953f 7471 6b3e 1856 b1be
000000a0: 31e1 28be bd05 2e3f e55e edbe cf7a 2ebe
000000b0: ed53 2fbe 177f 1c3e e6c1 b73e 2619 1dbe
000000c0: f1c7 b7bd 6084 eabd c258 4d3f 7b0a f13c
000000d0: 0ecb 323e 04f7 ba3e b8e1 cabc 517d 163e
000000e0: 2229 04bc d70b f2bc ad52 b6be 29da 0d3f
000000f0: 13e8 f23d 31ae 913e ebce 06bf 1098 ad3d
00000100: 92cf 78bf bf2e 9ebd a5a1 51be 9708 bebe
00000110: f099 debd 8e27 a13e 3608 29be c473 703e
00000120: dd51 423e f177 86be 7b99 6e3c 347e f7bd
00000130: a6dd 7ebd acd2 ad3d 40fe da3d ff5c 3f3e
00000140: 44ff 033d c1db 79be c893 1cbd ac8c c03e
00000150: 110e d6be 25d7 003e cfb6 163e d8e8 25bf
00000160: 69a9 eebe 242a b13e e5f6 e73e 446f 16bf
00000170: 4efb 51be 1ee8 f8bd d9b5 923d f401 b2bd
00000180: b2de 69be c102 203f c20c 413e 9d28 90bd
00000190: f8a4 debe c06c e8be 3185 a53e da7a a03e
000001a0: 61a6 e5be 7493 babe d201 3d3e 8a1a 1abf
000001b0: ae24 253f 9854 cf3e 13c0 c5be 85c1 193f
000001c0: 697d 12bf 4b07 743d b834 a13e 782c 83bd
000001d0: 8ec2 84be eb75 6bbe 783a 74bf b185 ad3e
000001e0: b429 01bf d2da 9f3e b150 02be 93c8 4139
000001f0: 9f9c 043d 0dc4 4e3c 662b 293d ba1b 943e
00000200: 5e12 3cbe 2cd1 61be 8261 a9be 8072 1b3e
00000210: 84de 943e 3c8c 9a3e f870 243e 3b76 40be
00000220: d72f ca3d 5869 0bbf 3489 c0be d375 d43e
00000230: 6cbc 99bd 0f1c 22be a3fa 563f d2e8 9dbd
00000240: 24c2 81be 3828 183f 6fda 643e be19 5fbe
00000250: e624 fb3e b1c7 d53e f33c 953e 20b5 eabe
00000260: 1b57 6bbe 1ef1 3dbf 9ff6 eb3e b746 bd3e
00000270: b66a a8be 0274 e73e f670 9b3e 7e85 36bf
00000280: 82d7 60be 22c2 a93e 86d7 1a3e a3b6 8ebe
00000290: e796 943e 6400 80be 9786 c6bd 45ed a23c
000002a0: 71b0 8c3e e85e 5bbe 778f 5e3e f7ed abbd
000002b0: 4810 babe 8c6e e53d 8a6c 5ebe a10a 053f
000002c0: bbbc b93e 896a 95be 1879 a8be e098 0bbe
000002d0: 6f52 a73e abf0 abbd 5f9e ddba 1d47 16be
000002e0: 78e1 92be ba61 aa3d 6bdf 973d 6fa7 a0be
000002f0: e4bb 173f e5e7 3f3e 48a7 fdbd b45e 0fbe
00000300: cba7 87be 5552 703d b96e 2f3e f7d0 33be
00000310: daa4 cabc 038b f8be a80c 0bbf 8ebd d3be
00000320: f957 c0be e6b2 323f 91b0 93bd 67bb 75be
00000330: 4910 55be b99c 4a3e 1c19 f63d 133d bebe
00000340: d4c0 83be 2820 063d c50a e1be f394 70be
00000350: 391f 31bd 59d1 7cbd 62e4 963e 8c51 cb3d
00000360: 2c96 f5bc 0f88 43bf 2695 d8be b885 263f
00000370: d988 3e3f 3a26 27bf 81e7 1b3e cfeb d93e
00000380: e7f7 6fbe 8bdc 88bc 6a61 cfbe 87d8 213f
00000390: bef1 cfbd a404 b83e e6f6 53be b0c4 963d
000003a0: 5529 433e 3119 513f c01c 903d 6046 e83c
000003b0: 9a9d 873e ff86 b93d 9619 da3b 1f7c a3bc
000003c0: 74b5 073d 99f3 77be 76ac 50bd f653 f43d
000003d0: 52c8 c33d 4474 31bd 4618 823c a724 71be
000003e0: 7386 97bd 3e16 8e3d ca44 0e3e 0255 813e
000003f0: 9b82 c73d 8065 c1be 38dc c83d dfe7 433d
0.24042602 0.5327583 0.30257705 -0.020266183 -0.11638437 0.020613713 0.43896535 0.08582634
-0.060641993 -0.63659745 -0.12816642 0.08330401 0.21062452 -0.38082528 0.13308863 0.0028931692
-0.07281138 0.10399998 0.13681869 0.79158884 0.025186798 -0.42532766 0.232262 0.12878956
0.13095826 -0.40733716 -0.40380308 -0.26136017 1.014373 0.7330797 0.22918569 -0.19290817
-0.060467318 -0.09064453 -0.008791748 -0.19315273 -0.6222992 1.1655045 0.22992498 -0.34635997
-0.16492154 0.67977506 -0.4636146 -0.17039035 -0.17121859 0.15282856 0.3589012 -0.15341625
-0.08973683 -0.1145103 0.8021356 0.029423943 0.17460272 0.36516583 -0.024765834 0.14696242
-0.008066447 -0.029546661 -0.35609952 0.5541101 0.11860671 0.2845321 -0.5265948 0.08476269
-0.9719173 -0.0772376 -0.20471819 -0.3711593 -0.10869205 0.3147549 -0.16507038 0.23481661
0.18976541 -0.26263383 0.01456296 -0.12084618 -0.0622231 0.08487448 0.106930256 0.18687819
0.032225862 -0.24400236 -0.038226873 0.37607324 -0.41807607 0.12582071 0.14718173 -0.64808416
-0.46613625 0.34602463 0.45305553 -0.5876353 -0.20506021 -0.12153648 0.07163591 -0.08691779
-0.22838858 0.625042 0.18852523 -0.07038996 -0.43485236 -0.4539547 0.3232818 0.31343728
-0.448535 -0.36440623 0.18457726 -0.60196745 0.64509094 0.40494227 -0.38623103 0.6006091
-0.5722261 0.059577268 0.31485534 -0.06404966 -0.25929683 -0.22994201 -0.95401716 0.3389106
-0.5045426 0.31221634 -0.12726094 0.00018480634 0.032375928 0.012619984 0.041301154 0.28927404
-0.18366382 -0.22052449 -0.33082205 0.15180397 0.29076016 0.30185115 0.16058719 -0.18795101
0.09872406 -0.54457617 -0.37604678 0.41496143 -0.07506642 -0.15831016 0.8397619 -0.077104226
-0.2534343 0.5943637 0.22348951 -0.21787164 0.4905159 0.41753915 0.29148063 -0.45841312
-0.22982447 -0.7419604 0.46086594 0.36968014 -0.32893914 0.45205694 0.3035962 -0.7129744
-0.2195721 0.33155924 0.15121278 -0.27873716 0.2902138 -0.25000298 -0.0969364 0.01988853
0.27478364 -0.21422923 0.21734415 -0.083949976 -0.36340547 0.11202726 -0.21721092 0.51969343
0.36276802 -0.29182842 -0.32904887 -0.13632536 0.3268008 -0.08395513 -0.001690816 -0.14675565
-0.28687644 0.08319421 0.074156605 -0.31377742 0.59271073 0.18740804 -0.12385422 -0.1400097
-0.26495203 0.058672268 0.17132081 -0.17560183 -0.02473681 -0.48543558 -0.54316187 -0.41355556
-0.37567118 0.6980423 -0.07211412 -0.2399727 -0.20806994 0.19786347 0.12016508 -0.3715597
-0.25733054 0.03274551 -0.4395353 -0.2349432 -0.043242667 -0.061723087 0.29471117 0.09927663
-0.029978834 -0.76379484 -0.4230129 0.6504779 0.7442756 -0.65292704 0.1522503 0.4256272
-0.23434411 -0.016706726 -0.4050401 0.6322102 -0.101535305 0.3594104 -0.20699653 0.07361734
0.19058736 0.81679064 0.070367336 0.02835387 0.26487428 0.090589516 0.006655882 -0.019956646
0.03313203 -0.24214019 -0.05094572 0.11930077 0.095596924 -0.04332377 0.015880715 -0.23549138
-0.07398691 0.06937836 0.13893428 0.25260168 0.09741708 -0.3777275 0.098076284 0.04782855

network_body._body_endoder.seq_layers.0.bias f4 [128]
00000000: f389 5dbf 2fa3 b6bf a6f0 efbd a9bc 613e
00000010: 7fba b6bf 8de5 8ebf 236a 8abf 9e01 b7bf
00000020: e376 c2be c65f 21bf 99ff 0bbf 6011 b1be
00000030: bc8e 55bf 36af 99bf 7ed3 b0be 2f0e b8bf
00000040: ad53 95bf e8fc b2be 3018 93be 4364 c6be
00000050: 341c 58bf 2fde 0fbf 2bca babf c1c5 353e
00000060: dd7b 88be e4d5 68bf bf60 5abf 0262 4b3d
00000070: c25e 14be aa2f b8bf 218d 00bf 6166 9ebe
00000080: 8ee3 84bf ee85 37bf 4626 a6be d24c 323e
00000090: ec7b c3bd df0d 69bf 22b8 81be 8b9c d7bd
000000a0: 07fe b0bf e5d4 9dbf 575d a0bf 4660 f93e
000000b0: aa37 8bbe d9fa 0ebf 9588 91bf 8d2b 6cbf
000000c0: 1c1a 9fbe f34b 5dbe 0551 4bbf f4f6 32bf
000000d0: 990e 58be a7ea 1cbf 80a2 a1be 4691 80bf
000000e0: f2c2 3bbf cc73 6abb d064 84bf 26ce 033f
000000f0: b640 7bbf 844c 4fbf 6c0a 1c3e b0fb b63f
00000100: 6099 49be 0877 d5bf 950e 28bf 16ef b9bf
00000110: 8107 3bbf 63f6 6bbe 20af 9cbf 40d7 4ebf
00000120: 39a8 43bf f315 34bf df80 91bf aa1d bbbf
00000130: 876b aebf f816 0440 5879 99bf 309a 6cbf
00000140: d9c3 8dbe 2700 81bf 54bf 13bf 8d5a a1bf
00000150: 5b4b 8cbf 6c3f cebe 98f1 cdbf 5954 abbf
00000160: 0aab 2cbe 9407 cbbe 60b5 20bf 0927 a9be
00000170: 15ca 9ebf 5c35 8fbe 96c1 96bf 06ee 85be
00000180: 6046 2bbf e54b f03e ae50 92bf cc45 79bf
00000190: e391 253f 832f 68bf d241 ddbd 3d51 5dbf
000001a0: 34e7 06bf 6aa0 6bbf 9332 b2bf b14c 70bf
000001b0: 8c67 91bf dd32 3ebf a82c 3e3e 769a 95bf
000001c0: b957 d4bf 9381 d9be dd6b 06bf b870 cebe
000001d0: 1f98 9fbe ae45 6dbf 6e82 cbbf 425f a5bf
000001e0: 235e 94bf ab72 b1be 3199 8abd 25aa c53e
000001f0: db66 91bf 8147 acbf e1f8 e8be 663d 80bd
-0.8653862 -1.426855 -0.11715822 0.22044624 -1.4275664 -1.1163803 -1.081364 -1.4297369
-0.37981328 -0.63036764 -0.54686886 -0.3458357 -0.8342092 -1.2006595 -0.34536356 -1.4379328
-1.1666161 -0.34958577 -0.2872939 -0.3874837 -0.84418035 -0.561984 -1.4592947 0.17751218
-0.26657 -0.9095137 -0.8530387 0.049654014 -0.14489272 -1.4389546 -0.50215346 -0.30937484
-1.0381944 -0.71688735 -0.32451075 0.17412117 -0.095451206 -0.9103679 -0.25335795 -0.10527905
-1.3827523 -1.2330595 -1.2528485 0.48706263 -0.27190906 -0.55851513 -1.1369807 -0.92253953
-0.31074607 -0.21611004 -0.794205 -0.6990807 -0.21099319 -0.6129555 -0.3156929 -1.0044334
-0.7334434 -0.0035774587 -1.0343266 0.5148643 -0.98145616 -0.8097613 0.1523835 1.4295559
-0.19687414 -1.667695 -0.6564725 -1.4526088 -0.73058325 -0.23043208 -1.2240944 -0.80797195
-0.7642856 -0.7034599 -1.1367453 -1.4618428 -1.3626565 2.063902 -1.1990156 -0.9242277
-0.27688482 -1.0078171 -0.5771382 -1.2605759 -1.0960497 -0.40282762 -1.6089354 -1.3385116
-0.16862121 -0.3965422 -0.62776756 -0.33037594 -1.240542 -0.27970397 -1.1777828 -0.2615816
-0.6690426 0.46932903 -1.1430871 -0.97372127 0.6467573 -0.906975 -0.1080357 -0.86452085
-0.5269654 -0.9204165 -1.3921684 -0.9386702 -1.1359725 -0.7429636 0.18571723 -1.1687763
-1.6589271 -0.4248167 -0.52508336 -0.40320373 -0.31170747 -0.9268445 -1.5899179 -1.2919695
-1.1591228 -0.34657797 -0.067675 0.38606372 -1.1359514 -1.3459321 -0.4550238 -0.06261711

network_body._body_endoder.seq_layers.2.weight f4 [128, 128]
00000000: 5f0c 5b3e e75e 62bd 60ee 33bc 502a 083f
00000010: cdd2 233f 1a47 343e bccd 5b3d 2efa 69bd
00000020: 8888 e63d 0437 da3e c3a5 4b3e 2cbc 0e3c
00000030: b40c d73e da18 7b3e 7b53 413e 0c05 1b3e
00000040: cac7 2d3e 3e06 57bd eafa 39be 2bba a33e
00000050: 6f30 e43c 2b98 9fbe 43c5 703e c1b4 4f3e
00000060: de8c 5d3d ccf2 b13e 8173 6d3d 760a e63d
00000070: 874b c8be ca0b 1f3f b067 ae3d ce2b 363d
00000080: dc3f e03e 4ee9 0e3e 299d 923d a591 833e
00000090: 0714 683e a412 293e bcef b63e 9349 b13e
000000a0: cde7 dc3e e0fe b03e 7155 913e e86c 2f3f
000000b0: bb86 92be 68e1 003c ea46 b23e 75f3 a0be
000000c0: fc4e 44bc 33e8 70be 9bdf b439 74c5 3d3e
000000d0: d438 b23c 7054 5f3b c733 0ebe e795 9f3e
000000e0: e6aa bf3e 0fc6 eebc ae06 803e 8985 b93e
000000f0: 98dc ab3e f054 f93d cdfd 083e a609 2bbf
00000100: 9422 04be de41 0a3e aa94 c53e 2efa 053f
00000110: bcdc d23e 48b2 98bd eeb3 853d a233 2a3e
00000120: 12f3 133f f54b da3d 7d5f 473e 3804 623d
00000130: 2bd1 493e 8502 dfbe e560 5a3e aaab 0e3e
00000140: 6b8d c0bd 95ed cd3d bf88 e0be be3b d33e
00000150: d5cf 603d e984 4e3e dbc2 963e 75a2 e83e
00000160: 6ae7 a73e 28d9 8fbb 0aad 9e3e 0313 a83e
00000170: ca20 163b c4a1 43bd 3f81 243d 0371 4b3e
00000180: 47fe 0c3f 2273 4dbf 72dc 063e e3d7 e6be
00000190: 16a8 41bf 3ef7 cabb 1a93 173d 0c08 19bf
000001a0: a267 aebe 5353 f53e a015 ad3e 1863 13be
000001b0: 1295 833e df56 4c3e d0b5 21be 99f2 d43c
000001c0: 4ce5 683d dfd4 f83d 083d 92be b418 6ebe
000001d0: 2820 57bd 4d5f 883c cc57 073f 4026 353f
000001e0: e3f3 ba3d 47dc 42be b6cd 17bd b50c 3ebf
000001f0: f16f 6a3e 9515 013f 2eea b7be 0833 323e
00000200: 5ace 343f 1362 e0bd cbe4 7fbe dd96 a2bc
00000210: d8d9 ab3e 8739 203f d1bb f93e 6a7d 6a3f
00000220: b3ed 2ebe 231f 843e 74a5 f93e 3f34 663e
00000230: 6b12 523f a720 403f 7fc8 f23d 19be 863d
00000240: 8c8d ee3d 64c1 79bc 7e93 353e 549a 8ebd
00000250: 373e 053d 909f 11be 0ce2 193f 253b 35be
00000260: 2711 633c c74d 123f 0898 973e 57f4 ce3e
00000270: 6341 b6be 48b6 c73e fe6a 433e df3f 133e
00000280: cb57 5c3f ad59 3c3e 34f6 0d3f 2dde 34bf
00000290: a19d 83be 67aa 24bf 8cf2 d33d b5ab 86be
000002a0: 510d 883f adce 343f 3640 233f b387 503d
000002b0: 3f6f e1be a01e f4be 35af 6a3e 07b7 773e
000002c0: bb17 2e3e 03bd 413e c76c 6d3e b005 b73e
000002d0: b069 b53e 9514 0fbd f503 08bf 5bb9 a63e
000002e0: 921b 633e 8f8e 9ebe 1596 113f eaa6 23bf
000002f0: 7828 da3e 404c f73e 55fc b6be 3a37 b2bf
00000300: 9a9e 83bf df54 423f 498a c63d ed0c ea3e
00000310: e769 cd3e b76a 093e a038 763e 51ae 863c
00000320: 4f1b 8e3e 8d33 3c3e b706 403e 4f2a 173f
00000330: 7386 643f 1814 9dbf 978f d43e 1a50 f63e
00000340: b9fa 49bf a4be 593f ce48 b93e b737 0e3f
00000350: e8c3 fe3e 95af f03e 09a0 013f 4662 213f
00000360: 96f1 da3e 2446 06bf 03dd 2fbe dc08 6e3e
00000370: 3f53 473f 412a a63e 7669 233f 906b 93bd
00000380: eae1 fd3e d5a6 cdbe 8cec 0c3e e1ea 1a3e
00000390: 1c9b a3be 05ed 0a3f b748 bc3e 520e ca3e
000003a0: 8d37 ecbe 453a 673f 5128 093e f9f1 25bc
000003b0: 4349 853e a46e 64be f562 70bf 5610 a83e
000003c0: c8ce 593f 01a6 14bd ac95 133e 3255 c13d
000003d0: 392d f13e a677 c93e 8b92 273f cac3 903f
000003e0: 5c08 46be 465a 63be 7faa ef3d 18be 53bf
000003f0: 7203 d73e 801f 7d3f 3598 59be b511 c63e
0.21391438 -0.055266287 -0.010982126 0.53189564 0.6399353 0.17605248 0.053663 -0.057123356
0.1125651 0.426201 0.19887452 0.008711856 0.4200188 0.24521199 0.18879502 0.15138644
0.16970745 -0.052496187 -0.18162122 0.31977972 0.027855126 -0.31170782 0.2351275 0.20283796
0.05408942 0.34755552 0.05797148 0.11232464 -0.39120123 0.62127364 0.085158706 0.04447537
0.4379872 0.13956186 0.07158882 0.25697055 0.2266389 0.16511017 0.35729778 0.34626445
0.431456 0.34569454 0.283855 0.6852555 -0.28618416 0.007866241 0.34819728 -0.31435743
-0.011981722 -0.23526077 0.00034498874 0.18532354 0.021755613 0.0034077428 -0.13886939 0.31169054
0.37435073 -0.029147176 0.25005096 0.36234692 0.33566737 0.12174404 0.13378067 -0.668116
-0.12903816 0.13501689 0.38589984 0.5233487 0.41184032 -0.074558794 0.065284595 0.16621259
0.5779277 0.10659019 0.1947002 0.055179805 0.19708697 -0.4355661 0.21326025 0.13932672
-0.09401973 0.10055081 -0.4385433 0.41256517 0.054885704 0.20167889 0.29445538 0.45436445
0.32793742 -0.0043899007 0.30991393 0.32827005 0.0022907727 -0.047761694 0.04016232 0.1986733
0.55075496 -0.80253804 0.1317003 -0.45086583 -0.75647104 -0.0061940243 0.03700552 -0.59777904
-0.3406344 0.47915134 0.3380556 -0.1439327 0.2569967 0.19955014 -0.15792012 0.025994586
0.0568593 0.12149977 -0.28562188 -0.23251611 -0.0525209 0.016647005 0.5286834 0.7076149
0.09128549 -0.19029342 -0.037061416 -0.7423814 0.22894265 0.50423557 -0.35920852 0.1740228
0.7062737 -0.10956206 -0.24989621 -0.019847328 0.3356464 0.6258778 0.48776105 0.91597617
-0.17082863 0.25805005 0.48759043 0.22480868 0.82059354 0.75049824 0.11854648 0.06579227
0.11648092 -0.015243862 0.17732045 -0.069630295 0.032530036 -0.14221025 0.60110545 -0.17698343
0.01385907 0.5714993 0.29608178 0.40420792 -0.3559676 0.39006257 0.19083783 0.14379834
0.8607146 0.18393584 0.554538 -0.70651513 -0.257062 -0.64322513 0.103489965 -0.26302877
1.0629064 0.7062786 0.63769853 0.050910663 -0.44030187 -0.47679615 0.22918399 0.24190913
0.1700124 0.18919758 0.23186027 0.35746527 0.35432196 -0.034931738 -0.5313104 0.3256329
0.22178486 -0.3096814 0.5686963 -0.63926566 0.42609 0.48300362 -0.3573939 -1.3923104
-1.0282776 0.75910753 0.096943446 0.45712987 0.4011986 0.13419615 0.24045038 0.016440542
0.2775521 0.1837904 0.18752562 0.5904893 0.89267653 -1.2271757 0.415158 0.48107988
-0.788982 0.8505652 0.36188358 0.55553764 0.4975884 0.47008958 0.5063482 0.6304058
0.4276244 -0.52450776 -0.17174153 0.23245567 0.778614 0.32454112 0.63832796 -0.0719825
0.4958642 -0.40166345 0.1376211 0.15128662 -0.31954277 0.54267913 0.36774227 0.3946405
-0.46136132 0.9032329 0.13394286 -0.010128492 0.26032457 -0.22307831 -0.93900996 0.32824963
0.8508115 -0.036291126 0.14412564 0.09440078 0.47104815 0.39349097 0.6545798 1.130975
-0.19339126 -0.22202405 0.117024414 -0.82711935 0.41994816 0.9887619 -0.21249469 0.38685384

network_body._body_endoder.seq_layers.2.bias f4 [128]
00000000: ac15 3dbf 8d70 a3bf 03a9 3cbf 8ac3 eabe
00000010: 551e a0bf 650d 81bf c108 7bbf c705 4ebf
00000020: 837b 09bf e0c5 1ebf f9a0 7cbf 5392 87bf
00000030: 281a 9abf c800 44bf dfc6 80bf c13b 20bf
00000040: 9659 18bf 6c0f 17bf 3fd1 1dbf 0815 49bf
00000050: fcd1 4cbf 423e 79bf 2c83 76bf 0d37 5bbf
00000060: f45d 7cbf b476 4cbf 134a b9bf b9da b2bf
00000070: 91d3 81bf e002 b4be 6078 32bf 6084 57bf
00000080: 7e70 33bf 5797 4bbf bd5b 3fbf 5e2b 04bf
00000090: 5761 81bf 0143 64bf 9fc3 78bf 4e89 64bf
000000a0: d466 0bbf 690e ffbe 9292 21bf 8155 13bf
000000b0: 0eaa a3be e94e 36bf ecd8 2fbf 9c04 b9bf
000000c0: b79e 16bf 39e7 9dbf 681e a9bf e0d3 6abf
000000d0: 7e65 52bf 9fcd acbf 04ff 92bf 67b6 bbbf
000000e0: 383b 1cbf 4265 12bf f6c3 10bf 5d30 7fbf
000000f0: 8864 35bf 61f6 30bf 9344 85bf f3e5 0fbf
00000100: 82dd 9ebe 9035 0cbf c859 9bbe e48a 1dbf
00000110: 4bb2 5abf 7417 0bbf 4147 7bbf 5a64 33bf
00000120: 120d a2bf 41f2 aabf 3da4 71bf e374 8abf
00000130: 6e9e 76bf 780c 0cbf 421f 7dbf ac68 4abf
00000140: 96ce 64bf 846b 04bf d11a 0abf d8f8 f8be
00000150: f419 90bf c211 4dbf f8cc 7fbf fb8e 1bbf
00000160: df49 6ebf 9fcf 2fbf 3ac9 05bf 34a9 5fbf
00000170: 2d6c 15bf b154 58bf 350d 99bf 1007 f6be
00000180: ff28 70bf 0057 97bf 1716 74bf 053f 24bf
00000190: 1cad 87bf b625 56bf 4df1 5abf 772e 8ebe
000001a0: 233c 59bf 31ab 51bf 3a11 a7bc 91eb 59bf
000001b0: f616 5cbf 32b0 82bf 69b2 25bf f8bf d4be
000001c0: 7bea 40bf 3fee a5bf fd59 8abf bd9f 78bf
000001d0: 18ff a6bf 7e28 42bf 9e44 62bf 0f88 15bf
000001e0: 9627 87bf c471 2fbf 2c94 24bf 5b21 c0bf
000001f0: 7a0f 1cbf b0a6 55bf 0abc 45bf 8eb1 7cbf
-0.73861194 -1.2768723 -0.7369539 -0.4585231 -1.2509257 -1.0082213 -0.9806023 -0.80477566
-0.5370409 -0.62020683 -0.98683125 -1.059153 -1.2039232 -0.7656369 -1.0060691 -0.6259118
-0.595117 -0.59007907 -0.6164741 -0.78547716 -0.8000791 -0.9736062 -0.962939 -0.85630876
-0.9858086 -0.79868627 -1.4475731 -1.3972999 -1.014269 -0.35158443 -0.6971493 -0.84186363
-0.70093524 -0.795278 -0.74749357 -0.51628673 -1.0107831 -0.8916474 -0.97173494 -0.8927201
-0.5445378 -0.49815682 -0.63114274 -0.57552344 -0.3196568 -0.7121416 -0.6869037 -1.4454532
-0.5883593 -1.2336189 -1.3212404 -0.91729546 -0.82186115 -1.350025 -1.1484075 -1.466504
-0.6102786 -0.5718576 -0.5654901 -0.9968317 -0.70856524 -0.69125944 -1.0411552 -0.5621025
-0.31028372 -0.5476923 -0.30341935 -0.61540055 -0.85428303 -0.5433266 -0.981556 -0.70075
-1.2660239 -1.335518 -0.9439123 -1.0816921 -0.96335495 -0.54706526 -0.9887582 -0.79065967
-0.89377725 -0.51726556 -0.5394717 -0.48627353 -1.125792 -0.8010522 -0.9992213 -0.60765046
-0.9308147 -0.6867618 -0.5226017 -0.8736756 -0.5836819 -0.8450423 -1.1957155 -0.48052263
-0.93812555 -1.1823425 -0.95346206 -0.6415866 -1.0599704 -0.8365129 -0.85524446 -0.27769825
-0.84857386 -0.8190184 -0.020393956 -0.8512507 -0.85972536 -1.021002 -0.6472536 -0.4155271
-0.7535779 -1.2963332 -1.0808712 -0.9711874 -1.3046598 -0.75843036 -0.8838595 -0.58410734
-1.0558956 -0.6853297 -0.6428859 -1.5010179 -0.60961115 -0.8345747 -0.7724005 -0.98708427

action_model._continuous_distribution.log_sigma f4 [1, 2]
00000000: aa1f 44be e397 2d3e
-0.19152704 0.16952471

action_model._continuous_distribution.mu.weight f4 [2, 128]
00000000: 87e0 a0bc e38c 39bd 2880 303e 1f6e ea3d
00000010: e8ba 9d3c 54df 443d 9599 dbbd 9f58 ac3d
00000020: c13c 89be 695a f33d 4163 f23e 2fcc a0be
00000030: 61f1 303d 8585 033d c74f 603e 442e 513e
00000040: d6cc e83d b6d9 a23d dbd4 4e3e 0d45 35be
00000050: ff6a debd 43a6 babd a79c 623d 2c86 f3b9
00000060: 1b23 a7bd d8ac e23d e835 e8bc f12a d23c
00000070: 22a9 d6bb 1913 883d 2911 ab3d d7fd b03e
00000080: 63b7 663e 16f8 a5b9 43dd 3a3e d3f9 19be
00000090: 409f 923d f6bc 993e a92b 253e fab5 d93c
000000a0: da3f f7bd 9301 db3c 0b4e a73c 7c0c f73e
000000b0: 8085 953e cafc 1f3e 5ef2 59bd 6d24 35bc
000000c0: dca3 183c 000a 1c3c 85cb d7bc ca71 52bd
000000d0: e1bc 033e 3f3b 053d a4c7 a4bd 14f8 32bd
000000e0: 647f e83d bd7d 283e d8f2 323d 8419 4ebc
000000f0: db23 96bc 7c65 8f3e dda6 d43d 6109 f53d
00000100: c8fd 8abd 9197 d33e 7d68 a03d 7535 853d
00000110: a40d 2f3d 2abb 8d3e e1bc 61bc 4e99 bd3d
00000120: 8075 43bd 07f2 dabd b615 8ebd b72a 59be
00000130: 3d90 4a3c ece1 a23e 8f33 bcbc 8568 f73d
00000140: d0a9 0b38 ac17 bb3e f6bf f3bd 33a5 d63e
00000150: 6d8a 60bd edfd 10bd bba1 7d3e 0f1f 673c
00000160: c614 4dbc 0687 ee3d 1533 d93d 07d1 ccbc
00000170: aae8 063e 7c3f c43d 9751 85bd f15c 713d
00000180: fccd 11be b3f4 843d 773d 77bd 3c82 003e
00000190: 6d15 ac3d 02ed 3a3d aec2 48bd 2381 83bd
000001a0: f622 f1bd cdcf a9bd 33eb 17bd 1773 773e
000001b0: d994 6b3e 7681 f0bb ae42 263e c3c0 8f3d
000001c0: df15 b73c 2a09 f9bc 585d bdbd 56f8 d33d
000001d0: cf92 d2bb 3982 a9be 73c3 01be c4c2 c93e
000001e0: c4c6 0fbb a775 9a3b bb2e 39bd 2b2c 21bf
000001f0: d654 dd3c 180c 303d d82a b53d ab99 0dbd
00000200: a865 53bb 8653 9f3d 6cec 71bc 0fcd f23d
00000210: d3bd 723d b576 d23d df4b 123e 1733 e4bd
00000220: 1214 013f f383 633e 1c63 343e 3456 debd
00000230: 1cb4 ac3b 68e8 933d 7654 8dbe 32f0 b13d
00000240: efe8 c93e b216 453e 9fbf 23be 7cc7 f03d
00000250: a657 74be 8a95 943c a66e 5a3e de7e 2d3e
00000260: 3b76 e13d 227e 5b3e 9d16 99bc f3a3 2b3e
00000270: ada8 f13d fe68 97bc 8b36 2c3e 6d2f e3be
00000280: b2b4 fc3d e725 90be b15e 0bbd dcbf ae3d
00000290: b561 c5bd 7092 86bd 2b7e fabd d83d 133e
000002a0: 6c7b 18be 2ec2 b5be eeb6 4f3e 253f 4abe
000002b0: bbb4 123c 370c e83e aa27 f73e 22e1 2d3c
000002c0: dc89 843e 0ea7 973d 1ce0 843b e5aa 0f3d
000002d0: 412b 1ebe ebef 093d daf5 7c3d ec01 d0ba
000002e0: 0037 813e 532b 4fbe 0ea9 4abe a745 393d
000002f0: c233 6b3d aa64 413f 1cee 8dbc fef7 ebbd
00000300: a4d6 013c 7303 d4be c22f de3e 0fb9 60ba
00000310: 4f4b b0bd a7ba ad3e ab18 133e f400 cc3d
00000320: d36d bd3d 671b d83d 03a0 0f3e 599a 903d
00000330: 5d4e 5cba 67f0 85be ac92 903d 0312 033e
00000340: 7ac3 183d 7899 f63d 1d50 243f 5655 d83e
00000350: 789b e63c f76b 133e 4547 7cbe 49fa 113e
00000360: febc 533e 3a32 c1be eac7 013e 73c8 b6bd
00000370: 4237 683e 835d be3d ac7b 9c3d 2a4d 65be
00000380: 1b5b 533d 3a31 d63d 9b9c a13d 2338 063e
00000390: 4c0a f03d 3acc 393d a73b 193e 5057 443c
000003a0: 93b7 96be 1712 213d 2524 95bd e9fc 0e3e
000003b0: 6509 863d 3222 693d 6852 6c3e 0431 5b3e
000003c0: 921b c13d 95fb 38be 3bf4 053e 8bd9 fc3d
000003d0: f4f7 37be fabf 16bf 08a5 303e 9eed 7fbe
000003e0: bc0d 20be 01be 0cbd 0ee0 9bbe 1796 833e
000003f0: 6685 aa3d 2b0b 0e3e ecdc 5d3d 021a 5d3e
-0.019638313 -0.045300376 0.17236388 0.11446785 0.019254163 0.048064545 -0.10722653 0.08415341
-0.26804164 0.11882479 0.4734135 -0.3140578 0.043198947 0.032109756 0.21905433 0.20427805
0.11367194 0.07951681 0.20198385 -0.17702122 -0.10860252 -0.09113743 0.055325177 -0.00046448538
-0.08160993 0.110681236 -0.028346017 0.025655242 -0.006550924 0.066442676 0.083528824 0.34568664
0.22530894 -0.0003165609 0.18248467 -0.15036707 0.07159281 0.30026978 0.16129936 0.026576031
-0.120727256 0.02673415 0.020422956 0.48251712 0.29203415 0.15623775 -0.053209655 -0.011056048
0.009316411 0.009523869 -0.026342163 -0.05137805 0.1286502 0.032527205 -0.08045891 -0.043693617
0.11352423 0.16454215 0.043688625 -0.012579326 -0.018327644 0.28007114 0.10383389 0.119646795
-0.06786686 0.41326573 0.078324296 0.06504337 0.042737618 0.27681857 -0.013777942 0.09257756
-0.04771948 -0.10690694 -0.06937735 -0.212077 0.012363491 0.3181299 -0.022973804 0.120804824
3.3298333e-05 0.36541498 -0.11901848 0.41922912 -0.054819513 -0.035398412 0.24768727 0.014106526
-0.01251716 0.116468474 0.10605446 -0.025002016 0.13174692 0.09582421 -0.06509703 0.058926526
-0.14238733 0.06491985 -0.06036135 0.1254968 0.08402524 0.045636185 -0.049013786 -0.06421115
-0.117742464 -0.08291588 -0.037089538 0.24164997 0.23006 -0.0073396517 0.16236374 0.07019188
0.022349296 -0.030399878 -0.092463195 0.10350101 -0.0064261924 -0.33107165 -0.12672214 0.39406407
-0.0021938542 0.0047137323 -0.04521058 -0.6295802 0.027017992 0.042980283 0.088460624 -0.034570377
-0.0032256637 0.07779603 -0.01476584 0.11855518 0.05926306 0.10276548 0.14286755 -0.11142557
0.5042125 0.22218303 0.17615932 -0.10856286 0.005270494 0.07222062 -0.276035 0.08688392
0.39435527 0.19246939 -0.15991066 0.117567986 -0.2386156 0.018137712 0.21331272 0.16942927
0.11008879 0.21434835 -0.01868754 0.1676176 0.117997505 -0.018482681 0.16817681 -0.4437212
0.123391524 -0.28153917 -0.03402585 0.08532688 -0.09637777 -0.065708995 -0.12231096 0.1437906
-0.14890832 -0.3549971 0.20284626 -0.1975065 0.008954222 0.4532182 0.4827245 0.010612758
0.25886428 0.0740491 0.004055036 0.035075087 -0.15446188 0.03367607 0.0617579 -0.0015869713
0.25237274 -0.2023137 -0.19791052 0.04523244 0.057422407 0.75544226 -0.017325453 -0.1152191
0.0079247095 -0.41408882 0.4339581 -0.0008572498 -0.08608114 0.33931467 0.14364879 0.09961119
0.09249463 0.105521016 0.14025883 0.070606895 -0.0008404011 -0.26159975 0.070592254 0.1279984
0.037295796 0.120409906 0.64184743 0.42252606 0.028150305 0.14396654 -0.24636562 0.14255632
0.20677564 -0.37733632 0.12673917 -0.089249514 0.22677329 0.0929518 0.07640776 -0.22392717
0.051600557 0.10458608 0.07891198 0.13107352 0.11720714 0.04536078 0.14964162 0.011983708
-0.2943693 0.039323892 -0.07282285 0.13963665 0.065447606 0.056917377 0.2307831 0.21405417
0.09429087 -0.18064721 0.13081448 0.123461805 -0.1796568 -0.58886683 0.17250454 -0.24992988
-0.15630239 -0.03436089 -0.30444378 0.25700447 0.08326225 0.13871448 0.054165766 0.21591952

action_model._continuous_distribution.mu.bias f4 [2]
00000000: 6b45 ff3c 0367 e5bd
0.03116103 -0.112012886

action_model._discrete_distribution.branches.0.weight f4 [3, 128]
00000000: 8ba1 063f 8f4f 4e3e f55f 4dbf 35ee 75be
00000010: d1ea 193d 0ae3 a4bc 08df f5be c6e6 6f3e
00000020: d680 f5bd 9c6e fcbd c365 f6bd b390 b0be
00000030: a976 0f3e 4713 bc3e 22ad 7f3e 58bf b4be
00000040: 976b 013d d77e 523d 8ecd b2be 3470 44be
00000050: f6c8 c5be 26d4 6cbe 830d 61bd 49b8 023c
00000060: 0cc2 9dbe 7311 2a3e 9cb9 a33e 2bc6 133f
00000070: 18de c5be 23c7 a2bf 5bb7 afbd 7f9f d0bd
00000080: 7c26 bbbd e007 1ebe b758 dfbe a51d 4e3e
00000090: 53b9 833f 744c bfbe df20 c1be a4a9 4cbe
000000a0: baa0 24bf 9038 23bf fd32 3abf bc1d 1d3e
000000b0: 5ed0 c03a 4c86 c2bd b649 e13c 2201 7f3e
000000c0: 3cfa b43e 67cc 1abe b2a6 fc3c 7282 7c3f
000000d0: 51a8 053e f44c 373f 73bf 3ebe a4bf 113f
000000e0: 0889 9f3e 082d 24bf 9556 8cbe 6d08 f7be
000000f0: 5053 853f 47c2 623e 872e 9c3d 7fcd 47be
00000100: 7b94 ae3e d620 543e 4259 5abd c0aa 003f
00000110: 85c3 99be 0aa2 88bf a62b 49be f2ca 8cbf
00000120: f7a1 dc3e b170 843e 9d2d 10bf a23a f8bc
00000130: f723 eebd 8189 40bf ddc5 4ebe 731b 0a3e
00000140: f07e 7f3e e57b abbe 166d 8abe 17cc 943e
00000150: a578 af3d f0d2 6abe 766f ff3d 36e9 6fbd
00000160: 3620 ebbe 54be c8be 55c3 18bc 28a1 89bf
00000170: 6f03 793a b79a a03e c0e6 993e 1e8e b0be
00000180: 5372 193e ef9a 5abe 275a b2be 0357 1e3e
00000190: 231b e63e 836d 7abe 2482 b8be f034 cabe
000001a0: 1e9c 8dbe 5422 283e 0cdd 213e 8c1c 96bd
000001b0: 86af e8be c215 45be a270 d7be 00b0 08be
000001c0: 6ab2 edbe 6798 293e adac 63bd 09f8 563d
000001d0: cf9e ef3e b42d c5bd 1554 0b3a 4366 a7be
000001e0: e3fe 80bf 10ea 743f 55ab 9c3c 0ad4 aa3e
000001f0: 21d0 b03e ee52 883d 03ee a6be e2b5 8bbe
00000200: 728c f3be 7f28 97be 1ec4 883e 21f4 983e
00000210: 5533 91bd 98fb d8bd 142b d03d 53fc 01bf
00000220: 3a52 99be 0a08 043d 95ee 47bd d124 21be
00000230: c17d 8ebe 1fa0 69be c146 35bd 3caa 973e
00000240: c860 283e 9d57 d13c e9e3 0abe 87ee f8bd
00000250: 3e35 8a3e d55c 27bd dd16 143d fc2f b2bc
00000260: d40c 53bd 5c19 303d ec45 cbbe 3b04 1cbe
00000270: 20b9 4e3e 1989 603b 30a7 413e a998 46be
00000280: 01f0 7bbe d61f 5dbe 9d21 0b3d 19ff 283e
00000290: df7c 5bbe 2145 f93d e0b1 c33e f4c4 ef3b
000002a0: 48d2 3e3e def8 583e 5d9d 883d 0db1 75be
000002b0: 7277 7a3e 50ec 9cbd 8a17 e23d 09e0 703e
000002c0: 734f d4bd 637a 0dbe 56d7 01be cc7b 873b
000002d0: d5b5 76be 4283 dd3d 9227 013d e1c2 143f
000002e0: fb18 bbbc 6961 e6bd f176 06bd c903 863e
000002f0: c425 6f3a a81f 813e 4a28 9e3d 098b 93be
00000300: c614 b8be d865 29bb 5bd3 fa3d 18e3 dcbd
00000310: 5446 7f3e 1073 ba3e 46ef 85bc 5ef1 1cbd
00000320: 2998 fe3e 8f8b 673e 223f f23c 8d4a 96be
00000330: ce9a 313e 8069 e33d 72cf d4bd 83cf 96be
00000340: ea8b 07be ee05 83be d5d2 8bbe b672 4e3e
00000350: ace0 3cbe f1cc 04bd 3b32 163d 32f3 703e
00000360: 35bd 313e 3957 cdbd b5a3 323e c86e 023f
00000370: c4e1 bc3e d368 97bd 9323 58be 954f 033e
00000380: b5f6 adbd 146e d5ba f4f1 b8bd 85b3 473e
00000390: da9d bfbd 7c88 b5be 505c 843d 702f 5b3f
000003a0: 9638 2abe 93bc ddbe 6c27 1cbd 4f0b 893e
000003b0: 4eac 61bd 9215 3ebc abb9 4ebc 5f39 fc3d
000003c0: 0784 393e e7fb 85be 5291 df3b be31 8b3e
000003d0: 3d75 90be 582b 843d 86e4 233e 9175 65be
000003e0: ac5b a6bc 91d6 54bf 5120 cc3d 27ac de3e
000003f0: 7baf a33e 5f7e 033e 6e3d 0f3e 28ca cc3d
0.52590245 0.20147537 -0.80224544 -0.2401665 0.037577454 -0.020127792 -0.48021722 0.23427877
-0.11987464 -0.123257846 -0.12031128 -0.34485397 0.14010109 0.36733457 0.24968389 -0.35302234
0.031596746 0.051390495 -0.3492245 -0.19183427 -0.38629884 -0.23127803 -0.054944526 0.007978507
-0.3081211 0.16608219 0.31977546 0.57724255 -0.38646007 -1.2717022 -0.08579894 -0.101866715
-0.091382 -0.15432692 -0.43622372 0.20128496 1.0290931 -0.37363017 -0.3772039 -0.19986588
-0.6430775 -0.6375818 -0.7273405 0.15343374 0.0014710536 -0.09498271 0.027500968 0.24902776
0.35347164 -0.15117036 0.030841205 0.98636544 0.13052489 0.71601796 -0.1862772 0.56933045
0.31159234 -0.6413121 -0.27409807 -0.48248616 1.041605 0.22144423 0.07626062 -0.19511984
0.34097657 0.20715651 -0.05330778 0.50260544 -0.30031982 -1.067445 -0.19645557 -1.0999434
0.4309232 0.25867227 -0.563196 -0.030301396 -0.116279535 -0.75209814 -0.20192666 0.13487034
0.24950767 -0.33492962 -0.2703635 0.29061958 0.08567933 -0.22932029 0.12472431 -0.058572017
-0.45923012 -0.3920771 -0.009323915 -1.0752306 0.0009499108 0.31368038 0.3005886 -0.34483427
0.14985017 -0.21348165 -0.34834406 0.1546288 0.4494258 -0.24455838 -0.3603679 -0.39493513
-0.2765817 0.16419345 0.15806979 -0.07329664 -0.45446414 -0.19246581 -0.4207812 -0.13348389
-0.46425182 0.16562043 -0.0555846 0.05248264 0.4680085 -0.09627858 0.00053149584 -0.32695207
-1.0077785 0.9566965 0.019124666 0.33364898 0.3453379 0.066564426 -0.32603464 -0.27287203
-0.4756809 -0.29523084 0.26712126 0.29873756 -0.07089869 -0.10594863 0.101644665 -0.5077564
-0.29945546 0.03223423 -0.048811514 -0.157367 -0.27830318 -0.22814988 -0.04425693 0.29622066
0.16443169 0.025554473 -0.13563503 -0.121548705 0.26993746 -0.040860016 0.036154617 -0.021751396
-0.051525906 0.042992935 -0.39701784 -0.15235989 0.20187807 0.0034261404 0.18911433 -0.19394173
-0.24603273 -0.21594176 0.033967603 0.16503562 -0.21434353 0.121713884 0.38221645 0.00731718
0.18634903 0.21188685 0.0667064 -0.23993321 0.24459627 -0.076622605 0.11039646 0.23522963
-0.10366716 -0.13816218 -0.126798 0.004134631 -0.24092801 0.10816051 0.031531878 0.5810986
-0.02283906 -0.11249048 -0.032828275 0.26174763 0.0009122754 0.25219464 0.07722528 -0.28817013
-0.3595335 -0.0025848057 0.12247344 -0.10785502 0.24929172 0.3641591 -0.016349446 -0.038316123
0.49725464 0.22611831 0.02957112 -0.29353753 0.1734421 0.11104107 -0.103911296 -0.29455194
-0.13236967 -0.25590461 -0.2730929 0.20160946 -0.1844508 -0.03242201 0.036668997 0.23530272
0.17357333 -0.10026402 0.17445262 0.5095029 0.36890996 -0.073930405 -0.2110732 0.12823327
-0.08494321 -0.0016283416 -0.09030524 0.19502075 -0.0935628 -0.35455692 0.0646292 0.8561926
-0.16623148 -0.43307933 -0.038123533 0.2676644 -0.055095963 -0.011601822 -0.012617509 0.1231563
0.1811677 -0.2616875 0.0068227435 0.27186388 -0.28214446 0.0645358 0.16005144 -0.2240813
-0.020307384 -0.831399 0.09967101 0.43490717 0.31969818 0.12841175 0.13988277 0.09999496

action_model._discrete_distribution.branches.0.bias f4 [3]
00000000: ad1e e1be 4dfe e33b 41fc e83e
-0.43968716 0.0069578052 0.45504954

action_model._discrete_distribution.branches.1.weight f4 [3, 128]
00000000: 7945 b8bd 675d 5cbe a1dd e5be ad43 0abf
00000010: fec8 b93d ea04 39bc 388e f0be 1656 7bbd
00000020: 952e fc3e ff9d 833c 8c23 a03b eb47 963e
00000030: c2bf 83bd 326b 5f3e 0627 703e 1495 1a3d
00000040: f595 29bd 6907 073e e1b9 e6be c9c3 cabe
00000050: 4859 93bf 6539 aebe 0570 cd3a 44a0 12be
00000060: 4074 88be b34c 8e3d 6b07 463d 037d bc3d
00000070: 0a85 86be 7c9d acbe c8b8 a33e 4a7e 40bf
00000080: 506c 2abc 6b82 e7be e6f6 3bbe f6fd 13bf
00000090: 4f39 dabe 73f3 f73d e4ff a8bc 44de b5be
000000a0: a49b c9be c5f8 6fbf ccbf e83e cdba a5be
000000b0: 6227 9d3e 90f0 c7be 0c59 c53e 312c f53d
000000c0: 3b92 663e 1617 99be 1021 2a3e b8e8 883e
000000d0: cd21 e13d 2ee3 10bd 423e 16bd edb7 cc3d
000000e0: 9090 abbd bb55 1dbf e1e3 3f3e ac2a fcbe
000000f0: a43e 7fbe 04ea 583d d4a9 15be fe27 eabe
00000100: 0875 85be 7df0 b73c 332d 97be 0e57 a43e
00000110: 4038 fa3d 23ff a33e 00d3 7cbe f1e1 d73d
00000120: 4642 d43e 8453 8c3e b5da cfbe e360 82bf
00000130: 8910 533e eab9 a1be fa5b 1fbe 61dc 33be
00000140: 2deb 0bbe ffa0 54bd bd2f 1ebe c9f5 df3c
00000150: e07a a2bd 35c8 8abc faf6 7abe 74f6 083e
00000160: 53df 49be a5b9 09be e0fd fd3d 0ff9 4b3d
00000170: 802e bcbd 4bc6 1c3e fd8a 01be 3531 45be
00000180: 9b4a 78be 5f9d 83be 2df2 f9be 17fd c5bd
00000190: 1698 063e 6444 4d3d b1da cfbd cee6 7bbe
000001a0: 4f48 09bf 307e 20be 3e47 15be cb45 a03d
000001b0: 5123 cebe 5ffc 28be 26e8 bbbe c190 d8be
000001c0: 55c0 13bf c14a 66bd 350b 29be c371 fcbd
000001d0: 9d2c 2fbf a6ae a83c 65d0 5b3d 6cc1 28be
000001e0: 35d8 48bf 95ac d5bd 29f0 f1be d7c2 fd3e
000001f0: 1aab 1e3e f5f1 c83d 9f2d 5bbe 73d7 70be
00000200: 610a 0dbf b642 60be fb0e 553e 9c96 b53d
00000210: d34c 83be e060 5ebe 2ef9 6bbc bccc 863d
00000220: 7c7b 8bbd 5418 93be 7be2 f23d 8702 fcbe
00000230: 4b92 c1bd 9fbe fcbe eecd dfbe 05ad c4be
00000240: 3ef5 69be 7e63 acbe 813a 54be 55e0 233e
00000250: c002 b73e 31c0 c63c 1551 b7be 4623 2ebe
00000260: b323 2cbe ebf9 dcbe 2d39 08be e3c7 98be
00000270: 7574 0abe eaed 533f 5662 37be 317d 9a3e
00000280: 308c 93be 0f23 0cbe c489 253e 3ef1 ac3d
00000290: 14f1 4fbc 1e47 45bd df79 64be 897b 0dbe
000002a0: 070f 043e fd20 453d 32ec 863e 2f58 4e3e
000002b0: a25f 843e 052e 2ebe 119f b43b ee9b b6bf
000002c0: 2212 603e 2b1e 9dbe 02a6 41be 96cf b4be
000002d0: e556 db3d 825f 2fbf 75f0 85be c594 a4bf
000002e0: aab8 53bd 26c0 3c3e a625 cfbe a7fd 463e
000002f0: b46b 7bbe b156 133e 64ce 17bf f851 97be
00000300: c3c6 663e d7d6 1bbc 3b5d ff3d ac54 edbd
00000310: 7a20 053d 05e2 38bd 25d4 5ebd 23d0 48be
00000320: 7376 babf e19c ed3d 6c75 043e 0e9c 8a3e
00000330: 2ce9 2abe 072e 3c3e 7dc7 4abe 8d60 c1be
00000340: 6a90 49be 0a62 af3c 4601 c9bd ab9e 183e
00000350: bd21 e5be d3d4 62be f9e6 5cbe 3375 83be
00000360: b0a1 b4be d5d7 64bd 0da0 b1be c13c 9f3e
00000370: beb1 b03d c52c c4be ccca e63c 22eb 9abd
00000380: 8bd3 09be b190 68be 9770 02be ec90 283e
00000390: a0c9 28bf 33a6 53be 8eea 3dbe f5c4 e6be
000003a0: 53d5 20be 6441 28bf 0840 d83e 1408 473e
000003b0: 2874 fd3d fa73 c9bd 9f67 133e 2319 953e
000003c0: 9571 c13d 8dfe 42be 077e 11be 7734 7bbe
000003d0: b202 efbd 92a0 7a3e e472 8bbe b817 8ebe
000003e0: 05f3 e3be bf87 143f f4cb 9b3e 3d7c bf3e
000003f0: 5400 0bbf a7a2 93be 1154 a9be 4892 42be
-0.08997626 -0.21520005 -0.44895652 -0.54009515 0.09071539 -0.0112926755 -0.46983504 -0.061361395
0.4925429 0.01606655 0.00488705 0.29351744 -0.06433059 0.21818236 0.23452386 0.03773983
-0.041402776 0.1318642 -0.4506369 -0.39602497 -1.1511621 -0.34028164 0.0015673643 -0.14318949
-0.26651192 0.06948223 0.048346918 0.092035316 -0.26273376 -0.337139 0.31976914 -0.751927
-0.0104018 -0.4521669 -0.18355903 -0.5780939 -0.42621848 0.12106981 -0.02062983 -0.35521138
-0.39376557 -0.9373897 0.4545883 -0.3236908 0.3069411 -0.39050722 0.385445 0.119713195
0.2251672 -0.29900426 0.16614175 0.2674005 0.10992775 -0.035372905 -0.036680467 0.099960186
-0.083771825 -0.6145894 0.18739273 -0.49251306 -0.24926239 0.05295755 -0.14615566 -0.45733637
-0.2606585 0.022453541 -0.29526672 0.32097667 0.1221776 0.3203059 -0.24689865 0.10541142
0.41456813 0.27407467 -0.40596548 -1.0185817 0.20611776 -0.31587154 -0.1556243 -0.17564537
-0.13663931 -0.05191135 -0.15447898 0.02733888 -0.07933593 -0.01694117 -0.24508277 0.13375264
-0.19714098 -0.13449724 0.124019384 0.049798068 -0.09188557 0.15310018 -0.12650676 -0.19257052
-0.2424721 -0.25706002 -0.48817578 -0.09667414 0.13143954 0.05011405 -0.10149134 -0.24599764
-0.5362596 -0.15673137 -0.14577958 0.07825812 -0.4026132 -0.16502522 -0.36700553 -0.42297938
-0.5771535 -0.056223635 -0.16508181 -0.12326386 -0.6842745 0.020591091 0.053665537 -0.16480035
-0.78454906 -0.10433308 -0.4725354 0.49562714 0.15494958 0.09811775 -0.21404122 -0.23519687
-0.5509396 -0.21900448 0.20806496 0.08866617 -0.2564455 -0.21716642 -0.014402671 0.06582019
-0.06810662 -0.28729498 0.11859604 -0.49220678 -0.09451731 -0.49364182 -0.437118 -0.38413253
-0.22847459 -0.33669657 -0.20725442 0.16003545 0.35744286 0.024261566 -0.35804048 -0.17005643
-0.16810493 -0.43159422 -0.13303061 -0.2984 -0.13520987 0.82784903 -0.17908606 0.30173638
-0.28817892 -0.13685249 0.16165835 0.08444451 -0.012691755 -0.048163526 -0.22312115 -0.13816656
0.12896357 0.048127163 0.26352078 0.20150827 0.25854212 -0.17009743 0.0055121263 -1.4266336
0.21881917 -0.3068708 -0.18910983 -0.35314626 0.10709933 -0.6850511 -0.26160017 -1.2857901
-0.05168978 0.18432674 -0.4045841 0.19432698 -0.24552804 0.14388539 -0.592993 -0.29554725
0.22536759 -0.009511671 0.12468954 -0.115884155 0.032501675 -0.045137424 -0.054401536 -0.19610648
-1.4567398 0.11602188 0.12935418 0.27072185 -0.1669051 0.18376933 -0.19802661 -0.37768975
-0.19683996 0.021409053 -0.09814696 0.14904277 -0.44752303 -0.22151498 -0.21572484 -0.25675353
-0.35279608 -0.055869896 -0.34692422 0.3110104 0.08627652 -0.38315406 0.028172873 -0.07564379
-0.13459603 -0.22711445 -0.12738262 0.16461533 -0.65932655 -0.20668869 -0.18546507 -0.4507214
-0.15706377 -0.6572478 0.42236352 0.19436675 0.12375671 -0.09836574 0.14394997 0.2912074
0.09445492 -0.19042416 -0.14208232 -0.24531732 -0.11670436 0.24475315 -0.27236092 -0.2775247
-0.44521347 0.5801963 0.3042904 0.37399474 -0.54297376 -0.2883503 -0.3307195 -0.19001114

action_model._discrete_distribution.branches.1.bias f4 [3]
00000000: 1ff9 f9be 0e05 493e ee12 b73e
-0.48822877 0.19630834 0.3575663

exp_avg f4 [128, 13]
00000000: 15fb 5ab7 cefa 8f36 8f7b 0038 221a 1db7
00000010: 0000 0000 0d4d 47b7 1a33 1c38 cbff fe37
00000020: aab3 1a38 98c5 b9b7 58ae e138 b7cd c837
00000030: 622c 1d38 9293 8eb6 9e68 9cb7 e863 06b8
00000040: cfcf 8237 0000 0000 4498 a637 8fc0 2db8
00000050: 710c adb6 8780 10b8 625c 2e38 a91d c8b8
00000060: a1db 0438 d333 3cb8 f744 0bba d6fc c1ba
00000070: 443d 83ba 31e3 d837 0000 0000 1e11 b73a
00000080: 2657 7cba 5311 82ba 2020 feb9 4b4d 093b
00000090: 4bf0 5eba a4b1 073b 26fd 35ba 32ad 4db8
000000a0: 1fca 1cba 32cf 2fb9 cc73 9339 0000 0000
000000b0: 3f1c bd39 ee72 a3b9 9137 4e39 81c4 d0b8
000000c0: 9dc6 3f39 1875 6339 6fb1 5439 043a 20b5
000000d0: 82d3 7db8 e24c 3339 cc70 17b8 bead 49b9
000000e0: 0000 0000 af81 74b7 1998 f038 e831 3ab9
000000f0: cb40 2bb9 87a1 90b8 565c f0b8 884f e938
00000100: 8738 a7b8 c49f 5cb7 ca21 9c35 a9d0 7837
00000110: 9f11 c5b6 0000 0000 5382 a137 3aa6 08b7
00000120: 4e4b 53b8 847a 3c36 1252 9bb7 9ecb a9b7
00000130: b9f6 1eb6 f536 29b8 c92b 25b7 4e7b 7bb8
00000140: bf3e 3ab8 aadf 6c37 0000 0000 c9d4 3438
00000150: 58d9 f6b7 56c6 f0b7 d8bc 9137 ee80 4c38
00000160: d282 2c38 e403 8c38 9156 a6b7 eff7 7eb5
00000170: 5887 2c38 8662 5038 f7af 10b8 0000 0000
00000180: b9da b734 432e d337 5ab3 2eb8 7123 17b8
00000190: 8571 00b7 2e0c c8b7 0f6e 09b8 1456 c1b7
000001a0: 2fe3 9e39 cfce de38 f8d2 8e39 d297 22b9
000001b0: 0000 0000 fd13 0cb9 fbc7 adb8 b340 a039
000001c0: 0c65 e138 da70 bdb9 0c6e 9a39 ae12 08ba
000001d0: b909 8537 dafc 1d39 ba96 8cb8 887d 8a38
000001e0: 811d 30b9 0000 0000 f568 4bb8 831b 6438
000001f0: 806e cf39 234a 75b9 7fe0 71b7 bdb9 113a
00000200: 8570 de36 3edd 1739 d41a cc38 52ca 4539
00000210: 0b19 a438 5fba 44b9 0000 0000 4451 2bb9
00000220: 8173 4a39 0e67 2239 a71b cd38 75eb 76b8
00000230: 7e94 0239 faf0 9938 ec23 e738 2e66 4cb6
00000240: d9e9 b538 4182 ea38 23c6 f8b8 0000 0000
00000250: 9b79 6638 035c a538 6b3a fa38 bb19 de37
00000260: f293 48b9 d4fe 6d38 be6f 47b9 3865 8338
00000270: fa49 1136 5024 35b7 8619 9536 a42a 3e37
00000280: 0000 0000 9cd2 0ab7 daea b035 ff98 9837
00000290: ca4b 2c38 70a2 77b7 7e3f 4737 4cb5 2eb7
000002a0: a920 4737 5a94 1338 39ac 5737 5535 9eb7
000002b0: 3f07 f0b6 0000 0000 74e9 d4b7 558d eb36
000002c0: 167a fb37 0973 4637 ea8e 28b7 7787 5838
000002d0: 3164 ea36 29d1 a235 041b 5cb8 5aff 83b7
000002e0: d15a 1a38 b5e5 4738 0000 0000 73d5 0138
000002f0: dbc7 9eb7 f9d1 20b8 698d 0b38 0e39 6db8
00000300: 7792 d7b7 0b07 16b6 1117 10b8 a581 fcb7
00000310: aaf6 5db8 3281 a837 dedf 1c38 0000 0000
00000320: c95d 3538 40a4 57b8 f89c a137 b7f4 1f37
00000330: b5f4 c838 2230 0cb9 3fba 4cb8 fea9 40b7
00000340: 625d 4ab7 8199 ccb7 338e 28b6 a9b1 3ab6
00000350: 0000 0000 d953 fe37 5062 a7b7 6213 92b8
00000360: 0fe3 2b38 f89b 4a38 4027 ae36 e23e 8938
00000370: e0f1 79b8 06d8 c537 d876 a037 162e af38
00000380: 01db 7bb9 0000 0000 1670 6fb9 0617 3e3a
00000390: e60d c439 669b 3639 b231 7839 8787 db3a
000003a0: 2b97 c839 eeac 493a 506d 4bb7 0154 99b6
000003b0: 850e 26b7 0c2b 50b7 0000 0000 a214 0037
000003c0: 1cac 1c37 697e e935 3aa9 b134 a856 8d37
000003d0: 5974 d535 fd43 2338 8fa3 e236 4f0b ff38
000003e0: 00f7 0739 5f34 1e39 e9bd 1fb9 0000 0000
000003f0: 348c 2ab9 d4f3 1d39 5c3d e739 accb b2b9
-1.3052272e-05 4.2909296e-06 3.063265e-05 -9.364014e-06 0.0 -1.1879264e-05 3.724089e-05 3.0398272e-05
3.6883786e-05 -2.214573e-05 0.0001076131 2.3937651e-05 3.747305e-05 -4.249109e-06 -1.8645365e-05 -3.2041135e-05
1.5593976e-05 0.0 1.9859646e-05 -4.142575e-05 -5.15725e-06 -3.4451976e-05 4.157087e-05 -9.542268e-05
3.1675798e-05 -4.4870958e-05 -0.0005312706 -0.0014800082 -0.0010012765 2.5855e-05 0.0 0.0013966893
-0.0009626023 -0.0009923376 -0.0004847059 0.0020950611 -0.00085044344 0.0020705247 -0.0006942324 -4.903711e-05
-0.0005981046 -0.00016766487 0.000281243 0.0 0.00036069934 -0.00031175412 0.00019666391 -9.9548146e-05
0.00018289169 0.00021692028 0.00020283995 -5.968907e-07 -6.0516883e-05 0.00017099411 -3.6106256e-05 -0.00019233578
0.0 -1.4573728e-05 0.00011472422 -0.00017756934 -0.00016331968 -6.896542e-05 -0.00011461291 0.000111251196
-7.9737096e-05 -1.315022e-05 1.163274e-06 1.4830534e-05 -5.873109e-06 0.0 1.9253383e-05 -8.144934e-06
-5.0376453e-05 2.8085497e-06 -1.8515657e-05 -2.0241187e-05 -2.3687446e-06 -4.0343923e-05 -9.844961e-06 -5.99579e-05
-4.4404293e-05 1.4118772e-05 0.0 4.3113516e-05 -2.9426694e-05 -2.8702587e-05 1.7373284e-05 4.8757465e-05
4.112983e-05 6.676445e-05 -1.9829053e-05 -9.4983164e-07 4.1134044e-05 4.968282e-05 -3.4496155e-05 0.0
3.4245548e-07 2.5174702e-05 -4.1651867e-05 -3.6034213e-05 -7.655825e-06 -2.384753e-05 -3.2765845e-05 -2.3047476e-05
0.00030305373 0.00010624306 0.00027241535 -0.00015506081 0.0 -0.00013358887 -8.286532e-05 0.00030565783
0.000107476575 -0.0003613297 0.0002945516 -0.0005190772 1.5859363e-05 0.00015066881 -6.703795e-05 6.603735e-05
-0.00016795659 0.0 -4.849672e-05 5.438506e-05 0.00039564446 -0.00023392639 -1.4416989e-05 0.0005558988
6.6292146e-06 0.00014482901 9.732475e-05 0.00018862754 7.824794e-05 -0.00018761445 0.0 -0.00016338105
0.0001930725 0.00015487915 9.7803124e-05 -5.8870257e-05 0.00012453084 7.340494e-05 0.00011021629 -3.0457845e-06
8.67431e-05 0.00011182251 -0.00011862467 0.0 5.4949527e-05 7.8849516e-05 0.0001193181 2.6476444e-05
-0.000191286 5.674253e-05 -0.00019019746 6.26542e-05 2.1649744e-06 -1.0796895e-05 4.4435174e-06 1.1334811e-05
0.0 -8.274477e-06 1.3181373e-06 1.8191056e-05 4.107858e-05 -1.4760168e-05 1.1876107e-05 -1.041342e-05
1.1868929e-05 3.5185694e-05 1.2855097e-05 -1.8859902e-05 -7.153401e-06 0.0 -2.538108e-05 7.019999e-06
2.9978382e-05 1.1828503e-05 -1.0046855e-05 5.1624575e-05 6.9854073e-06 1.2130814e-06 -5.2477248e-05 -1.5735324e-05
3.680104e-05 4.765923e-05 0.0 3.0954787e-05 -1.8928133e-05 -3.8342525e-05 3.327188e-05 -5.655834e-05
-2.56982e-05 -2.2355841e-06 -3.4353758e-05 -3.0101111e-05 -5.292023e-05 2.0087322e-05 3.740179e-05 0.0
4.3241107e-05 -5.1412964e-05 1.926579e-05 9.534116e-06 9.5823234e-05 -0.00013369371 -4.8810845e-05 -1.1483671e-05
-1.2061881e-05 -2.4390176e-05 -2.5116722e-06 -2.7819572e-06 0.0 3.0318204e-05 -1.9953732e-05 -6.965433e-05
4.0981042e-05 4.830581e-05 5.1901734e-06 6.544382e-05 -5.959149e-05 2.3584824e-05 1.9128827e-05 8.3532344e-05
-0.0002401881 0.0 -0.00022834571 0.00072513556 0.00037394388 0.00017414763 0.00023669636 0.0016748764
0.00038259602 0.000769331 -1.2125194e-05 -4.5695347e-06 -9.897752e-06 -1.2407789e-05 0.0 7.6341985e-06
9.338397e-06 1.7396643e-06 3.3091948e-07 1.6848862e-05 1.5903598e-06 3.8925547e-05 6.7543656e-06 0.00012161454
0.00012966618 0.00015087564 -0.00015234169 0.0 -0.00016264693 0.0001506352 0.0004410547 -0.00034102553
