results/EasyZigZagAgent1/My Behavior/My Behavior-940.pt (torch, 164959 bytes, 25 tensors)

discrete_act_size_vector f4 [1, 2]
0	0x40400000	3.0
1	0x40400000	3.0

network_body.observation_encoder.processors.0.normalizer.running_mean f4 [13]
0	0x43de689a	444.8172
1	0x43f072f2	480.898
2	0x4404cd43	531.2072
3	0x43af3598	350.4187
4	0x00000000	0.0
5	0x448126aa	1033.2083
6	0x43acdabb	345.70883
7	0x43faa937	501.322
8	0x44ce9d02	1652.9065
9	0xc1dda398	-27.70488
10	0x41fabd68	31.342484
11	0x43b21cf9	356.22635
12	0x43b7ce7d	367.6132

network_body.observation_encoder.processors.0.normalizer.running_variance f4 [13]
0	0x4c3c954e	4.943596e+07
1	0x4c5dfa00	5.8189824e+07
2	0x4c486433	5.2531404e+07
3	0x4bc46876	2.5743596e+07
4	0x3f800000	1.0
5	0x4d034616	1.3765053e+08
6	0x4c2bfb41	4.5083908e+07
7	0x4c8ff13b	7.5467224e+07
8	0x4dcbb0f2	4.271714e+08
9	0x4aaf6143	5.7468495e+06
10	0x4a9a01c9	5.0465005e+06
11	0x4d7e518b	2.666723e+08
12	0x4cfb3558	1.3170554e+08

network_body.processors.0.normalizer.running_mean f4 [13]
0	0x43de689a	444.8172
1	0x43f072f2	480.898
2	0x4404cd43	531.2072
3	0x43af3598	350.4187
4	0x00000000	0.0
5	0x448126aa	1033.2083
6	0x43acdabb	345.70883
7	0x43faa937	501.322
8	0x44ce9d02	1652.9065
9	0xc1dda398	-27.70488
10	0x41fabd68	31.342484
11	0x43b21cf9	356.22635
12	0x43b7ce7d	367.6132

network_body.processors.0.normalizer.running_variance f4 [13]
0	0x4c3c954e	4.943596e+07
1	0x4c5dfa00	5.8189824e+07
2	0x4c486433	5.2531404e+07
3	0x4bc46876	2.5743596e+07
4	0x3f800000	1.0
5	0x4d034616	1.3765053e+08
6	0x4c2bfb41	4.5083908e+07
7	0x4c8ff13b	7.5467224e+07
8	0x4dcbb0f2	4.271714e+08
9	0x4aaf6143	5.7468495e+06
10	0x4a9a01c9	5.0465005e+06
11	0x4d7e518b	2.666723e+08
12	0x4cfb3558	1.3170554e+08

network_body._body_endoder.seq_layers.0.weight f4 [128, 13]
0	0x3c282d44	0.010264698
1	0x3da35c9d	0.07976649
2	0xbe8671e0	-0.26258755
3	0xbe4327eb	-0.19058196
4	0x3e7c0a3f	0.24613284
5	0xbda71ed9	-0.081601806
6	0x3daf5484	0.08561042
7	0x3e72ab6a	0.23698202
8	0xbeab9caf	-0.33517978
9	0x3d74b236	0.059740268
10	0x3daba2e7	0.083806805
11	0xbe412438	-0.18861473
12	0x3e473286	0.19452867
13	0x3ee2fbff	0.44332883
14	0xbc49e3f0	-0.012322411
15	0x3e1d7956	0.15378317
16	0x3e3ba857	0.18325935
17	0x3e64d7e8	0.22347987
18	0xbe1072da	-0.14106312
19	0x3d823ae9	0.063588925
20	0xbc563646	-0.013074463
21	0xbea5529d	-0.3228959
22	0x3ec08de4	0.37608254
23	0xbebe2d7c	-0.37144077
24	0xbe92fdb2	-0.2870918
25	0x3eca504d	0.3951439
26	0xbe1c5443	-0.15266518
27	0x3dad2189	0.08453662
28	0xbddb2cb1	-0.107018836
29	0x3ea38f2f	0.31945178
30	0xbe252295	-0.16126473
31	0xbd73f95e	-0.059563987
32	0x3f11ef87	0.57006115
33	0xbd8e8a60	-0.06959987
34	0x3e872d1e	0.2640161
35	0x3d92e323	0.07172229
36	0xbe8621e5	-0.26197734
37	0x3da39c69	0.07988817
38	0x3dda9284	0.10672477
39	0x3e91f1ba	0.28504735
40	0x3e420777	0.1894816
41	0x3cb7b963	0.022427266
42	0xbb5441bc	-0.0032387814
43	0xbde54a20	-0.11195779
44	0xbe8cf63c	-0.27531612
45	0xbd769c5a	-0.060207702
46	0xbd8bee47	-0.06832557
47	0xbee26ba3	-0.44222745
48	0x3e27b8df	0.16379116
49	0xbcf24732	-0.029574964
50	0x3f1679ce	0.5877961
51	0x3e93fee5	0.28905407
52	0xbda73acb	-0.08165511
53	0xbe796ec9	-0.24358667
54	0xbe954735	-0.2915589
55	0x3e8b13c7	0.27163526
56	0x3ede3b5a	0.43404657
57	0x3e0ce44a	0.1375896
58	0x3d94f184	0.07272628
59	0xbe248434	-0.16066056
60	0x3e1cd719	0.15316428
61	0xbe52f949	-0.20602907
62	0xbe577853	-0.21041994
63	0x3f43c43d	0.7647131
64	0xbe414a03	-0.1887589
65	0x3efd54cd	0.4947876
66	0x3ebad54a	0.36490852
67	0x3ee54101	0.44776157
68	0xbe9dd98c	-0.30830038
69	0x3f2e8650	0.68173695
70	0x3d421f00	0.047392845
71	0xbebb9702	-0.36638647
72	0x3ed764cb	0.42069086
73	0xbd77f8a5	-0.06053986
74	0x3f585101	0.844986
75	0xbc538713	-0.012910622
76	0xbeb43e66	-0.35203856
77	0xbd0c0368	-0.034182936
78	0xbe1a685f	-0.15078877
79	0xbd89c2a3	-0.06726577
80	0x3d6001f7	0.054689374
81	0xbeaa338f	-0.3324246
82	0xbef730c3	-0.4827939
83	0xbdbce82e	-0.09223972
84	0x3ef4456d	0.47709218
85	0xbdc458bd	-0.09587238
86	0x3df2ee22	0.118618265
87	0x3ed12762	0.4085036
88	0x3e6cbc65	0.23118742
89	0x3f07038a	0.52739775
90	0x3c281fb1	0.010261462
91	0x3e752e30	0.239434
92	0x3b295327	0.0025836916
93	0x3e3c9646	0.184167
94	0x3d9bb0e8	0.076021016
95	0x3d0ddc83	0.034634124
96	0x3eea4648	0.45756745
97	0x3ef35dc1	0.47532466
98	0xbc48ecd6	-0.012263497
99	0x3e1ae501	0.1512642
100	0x3bdc6cb7	0.006726827
101	0x3c8f488d	0.01749065
102	0xbd58dc29	-0.052944336
103	0xbdd9eedf	-0.10641264
104	0x3d56cfba	0.052444197
105	0xbe47e692	-0.1952155
106	0xbd0f88cb	-0.035042565
107	0x3e66459c	0.22487491
108	0xbde03dc1	-0.109492786
109	0xbd2b921f	-0.0418874
110	0x3ed6b0fe	0.4193191
111	0x3e4f2832	0.20230177
112	0xbdfb2afd	-0.12264059
113	0xbedd45df	-0.4321737
114	0x3e188d39	0.14897622
115	0xbaf4696a	-0.0018647138
116	0x3ee290c0	0.4425106
117	0xbdc8657f	-0.09784984
118	0x3cae5968	0.021282867
119	0xbd3818ff	-0.044945713
120	0x3e155105	0.14581688
121	0xbeaacb90	-0.3335843
122	0x3eabe817	0.33575508
123	0x3e856856	0.26056165
124	0x3e91a3ad	0.28445187
125	0xbe80f98e	-0.25190395
126	0x3efea511	0.4973531
127	0x3e776f97	0.24163662
128	0xbeecf028	-0.46276975
129	0xbe3c5d05	-0.18394859
130	0xbe840201	-0.2578278
131	0x3ee6431a	0.4497307
132	0xbe2e26fe	-0.17007062
133	0xbd266ee5	-0.0406331
134	0x3eb7cb14	0.35897124
135	0xbf04822d	-0.5176113
136	0xbdb37e36	-0.08764307
137	0x3ead4401	0.33840945
138	0x3ecc2303	0.39870462
139	0x3d0f2174	0.034944013
140	0xbd5c82ed	-0.053835798
141	0x3e7adada	0.24497548
142	0x3e236e0e	0.15959951
143	0xbe520145	-0.20508297
144	0xbe8d0819	-0.2754524
145	0xbe62992a	-0.2212874
146	0x3dda2468	0.10651475
147	0x3d9e9b8f	0.07744514
148	0xbce3568e	-0.027751233
149	0xbe358c82	-0.1772938
150	0x3ca6d577	0.02036546
151	0xbd8e1300	-0.06937218
152	0xbd6138b3	-0.054985713
153	0xbeea752e	-0.45792526
154	0xbc2680e3	-0.010162565
155	0x3b3cccea	0.0028808662
156	0x3e32b3ae	0.17451355
157	0xbe57f660	-0.21090078
158	0x3e2c7c36	0.16844258
159	0xbe898924	-0.26862442
160	0xbe67c188	-0.2263242
161	0xbe74308a	-0.23846641
162	0xbe2ed90c	-0.17074984
163	0xbe62676c	-0.22109765
164	0x3eb8d0ea	0.3609689
165	0xbddad91d	-0.10685942
166	0xbdb80db2	-0.08986987
167	0xbdfb2a21	-0.12263895
168	0xbe4afb38	-0.19822395
169	0xbbc6c06c	-0.006065419
170	0xbe2e717a	-0.17035475
171	0x3e9b71d7	0.3036029
172	0xbb7dd1c9	-0.0038729778
173	0x3e06fd73	0.1318262
174	0xbe20627f	-0.15662573
175	0x3e1fa061	0.15588523
176	0x3a951df9	0.001137673
177	0x3e4e9077	0.20172296
178	0x3e339c59	0.1754011
179	0xbe2fc9af	-0.1716678
180	0x3e331282	0.17487529
181	0xbe64dc56	-0.22349676
182	0x3dfb61f7	0.12274545
183	0xbf065739	-0.5247684
184	0xbe23904f	-0.15973018
185	0x3e42ad29	0.19011368
186	0x3d0a4e02	0.0337658
187	0x3c84fe16	0.016234439
188	0xbf131b85	-0.57463866
189	0xbe96f4b1	-0.2948356
190	0xb91b1e7d	-0.0001479331
191	0xbd8c69b2	-0.06856097
192	0x3eacda48	0.33760285
193	0xbecf6be6	-0.40512007
194	0xbdf04eea	-0.11733802
195	0x3d932cd2	0.07186283
196	0x3d081c42	0.033230074
197	0x3d33bdbf	0.043882128
198	0x3e7e4fff	0.24835204
199	0xbe95700b	-0.29187045
200	0xbea8f897	-0.3300216
201	0x3e9c9d8f	0.30588958
202	0x3cd930aa	0.026512463
203	0x3e252fdc	0.16131538
204	0xbd2d7f19	-0.042357538
205	0xbe543ee6	-0.20727119
206	0x3ea2932c	0.31752908
207	0x3e8f91b7	0.2804086
208	0x3e1f9c08	0.15586865
209	0x3e93bbc9	0.28854206
210	0x3e8ab0d6	0.2708804
211	0xbe6ca90c	-0.23111361
212	0xbf177cd1	-0.5917483
213	0xbe511299	-0.2041725
214	0xbe6f841b	-0.23390238
215	0x3e840ba4	0.2579013
216	0x3e9d1296	0.30678242
217	0x3ea073cd	0.3133835
218	0xbb7d69af	-0.0038667729
219	0x3d45974a	0.048239984
220	0xbe6cabb9	-0.23112382
221	0xbed024b3	-0.40653
222	0xbd7840e0	-0.060608745
223	0x3c826c52	0.015920792
224	0x3d811e8b	0.06304654
225	0x3de39a43	0.111134075
226	0x3cdce200	0.026963234
227	0xbee40908	-0.4453814
228	0x3db5ae78	0.08871168
229	0xbe8e8d09	-0.27841976
230	0x3e87e56e	0.26542228
231	0x3e71946d	0.23591776
232	0xbec61206	-0.38685626
233	0x3e1c8021	0.15283252
234	0xbf06a688	-0.52597857
235	0xbea1d030	-0.31604147
236	0x3da787c9	0.08180196
237	0x3da670e0	0.08126998
238	0x3dca6f31	0.09884489
239	0x3e08ad32	0.13347319
240	0xbd01b044	-0.03166224
241	0xbc0e494a	-0.008684466
242	0x3d3bbc74	0.04583402
243	0xbd1daf3f	-0.038497206
244	0xbe0d152f	-0.13777612
245	0x3ec0815d	0.37598696
246	0xbe824d44	-0.25449574
247	0xbe55dd44	-0.20885187
248	0xbe0c7550	-0.13716626
249	0x3ecdeaaf	0.40218112
250	0xbe2c6e43	-0.16838937
251	0xbdd6f292	-0.10495485
252	0x3e4e926d	0.20173045
253	0xbe161d47	-0.14659606
254	0xbeb170fe	-0.3465652
255	0x3c13493b	0.0089896275

network_body._body_endoder.seq_layers.0.bias f4 [128]
0	0x00000000	0.0
1	0x00000000	0.0
2	0x00000000	0.0
3	0x00000000	0.0
4	0x00000000	0.0
5	0x00000000	0.0
6	0x00000000	0.0
7	0x00000000	0.0
8	0x00000000	0.0
9	0x00000000	0.0
10	0x00000000	0.0
11	0x00000000	0.0
12	0x00000000	0.0
13	0x00000000	0.0
14	0x00000000	0.0
15	0x00000000	0.0
16	0x00000000	0.0
17	0x00000000	0.0
18	0x00000000	0.0
19	0x00000000	0.0
20	0x00000000	0.0
21	0x00000000	0.0
22	0x00000000	0.0
23	0x00000000	0.0
24	0x00000000	0.0
25	0x00000000	0.0
26	0x00000000	0.0
27	0x00000000	0.0
28	0x00000000	0.0
29	0x00000000	0.0
30	0x00000000	0.0
31	0x00000000	0.0
32	0x00000000	0.0
33	0x00000000	0.0
34	0x00000000	0.0
35	0x00000000	0.0
36	0x00000000	0.0
37	0x00000000	0.0
38	0x00000000	0.0
39	0x00000000	0.0
40	0x00000000	0.0
41	0x00000000	0.0
42	0x00000000	0.0
43	0x00000000	0.0
44	0x00000000	0.0
45	0x00000000	0.0
46	0x00000000	0.0
47	0x00000000	0.0
48	0x00000000	0.0
49	0x00000000	0.0
50	0x00000000	0.0
51	0x00000000	0.0
52	0x00000000	0.0
53	0x00000000	0.0
54	0x00000000	0.0
55	0x00000000	0.0
56	0x00000000	0.0
57	0x00000000	0.0
58	0x00000000	0.0
59	0x00000000	0.0
60	0x00000000	0.0
61	0x00000000	0.0
62	0x00000000	0.0
63	0x00000000	0.0
64	0x00000000	0.0
65	0x00000000	0.0
66	0x00000000	0.0
67	0x00000000	0.0
68	0x00000000	0.0
69	0x00000000	0.0
70	0x00000000	0.0
71	0x00000000	0.0
72	0x00000000	0.0
73	0x00000000	0.0
74	0x00000000	0.0
75	0x00000000	0.0
76	0x00000000	0.0
77	0x00000000	0.0
78	0x00000000	0.0
79	0x00000000	0.0
80	0x00000000	0.0
81	0x00000000	0.0
82	0x00000000	0.0
83	0x00000000	0.0
84	0x00000000	0.0
85	0x00000000	0.0
86	0x00000000	0.0
87	0x00000000	0.0
88	0x00000000	0.0
89	0x00000000	0.0
90	0x00000000	0.0
91	0x00000000	0.0
92	0x00000000	0.0
93	0x00000000	0.0
94	0x00000000	0.0
95	0x00000000	0.0
96	0x00000000	0.0
97	0x00000000	0.0
98	0x00000000	0.0
99	0x00000000	0.0
100	0x00000000	0.0
101	0x00000000	0.0
102	0x00000000	0.0
103	0x00000000	0.0
104	0x00000000	0.0
105	0x00000000	0.0
106	0x00000000	0.0
107	0x00000000	0.0
108	0x00000000	0.0
109	0x00000000	0.0
110	0x00000000	0.0
111	0x00000000	0.0
112	0x00000000	0.0
113	0x00000000	0.0
114	0x00000000	0.0
115	0x00000000	0.0
116	0x00000000	0.0
117	0x00000000	0.0
118	0x00000000	0.0
119	0x00000000	0.0
120	0x00000000	0.0
121	0x00000000	0.0
122	0x00000000	0.0
123	0x00000000	0.0
124	0x00000000	0.0
125	0x00000000	0.0
126	0x00000000	0.0
127	0x00000000	0.0

network_body._body_endoder.seq_layers.2.weight f4 [128, 128]
0	0xbe0a74bb	-0.13521092
1	0xbd0be97b	-0.03415821
2	0x3e0fbc61	0.14036705
3	0x3e4925ab	0.19643275
4	0x3da3167a	0.079632714
5	0xbc5c1624	-0.013433013
6	0xbcb4fb84	-0.022092588
7	0xbe2874d1	-0.16450812
8	0xbe16cd35	-0.14726718
9	0x3e0264b1	0.12733723
10	0xbc3967bf	-0.011316239
11	0x3d874de3	0.066066526
12	0xbdd7c159	-0.10534925
13	0xbbb0aeb3	-0.0053919195
14	0x3e0d8893	0.1382163
15	0x3ddbe080	0.10736179
16	0xbd8607fe	-0.06544493
17	0x3eac0bf4	0.3360287
18	0x3e5a4c21	0.21318103
19	0xbe00a8e3	-0.12564425
20	0x3b720f54	0.0036935406
21	0xbbfc6819	-0.007702839
22	0x3d6c372e	0.05766981
23	0xbda6cff9	-0.081451364
24	0x3dbd4983	0.09242537
25	0x3b9c4518	0.004768979
26	0xbd5c11f0	-0.053728044
27	0x3ce21e84	0.027602442
28	0x3e37a796	0.17935023
29	0x3cbc2e1e	0.02297121
30	0xbd696f6b	-0.056991022
31	0xbd0a559f	-0.03377306
32	0x3c4bb037	0.01243215
33	0xbdc1efc7	-0.09469562
34	0x3d3e84f3	0.04651351
35	0x3cf549c5	0.029942403
36	0x3ddd1d68	0.107966244
37	0xbdc7651c	-0.09736082
38	0xbd760dfd	-0.060071934
39	0xbd70c67a	-0.058783032
40	0x3d95806b	0.072998844
41	0xbd2fa188	-0.042878658
42	0x3dca8ca4	0.09890106
43	0x3d9150c4	0.07095483
44	0xbd30c7fe	-0.043159477
45	0xbe0faf0c	-0.14031619
46	0x3d3a6b59	0.04551253
47	0xbaa03c30	-0.0012224969
48	0x3d17bf11	0.03704745
49	0xbc90135c	-0.017587356
50	0x3c8907ac	0.016727291
51	0xbdb3bc84	-0.08776191
52	0xbe164e19	-0.1467823
53	0x3ca3c350	0.019990593
54	0xbdeb75ea	-0.114971
55	0x3dad76ba	0.08469911
56	0xbc9a45d0	-0.018832117
57	0xbdb36269	-0.087590046
58	0x3d2f612e	0.042817287
59	0xbd78e2e8	-0.06076327
60	0x3cebe298	0.028794572
61	0xbd6ac18c	-0.057313487
62	0x3bc9537e	0.0061439862
63	0xbd898871	-0.06715477
64	0xbd75a8a0	-0.059975266
65	0xbcbf0b65	-0.023320863
66	0x3df59c11	0.11992658
67	0xbe3b949c	-0.18318409
68	0xbd97613a	-0.07391591
69	0xbd454164	-0.048158064
70	0x3d230e19	0.039808366
71	0x3e878ed2	0.2647615
72	0xbdf87129	-0.121309586
73	0x3d4bf524	0.04979433
74	0xbd957e99	-0.07299537
75	0xbd0909d2	-0.03345663
76	0xbcd7fa35	-0.026364425
77	0x3ce37b30	0.027768701
78	0xbc092824	-0.008371387
79	0x3d56077e	0.05225324
80	0xbe0a0c92	-0.13481358
81	0xbd6a8a3f	-0.057260748
82	0xbd211858	-0.039329857
83	0xbd50c936	-0.05097314
84	0xbd9fb1f0	-0.07797611
85	0xbd44f1b4	-0.04808207
86	0xbd8305d9	-0.063976
87	0x3d9ffe63	0.07812192
88	0xbd89b030	-0.06723058
89	0xbe0bc41d	-0.1364903
90	0x3d302d87	0.04301217
91	0xbdf21f16	-0.118223354
92	0x3da08e21	0.07839609
93	0x3c10ee4d	0.008845878
94	0x3d8ee912	0.069780484
95	0xbd31e48c	-0.04343085
96	0x3df2c2c6	0.11853556
97	0x3e3e020f	0.18555473
98	0x3b67ff64	0.0035400027
99	0xbd1b126e	-0.037859373
100	0x3d2e7a24	0.04259695
101	0x3cc582b5	0.024110178
102	0xbda2ecea	-0.07955344
103	0x3c870536	0.016481977
104	0x3d7b79dd	0.061395515
105	0x3c7e0a1a	0.015505338
106	0xbe01046f	-0.12599348
107	0xbd8e28f2	-0.069414034
108	0xbd666e9a	-0.05625782
109	0x3d5dc747	0.054145124
110	0x3d3f8b00	0.04676342
111	0xbab7ec9e	-0.0014032309
112	0xbe177df9	-0.14794149
113	0xbb35f65e	-0.0027765254
114	0x3da97e92	0.082760945
115	0xbb230c4d	-0.0024879158
116	0xbcd5949b	-0.026071837
117	0x3dab0ea6	0.08352403
118	0xbdb43e93	-0.088009976
119	0xbdc4c844	-0.0960851
120	0xbdc67672	-0.096905604
121	0x3c998966	0.018742274
122	0xbe049df0	-0.12950873
123	0xbe371187	-0.1787778
124	0x3d7d8aab	0.061899822
125	0x3e2bcfa7	0.16778432
126	0xbe22046f	-0.15822004
127	0xba49dc54	-0.0007700373
128	0x3cfa6a58	0.030568287
129	0xbbeff01f	-0.007322326
130	0xbe210674	-0.15725118
131	0xbc7239ea	-0.014784316
132	0xbde82a82	-0.11336233
133	0xbe069668	-0.13143313
134	0x3e1dc932	0.15408781
135	0x3c755c32	0.014975594
136	0xbd8f5bdc	-0.06999943
137	0x3c6186fe	0.013765095
138	0x3debbb1c	0.11510298
139	0x3c9f7f5a	0.019469906
140	0x3e7bfb65	0.24607618
141	0x3e0a1884	0.13485914
142	0x3d75f4b4	0.06004782
143	0x3da0882c	0.07838473
144	0x3d9f1420	0.077675104
145	0x3e18a5d9	0.14907016
146	0x3b359677	0.0027708092
147	0xbe08ae71	-0.13347794
148	0x3c8d8bc6	0.017278563
149	0xbd8b871f	-0.06812882
150	0xbc066898	-0.008203648
151	0x3ca33cb8	0.019926414
152	0x3dce7519	0.10080928
153	0x3cbd22f6	0.02308796
154	0x3d4cba42	0.049982317
155	0xbd0404ce	-0.032231145
156	0x3d5c57bf	0.05379462
157	0xbcfcf4b3	-0.0308784
158	0xbdcf5bf4	-0.101249605
159	0xbd993810	-0.07481396
160	0x3d9b46b8	0.07581848
161	0x3df784ad	0.12085853
162	0xbd73ea53	-0.05954964
163	0xbd520b02	-0.05128003
164	0x3df03364	0.11728552
165	0x3dcc16d2	0.0996529
166	0xbea30962	-0.31843096
167	0xbe41961d	-0.1890492
168	0xbe15b965	-0.14621504
169	0x3dd31d23	0.10308292
170	0x3d032029	0.032013092
171	0xbcc148b2	-0.023594234
172	0xbda736c9	-0.08164746
173	0x3db4414f	0.08801519
174	0x3d01ccbd	0.031689394
175	0xbe12772c	-0.14303273
176	0x3d69fc82	0.057125576
177	0x3ce13510	0.027491122
178	0xbd99ee06	-0.075161025
179	0x3de2c907	0.11073499
180	0xbe1b7ff5	-0.1518553
181	0xbc6fab03	-0.014628175
182	0x3ddb4da7	0.107081704
183	0x3c31c08b	0.0108491285
184	0xbbf6ae5c	-0.0075281095
185	0x3dfb7d9b	0.12279817
186	0xbcf2d43a	-0.029642213
187	0x3d190408	0.03735736
188	0xbd84ff39	-0.06493992
189	0xbb6a73bf	-0.0035774556
190	0xbd0c6201	-0.03427315
191	0x3d4ce41d	0.050022233
192	0x3d007701	0.03136349
193	0xbd31e1b3	-0.043428134
194	0x3d26fe43	0.040769827
195	0xbd2455c6	-0.040120862
196	0xbe8083ef	-0.25100657
197	0xbca37010	-0.019950897
198	0x3c99b096	0.01876096
199	0xbda6ec97	-0.08150595
200	0xbcc14fc0	-0.023597598
201	0x3e29eb1d	0.16593595
202	0x3d82a1a8	0.0637849
203	0x3e1bdfe6	0.15222129
204	0x3cabbfb7	0.02096544
205	0x3d09f4db	0.033680778
206	0x3df95d42	0.12175991
207	0x3b6d0888	0.0036168415
208	0xbca04f4e	-0.019569065
209	0xbd31ed15	-0.04343899
210	0x3b1f94ff	0.0024350283
211	0x3e3849cd	0.17996903
212	0xbdd46220	-0.10370278
213	0xbbf6e5de	-0.0075347265
214	0x3e67ae4f	0.22625087
215	0x3e0b2b1e	0.13590667
216	0x3e44ec6d	0.19230814
217	0xbca59980	-0.020214796
218	0xbdc56c73	-0.09639826
219	0x3e1ade76	0.15123925
220	0x3c99a17c	0.01875376
221	0xbd0b4409	-0.03400043
222	0x3e39d13a	0.1814622
223	0xbd3fb2ca	-0.046801366
224	0x3d835a76	0.064137384
225	0x3d3acb21	0.045603875
226	0xbd2e39b2	-0.04253549
227	0xbe6d615e	-0.23181674
228	0x3c2a5b21	0.010397703
229	0x3d498736	0.049201213
230	0x3cc1fb6c	0.023679458
231	0xbd9c6e49	-0.07638223
232	0x3dd4ef79	0.10397238
233	0xbcf618d5	-0.030041138
234	0xbd7362cc	-0.059420392
235	0xbe30f121	-0.17279483
236	0x3ba529a1	0.005040363
237	0x3e12cf8b	0.14336984
238	0x3e11c32c	0.14234608
239	0x3c957a94	0.018246926
240	0x3db117e3	0.08647134
241	0x3e089673	0.13338642
242	0xbd2ca3f2	-0.042148538
243	0xbe1c1575	-0.1524256
244	0x3e0c7fde	0.13720652
245	0x3dd4911a	0.103792384
246	0xbcf54d67	-0.029944135
247	0xbd899375	-0.06717578
248	0x3e1c803b	0.15283291
249	0x3ca5878e	0.02020624
250	0xbcad90bd	-0.02118718
251	0xbdb4cf63	-0.088286184
252	0xbcb26df1	-0.02178094
253	0xbd9892f7	-0.07449906
254	0xbca03e40	-0.019560933
255	0xbcc840e9	-0.024445014

network_body._body_endoder.seq_layers.2.bias f4 [128]
0	0x00000000	0.0
1	0x00000000	0.0
2	0x00000000	0.0
3	0x00000000	0.0
4	0x00000000	0.0
5	0x00000000	0.0
6	0x00000000	0.0
7	0x00000000	0.0
8	0x00000000	0.0
9	0x00000000	0.0
10	0x00000000	0.0
11	0x00000000	0.0
12	0x00000000	0.0
13	0x00000000	0.0
14	0x00000000	0.0
15	0x00000000	0.0
16	0x00000000	0.0
17	0x00000000	0.0
18	0x00000000	0.0
19	0x00000000	0.0
20	0x00000000	0.0
21	0x00000000	0.0
22	0x00000000	0.0
23	0x00000000	0.0
24	0x00000000	0.0
25	0x00000000	0.0
26	0x00000000	0.0
27	0x00000000	0.0
28	0x00000000	0.0
29	0x00000000	0.0
30	0x00000000	0.0
31	0x00000000	0.0
32	0x00000000	0.0
33	0x00000000	0.0
34	0x00000000	0.0
35	0x00000000	0.0
36	0x00000000	0.0
37	0x00000000	0.0
38	0x00000000	0.0
39	0x00000000	0.0
40	0x00000000	0.0
41	0x00000000	0.0
42	0x00000000	0.0
43	0x00000000	0.0
44	0x00000000	0.0
45	0x00000000	0.0
46	0x00000000	0.0
47	0x00000000	0.0
48	0x00000000	0.0
49	0x00000000	0.0
50	0x00000000	0.0
51	0x00000000	0.0
52	0x00000000	0.0
53	0x00000000	0.0
54	0x00000000	0.0
55	0x00000000	0.0
56	0x00000000	0.0
57	0x00000000	0.0
58	0x00000000	0.0
59	0x00000000	0.0
60	0x00000000	0.0
61	0x00000000	0.0
62	0x00000000	0.0
63	0x00000000	0.0
64	0x00000000	0.0
65	0x00000000	0.0
66	0x00000000	0.0
67	0x00000000	0.0
68	0x00000000	0.0
69	0x00000000	0.0
70	0x00000000	0.0
71	0x00000000	0.0
72	0x00000000	0.0
73	0x00000000	0.0
74	0x00000000	0.0
75	0x00000000	0.0
76	0x00000000	0.0
77	0x00000000	0.0
78	0x00000000	0.0
79	0x00000000	0.0
80	0x00000000	0.0
81	0x00000000	0.0
82	0x00000000	0.0
83	0x00000000	0.0
84	0x00000000	0.0
85	0x00000000	0.0
86	0x00000000	0.0
87	0x00000000	0.0
88	0x00000000	0.0
89	0x00000000	0.0
90	0x00000000	0.0
91	0x00000000	0.0
92	0x00000000	0.0
93	0x00000000	0.0
94	0x00000000	0.0
95	0x00000000	0.0
96	0x00000000	0.0
97	0x00000000	0.0
98	0x00000000	0.0
99	0x00000000	0.0
100	0x00000000	0.0
101	0x00000000	0.0
102	0x00000000	0.0
103	0x00000000	0.0
104	0x00000000	0.0
105	0x00000000	0.0
106	0x00000000	0.0
107	0x00000000	0.0
108	0x00000000	0.0
109	0x00000000	0.0
110	0x00000000	0.0
111	0x00000000	0.0
112	0x00000000	0.0
113	0x00000000	0.0
114	0x00000000	0.0
115	0x00000000	0.0
116	0x00000000	0.0
117	0x00000000	0.0
118	0x00000000	0.0
119	0x00000000	0.0
120	0x00000000	0.0
121	0x00000000	0.0
122	0x00000000	0.0
123	0x00000000	0.0
124	0x00000000	0.0
125	0x00000000	0.0
126	0x00000000	0.0
127	0x00000000	0.0

action_model._continuous_distribution.log_sigma f4 [1, 2]
0	0x00000000	0.0
1	0x00000000	0.0

action_model._continuous_distribution.mu.weight f4 [2, 128]
0	0x3cc9ee0b	0.02464964
1	0x3ca13447	0.019678248
2	0xbb1abd86	-0.00236115
3	0x3b34787e	0.002753764
4	0xbca5c7a1	-0.020236792
5	0xbaadc90a	-0.0013258767
6	0xbd064d16	-0.03278836
7	0x3cbedbfe	0.02329826
8	0x3bc02174	0.005863363
9	0xbca3aac9	-0.019978898
10	0xbcd75295	-0.026284495
11	0xbcb1e697	-0.0217164
12	0x3a58ed55	0.00082751113
13	0xbd59b8c8	-0.053154737
14	0xbc5054ba	-0.012715513
15	0x3cff4032	0.03115854
16	0x3caedcf6	0.021345597
17	0xbb61dfa8	-0.0034465585
18	0xbc96221c	-0.018326811
19	0xbae85480	-0.0017725378
20	0x3cd93750	0.026515633
21	0x3d17d533	0.037068557
22	0x3bda3760	0.0066594332
23	0xbc8d5e55	-0.017256895
24	0xbbec66d0	-0.0072144046
25	0xbb7905b3	-0.0037997782
26	0xbb3d30fd	-0.002886831
27	0xbab2a963	-0.0013630803
28	0x3ca9ae20	0.020712912
29	0x3b0a0cbf	0.0021064726
30	0xbb4b34f0	-0.0031006895
31	0xbbbae727	-0.005703825
32	0xbbd603e2	-0.0065312246
33	0xbcdcdcaa	-0.02696069
34	0xbcaf9e60	-0.021437824
35	0x3d0d0c34	0.034435466
36	0x3b9507d8	0.004548054
37	0xbbc343b0	-0.0059589967
38	0xbaa3cb4d	-0.0012496501
39	0x3b4f039a	0.003158784
40	0x3c33265d	0.0109344395
41	0x3ca8a545	0.02058662
42	0x3b21e6f5	0.0024704312
43	0xbaf5079b	-0.0018694283
44	0xbb1c546a	-0.0023854026
45	0xbb744543	-0.0037272729
46	0xbaeba317	-0.0017977682
47	0xbaf53cf0	-0.0018710177
48	0xbc1d84c4	-0.009614173
49	0x3c54f08f	0.012996807
50	0xbc24df47	-0.010062999
51	0xbb967b63	-0.0045923456
52	0x3b729c53	0.0037019446
53	0x39298a7e	0.00016168688
54	0xbc9c8eae	-0.019111004
55	0x3ca33aa7	0.019925429
56	0xbcbf4427	-0.023347927
57	0x3b638777	0.0034718195
58	0x3c09fa54	0.008421499
59	0xba3e5ca9	-0.0007261732
60	0x3c9b93a6	0.018991303
61	0x3c810a89	0.015752094
62	0x3cea111a	0.028572608
63	0xbc4c0833	-0.012453127
64	0x3a50c7cd	0.0007964343
65	0x3cafbfd1	0.02145377
66	0x3b94b44f	0.004538096
67	0x3bc6726c	0.0060561206
68	0x3c8a0860	0.016849697
69	0xbc1b13ff	-0.009465217
70	0x3d109229	0.03529564
71	0x3c9e4917	0.019321961
72	0x3ba9430a	0.0051654624
73	0xbc99b37e	-0.018762346
74	0xbcd24fb3	-0.02567277
75	0x3bc1c7b3	0.0059136986
76	0x3becad3b	0.007222799
77	0xbcde536b	-0.027139386
78	0x3b927896	0.0044699414
79	0x3cc035c7	0.023463143
80	0x3b38479b	0.0028118852
81	0xbd0f5e21	-0.035001878
82	0xbc25aefb	-0.010112519
83	0xbbbd743f	-0.00578168
84	0xbca80b10	-0.020513088
85	0xbb6c15ed	-0.003602381
86	0xbca6df6b	-0.020370206
87	0xbba395e3	-0.004992233
88	0xbab995f5	-0.001415907
89	0xbc413c47	-0.011794156
90	0x3c235c13	0.009970683
91	0x3c44356b	0.011975626
92	0xbd33d828	-0.043907315
93	0xbb23d0e2	-0.002499633
94	0x3cfd39ea	0.030911405
95	0x3c84efea	0.016227681
96	0x3bd058d5	0.006358246
97	0xbb679aea	-0.0035340139
98	0x3bddc4fb	0.0067678667
99	0x3c087e35	0.008330871
100	0x3b1602b9	0.0022889806
101	0x3c2e4723	0.0106370775
102	0x3b6b3c3d	0.003589406
103	0x3d41e43f	0.047336813
104	0x3b3fce7c	0.0029267361
105	0xbcca0a2e	-0.024663057
106	0xbc89d140	-0.016823411
107	0xbbe151c5	-0.0068762028
108	0x3b9377da	0.0045003714
109	0xbcc52ec2	-0.024070147
110	0x3c27826b	0.010223965
111	0xbd31d7eb	-0.043418806
112	0xba7b1e9f	-0.0009579453
113	0x3ca6eb4e	0.020375874
114	0x3bcd280a	0.0062608765
115	0x399b4204	0.0002961309
116	0x3b144517	0.0022624189
117	0xbcc28bae	-0.023748245
118	0x3c078d30	0.008273408
119	0xbc291c41	-0.010321678
120	0xbcdfd253	-0.02732197
121	0xbd0cdb41	-0.034388784
122	0x3c2e3329	0.010632315
123	0xbc5f320b	-0.013622771
124	0xbc72afad	-0.014812392
125	0xbc1a1b24	-0.009405885
126	0x3cc906b3	0.024539327
127	0xbd01af23	-0.031661164
128	0x3b45166d	0.0030073181
129	0xbcbb17bc	-0.022838466
130	0xb9f3d79d	-0.00046509216
131	0x3d1c4842	0.038154848
132	0xbbcff2f3	-0.0063461005
133	0xbd1b0f9c	-0.037856683
134	0x3bdc4ef2	0.006723278
135	0x3ca6dc33	0.020368671
136	0x3c389f33	0.011268425
137	0xbc80f44f	-0.015741495
138	0xb920ff79	-0.0001535396
139	0xbc1ac85f	-0.009447186
140	0x3a7f4da8	0.000973905
141	0x3ac86ca7	0.001529117
142	0xbb4fba20	-0.0031696633
143	0x3abf9d6e	0.0014619061
144	0xbc1a9849	-0.009435722
145	0xbc5c2170	-0.0134357065
146	0x3ce894c7	0.028391255
147	0xbd47f015	-0.048812944
148	0xbbeec2bf	-0.007286399
149	0x3c13dbbf	0.0090245595
150	0xbc042278	-0.008064859
151	0x3bd1c828	0.0064020343
152	0xbbeef293	-0.0072921007
153	0xbcf305d7	-0.02966587
154	0x3a1a0081	0.0005874709
155	0x3cfe3b05	0.031034002
156	0xbcacc572	-0.021090243
157	0x3b606510	0.0034239925
158	0x3c93d42b	0.018045506
159	0xbc02b609	-0.007977971
160	0xbce6c76f	-0.02817127
161	0xba84eadd	-0.0010140795
162	0xba922180	-0.00111489
163	0xbc5214cb	-0.01282234
164	0xbbc6758f	-0.0060564945
165	0xbd1ab7a4	-0.03777279
166	0xbc7b60f3	-0.015342939
167	0xbab09c26	-0.001347427
168	0x3c91766f	0.017756669
169	0xbcc96bb5	-0.024587492
170	0xbd3a12d3	-0.04542811
171	0xbb755565	-0.0037434932
172	0x3d31c1e2	0.04339779
173	0x3c92eb31	0.017934414
174	0x3bcbf7b4	0.006224597
175	0x3c0d0a87	0.008608467
176	0x39b8ea16	0.00035269622
177	0xbce0da8a	-0.027447958
178	0xbc8bcb1f	-0.01706463
179	0xbc6e58a8	-0.0145475045
180	0xbb9a3652	-0.0047061825
181	0xbc054de3	-0.008136245
182	0x3b27018d	0.0025483102
183	0x3ccee4a0	0.025255501
184	0x3c1b85a3	0.009492311
185	0x3bc50b12	0.0060132826
186	0x3d29e5b6	0.041478835
187	0x3d0a7135	0.03379937
188	0xbcc7787c	-0.024349444
189	0xbc6bac3d	-0.0143843265
190	0x3c1fb205	0.009747033
191	0x3c99c4e7	0.018770648
192	0xbd4880e7	-0.048951056
193	0x3ca15941	0.01969588
194	0xbd0160e2	-0.031586535
195	0xbd26dba2	-0.040736802
196	0xb9a38def	-0.00031195531
197	0x3c10f9f3	0.008848655
198	0xbca78df2	-0.020453427
199	0xbc9785cd	-0.018496418
200	0x3ab669cf	0.0013917031
201	0x3c31484b	0.010820459
202	0x3cd85e27	0.026412083
203	0xbca079f4	-0.019589402
204	0xbc99878f	-0.018741397
205	0xbc62081f	-0.0137958815
206	0x3c457a8e	0.012053145
207	0xbbf1cfdf	-0.0073795165
208	0x3cc9d218	0.024636313
209	0x3ca6f407	0.020380033
210	0x3bd001ed	0.006347886
211	0xbc019196	-0.007908246
212	0xbb6d4c6a	-0.0036208876
213	0xbad4957a	-0.0016218864
214	0xbc96b5c7	-0.018397225
215	0xbc0af323	-0.00848082
216	0xbc92ee5a	-0.01793592
217	0xb9fe521d	-0.00048507834
218	0xbbb58b81	-0.005540312
219	0x3c8bf952	0.017086659
220	0x3cb23f5d	0.02175873
221	0x3b9a6e92	0.004712888
222	0x3c98dfc5	0.01866139
223	0xba7dbd0f	-0.0009679356
224	0x3c56fb48	0.013121434
225	0x3b3fd005	0.0029268276
226	0xbb9223cf	-0.004459835
227	0x3babebe7	0.0052466276
228	0xbb2f6307	-0.0026761906
229	0xbcf48c13	-0.029851949
230	0x3ca1b5c2	0.01973999
231	0xbb85975d	-0.004076882
232	0xbb3a8b09	-0.002846422
233	0xbcf29be8	-0.029615358
234	0xbc02d172	-0.007984506
235	0x3b8ece87	0.004358116
236	0xb8ba986c	-8.897562e-05
237	0xbcc138f3	-0.023586726
238	0x3a6a9965	0.0008949249
239	0xbc921e95	-0.017836848
240	0xbc052917	-0.008127472
241	0x3c319455	0.010838588
242	0xbcf00a4a	-0.029301781
243	0xbc164c8a	-0.009173522
244	0x3c802249	0.015641348
245	0xbbbc15e1	-0.005739913
246	0xbbb8b84e	-0.005637205
247	0xbc645c72	-0.013938056
248	0x3c03949f	0.0080310395
249	0xbc0b44b5	-0.008500268
250	0x3c203b47	0.009779758
251	0xbd123500	-0.035695076
252	0xbcd07995	-0.0254486
253	0x3c1b30f4	0.009472121
254	0x3aa644f0	0.001268534
255	0xbcb2ff2a	-0.021850187

action_model._continuous_distribution.mu.bias f4 [2]
0	0x00000000	0.0
1	0x00000000	0.0

action_model._discrete_distribution.branches.0.weight f4 [3, 128]
0	0xbc2d3249	-0.010571071
1	0x3a12cfcf	0.0005600424
2	0x3b041c4c	0.0020158468
3	0xbc3ab285	-0.011395101
4	0xbb9993ab	-0.004686793
5	0x3c40606a	0.011741737
6	0xbc17384d	-0.009229732
7	0xb9d694bb	-0.00040928074
8	0xbc0615d3	-0.008183914
9	0x3bc142e7	0.005897868
10	0xbcad6a33	-0.021168804
11	0xbb876576	-0.004131968
12	0xbb2ff56d	-0.0026849166
13	0xbc85ea6a	-0.016347129
14	0x3bd102f7	0.0063785273
15	0xbcc3f3cb	-0.02391996
16	0x3ab3c771	0.0013716054
17	0x3a244b8c	0.0006267361
18	0x3a17b45a	0.00057870673
19	0xbbc7a6c6	-0.006092879
20	0xbb9922fb	-0.0046733594
21	0xbc55917f	-0.013035177
22	0x3bb4fe8e	0.0055235093
23	0xbc2261c3	-0.0099110035
24	0xbc0201d4	-0.007935006
25	0xbc5c530b	-0.013447533
26	0xbc16615c	-0.009178486
27	0x3af3740f	0.0018574017
28	0xb8b3703b	-8.55629e-05
29	0xbb7326a7	-0.0037101896
30	0x3c638073	0.013885605
31	0x3c0c0d0b	0.008548032
32	0x3ba2f9c3	0.0049736216
33	0x3bb42219	0.005497229
34	0x3ad47d00	0.0016211569
35	0x3bcbc46a	0.0062184827
36	0x3ab6c31b	0.0013943644
37	0xbaa5a376	-0.0012637216
38	0x3b287613	0.0025705143
39	0x3a37bf13	0.0007009368
40	0x3b6cccd8	0.0036132839
41	0x3c34acc8	0.011027522
42	0x3c044090	0.0080720335
43	0x3cc019a7	0.023449732
44	0x3ba11cfb	0.004916785
45	0x3b8c8c54	0.0042891894
46	0x3b2cf277	0.0026389637
47	0x3b3973d2	0.0028297794
48	0x3c808073	0.01568625
49	0xbc018611	-0.007905499
50	0xbc33c002	-0.010971071
51	0xb89dab4f	-7.518252e-05
52	0x3c0572b1	0.00814502
53	0x3c1eca03	0.009691718
54	0x3cc8080f	0.024417905
55	0xba83e8b7	-0.0010063861
56	0x3c085699	0.008321428
57	0xbc1094af	-0.008824511
58	0xbbf5a01d	-0.0074958936
59	0x3a890067	0.001045239
60	0x3c82ea7c	0.015980951
61	0x3ba9ae84	0.0051782746
62	0x3bdfbcc8	0.0068279244
63	0x3ca2b816	0.01986317
64	0x3b5236fa	0.0032076226
65	0x3c30a425	0.010781323
66	0xbbefc3aa	-0.007317026
67	0x3c2ab9f6	0.010420313
68	0xbab135b7	-0.0013520037
69	0x3b296575	0.0025847827
70	0xbb0655c6	-0.0020497902
71	0x3be0c932	0.006859922
72	0xbbb32bec	-0.0054678824
73	0xbb5176fa	-0.0031961785
74	0x3c02e823	0.007989916
75	0x3c6ac712	0.014329689
76	0xbcb76a6d	-0.022389615
77	0xbba31d4e	-0.0049778586
78	0x3a052487	0.00050789904
79	0x3bab00a7	0.0052185836
80	0x3c45a2da	0.012062753
81	0xbc24fa03	-0.010069373
82	0x3b85edef	0.004087202
83	0xbb63735b	-0.0034706208
84	0xbc06f048	-0.008235998
85	0xba4e168d	-0.00078616367
86	0xbc371e69	-0.011176684
87	0x3c9f5b02	0.019452576
88	0x3b2de29d	0.0026532777
89	0x3bd99eb2	0.0066412324
90	0x3c8e424b	0.017365595
91	0xb93367cc	-0.00017109438
92	0xbc705b8f	-0.014670267
93	0xbbd8abeb	-0.006612291
94	0xbba04d03	-0.004891993
95	0xbb97ac3f	-0.0046286876
96	0xbacb0b6b	-0.0015491074
97	0x3c275b22	0.010214599
98	0x3be80d98	0.0070816986
99	0x38b012e5	8.3958534e-05
100	0x39a065fd	0.00030593565
101	0xbc88b90b	-0.016689798
102	0xbbb1e73f	-0.005429178
103	0xba0a34cb	-0.0005272149
104	0xbb9270f7	-0.004469033
105	0xbc0615f8	-0.008183949
106	0x3bde2c9d	0.0067802207
107	0x3a9fae27	0.0012182639
108	0xba8f7ea3	-0.0010947775
109	0xbafc6e2f	-0.0019258911
110	0x3b6df057	0.0036306584
111	0xba187b13	-0.00058166793
112	0xbbd2200f	-0.006412513
113	0x3bbb1535	0.005709315
114	0x39ee4bc0	0.00045451336
115	0xbc441823	-0.011968645
116	0xb8c0f605	-9.201098e-05
117	0xbbc98c01	-0.006150723
118	0xbbd5bf23	-0.0065230294
119	0x3c44402a	0.0119781885
120	0x3b06fee6	0.0020598709
121	0x3aa04bb2	0.001222959
122	0x3c32a3ef	0.010903343
123	0x3c29a05c	0.010353174
124	0xbbe54deb	-0.006997814
125	0xbbf576b8	-0.007490959
126	0xbcb8411e	-0.022491988
127	0xbbd7fbf0	-0.0065913126
128	0xbc0c9933	-0.008581447
129	0x3c201d99	0.009772682
130	0x3c869447	0.016428126
131	0xbbdcc868	-0.0067377575
132	0xbb906bd3	-0.004407385
133	0xbb978fb1	-0.0046252836
134	0x3c59fc77	0.013304821
135	0x390ae530	0.00013246085
136	0x3c395a1d	0.011312989
137	0x3c81d54d	0.01584878
138	0x3bec547a	0.007212219
139	0xbabb6921	-0.0014298299
140	0x3c0a89eb	0.008455734
141	0x3b037a67	0.002006197
142	0x3bb6ed4e	0.005582488
143	0x3b8c32ef	0.0042785327
144	0x3aaf45c2	0.001337223
145	0xbc28ad9c	-0.010295298
146	0x3b40b4dc	0.0029404676
147	0xbc00435b	-0.007828559
148	0x3b2eebdc	0.0026690876
149	0xbbbc54e4	-0.0057474244
150	0x3aa0790f	0.001224311
151	0x3c153a31	0.009108112
152	0x3a8883c0	0.0010415241
153	0xbc744aa8	-0.014910378
154	0x3bcbe837	0.0062227505
155	0x3c896493	0.01677159
156	0x3c277660	0.010221094
157	0xbcb09c2c	-0.021558844
158	0xbc4faaa2	-0.012674959
159	0x3b8b0eb3	0.0042436956
160	0xbb69c77b	-0.0035671878
161	0x3cacd915	0.021099607
162	0x3c091864	0.008367632
163	0xbc31ca34	-0.010851432
164	0x3beb06a8	0.0071724243
165	0xba3215f2	-0.0006793431
166	0x3c1153a7	0.008870042
167	0xbc057873	-0.008146393
168	0xbb1efd9f	-0.0024260057
169	0x3c00fddd	0.007873026
170	0x3bc3d49a	0.005976272
171	0xbbb524cc	-0.005528068
172	0x3bc1a110	0.0059090927
173	0x3b290537	0.0025790462
174	0xbb6815e7	-0.0035413445
175	0x3b1a2411	0.0023520032
176	0x3c266c1f	0.010157614
177	0xba847847	-0.0010106646
178	0x398d0802	0.00026899582
179	0x3c767d8b	0.01504458
180	0x3c35590c	0.011068594
181	0xbb195113	-0.0023394271
182	0x3afa8108	0.0019111941
183	0xbba9aad7	-0.0051778364
184	0x3c1d73f0	0.009610161
185	0xbc7a3625	-0.015271698
186	0xbbeb0c9a	-0.007173133
187	0x3b7e288f	0.00387815
188	0x3c032620	0.008004695
189	0xbc4f0773	-0.012636053
190	0xbbb2cc4c	-0.005456483
191	0xbad24e72	-0.0016045107
192	0xbbccf89a	-0.0062552216
193	0xbb12b5cd	-0.0022386194
194	0xbbec7875	-0.007216508
195	0xbbd6c0c5	-0.0065537416
196	0xb99182ad	-0.00027753916
197	0x3ba45e93	0.005016157
198	0xbc892aee	-0.016744103
199	0x3c5e9850	0.013586119
200	0x3be5f6a3	0.007017927
201	0xbc3fa05c	-0.0116959475
202	0xbb2fc76f	-0.0026821753
203	0x3c869238	0.016427144
204	0xba31ddeb	-0.00067850825
205	0x3c65f200	0.014034748
206	0xbb14abcc	-0.0022685407
207	0x3c2006ba	0.009767229
208	0x3c67fdd0	0.014159635
209	0x3a384423	0.0007029196
210	0xbc8d33c4	-0.017236598
211	0x3be6463d	0.007027416
212	0xbb44341c	-0.0029938286
213	0x3b6487fa	0.0034871087
214	0x3bf07300	0.007337928
215	0x39a6e622	0.0003183345
216	0xb941b390	-0.00018472807
217	0x3a7bf28f	0.0009611034
218	0xbbdb5793	-0.0066937893
219	0xbc69ff30	-0.014282033
220	0xbc8217d7	-0.015880508
221	0x3b7ba11d	0.0038395592
222	0xb9d376a2	-0.00040333444
223	0xbbe0c95d	-0.006859942
224	0xbac3bf76	-0.0014934379
225	0x3b312bba	0.002703412
226	0xbbfa5f90	-0.0076407865
227	0xbac6c2ea	-0.001516429
228	0xbc1d3472	-0.0095950235
229	0xbc6d589f	-0.014486461
230	0x3ca9cc39	0.020727264
231	0xbb9759b5	-0.004618848
232	0x3c067e8f	0.008208885
233	0xbc8213f3	-0.015878653
234	0x3bd7f1fa	0.006590125
235	0xbc356ecf	-0.011073782
236	0x3c67672b	0.014123718
237	0xba75567f	-0.0009358897
238	0xbc17f207	-0.009274012
239	0xbc110c36	-0.008853009
240	0x3af7db58	0.0018909974
241	0x3b8cfa62	0.004302309
242	0x3ba4fb93	0.005034873
243	0xbc82144c	-0.015878819
244	0x3c5ddc6f	0.013541325
245	0xbc1793b4	-0.009251524
246	0x3b39b50a	0.0028336667
247	0x3bcb41eb	0.0062029264
248	0x3b9f753f	0.0048662717
249	0x3c2b42e7	0.0104529625
250	0x3bc68658	0.0060584955
251	0x3c0b20aa	0.008491674
252	0x3aa3f4a5	0.0012508823
253	0xbbd73c8b	-0.0065684966
254	0xbc5cb077	-0.013469807
255	0x3c34282e	0.010995908

action_model._discrete_distribution.branches.0.bias f4 [3]
0	0x00000000	0.0
1	0x00000000	0.0
2	0x00000000	0.0

action_model._discrete_distribution.branches.1.weight f4 [3, 128]
0	0x3c388953	0.011263209
1	0xba627365	-0.0008638411
2	0xbc432ebb	-0.011912997
3	0x3c2b5f33	0.010459709
4	0xb9403836	-0.00018331487
5	0xbc7c9c25	-0.015418087
6	0xbb8606ad	-0.0040901513
7	0xbb83687b	-0.004010258
8	0x3c0b2383	0.008492353
9	0xbc5dfa1d	-0.013548401
10	0x3bbd7c12	0.0057826126
11	0xb9f4e010	-0.00046706246
12	0x3b6eebca	0.003645646
13	0xbbda5690	-0.006663151
14	0xbc4d051b	-0.012513424
15	0xbc044ddb	-0.008075203
16	0x3c3e6867	0.011621571
17	0xbbc22702	-0.0059250602
18	0x3bf0a84a	0.0073442804
19	0xbc29544f	-0.010335042
20	0xbb9f9f5a	-0.004871291
21	0x3b93e7a9	0.0045137
22	0xbc27fc22	-0.010252984
23	0xbc12483e	-0.008928357
24	0xbc031cc1	-0.008002461
25	0xba5bd7d5	-0.00083863485
26	0xbb471870	-0.0030379556
27	0xbc5cf615	-0.013486405
28	0x3cd16617	0.025561376
29	0xbbbc4486	-0.0057454733
30	0xbae62b0b	-0.0017560435
31	0xbc3e9ced	-0.011634094
32	0x3bb93191	0.0056516607
33	0x3beb5602	0.007181884
34	0xbc7a431f	-0.015274792
35	0x3ae1a088	0.001721398
36	0xbc909a87	-0.01765181
37	0x3b58850d	0.0033038289
38	0xbbdb3525	-0.006689685
39	0x3bf4ba8d	0.0074685276
40	0xbc343e7d	-0.0110012265
41	0x3c1d4c60	0.009600729
42	0x397efdf2	0.0002431793
43	0x3ba1ca5f	0.0049374546
44	0x3c10db8f	0.008841409
45	0xbc0af8de	-0.008482186
46	0x3c9c095a	0.019047428
47	0xbbe07ea0	-0.0068510324
48	0x3bb22ddb	0.0054375953
49	0x3a75e0e8	0.0009379522
50	0x3bdf06c7	0.006806228
51	0xbc80a050	-0.015701443
52	0xbba5d27b	-0.0050604916
53	0x3c555222	0.01302007
54	0xbb257688	-0.0025247652
55	0x3c77e338	0.015129857
56	0x3b2183b3	0.002464515
57	0xbc3ed5cf	-0.011647656
58	0x3a381a0a	0.0007022923
59	0xbb0e320d	-0.0021697313
60	0xbc8f3f07	-0.017486108
61	0xbb0af8cc	-0.0021205423
62	0x3affd22f	0.0019517596
63	0xbc073387	-0.008252031
64	0xbc44bce7	-0.012007928
65	0xbad90c60	-0.0016559474
66	0xbc0d519f	-0.008625417
67	0x3c186533	0.0093014715
68	0x3bac3d1e	0.005256309
69	0xbb9ab4cb	-0.004721259
70	0x3c81a883	0.015827423
71	0xbaa76d01	-0.0012773575
72	0x3b07c5ad	0.002071719
73	0xbbfb9ba8	-0.007678468
74	0x3bff354d	0.0077883364
75	0x3c29c796	0.010362526
76	0xbca270df	-0.019829212
77	0xbc004f7a	-0.007831449
78	0x3b129dcf	0.0022371893
79	0xbc190f1f	-0.009341984
80	0x3c3ced09	0.011531123
81	0xbb1a26d4	-0.0023521679
82	0xbb2dbf7d	-0.002651184
83	0x3af7e8a7	0.001891394
84	0xbc27f5c7	-0.010251469
85	0x3bc0ebb4	0.005887473
86	0xbc884cad	-0.016638124
87	0xbb87b74f	-0.004141725
88	0x39f2a912	0.00046283804
89	0xbb8f0e99	-0.004365754
90	0x3c4f01e8	0.012634732
91	0xbbcffd85	-0.0063473606
92	0xbc06bf7f	-0.008224367
93	0xbc301500	-0.010747194
94	0x3c0753a3	0.008259687
95	0x3bfc38df	0.0076972093
96	0xbc28459b	-0.0102705015
97	0xbbfbd38d	-0.007685131
98	0x3c1877ec	0.009305935
99	0x3b4f7c7d	0.0031659894
100	0xba53e973	-0.0008083798
101	0x3c13967d	0.009008047
102	0x3ba2c6bd	0.004967539
103	0xbaef9c95	-0.0018280918
104	0x3c57bb4a	0.013167212
105	0xbb87d915	-0.0041457512
106	0xbb4226ca	-0.002962517
107	0x3bbdfe9b	0.0057981736
108	0xba5ad0af	-0.00083471363
109	0x3be36efa	0.0069407197
110	0x3c1a9dd2	0.009437041
111	0xbc0bc28e	-0.008530272
112	0x3c383217	0.011242411
113	0x3b1045db	0.0022014293
114	0x3b98b33b	0.004660038
115	0x3bc88204	0.0061190147
116	0x3adb5a78	0.0016735336
117	0x3b8c7a56	0.0042870445
118	0xbc007f35	-0.0078428285
119	0x3c0e142b	0.008671801
120	0x3b84cdbb	0.0040528453
121	0x3c0359fb	0.0080170585
122	0xbbdb6553	-0.0066954284
123	0x3bfb0a18	0.0076611154
124	0xbbcedd72	-0.0063130194
125	0x3b05ea00	0.0020433664
126	0x3c00050e	0.007813705
127	0x3c27ccb6	0.010241678
128	0xbbc495f6	-0.005999322
129	0x3c87343f	0.016504405
130	0x3c6e9c9f	0.014563709
131	0x3c4e79e0	0.012602299
132	0xbc3f6417	-0.011681578
133	0x3cd1e6d5	0.025622765
134	0xb9171847	-0.00014409526
135	0x3c3dd5bf	0.011586606
136	0xbc02949d	-0.0079700025
137	0xbb53a64a	-0.003229516
138	0x3a018da3	0.0004942065
139	0xbb9afe57	-0.0047300267
140	0x3c2c1293	0.010502475
141	0x3ba1e7a0	0.004940942
142	0xbbc9ac0b	-0.0061545423
143	0xbb481e98	-0.0030535813
144	0x3c1693da	0.009190524
145	0x3c248623	0.010041746
146	0x3c1ffec1	0.009765328
147	0x3c22cf59	0.009937131
148	0xbbbd3c45	-0.005775007
149	0xbc5d3fdb	-0.013503994
150	0x3b81e4c5	0.003964039
151	0x3c4918df	0.012273996
152	0xbaaffa7a	-0.0013426088
153	0xbbbbd464	-0.005732106
154	0xbb4631fb	-0.0030242193
155	0x3b83df1e	0.0040244004
156	0x3b8f432f	0.0043720226
157	0x3b8d118b	0.00430507
158	0xbc839ab4	-0.01606498
159	0xbb2909fa	-0.00257933
160	0xbc058792	-0.008149998
161	0x3c7438d3	0.014906126
162	0xbbabfb47	-0.0052484605
163	0x39daca15	0.00041730763
164	0xbc3f9a3c	-0.011694487
165	0xbc0c9278	-0.008579843
166	0xbb28dd5b	-0.0025766704
167	0xbbeb649d	-0.007183625
168	0x3ab971e5	0.0014148323
169	0xbc702472	-0.014657127
170	0xbbd7908f	-0.006578512
171	0xbb49b92b	-0.0030780535
172	0x39afa6e9	0.0003350296
173	0xbb9d552c	-0.004801413
174	0x3bd76982	0.006573857
175	0x3b7bf8f3	0.0038447946
176	0xbc611e32	-0.013740109
177	0x3b4994c6	0.0030758842
178	0xbbca3fb7	-0.006172146
179	0xbb45e001	-0.0030193331
180	0xbc3f383d	-0.011671123
181	0xbbcb41a4	-0.0062028933
182	0x3c7d225f	0.015450089
183	0x3bb5c5c6	0.005547258
184	0x3bbbd734	0.0057324413
185	0x3c0bb3fe	0.0085268
186	0x3b57dd43	0.0032938279
187	0xbba842ea	-0.00513493
188	0x3c243da1	0.010024459
189	0xbc23b47b	-0.00999176
190	0xbb5a898b	-0.0033346142
191	0x3b3dba93	0.0028950318
192	0x3b7071bb	0.0036688882
193	0xbc4fb998	-0.012678526
194	0x3bfde28b	0.0077479533
195	0xbae7760a	-0.001765908
196	0x3bddbb07	0.00676668
197	0x3c9ac72f	0.018893806
198	0x3c217ddc	0.009856667
199	0xbaec558f	-0.001803087
200	0xbb14dfaf	-0.0022716334
201	0xbac4d2c9	-0.0015016432
202	0x3c05c0c0	0.008163631
203	0x3c2fee8f	0.010738029
204	0xbc46f473	-0.012143242
205	0x3a25205f	0.0006299074
206	0xbbed4b9d	-0.00724168
207	0xbaf8c402	-0.0018979313
208	0xbc62cd4d	-0.013842893
209	0x3bc88413	0.00611926
210	0x3bfd719a	0.0077344896
211	0xb9f9ae73	-0.00047622956
212	0x3bebacc5	0.0071922266
213	0x3b17fc1b	0.0023191038
214	0x3b42b87b	0.002971201
215	0x3be7decf	0.0070761214
216	0x3bcca7b4	0.0062455777
217	0x3b8cf453	0.0043015867
218	0x3c600858	0.013673864
219	0xbab6fa81	-0.0013960154
220	0xbc2c60a8	-0.0105210915
221	0xbbf566af	-0.0074890475
222	0xbbf935c7	-0.0076052877
223	0x3c17f0d4	0.0092737265
224	0xbb8b7d0b	-0.0042568496
225	0xbbf826ba	-0.007572976
226	0x3bb615d0	0.0055567995
227	0xbbd25ec2	-0.0064199874
228	0xbc0eb4e5	-0.008710121
229	0xbc166278	-0.00917875
230	0x3afba2f7	0.0019198348
231	0xbbd7304d	-0.006567037
232	0xbc1ef803	-0.009702685
233	0x3afb70bf	0.0019183381
234	0xbba3f4ed	-0.0050035627
235	0xbc2d3023	-0.010570559
236	0xba703922	-0.0009163787
237	0x3c7d9f55	0.015479882
238	0x3c20b44e	0.009808613
239	0x3a9fadaa	0.0012182493
240	0xbb116704	-0.0022186646
241	0x39a1665b	0.00030784574
242	0x3aa119ba	0.0012290992
243	0x3c5f3362	0.01362309
244	0x3c864114	0.016388454
245	0x3c4b6d95	0.012416263
246	0xbadac0e2	-0.0016689564
247	0xb9ec319a	-0.00045050384
248	0xbc3edb4f	-0.011648967
249	0xbc180eff	-0.009280919
250	0x3bfed8d7	0.007777314
251	0xba93efd7	-0.0011286688
252	0xbaf2af98	-0.0018515466
253	0x3c16e8bf	0.009210764
254	0xbaa3fa95	-0.0012510592
255	0x3b9e07f2	0.0048227245

action_model._discrete_distribution.branches.1.bias f4 [3]
0	0x00000000	0.0
1	0x00000000	0.0
2	0x00000000	0.0

network_body.observation_encoder.processors.0.normalizer.running_mean f4 [13]
0	0x00000000	0.0
1	0x00000000	0.0
2	0x00000000	0.0
3	0x00000000	0.0
4	0x00000000	0.0
5	0x00000000	0.0
6	0x00000000	0.0
7	0x00000000	0.0
8	0x00000000	0.0
9	0x00000000	0.0
10	0x00000000	0.0
11	0x00000000	0.0
12	0x00000000	0.0

network_body.observation_encoder.processors.0.normalizer.running_variance f4 [13]
0	0x3f800000	1.0
1	0x3f800000	1.0
2	0x3f800000	1.0
3	0x3f800000	1.0
4	0x3f800000	1.0
5	0x3f800000	1.0
6	0x3f800000	1.0
7	0x3f800000	1.0
8	0x3f800000	1.0
9	0x3f800000	1.0
10	0x3f800000	1.0
11	0x3f800000	1.0
12	0x3f800000	1.0

network_body.processors.0.normalizer.running_mean f4 [13]
0	0x00000000	0.0
1	0x00000000	0.0
2	0x00000000	0.0
3	0x00000000	0.0
4	0x00000000	0.0
5	0x00000000	0.0
6	0x00000000	0.0
7	0x00000000	0.0
8	0x00000000	0.0
9	0x00000000	0.0
10	0x00000000	0.0
11	0x00000000	0.0
12	0x00000000	0.0

network_body.processors.0.normalizer.running_variance f4 [13]
0	0x3f800000	1.0
1	0x3f800000	1.0
2	0x3f800000	1.0
3	0x3f800000	1.0
4	0x3f800000	1.0
5	0x3f800000	1.0
6	0x3f800000	1.0
7	0x3f800000	1.0
8	0x3f800000	1.0
9	0x3f800000	1.0
10	0x3f800000	1.0
11	0x3f800000	1.0
12	0x3f800000	1.0

network_body._body_endoder.seq_layers.0.weight f4 [128, 13]
0	0xbe89a24b	-0.26881632
1	0xbe4e1c66	-0.2012802
2	0x3e4de18c	0.2010557
3	0xbddd69dd	-0.108112074
4	0xbd8490f8	-0.06472963
5	0xbed23364	-0.41054833
6	0xbd81a171	-0.06329621
7	0x3d966c4a	0.07344873
8	0xbee15469	-0.44009712
9	0x3ed56954	0.4168192
10	0x3e23fe7e	0.1601505
11	0xbe4c0ed3	-0.1992753
12	0x3effdb73	0.49972114
13	0xbe711f46	-0.23547086
14	0xbea80bdd	-0.3282155
15	0x3d821d3b	0.063532315
16	0x3e71ec1e	0.23625228
17	0xbec97ab6	-0.39351434
18	0x3e03f78d	0.12887402
19	0xbd836e0b	-0.064174734
20	0xbe90bba5	-0.2826816
21	0xbf172778	-0.590446
22	0x3e12a21a	0.1431965
23	0xbefa317e	-0.48865885
24	0xbef20fb4	-0.47277606
25	0xbeec6644	-0.46171772
26	0x3d59f1d9	0.05320916
27	0xbd36a049	-0.044586454
28	0xbde5a83c	-0.11213729
29	0xbe632148	-0.22180665
30	0xbe8d1b76	-0.27560014
31	0xbe8289bd	-0.2549571
32	0xbeb6bfc6	-0.35693187
33	0x3bb93866	0.005652475
34	0x3e058869	0.13040318
35	0x3e964c83	0.2935525
36	0xbea0ef01	-0.31432346
37	0x3dda5ef9	0.10662646
38	0xbe4f341e	-0.20234725
39	0xbe4d5fe1	-0.20056106
40	0xbef9a991	-0.4876218
41	0x3f14965f	0.5804195
42	0xbe354b22	-0.17704442
43	0xbd8c0f4a	-0.06838854
44	0xbd920695	-0.07130162
45	0xbebe37c7	-0.3715193
46	0xbe2367f5	-0.15957625
47	0xbced711f	-0.028984604
48	0x3e1fea7e	0.15616795
49	0xbeb1b931	-0.34711602
50	0x3e99bd2c	0.3002714
51	0xbf01d8f1	-0.5072165
52	0x3c46ed98	0.012141608
53	0xbe434c0b	-0.19071977
54	0x3cbac0c0	0.022796988
55	0xbe81d43a	-0.2535723
56	0x3e638b2c	0.22221059
57	0xbe500e3d	-0.20317931
58	0x3ea170b8	0.3153131
59	0x3e2ed326	0.17072734
60	0x3c40ab98	0.011759661
61	0xbe955a88	-0.29170632
62	0x3eab6ce9	0.3348153
63	0x3f0a4052	0.54004395
64	0xbefce1b6	-0.49390954
65	0xbc0a4a44	-0.008440558
66	0x3e99840e	0.29983562
67	0xbd509f65	-0.05093326
68	0xbc7c1dd5	-0.015387972
69	0x38d763e8	0.00010270608
70	0xbf1659b6	-0.5873064
71	0x3e7807d4	0.24221736
72	0xbeacd938	-0.33759475
73	0x3e47b368	0.19502032
74	0xbf1281f2	-0.5722953
75	0xbe918348	-0.28420472
76	0xbecfe10b	-0.40601382
77	0xbe0265de	-0.12734172
78	0xbe8d1baf	-0.27560183
79	0x3e9de48f	0.3083844
80	0x3e16cf9c	0.14727634
81	0x3f0aaad1	0.54166895
82	0xbea69a6b	-0.32539687
83	0xbe8ab2bf	-0.27089497
84	0xbe8c22c4	-0.27370274
85	0xbd8694d2	-0.06571354
86	0x3cc1fa8f	0.023679046
87	0xbded5764	-0.11588934
88	0xbc50f8df	-0.012754648
89	0x3dc0b8a4	0.094102174
90	0x3e26d446	0.16291913
91	0xbe022af8	-0.12711704
92	0x3eb23e6b	0.34813246
93	0xbf1ae12c	-0.60499835
94	0xbe485f20	-0.19567537
95	0x3dd80f31	0.105497725
96	0xbec8a711	-0.39189962
97	0xbe3ddb55	-0.185407
98	0xbdbe9176	-0.09305088
99	0xbe929606	-0.28630084
100	0xbf2b4713	-0.66905326
101	0xbccfb0c7	-0.025352849
102	0x3ea7cb37	0.32772228
103	0x3ec01bf0	0.37521315
104	0x3ed7b700	0.42131805
105	0xbc504621	-0.0127120325
106	0xbe8d704c	-0.27624738
107	0xbebef2ea	-0.37294704
108	0x3f27d6fe	0.6556243
109	0x3e0f2efb	0.13982765
110	0xbdcf0625	-0.10108594
111	0x3eb3e61a	0.3513649
112	0xbde0501f	-0.10952782
113	0xbe95a3ba	-0.29226476
114	0xbf302a57	-0.68814605
115	0x3dfbeb9a	0.12300797
116	0x3e822862	0.25421435
117	0x3e13f717	0.14449726
118	0x3d90ba13	0.07066741
119	0xbe76f1de	-0.24115703
120	0x3e650b51	0.22367598
121	0xbddd2564	-0.10798147
122	0x3ee4a1b3	0.44654617
123	0x3d79a3a7	0.060947087
124	0xbe5927a3	-0.21206526
125	0x3dd0699b	0.10176393
126	0x3d8359c6	0.06413607
127	0xbe825749	-0.25457218
128	0x3ec72acb	0.38899836
129	0xbe7ac78a	-0.2449018
130	0x3e7836ec	0.24239701
131	0x3c6f3a8d	0.014601362
132	0x3ea12e96	0.31480855
133	0xbcb94ef0	-0.022620648
134	0xbd2bced1	-0.041945282
135	0x3d97a2dd	0.074041106
136	0x3d2483bf	0.040164705
137	0x3daf06ec	0.08546242
138	0x3e120570	0.14259887
139	0x3e8fcb19	0.2808464
140	0x3f1bd4ea	0.60871756
141	0xbe0bcf1e	-0.13653228
142	0x3ec04e3a	0.37559682
143	0xbe77e16b	-0.24207084
144	0xbf06b4bb	-0.5261952
145	0xbf07b3c5	-0.5300868
146	0xbf321cc8	-0.69575167
147	0x3cf6c647	0.030123843
148	0xbe818cd3	-0.25302753
149	0xbee2ad4a	-0.44272834
150	0xbe983c8d	-0.29733697
151	0xbe352db4	-0.17693216
152	0x3e6dd7cd	0.23226853
153	0x3cf8b53b	0.030359855
154	0x3e6517df	0.22372387
155	0x3e69896a	0.22806326
156	0xbf2d2adb	-0.6764352
157	0x3ed67aa6	0.41890448
158	0xbdf9b498	-0.12192649
159	0x3e904777	0.28179523
160	0xbedb8811	-0.42877248
161	0x3eb7fe8d	0.35936394
162	0xbf30f427	-0.69122547
163	0x3dd8f23b	0.10593077
164	0x3ea67ec6	0.32518595
165	0xbe8061a4	-0.25074494
166	0xbdaee6cc	-0.08540115
167	0x3e9d9675	0.30778852
168	0x3d0b9db4	0.034085944
169	0xbe8f03c1	-0.27932552
170	0xbe5edcac	-0.21763867
171	0xbdd59830	-0.10429418
172	0x3e94c89d	0.29059306
173	0x3e394a23	0.18094687
174	0x3f05ceed	0.5226887
175	0xbe445527	-0.19173108
176	0x3d955ce1	0.07293106
177	0x3e09d543	0.13460259
178	0x3df50190	0.11963189
179	0xbe117b3b	-0.14207165
180	0xbef50091	-0.47851995
181	0xbe7e76ac	-0.24849957
182	0x3cd2fd1f	0.025755463
183	0x3eab9ae1	0.335166
184	0x3e202fb1	0.15643193
185	0x3e4207b2	0.18948248
186	0xbd7157d3	-0.058921646
187	0x3e3dea9d	0.18546529
188	0xbf20b96d	-0.6278294
189	0xbdec9373	-0.11551561
190	0xbeb7c939	-0.35895708
191	0x3eccd071	0.40002778
192	0x3e15cdee	0.14629337
193	0xbe5f1ac1	-0.2178755
194	0x3d7a01fc	0.06103705
195	0x3f189ef1	0.59617525
196	0x3e1ce729	0.15322556
197	0xbd5b04e8	-0.053471476
198	0x3df8f3ec	0.121558994
199	0x3df612b9	0.1201529
200	0x3ab4ce62	0.0013794417
201	0xbd24d0b1	-0.040238086
202	0xbeb00aa9	-0.34383133
203	0xbeb7dbb4	-0.35909808
204	0xbe5e0ba4	-0.21684128
205	0x3e40e7fb	0.18838494
206	0xbcf5f8e6	-0.03002591
207	0x3e8c7285	0.2743112
208	0x3deae731	0.114698775
209	0x3f2964c9	0.6616941
210	0x3e94f9fb	0.2909697
211	0xbe0bbf60	-0.13647223
212	0xbe68052b	-0.22658221
213	0x3e74ecab	0.23918407
214	0x3dfd42d5	0.12366263
215	0x3e7bbfc9	0.24584879
216	0x3c29b7e8	0.010358788
217	0xbdec35af	-0.11533677
218	0xbea44794	-0.3208586
219	0x3e2a57d7	0.1663507
220	0x3e38fd54	0.18065387
221	0xbe3a664c	-0.18203086
222	0xbe4a753c	-0.19771284
223	0x3d8f13e3	0.06986215
224	0xbdb64939	-0.08900685
225	0xbc5d5ed9	-0.013511383
226	0xbe464c7a	-0.19365111
227	0xbeb81e62	-0.3596068
228	0xbda2c7cc	-0.079482645
229	0xbe96bfd9	-0.29443243
230	0xbeee28b0	-0.46515417
231	0xbedd9214	-0.4327551
232	0x3e5f177d	0.21786304
233	0x3f177588	0.59163713
234	0xbdef8564	-0.11695364
235	0xbe20d3f3	-0.15705852
236	0x3f04f085	0.51929504
237	0x3e03fbcd	0.12889023
238	0x3dbadf94	0.091246754
239	0x3dbe0b50	0.092795014
240	0x3e2663a2	0.16248944
241	0xbebc931a	-0.3683098
242	0x3d6927e4	0.05692281
243	0x3e70691f	0.234776
244	0x3d8a3b39	0.06749577
245	0x3f115645	0.5677226
246	0xbed8d60f	-0.42350814
247	0x3ee06dbc	0.4383372
248	0x3b4a9098	0.0030908938
249	0x3e833f01	0.25634006
250	0xbeb84ba5	-0.35995212
251	0x3e0ea057	0.13928352
252	0x3d92655a	0.071482375
253	0x3e604bfd	0.21903987
254	0x3f442a38	0.7662692
255	0xbc466356	-0.0121086445
