results/EasyZigZagAgent1/My Behavior/My Behavior-195894.onnx (onnx, 81381 bytes, 14 tensors)

77 f4 [13]
524.17957 224.60251 186.49472 282.6273 0.002259375 305.89478 176.99016 212.23401
521.89294 91.61323 88.98982 237.81065 263.07617
00000000: 7e0b 0344 3e9a 6043 a67e 3a43 4b50 8d43
00000010: 0612 143b 88f2 9843 7bfd 3043 e83b 5443
00000020: 2679 0244 f939 b742 cafa b142 87cf 6d43
00000030: c089 8343

action_model._continuous_distribution.log_sigma f4 [1, 2]
-0.051473945 -0.03817629
00000000: 58d6 52bd be5e 1cbd

action_model._continuous_distribution.mu.bias f4 [2]
0.060492713 0.040270597
00000000: 35c7 773d c8f2 243d

action_model._continuous_distribution.mu.weight f4 [2, 128]
0.0059107225 0.008804344 -0.114808984 0.031895913 -0.052609168 -0.005634508 -0.0069219302 -0.006830371
0.00012937853 -0.012800595 0.02154656 -0.00068262836 0.005464449 0.021089906 0.0014780678 -0.00027424077
0.011215325 -0.0019350725 -0.0026748474 0.0127194505 -0.012074855 -0.0053151133 0.0013053495 -0.0043647317
-0.01985953 0.0036310148 0.010604297 -0.020123383 0.024624655 -0.0075303977 -0.003822866 -0.002362225
0.002635272 -0.044552814 -0.033825874 0.0042587575 0.0027894604 0.0011812553 0.0011221883 0.011676409
0.0029520069 -0.04736884 0.00541958 0.0011190178 0.0004144268 -0.017476385 0.010113287 -0.047743324
-0.013301222 -0.04220817 0.009139561 0.013051289 -0.18933311 -0.0090515865 0.0048165233 0.026838176
0.004112151 0.03333858 -0.03010759 -0.017889423 0.059794493 0.019500181 -0.0042400174 -0.04230258
0.008244999 -0.006455346 0.011310861 0.025547167 0.025060605 0.0024898162 -0.004183786 0.024391815
0.0056094625 0.014036887 -0.039561357 0.014158611 0.011914193 0.14939506 -0.07026181 0.010902921
0.007228313 0.013850701 0.003363641 -0.01979549 0.051775713 0.021511573 0.008938699 -0.0022764287
-0.0085260505 -0.009290979 -0.00392275 -0.003428664 -0.008316866 0.014187285 0.031577833 0.014814513
-0.06404822 -0.009845999 0.0072694216 0.0031265363 0.023699882 0.008371089 0.05589269 -0.019119538
0.01993165 0.015552515 0.023050454 0.02586203 -0.0071703214 0.0031810896 0.021863995 0.00044092743
0.0105499495 -0.014790442 0.04414537 0.026958311 -0.019518051 0.0015796806 -0.010850659 0.009325474
-0.033581235 -0.004429274 -0.04508237 0.014734796 0.0045524896 0.0061917827 0.008587114 0.014225629
-0.0050990777 0.0052093654 -0.039156962 -0.015564683 -0.0901014 -0.004651525 -0.008928868 0.029181732
0.022568014 0.009616362 0.0042946213 0.009523436 0.013986504 0.01218073 0.00036140077 -0.0039565656
0.028633857 0.0021799863 -0.0028859607 0.0047115274 -0.027242016 0.009930019 0.1064419 -0.012978772
0.0017071165 -0.0068926103 -0.007712821 -0.0017894652 0.022370514 -0.008851342 0.0012714551 -0.001211464
0.014172276 0.07171215 0.01692628 0.00067047833 -0.015790492 0.016220702 0.010528814 0.018902762
-0.012849216 -0.109239444 0.0016920316 -0.016219573 0.020186732 -0.010549394 0.011403586 -0.0025949974
-0.0036066484 0.029118605 -0.007705325 0.012500187 -0.20277861 -0.013077064 -0.0109793525 0.027067812
-0.012149206 0.0375789 -0.012145298 -0.030236669 0.010409848 -0.017405888 0.008029388 0.036644936
0.0321991 0.08072466 0.06374252 0.016011372 -0.04141514 0.0023061903 0.011088745 -0.0045268578
-0.0069055823 -0.0037842812 0.048970077 0.007782117 0.022234624 -0.07242888 0.061333973 0.013281868
0.055714436 -0.031718034 0.0012101047 0.04198997 -0.03738182 0.01541636 -0.0048393933 -0.009268973
0.0060277455 -0.0004655041 0.013392097 0.078826815 -0.0015407935 -0.008235344 0.011739005 0.0025921864
0.016100785 0.0009545706 0.013997138 0.009458413 -0.018609134 -0.0042789797 0.01601951 -0.016336143
-0.002817778 0.003373841 0.01021269 -0.0007619466 0.014763723 0.01104465 -0.052615613 -0.017751181
-0.0072601363 -0.006144237 0.051335078 0.0016713543 -0.019686557 -0.011067807 -0.016891226 0.007906846
0.002536852 -0.0055705192 0.055797797 0.008363279 -0.00033325763 0.014924277 -0.016775236 -0.010764672
00000000: bcae c13b 1840 103c f920 ebbd 4aa5 023d
00000010: b67c 57bd aea1 b8bb 5cd1 e2bb 4ed1 dfbb
00000020: c9a9 0739 96b9 51bc 6982 b03c 6af2 32ba
00000030: 1f0f b33b bdc4 ac3c babb c13a f9c7 8fb9
00000040: 7cc0 373c 42a2 fdba 7e4c 2fbb 3e65 503c
00000050: 9dd5 45bc 672a aebb 4318 ab3a 0606 8fbb
00000060: 74b0 a2bc 52f6 6d3b a5bd 2d3c cbd9 a4bc
00000070: a5b9 c93c 8ec1 f6bb 0c89 7abb 8fcf 1abb
00000080: 87b4 2c3b 037d 36bd 008d 0abd 0c8d 8b3b
00000090: 61cf 363b 5ad4 9a3a 6416 933a 694e 3f3c
000000a0: 7576 413b d405 42bd bb96 b13b 02ac 923a
000000b0: 6c47 d939 a32a 8fbc 33b2 253c 818e 43bd
000000c0: 5eed 59bc 79e2 2cbd 19be 153c 13d5 553c
000000d0: 8ae0 41be 1b4d 14bc edd3 9d3b bcdb db3c
000000e0: 39bf 863b 098e 083d 31a4 f6bc d78c 92bc
000000f0: 12eb 743d d8be 9f3c d8ef 8abb 7845 2dbd
00000100: 0816 073c 5e87 d3bb 3151 393c 4b48 d13c
00000110: e64b cd3c 2f2c 233b 2418 89bb 58d1 c73c
00000120: 95cf b73b f9fa 653c 170b 22bd 85f9 673c
00000130: bf33 433c 05fb 183e 6de5 8fbd 2aa2 323c
00000140: 7cdb ec3b 0dee 623c 8870 5c3b 272a a2bc
00000150: c512 543d 0a39 b03c 9f73 123c 2330 15bb
00000160: d9b0 0bbc 3139 18bc 698a 80bb 70b3 60bb
00000170: 7743 08bc c971 683c c257 013d 92b8 723c
00000180: b72b 83bd 1d51 21bc 5434 ee3b 93e6 4c3b
00000190: 4126 c23c e426 093c bcef 643d 94a0 9cbc
000001a0: b347 a33c facf 7e3c 4ed4 bc3c 9cdc d33c
000001b0: 04f5 eabb d479 503b 1f1c b33c 472c e739
000001c0: b2d9 2c3c 9c53 72bc c7d1 343d add7 dc3c
000001d0: 52e4 9fbc 490d cf3a f6c6 31bc dfc9 183c
000001e0: 7a8c 09bd 7123 91bb 4ba8 38bd 376a 713c
000001f0: 0d2d 953b 70e4 ca3b f7b0 0c3c 9d12 693c
00000200: 2a16 a7bb 53b3 aa3b 0d63 20bd 0303 7fbc
00000210: 1587 b8bd d26b 98bb 634a 12bc 870e ef3c
00000220: 8ee0 b83c f28d 1d3c e5b9 8c3b 3008 1c3c
00000230: a627 653c af91 473c 647a bd39 14a6 81bb
00000240: 8d91 ea3c 1ade 0e3b 6322 3dbb 2863 9a3b
00000250: a62a dfbc 85b1 223c 36fe d93d eaa4 54bc
00000260: 53c1 df3a 68db e1bb d5bb fcbb 7d8c eaba
00000270: 5e42 b73c 3805 11bc f4a6 a63a fdc9 9eba
00000280: d532 683c d2dd 923d fba8 8a3c 0ac3 2f3a
00000290: 105b 81bc 47e1 843c 0c81 2c3c f7d9 9a3c
000002a0: 8585 52bc eeb8 dfbd 29c7 dd3a e9de 84bc
000002b0: a55e a53c 5ed7 2cbc 1bd6 3a3c d510 2abb
000002c0: 855d 6cbb 248a ee3c f37c fcbb 96cd 4c3c
000002d0: 32a5 4fbe 2f41 56bc bee2 33bc 51bd dd3c
000002e0: 770d 47bc 55ec 193d 12fd 46bc e4b2 f7bc
000002f0: 118e 2a3c cb96 8ebc b28d 033c 0019 163d
00000300: 34e3 033d f852 a53d 708b 823d 482a 833c
00000310: eca2 29bd 7423 173b 91ad 353c 0956 94bb
00000320: 3948 e2bb b401 78bb d994 483d 2101 ff3b
00000330: 6325 b63c 9855 94bd 5539 7b3d 319c 593c
00000340: d234 643d c5ea 01bd 609c 9e3a adfd 2b3d
00000350: ae1d 19bd e794 7c3c c693 9ebb e4dc 17bc
00000360: 6584 c53b e70e f4b9 876a 5b3c f46f a13d
00000370: 73f4 c9ba 89ed 06bc f554 403c ace1 293b
00000380: cbe5 833c 263c 7a3a 4054 653c 76f7 1a3c
00000390: 2f72 98bc af36 8cbb 593b 833c 60d3 85bc
000003a0: 78aa 38bb a91b 5d3b 2053 273c 5fbd 47ba
000003b0: 8be3 713c 9ff4 343c 7883 57bd ed6a 91bc
000003c0: 70e6 edbb 9855 c9bb bb44 523d 5811 db3a
000003d0: b445 a1bc bf55 35bc 785f 8abc b78b 013c
000003e0: 5041 263b e788 b6bb 3b8c 643d 2206 093c
000003f0: 15b9 aeb9 f484 743c 386c 89bc 4f5e 30bc

action_model._discrete_distribution.branches.0.bias f4 [3]
-0.20212932 -0.24439277 0.41365066
00000000: fdfa 4ebe 1942 7abe 05ca d33e

action_model._discrete_distribution.branches.0.weight f4 [3, 128]
-0.0059811575 -0.02271235 0.19042867 -0.17683038 0.068776645 -0.010966535 0.007102167 0.005104512
-0.014694957 0.013478912 -0.0209225 0.005157769 0.0030365903 -0.010838056 0.0414195 -0.00788482
-0.0057411217 0.003907759 0.01531233 -0.009011923 4.7391753e-05 0.00035759594 0.22982085 0.025658982
-0.0004283085 -0.0014233136 0.011193807 -0.014558422 -0.021514848 0.0051483135 -0.029622639 0.008768919
0.001894359 0.08618977 0.1482212 0.021889336 0.004041823 0.026335882 -0.0034278973 0.013249607
-0.030426444 -0.010954369 0.009490792 0.21961592 -0.007549275 0.007076009 -0.0012837857 0.029046474
0.022400886 0.14053154 0.010767262 0.014436175 0.06364541 -0.002097836 -0.012984669 0.0034198624
-0.0048801857 -0.045700233 -0.36904496 0.0036939855 0.2358595 -0.011975568 -0.0072717033 0.07322258
-0.0020768896 0.30400276 -0.0932941 -0.020992873 -0.10291592 0.0018343879 0.015137618 0.09658073
-0.03593402 0.0072942716 0.06941125 -0.0012061354 0.056283813 -0.35993043 0.11997713 -0.002297975
0.09294655 -0.040695768 -0.00542828 -0.09249297 0.12187077 -0.010375575 -0.006162997 0.009649131
0.0013650096 0.04472437 -0.006887739 0.27343068 -0.0046424274 -0.011398044 -0.1648779 0.015357625
0.0921951 0.025933132 0.017272979 0.009444714 0.009914533 -0.015992293 -0.56053543 -0.0157884
-0.009835202 -0.21385244 0.0018822455 0.006316998 0.012833842 0.00498562 -0.079330936 -0.010273438
-0.008027887 -0.00056429545 -0.02088605 -0.021074649 -0.02467738 0.011933694 -0.02886159 0.012072514
0.0013526073 0.033480305 0.28941637 0.013033503 0.01719757 0.0152407745 0.00065828237 0.0036621967
0.005940048 0.014447467 -0.111262865 0.11535314 -0.04778279 -0.0025351504 0.009380719 -0.021482114
0.0017778486 0.009897019 -0.010909467 -0.008766129 0.011337347 0.0013591899 -0.020466706 -0.02778684
0.00075418426 -0.008406949 -0.0070287427 0.0027854035 0.008244315 -0.011831378 0.009875729 -0.0083506685
-0.024771173 0.0091660945 0.0075964374 -0.0036055283 0.02117579 0.013059705 0.019618528 -0.008033104
-0.013104871 0.0037445403 -0.11094039 0.0059295516 0.01948575 -0.01341148 -0.006204779 0.02055332
0.057828594 0.0318196 0.015300646 0.070209295 -0.02020667 0.009912236 0.020076996 0.05547079
-0.0024880653 0.06705928 0.0021321054 -0.0026233857 0.055166487 -0.0040444876 0.022120167 0.020172054
0.009370722 0.041651543 0.08048864 0.001926073 0.033074465 0.013268939 -0.004478954 0.14828452
0.04730003 -0.16978782 -0.029666312 0.015277033 0.030772801 0.029128572 0.006882415 0.052998424
-0.033861157 0.0060563367 -0.039070114 -0.0029447954 0.05951028 -0.036187172 -0.086512774 0.020245304
-0.039865375 0.07707269 -0.005211623 -0.09585748 -0.04413897 -0.0041334443 -0.0071326206 0.0030782071
0.0018629832 -0.018608656 -0.0053246506 -0.02474273 -0.004157431 -0.012212642 0.10342692 0.007396587
0.04324151 -0.0011717882 0.0110185165 0.0038322792 0.018857205 0.01916465 -0.054033123 0.022095999
0.015235279 0.042385194 0.00020534228 0.01321359 -0.037938394 -0.011348781 0.06552553 0.009332349
0.015043965 -0.008066965 0.09359844 0.02209956 0.028957808 -0.019778768 0.024387082 0.013720771
0.00453269 -0.011100148 -0.030692047 -0.0055017695 -0.016383983 -0.0033042014 -0.008779658 -0.0013756223
00000000: 96fd c3bb 400f babc bcff 423e 0613 35be
00000010: c5da 8c3d fbac 33bc 4bb9 e83b c043 a73b
00000020: 1ec3 70bc a8d6 5c3c aa65 abbc 8102 a93b
00000030: 8801 473b 1a92 31bc 7ea7 293d 552f 01bc
00000040: 0520 bcbb a90c 803b 91e0 7a3c bfa6 13bc
00000050: 82c6 4638 b77b bb39 2856 6b3e c932 d23c
00000060: 988e e0b9 7b8e baba 3b66 373c 7386 6ebc
00000070: e83f b0bc 2fb3 a83b 2dab f2bc 83ab 0f3c
00000080: 244c f83a 4384 b03d 4cc7 173e 4451 b33c
00000090: 4571 843b 59be d73c 93a6 60bb e114 593c
000000a0: e140 f9bc f479 33bc 447f 1b3c ffe2 603e
000000b0: e95f f7bb dedd e73b b344 a8ba dff2 ed3c
000000c0: 1082 b73c 80e7 0f3e 2c69 303c b585 6c3c
000000d0: 8658 823d d97b 09bb a6bd 54bc c51f 603b
000000e0: f7e9 9fbb 2b30 3bbd 76f3 bcbe cb16 723b
000000f0: 2785 713e 2c35 44bc 7847 eebb b8f5 953d
00000100: 6d1c 08bb 40a6 9b3e fa10 bfbd 3ff9 abbc
00000110: 95c5 d2bd d86f f03a c603 783c 1ecc c53d
00000120: 8d2f 13bd c904 ef3b 7c27 8e3d 3017 9eba
00000130: db89 663d cd48 b8be 92b6 f53d 9f99 16bb
00000140: c35a be3d 9bb0 26bd b7df b1bb f46c bdbd
00000150: 6297 f93d 51fe 29bc f7f2 c9bb 6417 1e3c
00000160: 1fea b23a e730 373d 8bb2 e1bb 1bff 8b3e
00000170: 811f 98bb ddbe 3abc c1d5 28be 8c9e 7b3c
00000180: c9d0 bc3d b871 d43c 1080 8d3c 00be 1a3c
00000190: 9170 223c 4502 83bc 407f 0fbf ad56 81bc
000001a0: d423 21bc 22fc 5abe aeb5 f63a d2fe ce3b
000001b0: 0945 523c 695e a33b 4278 a2bd ec51 28bc
000001c0: 6687 03bc 3aed 13ba 3919 abbc bea4 acbc
000001d0: 3828 cabc 8a85 433c 246f ecbc cbcb 453c
000001e0: f849 b13a a522 093d 622e 943e 798a 553c
000001f0: ebe1 8c3c 71b4 793c 9590 2c3a 7701 703b
00000200: bca4 c23b 12b5 6c3c c9dd e3bd 443e ec3d
00000210: e3b7 43bd c424 26bb 96b1 193c 42fb afbc
00000220: b306 e93a 1b27 223c 9fbd 32bc cf9f 0fbc
00000230: 48c0 393c d826 b23a cba9 a7bc 3aa1 e3bc
00000240: 73b4 453a 4dbd 09bc 5e51 e6bb 518b 363b
00000250: 2a13 073c 65d8 41bc cfcd 213c 3ed1 08bc
00000260: eaec cabc 632d 163c 89eb f83b ba4a 6cbb
00000270: da78 ad3c 5ff8 553c 09b7 a03c 489d 03bc
00000280: d0b5 56bc f666 753b b734 e3bd af4c c23b
00000290: 94a0 9f3c d3bb 5bbc 7551 cbbb 705f a83c
000002a0: addd 6c3d 4555 023d 90af 7a3c e4c9 8f3d
000002b0: 7588 a5bc ee66 223c 8378 a43c 5735 633d
000002c0: cf0e 23bb 6056 893d cbba 0b3b 1ced 2bbb
000002d0: 41f6 613d 9f87 84bb 5a35 b53c dd3f a53c
000002e0: a887 193c cf9a 2a3d 3ad7 a43d 4974 fc3a
000002f0: 1779 073d f765 593c 30c4 92bb e6d7 173e
00000300: adbd 413d dcdc 2dbe c406 f3bc 854c 7a3c
00000310: 3e17 fc3c 0b9f ee3c e285 e13b e014 593d
00000320: ffb1 0abd 3c74 c63b fc07 20bd 78fd 40bb
00000330: 0dc1 733d 0039 14bd 9c2d b1bd 7bd9 a53c
00000340: e049 23bd 49d8 9d3d 43c6 aabb ed50 c4bd
00000350: 11cb 34bd d871 87bb c2b8 e9bb bfbb 493b
00000360: 582f f43a 2e71 98bc 687a aebb 44b1 cabc
00000370: 0f3b 88bb 8817 48bc 7ed1 d33d 125f f23b
00000380: 021e 313d b096 99ba 0287 343c fa26 7b3b
00000390: 6d7a 9a3c 2fff 9c3c d651 5dbd ab02 b53c
000003a0: 649d 793c 199c 2d3d 2651 5739 d07d 583c
000003b0: 4a65 1bbd 3df0 39bc 4032 863d b5e6 183c
000003c0: f67a 763c 4e2b 04bc 8ab0 bf3d 230a b53c
000003d0: ed38 ed3c 1507 a2bc 6bc7 c73c 16cd 603c
000003e0: f686 943b 65dd 35bc e36d fbbc 3048 b4bb
000003f0: b437 86bc 4d8b 58bb 8ed8 0fbc 3a4e b4ba

action_model._discrete_distribution.branches.1.bias f4 [3]
-0.25966585 -0.04532172 0.28545263
00000000: ecf2 84be 45a3 39bd d926 923e

action_model._discrete_distribution.branches.1.weight f4 [3, 128]
0.023628427 -0.042148087 -0.0020724908 -0.50459665 0.13585821 0.040271338 0.034830015 0.018667461
-0.018793764 -0.0010638894 0.0077837096 -0.0066230013 -0.008028064 -0.021021862 -0.01757759 -0.0011748231
-0.032100394 -0.00032617679 -0.0045359028 0.0014512351 0.032428205 0.0050907345 -0.023000218 0.01995499
-0.010558781 0.024526546 0.0144304475 -0.007990069 -0.21182893 0.02470224 0.004720317 -0.0026555038
-0.012490554 -0.052802056 0.18056813 0.027308598 0.01420586 0.0024567214 -0.025419898 -0.019584764
-0.0019902268 -0.13767712 0.0028864217 -0.12796862 -0.014663035 0.029978262 0.0028369986 -0.0026945854
-0.0019275683 -0.09515339 -0.002539882 0.004632338 -0.10621522 0.024688572 0.02171764 -0.02668907
-0.0053445906 0.09224082 -0.18575266 0.03428373 -0.15491083 0.021641778 0.010973856 0.09833549
0.07516209 0.004014635 -0.5343771 -0.028579202 0.07746965 0.0012185525 -0.006402197 0.052558143
0.04375478 -0.00078443234 0.19290085 -0.004544428 -0.025499795 0.010160496 -6.910496e-05 -0.030251764
-0.33293277 0.03980289 -0.003544237 0.13001688 -0.09144019 -0.0075789196 0.014499058 0.0114829885
0.0035180526 0.002946871 0.0007607406 -0.2194505 0.037737682 -0.019142449 -0.06287016 -0.024378227
-0.32957694 0.024101129 -0.019107286 0.026549662 0.0007344852 0.013044928 -0.007727314 -0.0038276636
-0.002389451 -0.0224155 -0.011198841 -0.02124532 -0.013431808 0.012440665 0.1074396 0.0035285032
-0.016842537 0.007993124 0.022343231 -0.02446177 0.0072965794 0.017972702 0.0038711329 -0.018014323
-0.00077259657 0.006546753 0.22437981 -0.0042808163 0.008876108 0.0016983602 0.01335808 0.0022782355
-0.0020605572 0.025316415 0.046062555 0.154902 0.090053365 -0.007424424 -0.001342507 0.01858221
0.010415469 0.017594175 -0.0022505454 -0.0037812714 0.019524617 -0.00074832875 -0.0006919517 -0.0011115739
0.0014063837 0.020329874 0.003010657 -0.010295764 -0.0030337363 0.010317731 -0.05158897 -0.024879495
-0.0032925808 -0.0046979855 0.01682728 0.019429658 0.09133297 -0.0072086942 0.016684692 0.010632118
0.004132619 0.04606108 -0.121491134 -0.012526001 0.003989858 0.007534458 0.011306674 0.023584425
0.00025215343 0.132809 -0.0047517875 0.026370095 0.027067818 -0.009679759 0.017436272 -0.012751954
0.011818879 -0.03636376 -0.013636382 0.022399453 0.13410297 -0.014530801 -0.012306233 0.02201894
-0.004535319 0.0654421 -0.007079456 -0.014543305 -0.022357304 0.012682312 0.0064898827 -0.09590334
-0.08513656 -0.1067112 0.0072463914 0.010027827 -0.013572835 -0.00019201914 -0.016458398 -0.08411394
-0.007996329 0.005878069 0.027527245 -0.00727759 0.035613615 0.028288968 -0.08036165 0.019612195
0.12274922 0.04426934 0.034989983 -0.08501672 -0.008962318 0.02713028 0.00921108 0.02030317
-0.0075689335 0.0060011446 0.024770897 0.03651897 -0.03326332 -0.016359 0.09411516 0.0059092836
0.06686204 -0.0032950507 0.029862398 0.005460168 -0.0017474543 0.0059392746 0.03814524 0.016296286
-0.0077335523 -0.040926464 0.0043920614 0.020054093 -0.003533539 0.014806513 -0.042634573 -0.0025622013
0.022666682 -7.7990735e-05 -0.060597442 0.01480972 -0.019173888 -0.009362935 -0.0038966143 -0.00027301835
0.012659584 0.020906657 0.014415978 0.011650224 -0.003149392 -0.0056008026 -0.020302908 0.0063550672
00000000: 6790 c13c 79a3 2cbd a0d2 07bb 3f2d 01bf
00000010: 6a1e 0b3e 8ff3 243d eba9 0e3d 81ec 983c
00000020: 61f5 99bc 3472 8bba 7d0e ff3b c305 d9bb
00000030: 2488 03bc 0a36 acbc e1fe 8fbc 86fc 99ba
00000040: b47b 03bd b502 abb9 e9a1 94bb 5f37 be3a
00000050: 70d3 043d 2dd0 a63b f46a bcbc a678 a33c
00000060: bdfe 2cbc e5eb c83c af6d 6c3c c7e8 02bc
00000070: afe9 58be 5a5c ca3c e4ac 9a3b f607 2ebb
00000080: 2ea5 4cbc f846 58bd dae6 383e 48b6 df3c
00000090: b2bf 683c f200 213b 643d d0bc 3a70 a0bc
000000a0: 776e 02bb 3bfb 0cbe 1f2a 3d3b 350a 03be
000000b0: 3a3d 70bc f994 f53c f0ec 393b a497 30bb
000000c0: 76a6 fcba c8df c2bd 2674 26bb deca 973b
000000d0: 5e87 d9bd b03f ca3c 31e9 b13c 09a3 dabc
000000e0: ad21 afbb c1e8 bc3d f235 3ebe 196d 0c3d
000000f0: f2a0 1ebe 194a b13c b0cb 333c 1e64 c93d
00000100: 95ee 993d 338d 833b f0cc 08bf ee1e eabc
00000110: 68a8 9e3d d6b7 9f3a 85c9 d1bb 3547 573d
00000120: 3638 333d 5da2 4dba cd87 453e 6de9 94bb
00000130: f2e4 d0bc 3678 263c 71ec 90b8 8cd2 f7bc
00000140: 2a76 aabe 5b08 233d 6e46 68bb 2523 053e
00000150: ff44 bbbd 9658 f8bb 758d 6d3c 2523 3c3c
00000160: 218f 663b 4b20 413b 706c 473a a2b7 60be
00000170: d492 1a3d a0d0 9cbc 12c2 80bd d9b4 c7bc
00000180: 4fbe a8be bb6f c53c e286 9cbc ad7e d93c
00000190: 788a 403a 65ba 553c 6835 fdbb 8ad9 7abb
000001a0: 5698 1cbb b6a0 b7bc 587b 37bc aa0a aebc
000001b0: 1611 5cbc eed3 4b3c 4b09 dc3d 763e 673b
000001c0: 5cf9 89bc 98f5 023c 2709 b73c 0d64 c8bc
000001d0: 2518 ef3b 7d3b 933c d5b2 7d3b c692 93bc
000001e0: 1488 4aba 2586 d63b d2c3 653e 1746 8cbb
000001f0: 186d 113c 839b de3a d9db 5a3c 734e 153b
00000200: 6a0a 07bb 5f64 cf3c 17ac 3c3d a19e 1e3e
00000210: e66d b83d 9548 f3bb 0ff7 afba b839 983c
00000220: a5a5 2a3c a921 903c e37d 13bb 35cf 77bb
00000230: 17f2 9f3c 7e2b 44ba 1864 35ba 3bb2 91ba
00000240: 6856 b83a d68a a63c 714e 453b 90af 28bc
00000250: a6d1 46bb b30b 293c f54e 53bd 15d0 cbbc
00000260: 57c8 57bb 8ff1 99bb 5dd9 893c f22a 9f3c
00000270: c80c bb3d e936 ecbb 56ae 883c 5632 2e3c
00000280: ec6a 873b 8baa 3c3d 58d0 f8bd db39 4dbc
00000290: 5bbd 823b 9de3 f63b a13f 393c 2034 c13c
000002a0: 7633 8439 15ff 073e e2b4 9bbb 1906 d83c
000002b0: 54bd dd3c da97 1ebc 83d6 8e3c 92ed 50bc
000002c0: f9a3 413c 2af2 14bd 226b 5fbc 0f7f b73c
000002d0: 4a52 093e 9912 6ebc 15a0 49bc 1061 b43c
000002e0: 039d 94bb 8206 863d c8fa e7bb 0b47 6ebc
000002f0: aa26 b7bc 79c9 4f3c 15a9 d43b f868 c4bd
00000300: 145c aebd 678b dabd 2373 ed3b c14b 243c
00000310: 9960 5ebc bf58 49b9 c3d3 86bc ee43 acbd
00000320: 0903 03bc d19c c03b d180 e13c da78 eebb
00000330: 95df 113d 44be e73c a694 a4bd c1a9 a03c
00000340: f163 fb3d c453 353d a851 0f3d 3f1d aebd
00000350: b0d6 12bc 5240 de3c 12ea 163c d552 a63c
00000360: d104 f8bb 40a5 c43b 56ec ca3c ea94 153d
00000370: 1e3f 08bd 4f03 86bc 73bf c03d aaa2 c13b
00000380: f7ee 883d c7f1 57bb fda1 f43c 35eb b23b
00000390: d60a e5ba 3f9e c23b 2f3e 1c3d ca7f 853c
000003a0: bd69 fdbb 82a2 27bd 48eb 8f3b 7b48 a43c
000003b0: f292 67bb 0497 723c 97a1 2ebd 9bea 27bb
000003c0: 7aaf b93c f58e a3b8 0635 78bd 78a4 723c
000003d0: 8f12 9dbc ff66 19bc 575e 7fbb e723 8fb9
000003e0: 256a 4f3c 7044 ab3c ff30 6c3c 95e0 3e3c
000003f0: 0866 4ebb f086 b7bb 4952 a6bc 2b3e d03b

discrete_action_output_shape f4 [1, 2]
3.0 3.0
00000000: 0000 4040 0000 4040

network_body._body_endoder.seq_layers.0.bias f4 [128]
-0.06611306 -0.46509272 -0.4405802 -0.42350826 -0.06381585 -0.031767808 -0.035153553 -0.6028652
-0.4023742 -0.09261846 -0.427506 -0.032106284 -0.054143615 -0.1547358 0.0007150474 -0.14927852
-0.077390954 -0.029835686 -0.43494937 0.0027513858 -0.22979163 -0.13740402 -0.2037296 0.012000628
-0.41046697 -0.29776075 -0.32894322 -0.4461518 -0.3678117 -0.19853908 -0.011932986 -0.23221889
-0.14977983 -0.23526275 -0.23619856 -0.46829012 -0.06842281 -0.10699477 -0.09419781 -0.044469547
-0.10103025 -0.0017844789 0.0033885273 -0.22266255 -0.4332173 0.023446139 -0.15187646 -0.32956693
-0.248222 -0.1364622 -0.3769383 -0.32845187 -0.39528742 -0.09173689 -0.019803854 -0.028226227
-0.24811196 -0.43599674 -0.0036039108 -0.22154298 -0.07068376 -0.49363518 -0.029277174 -0.12284472
0.024010062 -0.42330882 -0.031038746 -0.0032878406 0.014153001 -0.26564562 -0.015322164 -0.32891357
0.007600907 -0.18588033 -0.31669587 -0.36795416 -0.02516122 -0.21341123 -0.46722245 -0.21213053
-0.7846513 -0.3840878 -0.41554967 -0.038486406 -0.39249465 -0.10312797 -0.51984996 -0.04745939
-0.058654156 0.004771691 -0.35941973 -0.15721552 -0.062385973 -0.17018992 -0.36746907 -0.08756572
-0.025998954 -0.41803417 -0.058632474 -0.045822613 -0.35715237 -0.014606541 -0.11580339 -0.2075725
-0.026142288 -0.34638667 -0.3491985 -0.3865324 -0.034909885 -0.035083156 -0.008949277 -0.011069992
-0.21192735 -0.044876285 0.005644288 -0.16836861 0.0036507694 -0.022478715 -0.18142034 -0.22269677
-0.047623295 -0.17980075 -0.34626892 -0.104863636 -0.40586108 -0.020931762 0.019807665 -0.13523138
00000000: 4966 87bd a220 eebe ba93 e1be 13d6 d8be
00000010: e2b1 82bd f61e 02bd 2cfd 0fbd 6055 1abf
00000020: fe03 cebe bfae bdbd 11e2 dabe e181 03bd
00000030: b2c5 5dbd 1073 1ebe 0572 3b3a 78dc 18be
00000040: 267f 9ebd f869 f4bc afb1 debe 9850 343b
00000050: 7f4e 6bbe a4b3 0cbe 7e9e 50be 489e 443c
00000060: ba28 d2be 1974 98be 3f6b a8be 026e e4be
00000070: d151 bcbe d44d 4bbe 9282 43bc caca 6dbe
00000080: e25f 19be b8e8 70be 09de 71be b9c3 efbe
00000090: 4221 8cbd 1320 dbbd c8ea c0bd b325 36bd
000000a0: f3e8 cebd 2de5 e9ba 0e12 5e3b a701 64be
000000b0: a8ce ddbe 1e12 c03c 8185 1bbe ffbc a8be
000000c0: e82d 7ebe bfbc 0bbe 0ffe c0be d82a a8be
000000d0: 1d63 cabe 8de0 bbbd b13b a2bc b03a e7bc
000000e0: 1011 7ebe f73a dfbe 972f 6cbb 2adc 62be
000000f0: a6c2 90bd c0bd fcbe afd6 efbc 0396 fbbd
00000100: c0b0 c43c efbb d8be f844 febc d078 57bb
00000110: fde1 673c b402 88be d009 7bbc 5c67 a8be
00000120: 0711 f93b 6a57 3ebe f625 a2be 7d64 bcbe
00000130: e71e cebc 7988 5abe c837 efbe bf38 59be
00000140: e8de 48bf 28a7 c4be edc2 d4be eca3 1dbd
00000150: 0ff5 c8be c234 d3bd e314 05bf c764 42bd
00000160: 573f 70bd d85b 9c3b dd05 b8be 1bfd 20be
00000170: 6f88 7fbd 4446 2ebe e824 bcbe a855 b3bd
00000180: c2fb d4bc 9308 d6be 9b28 70bd 7eb0 3bbd
00000190: addc b6be 4650 6fbc 542a edbd e38d 54be
000001a0: 5a28 d6bc 9859 b1be 25ca b2be 93e7 c5be
000001b0: abfd 0ebd 5bb3 0fbd fd9f 12bc e95e 35bc
000001c0: 7c03 59be 32d0 37bd b8f3 b83b d268 2cbe
000001d0: bf41 6f3b 4825 b8bc 41c6 39be 9f0a 64be
000001e0: a510 43bd b01d 38be 294a b1be bfc2 d6bd
000001f0: 06cd cfbe 1679 abbc af43 a23c 187a 0abe

network_body._body_endoder.seq_layers.0.weight f4 [128, 13]
0.3736471 0.013614812 0.021859542 0.03717868 -0.2752262 0.016589507 -0.14152002 0.07685013
0.38477546 -0.011734873 0.016886232 -0.017924037 -0.092861876 -0.68198013 -0.19720304 0.28173494
-0.54564995 -0.109782204 -0.088389404 0.22062998 -0.26881674 -0.35264862 0.09303203 0.20458524
0.29745796 -0.07249204 -0.1070102 -0.10464878 0.056301393 -0.18420875 0.16929708 -0.306016
-0.40626657 0.14757997 -0.09506218 -0.059075218 0.0027448365 -0.003277958 -0.057209704 0.32871217
-0.030992445 -0.33771417 -0.1225805 -0.020740272 0.40187174 -0.015898375 0.056571197 0.06103365
0.088281274 -0.13744247 -0.31440356 -0.18935381 0.07932667 0.31016988 0.34526038 0.13869514
0.34746605 0.053353194 0.17023799 0.007125903 0.46945524 -0.80309194 -0.53665274 0.13606182
-0.5546597 0.028782627 -0.13038385 0.0064701033 -0.038887545 -0.37746862 -0.024830284 -0.056142993
0.0860085 -0.08290531 -0.019299276 0.030055186 0.030969737 -0.02179194 0.04998664 -0.15785342
0.05970957 0.019780194 0.25984484 0.0115465 -0.20574391 0.19028895 -0.03870131 -0.004107743
0.015964996 0.029222636 -0.026669053 -0.14459862 0.15839422 -0.25995868 -0.45460182 -0.1399485
0.09804155 -0.364158 -0.44242138 0.31553552 0.1730775 0.3109788 0.16712691 0.55981857
0.13711342 -0.32341924 -0.21955465 -0.13087325 -0.06390522 0.17070322 -0.076652765 -0.18319961
0.28528145 0.07111436 0.015640266 -0.2967039 -0.28090724 -0.63995534 -0.11123417 -0.31718525
-0.96968406 0.029156068 0.39271826 0.017604042 -0.004389442 -0.38460013 -0.18174557 0.056238744
0.2534779 -0.06441845 -0.21549812 -0.26153997 0.12433358 0.303481 0.25310117 -0.22255778
-0.22918148 -0.15971997 0.15488185 0.055833198 -0.40482625 0.55755866 0.2987457 0.15274167
-0.29669893 0.023675453 -0.060631957 0.5705707 0.1407238 -0.05458207 0.12357967 0.104726896
-0.04821204 0.10334427 0.050483204 -0.23069946 0.023165306 0.009813514 0.107365236 0.063333645
0.15104951 -0.058875486 0.1039409 -0.25795233 0.3727103 -0.011278458 0.11240904 -0.025943104
-0.21102081 0.24218361 -0.0798765 0.154681 0.13611849 -0.28248176 -0.035938684 -0.39776134
0.2875836 -0.013456716 -0.063935414 0.031966448 0.09506574 0.106632665 0.112691596 -0.020425096
-0.0045265113 0.032775465 0.089326486 0.04194848 -0.041983016 -0.023072891 0.098089695 -0.0032611003
-0.036982168 0.033661358 -0.030929537 -0.12921993 -0.16474572 0.026086306 -0.11602458 -0.37854767
-0.035832513 -0.31430274 0.5566531 0.07118577 0.09791014 0.12705396 -0.0116144465 -0.51216197
-0.1358322 0.029094975 -0.17249055 -0.1476238 0.63994443 8.2511564e-05 0.23225331 -0.19055219
0.0034424476 -0.013947335 0.06926835 -0.039876148 -0.1232706 0.15686123 -0.04301691 0.044928335
0.027118893 -0.39230648 -0.026703065 -0.031503443 -0.12814605 0.31109232 -0.04071163 0.06942726
0.0026127019 -0.17527448 0.16865471 0.209871 0.024090992 -0.10750442 0.13275313 -0.17755406
-0.23109928 0.4386697 -0.26598954 -0.06536411 0.063920744 0.051804498 -0.42794785 0.0930814
0.024569798 -0.04103424 0.022620339 -0.27059627 0.026173608 -0.025575576 -0.0070308438 0.06483823
00000000: ac4e bf3e a910 5f3c c812 b33c ac48 183d
00000010: 73ea 8cbe b8e6 873c a0ea 10be 9a63 9d3d
00000020: 4a01 c53e a043 40bc ff54 8a3c 6ed5 92bc
00000030: 5e2e bebd 4096 2ebf 98ef 49be 903f 903e
00000040: b7af 0bbf 7ed5 e0bd 8105 b5bd d3ec 613e
00000050: 59a2 89be 5c8e b4be 9487 be3d cb7e 513e
00000060: 694c 983e b576 94bd 2a28 dbbd 1952 d6bd
00000070: 4a9c 663d 38a1 3cbe 375c 2d3e 21ae 9cbe
00000080: 2c02 d0be 341f 173e f6af c2bd dbf8 71bd
00000090: b7e2 333b 02d3 56bb b954 6abd f64c a83e
000000a0: dee3 fdbc dfe8 acbe 7c0b fbbd 81e7 a9bc
000000b0: 22c2 cd3e 4f3d 82bc 33b7 673d 6cfe 793d
000000c0: d0cc b43d b8bd 0cbe 81f9 a0be f7e5 41be
000000d0: 0576 a23d 96ce 9e3e f8c5 b03e 1906 0e3e
000000e0: 12e7 b13e e188 5a3d de52 2e3e 6880 e93b
000000f0: 705c f03e 6f97 4dbf 1362 09bf ca53 0b3e
00000100: 2efe 0dbf 8bc9 eb3c 5883 05be 2903 d43b
00000110: 8c48 1fbd 9143 c1be e168 cbbc 32f6 65bd
00000120: 3925 b03d 42ca a9bd 8419 9ebc 4b36 f63c
00000130: 3fb4 fd3c 0385 b2bc cbbe 4c3d 54a4 21be
00000140: 0692 743d 130a a23c 620a 853e 882d 3d3c
00000150: 88ae 52be 1bdb 423e 4485 1ebd 3f9a 86bb
00000160: 06c9 823c 4f64 ef3c 0f79 dabc a911 14be
00000170: 1832 223e 4e19 85be 92c1 e8be a94e 0fbe
00000180: 02ca c83d eb72 babe 0e85 e2be df8d a13e
00000190: 3a3b 313e 9d38 9f3e 5123 2b3e 4550 0f3f
000001a0: 7667 0c3e 3597 a5be efd2 60be a303 06be
000001b0: bde0 82bd d3cc 2e3e 20fc 9cbd ae98 3bbe
000001c0: 6910 923e 68a4 913d 0420 803c 93e9 97be
000001d0: 13d3 8fbe 1dd4 23bf bece e3bd 1b66 a2be
000001e0: 373d 78bf b5d8 ee3c 5e12 c93e 5a36 903c
000001f0: 4fd5 8fbb 4fea c4be 831b 3abe 995a 663d
00000200: dbc7 813e d2ed 83bd 8aab 5cbe 91e8 85be
00000210: 9ba2 fe3d dd61 9b3e 7a96 813e 30e6 63be
00000220: 8dae 6abe a28d 23be 5999 1e3e 5ab1 643d
00000230: 6345 cfbe 2abc 0e3f 32f5 983e 5068 1c3e
00000240: ece8 97be 06f3 c13c 3759 78bd ec10 123f
00000250: e619 103e 7391 5fbd 5717 fd3d 0e7b d63d
00000260: fd79 45bd 29a6 d33d 7ac7 4e3d 7b3c 6cbe
00000270: 2bc5 bd3c dcc8 203c 4ee2 db3d 12b5 813d
00000280: b9ac 1a3e 6c27 71bd f7de d43d 5412 84be
00000290: e2d3 be3e 48c9 38bc b636 e63d a286 d4bc
000002a0: d715 58be fbfe 773e 4a96 a3bd b264 1e3e
000002b0: a562 0b3e 73a1 90be 7134 13bd 60a7 cbbe
000002c0: 283e 933e 8f79 5cbc 92f0 82bd 40ef 023d
000002d0: d4b1 c23d 3a62 da3d daca e63d 8852 a7bc
000002e0: 2153 94bb 913f 063d cef0 b63d 2bd2 2b3d
000002f0: 62f6 2bbd 5c03 bdbc 40e3 c83d 2fb8 55bb
00000300: 9d7a 17bd 7ee0 093d f15f fdbc 3b52 04be
00000310: 1ab3 28be f3b2 d53c 4c9e edbd 00d1 c1be
00000320: 1dc5 12bd 4aec a0be d180 0e3f d8c9 913d
00000330: 1d85 c83d 6f1a 023e 854a 3ebc 0c1d 03bf
00000340: 9917 0bbe 9658 ee3c 5da1 30be b22a 17be
00000350: 66d3 233f 0f0a ad38 d0d3 6d3e 1d20 43be
00000360: b09a 613b 5d83 64bc 91dc 8d3d 2c55 23bd
00000370: 4c75 fcbd 3ba0 203e 8032 30bd c606 383d
00000380: 7128 de3c 65dc c8be 63c0 dabc c109 01bd
00000390: b838 03be 7e47 9f3e 3dc1 26bd e12f 8e3d
000003a0: dd39 2b3b 277b 33be d2b3 2c3e 6ce8 563e
000003b0: 795a c53c 472b dcbd 70f0 073e bbd0 35be
000003c0: 4aa5 6cbe 5199 e03e c82f 88be 9edd 85bd
000003d0: e1e8 823d f430 543d fb1b dbbe 76a1 be3d
000003e0: 9a46 c93c 8513 28bd 4a4e b93c 988b 8abe
000003f0: 096a d63c df83 d1bc fe62 e6bb e8c9 843d

network_body._body_endoder.seq_layers.2.bias f4 [128]
-0.1128103 -0.09589994 -0.20577416 -0.042156268 -0.59027374 -0.10617402 -0.01801864 -0.032620914
-0.09618843 -0.055302825 -0.03881119 -0.044578273 -0.060006212 -0.12678272 -0.024809686 -0.034065075
-0.15429288 -0.087944195 -0.21479838 -0.03343835 -0.011114485 -0.03029541 -0.3838884 -0.060254812
-0.081682384 -0.048777245 -0.08870372 -0.07482636 -0.2403087 -0.022240624 -0.0048978273 -0.090833046
-0.0191138 -0.06561467 -0.40217054 -0.054334387 -0.015593541 -0.10045576 -0.0233971 -0.064731024
-0.07713812 -0.5623142 -0.0876098 -0.31067535 -0.027937232 -0.05111613 -0.09069851 -0.10311277
-0.07941846 -0.57447594 -0.051465783 -0.044366535 -0.278667 -0.053245418 -0.103292026 -0.07014947
-0.081673175 -0.58486855 -0.11781005 -0.01267908 -0.4519169 -0.055046536 -0.029534057 -0.42162636
-0.24737316 -0.30526704 -0.05951102 -0.07677305 -0.48508915 -0.05701779 -0.07636713 -0.30114618
-0.16697814 -0.048822165 -0.4845343 -0.114019305 -0.09142918 -0.2753878 -0.05070263 -0.0423547
-0.13672073 -0.5956076 -0.07858736 -0.4787992 -0.2822289 -0.0024981748 -0.018797496 -0.10026813
-0.03772915 -0.058094162 -0.07686213 -0.4143613 -0.086312026 -0.002362102 -0.3861453 -0.03434774
-0.11923612 -0.1000939 -0.09818979 -0.08224799 -0.037479386 -0.034378197 -0.23150384 -0.09135573
-0.042941686 -0.34031385 -0.08247416 -0.070756815 -0.15719944 -0.14826934 -0.29029927 -0.016258055
-0.060159996 -0.02830286 -0.15939462 -0.0053172023 -0.058241256 -0.058241606 -0.062726684 -0.059740458
-0.073512256 -0.14861853 -0.6191256 -0.089080386 -0.11725983 -0.04804893 -0.06639253 -0.105798446
00000000: 1609 e7bd 3067 c4bd 76b6 52be 0dac 2cbd
00000010: 2e1c 17bf c471 d9bd d49b 93bc 829d 05bd
00000020: 71fe c4bd 3785 62bd 7bf8 1ebd b597 36bd
00000030: 13c9 75bd 54d3 01be af3d cbbc d287 0bbd
00000040: f4fe 1dbe 161c b4bd 1bf4 5bbe a7f6 08bd
00000050: 8719 36bc 142e f8bc 058d c4be c0cd 76bd
00000060: 1849 a7bd a6ca 47bd 4caa b5bd 903e 99bd
00000070: 7c13 76be f831 b6bc f47d a0bb ad06 babd
00000080: 8b94 9cbc fc60 86bd 4ce9 cdbe bc8d 5ebd
00000090: 0d7c 7fbc c0bb cdbd 46ab bfbc b391 84bd
000000a0: 97fa 9dbd d3f3 0fbf c46c b3bd d710 9fbe
000000b0: 9fdc e4bc 265f 51bd 24c0 b9bd ca2c d3bd
000000c0: 25a6 a2bd db10 13bf c9cd 52bd afb9 35bd
000000d0: 71ad 8ebe de17 5abd c58a d3bd 86aa 8fbd
000000e0: 4444 a7bd f2b9 15bf 6546 f1bd eabb 4fbc
000000f0: a761 e7be 7a78 61bd 68f1 f1bc 69df d7be
00000100: 644f 7dbe f64b 9cbe d4c1 73bd 303b 9dbd
00000110: 9b5d f8be 7c8b 69bd 5f66 9cbd d52f 9abe
00000120: 51fc 2abe c0f9 47bd e114 f8be f482 e9bd
00000130: 393f bbbd a1ff 8cbe 90ad 4fbd 1f7c 2dbd
00000140: 8500 0cbe bd79 18bf 69f2 a0bd 2b25 f5be
00000150: 4e80 90be 6bb8 23bb 35fd 99bc 6159 cdbd
00000160: e289 1abd 25f4 6dbd e469 9dbd 2a27 d4be
00000170: 5cc4 b0bd 7fcd 1abb d6b4 c5be 37b0 0cbd
00000180: 1132 f4bd 08fe ccbd bb17 c9bd a271 a8bd
00000190: fc83 19bd 27d0 0cbd 580f 6dbe b718 bbbd
000001a0: 9fe3 2fbd 9e3d aebe 36e8 a8bd f3e8 90bd
000001b0: e4f8 20be ebd3 17be 1ba2 94be 9d2f 85bc
000001c0: 546a 76bd 66db e7bc 5838 23be ed3b aebb
000001d0: 628e 6ebd c08e 6ebd d976 80bd 69b2 74bd
000001e0: 988d 96bd 752f 18be 047f 1ebf c76f b6bd
000001f0: ec25 f0bd f4ce 44bd cff8 87bd dbac d8bd

network_body._body_endoder.seq_layers.2.weight f4 [128, 128]
-0.12778409 0.038180165 0.10230401 0.117026135 0.068279035 -0.113511145 -0.05508264 0.040310714
-0.0016219125 0.06909557 0.11139068 0.17175314 -0.106261715 -0.035038512 -0.0045520747 0.066235386
0.054258473 -0.11064629 -0.017421683 -0.029601265 -0.07330102 -0.039269373 -0.06675768 0.09859238
-0.053141464 -0.04808346 -0.013323264 0.010336779 -0.2084943 0.061210517 -0.07697957 -0.1802206
0.00030700624 -0.14741682 -0.05528115 -0.0012625761 -0.026902184 -0.06458694 0.05069597 -0.080990255
-0.035714384 -0.020644173 0.023923371 0.0047714245 -0.08220027 -0.09854762 0.154455 0.115107425
-0.0930459 0.02592253 -0.0060501075 -0.02273641 0.12475967 0.057044696 -0.14737512 0.0032874478
-0.02050221 -0.074961886 -0.09436479 0.00885079 0.04926555 0.07498114 0.089778446 -0.06756607
-0.02465036 0.05005846 -0.15930393 -0.16104998 0.019844258 -0.18355395 -0.061079238 -0.02382096
0.083190344 0.035336055 -0.053669166 -0.14266796 -0.02501636 -0.033378642 -0.1040321 0.014842318
-0.04408948 0.10250509 -0.15815157 0.0076915193 -0.04835756 -0.020222643 -0.027223736 -0.04726709
-0.026662324 0.025496941 -0.08710231 0.016572198 0.07806082 0.10544135 -0.24940853 0.024251556
0.03531516 -0.11974937 -0.08957374 0.15915972 -0.040336918 -0.05698021 -0.0020547581 0.03684963
0.14117904 -0.016937936 -0.0293521 0.06380569 0.11520481 -0.06661222 0.009044798 0.12340195
-0.091640845 0.06151841 -0.16869678 -0.0063394676 -0.13039474 0.05529327 -0.09509939 0.06538184
0.02417973 -0.08013554 0.05669054 -0.056573134 -0.042726144 -0.030026957 -0.08022519 0.010876222
-0.007430026 -0.19767518 -0.08316726 0.16121759 -0.12161166 0.032406304 -0.00019593409 -0.0047774883
-0.008548739 -0.044726226 0.08925826 0.118236326 0.01888631 0.00085447537 -0.09997844 -0.006426581
0.085678756 0.1264201 -0.06471332 -0.040228248 -0.06352179 0.011322736 0.018577278 0.045776825
0.057098754 0.06064534 0.061054833 -0.12781984 -0.02471776 0.09110802 0.04385592 -0.048644777
-0.053977463 -0.06522443 0.035920527 -0.058758523 0.10626694 0.11989981 0.032250587 -0.007079515
0.06288113 0.08713028 0.058736783 0.051368736 0.11888154 0.20044762 0.009874443 -0.028390234
-0.030123536 -0.18117113 0.097825006 -0.017076207 0.01415593 0.048819896 0.009516653 0.07068616
-0.10725503 -0.0004402771 -0.033846416 0.02761171 -0.034727618 -0.07386165 -0.033294294 0.028256021
-0.16685131 -0.0144055085 0.146578 -0.0179937 0.045371536 0.10114758 -0.15469667 -0.032578427
0.01953649 -0.17332894 -0.012913491 -0.0409265 -0.073496684 0.14080742 -0.01668668 0.020386867
0.008104315 0.022584148 0.0020566536 -0.06565186 -0.006308669 -0.09428737 -0.01007535 0.031327087
-0.07930252 -0.08326118 -0.10425892 -0.09239698 0.061901793 -0.08800157 -0.04204095 0.024378242
0.07099016 -0.1573072 -0.031048723 0.01162283 -0.106682345 0.082306154 -0.060693055 0.042047456
0.07387393 -0.12650064 0.015908271 0.004278062 0.124445714 -0.031852294 0.16685572 0.08025735
-0.03950896 0.065197065 -0.08405111 -0.09112015 -0.03706572 0.034347363 0.108555414 0.051975824
-0.18291502 0.07270298 0.1240866 0.033905774 0.023816032 -0.06638443 -0.024050713 -0.0447432
00000000: d5d9 02be ce62 1c3d c484 d13d 66ab ef3d
00000010: e1d5 8b3d 8878 e8bd 569e 61bd d91c 253d
00000020: 5a96 d4ba fa81 8d3d cc20 e43d 0ee0 2f3e
00000030: be9f d9bd 8b84 0fbd 9229 95bb 6ba6 873d
00000040: 223e 5e3d 869a e2bd ebb7 8ebc 5a7e f2bc
00000050: d81e 96bd ecd8 20bd 40b8 88bd cdea c93d
00000060: ddaa 59bd 2af3 44bd d249 5abc 985b 293c
00000070: 887f 55be e1b7 7a3d 77a7 9dbd c08b 38be
00000080: aef5 a039 6ff4 16be 7d6e 62bd 067d a5ba
00000090: f861 dcbc 2846 84bd 94a6 4f3d 38de a5bd
000000a0: 3f49 12bd f81d a9bc f2fa c33c 9c59 9c3b
000000b0: 9d58 a8bd 56d3 c9bd 7429 1e3e 71bd eb3d
000000c0: d98e bebd 7c5b d43c fb3f c6bb b541 babc
000000d0: ff81 ff3d b3a7 693d 81e9 16be 3972 573b
000000e0: 40f4 a7bc 9e85 99bd 5442 c1bd e702 113c
000000f0: acca 493d b68f 993d c3dd b73d 1460 8abd
00000100: 8def c9bc 1a0a 4d3d 9220 23be 49ea 24be
00000110: 6d90 a23c 91f5 3bbe 392e 7abd 2d24 c3bc
00000120: b35f aa3d 8abc 103d 33d4 5bbd 8d17 12be
00000130: 1cef ccbc 0bb8 08bd c80e d5bd 322d 733c
00000140: 2c97 34bd 30ee d13d 7cf2 21be 2409 fc3b
00000150: 9412 46bd f5a9 a5bc 5004 dfbc 239b 41bd
00000160: f26a dabc f6de d03c b262 b2bd 6bc2 873c
00000170: 5ade 9f3d a2f1 d73d f364 7fbe 33ab c63c
00000180: a1a6 103d 283f f5bd 7072 b7bd c4fa 223e
00000190: 5338 25bd 1564 69bd 1fa9 06bb a3ef 163d
000001a0: 3d91 103e 6dc1 8abc d173 f0bc 8fac 823d
000001b0: 80f0 eb3d fd6b 88bd a230 143c 29ba fc3d
000001c0: 32ae bbbd bafa 7b3d d9be 2cbe 4fbb cfbb
000001d0: 3386 05be 327b 623d 78c3 c2bd eae6 853d
000001e0: 9214 c63c 1a1e a4bd 5734 683d 3bb9 67bd
000001f0: 9c01 2fbd 18fb f5bc 1b4d a4bd 2e32 323c
00000200: 9377 f3bb 5d6b 4abe 9953 aabd 3916 253e
00000210: 890f f9bd 79bc 043d a873 4db9 7a8c 9cbb
00000220: 0310 0cbc d932 37bd 09cd b63d e325 f23d
00000230: 76b7 9a3c dffe 5f3a 7fc1 ccbd 1296 d2bb
00000240: 5878 af3d 4574 013e 6b88 84bd 60c6 24bd
00000250: b617 82bd ff82 393c 602f 983c 7b80 3b3d
00000260: 62e0 693d 3f67 783d a214 7a3d 34e3 02be
00000270: e67c cabc d796 ba3d 44a2 333d bf3f 47bd
00000280: 7917 5dbd 6394 85bd 6721 133d c7ac 70bd
00000290: 7ba2 d93d 088e f53d 3119 043d 47fb e7bb
000002a0: d2c7 803d 5c71 b23d fb95 703d 0668 523d
000002b0: 2a78 f33d 2442 4d3e 6ac8 213c a392 e8bc
000002c0: a2c5 f6bc ed84 39be 7a58 c83d 67e3 8bbc
000002d0: 46ee 673c 5ff7 473d bceb 1b3c e8c3 903d
000002e0: 86a8 dbbd fed4 e6b9 8aa2 0abd f431 e23c
000002f0: 8c3e 0ebd c744 97bd 995f 08bd 2c79 e73c
00000300: 12db 2abe 1505 6cbc 8b18 163e 8667 93bc
00000310: 81d7 393d 7626 cf3d ce68 1ebe f570 05bd
00000320: fd0a a03c 247d 31be 1b93 53bc 8ca2 27bd
00000330: 6e85 96bd d22f 103e 81b2 88bc 5c02 a73c
00000340: f6c7 043c 6402 b93c ecc8 063b 7b74 86bd
00000350: f4b8 cebb bd19 c1bd 1513 25bc d550 003d
00000360: 5c69 a2bd d684 aabd b385 d5bd a13a bdbd
00000370: bc8c 7d3d 2b3a b4bd 2233 2cbd e1b4 c73c
00000380: 4a63 913d 2315 21be e459 febc af6d 3e3c
00000390: 467c dabd 2190 a83d 4899 78bd f439 2c3d
000003a0: 374b 973d 6289 01be 1052 823c fc2e 8c3b
000003b0: 65dd fe3d 8d77 02bd 3adc 2a3e f75d a43d
000003c0: 26d4 21bd 0a86 853d fd22 acbd 349d babd
000003d0: 39d2 17bd d2af 0c3d 4d52 de3d 9ae4 543d
000003e0: 134e 3bbe 4de5 943d 1e21 fe3d c8e0 0a3d
000003f0: d719 c33c 8ff4 87bd 0006 c5bc a544 37bd

network_body.observation_encoder.processors.0.normalizer.running_mean f4 [13]
1134.786 559.4962 464.82556 779.82074 0.0 853.76514 504.1509 627.48804
1388.622 45.617214 34.998077 207.75737 151.4676
00000000: 27d9 8d44 c2df 0b44 ac69 e843 87f4 4244
00000010: 0000 0000 f870 5544 5113 fc43 3cdf 1c44
00000020: e793 ad44 0778 3642 08fe 0b42 e3c1 4f43
00000030: b577 1743
